cnn_gray_32_quant.tflite (tflite, 19040 bytes, 3 tensors)

sequential/dense/MatMul i1 [2, 1600] scale=0.0008503561 zero_point=0
-0.046769585 0.014456054 0.03061282 0.0034014245 -0.07653205 0.012755342 -0.06802849 0.008503561
-0.019558191 -0.036565315 -0.028061751 -0.05017101 -0.057824217 0.011054629 0.011904986 0.010204273
0.012755342 0.032313533 -0.045919232 0.022109259 -0.051871724 -0.05017101 0.03316389 -0.0034014245
-0.017007122 -0.0025510683 -0.04166745 -0.022959616 0.051871724 0.05017101 0.025510684 -0.020408547
-0.03741567 -0.024660328 -0.005952493 -0.0484703 0.040817093 0.03996674 -0.045068875 -0.024660328
0.028061751 0.013605698 -0.028061751 -0.025510684 -0.009353917 -0.0034014245 -0.049320657 0.036565315
-0.057824217 0.020408547 0.017007122 0.0034014245 0.039116383 0.021258904 0.032313533 0.044218518
-0.027211396 -0.019558191 0.013605698 -0.045919232 -0.03996674 -0.0008503561 0.049320657 -0.019558191
0.034014244 -0.0484703 -0.017007122 -0.021258904 -0.051871724 0.039116383 0.021258904 0.0025510683
-0.04336816 0.034014244 0.029762464 0.031463176 0.059524927 -0.047619943 0.051021367 -0.03061282
0.01530641 -0.029762464 0.0034014245 -0.028061751 -0.039116383 -0.05527315 -0.06292635 0.013605698
-0.054422792 -0.013605698 0.006802849 0.035714958 0.011904986 0.020408547 0.031463176 -0.060375284
0.049320657 -0.022959616 0.05272208 0.021258904 0.011904986 0.009353917 -0.0025510683 0.047619943
-0.046769585 -0.03316389 -0.012755342 0.0025510683 -0.021258904 0.009353917 0.06377671 0.0034014245
0.049320657 0.0484703 0.027211396 -0.0008503561 0.017857479 -0.0051021366 -0.051021367 0.0017007123
-0.060375284 0.03741567 0.0017007123 -0.056123503 -0.007653205 0.0034014245 0.040817093 0.035714958
0.008503561 -0.032313533 -0.039116383 0.013605698 -0.007653205 0.06377671 0.064627066 0.0042517805
-0.0042517805 0.028912108 -0.008503561 -0.023809971 -0.021258904 -0.047619943 -0.017857479 0.008503561
-0.044218518 -0.040817093 0.0348646 -0.046769585 0.035714958 0.0 0.016156767 -0.064627066
0.027211396 -0.035714958 0.014456054 -0.017857479 0.01530641 -0.018707834 0.03061282 0.011054629
0.0008503561 -0.014456054 -0.03061282 0.011054629 0.03996674 -0.016156767 0.011054629 0.035714958
-0.05017101 -0.05017101 0.036565315 0.05017101 -0.0348646 0.045919232 -0.005952493 -0.006802849
-0.046769585 -0.03996674 0.06122564 -0.03316389 -0.005952493 0.0025510683 -0.025510684 -0.04166745
-0.035714958 -0.044218518 0.040817093 -0.058674574 -0.047619943 0.020408547 0.05017101 0.011054629
-0.005952493 0.029762464 0.025510684 0.005952493 0.032313533 0.022109259 0.047619943 0.0
0.012755342 0.018707834 0.03316389 -0.0042517805 0.0484703 -0.024660328 0.04336816 0.01530641
0.05017101 -0.071429916 -0.028912108 -0.038266025 0.03061282 -0.05697386 -0.047619943 0.024660328
-0.03316389 0.0008503561 0.068878844 0.045068875 0.0034014245 0.044218518 0.044218518 -0.05697386
0.02636104 -0.020408547 0.045919232 0.056123503 0.007653205 -0.06547742 -0.024660328 0.045919232
-0.045068875 0.007653205 -0.01530641 -0.045068875 0.024660328 0.06632778 -0.012755342 0.03061282
-0.051021367 -0.054422792 0.028061751 0.022959616 -0.007653205 0.01530641 0.023809971 0.058674574
-0.062076 -0.01530641 -0.04166745 0.017857479 0.03996674 0.020408547 0.049320657 -0.027211396
00000000: c911 2404 a60f b00a e9d5 dfc5 bc0d 0e0c
00000010: 0f26 ca1a c3c5 27fc ecfd cfe5 3d3b 1ee8
00000020: d4e3 f9c7 302f cbe3 2110 dfe2 f5fc c62b
00000030: bc18 1404 2e19 2634 e0e9 10ca d1ff 3ae9
00000040: 28c7 ece7 c32e 1903 cd28 2325 46c8 3cdc
00000050: 12dd 04df d2bf b610 c0f0 082a 0e18 25b9
00000060: 3ae5 3e19 0e0b fd38 c9d9 f103 e70b 4b04
00000070: 3a39 20ff 15fa c402 b92c 02be f704 302a
00000080: 0ada d210 f74b 4c05 fb22 f6e4 e7c8 eb0a
00000090: ccd0 29c9 2a00 13b4 20d6 11eb 12ea 240d
000000a0: 01ef dc0d 2fed 0d2a c5c5 2b3b d736 f9f8
000000b0: c9d1 48d9 f903 e2cf d6cc 30bb c818 3b0d
000000c0: f923 1e07 261a 3800 0f16 27fb 39e3 3312
000000d0: 3bac ded3 24bd c81d d901 5135 0434 34bd
000000e0: 1fe8 3642 09b3 e336 cb09 eecb 1d4e f124
000000f0: c4c0 211b f712 1c45 b7ee cf15 2f18 3ae0

sequential/conv2d/Conv2D i1 [32, 5, 5, 1]
127 -47 -43 117 54 44 25 -111
-92 14 21 46 -56 108 103 -110
-22 25 -50 -77 104 -55 -60 -80
59 75 -71 21 106 19 84 -127
45 -35 -100 -97 9 40 -82 100
-76 12 -63 74 23 -2 2 -36
-45 8 -79 83 101 -108 13 28
116 111 -48 15 -66 -62 61 -37
57 14 76 -127 -31 -70 16 104
-74 -97 -110 -6 -87 -35 117 71
59 30 -43 13 17 -109 -81 23
53 -120 115 52 -56 42 -127 64
10 -63 14 -1 -114 28 111 10
-21 -53 -113 126 75 -13 -61 58
14 -120 -82 -41 -6 32 -28 30
77 11 -127 8 116 -84 -35 8
104 57 29 31 -11 -92 -112 51
9 73 30 111 26 -88 -127 -119
78 97 88 -48 85 -62 -13 -127
-96 36 -101 -58 -6 3 -67 -56
-53 53 59 49 114 -48 -27 100
-37 -78 38 29 -120 -12 22 59
-1 -18 -69 -15 -21 -21 -70 40
-33 127 73 -71 -54 2 -90 -76
92 -75 79 123 -46 -100 30 -29
-84 106 -14 -61 27 -100 -92 99
78 -7 -26 82 -124 118 66 -55
127 -65 21 -105 72 61 -13 -2
68 43 14 28 -25 68 -90 -7
-62 88 -72 -12 -39 -79 2 127
-1 21 96 16 -104 -62 -19 -19
-54 79 52 106 -111 -18 -5 28
00000000: 7fd1 d575 362c 1991 a40e 152e c86c 6792
00000010: ea19 ceb3 68c9 c4b0 3b4b b915 6a13 5481
00000020: 2ddd 9c9f 0928 ae64 b40c c14a 17fe 02dc
00000030: d308 b153 6594 0d1c 746f d00f bec2 3ddb
00000040: 390e 4c81 e1ba 1068 b69f 92fa a9dd 7547
00000050: 3b1e d50d 1193 af17 3588 7334 c82a 8140
00000060: 0ac1 0eff 8e1c 6f0a ebcb 8f7e 4bf3 c33a
00000070: 0e88 aed7 fa20 e41e 4d0b 8108 74ac dd08
00000080: 6839 1d1f f5a4 9033 0949 1e6f 1aa8 8189
00000090: 4e61 58d0 55c2 f381 a024 9bc6 fa03 bdc8
000000a0: cb35 3b31 72d0 e564 dbb2 261d 88f4 163b
000000b0: ffee bbf1 ebeb ba28 df7f 49b9 ca02 a6b4
000000c0: 5cb5 4f7b d29c 1ee3 ac6a f2c3 1b9c a463
000000d0: 4ef9 e652 8476 42c9 7fbf 1597 483d f3fe
000000e0: 442b 0e1c e744 a6f9 c258 b8f4 d9b1 027f
000000f0: ff15 6010 98c2 eded ca4f 346a 91ee fb1c

sequential/conv2d_1/Conv2D i1 [64, 2, 2, 32]
37 68 21 100 -70 -57 -31 7
-54 -8 70 -47 -65 -34 -96 -43
45 -97 -40 91 57 -77 93 -6
-19 7 90 20 2 18 52 46
71 -24 -37 16 32 35 101 -98
98 38 68 4 111 -85 11 7
17 22 45 88 70 -43 -31 67
-50 -80 -21 -37 95 -27 40 -97
57 42 -35 127 -49 1 46 -64
-42 1 -90 -50 81 -4 -100 76
-23 44 -10 107 4 -23 65 -80
-52 -62 -76 -95 -2 -11 -90 23
77 -9 73 -52 -90 26 2 12
-27 -85 -6 36 10 53 -6 -71
20 14 -30 -22 34 80 -83 -75
-30 71 38 27 56 55 87 14
112 29 -17 -93 -23 -3 1 -74
-51 11 6 -42 83 5 64 -57
72 -50 104 51 -76 -83 -57 42
8 89 66 -11 29 100 91 64
-87 116 10 -103 13 61 -106 63
-33 -21 -4 40 -6 -19 99 53
83 -33 -63 11 -7 -64 84 97
72 113 84 -110 -74 -49 101 16
97 -75 11 -78 88 -37 -10 -127
-45 28 -104 16 81 50 -51 -86
122 43 25 30 -105 -47 -111 99
51 -25 106 99 -86 65 94 -12
-62 68 12 58 -56 38 7 73
-97 70 -11 -36 51 44 110 -100
-90 6 -109 -38 -73 -68 -10 55
62 -121 -5 -93 -30 -32 40 17
00000000: 2544 1564 bac7 e107 caf8 46d1 bfde a0d5
00000010: 2d9f d85b 39b3 5dfa ed07 5a14 0212 342e
00000020: 47e8 db10 2023 659e 6226 4404 6fab 0b07
00000030: 1116 2d58 46d5 e143 ceb0 ebdb 5fe5 289f
00000040: 392a dd7f cf01 2ec0 d601 a6ce 51fc 9c4c
00000050: e92c f66b 04e9 41b0 ccc2 b4a1 fef5 a617
00000060: 4df7 49cc a61a 020c e5ab fa24 0a35 fab9
00000070: 140e e2ea 2250 adb5 e247 261b 3837 570e
00000080: 701d efa3 e9fd 01b6 cd0b 06d6 5305 40c7
00000090: 48ce 6833 b4ad c72a 0859 42f5 1d64 5b40
000000a0: a974 0a99 0d3d 963f dfeb fc28 faed 6335
000000b0: 53df c10b f9c0 5461 4871 5492 b6cf 6510
000000c0: 61b5 0bb2 58db f681 d31c 9810 5132 cdaa
000000d0: 7a2b 191e 97d1 9163 33e7 6a63 aa41 5ef4
000000e0: c244 0c3a c826 0749 9f46 f5dc 332c 6e9c
000000f0: a606 93da b7bc f637 3e87 fba3 e2e0 2811
