dnn_gray_32_float.tflite (tflite, 795756 bytes, 12 tensors)

sequential/conv2d/BiasAdd/ReadVariableOp/resource f4 [32]
0.04197552 0.027569167 0.0070568947 0.04054274 0.04086026 -0.04295667 -0.04586788 0.040436186
0.040336784 0.025926972 0.024856422 -0.036200617 0.04334148 -0.04386146 0.038135417 0.010353821
0.028437546 -0.010702717 -0.048537042 0.044361934 0.03848909 -0.012019233 -0.0019296423 0.040364444
0.047743417 0.037077725 -0.013520319 -0.0046283114 0.046992954 0.05490367 -0.053906 -0.041389484
00000000: 86ee 2b3d bcd8 e13c 863d e73b 2510 263d
00000010: 175d 273d 55f3 2fbd f5df 3bbd 6aa0 253d
00000020: 2f38 253d cd64 d43c b29f cb3c 1947 14bd
00000030: d686 313d 13a8 33bd e233 1c3d 13a3 293c
00000040: dbf5 e83c 735a 2fbc c7ce 46bd dcb4 353d
00000050: bca6 1d3d 51ec 44bc 0dec fcba 3055 253d
00000060: 9a8e 433d d0de 173d 5484 5dbc 17a9 97bb
00000070: af7b 403d ace2 603d 8acc 5cbd 0588 29bd

sequential/conv2d_1/BiasAdd/ReadVariableOp/resource f4 [32]
-0.024495624 -0.0006800025 0.03177117 0.038641453 0.03064902 0.013279084 -0.025829563 0.031081418
0.040862616 -0.010070107 -0.03464772 -0.014392836 -0.036985118 0.014405054 0.017749872 0.045605548
0.0033340512 -0.018556956 -0.039942596 -0.019757729 0.042748332 0.021881502 0.030917136 0.04297311
-0.0017880097 0.033412613 -0.03307478 -0.03020631 -0.007252523 -0.04199623 -0.0130540095 -0.0400652
00000000: 0cab c8bc 3242 32ba 7d22 023d 8046 1e3d
00000010: a713 fb3c 8490 593c 8598 d3bc 759e fe3c
00000020: 8f5f 273d 17fd 24bc c5ea 0dbd eecf 6bbc
00000030: b57d 17bd 2d03 6c3c 2e68 913c e2cc 3a3d
00000040: 1980 5a3b c204 98bc d99a 23bd f6da a1bc
00000050: e018 2f3d d640 b33c ef45 fd3c 9204 303d
00000060: a65b eaba aadb 083d 6c79 07bd 3973 f7bc
00000070: 93a6 edbb 3d04 2cbd 7ce0 55bc 681b 24bd

sequential/conv2d_2/BiasAdd/ReadVariableOp/resource f4 [64]
0.005773885 -0.021096308 0.0134519525 -0.028119775 0.005467188 -0.009817346 0.023251586 0.024386203
-0.0072276033 0.026512137 -0.031087238 -0.017147265 0.036802195 -0.009183184 -0.02665687 0.01968196
-0.035092503 0.008577481 -0.018222533 -0.0075121885 0.0246991 -0.024741042 0.027933124 -0.040387187
0.025162136 0.0063022133 -0.0020899936 -0.02347948 -0.023848573 -0.024588764 0.0013550229 0.003979253
0.013973411 0.03361462 -0.010503867 0.039851695 -0.029156487 0.01071921 -0.030195357 0.018592367
0.010312236 0.013001918 -0.033475686 0.007975893 0.0045197937 0.014661246 -0.019470751 0.013410152
-0.00049568224 -0.020816008 0.014479205 -0.021185542 0.017207852 -0.023963114 -0.0176367 0.021112135
0.018867476 0.01640781 0.023620483 -0.038462646 0.02580014 -0.0024604425 -0.020774158 0.017212356
00000000: dc32 bd3b 2ad2 acbc 9465 5c3c 715b e6bc
00000010: 1926 b33b efd8 20bc 1c7a be3c 93c5 c73c
00000020: 88d5 ecbb fb2f d93c aaaa febc 6c78 8cbc
00000030: e6bd 163d 1175 16bc 825f dabc 103c a13c
00000040: 28bd 0fbd 9088 0c3c 6c47 95bc ce28 f6bb
00000050: c455 ca3c baad cabc 02d4 e43c 096d 25bd
00000060: d320 ce3c cc82 ce3b 46f8 08bb 0a58 c0bc
00000070: 155e c3bc 606e c9bc 069b b13a 6564 823b
00000080: bcf0 643c 7caf 093d 6918 2cbc 883b 233d
00000090: 96d9 eebc a09f 2f3c 415c f7bc 054f 983c
000000a0: a7f4 283c ff05 553c cd1d 09bd 52ad 023c
000000b0: c71a 943b b935 703c 2081 9fbc 41b6 5b3c
000000c0: acf0 01ba 5586 aabc 303a 6d3c 4d8d adbc
000000d0: 7bf7 8c3c 4b4e c4bc d77a 90bc 5bf3 ac3c
000000e0: f78f 9a3c ac69 863c be7f c13c 028b 1dbd
000000f0: d15a d33c 603f 21bb 912e aabc ed00 8d3c

sequential/conv2d_3/BiasAdd/ReadVariableOp/resource f4 [64]
-0.02695226 -0.010628041 0.0017226672 -0.023258498 0.021086939 0.012763038 -0.011197952 -0.0193048
0.01240493 -0.008114194 -0.030093033 -0.013309107 -0.0010999226 -0.02743323 -0.03823964 0.00860834
-0.025489904 0.0059108045 0.022660809 -0.022661021 0.013998667 -0.027674712 -0.026760852 -0.0017751984
-0.023158327 -0.016300827 -0.04965028 0.00820391 -0.020766739 0.012700245 0.020571629 -0.004071798
-0.0057597035 0.014973356 0.018370071 -0.0358029 -0.031282395 0.017548727 0.012823528 0.021902801
-0.006396571 0.008042361 -0.019074094 -0.015422454 -0.013272727 0.012630803 -0.0059517105 -0.026276339
-0.0134987645 -0.024487076 0.0014402681 -0.02771882 -0.019274086 -0.03727814 0.025421655 0.025335731
0.0025665676 -0.025661064 0.0034188132 -0.021612495 -0.009231686 -0.00084495696 -0.024737248 -0.01290393
00000000: fcca dcbc 3c21 2ebc 1fcb e13a 9b88 bebc
00000010: 84be ac3c 101c 513c 9d77 37bc 1a25 9ebc
00000020: 0c3e 4b3c 65f1 04bc aa85 f6bc 710e 5abc
00000030: 472b 90ba a7bb e0bc 2ba1 1cbd ff09 0d3c
00000040: 34d0 d0bc 6caf c13b 29a3 b93c 9ba3 b9bc
00000050: aa5a 653c 14b6 e2bc 9339 dbbc c6ad e8ba
00000060: 88b6 bdbc 5089 85bc 185e 4bbd b169 063c
00000070: 021f aabc b014 503c d585 a83c b86c 85bb
00000080: e5bb bcbb cf52 753c d57c 963c 10a6 12bd
00000090: f821 00bd 59c2 8f3c c619 523c 816d b33c
000000a0: 549a d1bb 1bc4 033c 4641 9cbc 76ae 7cbc
000000b0: da75 59bc 6df1 4e3c 9106 c3bb 7a41 d7bc
000000c0: ec29 5dbc 1f99 c8bc 61c7 bc3a 9412 e3bc
000000d0: b0e4 9dbc f7b0 18bd 1341 d03c e18c cf3c
000000e0: dc33 283b 2737 d2bc 2b0e 603b b00c b1bc
000000f0: 7f40 17bc 1a80 5dba c5a5 cabc 016b 53bc

sequential/dense/BiasAdd/ReadVariableOp/resource f4 [512]
-0.018433778 0.020842206 0.023747118 -0.022764077 -0.004872076 0.0062113525 -0.008267691 0.02159413
0.01624138 0.008806919 0.020583075 -0.021985529 -0.00031775804 -0.0060447054 -0.0052079144 0.0066403206
0.014893917 -0.026675826 -0.0037753328 0.012053925 -0.0017994101 -0.025230443 -0.009498176 -0.005743015
0.0048239087 -0.022243557 0.01795315 0.024401523 -0.0049034525 0.018476013 0.019169116 0.025362931
0.02056082 0.022474783 0.021341847 0.012028467 0.02224801 0.002909429 0.021275047 -0.0220681
0.009426443 0.0098108305 0.021697473 -0.019535298 -0.018065253 -0.0034776418 -2.0518082e-11 -0.0036361092
0.0015776854 -0.0016133976 -0.028425835 0.004311275 -0.02811232 -0.024665475 0.010158192 0.014604739
0.022223584 -0.02250111 -0.0040965234 -0.00094546075 0.017853117 0.026741643 0.020143121 -0.006503043
0.033409167 -0.010877527 0.013395118 0.008141989 -0.005777769 0.019230163 -0.019953664 0.025401302
0.016051585 0.0143324835 -0.022738878 -0.0072536273 0.010843128 -0.013308761 0.01694236 0.008997327
-0.02207484 -0.026092306 0.024176238 -0.02366994 0.021618396 -0.011729688 0.020319985 0.0058088056
0.02393256 -0.014180641 0.015369218 -0.013716184 -0.012253373 0.017953526 -0.005069358 0.024461133
-0.015323809 0.016791757 0.00014837473 -0.00521861 -0.0069998153 0.0041955956 0.014988172 -0.01794561
0.017975584 -0.027132444 -0.019052975 -0.00082334346 0.0 0.018220399 -0.004941092 -0.003920778
-0.013899753 0.023828508 -0.016693994 0.015264628 -0.009669808 0.011104479 -0.005354992 -0.020710878
-0.005471974 -0.017910007 0.008866366 -0.022093391 -0.021265553 0.0075522293 0.013888367 -0.0025293634
-0.023424372 -0.005191101 -0.005758625 0.012250631 0.013337971 0.025486985 -0.013015166 -0.006556269
-0.019434348 -0.014190297 0.014896736 0.006092505 0.007898957 -0.00654549 -0.003245421 -0.0018155326
0.002581259 0.024682855 0.017002739 -0.0030063912 0.014406027 0.020983253 -0.009817893 0.02354144
0.0109681245 -0.0045015593 0.015837662 0.016579855 -0.023053236 0.013552271 0.011252632 0.017692568
0.016745595 0.01713168 -0.01827061 0.008158949 0.0137828905 -0.0067769974 1.4446773e-06 0.01583423
0.019969398 0.0091899745 0.0 0.020884328 0.019805118 -0.02308076 -0.008298667 0.009518972
-0.007350728 -0.0170119 0.023623519 -0.012517166 -0.024721641 -0.024441658 -0.024544457 0.018658051
0.020441804 0.018226523 -0.014528373 0.025738072 -0.010144248 -0.009795788 -0.012111868 -0.004493778
-0.020706026 0.016441409 -0.0075273695 0.0009381076 -0.013322654 -0.0052415677 -0.019083736 -0.011141307
0.021427812 -0.009049018 0.016920295 -0.0037306994 -0.018592743 -0.0044495524 0.022413375 -0.014804232
-0.008383529 0.02542465 0.023481427 0.019014174 -0.021860983 0.019498935 -0.025824426 0.019111702
0.0014277423 0.011788337 -0.023291737 0.025738377 -0.0037507082 0.009320555 0.0075164763 -0.023625843
-0.01691306 0.021648785 -0.016053898 -0.02214251 -0.025978863 -0.02730975 0.01706969 0.018032668
0.024093162 -0.02240634 0.024938775 -0.0055508986 0.008272306 -0.004679021 -0.020626388 0.0066486793
0.011004683 0.020360194 -0.007947947 -0.023207461 -0.0032424962 -0.011924468 0.013060615 -0.023684908
0.013738769 -0.017219968 -0.020604854 0.0030527131 0.009936563 0.0028623343 -0.003284214 -0.024475642
00000000: 6f02 97bc 46bd aa3c 5189 c23c bb7b babc
00000010: f0a5 9fbb 9a88 cb3b 3675 07bc 2ce6 b03c
00000020: a40c 853c e54a 103c d69d a83c ff1a b4bc
00000030: c398 a6b9 aa12 c6bb 27a7 aabb 0c97 d93b
00000040: 9e05 743c 4387 dabc 936b 77bb d37d 453c
00000050: 2fda ebba 13b0 cebc 3d9e 1bbc e72f bcbb
00000060: e111 9e3b 1f38 b6bc 7c12 933c b4e5 c73c
00000070: 24ad a0bb 025b 973c 8d08 9d3c ecc5 cf3c
00000080: 2a6f a83c 091d b83c 19d5 ae3c 0c13 453c
00000090: 7541 b63c 1eac 3e3b 0249 ae3c 29c8 b4bc
000000a0: 5e71 1a3c 9bbd 203c e6be b13c 7d08 a0bc
000000b0: 95fd 93bc 26e9 63bb 9d7a b4ad ca4b 6ebb
000000c0: 56ca ce3a a478 d3ba 4cdd e8bc 9945 8d3b
000000d0: cf4b e6bc 400f cabc 8c6e 263c b748 6f3c
000000e0: 3c0e b63c 3f54 b8bc 213c 86bb ccd8 77ba
000000f0: b340 923c 4a11 db3c 3003 a53c 7b17 d5bb
00000100: 0dd8 083d a837 32bc 3277 5b3c fa65 053c
00000110: 7053 bdbb 9388 9d3c de75 a3bc 6416 d03c
00000120: 9d7e 833c cbd2 6a3c e246 babc d6af edbb
00000130: 60a7 313c fd0c 5abc b4ca 8a3c 8669 133c
00000140: 4bd6 b4bc 88bf d5bc 3f0d c63c 76e7 c1bc
00000150: 1019 b13c e12d 40bc 1976 a63c cb57 be3b
00000160: 370e c43c eb55 68bc 2ccf 7b3c d8b9 60bc
00000170: 5fc2 48bc 4613 933c db1c a6bb b762 c83c
00000180: b710 7bbc de8e 893c 0a95 1b39 e000 abbb
00000190: b55e e5bb 357b 893b f390 753c ac02 93bc
000001a0: 8841 933c dc44 debc fc14 9cbc a5d5 57ba
000001b0: 0000 0000 f242 953c e2e8 a1bb df79 80bb
000001c0: cabb 63bc 0134 c33c d8c1 88bc 7e18 7a3c
000001d0: 1d6e 1ebc 90ef 353c ee78 afbb dca9 a9bc
000001e0: 3f4e b3bb 02b8 92bc 3c44 113c 33fd b4bc
000001f0: 1935 aebc b178 f73b 098c 633c adc3 25bb
00000200: 78e4 bfbc 1d1a aabb d9b2 bcbb dfb6 483c
00000210: 8187 5a3c 15ca d03c 903d 55bc f8d5 d6bb
00000220: c834 9fbc 6b7e 68bc 7011 743c a3a3 c73b
00000230: a06a 013c 8d7b d6bb 21b1 54bb 2af7 edba
00000240: 572a 293b b333 ca3c 5449 8b3c e006 45bb
00000250: 4207 6c3c 12e5 ab3c 3adb 20bc fad9 c03c
00000260: a6b3 333c d181 93bb fcbd 813c 7ad2 873c
00000270: 24da bcbc 580a 5e3c f65c 383c 01f0 903c
00000280: 0f2e 893c bd57 8c3c 3fac 95bc 1dad 053c
00000290: a2d1 613c 9311 debb bce6 c135 cab6 813c
000002a0: dd96 a33c 8c91 163c 0000 0000 9c15 ab3c
000002b0: 583e a23c dd13 bdbc 22f7 07bc 76f5 1b3c
000002c0: 60de f0bb 8a5c 8bbc 1c86 c13c cd14 4dbc
000002d0: 0a85 cabc df39 c8bc 7511 c9bc c5d8 983c
000002e0: 9275 a73c ca4f 953c 6a08 6ebc a6d8 d23c
000002f0: 0f34 26bc 837e 20bc db70 46bc 8b40 93bb
00000300: af9f a9bc 22b0 863c 27a8 f6bb 56eb 753a
00000310: 4347 5abc 75c1 abbb 7f55 9cbc 078a 36bc
00000320: 6189 af3c 5542 14bc 6e9c 8a3c c07e 74bb
00000330: cf4f 98bc 8dcd 91bb 419c b73c 738d 72bc
00000340: 125b 09bc 5b47 d03c 1f5c c03c 9dc3 9b3c
00000350: ce15 b3bc 3bbc 9f3c bf8d d3bc 2590 9c3c
00000360: 1523 bb3a de23 413c 50ce bebc 4ad9 d23c
00000370: 71ce 75bb 3eb5 183c c64c f63b fc8a c1bc
00000380: 428d 8abc cb58 b13c 7783 83bc 3664 b5bc
00000390: a0d1 d4bc b2b8 dfbc bcd5 8b3c 3fb9 933c
000003a0: 065f c53c 808d b7bc 674c cc3c 50e4 b5bb
000003b0: 9188 073c 7952 99bb acf8 a8bc 2add d93b
000003c0: fc4c 343c 6cca a63c 1b38 02bc 931d bebc
000003d0: 0f80 54bb d85e 43bc 31fc 553c da06 c2bc
000003e0: 9318 613c e410 8dbc 83cb a8bc 0710 483b
000003f0: f7cc 223c 0096 3b3b f83b 57bb 2481 c8bc

sequential/dense_1/BiasAdd/ReadVariableOp/resource f4 [2]
0.023366496 -0.023366606
00000000: 186b bf3c 536b bfbc

sequential/dense/MatMul f4 [512, 256]
0.024897905 -0.053011168 0.053958815 -0.030325849 0.076802135 -0.057428904 0.076751 0.08458515
-0.026601242 -0.0884945 0.04596205 0.03797398 0.013623545 -0.046101406 0.017236292 -0.040335216
-0.00899943 -0.04617881 0.038381062 -0.02929814 -0.0059810085 0.09351551 -0.023881694 0.005741799
0.053593602 -0.07508905 -0.06665527 0.04959111 0.021145731 -0.030837711 -0.05076211 -0.0059144082
-0.064577095 0.014706418 0.05914658 0.052139346 -0.057979867 -0.036285024 -0.025625316 -0.014912588
-0.04593055 0.084179334 0.027917752 -0.04361284 0.022143366 0.003543849 -0.017296895 0.047456644
0.034928042 0.08138723 -0.08589138 -0.07644111 -0.012849304 0.05487868 -0.097298495 0.054687746
0.06556519 -0.058732346 -0.007811497 -0.04072478 0.041879386 -0.038403146 0.05090106 0.066442735
-0.085685 0.06964101 0.07199945 0.05832887 -0.05686555 -0.03343739 0.014655192 0.022334944
-0.0060010175 -0.0027173266 -0.056355916 -0.012022761 -0.028838253 -0.07034888 -0.07577774 0.04510044
-0.025666906 -0.06508639 -0.06558447 -0.0070771584 0.085009016 0.06505672 -0.004685289 0.042040024
0.085639425 0.09248772 0.077517115 0.092532374 -0.08205655 -0.020909514 -0.030056136 0.05373725
0.021153325 -0.037489958 0.05049763 0.008726456 -0.05315979 -0.0314709 -0.06692843 0.046245564
0.08263787 0.03433131 -0.076815054 0.013384861 0.033869483 0.016162721 -0.04849808 0.0724885
0.08713922 -0.07817682 0.07164979 -0.07788665 -0.0575411 0.03924929 -0.09348745 -0.05668462
-0.040922314 0.055684466 0.07733694 -0.01822232 0.08073177 -0.08460764 0.053504508 0.08599641
-0.09977167 0.06883717 0.055597194 0.004966236 -0.02209339 0.026729528 0.041631423 0.05351773
0.04243545 0.052832983 -0.052254416 0.082919635 0.052289817 0.049026653 -0.06915198 -0.07416681
-0.07424039 -0.06527514 -0.0046936763 -0.04160997 -0.10159067 -0.019963566 0.055761326 0.053900313
-0.024120426 0.03173576 -0.09213299 0.052576527 0.09263042 0.087919645 -0.0072958493 0.05905409
0.08553961 -0.014905696 0.046831723 -0.036888022 0.0735834 -0.008590057 0.07067385 -0.06290223
0.00932231 -0.057335753 0.025816523 -0.08029383 0.09513068 0.06466409 -0.05532916 -0.0035748207
0.061417732 -0.034930248 0.06662718 -0.095375136 -0.05431772 -0.08915725 -0.011797687 -0.04194151
0.064529955 0.05613423 0.10381047 0.03161359 -0.055697195 -0.035311636 -0.005982253 0.002991502
0.032675996 0.0011541208 -0.04120697 0.07751512 0.06811222 -0.0128951315 0.059521616 -0.09166982
0.001995463 0.08626825 0.07853596 -0.02617793 -0.05202699 -0.010702769 0.0059263287 -0.05066935
0.024625495 0.04181917 -0.050957352 0.02772879 0.0704023 0.06198059 0.052059215 0.07513163
-0.051708348 0.07317554 0.03393659 0.042045422 -0.06537951 -0.074541055 -0.06284071 0.007999906
0.08798561 0.003787258 -0.031212378 0.07142548 -0.048461687 -0.03736207 -0.0031712865 -0.055507798
-0.06576976 -0.025374763 0.071864285 -0.051665433 0.07006163 -0.08457446 -0.008093208 -0.010971031
-0.073410966 -0.028808475 -0.08770668 0.041651007 -0.066608764 0.06299062 -0.036113303 0.046047434
0.056718454 -0.036564343 0.013423315 0.057306547 0.030436205 0.05182904 -0.06550874 -0.018000811
00000000: b1f6 cb3c 3d22 59bd eb03 5d3d ea6d f8bc
00000010: 704a 9d3d 923a 6bbd a12f 9d3d fb3a ad3d
00000020: d9ea d9bc 9b3c b5bd b442 3c3d 9b8a 1b3d
00000030: 4a35 5f3c d4d4 3cbd 2033 8d3c 8a36 25bd
00000040: 5872 13bc fe25 3dbd 7635 1d3d a702 f0bc
00000050: 56fc c3bb 0f85 bf3d 8ba3 c3bc b325 bc3b
00000060: f784 5b3d 4ac8 99bd 8f82 88bd 0c20 4b3d
00000070: d039 ad3c 5e9f fcbc eeeb 4fbd a7cd c1bb
00000080: ff40 84bd 30f3 703c af43 723d 1190 553d
00000090: 4c7c 6dbd 9b9f 14bd 2fec d1bc ed53 74bc
000000a0: ac21 3cbd 3766 ac3d c5b3 e43c 61a3 32bd
000000b0: 0166 b53c ec3f 683b 38b2 8dbc e661 423d
000000c0: b510 0f3d 59ae a63d d2e7 afbd 288d 9cbd
000000d0: e385 52bc 77c8 603d 6f44 c7bd 4200 603d
000000e0: 0b47 863d 5491 70bd 96f7 ffbb 07cf 26bd
000000f0: b889 2b3d 9e4c 1dbd a17d 503d 2113 883d
00000100: 9e7b afbd f29f 8e3d 7374 933d 41ea 6e3d
00000110: daeb 68bd a5f5 08bd 551c 703c c6f7 b63c
00000120: 2fa4 c4bb 2d15 32bb 76d5 66bd 1dfb 44bc
00000130: 333e ecbc 1313 90bd 5c31 9bbd 3dbb 383d
00000140: 6743 d2bc 034c 85bd 2751 86bd 82e7 e7bb
00000150: 3519 ae3d 753c 853d 0e87 99bb 2932 2c3d
00000160: b963 af3d 346a bd3d 4bc1 9e3d 9d81 bd3d
00000170: 440d a8bd 6e4a abbc 4938 f6bc 971b 5c3d
00000180: bd49 ad3c 128f 19bd 9ad6 4e3d 69f9 0e3c
00000190: 14be 59bd a1e7 00bd c611 89bd fd6b 3d3d
000001a0: 0b3e a93d fd9e 0c3d 3651 9dbd 2d4c 5b3c
000001b0: baba 0a3d af67 843c eca5 46bd da74 943d
000001c0: 0c76 b23d 2b1b a0bd 20bd 923d 0983 9fbd
000001d0: 37b0 6bbd ddc3 203d 5976 bfbd 222e 68bd
000001e0: 289e 27bd 6515 643d d462 9e3d fa46 95bc
000001f0: b356 a53d c546 adbd 8b27 5b3d e31e b03d
00000200: 1755 ccbd 81fa 8c3d e2b9 633d cfbb a23b
00000210: 32fd b4bc e2f7 da3c b685 2a3d 6835 5b3d
00000220: cbd0 2d3d 6667 583d ba08 56bd c5d1 a93d
00000230: d92d 563d 2cd0 483d 8e9f 8dbd c5e4 97bd
00000240: 580b 98bd f9ae 85bd 69cd 99bb 376f 2abd
00000250: c50e d0bd a28a a3bc fd65 643d 93c6 5c3d
00000260: 3398 c5bc 5bfd 013d 39b0 bcbd 7c5a 573d
00000270: 05b5 bd3d 370f b43d 0512 efbb b4e2 713d
00000280: 642f af3d 0537 74bc 9fd2 3f3d e517 17bd
00000290: e5b2 963d 4fbd 0cbc 74bd 903d e2d2 80bd
000002a0: 9abc 183c e5d8 6abd 2c7d d33c 1771 a4bd
000002b0: e0d3 c23d 9b6e 843d d4a0 62bd 8a47 6abb
000002c0: 2991 7b3d 0513 0fbd d573 883d 0a54 c3bd
000002d0: 427c 5ebd 1498 b6bd 164b 41bc dcca 2bbd
000002e0: 4828 843d 02ed 653d 959a d43d 407d 013d
000002f0: be22 64bd efa2 10bd c606 c4bb 130d 443b
00000300: 44d7 053d de45 973a a4c8 28bd 3fc0 9e3d
00000310: 6b7e 8b3d 1a46 53bc f0cc 733d 63bd bbbd
00000320: 50c6 023b 69ad b03d 76d7 a03d 1973 d6bc
00000330: 411a 55bd ab5a 2fbc a631 c23b aa8a 4fbd
00000340: 68bb c93c 944a 2b3d a8b8 50bd 7d27 e33c
00000350: 152f 903d 5cdf 7d3d 0b3c 553d 9dde 993d
00000360: 22cc 53bd 0fdd 953d 1801 0b3d d237 2c3d
00000370: b1e5 85bd fba8 98bd a1b2 80bd 0a12 033c
00000380: cd31 b43d a533 783b 1ab1 ffbc 8647 923d
00000390: c37f 46bd f808 19bd 5cd5 4fbb 255c 63bd
000003a0: 4cb2 86bd bcde cfbc 952d 933d 229f 53bd
000003b0: 797c 8f3d 6035 adbd 6099 04bc d7bf 33bc
000003c0: 7d58 96bd c0ff ebbc 8f9f b3bd 3f9a 2a3d
000003d0: 2d6a 88bd 3a01 813d 8beb 13bd 3c9c 3c3d
000003e0: 9c51 683d 7ec4 15bd 77ed 5b3c 45ba 6a3d
000003f0: 5955 f93c b04a 543d 7229 86bd 7076 93bc

sequential/dense_1/MatMul f4 [2, 512]
-0.10119538 0.03974131 -0.004785559 0.041258793 -0.017642953 0.041159004 -0.08392836 0.116078585
0.091988005 0.06903829 0.017750934 -0.020273447 0.016397981 0.05951544 -0.015150558 0.06956106
0.115729496 -0.11242976 -0.021304833 0.0058149467 0.05827917 0.017606815 -0.079648584 0.09176304
0.025343752 -0.092265464 0.039274663 0.038008004 -0.04024782 0.060401846 0.09775346 0.06334014
0.11234304 -0.030016055 0.105673 0.11247 0.054348685 0.09412803 0.0004922198 -0.09716955
0.08072132 0.103235915 0.082600385 -0.09924155 -0.0628896 -0.101267636 0.06308979 -0.07234118
-0.06918266 -0.045550372 -0.07423913 0.08151942 -0.08189109 0.0011393209 0.008329874 0.035593726
0.022604689 0.04509097 -0.096057534 0.014118418 0.040389497 0.02051217 0.09237472 -0.047376487
0.12658569 -0.039933026 0.13635029 0.07895221 -0.040169053 -0.0066544507 -0.02214361 0.08239759
-0.011588328 0.13684319 -0.06250674 -0.05207642 0.10321299 -0.10618543 0.111534216 0.012870406
-0.07782462 -0.035427224 0.025085205 -0.07524538 0.011554568 -0.103360854 -0.036869183 -0.01035556
-0.049613155 -0.09622951 0.099168405 -0.10769193 -0.069072425 -0.04541696 -0.0021152778 0.10741562
0.0063070036 0.091224454 -0.050054256 -0.051481057 -0.083234034 0.02553673 -0.035053372 0.027318055
0.06619686 -0.037741553 -0.056993205 -0.021505754 -0.043126076 0.12516814 0.060190033 0.03820891
-0.099381834 0.0026109344 -0.0072627333 0.017911185 0.016078247 0.05366974 0.008651481 -0.084948994
0.030369991 -0.049151 -0.048820067 -0.054268353 0.016213955 -0.0531816 0.11218479 -0.056137636
-0.075691245 -0.089434 -0.01661384 0.12742952 0.08793558 -0.013091136 -0.1129464 -0.054966453
0.062455308 -0.10571104 0.10467528 0.085566774 0.05251589 0.04598165 0.042172257 -0.096129194
0.07500185 0.00455781 0.081235096 -0.050748806 -0.064324096 0.020665558 -0.07790129 0.09769135
0.07806591 -0.05577691 0.0014206144 0.10424201 -0.083593026 0.095084526 0.04773891 0.080056876
0.052873373 0.09780104 -0.081469744 0.08998944 0.029474737 -0.029027069 0.018787593 0.024966666
0.055480197 0.006849443 0.017807841 0.0856317 0.03213465 -0.045490447 0.014814864 0.07463878
0.00035156377 -0.08508423 0.09832625 -0.048353888 -0.0008407987 -0.0003084606 0.007164085 0.040420484
0.10265086 -0.0059094676 -0.111012556 0.08663834 -0.00070523086 -0.0995834 0.009235606 -0.094937965
-0.09542811 0.102495015 -0.054975357 -0.0072084055 -0.106146246 0.03590894 0.029617274 -0.054105293
0.07389192 -0.09886708 0.10906424 -0.09907052 -0.112278454 0.01730896 0.093804315 -0.048761502
-0.007344672 -0.0685363 0.07352084 0.01993347 -0.019999657 0.06959686 0.06174066 -0.0398335
-0.11183022 0.0042121345 -0.057626132 0.11218888 -0.091520146 0.081160985 0.030557396 -0.08574368
-0.071358986 -0.040070727 -0.060388036 -0.046059858 0.012498198 -0.017662887 0.12349562 -0.014516158
-0.02746046 -0.10843228 0.11350182 0.064943224 0.09204084 -0.09082856 -0.114899665 0.010627035
0.084473036 0.054315 -0.009964927 -0.09962485 0.07044774 -0.107063524 0.03715917 0.03656947
-0.06446208 -0.116980664 -0.08924954 0.063984595 0.08223422 0.043776423 -0.04264585 -0.058549605
00000000: 863f cfbd c9c7 223d 2ed0 9cbb fbfe 283d
00000010: f487 90bc 5896 283d a2e2 abbd 9cba ed3d
00000020: 3564 bc3d f263 8d3d 686a 913c 8014 a6bc
00000030: 0f55 863c 76c6 733d 0c3a 78bc 0776 8e3d
00000040: 9603 ed3d 9341 e6bd 7987 aebc 4f8b be3b
00000050: 24b6 6e3d 2b3c 903c cc1e a3bd 43ee bb3d
00000060: b39d cf3c adf5 bcbd 78de 203d 48ae 1b3d
00000070: e6da 24bd ed67 773d f732 c83d 7ab8 813d
00000080: 1c14 e63d 3be4 f5bc 166b d83d ac56 e63d
00000090: ba9c 5e3d 32c6 c03d 5008 013a d400 c7bd
000000a0: 3851 a53d 5a6d d33d 642a a93d 273f cbbd
000000b0: 43cc 80bd 6865 cfbd 3835 813d 9d27 94bd
000000c0: a3af 8dbd 0793 3abd af0a 98bd a7f3 a63d
000000d0: 84b6 a7bd 4455 953a 067a 083c baca 113d
000000e0: 782d b93c 4fb1 383d d0b9 c4bd f050 673c
000000f0: 756f 253d 2309 a83c f52e bd3d d90d 42bd
00000100: ae9f 013e d090 23bd 699f 0b3e b2b1 a13d
00000110: 4e88 24bd 940d dabb 8466 b5bc 11c0 a83d
00000120: f8dc 3dbc 9f20 0c3e 8903 80bd 164e 55bd
00000130: 5561 d33d bf77 d9bd 0d6c e43d 65de 523c
00000140: 8462 9fbd 231c 11bd 7d7f cd3c 401a 9abd
00000150: 5f4f 3d3c dbae d3bd 2404 17bd 5eaa 29bc
00000160: 2a37 4bbd fa13 c5bd ce18 cb3d 968d dcbd
00000170: d875 8dbd 2207 3abd 79a0 0abb b8fc db3d
00000180: fbaa ce3b e3d3 ba3d b105 4dbd cddd 52bd
00000190: 9b76 aabd 6832 d13c 2094 0fbd 1dca df3c
000001a0: 3892 873d e396 1abd b571 69bd d62c b0bc
000001b0: f8a4 30bd 142c 003e d389 763d f280 1c3d
000001c0: b488 cbbd 361c 2b3b 39fc edbb 7aba 923c
000001d0: 87b6 833c cdd4 5b3d f1be 0d3c bdf9 adbd
000001e0: 7dca f83c 8f52 49bd 8df7 47bd 7e48 5ebd
000001f0: 21d3 843c f3d4 59bd 24c1 e53d 94f0 65bd
00000200: 0304 9bbd 2c29 b7bd bf19 88bc e27c 023e
00000210: 9217 b43d 347c 56bc 7150 e7bd 8124 61bd
00000220: 23d1 7f3d 087f d8bd fe5f d63d a23d af3d
00000230: e71a 573d 4157 3c3d d1bc 2c3d 62df c4bd
00000240: 929a 993d ae59 953b 965e a63d fbdd 4fbd
00000250: 5abc 83bd d14a a93c b68a 9fbd 6712 c83d
00000260: 05e1 9f3d 5476 64bd e933 ba3a d67c d53d
00000270: d232 abbd adbb c23d e089 433d dcf4 a33d
00000280: c091 583d e94b c83d 9cd9 a6bd 624c b83d
00000290: 0175 f13c 2dca edbc 70e8 993c e586 cc3c
000002a0: 343f 633d 4b71 e03b c0e1 913c ac5f af3d
000002b0: 9f9f 033d 3154 3abd 0bba 723c 37dc 983d
000002c0: 1752 b839 a440 aebd 465f c93d ba0e 46bd
000002d0: 0c69 5cba e2b8 a1b9 b3c0 ea3b f38f 253d
000002e0: 9d3a d23d 35a4 c1bb 8d5a e3bd 716f b13d
000002f0: 3edf 38ba 62f2 cbbd f050 173c d66e c2bd
00000300: d06f c3bd e8e8 d13d d72d 61bd 7d34 ecbb
00000310: 3463 d9bd 4115 133d ed9f f23c 839d 5dbd
00000320: a654 973d d37a cabd 125d df3d 7ce5 cabd
00000330: 3ff2 e5bd 85cb 8d3c 7a1c c03d 24ba 47bd
00000340: 93ab f0bb c25c 8cbd 1892 963d 844b a33c
00000350: 52d6 a3bc cc88 8e3d c6e3 7c3d 7428 23bd
00000360: 3e07 e5bd f205 8a3b 6109 6cbd 49c3 e53d
00000370: ea6e bbbd bb37 a63d 8153 fa3c 629a afbd
00000380: a924 92bd 3421 24bd 7259 77bd 43a9 3cbd
00000390: 3ec5 4c3c c2b1 90bc 46eb fc3d 2ed5 6dbc
000003a0: c2f4 e0bc be11 debd a473 e83d f400 853d
000003b0: e87f bc3d 5304 babd 8450 ebbd 041d 2e3c
000003c0: 3300 ad3d 6879 5e3d ef43 23bc 1d08 ccbd
000003d0: e846 903d 1f44 dbbd 3734 183d dec9 153d
000003e0: b204 84bd 8f93 efbd 76c8 b6bd 5b0a 833d
000003f0: 6a6a a83d e84e 333d 6aad 2ebd b6d1 6fbd

sequential/conv2d/Conv2D f4 [32, 4, 4, 1]
0.06945484 -0.033762287 0.09386924 -0.07294501 -0.07236814 -0.0408384 -0.06283843 0.09141298
0.054892402 -0.050796967 -0.0726941 0.059154842 -0.056770287 -0.005593196 -0.02858608 -0.06520744
-0.06413384 0.09816516 -0.04168653 0.071601704 0.07939383 -0.09609347 -0.021183886 -0.048152007
0.037430327 -0.0009983666 0.013044952 0.06839293 0.0042653903 -0.06718064 -0.0824414 0.058848616
0.070324205 0.08344355 0.052513067 -0.049964983 -0.0671104 0.019372102 -0.02993077 0.079686716
0.012175041 0.0017082684 -0.062775984 -0.061729956 0.0042181867 -0.058530185 0.046560682 0.054007966
-0.003845109 -0.032223016 0.042146288 -0.09969938 0.05802478 0.034441717 -0.05513539 -0.0897077
0.11039547 0.00045061228 -0.0006420671 -0.06840551 0.066123225 0.04313153 0.037675664 -0.040082686
0.031651955 0.054102477 0.020182325 -0.008276427 -0.07337663 0.06066462 0.046502046 -0.10179886
-0.07279844 0.019660445 0.011032723 0.08661085 -0.09701104 -0.06417492 -0.011395536 0.044695616
-0.004065154 -0.08354369 -0.04816811 0.00832874 -0.04871963 0.081038676 -0.1022717 -0.05621166
0.044947688 -0.0643582 -0.081708 0.09386161 -0.0125973625 0.100155994 0.0928377 0.08134908
0.046539787 0.0900768 -0.047383606 0.06820295 0.07118051 -0.05044176 0.039286643 -0.056246623
0.009090429 -0.0398103 0.10200042 -0.02427722 0.008407132 0.016529532 -0.053570468 0.055500925
0.060528558 0.026467215 0.10278992 -0.049028903 0.007039711 -0.041750308 0.096671216 -0.010227382
-0.02550549 -0.02293011 -0.052300178 0.012141751 -0.041201696 -0.101453386 -0.066239536 -0.008218816
0.03774931 0.06770693 -0.09963809 0.032655627 0.09613208 -0.069533505 -0.10386871 0.06513671
0.017514134 -0.020003535 -0.018833678 0.031435516 -0.042897865 0.0021617934 -0.06088006 0.01939936
0.1117402 0.07229285 -0.028299788 -0.0774082 -0.0019020513 -0.09708121 0.039253205 -0.0085232435
0.04926573 0.055768546 0.06932386 -0.017024497 -0.06747993 -0.10213067 -0.05494948 0.06045719
-0.09423674 0.06557061 0.09815365 0.05061499 0.05286428 0.05956993 0.09292155 -0.019647397
-0.11234859 -0.11132671 -0.092818536 -0.025757171 0.021666754 0.021863297 0.052893613 -0.08710714
0.032545246 0.06524243 -0.10595191 -0.0038098567 -0.043350168 -0.009041437 -0.030832691 -0.04544991
0.09150253 -0.074278764 0.059967685 0.094739914 -0.061703607 0.0592363 0.013581148 0.005735632
-0.0066053364 0.10329562 -0.030999048 -0.07431914 -0.07328713 0.003394596 -0.029517494 -0.08825187
-0.03174293 0.11629559 0.10967335 0.02974435 -0.003221847 -0.07346247 -0.08323274 0.07743855
-0.04738132 -0.036318354 -0.03758595 0.02118682 0.07959678 -0.07697246 0.059200592 -0.058343403
0.019113861 0.052674625 -0.014082287 -0.009691832 0.10708319 0.06913963 -0.010051985 0.050893784
-0.010618239 -0.0841135 0.047450308 0.08722628 0.05873547 -0.076501414 -0.006643462 0.018713033
-0.05767635 -0.076326996 0.09213013 -0.07096715 0.0443568 0.11091378 -0.09360569 -0.030372737
-0.04874079 0.104250476 0.01605777 -0.0035839574 -0.075716965 0.022580087 -0.05342342 -0.091537505
-0.07692735 -0.050565347 0.037942894 -0.08510837 -0.08385379 0.0071127177 -0.03186792 0.112106845
00000000: 573e 8e3d 534a 0abd 843e c03d 3264 95bd
00000010: bf35 94bd 2b46 27bd 6fb1 80bd ba36 bb3d
00000020: dbd6 603d 7b10 50bd a5e0 94bd 594c 723d
00000030: f687 68bd 2147 b7bb 5b2d eabc 7a8b 85bd
00000040: 9a58 83bd d10a c93d 7fbf 2abd eaa3 923d
00000050: 3b99 a23d a7cc c4bd d489 adbc 0a3b 45bd
00000060: 8b50 193d a0db 82ba 7fba 553c 9811 8c3d
00000070: b0c4 8b3b 0196 89bd 09d7 a8bd 3f0b 713d
00000080: 2306 903d 74e4 aa3d f117 573d 15a8 4cbd
00000090: 2d71 89bd 3eb2 9e3c 6031 f5bc ca32 a33d
000000a0: d379 473c fae7 df3a b290 80bd 8dd8 7cbd
000000b0: b738 8a3b 59bd 6fbd 6ab6 3e3d 7537 5d3d
000000c0: 39fe 7bbb 48fc 03bd 96a1 2c3d 302f ccbd
000000d0: 64ab 6d3d c212 0d3d a6d5 61bd acb8 b7bd
000000e0: 0517 e23d 2840 ec39 6550 28ba 3018 8cbd
000000f0: 9d6b 873d b0aa 303d cc51 1a3d be2d 24bd
00000100: 7ba5 013d 8f9a 5d3d 6755 a53c da99 07bc
00000110: 7d46 96bd 777b 783d ee78 3e3d ec7b d0bd
00000120: 5917 95bd f10e a13c 98c2 343c 0861 b13d
00000130: b9ad c6bd 246e 83bd 58b4 3abc c012 373d
00000140: fc34 85bb f418 abbd ed4b 45bd 4475 083c
00000150: 3c8e 47bd 9bf7 a53d d373 d1bd 333e 66bd
00000160: 111b 383d 3bce 83bd 8656 a7bd 843a c03d
00000170: 2b65 4ebc 961e cd3d b121 be3d 599a a63d
00000180: 81a0 3e3d 2f7a b83d 5015 42bd fdad 8b3d
00000190: 16c7 913d 059c 4ebd 08eb 203d dc62 66bd
000001a0: 06f0 143c 2010 23bd 99e5 d03d 05e1 c6bc
000001b0: 11be 093c f168 873c b56c 5bbd f054 633d
000001c0: cbec 773d c6d1 d83c 8683 d23d 88d2 48bd
000001d0: 60ad e63b 5f02 2bbd 8ffb c53d c090 27bc
000001e0: e4f0 d0bc edd7 bbbc b638 56bd 32ee 463c
000001f0: 1cc3 28bd cbc6 cfbd 98a8 87bd 36a8 06bc
00000200: 059f 1a3d eea9 8a3d 0e0f ccbd e8c1 053d
00000210: e5e0 c43d 9567 8ebd 1eb9 d4bd 6566 853d
00000220: cd79 8f3c 74de a3bc 1649 9abc 87c2 003d
00000230: acb5 2fbd e0ac 0d3b 5f5d 79bd 68eb 9e3c
00000240: 0cd8 e43d 460e 943d f5d4 e7bc 3188 9ebd
00000250: 404e f9ba 83d2 c6bd f8c7 203d 13a5 0bbc
00000260: ddca 493d 8f6d 643d abf9 8d3d f576 8bbc
00000270: eb32 8abd e229 d1bd b512 61bd f5a1 773d
00000280: 31ff c0bd e249 863d c804 c93d aa51 4f3d
00000290: 3788 583d 99ff 733d a74d be3d 94f3 a0bc
000002a0: 0417 e6bd 42ff e3bd a517 bebd b400 d3bc
000002b0: 7a7e b13c a81a b33c f9a6 583d 3a65 b2bd
000002c0: 2a4e 053d d39d 853d 51fd d8bd caae 79bb
000002d0: f28f 31bd 8922 14bc d794 fcbc af29 3abd
000002e0: ae65 bb3d 771f 98bd ada0 753d 0007 c23d
000002f0: ecbc 7cbd c3a1 723d 7783 5e3c f8f1 bb3b
00000300: 9471 d8bb a78c d33d b7f1 fdbc a234 98bd
00000310: 9017 96bd df77 5e3b acce f1bc 65bd b4bd
00000320: e004 02bd 622c ee3d 6c9c e03d 6caa f33c
00000330: 9f25 53bb 7e73 96bd ed75 aabd 1a98 9e3d
00000340: ea12 42bd 8ec2 14bd baf3 19bd fb8f ad3c
00000350: a303 a33d bda3 9dbd 527c 723d 7ef9 6ebd
00000360: ac94 9c3c 59c1 573d 65b9 66bc 7dca 1ebc
00000370: 6e4e db3d 1499 8d3d 15b1 24bc 0076 503d
00000380: 1ff8 2dbc b343 acbd 415b 423d b1a3 b23d
00000390: 9b94 703d c6ac 9cbd 66b1 d9bb 134c 993c
000003a0: 093e 6cbd 5451 9cbd b9ae bc3d 3a57 91bd
000003b0: 7aaf 353d c426 e33d 57b4 bfbd 3fd0 f8bc
000003c0: 6ca4 47bd 4681 d53d 968b 833c d4e0 6abb
000003d0: 7f11 9bbd e0f9 b83c 84d2 5abd 0478 bbbd
000003e0: 168c 9dbd 9c1d 4fbd 026a 1b3d 4c4d aebd
000003f0: 89bb abbd cd11 e93b f087 02bd 4698 e53d

sequential/conv2d_1/Conv2D f4 [32, 3, 3, 32]
-0.05584478 0.04875234 -0.068180904 -0.09009892 0.08393717 -0.06582029 -0.08981884 0.03560451
-0.053002585 0.02970335 0.053041954 -0.057529274 0.08706864 0.04106936 0.06396128 0.00826826
-0.017315717 -0.00042976983 0.090164855 -0.05676683 -0.054054424 0.03138673 -0.014862259 0.051258124
-0.0775464 0.06958078 -0.020770563 -0.047661312 0.026701644 0.053250365 -0.028192082 0.026377369
-0.09272134 -0.057866976 0.022780867 0.039714046 0.01181005 0.03396316 0.035374723 -0.032495607
-0.06844247 0.020690426 0.11900024 0.09509477 -0.060722146 0.083330736 -0.119578704 0.087637715
-0.07404537 0.09886656 0.06834287 -0.069210544 0.04544897 0.122796975 0.079123266 -0.023903547
0.11481642 -0.009579484 0.07765979 0.08120136 -0.05034702 -0.0008834309 -0.035241365 0.036127154
0.07602891 0.10698504 -0.096529625 0.037464492 -0.01892948 0.0903832 -0.060466316 0.03428755
0.13641661 -0.021323869 -0.012151589 0.05414654 -0.017899975 0.08611972 0.080389954 0.04871704
-0.080366656 -0.0036561664 -0.0900525 0.10646704 0.0845913 0.10383915 0.050245076 -0.00041055607
0.036461834 0.10426375 -0.0049813665 0.053865563 0.067497045 0.062376328 0.014981188 -0.009838334
-0.072758585 0.025439644 0.09023247 -0.012033071 -0.08943089 0.07457286 -0.10370292 0.038965236
-0.03933433 -0.0909942 0.009488255 0.025338218 0.02868855 -0.04246763 0.035550665 -0.050333355
-0.059205834 0.0170884 -0.06928632 0.03497175 -0.07782341 0.11633076 0.08331493 -0.0066137165
-0.08993208 0.002372524 0.032874838 -0.049872667 0.011044892 0.030946149 0.045395836 -0.0082410965
-0.08502238 0.0809738 -0.022960039 -0.06438053 -0.082151674 -0.048424624 -0.032775074 -0.051631175
0.08890941 0.004506174 0.022234336 0.084161796 0.06462104 -0.07258156 -0.020918582 -0.005503089
0.10462808 -0.0028232636 -0.016449662 0.012580207 0.056108497 -0.06374299 -0.016600568 -0.041373286
-0.02148037 -0.026858967 -0.07856685 0.07379831 0.11043542 0.0013872784 0.025329055 0.04573494
0.030166684 -0.028633261 0.033125803 0.101501316 -0.09936599 -0.0010941193 -0.09785612 -0.064150654
-0.016242893 0.03757245 -0.019248324 0.08298888 -0.100241736 -0.063981384 -0.002418669 0.08459076
0.093469895 -0.07735672 0.07939633 -0.02475976 -0.039753217 0.09360429 -0.039791886 -0.07966868
-0.09085538 0.07494139 -0.09665659 0.006461921 0.06369705 0.03084816 0.025199639 0.010493141
-0.010371306 0.050710186 0.009814821 -0.10203914 -0.058170438 -0.09270127 0.005389331 0.055824187
-0.071295224 -0.0043108836 0.03583182 0.05627042 -0.060148615 -0.025304869 -0.024173629 0.0012426953
0.055527564 -0.09522613 -0.036294952 0.059457965 -0.09650442 -0.03201987 0.09058239 -0.017812874
-0.0833458 -0.061924007 0.068196915 -0.0044955164 0.033563737 -0.06637192 0.035592858 0.036270227
-0.034411248 0.03621187 -0.036464337 0.061555672 0.026125357 -0.047321495 -0.052054845 -0.016102577
0.03167298 -0.018803835 -0.041796975 -0.06134519 0.08246009 -0.0075230976 -0.10632266 -0.07417213
-0.08319621 -0.09621672 -0.0085108755 0.057414886 -0.022293724 0.06573154 0.083152786 0.05465135
-0.00067455403 0.075089 0.05731382 -0.08406722 -0.02267131 0.0012622735 0.036518518 0.10145187
00000000: 7fbd 64bd 89b0 473d 6ea2 8bbd c885 b8bd
00000010: 40e7 ab3d cacc 86bd f1f2 b7bd 09d6 113d
00000020: 3d19 59bd 7154 f33c 8542 593d d1a3 6bbd
00000030: 0b51 b23d 5838 283d 22fe 823d 9977 073c
00000040: b1d9 8dbc bb52 e1b9 5aa8 b83d 5684 68bd
00000050: 2c68 5dbd 5f8f 003d d580 73bc 0af4 513d
00000060: a6d0 9ebd 5e80 8e3d 0727 aabc 8238 43bd
00000070: 68bd da3c 0e1d 5a3d 15f3 e6bc 5a15 d83c
00000080: b0e4 bdbd ec05 6dbd f19e ba3c 32ab 223d
00000090: f17e 413c f41c 0b3d 16e5 103d 1d1a 05bd
000000a0: 912b 8cbd f87e a93c 66b6 f33d 0cc1 c23d
000000b0: c9b7 78bd 4ea9 aa3d aee5 f4bd 677b b33d
000000c0: 19a5 97bd 8d7a ca3d 59f7 8b3d 42be 8dbd
000000d0: b328 3a3d fb7c fb3d 610b a23d 5fd1 c3bc
000000e0: df24 eb3d 45f3 1cbc 190c 9f3d e64c a63d
000000f0: ad38 4ebd 0b96 67ba 4059 10bd 11fa 133d
00000100: 0cb5 9b3d f91a db3d 53b1 c5bd 5e74 193d
00000110: ff11 9bbc d41a b93d 87ab 77bd 1a71 0c3d
00000120: ccb0 0b3e 65af aebc 7517 47bc c3c8 5d3d
00000130: f8a2 92bc 895f b03d 7da3 a43d 858b 473d
00000140: 4697 a4bd 4b9c 6fbb 726d b8bd 640b da3d
00000150: 343e ad3d 9fa9 d43d c8cd 4d3d e73f d7b9
00000160: 0159 153d 3c88 d53d bb3a a3bb 23a2 5c3d
00000170: e43b 8a3d 527e 7f3d a873 753c f730 21bc
00000180: 7402 95bd cd66 d03c cdcb b83d 5c26 45bc
00000190: 8b27 b7bd a8b9 983d 3262 d4bd 039a 1f3d
000001a0: 091d 21bd 2b5b babd a074 1b3c 1892 cf3c
000001b0: 4004 eb3c 8af2 2dbd 939d 113d 592a 4ebd
000001c0: d181 72bd f9fc 8b3c fce5 8dbd 8a3e 0f3d
000001d0: e161 9fbd d23e ee3d 05a1 aa3d e0b7 d8bb
000001e0: 4f2e b8bd 597c 1b3b c4a7 063d 4847 4cbd
000001f0: a2f5 343c c782 fd3c fcf0 393d aa05 07bc
00000200: 3720 aebd 97d5 a53d b116 bcbc f0d9 83bd
00000210: 233f a8bd e658 46bd 283f 06bd 367b 53bd
00000220: 2316 b63d 87a8 933b c824 b63c 055d ac3d
00000230: 0958 843d a4a5 94bd 725d abbc 4253 b4bb
00000240: 3f47 d63d 8106 39bb 71c1 86bc 361d 4e3c
00000250: 06d2 653d af8b 82bd eafd 87bc 0977 29bd
00000260: 9af7 afbc 5607 dcbc a8e7 a0bd 9123 973d
00000270: f72b e23d 57d5 b53a e17e cf3c 8f54 3b3d
00000280: 1f20 f73c 4d90 eabc ecae 073d ecdf cf3d
00000290: 6580 cbbd 8d68 8fba ca68 c8bd 6b61 83bd
000002a0: d10f 85bc 92e5 193d a9ae 9dbc 13f6 a93d
000002b0: 8a4b cdbd ac08 83bd 8882 1ebb ec3d ad3d
000002c0: 256d bf3d 336d 9ebd 8b9a a23d fbd4 cabc
000002d0: 45d4 22bd 9bb3 bf3d d1fc 22bd 5529 a3bd
000002e0: 6312 babd df7a 993d e4f3 c5bd 86be d33b
000002f0: 9973 823d 48b5 fc3c 796f ce3c 6ceb 2b3c
00000300: 69ec 29bc 7cb5 4f3d 58ce 203c e6f9 d0bd
00000310: 2044 6ebd 2ada bdbd fc98 b03b e7a7 643d
00000320: 3b03 92bd 5042 8dbb 63c4 123d d07b 663d
00000330: 655e 76bd 284c cfbc c607 c6bc efe1 a23a
00000340: df70 633d eb05 c3bd 04aa 14bd 328a 733d
00000350: 1ca4 c5bd 4427 03bd 4383 b93d 4eec 91bc
00000360: 34b1 aabd 07a4 7dbd d3aa 8b3d 204f 93bb
00000370: 217a 093d 00ee 87bd d1c9 113d 1790 143d
00000380: cff2 0cbd e652 143d a15b 15bd cd21 7c3d
00000390: d804 d63c 2fd4 41bd 7637 55bd 8de9 83bc
000003a0: 87bb 013d 800a 9abc 4e33 2bbd 1845 7bbd
000003b0: d6e0 a83d 5184 f6bb b2bf d9bd 8fe7 97bd
000003c0: c662 aabd 460d c5bd 3371 0bbc df2b 6b3d
000003d0: 54a1 b6bc 429e 863d 024c aa3d 18da 5f3d
000003e0: 8ed4 30ba 43c8 993d e5c1 6a3d 6f2b acbd
000003f0: 2fb9 b9bc df72 a53a 7194 153d ffc5 cf3d

sequential/conv2d_2/Conv2D f4 [64, 3, 3, 32]
-0.020981245 -0.08713633 -0.025834236 -0.027322624 -0.04086174 0.040849738 -0.048999365 -0.008777879
0.041400254 0.0020259162 0.007441016 0.03852406 0.04401784 0.018792031 -0.0103983935 0.04679787
0.06001634 -0.032542653 -0.0059729367 -0.068747856 0.045891274 0.05064442 -0.069249585 -0.06808792
0.017954573 0.061754704 0.060805924 -0.019338869 0.042141855 0.0568855 0.0221397 -0.03241843
0.045964252 -0.03900444 -0.055128485 0.073921904 -0.059372585 0.021913031 -0.013957458 -0.0049295197
0.022467295 -0.001664738 -0.072799765 0.04530298 0.034937896 -0.017601283 0.073727846 -0.08977186
-0.047009856 -0.060253933 -0.04618961 -0.01692519 -0.018850248 -0.071615405 -0.09213995 -0.00093068
0.07081195 -0.046303354 -0.029754607 0.011604327 0.03999014 0.06677827 0.06766875 0.020921042
0.03854925 -0.0036434545 -0.033888552 0.058590893 0.062723964 -0.038011774 -0.08438576 -0.063128844
-0.022787461 0.016112406 0.07205424 0.026851274 -0.07293389 -0.06285025 -0.025225889 -0.027550844
0.07118285 0.042924777 0.02522671 -0.02858321 -0.0745305 -0.004771977 -0.008163302 -0.035873573
0.07268255 0.010110619 -0.040847678 -0.0805572 0.06982783 0.05607921 0.07429497 -0.011418375
-0.012188369 -0.07523239 -0.06029863 -0.052895997 5.725529e-05 -0.030503206 -0.03023421 0.02964965
0.040546194 0.057726223 -0.031789728 0.0017135412 -0.07947591 -0.06349482 -0.0519747 0.008234654
0.017397398 0.027636977 0.05456234 0.04071952 0.07064516 0.04090746 0.07044857 0.021636082
-0.035384092 0.023027968 0.012630576 -0.03169961 0.025567083 -0.0016146093 0.041081097 -0.0603842
-0.018181438 0.032514006 -0.023411917 0.0717351 -0.05914714 -0.07262904 -0.06623693 0.020020908
0.03991338 -0.0018438466 -0.06331758 0.038703267 -0.0143854 0.076880775 -0.07588562 -0.07443457
0.022326304 0.060049303 0.080651134 -0.0695841 0.08290294 -0.078355774 0.032381553 -0.032494783
0.042473506 0.079989806 -0.031850208 0.07768852 0.031169826 -0.05631342 0.07153764 -0.075874105
0.07299141 0.019378867 -0.04759616 -0.025654804 0.060378604 -0.025799269 0.02760599 -0.043060314
0.07593159 0.061321545 -0.025546163 -0.0069585135 0.064592645 -0.0023000704 -0.047732055 -0.07289273
-0.028930487 -0.011052877 0.004857672 0.07619952 -0.05487284 0.052214775 0.015561599 0.017016603
-0.04055018 0.083653115 -0.023619361 0.041581545 -0.054535553 -0.05910136 -0.07652637 0.057678375
-0.033411667 0.05787003 0.064900324 -0.013534299 -0.07502139 0.051343244 -0.017765177 -0.03611743
-0.02564075 -0.06389125 0.07271162 0.04483808 -0.04758429 0.07301946 -0.052346505 -0.01667413
0.04119148 -0.026659489 0.06476108 0.066392004 0.025358995 -0.040020436 0.011496734 -0.03187699
-0.017262356 -0.081933536 -0.027983377 -0.040003695 0.0537099 -0.059432853 -0.08624991 -0.023288766
0.09561508 -0.034992248 -0.0692963 0.0809273 0.0036126645 -0.019971566 0.035127603 0.04854211
0.028407363 0.022687249 -0.076892436 -0.022338474 0.037237175 0.0076271673 0.070915885 0.04307692
-0.030693822 -0.022460619 -0.05322407 -0.015677951 0.041313324 -0.052338302 -0.052543107 -0.023517044
0.021685326 0.021911176 -0.0773122 -0.07226634 -0.06755277 -0.067118 -0.059970133 -0.058402304
00000000: dce0 abbc 8874 b2bd 52a2 d3bc b2d3 dfbc
00000010: a45e 27bd 0e52 273d 8fb3 48bd 18d1 0fbc
00000020: 5093 293d 3cc5 043b c4d3 f33b 68cb 1d3d
00000030: 0d4c 343d bff1 993c 065e 2abc 20af 3f3d
00000040: b2d3 753d 724b 05bd a0b8 c3bb adcb 8cbd
00000050: 7df8 3b3d 8670 4f3d bad2 8dbd ae71 8bbd
00000060: 7815 933c 80f2 7c3d a20f 793d 8c6c 9ebc
00000070: f09c 2c3d c500 693d 515e b53c 30c9 04bd
00000080: 0345 3c3d 1fc3 1fbd 68ce 61bd 5e64 973d
00000090: ab30 73bd f582 b33c d2ad 64bc cf87 a1bb
000000a0: 550d b83c 5733 daba 0b18 95bd 9e8f 393d
000000b0: 0a1b 0f3d 9130 90bc a0fe 963d 4fda b7bd
000000c0: 688d 40bd d4cc 76bd 5131 3dbd b2a6 8abc
000000d0: d66b 9abc 19ab 92bd dfb3 bcbd e1f8 73ba
000000e0: db05 913d 96a8 3dbd efbf f3bc 1320 3e3c
000000f0: b3cc 233d 0cc3 883d ea95 8a3d 9b62 ab3c
00000100: d2e5 1d3d 06c7 6ebb b9ce 0abd 01fd 6f3d
00000110: 6c75 803d 3cb2 1bbd 71d2 acbd b249 81bd
00000120: c5ac babc 2afe 833c 2c91 933d 34f7 db3c
00000130: 5d5e 95bd a2b7 80bd 86a6 cebc 4fb2 e1bc
00000140: 50c8 913d e4d1 2f3d 3fa8 ce3c 5627 eabc
00000150: 72a3 98bd 3f5e 9cbb 5fbf 05bc 2bf0 12bd
00000160: 97da 943d 02a7 253c e54f 27bd 2cfb a4bd
00000170: e501 8f3d 50b3 653d f627 983d 2314 3bbc
00000180: bab1 47bc 7013 9abd b2fb 76bd 79a9 58bd
00000190: 6625 7038 dce1 f9bc bcad f7bc d3e3 f23c
000001a0: c413 263d 5572 6c3d f235 02bd e798 e03a
000001b0: 44c4 a2bd 9209 82bd 6ce3 54bd a4ea 063c
000001c0: fd84 8e3c f166 e23c c37c 5f3d 83c9 263d
000001d0: 69ae 903d 958e 273d 5747 903d 273e b13c
000001e0: e9ee 10bd 26a5 bc3c 7af0 4e3c 73d7 01bd
000001f0: 0f72 d13c 4ca1 d3ba a744 283d 6c55 77bd
00000200: 3df1 94bc 682d 053d 59ca bfbc dae9 923d
00000210: 4544 72bd 89be 94bd 3aa7 87bd e302 a43c
00000220: 367c 233d 3aad f1ba a6ac 81bd 5187 1e3d
00000230: beb0 6bbc ab73 9d3d ec69 9bbd 2771 98bd
00000240: a7e5 b63c 42f6 753d 6c2c a53d 1c82 8ebd
00000250: 04c9 a93d fe78 a0bd 85a2 043d 4019 05bd
00000260: b3f8 2d3d b2d1 a33d 5d75 02bd 291b 9f3d
00000270: dd57 ff3c e7a8 66bd 5482 923d e263 9bbd
00000280: 857c 953d 6ec0 9e3c 31f4 42bd 062a d2bc
00000290: 8e4f 773d fd58 d3bc f525 e23c 0360 30bd
000002a0: 0582 9b3d 4d2c 7b3d 3046 d1bc 3e04 e4bb
000002b0: 2649 843d c7bc 16bb b082 43bd c948 95bd
000002c0: a1ff ecbc 2017 35bc 1b2d 9f3b 7e0e 9c3d
000002d0: 58c2 60bd 29df 553d 14f6 7e3c 6766 8b3c
000002e0: f217 26bd 5352 ab3d 647d c1bc 6951 2a3d
000002f0: ac60 5fbd 4514 72bd dcb9 9cbd 2940 6c3d
00000300: acda 08bd 2009 6d3d 76ea 843d f7be 5dbc
00000310: d1a4 99bd 4b4d 523d 4788 91bc dfef 13bd
00000320: 8d0c d2bc 6ad9 82bd d4e9 943d 22a8 373d
00000330: bfe7 42bd 3a8b 953d 4a69 56bd 2f98 88bc
00000340: 66b8 283d 0065 dabc 75a1 843d 88f8 873d
00000350: abbd cf3c 78ec 23bd cc5c 3c3c 7291 02bd
00000360: c969 8dbc c5cc a7bd 653d e5bc eada 23bd
00000370: e9fe 5b3d dd6f 73bd cba3 b0bd 15c8 bebc
00000380: d7d1 c33d 0854 0fbd 38eb 8dbd 36bd a53d
00000390: 74c2 6c3b 699b a3bc f6e1 0f3d 17d4 463d
000003a0: 8fb6 e83c 9cda b93c c879 9dbd 2dff b6bc
000003b0: 0286 183d 51ed f93b 593c 913d 6d71 303d
000003c0: 9c71 fbbc 55ff b7bc 7c01 5abd 0c6f 80bc
000003d0: 2938 293d b060 56bd 7137 57bd d1a6 c0bc
000003e0: 6da5 b13c 117f b33c dc55 9ebd 6000 94bd
000003f0: 1b59 8abd 2975 89bd 3ea3 75bd 4137 6fbd

sequential/conv2d_3/Conv2D f4 [64, 3, 3, 64]
-0.06133868 -0.02157408 0.04515317 -0.009739682 -0.012273821 -0.004588569 0.07601457 -0.035575695
0.022662694 0.0069830604 -0.031483483 -0.027903082 -0.00022749927 0.040459406 0.029844627 0.024607733
0.0015059031 0.05197 0.03521242 -0.05830905 0.03194958 -0.0014111252 -0.07787404 -0.05634135
-0.0012256375 0.008918737 0.03500702 0.096218795 -0.0123835495 -0.0698078 0.019658558 -0.049082324
0.03794349 -0.027562536 0.034192182 -0.031201867 -0.038426302 -0.038301855 -0.07962527 -0.08465567
-0.07880984 0.030604692 0.06947643 -0.011077113 -0.060783327 -0.049933814 0.0027681051 -0.017240044
0.0008451288 0.028651733 -0.030761393 0.04558829 0.01004645 0.089389496 0.068164766 -0.073496066
-0.024553413 -0.09358404 0.020420002 0.02281997 -0.029338937 -0.047310054 -0.011315123 -0.007979668
-0.066242225 0.027479349 0.07073738 -0.034993242 0.041403845 0.0625132 0.020057173 -0.04299032
-0.026917221 -0.07636783 0.011832263 0.07538953 -0.016020697 0.01181671 -0.06081815 0.05388639
-0.00075655273 -0.021281118 -0.06916269 -0.029622562 0.04369267 -0.019124515 -0.044143964 -0.043631695
0.05463134 0.025984325 -0.052768312 0.046166874 -0.016445821 0.01634183 0.06719751 0.06671138
0.0067493026 0.05499551 0.01330208 -0.04479133 -0.03750711 0.014776733 -0.08245731 0.020159308
0.066137396 -0.006620174 -0.059645638 0.030091807 -0.047813535 -0.019833028 -0.0050035035 0.076271065
0.00852148 0.023305628 0.015225455 -0.0727451 0.06392848 0.04422056 0.0013825641 -0.057940856
-0.029328916 -0.054928523 0.06386966 0.049645614 -0.0041227383 0.06759557 -0.043136556 0.058994252
-0.032878447 0.058818802 0.06304359 -0.045252863 0.0022435694 0.07177617 0.040647686 0.01078481
-0.009557803 0.07540056 0.059004202 0.086595885 -0.0009868263 0.053166606 0.017480174 -0.013644888
-0.058817092 -0.03939833 0.03459976 -0.05246386 0.011815388 0.015232846 0.045090925 0.054836508
-0.015904965 -0.0056401845 0.016995916 0.06334438 0.043575607 -0.036765497 0.055023763 0.07441186
0.069650754 -0.0041593034 0.015494021 -0.016321518 -0.03910402 0.035847176 -0.0666404 -0.009085976
-0.029220657 0.081874296 -0.0534372 0.003518647 0.045742527 0.06189541 -0.0532827 0.05416509
0.03688694 0.046780985 0.020756312 -0.049653098 0.086040564 -0.05462954 -0.00509581 0.00218278
0.013741711 0.022944909 0.063637555 -0.022172578 -0.03986585 -0.00047547376 0.04482626 0.06653879
-0.011537191 -0.057479486 -0.06580069 -0.043634344 -0.024999257 -0.05085821 0.014958649 0.04515481
-0.05174004 0.05382061 -0.03747164 -0.01603489 -0.023977417 0.043515243 0.049790014 0.010190273
-0.008087191 0.033344768 0.064948566 0.023537107 0.019282032 0.03790718 -0.013685021 0.0046150684
0.052458808 0.06566991 0.036238622 -0.054874104 0.02884105 0.06576579 -0.05678184 0.007239475
0.06038011 -0.06090429 0.02488017 0.06859965 0.032225553 0.06932844 0.00080300367 -0.047807343
-0.04260151 0.036489278 -0.02798067 -0.015205374 0.04401804 -0.009030238 0.061607536 0.0576531
0.06317055 0.044718735 0.031638023 0.005363091 -0.03064047 -0.05034582 0.04989292 -0.07268838
-0.034681037 0.029917756 0.016042143 -0.035237808 0.086196065 -0.007980289 0.025600674 0.05792535
00000000: 453e 7bbd 20bc b0bc 88f2 383d 3093 1fbc
00000010: 2318 49bc b55b 96bb 87ad 9b3d d2b7 11bd
00000020: 1da7 b93c 28d2 e43b d3f4 00bd 0195 e4bc
00000030: df8c 6eb9 c3b8 253d b87c f43c 2896 c93c
00000040: b961 c53a 7fde 543d e63a 103d 78d5 6ebd
00000050: 90dd 023d 81f5 b8ba 6d7c 9fbd 30c6 66bd
00000060: 92a5 a0ba e51f 123c 8563 0f3d 5c0e c53d
00000070: 5fe4 4abc 64f7 8ebd fc0a a13c 8c0a 49bd
00000080: a26a 1b3d d4ca e1bc 1a0d 0c3d 0f9b ffbc
00000090: e664 1dbd 68e2 1cbd 9312 a3bd f45f adbd
000000a0: 0e67 a1bd b1b6 fa3c a949 8e3d c87c 35bc
000000b0: f0f7 78bd 6687 4cbd 1969 353b fe3a 8dbc
000000c0: a28b 5d3a 0ab7 ea3c 51ff fbbc c9ba 3a3d
000000d0: de99 243c d711 b73d f899 8b3d 1b85 96bd
000000e0: 3d24 c9bc fda8 bfbd d947 a73c f2f0 ba3c
000000f0: 3658 f0bc 30c8 41bd 1163 39bc 27bd 02bc
00000100: 01aa 87bd 5f1c e13c c2de 903d 1355 0fbd
00000110: 1497 293d ec06 803d f14e a43c 9e16 30bd
00000120: 8181 dcbc bd66 9cbd 1cdc 413c d365 9a3d
00000130: d63d 83bc e09a 413c 741c 79bd fab7 5c3d
00000140: 6553 46ba bd55 aebc 2ba5 8dbd 04ab f2bc
00000150: 16f7 323d 04ab 9cbc 4dd0 34bd 26b7 32bd
00000160: 1dc5 5f3d 14dd d43c 9623 58bd 7a19 3d3d
00000170: 63b9 86bc 4ddf 853c d99e 893d fa9f 883d
00000180: 4129 dd3b f942 613d f8f0 593c 1d77 37bd
00000190: 0ea1 19bd 1c1a 723c 61df a8bd 2225 a53c
000001a0: 0b73 873d 0bee d8bb fc4e 74bd 1883 f63c
000001b0: 20d8 43bd e078 a2bc 6ef4 a3bb 0134 9c3d
000001c0: ad9d 0b3c 72eb be3c 3074 793c 62fb 94bd
000001d0: efec 823d 9e20 353d 2737 b53a 6453 6dbd
000001e0: 3243 f0bc bbfc 60bd 19ce 823d 3359 4b3d
000001f0: 0918 87bb 8c6f 8a3d f5af 30bd f5a3 713d
00000200: 8dab 06bd fceb 703d ff1c 813d 115b 39bd
00000210: d908 133b 62ff 923d 307e 263d c6b2 303c
00000220: 5598 1cbc 9c6b 9a3d 64ae 713d 2f59 b13d
00000230: 6558 81ba 3ac5 593d 9532 8f3c cf8e 5fbc
00000240: 31ea 70bd 2560 21bd 7ab8 0d3d 58e4 56bd
00000250: 5495 413c 3093 793c 43b1 383d 3f9c 603d
00000260: 214b 82bc 4cd1 b8bb 053b 8b3c b3ba 813d
00000270: 567c 323d 6b97 16bd 9960 613d 3f65 983d
00000280: 0ea5 8e3d c44a 88bb a2da 7d3c b4b4 85bc
00000290: 892b 20bd 7dd4 123d c37a 88bd 58dd 14bc
000002a0: 2960 efbc b6ad a73d f7e0 5abd 1a99 663b
000002b0: 845c 3b3d 0b86 7d3d f63e 5abd 37dc 5d3d
000002c0: c316 173d 6b9d 3f3d 2409 aa3c 0c61 4bbd
000002d0: 0936 b03d 39c3 5fbd c1fa a6bb f90c 0f3b
000002e0: ea24 613c f6f6 bb3c 6854 823d 44a3 b5bc
000002f0: 604a 23bd 0249 f9b9 be9b 373d 7d45 883d
00000300: 7d06 3dbc 9c6f 6bbd 83c2 86bd edb9 32bd
00000310: 3ecb ccbc b350 50bd 1f15 753c 40f4 383d
00000320: 5ded 53bd 0073 5c3d dd7b 19bd 9a5b 83bc
00000330: 4a6c c4bc 0a3d 323d 9df0 4b3d 1af5 263c
00000340: 2380 04bc 8694 083d c103 853d e4d0 c03c
00000350: 5af5 9d3c 8f44 1b3d 2337 60bc 003a 973b
00000360: 0cdf 563d f27d 863d f36e 143d abc3 60bd
00000370: 1144 ec3c 37b0 863d 1394 68bd 1e39 ed3b
00000380: 2251 773d c776 79bd 80d1 cb3c f97d 8c3d
00000390: f1fe 033d 12fc 8d3d aa80 523a a2d1 43bd
000003a0: ec7e 2ebd c875 153d b837 e5bc f61f 79bc
000003b0: 434c 343d 90f3 13bc 2f58 7c3d a825 6c3d
000003c0: 905f 813d fe2a 373d df96 013d debc af3b
000003d0: b901 fbbc 6b37 4ebd 855c 4c3d a5dd 94bd
000003e0: b40d 0ebd 1516 f53c d06a 833c 8555 10bd
000003f0: 9087 b03d c2bf 02bc 81b8 d13c 2243 6d3d
