mobilenet_gray_32_float.tflite (tflite, 497648 bytes, 36 tensors)

sequential/dense/BiasAdd/ReadVariableOp/resource f4 [2]
0	0x3a8cf54a	0.0010754254
1	0xba8cf4fc	-0.0010754163

sequential/batch_normalization/FusedBatchNormV3 f4 [8]
0	0xbfdc7498	-1.7223082
1	0xbfdb3851	-1.7126561
2	0x3fddca64	1.732739
3	0x3fcacc26	1.5843551
4	0x3fd1410a	1.6347973
5	0xbfd79cee	-1.6844766
6	0xbfdf9e7a	-1.7470238
7	0xbfe05812	-1.7526877

sequential/batch_normalization_1/FusedBatchNormV3 f4 [8]
0	0x3f19bed7	0.60056823
1	0xbf0c0002	-0.5468751
2	0x3eb80a33	0.3594528
3	0xbe69f1b2	-0.22846106
4	0x3f034f80	0.5129318
5	0xbee2709d	-0.44226542
6	0xbf04b32b	-0.5183589
7	0xb96bd164	-0.0002248935

sequential/batch_normalization_10/FusedBatchNormV3 f4 [64]
0	0x3db619b3	0.088916205
1	0x3d9d4de4	0.07680872
2	0xbcb4e13c	-0.022080056
3	0x3e47b95c	0.19504303
4	0x3eca51c8	0.3951552
5	0xbed2d094	-0.41174757
6	0xbe99d14e	-0.300425
7	0x3ee1801e	0.44043058
8	0x3f008733	0.502063
9	0xbdf6ba67	-0.12047272
10	0xbe13b0c3	-0.14422898
11	0x3f456aaa	0.7711588
12	0xbe4c49fc	-0.19950098
13	0x3ec0f605	0.37687698
14	0xbf532d49	-0.82490975
15	0x3dbf6668	0.09345704
16	0x3f810b36	1.0081546
17	0x3f025906	0.5091709
18	0xbee0abc9	-0.43881062
19	0x3f1fb378	0.6238322
20	0x3f5fcc6c	0.874213
21	0x3ec17592	0.37785012
22	0xbdfd0125	-0.12353734
23	0xbdfcac64	-0.123375684
24	0x3e4518f3	0.19247799
25	0x3de5c34e	0.11218892
26	0x3d09b473	0.033619355
27	0x3f2155aa	0.6302134
28	0x3da2be65	0.07946471
29	0xbf0b3b3f	-0.5438728
30	0x3f9d97ac	1.2311912
31	0xbf27e0ca	-0.65577376
32	0xbecdce1b	-0.40196308
33	0x3d8b899c	0.06813356
34	0x3f105fc3	0.5639612
35	0xbd440ed0	-0.04786569
36	0x3e61d82e	0.22055122
37	0xbe04592e	-0.12924644
38	0x3f7d6ffd	0.98999006
39	0xbf171f6a	-0.5903231
40	0x3e46b252	0.19403961
41	0xbc336c83	-0.010951164
42	0x3e3f4e22	0.18682149
43	0xbf312dd5	-0.6921056
44	0x3c9200ba	0.017822612
45	0x3f6cb628	0.9246545
46	0xbef398c3	-0.47577485
47	0x3f160ad5	0.5861028
48	0x3e172704	0.14760977
49	0x3f94a633	1.161322
50	0xbd91cdf8	-0.071193635
51	0x3ed8d90c	0.42353094
52	0x3f791684	0.9729998
53	0x3f8cd5fe	1.1002805
54	0xbf7e2f6b	-0.99291104
55	0x3eb6465b	0.35600552
56	0xbe0e25f7	-0.1388167
57	0xbf3b58a7	-0.7318215
58	0x3ebc587f	0.36786267
59	0x3e7c4e7d	0.24639316
60	0xbdd396e1	-0.10331512
61	0xbf692fcc	-0.9108856
62	0xbf39d097	-0.7258391
63	0x3bfa14bc	0.0076318663

sequential/batch_normalization_11/FusedBatchNormV3 f4 [64]
0	0xbf204f86	-0.62621343
1	0xbf6ba526	-0.9204887
2	0x3f24ba5b	0.64346856
3	0xbdf96979	-0.121783204
4	0x3f117f89	0.5683523
5	0x3ee3e25c	0.44508636
6	0x3e56abad	0.20963927
7	0xbf49efe8	-0.7888169
8	0x3d75e8fb	0.06003664
9	0x3f07133d	0.5276373
10	0x3f4bbde9	0.79586655
11	0xbf0e3ba3	-0.5555975
12	0xbf22f539	-0.6365543
13	0x3eabc67e	0.33549875
14	0x3d384d8a	0.044995822
15	0xbf4854ec	-0.7825458
16	0x3f15b685	0.5848163
17	0xbec54100	-0.38526154
18	0xbe5f9bba	-0.21836749
19	0xbf498841	-0.7872353
20	0x3eefebcd	0.4685959
21	0xbe430766	-0.19045791
22	0x3ea74a39	0.32673815
23	0x3ed6ac59	0.41928366
24	0x3f1cf536	0.6131166
25	0x3f3c2830	0.7349882
26	0xbdc678fe	-0.09691046
27	0xbe3b9bd4	-0.18321162
28	0xbf3dca01	-0.7413636
29	0x3ed96f12	0.42467552
30	0x3f727ec7	0.94724697
31	0xbf1600b4	-0.5859482
32	0xbe921fb2	-0.28539807
33	0x3ea891c2	0.32923704
34	0xbf1417ea	-0.5784899
35	0xbed493ed	-0.41519108
36	0xbdaec90a	-0.08534439
37	0x3e40ef56	0.188413
38	0xbe25c8fa	-0.16189948
39	0x3f199564	0.59993577
40	0x3f44c93d	0.76869565
41	0xbe5d77f3	-0.21627788
42	0xbe734916	-0.23758349
43	0xbf44159a	-0.7659546
44	0xbf2d699d	-0.6773928
45	0xbef7cdb7	-0.48399135
46	0xbea84a86	-0.32869357
47	0x3dfc91bd	0.12332485
48	0x3f850a34	1.0393739
49	0xbd5c7626	-0.053823613
50	0x3f210d93	0.6291134
51	0xbf796fa2	-0.97435963
52	0x3ec72e96	0.3890273
53	0xbf18c859	-0.59680706
54	0xbec0b489	-0.37637737
55	0xbf39d0ef	-0.7258443
56	0xbf0d7b09	-0.5526586
57	0xbf300462	-0.6875669
58	0x3e043d91	0.1291411
59	0x3f8264e7	1.0187043
60	0xbf7b2ce5	-0.9811538
61	0x3ef739ca	0.48286277
62	0xbe8b9cf2	-0.27268177
63	0xbe4db28e	-0.20087644

sequential/batch_normalization_12/FusedBatchNormV3 f4 [128]
0	0xbf35fddb	-0.7109048
1	0x3f1c36f1	0.61021334
2	0xbe82d4fc	-0.2555312
3	0x3e0d219b	0.1378235
4	0xbf082eae	-0.5319623
5	0xbeb139a7	-0.34614298
6	0xbdd74129	-0.10510475
7	0xbe4c6d8a	-0.19963661
8	0xbece9c2e	-0.4035353
9	0xbea126c3	-0.31474885
10	0x3d2c5850	0.04207641
11	0xbf30c8c8	-0.6905637
12	0x3d1441ee	0.036195688
13	0xbee249f5	-0.4419705
14	0xbdc4bb54	-0.096060425
15	0xbf5b4404	-0.8565066
16	0xbf4b788a	-0.79480803
17	0x3f1ae6a7	0.605082
18	0x3ec53cd3	0.38522968
19	0x3f42c2c6	0.7607845
20	0x3ee71df7	0.4514005
21	0x3e958c65	0.29208675
22	0x3f047234	0.5173676
23	0xbef708bf	-0.4824886
24	0x3f0c0761	0.5469876
25	0xbe3908f4	-0.18069822
26	0x3f422a40	0.7584572
27	0xbddf50de	-0.10904096
28	0xbdf0a9c3	-0.117511295
29	0x3e631958	0.22177637
30	0x3f0b762d	0.54477197
31	0x3e20d660	0.15706778
32	0xbf042551	-0.5161944
33	0x3e9634ba	0.29337102
34	0x3ee4d322	0.44692332
35	0x3f0a1a14	0.5394604
36	0xbd0a6a6f	-0.03379291
37	0x3f14b611	0.5809031
38	0xbeee671c	-0.4656304
39	0x3f78075b	0.96886224
40	0x3eacf347	0.33779356
41	0xbfa06f6f	-1.2534007
42	0x3d553bd7	0.05205902
43	0xbecd6767	-0.40117952
44	0x3ea0a9a5	0.31379429
45	0xbeb8189a	-0.3595627
46	0xbf1c155a	-0.6097008
47	0x3f4ee014	0.80810666
48	0x3f0e5566	0.5559906
49	0x3e94cbca	0.2906173
50	0xbf32ce4a	-0.6984602
51	0x3ef693ad	0.48159543
52	0x3df5a54e	0.1199442
53	0x3f015b9a	0.505304
54	0x3d184390	0.037173808
55	0x3e4a5b48	0.19761384
56	0xbe3953a4	-0.18098313
57	0xbe5ce7e9	-0.21572842
58	0xbe8ce498	-0.27518153
59	0x3f453e79	0.7704845
60	0xbe7cb3d8	-0.2467798
61	0x3f63baa4	0.88956666
62	0x3d9feaad	0.07808433
63	0x3f28c2ac	0.65922046
64	0x3dc9edd0	0.09859812
65	0xbe07ff79	-0.13281049
66	0x3ef5ed75	0.48032728
67	0xbe853f54	-0.26024878
68	0xbeac9d7b	-0.33713898
69	0xbef56eea	-0.47936183
70	0xbf361ef0	-0.71140957
71	0xbe669342	-0.22517112
72	0x3e9bdaae	0.30440277
73	0xbe803356	-0.25039166
74	0x3e56763b	0.20943539
75	0x3e17e225	0.14832361
76	0xbf023cb0	-0.5087385
77	0x3f7324dd	0.94978124
78	0xbf236fff	-0.6384277
79	0xbefb10db	-0.49036297
80	0x3f1b5dad	0.6068981
81	0x3d4ab79a	0.049491502
82	0xbf1b22f1	-0.6060019
83	0x3e12265f	0.1427245
84	0x3e76a030	0.24084544
85	0xbc4a8b8a	-0.01236237
86	0xbe658b17	-0.2241634
87	0xbdc4e784	-0.096144706
88	0x3ec356f3	0.38152274
89	0x3f0b45b1	0.54403216
90	0x3f6c530e	0.9231423
91	0x3e80ff60	0.25194836
92	0xbd507dc4	-0.05090119
93	0xbe8c3e20	-0.27391148
94	0xbde09899	-0.10966606
95	0xbebc4b8f	-0.36776397
96	0x3d9e2551	0.07721961
97	0xbe2f3828	-0.17111266
98	0xbde34308	-0.110967696
99	0x3f1dd4b0	0.6165266
100	0xbeb1406e	-0.34619468
101	0xbe96646a	-0.29373485
102	0x3f1dd1f6	0.616485
103	0xbe00dad5	-0.12583478
104	0xbdfcba27	-0.12340193
105	0xbf3813cb	-0.719052
106	0x3dc1760e	0.09446345
107	0x3edf3a84	0.4359933
108	0xbecf292a	-0.40461093
109	0xbe2b37d5	-0.16720517
110	0xbef4bce5	-0.47800365
111	0xbdf17614	-0.117901
112	0xbf781f7d	-0.9692305
113	0xbeb5a930	-0.35480642
114	0x3eda9abf	0.42696187
115	0x3eff3f1b	0.49852833
116	0xbf2f579e	-0.6849307
117	0x3f88bd3f	1.0682753
118	0x3f711c3b	0.941837
119	0xbe349e8f	-0.1763861
120	0x3f5ba509	0.857987
121	0x3d12b9a4	0.035821572
122	0x3f0773d7	0.5291113
123	0xbf2c8663	-0.6739256
124	0x3f25fe50	0.64841175
125	0x3eb2dff0	0.34936476
126	0xbea0213b	-0.31275353
127	0x3d1e6389	0.038669143

sequential/batch_normalization_13/FusedBatchNormV3 f4 [128]
0	0x3f34e1a4	0.706568
1	0xbf281a78	-0.6566539
2	0x3dc0d919	0.09416408
3	0x3cf855ba	0.030314315
4	0x3e9358cb	0.2877868
5	0xbf14b5ac	-0.5808971
6	0xbf50c665	-0.81552726
7	0xbefe84b4	-0.4971062
8	0xbf4347d6	-0.7628149
9	0x3e9d803e	0.30761904
10	0x3f2c002a	0.6718775
11	0xbe49b356	-0.19697317
12	0xbf691ac6	-0.9105648
13	0xbf22e82b	-0.6363551
14	0x3ea15172	0.3150745
15	0xbee873c6	-0.45400828
16	0xbee0dfdd	-0.43920794
17	0x3ed7e1a3	0.42164335
18	0xbf6af6a3	-0.9178259
19	0x3f86fb26	1.0545394
20	0x3fa7b458	1.3101912
21	0x3efdef52	0.4959665
22	0xbf03394c	-0.51259303
23	0x3f2340b7	0.6377062
24	0xbf728992	-0.94741166
25	0xbf03e7e7	-0.5152573
26	0xbf57cebe	-0.8429984
27	0x3c0138ff	0.007887124
28	0x3f909cc5	1.1297842
29	0xbe360ab9	-0.17777528
30	0x3e3cfbfe	0.18455502
31	0xbe94a031	-0.29028466
32	0xbf0497a3	-0.5179388
33	0x3e4446a8	0.19167578
34	0x3e9b88ef	0.3037791
35	0xbf421b6b	-0.75823087
36	0xbf76f0a9	-0.9646097
37	0x3f906d4e	1.1283357
38	0x3f393395	0.7234433
39	0x3f4f8f1e	0.81077754
40	0xbc947d7e	-0.018126246
41	0x3f510b9e	0.8165835
42	0xbebf219b	-0.37330326
43	0xbda9dc30	-0.082939506
44	0x3f99749c	1.1988711
45	0xbda884ae	-0.08228432
46	0xbf2ec963	-0.6827604
47	0x3f2b2bae	0.66863525
48	0x3f5df7e2	0.86706364
49	0xbf5a64eb	-0.8531024
50	0x3f44cb00	0.76872253
51	0x3f451a85	0.7699359
52	0x3f0970fd	0.5368803
53	0xbf155a27	-0.58340687
54	0xbf612530	-0.8794737
55	0xbe6a8d3a	-0.22905436
56	0xbd5dd601	-0.05415917
57	0x3f6752b3	0.90360564
58	0xbf46a221	-0.7759114
59	0x3f899d5c	1.0751147
60	0xbf522603	-0.8208925
61	0xbf19be2d	-0.6005581
62	0x3de84a67	0.11342316
63	0xbf988c7b	-1.1917871
64	0xbf3cc28f	-0.7373437
65	0x3f3bea12	0.7340404
66	0xbe57b8c1	-0.21066572
67	0x3f2fe77e	0.68712604
68	0x3f0fed28	0.56221247
69	0x3f026a50	0.5094347
70	0xbf5746b2	-0.8409225
71	0xbf4eb7da	-0.80749285
72	0xbf0ef424	-0.5584128
73	0xbf482feb	-0.78198117
74	0xbec767a6	-0.38946265
75	0x3edfb1f2	0.4369045
76	0x3f5b7c26	0.8573631
77	0x3f4900ff	0.78517145
78	0xbe920da8	-0.28526044
79	0x3f3cfe9c	0.73826003
80	0x3f861032	1.0473692
81	0xbf19e0eb	-0.6010882
82	0xbf7c1390	-0.9846735
83	0x3f6ccbfd	0.9249876
84	0x3f47f87e	0.78113544
85	0x3f213656	0.62973535
86	0x3f456a41	0.77115256
87	0x3f0b783f	0.54480356
88	0x3f0e094e	0.5548295
89	0xbe1e1212	-0.15436581
90	0x3e88ecbe	0.2674312
91	0xbf169774	-0.5882485
92	0xbf4778cf	-0.77918714
93	0x3f0e30a0	0.55542946
94	0x3f6c910d	0.9240883
95	0x3f004f2b	0.501208
96	0x3e901d94	0.28147566
97	0xbe20a237	-0.1568688
98	0x3e4cb441	0.19990636
99	0xbf284d73	-0.6574318
100	0x3f2e301d	0.68042165
101	0xbf41fa71	-0.7577277
102	0x3f333c04	0.7001345
103	0xbf5ffe71	-0.8749762
104	0xbf52bb62	-0.82317173
105	0xbed95805	-0.42449966
106	0x3f15f46d	0.5857609
107	0xbf52e480	-0.82379913
108	0x3f90902e	1.1294
109	0x3f392add	0.7233103
110	0xbef040c4	-0.46924412
111	0xbf56c54f	-0.8389482
112	0xbf32df38	-0.69871855
113	0xbde791c4	-0.113070995
114	0xbd8b3b62	-0.06798436
115	0xbf4ae5cb	-0.79256886
116	0xbf219a68	-0.6312623
117	0xbf743eb0	-0.95408154
118	0xbef7a4af	-0.4836783
119	0x3ea3d2d2	0.3199678
120	0x3f7c7e7b	0.98630494
121	0xbe82d353	-0.25551853
122	0xbf48383e	-0.7821082
123	0xbf3d8696	-0.74033487
124	0xbf8d64ef	-1.1046427
125	0x3f0c410d	0.5478676
126	0xbf4b4379	-0.7939983
127	0x3e5c85c5	0.21535404

sequential/batch_normalization_14/FusedBatchNormV3 f4 [256]
0	0xbf40887c	-0.7520826
1	0xbea77b18	-0.327111
2	0xbee589d4	-0.44831717
3	0x3f4ae215	0.79251224
4	0xbf0db0ae	-0.55347717
5	0x3e51698b	0.20450418
6	0x3eec4049	0.46142796
7	0xbe34a7e3	-0.17642169
8	0xbf78f378	-0.97246504
9	0xbeddbfc6	-0.43310374
10	0xbf2660d4	-0.649915
11	0x3e05f26b	0.13080756
12	0xbdc3d71e	-0.09562515
13	0xbdc4ab99	-0.09603042
14	0xbf0c399f	-0.5477542
15	0x3f0a1075	0.5393136
16	0x3f429829	0.7601343
17	0x3ed9192a	0.4240201
18	0xbccc0d4a	-0.02490868
19	0xbf2770e6	-0.65406644
20	0xbf3501c2	-0.7070581
21	0xbf0eda03	-0.5580141
22	0xbf3e0886	-0.74231756
23	0xc009cddb	-2.1531894
24	0x3fa7e535	1.3116823
25	0xbd5ee33c	-0.054415926
26	0x3ea778da	0.3270939
27	0x3da5f553	0.081034325
28	0x3e8a7fd5	0.27050653
29	0x3ef6bf94	0.48193038
30	0x3f56320f	0.83670133
31	0xbf16bdbe	-0.58883274
32	0x3ebec98d	0.37263146
33	0xbf4eb5b4	-0.80746007
34	0x3f8992db	1.0747942
35	0x3f16d6a3	0.5892126
36	0xbdffc6ee	-0.12489115
37	0x3f1374ec	0.57600284
38	0xbf52fe0c	-0.82418895
39	0xbe631b68	-0.22178423
40	0xbed4cce2	-0.41562563
41	0x3d0f8ead	0.035048176
42	0xbf018187	-0.5058827
43	0x3f3e83d9	0.74419934
44	0xbf1a86d7	-0.60362
45	0xbf91c580	-1.1388397
46	0x3eee6299	0.465596
47	0xbd57ffe6	-0.05273428
48	0xbee16c21	-0.44027808
49	0x3f136d4f	0.57588667
50	0x3f8f6fce	1.1205995
51	0x3f237118	0.6384444
52	0x3fa5cd85	1.2953345
53	0x3e8f3f55	0.27978006
54	0x3e08c933	0.13358001
55	0xbf2fa494	-0.686105
56	0x3f4fcb44	0.81169534
57	0x3f20afa1	0.6276799
58	0x3d8dfc82	0.06932928
59	0xbe1c6524	-0.15272957
60	0xbfc91dff	-1.5712279
61	0xbf31c70e	-0.6944436
62	0x3df66564	0.120310575
63	0x3e060a62	0.13089898
64	0xbeff814b	-0.4990333
65	0x3f01d6b3	0.5071823
66	0xbf0afba9	-0.5429025
67	0xbf234bbd	-0.6378744
68	0x3eb7cd6a	0.35898906
69	0xbd04ea89	-0.032450233
70	0x3e4e70b2	0.20160177
71	0xbf59141c	-0.8479631
72	0x3decd8dd	0.11564801
73	0xbed87843	-0.42279252
74	0x3efe1df7	0.49632236
75	0xbe97f18c	-0.29676473
76	0xbdafc131	-0.0858177
77	0xbe4ac934	-0.19803315
78	0xbf3b2001	-0.7309571
79	0xbeb264c9	-0.34842518
80	0x3e3c3875	0.18380912
81	0x3f8612ae	1.047445
82	0xbf10d08d	-0.56568223
83	0x3f9a9a69	1.2078372
84	0xbf139f22	-0.5766469
85	0x3f027e23	0.5097372
86	0x3e174843	0.1477366
87	0xbedd09c3	-0.4317151
88	0x3ee6f354	0.4510752
89	0xbd4c7f87	-0.049926307
90	0x3d4e132a	0.050311245
91	0x3d85b579	0.06528754
92	0xbef4f3a8	-0.47842145
93	0x3d54c21e	0.051942937
94	0x3fc9f2a9	1.5777179
95	0xbd70417e	-0.05865621
96	0x3efd2585	0.49442688
97	0x3f1a9152	0.6037799
98	0x3e89f9b0	0.2694831
99	0xbe3cceb8	-0.18438232
100	0xbdde2ae1	-0.10848022
101	0x3ef7759d	0.4833192
102	0xbf58ce01	-0.84689337
103	0xbe058e6d	-0.13042612
104	0x3f9cb79c	1.2243533
105	0xbf05da56	-0.5228628
106	0xbeb846c5	-0.35991493
107	0x3e172fc1	0.1476431
108	0xbf1bcd21	-0.60859877
109	0xbecbabf1	-0.39779618
110	0x3f012cf0	0.50459194
111	0xbf431db8	-0.7621722
112	0xbefa600d	-0.48901406
113	0xbf8fe119	-1.1240569
114	0xbdd58414	-0.104255825
115	0x3e00a1e4	0.12561756
116	0x3dc76369	0.09735758
117	0xbde73648	-0.1128965
118	0x3e0c42f9	0.13697423
119	0x3edc230f	0.42995498
120	0x3db422ed	0.08795724
121	0xbefd3638	-0.49455428
122	0x3ee2c50c	0.4429096
123	0x3ee747ec	0.4517206
124	0x3fbed313	1.4908165
125	0xbf4ab8f4	-0.79188466
126	0x3f0b5269	0.5442262
127	0x3fd3129e	1.6490057
128	0xbefe21cb	-0.49635157
129	0x3ee32ca0	0.44369984
130	0x3ef5f42c	0.4803785
131	0xbf29f722	-0.6639272
132	0xbf431fb4	-0.7622025
133	0xbfaca1af	-1.3486842
134	0x3f916608	1.1359262
135	0x3f47d71d	0.7806261
136	0x3f84a6c5	1.0363394
137	0xbf2a442f	-0.6651029
138	0x3da3f9cf	0.080066316
139	0xbf3260fb	-0.6967923
140	0x3fced127	1.6157578
141	0xbe8e5956	-0.27802533
142	0xbf815da5	-1.0106703
143	0xbef6acd0	-0.4817872
144	0x3edfeb42	0.43734175
145	0xbec0c8fc	-0.3765334
146	0xbec467c7	-0.38360426
147	0x3ee60d93	0.4493223
148	0x3f89b6f0	1.0758953
149	0x3f84fcce	1.038965
150	0xbf3a0fc6	-0.7268032
151	0x3d61efc7	0.05516031
152	0x3e1e882e	0.15481636
153	0xbf765020	-0.9621601
154	0x3f46c65d	0.7764643
155	0xbea4cc12	-0.32186943
156	0x3e7d706c	0.24749917
157	0x3e842d92	0.25816017
158	0xbeda7ee4	-0.42674935
159	0x3fcdbdc2	1.6073534
160	0xbeb2e42f	-0.34939715
161	0xbc00c862	-0.007860275
162	0x3f479a27	0.7796959
163	0x3e12a2d7	0.14319931
164	0xbece1c52	-0.40255982
165	0xbe9e7273	-0.30946693
166	0xbedc22ff	-0.4299545
167	0xbd17cbad	-0.037059475
168	0xbebe67ee	-0.37188667
169	0xbea53d24	-0.3227321
170	0x3f00e3e0	0.5034771
171	0xbeae113b	-0.3399752
172	0xbd8f8b41	-0.070089824
173	0x3f0281fb	0.50979584
174	0xbd441455	-0.047870953
175	0x3fa0ad3f	1.255287
176	0x3ed5e677	0.41777393
177	0x3e5cd748	0.21566498
178	0xbe890b8b	-0.2676662
179	0xbf552761	-0.8326321
180	0x3f6aa96a	0.91664755
181	0x3e9bca8f	0.30427977
182	0xbea1459f	-0.3149843
183	0xbec8ed23	-0.3924342
184	0x3d8593ac	0.06522307
185	0xbee5dc62	-0.448947
186	0x3ed0ee6e	0.40806907
187	0xbeeccfec	-0.46252382
188	0xbf4fddef	-0.8119802
189	0x3cd6abe0	0.026205003
190	0xbe8a235c	-0.26980102
191	0x3e4fa4aa	0.20277658
192	0xbce8d9bb	-0.028424134
193	0xbe27e900	-0.16397476
194	0x3f04f2d1	0.5193301
195	0xbe418084	-0.18896681
196	0xbe23a4a4	-0.15980774
197	0xbfa410c8	-1.2817621
198	0x3df4b622	0.119488016
199	0x3f04b4a2	0.51838124
200	0x3e5cd68d	0.2156622
201	0xbf4cbaaa	-0.79972327
202	0xbd9ca42e	-0.07648502
203	0xbea3f57f	-0.32023236
204	0xbeacd200	-0.33753967
205	0x3fad54d2	1.354151
206	0xbf9437e6	-1.1579559
207	0x3f4c7021	0.79858595
208	0x3e597182	0.21234706
209	0xbd353488	-0.04423955
210	0xbf994c00	-1.1976318
211	0xbf05a5b7	-0.52205986
212	0x3f2cb2d3	0.67460364
213	0xbf684488	-0.9072957
214	0xbe559229	-0.20856537
215	0x3f8e69ca	1.1126034
216	0x3fd1614c	1.6357818
217	0xbe78c6c8	-0.24294579
218	0xbded10ac	-0.115754455
219	0xbf84ce0f	-1.0375384
220	0x3e63a47b	0.22230713
221	0xbe8b9b25	-0.27266803
222	0xbf507e74	-0.8144295
223	0xbec39e35	-0.3820664
224	0x3ee5387a	0.4476965
225	0xbe8860a7	-0.2663624
226	0x3f21935e	0.6311549
227	0x3d477000	0.048690796
228	0xbf72968b	-0.9476096
229	0xbdb1f84a	-0.086899355
230	0xbfa88cda	-1.3167984
231	0xbf110c0d	-0.56659013
232	0x3ecaf6b3	0.39641342
233	0x3eb7049c	0.35745704
234	0x3e1365e7	0.14394341
235	0xbdbdb167	-0.092623524
236	0xbde7dedf	-0.11321806
237	0xc0292b23	-2.6432579
238	0x3ca3c01a	0.019989062
239	0x3e7754e9	0.24153484
240	0x3f037885	0.51355773
241	0x3f94e696	1.1632869
242	0xbdd70220	-0.10498452
243	0xbe75ed66	-0.24016342
244	0x3f1a5a46	0.60293996
245	0xbf203c11	-0.62591654
246	0x3beb8692	0.007187673
247	0x3edb1cf2	0.4279552
248	0x3f5c20e8	0.8598771
249	0xbe25562a	-0.1614615
250	0xbee4c106	-0.44678515
251	0x3f8b3c95	1.0877863
252	0xbdf36260	-0.11883998
253	0x3efffefb	0.49999222
254	0xbefea685	-0.4973642
255	0xbe9f547e	-0.3111915

sequential/batch_normalization_15/FusedBatchNormV3 f4 [256]
0	0x3f0d6c09	0.55242974
1	0x3ea94b04	0.33065045
2	0x3e8f5f39	0.28002337
3	0x3ef43e26	0.47703665
4	0x3eaa2779	0.3323324
5	0x3e81b628	0.25334287
6	0xbedd7e60	-0.4326048
7	0x3ed37002	0.41296393
8	0xbec5c488	-0.38626504
9	0x3effbd03	0.49948892
10	0xbb2c7f17	-0.0026320869
11	0xbea0cf1e	-0.31408018
12	0xbc115e89	-0.008872637
13	0xbe7054ff	-0.23469923
14	0xba402d90	-0.0007331008
15	0x3e8cf791	0.27532628
16	0x3f113611	0.56723124
17	0xbe6951f9	-0.22785176
18	0xbe81a77d	-0.25323096
19	0xbf084e80	-0.5324478
20	0xbb1d7b04	-0.0024029622
21	0x3efe0140	0.4961033
22	0xbba6eeed	-0.0050944
23	0xbf00b3e6	-0.50274503
24	0x3f152b4d	0.58269197
25	0xbb048574	-0.0020221146
26	0x3e91ce94	0.2847792
27	0xbee78d4b	-0.45224985
28	0x3e70f131	0.23529507
29	0x3f0b0708	0.54307604
30	0xbec2c6e1	-0.38042358
31	0x3dd1479a	0.10218735
32	0xbecba914	-0.39777434
33	0xbe6d1385	-0.23151977
34	0x3eb311f1	0.34974626
35	0xbbd265c5	-0.0064208233
36	0xbea1f325	-0.31630817
37	0xbec472fb	-0.38368973
38	0xbe9df1cb	-0.30848536
39	0xbdfd51ff	-0.12369155
40	0xbf12b80f	-0.573121
41	0xbea84298	-0.32863307
42	0xbed0f2a7	-0.4081013
43	0x3e8cdfb4	0.27514422
44	0xbe8a505d	-0.27014437
45	0x3e84c758	0.25933337
46	0x3eca174a	0.39470893
47	0x3ec6dbc5	0.38839546
48	0xbec5b1f4	-0.3861233
49	0xbe2329ee	-0.15933964
50	0x3eeb1d20	0.45920658
51	0x3e8c3800	0.27386475
52	0x3ed1fd8b	0.4101375
53	0xb8e13129	-0.00010737993
54	0x3f09e63b	0.5386693
55	0xbe829f2c	-0.25512064
56	0xbe98af56	-0.2982127
57	0xbadedec3	-0.0017003644
58	0x3e16c243	0.14722542
59	0x3d3d33ec	0.046192095
60	0x3e0a19d9	0.13486423
61	0xbe534cf4	-0.20634824
62	0xbea0a8dd	-0.31378832
63	0xbeccfc29	-0.40036133
64	0x3f0bd75a	0.54625475
65	0x3eb0584c	0.34442365
66	0xbea8cb77	-0.3296773
67	0xbe88b4ac	-0.26700342
68	0x3db32029	0.087463684
69	0xbb90db4e	-0.0044206744
70	0x3eaced06	0.33774585
71	0x3e42d50d	0.19026585
72	0xbecf04a2	-0.40433222
73	0x3e9474f0	0.28995466
74	0x3ebfa872	0.374332
75	0xbd22a2be	-0.039705984
76	0xbe7bd5f6	-0.24593338
77	0xbe59de52	-0.21276215
78	0xba658705	-0.0008755776
79	0x3e93d8a7	0.2887623
80	0xbe4b10a3	-0.19830565
81	0xbaebaba5	-0.0017980231
82	0xbf060fc7	-0.52367824
83	0xbba11390	-0.004915662
84	0xbe9fae51	-0.3118768
85	0x3e60724a	0.21918598
86	0x3f0127a9	0.5045114
87	0xbeb36e12	-0.35044914
88	0xbe735ef6	-0.23766693
89	0x3e842133	0.2580658
90	0xbede711b	-0.43445668
91	0x3eb39b6d	0.35079518
92	0xbbb7ff32	-0.0056151384
93	0x3e17518f	0.14777206
94	0x3e8b580e	0.27215618
95	0xbb4533d4	-0.0030090706
96	0x3d021df6	0.031766854
97	0x3ee2de84	0.4431039
98	0xbb08f9d3	-0.002090086
99	0xbe9028e2	-0.2815619
100	0xbe5dafb9	-0.21649064
101	0xbed186d0	-0.40923166
102	0x3e24fe28	0.16112578
103	0xbef1722e	-0.47157425
104	0x3f0414d4	0.5159428
105	0xbde92896	-0.11384694
106	0x3e5ea0a7	0.21740972
107	0xbe743579	-0.23848523
108	0x3f26dd38	0.65181303
109	0xbf03e363	-0.5151884
110	0xb92efee3	-0.00016688886
111	0x3eaa76f5	0.33293882
112	0xbec37e4f	-0.38182303
113	0xbe0fad52	-0.1403096
114	0xbf065301	-0.52470404
115	0xbe8b141a	-0.27163774
116	0xbe8f35ec	-0.27970827
117	0xb9c25c24	-0.00037071214
118	0xbe632e1a	-0.22185555
119	0xbebc2344	-0.36745656
120	0x3ebb842e	0.36624283
121	0xbeab84d0	-0.33499765
122	0xba7a1bf0	-0.0009540906
123	0xb8a8fa84	-8.0575264e-05
124	0x3df36ea8	0.118863404
125	0x3ee33c3c	0.44381893
126	0x3eceb032	0.403688
127	0xbee7e16a	-0.45289165
128	0xbeb514d5	-0.35367456
129	0x3dfb6d1a	0.12276669
130	0xbad62bb7	-0.0016339932
131	0x3d94b57a	0.072611764
132	0xbecacd50	-0.39609766
133	0xbb09ffd4	-0.0021057026
134	0x3e8e6aa6	0.2781574
135	0xbaf3327e	-0.0018554477
136	0xbed37aed	-0.41304722
137	0x3edb12cf	0.42787787
138	0xbf012607	-0.5044865
139	0xbe088b8a	-0.1333448
140	0x3e761691	0.24032046
141	0xbe0c28c8	-0.13687432
142	0xbb6c6451	-0.0036070535
143	0xbbacf328	-0.00527801
144	0xbab9b6dd	-0.0014168877
145	0xbed3638e	-0.41286892
146	0xbe7d0e79	-0.24712552
147	0xbe384f86	-0.17999086
148	0x3e7e4752	0.24831894
149	0x3dc0dd3a	0.094171956
150	0xbad16866	-0.0015976548
151	0x3efa6e4d	0.48912278
152	0xb98dfe28	-0.00027082977
153	0x3e734cc8	0.23759758
154	0x3edd2ff7	0.43200657
155	0xbef49163	-0.4776717
156	0xbc8f181e	-0.017467555
157	0xbae8abd8	-0.0017751409
158	0x3e717922	0.23581365
159	0xbeb27fe9	-0.34863213
160	0xbe8296a8	-0.25505567
161	0xbe597226	-0.2123495
162	0x3ecca335	0.39968267
163	0xbe135d00	-0.14390945
164	0xbe65575d	-0.22396608
165	0xbeb8d43b	-0.3609942
166	0x3e30d6f4	0.17269498
167	0xbee030ee	-0.4378733
168	0xbd2bfbed	-0.041988302
169	0xb9b14973	-0.00033814795
170	0x3efa5d46	0.48899287
171	0xbec71a7e	-0.388874
172	0x3f087d8f	0.5331659
173	0x3ef87e13	0.48533687
174	0xbe5cf44e	-0.2157757
175	0x3ebdc7e6	0.37066573
176	0xbed34063	-0.4126006
177	0x3e217c26	0.15770015
178	0x3e4ae456	0.19813666
179	0x3ecefaa1	0.4042559
180	0xbeb57917	-0.35443947
181	0xbb941e5e	-0.0045202216
182	0xbc682145	-0.014168088
183	0xbf014035	-0.504886
184	0x3d7f2e88	0.062300235
185	0x3eaca01b	0.337159
186	0xbe43fc70	-0.19139266
187	0xbe6ff115	-0.23431809
188	0x3ec451cd	0.3834366
189	0xba06a6f1	-0.00051365705
190	0xb993052c	-0.00028041878
191	0xbea3836a	-0.31936198
192	0xbbab04e6	-0.00521909
193	0xbe2d9cac	-0.16954297
194	0xbef98d8c	-0.48740804
195	0xbf0a0540	-0.5391426
196	0xbb7cc448	-0.0038569141
197	0x3df7ffd3	0.121093415
198	0xb96c4578	-0.00022532593
199	0xba1d0fe0	-0.000599144
200	0xbeb93d41	-0.36179546
201	0x3e940c75	0.28915754
202	0xbe8b4084	-0.2719766
203	0xbeba178c	-0.3634609
204	0x3e45f90a	0.19333282
205	0x3eefdc71	0.4684787
206	0x3e8933d9	0.2679737
207	0x3ea3eeff	0.32018277
208	0xbb1c2668	-0.0023826603
209	0xbee38308	-0.44435906
210	0x3df4e5ee	0.11957918
211	0xbc951cb5	-0.018202165
212	0xbbc11dcf	-0.005893446
213	0x3de50d30	0.11184156
214	0x3ee22561	0.44169143
215	0x3ee7ce21	0.4527445
216	0x3e095bc3	0.1341391
217	0xbadfab06	-0.0017064519
218	0x3eb58feb	0.35461363
219	0xbec6500a	-0.3873294
220	0x3e7377fe	0.23776242
221	0x3eb09ee1	0.34496215
222	0xbb8e6f96	-0.004346798
223	0xbec91bee	-0.3927912
224	0xbec5324c	-0.38514936
225	0x3e839dd3	0.25706348
226	0xbedb2958	-0.4280498
227	0xbead1aa6	-0.33809394
228	0xbefaa4b6	-0.4895379
229	0xb9a08054	-0.0003061319
230	0xbec3b062	-0.38220507
231	0xbf181399	-0.59404904
232	0x3f14e953	0.58168525
233	0xbe1577c3	-0.14596467
234	0xbe08232d	-0.13294668
235	0xbe93245a	-0.28738672
236	0xbb06fad2	-0.0020596278
237	0xbf1ea4a5	-0.6196998
238	0xbe6353fd	-0.22200008
239	0xbe93469c	-0.28764808
240	0x3ecadc95	0.39621416
241	0xbe937b68	-0.2880509
242	0x3eb89272	0.3604923
243	0x3daf9816	0.0857393
244	0xbec48022	-0.38379008
245	0xbec4bc62	-0.38424975
246	0xbeeb6913	-0.45978603
247	0xb97f257e	-0.00024332662
248	0x3e73796f	0.23776792
249	0xbee470cc	-0.44617307
250	0x3f035b25	0.5131095
251	0x3eeed003	0.46643075
252	0x3e1d2039	0.15344323
253	0x3f02d04a	0.51099074
254	0x3dc4b595	0.096049465
255	0xbdfb895d	-0.12282059

sequential/batch_normalization_16/FusedBatchNormV3 f4 [256]
0	0x3ee4c1a8	0.44678998
1	0xbebd738d	-0.3700222
2	0xbf9d296d	-1.2278267
3	0xbcf3232d	-0.029679859
4	0xbf8d4184	-1.1035619
5	0x3f3e2765	0.7427886
6	0xbea6fee9	-0.32616356
7	0xbebbf391	-0.36709264
8	0x3d9d4a1f	0.07680153
9	0x3f93e5d6	1.1554515
10	0x3e1a19ad	0.15048857
11	0x3e4a1769	0.19735493
12	0xbe508c37	-0.20365988
13	0x3f81184b	1.0085539
14	0xbfb84c48	-1.4398279
15	0xbfc4531a	-1.533786
16	0xbedcf1e3	-0.43153295
17	0xbe06cbb6	-0.13163647
18	0x3d9e1936	0.07719652
19	0xbf76af0e	-0.9636086
20	0x3f5ccaa9	0.86246735
21	0xbeb8c83a	-0.3609026
22	0xbb55cc00	-0.0032622814
23	0x3f949f6a	1.1611149
24	0x3eca610d	0.3952717
25	0x3e863bc5	0.26217476
26	0xbec3149b	-0.38101658
27	0x3ed2e1d1	0.4118791
28	0xbe2a6dac	-0.16643399
29	0x3dc6e70d	0.09712038
30	0x3f33beb9	0.70212895
31	0xbeda90f6	-0.4268872
32	0x3f2d6c91	0.67743784
33	0x3f5589ad	0.834132
34	0x3fa60315	1.296969
35	0xbf25bebf	-0.6474418
36	0xbe1d6815	-0.15371735
37	0x3ea393ba	0.31948644
38	0xbe864472	-0.26224095
39	0x3f7d9e64	0.9906981
40	0x3ebc60b6	0.36792535
41	0xbf7dbcae	-0.9911603
42	0x3f973db8	1.181571
43	0x3d9029f9	0.07039256
44	0x3fbf9e5c	1.4970202
45	0xbf201c22	-0.6254293
46	0x3f2723b2	0.6528884
47	0x3df1b8dd	0.11802838
48	0xbdeb0e8a	-0.114773825
49	0x3ed810f0	0.42200422
50	0x3e832ad5	0.25618616
51	0x3e822122	0.25415903
52	0xbf0c5731	-0.54820544
53	0x3f60e98e	0.87856376
54	0xbf0a2306	-0.5395969
55	0xbf03dc9b	-0.5150849
56	0x3e99bf9d	0.30029002
57	0xbef3421d	-0.47511378
58	0xbee3ad4b	-0.4446815
59	0xbea9ca7c	-0.33162296
60	0x3dff722e	0.1247295
61	0x3ece96c1	0.4034939
62	0x3f24eb17	0.6442122
63	0x3e19246b	0.14955299
64	0xbeea6f87	-0.45788214
65	0xbf63fb18	-0.89055014
66	0x40158491	2.3362162
67	0x3f42b6d8	0.7606025
68	0xbf255ab3	-0.6459152
69	0x3f85866a	1.0431645
70	0x3eec8398	0.46194148
71	0x3ee10d6f	0.43955562
72	0xbe90491c	-0.28180778
73	0x3dbdefb5	0.09274236
74	0xbdb6dc26	-0.08928709
75	0x3ef0c923	0.47028455
76	0x3f3dde2f	0.7416715
77	0x3d5a1309	0.05324081
78	0x3ecc2a00	0.39875793
79	0x3f4efac9	0.8085142
80	0x3ee8763a	0.454027
81	0x3f5deafd	0.8668669
82	0xbd67dc4c	-0.056606576
83	0x3f0b7d2f	0.5448789
84	0xbf1c7368	-0.61113596
85	0x3e48d196	0.196112
86	0x3ee5ba78	0.44868827
87	0x3e4f6573	0.20253544
88	0x3f597c4e	0.849553
89	0xbf5ce35c	-0.8628442
90	0xbe047be4	-0.12937886
91	0xbea05313	-0.3131338
92	0x3f2ad8a6	0.6673683
93	0x3fa253f3	1.2681869
94	0x3effbabc	0.49947155
95	0xbd045132	-0.032303996
96	0x3f8713e0	1.055294
97	0xbf8066ca	-1.0031369
98	0x3f1196dd	0.56870824
99	0xbef89593	-0.48551616
100	0xbf1524dd	-0.58259374
101	0x3d267746	0.04064109
102	0xbcfe905d	-0.031074697
103	0xbf06a5f3	-0.5259697
104	0xbfa485b8	-1.2853308
105	0x3eab70d4	0.3348452
106	0xbf947097	-1.159686
107	0xbe829386	-0.25503176
108	0x3f6f1381	0.93389136
109	0x3cdd707a	0.027031172
110	0xbf129e48	-0.5727277
111	0xbe8b5d0f	-0.27219436
112	0xbfa01fc2	-1.2509692
113	0xbeef238f	-0.46706817
114	0x3e0f2ce0	0.13981962
115	0x3e28adf8	0.16472614
116	0x3f38fc34	0.7225983
117	0xbe485874	-0.19564992
118	0x3e26458f	0.16237472
119	0x3f9a8f81	1.2075044
120	0x3f00a854	0.5025685
121	0xbfb0f978	-1.3826132
122	0xbf9e2002	-1.2353518
123	0x3e8db450	0.2767663
124	0xbdb910dd	-0.090364195
125	0x3dde61d0	0.108585
126	0xbe747b23	-0.23875098
127	0xbe25428b	-0.16138665
128	0x3f77bd64	0.9677336
129	0x3f73de84	0.95261407
130	0x3f39b53e	0.7254218
131	0x3f8d8365	1.1055723
132	0x3f55ebaf	0.8356275
133	0x3dc62e62	0.096768156
134	0xbf15c59b	-0.58504647
135	0x3ea700ba	0.32617742
136	0xbeedfce6	-0.4648201
137	0x3e06f8cf	0.1318085
138	0xbeb46488	-0.3523295
139	0x3e9c64d6	0.30545682
140	0x3f34522d	0.7043789
141	0xbee508cf	-0.44733283
142	0x3ed9c6f5	0.42534605
143	0x3f8fb7c0	1.1227951
144	0xbed1c9ac	-0.40974176
145	0xbe1f5551	-0.1555989
146	0x3ee9b19b	0.45643315
147	0xbeb27017	-0.34851143
148	0x3e3943a8	0.18092215
149	0x3f7e557e	0.993492
150	0x3e8d143b	0.27554497
151	0xbf0b632e	-0.5444821
152	0xbd4386ab	-0.04773585
153	0x3d491ed0	0.04910165
154	0x3f479981	0.77968603
155	0x3d7ce9da	0.061746456
156	0x3ee2fd7b	0.44334015
157	0xbe684dd5	-0.2268594
158	0xbe983583	-0.29728326
159	0xbef16009	-0.47143582
160	0x3f773d69	0.9657808
161	0xbe806fc2	-0.25085264
162	0xbe801e1c	-0.25022972
163	0x3e88cc17	0.26718208
164	0xbfbf4cab	-1.4945272
165	0xbde88606	-0.11353688
166	0xbd999253	-0.07498612
167	0xbe1bb4e0	-0.15205717
168	0xbe9b2f35	-0.30309454
169	0xbfab659c	-1.3390384
170	0xbf76b371	-0.96367556
171	0x3e10bbd2	0.14134148
172	0x3de44f87	0.11147981
173	0x3dc00a1c	0.09376928
174	0x3eee7c8b	0.46579394
175	0xbdac3634	-0.08408776
176	0x3fd0ce8e	1.6313035
177	0xbf143f37	-0.5790896
178	0xbf2f6aa6	-0.6852211
179	0xbe97872d	-0.29595318
180	0x3f95db80	1.1707611
181	0xbee83406	-0.4535219
182	0xbf41bb21	-0.7567616
183	0xbe83617e	-0.25660318
184	0xbf7d9af4	-0.99064565
185	0xbf7f48d0	-0.9972048
186	0x3f09aecd	0.5378235
187	0x3ec3e6db	0.38262066
188	0xbd842f5c	-0.064543456
189	0xbf1298a4	-0.5726416
190	0xbdd845d4	-0.10560194
191	0xbe4f88b7	-0.20266996
192	0x3e987ae8	0.2978127
193	0xbf111283	-0.5666887
194	0x3f93148a	1.1490643
195	0x3a9cd3a0	0.0011964925
196	0xbf4c864a	-0.7989241
197	0xbe8532e1	-0.2601538
198	0x3e016ef6	0.12639984
199	0x3ea5fe06	0.32420367
200	0xbf03b706	-0.51451147
201	0xbe8e9ff7	-0.27856418
202	0xbef1fc5f	-0.47262856
203	0xbd5ce88e	-0.05393272
204	0x3f0ef2f0	0.55839443
205	0xbe7153f6	-0.23567185
206	0x3f5062c3	0.814007
207	0x3be50eb8	0.00699028
208	0xbf4a14ee	-0.78938186
209	0x3f0bf415	0.54669315
210	0x3f9fe997	1.2493161
211	0x3dcf969f	0.101361506
212	0x3f2f8652	0.6856433
213	0x3d27e5b7	0.040990558
214	0xbe6fe9c8	-0.23429024
215	0x3ef838aa	0.4848073
216	0x3e8c3053	0.27380618
217	0xbf168f73	-0.58812636
218	0x3fde918c	1.7388167
219	0x3ee3ba9c	0.4447831
220	0x3ec358ec	0.3815378
221	0x3f0526c3	0.5201227
222	0xbf0ff45a	-0.56232226
223	0x3d4a1459	0.04933581
224	0x3ea49475	0.32144514
225	0x3bfeca8c	0.0077756103
226	0x3ebdf28b	0.37099108
227	0xbe5c8247	-0.21534072
228	0xbf0f8da9	-0.5607553
229	0xbf8cd9c9	-1.1003963
230	0x3f117d37	0.5683169
231	0x3e2dae5b	0.16961043
232	0x3f8e0a6c	1.109693
233	0x3e85fda2	0.2617007
234	0x3e213d0a	0.15745941
235	0x3ec3fb2e	0.38277572
236	0xbfb34c97	-1.4007748
237	0x3f025e8c	0.5092552
238	0xbed347b0	-0.4126563
239	0xbf0eb875	-0.5575021
240	0x3e2a657b	0.16640274
241	0xbf2122ab	-0.62943524
242	0x3f5ca5f2	0.8619071
243	0xbed19317	-0.40932533
244	0x3f5e8fce	0.8693818
245	0x3ed0a299	0.40749052
246	0x3f476b15	0.7789777
247	0x3f0b62de	0.54447734
248	0x3e4774e7	0.19478188
249	0x3e72587d	0.23666568
250	0x3f94c9a7	1.162404
251	0x3fa343a5	1.2755018
252	0xbf599956	-0.849996
253	0xbe1bd776	-0.1521891
254	0x3e194023	0.14965872
255	0xbf038740	-0.5137825

sequential/batch_normalization_2/FusedBatchNormV3 f4 [16]
0	0x3dbfba19	0.09361667
1	0x3f3f835b	0.7480981
2	0x3f636759	0.8882957
3	0x3f277181	0.6540757
4	0xbe939b02	-0.288292
5	0xbf4c7c1c	-0.79876876
6	0x3f813343	1.0093769
7	0xbe42c719	-0.19021262
8	0xbecc9314	-0.39955962
9	0xbf417aff	-0.755783
10	0xbf1210b0	-0.57056713
11	0x3ef06dce	0.46958774
12	0x3f60569f	0.87632173
13	0xbe7a82c2	-0.24463943
14	0x3ead3983	0.3383294
15	0xbf0b533f	-0.544239

sequential/batch_normalization_3/FusedBatchNormV3 f4 [16]
0	0xbd6210f2	-0.05519194
1	0xbf14ad00	-0.5807648
2	0xbf6015d1	-0.8753329
3	0xbf59c714	-0.85069394
4	0xbd8893e3	-0.06668832
5	0xbeff2d29	-0.49839142
6	0xbf87ec50	-1.0618992
7	0x3f1d9a98	0.61564016
8	0xbe6df3e2	-0.23237565
9	0xbf3b9ca0	-0.73285866
10	0x3f75946d	0.95929605
11	0xbe30be2f	-0.1726005
12	0xbf8dfa01	-1.109192
13	0x3e65d888	0.22445881
14	0xbf23e699	-0.6402374
15	0xbca6f424	-0.020380087

sequential/batch_normalization_4/FusedBatchNormV3 f4 [32]
0	0xbf1dfb6e	-0.61711776
1	0x3ed74166	0.42042083
2	0x3eede3f9	0.46462992
3	0x3faf056b	1.3673528
4	0xbf9a0b61	-1.2034723
5	0x3ece6d30	0.40317678
6	0x3e0f8e6e	0.14019176
7	0xbf1c7180	-0.6111069
8	0x3d69fe80	0.057127476
9	0xbef78142	-0.48340803
10	0xbed6e007	-0.41967794
11	0xbebd7ef4	-0.3701092
12	0xbe9ccf52	-0.30626923
13	0xbe6880ef	-0.22705434
14	0x3f50d233	0.8157074
15	0x3d5dd7f4	0.054161027
16	0xbf002165	-0.50050956
17	0xbf8fa7c0	-1.1223068
18	0xbe53dcfe	-0.2068977
19	0x3e86df79	0.2634237
20	0xbf084b72	-0.5324012
21	0x3eafad69	0.3431199
22	0x3f91f249	1.1402065
23	0xbe9203bb	-0.2851847
24	0xbf1bdbe7	-0.6088242
25	0x3ef57779	0.47942713
26	0x3e0d4e59	0.13799419
27	0xbf81819a	-1.0117676
28	0xbe8487b5	-0.25884786
29	0xbe69980d	-0.22811909
30	0x3f01c5bd	0.5069235
31	0xbea754c8	-0.3268187

sequential/batch_normalization_5/FusedBatchNormV3 f4 [32]
0	0x3e9ab952	0.30219513
1	0x3f853c8e	1.0409105
2	0x3eacca0f	0.33747908
3	0x3f1dfd91	0.61715037
4	0x3f00bfdc	0.50292754
5	0xbf21a849	-0.6314741
6	0xbebfbd5e	-0.37449163
7	0x3f52c411	0.82330424
8	0x3e8536eb	0.26018462
9	0xbe88a6ac	-0.2668966
10	0xbe5d1ca8	-0.21592963
11	0xbc259750	-0.0101068765
12	0xbf0887ab	-0.5333201
13	0xbeccaee9	-0.39977196
14	0x3d9cf04a	0.07663019
15	0xbc83beb5	-0.016082147
16	0x3f751fbd	0.95751554
17	0xbf1dd99e	-0.6166018
18	0xbe0bff1b	-0.13671534
19	0xbe38dff6	-0.18054184
20	0xbec75f39	-0.38939837
21	0xbfa64ac3	-1.2991565
22	0x3ec95a5c	0.3932675
23	0xbf1d0c21	-0.6134663
24	0xbe879929	-0.2648404
25	0xbda53ea1	-0.08068586
26	0xbf76f5dd	-0.9646891
27	0xbe8fd25c	-0.2809018
28	0xbf404c83	-0.7511675
29	0x3edcebc5	0.43148628
30	0xbee2b400	-0.44277954
31	0xbebe9da2	-0.3722964

sequential/batch_normalization_6/FusedBatchNormV3 f4 [32]
0	0x3ebecc07	0.37265036
1	0xbe8b063b	-0.2715319
2	0x3ef8faf6	0.48628968
3	0xbf31526f	-0.6926641
4	0xbe6c43db	-0.2307276
5	0xbe22e6ae	-0.1590831
6	0x3f4f4a9e	0.8097323
7	0x3eb46bc1	0.3523846
8	0x3e57837b	0.2104625
9	0xbf3f7677	-0.7479014
10	0x3e0e7f39	0.13915719
11	0x3f090e72	0.53537667
12	0x3ed85737	0.4225404
13	0xbeb61025	-0.35559192
14	0x3cabf27e	0.020989653
15	0x3f54049e	0.82819545
16	0x3d439606	0.047750495
17	0xbf11c7cd	-0.56945497
18	0xbcbcf68b	-0.02306678
19	0xbf59bbdc	-0.85052276
20	0xbe4fc213	-0.20288877
21	0xbdfee49d	-0.12445948
22	0xbee8dcc8	-0.45480943
23	0x3e89cb52	0.26912934
24	0xbeb93fe6	-0.36181563
25	0xbe46bc0a	-0.19407669
26	0x3f02c15a	0.5107628
27	0x3edc4214	0.43019164
28	0x3e793b12	0.2433894
29	0xbeedefe9	-0.464721
30	0xbe08d988	-0.13364232
31	0xbf14991f	-0.58046144

sequential/batch_normalization_7/FusedBatchNormV3 f4 [32]
0	0xbf384828	-0.719851
1	0xbf271ec3	-0.65281314
2	0x3f4a7efc	0.7910001
3	0x3f120e50	0.5705309
4	0xbe53c900	-0.20682144
5	0x3f066a62	0.5250608
6	0x3d847d1b	0.064691745
7	0xbe6b4a2e	-0.22977516
8	0x3f79416b	0.97365445
9	0xbe6e8ea1	-0.23296596
10	0x3f6a1a01	0.9144593
11	0x3fa7115a	1.305217
12	0x3f724f22	0.94652
13	0xbeafd0d4	-0.3433901
14	0xbf2f3b84	-0.6845019
15	0x3f1e8c76	0.61933076
16	0xbe426721	-0.18984653
17	0xbf23e56a	-0.64021933
18	0x3f2341fc	0.6377256
19	0xbe16aaa8	-0.14713538
20	0xbf406372	-0.7515174
21	0xbe818391	-0.2529569
22	0xbf51fb19	-0.8202377
23	0x3f3c64d6	0.73591363
24	0xbdc7fe5b	-0.09765311
25	0xbf42c669	-0.76084
26	0xbf370858	-0.71497107
27	0x3f2618db	0.64881676
28	0x3f16c786	0.588982
29	0xbf02b101	-0.51051337
30	0xbf729576	-0.9475931
31	0xbf67c2c7	-0.9053158

sequential/batch_normalization_8/FusedBatchNormV3 f4 [64]
0	0x3ecb4a5b	0.39705166
1	0xbeb977c2	-0.3622418
2	0xbf659767	-0.89684147
3	0xbdf36ad7	-0.118856125
4	0xbf0adc4a	-0.54242384
5	0x3dbf6959	0.09346265
6	0xbd926792	-0.07148661
7	0xbe490590	-0.19631028
8	0xbf5801bf	-0.84377664
9	0x3de1a312	0.11017431
10	0xbf4a045c	-0.789129
11	0xbeac3b2b	-0.33638892
12	0x3ed8b720	0.42327213
13	0x3e86097e	0.26179117
14	0xbec2a397	-0.38015434
15	0x3e34c666	0.17653808
16	0x3f6bb17c	0.92067695
17	0x3e5b96fe	0.21444318
18	0xbe2b4386	-0.16724977
19	0xbfc9b962	-1.5759699
20	0x3f1c3ab2	0.6102706
21	0xbe955b99	-0.29171446
22	0xbef79a31	-0.48359826
23	0x3ed80e83	0.42198572
24	0x3f87e088	1.0615396
25	0x3f65f3e9	0.898253
26	0x3ca23f63	0.019805616
27	0x3eb61db1	0.35569528
28	0xbe8d7bfc	-0.27633655
29	0xbee6203a	-0.44946462
30	0x3edf404b	0.4360374
31	0x3d6bab6c	0.057536528
32	0xbdf2155c	-0.1182048
33	0xbe8bf483	-0.27334985
34	0xbe91d3b3	-0.28481826
35	0x3ddd509e	0.10806392
36	0x3f155ee4	0.58347917
37	0xbf2a559c	-0.6653688
38	0x3eb41b00	0.3517685
39	0x3e283336	0.16425785
40	0xbf2ddb66	-0.679129
41	0x3b1010d6	0.0021982691
42	0xbed9bd34	-0.42527163
43	0x3ee31b9d	0.44357005
44	0x3f2932e1	0.6609326
45	0xbf76e29f	-0.96439546
46	0x3f86afeb	1.0522436
47	0x3f859b5b	1.0438036
48	0x3f055da7	0.5209603
49	0xbf138059	-0.5761772
50	0xbf750371	-0.95708376
51	0xbe59a3c7	-0.21253882
52	0xbecf2393	-0.40456828
53	0x3e402675	0.1876467
54	0x3ecb1592	0.39664894
55	0xbd8b5568	-0.06803399
56	0xbf2f02d2	-0.6836368
57	0x3f9e3d30	1.2362423
58	0x3f54db2c	0.8314693
59	0x3d5aa505	0.05338003
60	0x3f4146cb	0.75498646
61	0x3fa11a0b	1.2586073
62	0xbe8695d5	-0.26286188
63	0xbd672ede	-0.05644118

sequential/batch_normalization_9/FusedBatchNormV3 f4 [64]
0	0xbeb629af	-0.35578677
1	0x3dc48d1d	0.09597228
2	0xbe5323f3	-0.20619182
3	0x3dc4270e	0.095777616
4	0x3e18384d	0.14865227
5	0xbe16d2f0	-0.14728904
6	0xbf3d3d80	-0.73921967
7	0xbe9aebc4	-0.30258
8	0xbdcb2393	-0.099188946
9	0xbe3f8f38	-0.18706977
10	0xbe88b54f	-0.26700827
11	0x3e60979b	0.21932833
12	0xbedcaa92	-0.43098885
13	0xbf49a6e0	-0.78770256
14	0xbea71583	-0.326336
15	0xbe89810a	-0.26856261
16	0xbf3968ee	-0.72425735
17	0x3f1169b5	0.5680192
18	0xbeaee902	-0.34162146
19	0xbeb3bb1a	-0.35103685
20	0x3e9aabb2	0.30209118
21	0x3f393866	0.7235168
22	0xbf4ab7dc	-0.791868
23	0xbe285780	-0.16439629
24	0xbe377ca8	-0.17918646
25	0xbe23e8da	-0.16006795
26	0x3e6fa204	0.23401648
27	0xbf0a4593	-0.5401241
28	0x3e8cb082	0.27478415
29	0xbdd92a3c	-0.10603759
30	0x3f5b5631	0.8567839
31	0x3ec88da1	0.39170554
32	0x3f965d34	1.1747193
33	0x3f300fe9	0.68774277
34	0xbe2f5761	-0.17123176
35	0xbee4cf10	-0.44689226
36	0xbf226530	-0.6343565
37	0x3e8a2cfa	0.2698744
38	0xbe05a404	-0.13050848
39	0x3e406b40	0.18790913
40	0x3f14b039	0.58081394
41	0xbeb8c116	-0.36084813
42	0xbf0be80e	-0.5465096
43	0xbf5e4ec7	-0.86838955
44	0xbed54c00	-0.41659546
45	0x3ed95752	0.42449433
46	0x3f97c069	1.1855594
47	0xbf1e7a28	-0.61905146
48	0xbf0f647d	-0.5601271
49	0x3e946398	0.28982234
50	0x3e14ceb2	0.14531973
51	0xbeda795d	-0.42670718
52	0xbe2491f9	-0.16071309
53	0xbe268f7c	-0.16265672
54	0x3ecf1dbf	0.40452382
55	0x3f0ed843	0.5579874
56	0xbd2f812e	-0.042847805
57	0xbe254082	-0.16137889
58	0xbeec173b	-0.46111473
59	0xbefe545c	-0.49673736
60	0xbf120071	-0.57031924
61	0xbf33f99e	-0.7030276
62	0xbe9b2219	-0.30299452
63	0x3e5fee6e	0.21868297

sequential/dense/MatMul f4 [2, 256]
0	0xbe28416b	-0.16431205
1	0x3e1c0062	0.15234521
2	0xbd9ec7d0	-0.07752955
3	0x3d2ca4a8	0.042149216
4	0x3d1686a3	0.036749493
5	0xbdf1d1b1	-0.118075736
6	0x3e0c2271	0.13685013
7	0xbcd0479d	-0.025424773
8	0x3d9eba8f	0.07750427
9	0xbd780e9c	-0.060560808
10	0xbe2fb209	-0.17157759
11	0xbd0be16e	-0.034150533
12	0xbe110586	-0.14162263
13	0x3db91b74	0.090384394
14	0x3cedb4ad	0.029016817
15	0xbdf49c63	-0.11943891
16	0xbe17e49d	-0.14833303
17	0x3dc71e02	0.097225204
18	0x3e005144	0.12531
19	0x3d0b2032	0.03396625
20	0xbdd00d9c	-0.10158846
21	0xbdb31b2b	-0.08745416
22	0xbd1d9d4f	-0.0384801
23	0x3dd44eab	0.10366567
24	0x3c98a3b6	0.018632751
25	0x3d4864bb	0.04892419
26	0x3d151b3d	0.03640293
27	0xbdb48cec	-0.08815941
28	0xbddd2a99	-0.107991405
29	0xbdd870e7	-0.105684094
30	0xbe0b6c14	-0.13615447
31	0x3d9d86c4	0.0769172
32	0xbc8d3b4d	-0.01724019
33	0x3cb43bea	0.022001226
34	0xbca8fe23	-0.020628994
35	0xbdb26484	-0.08710578
36	0x3dec3c1a	0.11534901
37	0xbd9d27c6	-0.07673602
38	0x3e12abd6	0.14323363
39	0x3d57c449	0.052677426
40	0xbd68fa0d	-0.056879092
41	0xbd78ef60	-0.06077516
42	0x3c4d5160	0.012531608
43	0x3cab3034	0.020897008
44	0x3ad50ec2	0.0016255009
45	0x3e0c2209	0.13684858
46	0x3e2e975a	0.17049924
47	0xbcc420d8	-0.023941442
48	0x3d922df2	0.071376696
49	0xbd8af7b9	-0.067855306
50	0x3e065616	0.13118777
51	0xbe074bf1	-0.13212563
52	0xbd9cc8c8	-0.076554835
53	0xbdabc5da	-0.083873466
54	0xbe16df06	-0.14733514
55	0x3e2fd0d4	0.17169505
56	0x3e325cd3	0.17418222
57	0x3c60bccf	0.0137168905
58	0xbe04c342	-0.1296511
59	0x3dcb8a00	0.09938431
60	0x3da29c51	0.07939971
61	0x3e20b02e	0.15692207
62	0x3dec2c6b	0.115319096
63	0xbdbce164	-0.09222677
64	0x3d70acf0	0.058758676
65	0x3e0697f2	0.131439
66	0x3d43f885	0.04784443
67	0x3dfa4a79	0.12221236
68	0xbe24d63a	-0.16097346
69	0xbd415e21	-0.04720891
70	0xbe038878	-0.12845027
71	0x3e2cc5dc	0.16872352
72	0x3d27807b	0.040894013
73	0x3da5f6fa	0.08103748
74	0x3da69f6e	0.081358775
75	0xbb5d1c3b	-0.003373875
76	0xbd017258	-0.031603187
77	0xbda63533	-0.08115616
78	0xbe0e1ead	-0.1387889
79	0x3c266c78	0.010157697
80	0xbde81a5e	-0.11333154
81	0x3d197d9a	0.0374733
82	0xbd697e79	-0.05700538
83	0x3d23e075	0.04000898
84	0xbd49ce96	-0.04926928
85	0x3ccea8f9	0.025227057
86	0x3de0edac	0.10982832
87	0x3dd4eac5	0.10396341
88	0x3d79a586	0.06094887
89	0xbe1e012f	-0.15430139
90	0xbde6c251	-0.11267532
91	0x3e1ee525	0.15517099
92	0x3d89ce9b	0.0672886
93	0xbe33254f	-0.17494701
94	0xbe0dd001	-0.13848878
95	0x3d8f1ac5	0.06987528
96	0x3db2a59f	0.08722996
97	0xbde1fc51	-0.11034454
98	0x3dc37f79	0.09545798
99	0x3d8f8c3b	0.07009169
100	0x3c97298a	0.018452425
101	0x3d1ceded	0.03831284
102	0xbe03c110	-0.12866616
103	0x3cdc988e	0.026928212
104	0x3da8cfa9	0.08242733
105	0xbe072f9a	-0.13201752
106	0x3e26cc60	0.162889
107	0x3de72e96	0.112881824
108	0x3cd7dc6d	0.026350224
109	0x3db6a184	0.089175254
110	0x3bb5fb18	0.0055536143
111	0x3c18a2fb	0.009316201
112	0x3df48bba	0.11940713
113	0xbdb54cf9	-0.08852572
114	0xbd541a47	-0.051782873
115	0xbe0cb4b7	-0.13740812
116	0xbdfb3eba	-0.122678235
117	0xbdad677e	-0.08467005
118	0xbe169b7d	-0.14707752
119	0xbddd7ef7	-0.10815232
120	0xbc81f524	-0.015863962
121	0xbe23236a	-0.15931478
122	0xbe25a241	-0.16175176
123	0x3e0cfc40	0.137681
124	0xbc914f86	-0.017738115
125	0x3df52051	0.119690545
126	0x3db881a4	0.09009102
127	0xbdf40d96	-0.11916654
128	0x3dd3bc5a	0.103386596
129	0xbd01e727	-0.031714585
130	0x3d31b113	0.04338176
131	0x3c9a48b2	0.018833492
132	0x3d2006a4	0.039068833
133	0x3deeb9f2	0.1165656
134	0xbd93e7b6	-0.0722193
135	0xbe353029	-0.17694153
136	0x3d81a692	0.06330599
137	0xbc9a6a3f	-0.01884949
138	0x3e16a192	0.14710072
139	0x3d3ad942	0.04561735
140	0x3dff5f45	0.12469343
141	0xbe2b3c34	-0.16722184
142	0x3e0516c7	0.1299697
143	0xbdcdbfee	-0.10046373
144	0x3cfe80ac	0.031067215
145	0x3dbf48dd	0.093400694
146	0x3d0ba73d	0.034095038
147	0x3b86a550	0.0041090623
148	0xbd1249bb	-0.035714846
149	0xbda4274b	-0.08015307
150	0x3c820ac9	0.015874283
151	0x3dfee536	0.12446062
152	0xbdae3e76	-0.08508007
153	0x3e4817cc	0.19540328
154	0x3d93b3d9	0.072120376
155	0xbb159d1e	-0.0022829245
156	0xbdd87b1f	-0.105703585
157	0x3e2ab20b	0.1666948
158	0x3db07235	0.08615533
159	0xbdce027e	-0.10059069
160	0xbd618e39	-0.055067275
161	0xbdb1fdb6	-0.0869097
162	0xbd1c70a5	-0.038193364
163	0x3d757fc6	0.059936307
164	0x3c2901df	0.0103153875
165	0x3c83261f	0.016009388
166	0x3d9c94fe	0.076456055
167	0xbe196057	-0.14978157
168	0x3d4db554	0.050221756
169	0xbd61cd96	-0.055127703
170	0xbd501b02	-0.050807007
171	0x3e1359df	0.14389752
172	0x3d1c69a6	0.03818669
173	0xbba6248c	-0.0050702747
174	0x3e017656	0.12642798
175	0xbd1174d6	-0.035511814
176	0xbdeb0633	-0.11475792
177	0x3e2efe09	0.17089094
178	0x3caf8ddc	0.021429949
179	0x3d9d5706	0.07682614
180	0xbcdf1f95	-0.02723674
181	0x3ddf9a4a	0.109181
182	0x3dc97e5d	0.09838555
183	0x3d61a5cd	0.05508976
184	0x3a95b0d7	0.00114205
185	0xbcda70ec	-0.026665173
186	0x3cf63799	0.030055808
187	0x3da31e77	0.07964795
188	0x3e140c8e	0.14457914
189	0x3ab25b4a	0.0013607529
190	0x3e062434	0.13099748
191	0x3c3c354d	0.011487317
192	0x3d815e49	0.063168116
193	0xbdc778ae	-0.09739815
194	0xbd9281bb	-0.071536504
195	0x3aae1624	0.0013281745
196	0x3d84f2f1	0.0649165
197	0xbd1aa3dd	-0.03775393
198	0x3de4f950	0.11180365
199	0xbe1a457a	-0.15065566
200	0xbd4bca97	-0.04975375
201	0xbce8a737	-0.028400047
202	0x3e42d32f	0.19025873
203	0xbc35e038	-0.011100821
204	0x3cca5f03	0.024703508
205	0x3db3dbff	0.08782195
206	0x3de0ff23	0.109861635
207	0x3e2bb2af	0.16767381
208	0xbe0e9d51	-0.13927199
209	0x3dcd3366	0.10019569
210	0x3d80b9a7	0.062854104
211	0xbe414627	-0.18874417
212	0xbdb897f3	-0.09013357
213	0x3d416a88	0.047220737
214	0x3e103b70	0.14085174
215	0x3e0e372f	0.13888238
216	0xbc2f7c27	-0.010710753
217	0x3e1af690	0.15133119
218	0xbcf1d42d	-0.029520119
219	0x3d087dc6	0.033323072
220	0x3cb90a7e	0.02258801
221	0xbcf130f5	-0.02944229
222	0xbe0e38ce	-0.13888857
223	0xbdcbd39a	-0.09952469
224	0xbe1d5db7	-0.1536778
225	0xbe0af53e	-0.13570115
226	0x3de63e42	0.112423435
227	0x3d8d0d75	0.06887332
228	0x3e1f57f2	0.15560892
229	0xbdfadb92	-0.12248911
230	0x3e143682	0.14473918
231	0x3e1328e7	0.14371072
232	0xbd76b52a	-0.060231365
233	0xbc3f68ff	-0.011682748
234	0x3d8dcd14	0.06923881
235	0x3df114d2	0.11771549
236	0x3e0fc1f9	0.14038838
237	0x3e0e7277	0.13910852
238	0x3db21064	0.086945325
239	0x3d3c3a82	0.045954235
240	0x3e3e2faa	0.1857287
241	0x3d429de9	0.047513876
242	0x3d9cd736	0.07658236
243	0x3e350714	0.17678481
244	0x3db35e17	0.087581806
245	0x3e08db04	0.13364798
246	0xbcb845da	-0.022494245
247	0x3cb1fa4b	0.021725794
248	0xbdda5b78	-0.106619775
249	0xbe0f02f6	-0.13965973
250	0xbce44085	-0.027862797
251	0xbdfbac44	-0.122887164
252	0xbe08d704	-0.13363272
253	0xbd316b0b	-0.043314975
254	0xbe2bf1d0	-0.16791463
255	0x3e19db41	0.15025045

sequential/conv2d/Conv2D f4 [8, 1, 1, 1]
0	0x3cad9e84	0.02119375
1	0x3cabd636	0.020976167
2	0xbcb3b584	-0.02193714
3	0xbca7b8b7	-0.020473821
4	0xbca5f457	-0.020258112
5	0x3caa577c	0.020793669
6	0x3cb2c1b2	0.021820877
7	0x3cb2bfbb	0.02181994

sequential/conv2d_1/Conv2D f4 [16, 1, 1, 8]
0	0x3f06b704	0.5262301
1	0xbef05c16	-0.46945256
2	0xbcacc76c	-0.021091186
3	0xbdfa612e	-0.12225567
4	0x3f09cb70	0.53826046
5	0x3e84f0c3	0.25964937
6	0xbf2ab3fe	-0.66680896
7	0xbef686a5	-0.481496
8	0x3f27729d	0.6540926
9	0x3ea51044	0.32238972
10	0xbf465d33	-0.7748596
11	0xbf338ed8	-0.7013984
12	0xbe17ace4	-0.14812046
13	0xbeb9d06e	-0.36291832
14	0xbf1f1dd1	-0.6215487
15	0xbf334305	-0.7002414
16	0xbf6d2dd8	-0.92648077
17	0xbf7db48c	-0.9910362
18	0x3e272e88	0.16326344
19	0xbf717013	-0.94311637
20	0xbe3a5b8b	-0.18198983
21	0x3ec61713	0.3868948
22	0x3e7cd78b	0.24691598
23	0xbe7c64bd	-0.24647804
24	0x3e3f3e90	0.1867621
25	0xbed3f11b	-0.41394886
26	0xbe820980	-0.25397873
27	0xbf0e7e28	-0.5566125
28	0xbf8c7d09	-1.0975658
29	0x3f557232	0.83377373
30	0xbe09a2a7	-0.13440953
31	0xbed85de9	-0.42259148
32	0xbf833d7e	-1.0253141
33	0x3dd6cc3b	0.104881726
34	0x3f14b350	0.5808611
35	0x3f9fae8e	1.2475145
36	0xbc9296a4	-0.017894097
37	0x3d3b8c34	0.045788005
38	0x3f2e0695	0.67978793
39	0xbf5d1e00	-0.863739
40	0x3f081dc5	0.53170425
41	0x3f2d0353	0.675832
42	0xbf0bd944	-0.54628396
43	0x3f030a96	0.5118803
44	0x3f01ea93	0.50748557
45	0x3f0a52e4	0.5403273
46	0xbde10ed5	-0.10989157
47	0x3e94a365	0.2903091
48	0xbf6e55c9	-0.9309965
49	0xbe03e489	-0.12880148
50	0xbf0ae730	-0.54259014
51	0x3ef09bc6	0.46993846
52	0xbf7c1f0b	-0.9848487
53	0xbd9ac755	-0.07557551
54	0xbf62bf71	-0.88573366
55	0x3ea64bec	0.324798
56	0xbf2ad21a	-0.6672684
57	0x3f38dcfe	0.7221221
58	0x3f8d6b07	1.1048287
59	0x3e870812	0.26373345
60	0xbf86626b	-1.0498785
61	0xbeebeb06	-0.46077746
62	0x3ef90d3b	0.48642907
63	0x3e511ea2	0.20421842
64	0x3f45d2c5	0.77274734
65	0x3f115667	0.56772465
66	0xbd927dab	-0.071528755
67	0x3de1b01c	0.11019918
68	0xbf28690e	-0.657853
69	0xbeea79b4	-0.45795977
70	0x3e716988	0.23575413
71	0x3f329c8a	0.6977011
72	0x3e4d44a1	0.20045711
73	0xbfa60c29	-1.2972461
74	0x3f90ec7f	1.1322173
75	0x3e2cdcd4	0.16881114
76	0xbe10569b	-0.14095537
77	0x3f8c5713	1.0964073
78	0x3f489a53	0.7836048
79	0xbda8e4f2	-0.08246793
80	0xbda99784	-0.082808524
81	0x3f0e14df	0.55500597
82	0x3f5c342b	0.860171
83	0xbe4a5e8f	-0.19762634
84	0x3fa92575	1.3214556
85	0x3e83f39d	0.257718
86	0xbfa7ae5c	-1.3100085
87	0x3e8bc65f	0.27299783
88	0xbfd1c749	-1.6388942
89	0xbe2f592a	-0.17123857
90	0xbf4c5deb	-0.7983081
91	0x3ee59ef9	0.4484785
92	0x3db749e4	0.089496404
93	0x3c871e66	0.016493987
94	0xbe183ee2	-0.14867738
95	0x3fbe78d3	1.4880623
96	0xbedd5f7e	-0.43236917
97	0xbf15326a	-0.5828005
98	0xbe8719bd	-0.26386824
99	0xbf396d3b	-0.724323
100	0xbe0fa606	-0.14028177
101	0x3e7cf32d	0.24702139
102	0xbe96925b	-0.29408535
103	0xbec906dd	-0.3926305
104	0x3e0dc3f1	0.13844277
105	0x3f80d45b	1.0064806
106	0xbbe0359a	-0.0068423273
107	0x3eba0e87	0.36339208
108	0xbf89d029	-1.076665
109	0xbe8fae3f	-0.28062627
110	0x3e5c84f0	0.21535087
111	0x3e90d6db	0.28288922
112	0xbf84d8e9	-1.0378696
113	0x3d013326	0.03154292
114	0x3e93b975	0.2885243
115	0xbf843a81	-1.0330354
116	0x3e48ed87	0.1962186
117	0xbefe7052	-0.4969507
118	0x3f27682a	0.65393317
119	0x3e7df712	0.24801281
120	0x3f3b7294	0.7322171
121	0x3f2733d0	0.65313435
122	0xbe06945c	-0.13142532
123	0xbf3b1bec	-0.7308948
124	0x3ec176b0	0.37785864
125	0x3d16fc58	0.036861748
126	0x3e4a2b43	0.19743066
127	0x3ebd4da2	0.36973292
