mobilenet_gray_32_quant.tflite (tflite, 186072 bytes, 18 tensors)

sequential/dense/MatMul i1 [2, 256] scale=0.0015938347 zero_point=0
0	0x99	-0.16416498
1	0x60	0.15300813
2	0xcf	-0.0780979
3	0x1a	0.041439705
4	0x17	0.036658198
5	0xb6	-0.11794377
6	0x56	0.13706979
7	0xf0	-0.025501356
8	0x31	0.0780979
9	0xda	-0.060565718
10	0x94	-0.17213415
11	0xeb	-0.03347053
12	0xa7	-0.14185129
13	0x39	0.09084858
14	0x12	0.028689025
15	0xb5	-0.11953761
16	0xa3	-0.14822663
17	0x3d	0.097223915
18	0x4f	0.12591295
19	0x15	0.03347053
20	0xc0	-0.10200542
21	0xc9	-0.08766091
22	0xe8	-0.038252033
23	0x41	0.10359926
24	0x0c	0.019126017
25	0x1f	0.049408875
26	0x17	0.036658198
27	0xc9	-0.08766091
28	0xbc	-0.108380765
29	0xbe	-0.10519309
30	0xab	-0.13547595
31	0x30	0.07650407
32	0xf5	-0.017532181
33	0x0e	0.022313686
34	0xf3	-0.020719852
35	0xc9	-0.08766091
36	0x48	0.1147561
37	0xd0	-0.07650407
38	0x5a	0.14344512
39	0x21	0.052596547
40	0xdc	-0.05737805
41	0xda	-0.060565718
42	0x08	0.012750678
43	0x0d	0.020719852
44	0x01	0.0015938347
45	0x56	0.13706979
46	0x6b	0.17054032
47	0xf1	-0.02390752
48	0x2d	0.07172256
49	0xd5	-0.068534896
50	0x52	0.13069445
51	0xad	-0.13228828
52	0xd0	-0.07650407
53	0xcb	-0.08447324
54	0xa4	-0.14663279
55	0x6c	0.17213415
56	0x6d	0.17372799
57	0x09	0.0143445125
58	0xaf	-0.1291006
59	0x3e	0.09881775
60	0x32	0.07969174
61	0x62	0.1561958
62	0x48	0.1147561
63	0xc6	-0.092442416
64	0x25	0.058971886
65	0x52	0.13069445
66	0x1e	0.04781504
67	0x4d	0.12272527
68	0x9b	-0.1609773
69	0xe2	-0.04781504
70	0xaf	-0.1291006
71	0x6a	0.16894647
72	0x1a	0.041439705
73	0x33	0.08128557
74	0x33	0.08128557
75	0xfe	-0.0031876694
76	0xec	-0.031876694
77	0xcd	-0.08128557
78	0xa9	-0.13866362
79	0x06	0.009563008
80	0xb9	-0.113162264
81	0x18	0.038252033
82	0xdc	-0.05737805
83	0x19	0.03984587
84	0xe1	-0.049408875
85	0x10	0.025501356
86	0x45	0.10997459
87	0x41	0.10359926
88	0x26	0.060565718
89	0x9f	-0.15460196
90	0xb9	-0.113162264
91	0x61	0.15460196
92	0x2a	0.06694106
93	0x92	-0.17532182
94	0xa9	-0.13866362
95	0x2c	0.070128724
96	0x37	0.08766091
97	0xbb	-0.10997459
98	0x3c	0.09563008
99	0x2c	0.070128724
100	0x0c	0.019126017
101	0x18	0.038252033
102	0xaf	-0.1291006
103	0x11	0.027095191
104	0x34	0.08287941
105	0xad	-0.13228828
106	0x66	0.16257115
107	0x47	0.113162264
108	0x11	0.027095191
109	0x38	0.089254744
110	0x03	0.004781504
111	0x06	0.009563008
112	0x4b	0.11953761
113	0xc8	-0.089254744
114	0xe0	-0.05100271
115	0xaa	-0.13706979
116	0xb3	-0.12272527
117	0xcb	-0.08447324
118	0xa4	-0.14663279
119	0xbc	-0.108380765
120	0xf6	-0.015938347
121	0x9c	-0.15938348
122	0x9b	-0.1609773
123	0x56	0.13706979
124	0xf5	-0.017532181
125	0x4b	0.11953761
126	0x39	0.09084858
127	0xb5	-0.11953761
128	0x41	0.10359926
129	0xec	-0.031876694
130	0x1b	0.043033537
131	0x0c	0.019126017
132	0x19	0.03984587
133	0x49	0.116349936
134	0xd3	-0.07172256
135	0x91	-0.17691566
136	0x28	0.06375339
137	0xf4	-0.019126017
138	0x5c	0.14663279
139	0x1d	0.046221208
140	0x4e	0.12431911
141	0x97	-0.16735265
142	0x52	0.13069445
143	0xc1	-0.10041159
144	0x13	0.030282859
145	0x3b	0.09403625
146	0x15	0.03347053
147	0x03	0.004781504
148	0xea	-0.035064362
149	0xce	-0.07969174
150	0x0a	0.015938347
151	0x4e	0.12431911
152	0xcb	-0.08447324
153	0x7b	0.19604167
154	0x2d	0.07172256
155	0xff	-0.0015938347
156	0xbe	-0.10519309
157	0x69	0.16735265
158	0x36	0.08606707
159	0xc1	-0.10041159
160	0xdd	-0.055784214
161	0xc9	-0.08766091
162	0xe8	-0.038252033
163	0x26	0.060565718
164	0x06	0.009563008
165	0x0a	0.015938347
166	0x30	0.07650407
167	0xa2	-0.14982046
168	0x20	0.05100271
169	0xdd	-0.055784214
170	0xe0	-0.05100271
171	0x5a	0.14344512
172	0x18	0.038252033
173	0xfd	-0.004781504
174	0x4f	0.12591295
175	0xea	-0.035064362
176	0xb8	-0.1147561
177	0x6b	0.17054032
178	0x0d	0.020719852
179	0x30	0.07650407
180	0xef	-0.027095191
181	0x45	0.10997459
182	0x3e	0.09881775
183	0x23	0.055784214
184	0x01	0.0015938347
185	0xef	-0.027095191
186	0x13	0.030282859
187	0x32	0.07969174
188	0x5b	0.14503896
189	0x01	0.0015938347
190	0x52	0.13069445
191	0x07	0.011156843
192	0x28	0.06375339
193	0xc3	-0.097223915
194	0xd3	-0.07172256
195	0x01	0.0015938347
196	0x29	0.065347224
197	0xe8	-0.038252033
198	0x46	0.11156843
199	0xa1	-0.1514143
200	0xe1	-0.049408875
201	0xee	-0.028689025
202	0x77	0.18966633
203	0xf9	-0.011156843
204	0x0f	0.02390752
205	0x37	0.08766091
206	0x45	0.10997459
207	0x69	0.16735265
208	0xa9	-0.13866362
209	0x3f	0.10041159
210	0x27	0.062159553
211	0x8a	-0.1880725
212	0xc7	-0.09084858
213	0x1e	0.04781504
214	0x58	0.14025745
215	0x57	0.13866362
216	0xf9	-0.011156843
217	0x5f	0.1514143
218	0xed	-0.030282859
219	0x15	0.03347053
220	0x0e	0.022313686
221	0xee	-0.028689025
222	0xa9	-0.13866362
223	0xc2	-0.09881775
224	0xa0	-0.15300813
225	0xab	-0.13547595
226	0x47	0.113162264
227	0x2b	0.068534896
228	0x62	0.1561958
229	0xb3	-0.12272527
230	0x5b	0.14503896
231	0x5a	0.14344512
232	0xda	-0.060565718
233	0xf9	-0.011156843
234	0x2b	0.068534896
235	0x4a	0.11794377
236	0x58	0.14025745
237	0x57	0.13866362
238	0x37	0.08766091
239	0x1d	0.046221208
240	0x75	0.18647866
241	0x1e	0.04781504
242	0x30	0.07650407
243	0x6f	0.17691566
244	0x37	0.08766091
245	0x54	0.13388212
246	0xf2	-0.022313686
247	0x0e	0.022313686
248	0xbd	-0.10678693
249	0xa8	-0.14025745
250	0xef	-0.027095191
251	0xb3	-0.12272527
252	0xac	-0.13388212
253	0xe5	-0.043033537
254	0x97	-0.16735265
255	0x5e	0.14982046

sequential/conv2d/Conv2D i1 [8, 1, 1, 1]
0	0x7f	127
1	0x7f	127
2	0x81	-127
3	0x81	-127
4	0x81	-127
5	0x7f	127
6	0x7f	127
7	0x7f	127

sequential/conv2d_1/Conv2D i1 [16, 1, 1, 8]
0	0x64	100
1	0xa7	-89
2	0xfc	-4
3	0xe9	-23
4	0x67	103
5	0x31	49
6	0x81	-127
7	0xa4	-92
8	0x6b	107
9	0x35	53
10	0x81	-127
11	0x8d	-115
12	0xe8	-24
13	0xc5	-59
14	0x9a	-102
15	0x8d	-115
16	0x89	-119
17	0x81	-127
18	0x15	21
19	0x87	-121
20	0xe9	-23
21	0x32	50
22	0x20	32
23	0xe0	-32
24	0x16	22
25	0xd0	-48
26	0xe3	-29
27	0xc0	-64
28	0x81	-127
29	0x60	96
30	0xf0	-16
31	0xcf	-49
32	0x98	-104
33	0x0b	11
34	0x3b	59
35	0x7f	127
36	0xfe	-2
37	0x05	5
38	0x45	69
39	0xa8	-88
40	0x64	100
41	0x7f	127
42	0x99	-103
43	0x60	96
44	0x5f	95
45	0x66	102
46	0xeb	-21
47	0x37	55
48	0x88	-120
49	0xef	-17
50	0xba	-70
51	0x3d	61
52	0x81	-127
53	0xf6	-10
54	0x8e	-114
55	0x2a	42
56	0xb3	-77
57	0x53	83
58	0x7f	127
59	0x1e	30
60	0x87	-121
61	0xcb	-53
62	0x38	56
63	0x17	23
64	0x7f	127
65	0x5d	93
66	0xf4	-12
67	0x12	18
68	0x94	-108
69	0xb5	-75
70	0x27	39
71	0x73	115
72	0x14	20
73	0x81	-127
74	0x6f	111
75	0x11	17
76	0xf2	-14
77	0x6b	107
78	0x4d	77
79	0xf8	-8
80	0xf8	-8
81	0x35	53
82	0x53	83
83	0xed	-19
84	0x7f	127
85	0x19	25
86	0x82	-126
87	0x1a	26
88	0x81	-127
89	0xf3	-13
90	0xc2	-62
91	0x23	35
92	0x07	7
93	0x01	1
94	0xf4	-12
95	0x73	115
96	0xb4	-76
97	0x9a	-102
98	0xd2	-46
99	0x81	-127
100	0xe7	-25
101	0x2b	43
102	0xcc	-52
103	0xbb	-69
104	0x10	16
105	0x77	119
106	0xff	-1
107	0x2b	43
108	0x81	-127
109	0xdf	-33
110	0x19	25
111	0x21	33
112	0x81	-127
113	0x04	4
114	0x23	35
115	0x82	-126
116	0x18	24
117	0xc3	-61
118	0x50	80
119	0x1e	30
120	0x7f	127
121	0x71	113
122	0xe9	-23
123	0x81	-127
124	0x42	66
125	0x06	6
126	0x22	34
127	0x40	64

sequential/conv2d_2/Conv2D i1 [32, 1, 1, 16]
0	0xef	-17
1	0x1e	30
2	0x2c	44
3	0x1f	31
4	0x7f	127
5	0x4e	78
6	0x7c	124
7	0xa9	-87
8	0x9f	-97
9	0xad	-83
10	0x69	105
11	0xed	-19
12	0x04	4
13	0xfd	-3
14	0x17	23
15	0xdd	-35
16	0x09	9
17	0x13	19
18	0x81	-127
19	0x0f	15
20	0x4b	75
21	0x9d	-99
22	0x79	121
23	0xa3	-93
24	0x87	-121
25	0xb6	-74
26	0x40	64
27	0x13	19
28	0xb9	-71
29	0x54	84
30	0xe5	-27
31	0xca	-54
32	0x95	-107
33	0x49	73
34	0xf8	-8
35	0xbe	-66
36	0x4b	75
37	0x25	37
38	0xad	-83
39	0x02	2
40	0xfb	-5
41	0x8f	-113
42	0x95	-107
43	0x4e	78
44	0x7b	123
45	0x94	-108
46	0x81	-127
47	0x59	89
48	0xda	-38
49	0xdb	-37
50	0x1e	30
51	0xfb	-5
52	0xb2	-78
53	0x42	66
54	0xb8	-72
55	0x89	-119
56	0x2f	47
57	0xe8	-24
58	0x8b	-117
59	0x45	69
60	0x27	39
61	0x81	-127
62	0xad	-83
63	0x9d	-99
64	0xbb	-69
65	0x13	19
66	0x0c	12
67	0x7a	122
68	0x74	116
69	0x17	23
70	0x58	88
71	0x7c	124
72	0x7f	127
73	0x5a	90
74	0x70	112
75	0x07	7
76	0xb4	-76
77	0x2f	47
78	0x5f	95
79	0x77	119
80	0xd9	-39
81	0x81	-127
82	0x97	-105
83	0xe4	-28
84	0x38	56
85	0x5f	95
86	0x93	-109
87	0x52	82
88	0xad	-83
89	0xe0	-32
90	0x2c	44
91	0x13	19
92	0xf4	-12
93	0xee	-18
94	0x07	7
95	0x63	99
96	0xc2	-62
97	0x08	8
98	0x13	19
99	0x14	20
100	0x06	6
101	0xdb	-37
102	0xbe	-66
103	0x9c	-100
104	0xd0	-48
105	0x0f	15
106	0xbd	-67
107	0x4e	78
108	0x10	16
109	0x3d	61
110	0x7f	127
111	0xe6	-26
112	0x58	88
113	0x1f	31
114	0x49	73
115	0x74	116
116	0xcb	-53
117	0xb3	-77
118	0x94	-108
119	0xe2	-30
120	0x0f	15
121	0x64	100
122	0x03	3
123	0x7f	127
124	0x47	71
125	0x3b	59
126	0x1c	28
127	0xce	-50
128	0xa1	-95
129	0xa8	-88
130	0xa7	-89
131	0x51	81
132	0x7f	127
133	0x24	36
134	0x8b	-117
135	0xfe	-2
136	0xf1	-15
137	0x55	85
138	0x3a	58
139	0x94	-108
140	0xe8	-24
141	0xec	-20
142	0x6c	108
143	0xea	-22
144	0x5b	91
145	0xb8	-72
146	0xd3	-45
147	0x50	80
148	0x52	82
149	0x12	18
150	0xa0	-96
151	0xeb	-21
152	0x8b	-117
153	0x7f	127
154	0x5a	90
155	0x15	21
156	0xfd	-3
157	0x54	84
158	0x6e	110
159	0xea	-22
160	0xdd	-35
161	0x5a	90
162	0x28	40
163	0xd2	-46
164	0xc2	-62
165	0x94	-108
166	0xdf	-33
167	0x3f	63
168	0x33	51
169	0xf3	-13
170	0x77	119
171	0x70	112
172	0x81	-127
173	0x65	101
174	0x4a	74
175	0x18	24
176	0xad	-83
177	0x5b	91
178	0x2b	43
179	0x47	71
180	0xff	-1
181	0x1f	31
182	0xcf	-49
183	0xd9	-39
184	0x68	104
185	0x7f	127
186	0x1f	31
187	0x98	-104
188	0x62	98
189	0x25	37
190	0xa8	-88
191	0xba	-70
192	0xa2	-94
193	0x88	-120
194	0xcd	-51
195	0x46	70
196	0xe6	-26
197	0x7f	127
198	0xcc	-52
199	0x74	116
200	0x7a	122
201	0x5b	91
202	0xdc	-36
203	0x72	114
204	0x85	-123
205	0x31	49
206	0x5a	90
207	0x48	72
208	0xcf	-49
209	0xca	-54
210	0x79	121
211	0xdf	-33
212	0x1d	29
213	0x28	40
214	0xb2	-78
215	0x21	33
216	0xcc	-52
217	0x14	20
218	0x49	73
219	0x0e	14
220	0x4f	79
221	0x87	-121
222	0xb1	-79
223	0x7f	127
224	0xdb	-37
225	0x6c	108
226	0x8d	-115
227	0xf7	-9
228	0xbc	-68
229	0xbd	-67
230	0xc5	-59
231	0xaf	-81
232	0xbe	-66
233	0xee	-18
234	0x55	85
235	0x17	23
236	0x81	-127
237	0xda	-38
238	0x99	-103
239	0x78	120
240	0x6f	111
241	0x84	-124
242	0x1b	27
243	0x37	55
244	0x99	-103
245	0xe8	-24
246	0x71	113
247	0x96	-106
248	0x12	18
249	0x72	114
250	0x7f	127
251	0x98	-104
252	0xfa	-6
253	0x1c	28
254	0x81	-127
255	0xc1	-63

sequential/conv2d_3/Conv2D i1 [32, 1, 1, 32]
0	0x88	-120
1	0x4b	75
2	0x31	49
3	0xb9	-71
4	0x0a	10
5	0xd2	-46
6	0xec	-20
7	0x34	52
8	0x46	70
9	0x3b	59
10	0xa2	-94
11	0xe0	-32
12	0xca	-54
13	0x46	70
14	0xf3	-13
15	0xf1	-15
16	0x8f	-113
17	0xba	-70
18	0x3f	63
19	0x23	35
20	0x42	66
21	0x9b	-101
22	0x9a	-102
23	0x7f	127
24	0xe6	-26
25	0xcf	-49
26	0xea	-22
27	0x5b	91
28	0xd9	-39
29	0x5a	90
30	0xd8	-40
31	0xc3	-61
32	0xae	-82
33	0x22	34
34	0xd3	-45
35	0xf9	-7
36	0x20	32
37	0x23	35
38	0xe1	-31
39	0xc2	-62
40	0x56	86
41	0x20	32
42	0x0c	12
43	0x1f	31
44	0xc1	-63
45	0x4b	75
46	0x16	22
47	0x8e	-114
48	0x7e	126
49	0xd9	-39
50	0xf0	-16
51	0x13	19
52	0x73	115
53	0x4e	78
54	0xbb	-69
55	0xdb	-37
56	0xf9	-7
57	0x81	-127
58	0x0f	15
59	0xed	-19
60	0x1e	30
61	0x7e	126
62	0xe3	-29
63	0xe4	-28
64	0x8b	-117
65	0xe7	-25
66	0xbd	-67
67	0xe2	-30
68	0x42	66
69	0x13	19
70	0xfd	-3
71	0xa2	-94
72	0x10	16
73	0x60	96
74	0x0b	11
75	0x00	0
76	0xfc	-4
77	0x42	66
78	0x14	20
79	0xf1	-15
80	0x8e	-114
81	0xfd	-3
82	0x86	-122
83	0x79	121
84	0x27	39
85	0x81	-127
86	0x30	48
87	0xb7	-73
88	0x51	81
89	0x03	3
90	0x4b	75
91	0xcb	-53
92	0x0c	12
93	0x87	-121
94	0xb8	-72
95	0x69	105
96	0xc6	-58
97	0xc5	-59
98	0xef	-17
99	0x2d	45
100	0xe1	-31
101	0x7f	127
102	0x65	101
103	0x0b	11
104	0x1f	31
105	0x48	72
106	0xdb	-37
107	0x6d	109
108	0xa0	-96
109	0x37	55
110	0x4d	77
111	0x31	49
112	0xb1	-79
113	0xdf	-33
114	0xfe	-2
115	0x9c	-100
116	0x1c	28
117	0xa7	-89
118	0x36	54
119	0x1d	29
120	0x3e	62
121	0x60	96
122	0x5e	94
123	0x64	100
124	0x61	97
125	0x5d	93
126	0xec	-20
127	0xac	-84
128	0xfc	-4
129	0xe6	-26
130	0xc0	-64
131	0xa4	-92
132	0x53	83
133	0xb1	-79
134	0xc1	-63
135	0x9c	-100
136	0xac	-84
137	0x02	2
138	0x7f	127
139	0x0c	12
140	0x79	121
141	0xc3	-61
142	0x0e	14
143	0xce	-50
144	0x53	83
145	0xdd	-35
146	0x4e	78
147	0xb1	-79
148	0x64	100
149	0x6c	108
150	0x36	54
151	0x9c	-100
152	0xeb	-21
153	0x8b	-117
154	0x20	32
155	0x7a	122
156	0x60	96
157	0x57	87
158	0x1e	30
159	0xcb	-53
160	0xd7	-41
161	0x63	99
162	0x00	0
163	0xef	-17
164	0x22	34
165	0x72	114
166	0x95	-107
167	0x9d	-99
168	0x09	9
169	0xc2	-62
170	0x5f	95
171	0xee	-18
172	0x1e	30
173	0x3b	59
174	0xd1	-47
175	0xd2	-46
176	0x06	6
177	0x4f	79
178	0xa6	-90
179	0x7f	127
180	0x32	50
181	0xe5	-27
182	0x87	-121
183	0xdf	-33
184	0x23	35
185	0x44	68
186	0x0c	12
187	0xce	-50
188	0x7a	122
189	0x5d	93
190	0xa2	-94
191	0xae	-82
192	0x88	-120
193	0x9c	-100
194	0xa2	-94
195	0x9a	-102
196	0xc4	-60
197	0x8e	-114
198	0x86	-122
199	0xc3	-61
200	0x81	-127
201	0x2e	46
202	0xba	-70
203	0x40	64
204	0xb6	-74
205	0x04	4
206	0xe1	-31
207	0x31	49
208	0xa8	-88
209	0x48	72
210	0x31	49
211	0xc8	-56
212	0x5a	90
213	0x21	33
214	0xe6	-26
215	0x08	8
216	0xe8	-24
217	0xe5	-27
218	0xff	-1
219	0xc7	-57
220	0x7b	123
221	0x7d	125
222	0x5f	95
223	0xc5	-59
224	0x31	49
225	0xbc	-68
226	0x17	23
227	0xb5	-75
228	0xbc	-68
229	0x67	103
230	0x9f	-97
231	0xcd	-51
232	0x4a	74
233	0x12	18
234	0xde	-34
235	0x6b	107
236	0xfa	-6
237	0xbb	-69
238	0x8d	-115
239	0xa8	-88
240	0xe0	-32
241	0x7f	127
242	0x19	25
243	0xc1	-63
244	0xd2	-46
245	0x4b	75
246	0xe2	-30
247	0x04	4
248	0x4f	79
249	0xd7	-41
250	0xbf	-65
251	0x0e	14
252	0xb7	-73
253	0xba	-70
254	0x5c	92
255	0x4e	78

sequential/conv2d_4/Conv2D i1 [64, 1, 1, 32]
0	0x7c	124
1	0x0a	10
2	0xc6	-58
3	0xb7	-73
4	0x81	-127
5	0x13	19
6	0xa7	-89
7	0x6f	111
8	0xb1	-79
9	0xb7	-73
10	0x65	101
11	0x1d	29
12	0xa3	-93
13	0xe0	-32
14	0xbd	-67
15	0x37	55
16	0xcc	-52
17	0xfe	-2
18	0xa6	-90
19	0x9a	-102
20	0x98	-104
21	0x75	117
22	0x2f	47
23	0x7a	122
24	0x4f	79
25	0x8e	-114
26	0xd1	-47
27	0x07	7
28	0xba	-70
29	0x36	54
30	0x36	54
31	0xef	-17
32	0x2c	44
33	0x1d	29
34	0x77	119
35	0x36	54
36	0x54	84
37	0xf0	-16
38	0x64	100
39	0x8b	-117
40	0xcf	-49
41	0x1f	31
42	0x8e	-114
43	0x66	102
44	0xf7	-9
45	0xda	-38
46	0x27	39
47	0x6e	110
48	0x81	-127
49	0x85	-123
50	0xd3	-45
51	0x44	68
52	0x34	52
53	0x74	116
54	0x8d	-115
55	0x98	-104
56	0xfb	-5
57	0xf6	-10
58	0xf4	-12
59	0xa6	-90
60	0x69	105
61	0x53	83
62	0x53	83
63	0x37	55
64	0x7f	127
65	0xeb	-21
66	0x33	51
67	0x48	72
68	0xad	-83
69	0x55	85
70	0x22	34
71	0xab	-85
72	0x48	72
73	0x49	73
74	0x5e	94
75	0x21	33
76	0x2d	45
77	0x4b	75
78	0xfc	-4
79	0x68	104
80	0x59	89
81	0xe1	-31
82	0xe3	-29
83	0xfe	-2
84	0xbf	-65
85	0xab	-85
86	0x03	3
87	0xda	-38
88	0xf9	-7
89	0x3e	62
90	0xdb	-37
91	0xd8	-40
92	0x15	21
93	0x50	80
94	0x45	69
95	0xa5	-91
96	0xc9	-55
97	0xcd	-51
98	0x5e	94
99	0xee	-18
100	0x47	71
101	0xa3	-93
102	0x81	-127
103	0x94	-108
104	0x57	87
105	0x39	57
106	0xe4	-28
107	0x37	55
108	0xf3	-13
109	0xe7	-25
110	0xdc	-36
111	0xe4	-28
112	0x9b	-101
113	0xed	-19
114	0xcc	-52
115	0xe7	-25
116	0x17	23
117	0x56	86
118	0x3a	58
119	0x99	-103
120	0x0d	13
121	0x90	-112
122	0x54	84
123	0x67	103
124	0x66	102
125	0x62	98
126	0x69	105
127	0xcd	-51
128	0x00	0
129	0x8b	-117
130	0x4a	74
131	0xfb	-5
132	0x30	48
133	0xa2	-94
134	0xe9	-23
135	0xe6	-26
136	0x3f	63
137	0x8d	-115
138	0x63	99
139	0xbb	-69
140	0x4a	74
141	0x02	2
142	0xc2	-62
143	0xd9	-39
144	0x65	101
145	0xfb	-5
146	0x6b	107
147	0xa3	-93
148	0x0a	10
149	0x53	83
150	0x4d	77
151	0xf9	-7
152	0xd0	-48
153	0x7f	127
154	0x60	96
155	0xc4	-60
156	0x5e	94
157	0xe3	-29
158	0x32	50
159	0x0a	10
160	0x6b	107
161	0xa4	-92
162	0xdd	-35
163	0x3e	62
164	0x81	-127
165	0x12	18
166	0x31	49
167	0x09	9
168	0x89	-119
169	0x70	112
170	0x9c	-100
171	0x0c	12
172	0xc3	-61
173	0x88	-120
174	0x69	105
175	0x63	99
176	0xaf	-81
177	0x3d	61
178	0x58	88
179	0x0f	15
180	0xc7	-57
181	0x67	103
182	0xf4	-12
183	0xbc	-68
184	0x0a	10
185	0xc5	-59
186	0xaf	-81
187	0x56	86
188	0xb3	-77
189	0x25	37
190	0x38	56
191	0xfd	-3
192	0xa6	-90
193	0x70	112
194	0xab	-85
195	0x57	87
196	0xdb	-37
197	0xa0	-96
198	0x2b	43
199	0x81	-127
200	0x65	101
201	0x70	112
202	0x4b	75
203	0x37	55
204	0xe2	-30
205	0xb2	-78
206	0xe5	-27
207	0x4e	78
208	0x3f	63
209	0x56	86
210	0xa2	-94
211	0x46	70
212	0xa3	-93
213	0xda	-38
214	0xc4	-60
215	0xde	-34
216	0x1d	29
217	0x22	34
218	0xeb	-21
219	0xf7	-9
220	0x12	18
221	0xcf	-49
222	0x75	117
223	0xa7	-89
224	0x8f	-113
225	0xcc	-52
226	0xeb	-21
227	0x32	50
228	0x31	49
229	0x7f	127
230	0x77	119
231	0x61	97
232	0x6b	107
233	0xa2	-94
234	0xc1	-63
235	0xe2	-30
236	0x2a	42
237	0x18	24
238	0x9d	-99
239	0xdf	-33
240	0x1f	31
241	0x42	66
242	0x99	-103
243	0x1b	27
244	0x7a	122
245	0xc8	-56
246	0x03	3
247	0x10	16
248	0xe3	-29
249	0x9f	-97
250	0xeb	-21
251	0x9d	-99
252	0x03	3
253	0x26	38
254	0x2e	46
255	0x64	100

sequential/conv2d_5/Conv2D i1 [64, 1, 1, 64]
0	0x2d	45
1	0xcd	-51
2	0xde	-34
3	0xee	-18
4	0x99	-103
5	0x3d	61
6	0x4a	74
7	0x89	-119
8	0x8d	-115
9	0xd5	-43
10	0xac	-84
11	0xae	-82
12	0xa6	-90
13	0x48	72
14	0xea	-22
15	0x2d	45
16	0x73	115
17	0x6b	107
18	0x5a	90
19	0x93	-109
20	0x08	8
21	0x6a	106
22	0x17	23
23	0x41	65
24	0xf2	-14
25	0xdb	-37
26	0xc6	-58
27	0x50	80
28	0xdd	-35
29	0xf0	-16
30	0xfe	-2
31	0xd4	-44
32	0x04	4
33	0xe6	-26
34	0x74	116
35	0x51	81
36	0x67	103
37	0x5b	91
38	0x10	16
39	0xda	-38
40	0x81	-127
41	0x6a	106
42	0xc0	-64
43	0xaf	-81
44	0x3e	62
45	0xf4	-12
46	0x32	50
47	0xd2	-46
48	0x5e	94
49	0x68	104
50	0xd7	-41
51	0x8b	-117
52	0x24	36
53	0xf4	-12
54	0x18	24
55	0x00	0
56	0xcb	-53
57	0x3b	59
58	0xa6	-90
59	0x14	20
60	0xcf	-49
61	0xd3	-45
62	0xd3	-45
63	0xdf	-33
64	0x5a	90
65	0x9f	-97
66	0xfb	-5
67	0x07	7
68	0x20	32
69	0x46	70
70	0x4e	78
71	0xeb	-21
72	0xef	-17
73	0x33	51
74	0xa2	-94
75	0x41	65
76	0xe6	-26
77	0x22	34
78	0x5e	94
79	0x0f	15
80	0xc9	-55
81	0x08	8
82	0xc4	-60
83	0x10	16
84	0xa8	-88
85	0x2b	43
86	0xcd	-51
87	0x08	8
88	0xb7	-73
89	0x2a	42
90	0xba	-70
91	0xc8	-56
92	0x2e	46
93	0x40	64
94	0x57	87
95	0x19	25
96	0xbf	-65
97	0x50	80
98	0xd2	-46
99	0xd7	-41
100	0x81	-127
101	0xa0	-96
102	0xb9	-71
103	0x0e	14
104	0x54	84
105	0xe7	-25
106	0x21	33
107	0x2d	45
108	0xd2	-46
109	0x4f	79
110	0x3c	60
111	0xae	-82
112	0x40	64
113	0x8b	-117
114	0x1c	28
115	0x21	33
116	0xf7	-9
117	0xb2	-78
118	0x0c	12
119	0x38	56
120	0xb2	-78
121	0x0b	11
122	0xe4	-28
123	0x1a	26
124	0x29	41
125	0x18	24
126	0x37	55
127	0x18	24
128	0x1f	31
129	0x20	32
130	0x89	-119
131	0xc7	-57
132	0xbd	-67
133	0xdc	-36
134	0x4c	76
135	0x4f	79
136	0x4d	77
137	0xc2	-62
138	0x34	52
139	0xa0	-96
140	0x71	113
141	0x23	35
142	0x2f	47
143	0xcf	-49
144	0x12	18
145	0xea	-22
146	0xe5	-27
147	0x00	0
148	0xc3	-61
149	0x99	-103
150	0x43	67
151	0xa8	-88
152	0x1c	28
153	0xda	-38
154	0x48	72
155	0x3a	58
156	0xb4	-76
157	0x41	65
158	0x34	52
159	0xdb	-37
160	0x72	114
161	0x81	-127
162	0x32	50
163	0xf3	-13
164	0xfb	-5
165	0x12	18
166	0x70	112
167	0xcd	-51
168	0xf4	-12
169	0xe5	-27
170	0x88	-120
171	0xa1	-95
172	0xbe	-66
173	0x51	81
174	0xf3	-13
175	0x16	22
176	0x87	-121
177	0x57	87
178	0x5e	94
179	0x58	88
180	0x7a	122
181	0xef	-17
182	0x9e	-98
183	0xf2	-14
184	0xe9	-23
185	0xdc	-36
186	0x20	32
187	0x25	37
188	0xff	-1
189	0x55	85
190	0xca	-54
191	0xd4	-44
192	0x0c	12
193	0x08	8
194	0x09	9
195	0xe8	-24
196	0xa9	-87
197	0x8c	-116
198	0x08	8
199	0xff	-1
200	0xd3	-45
201	0x32	50
202	0x0c	12
203	0xd9	-39
204	0xa1	-95
205	0xbd	-67
206	0xde	-34
207	0x05	5
208	0x24	36
209	0xc1	-63
210	0xb2	-78
211	0x28	40
212	0xf0	-16
213	0x4c	76
214	0x28	40
215	0x0c	12
216	0x7e	126
217	0x4d	77
218	0x13	19
219	0xd3	-45
220	0x81	-127
221	0x38	56
222	0x2b	43
223	0xcc	-52
224	0xa2	-94
225	0xb0	-80
226	0x1d	29
227	0xb5	-75
228	0x62	98
229	0xde	-34
230	0x0c	12
231	0x00	0
232	0x08	8
233	0x68	104
234	0xe1	-31
235	0x6b	107
236	0x01	1
237	0xd5	-43
238	0x0e	14
239	0x0f	15
240	0xba	-70
241	0xfa	-6
242	0x13	19
243	0xa3	-93
244	0xef	-17
245	0x7a	122
246	0x10	16
247	0xff	-1
248	0xd9	-39
249	0x04	4
250	0x6c	108
251	0x4b	75
252	0xd3	-45
253	0x3b	59
254	0x22	34
255	0xba	-70

sequential/conv2d_6/Conv2D i1 [128, 1, 1, 64]
0	0x4d	77
1	0x47	71
2	0xc6	-58
3	0x16	22
4	0xf6	-10
5	0x7f	127
6	0x17	23
7	0x2d	45
8	0xf0	-16
9	0xb9	-71
10	0x55	85
11	0xe5	-27
12	0xc2	-62
13	0xc4	-60
14	0xdb	-37
15	0xfb	-5
16	0x4f	79
17	0x49	73
18	0x31	49
19	0x61	97
20	0xd9	-39
21	0x97	-105
22	0x5b	91
23	0x1a	26
24	0x65	101
25	0x3c	60
26	0x55	85
27	0xf4	-12
28	0x0f	15
29	0x1b	27
30	0x50	80
31	0x6c	108
32	0x32	50
33	0x6d	109
34	0xc6	-58
35	0x2c	44
36	0x55	85
37	0xb2	-78
38	0xe6	-26
39	0xf0	-16
40	0xe6	-26
41	0xcf	-49
42	0xd2	-46
43	0xeb	-21
44	0xe2	-30
45	0x78	120
46	0x66	102
47	0x38	56
48	0xd0	-48
49	0x6c	108
50	0x11	17
51	0x4f	79
52	0xe6	-26
53	0x8f	-113
54	0xca	-54
55	0xf1	-15
56	0x58	88
57	0x3b	59
58	0x24	36
59	0x9e	-98
60	0xbd	-67
61	0x96	-106
62	0x8b	-117
63	0xa9	-87
64	0x91	-111
65	0x53	83
66	0xec	-20
67	0x36	54
68	0xb8	-72
69	0xed	-19
70	0x11	17
71	0x9b	-101
72	0x0f	15
73	0xac	-84
74	0xb6	-74
75	0xa2	-94
76	0x0b	11
77	0xa8	-88
78	0xc9	-55
79	0x10	16
80	0xed	-19
81	0xc2	-62
82	0x81	-127
83	0xed	-19
84	0x1e	30
85	0xfd	-3
86	0x0d	13
87	0xc6	-58
88	0x58	88
89	0x0c	12
90	0x45	69
91	0x4b	75
92	0xd5	-43
93	0xf1	-15
94	0x73	115
95	0x37	55
96	0xf2	-14
97	0x59	89
98	0xa6	-90
99	0x85	-123
100	0xe5	-27
101	0xa8	-88
102	0x27	39
103	0x25	37
104	0xf8	-8
105	0xf3	-13
106	0x98	-104
107	0xb5	-75
108	0xf3	-13
109	0x4b	75
110	0xb5	-75
111	0xcb	-53
112	0x4f	79
113	0xa7	-89
114	0x5c	92
115	0x25	37
116	0xe4	-28
117	0xe3	-29
118	0x71	113
119	0x8e	-114
120	0x45	69
121	0x01	1
122	0x37	55
123	0x37	55
124	0xda	-38
125	0x27	39
126	0x9f	-97
127	0x3c	60
128	0xae	-82
129	0x5f	95
130	0x81	-127
131	0xe0	-32
132	0x0b	11
133	0xf6	-10
134	0xf0	-16
135	0x37	55
136	0x21	33
137	0x6a	106
138	0x60	96
139	0x04	4
140	0x6a	106
141	0x7d	125
142	0xe4	-28
143	0xcc	-52
144	0x5a	90
145	0x82	-126
146	0xef	-17
147	0x0d	13
148	0x76	118
149	0x3f	63
150	0xd7	-41
151	0x2a	42
152	0x8a	-118
153	0x94	-108
154	0x64	100
155	0xd3	-45
156	0xa6	-90
157	0x00	0
158	0x9a	-102
159	0x39	57
160	0x2a	42
161	0xb5	-75
162	0xde	-34
163	0x02	2
164	0x97	-105
165	0xcc	-52
166	0x1b	27
167	0xd4	-44
168	0x95	-107
169	0x8b	-117
170	0x6b	107
171	0x60	96
172	0x6b	107
173	0x92	-110
174	0x73	115
175	0x6d	109
176	0xb8	-72
177	0xe3	-29
178	0x2a	42
179	0x6c	108
180	0x92	-110
181	0xc0	-64
182	0x01	1
183	0x55	85
184	0x6f	111
185	0xbd	-67
186	0x37	55
187	0x41	65
188	0xb4	-76
189	0xe3	-29
190	0x5f	95
191	0x33	51
192	0x3a	58
193	0xd6	-42
194	0x2a	42
195	0x09	9
196	0xd6	-42
197	0x6b	107
198	0xb8	-72
199	0x6d	109
200	0x13	19
201	0xa5	-91
202	0x26	38
203	0xaf	-81
204	0x17	23
205	0x19	25
206	0x1d	29
207	0x08	8
208	0x39	57
209	0xcf	-49
210	0xe4	-28
211	0xc3	-61
212	0x3e	62
213	0x2c	44
214	0xe1	-31
215	0xac	-84
216	0x67	103
217	0xec	-20
218	0x97	-105
219	0x73	115
220	0x16	22
221	0xc1	-63
222	0x83	-125
223	0xe6	-26
224	0xa4	-92
225	0xe4	-28
226	0xb2	-78
227	0xd5	-43
228	0x19	25
229	0x7f	127
230	0xba	-70
231	0xd7	-41
232	0x4c	76
233	0x3f	63
234	0x5a	90
235	0xba	-70
236	0x0e	14
237	0xd1	-47
238	0xe2	-30
239	0xf0	-16
240	0x47	71
241	0x43	67
242	0x61	97
243	0xc7	-57
244	0xb9	-71
245	0x6a	106
246	0xc9	-55
247	0x0f	15
248	0x2d	45
249	0xd9	-39
250	0xd2	-46
251	0x03	3
252	0xfd	-3
253	0x52	82
254	0xbb	-69
255	0xa1	-95

sequential/conv2d_7/Conv2D i1 [256, 1, 1, 128]
0	0x02	2
1	0x2c	44
2	0xf7	-9
3	0x06	6
4	0xa6	-90
5	0xa8	-88
6	0xcf	-49
7	0x22	34
8	0xf1	-15
9	0x24	36
10	0xcd	-51
11	0x5c	92
12	0x4e	78
13	0x49	73
14	0x0d	13
15	0x31	49
16	0x35	53
17	0xf7	-9
18	0xfc	-4
19	0x69	105
20	0xda	-38
21	0x1c	28
22	0x41	65
23	0x98	-104
24	0x97	-105
25	0xdf	-33
26	0x57	87
27	0x5a	90
28	0xa1	-95
29	0x58	88
30	0x2d	45
31	0x30	48
32	0x62	98
33	0x09	9
34	0x2f	47
35	0x3a	58
36	0x3d	61
37	0x05	5
38	0x58	88
39	0xfd	-3
40	0xb2	-78
41	0xdb	-37
42	0x5e	94
43	0x48	72
44	0x03	3
45	0x53	83
46	0xce	-50
47	0xd2	-46
48	0x2a	42
49	0x11	17
50	0x36	54
51	0xcd	-51
52	0x5f	95
53	0xa3	-93
54	0xc8	-56
55	0xe3	-29
56	0xf2	-14
57	0xa7	-89
58	0xd4	-44
59	0x66	102
60	0x45	69
61	0x54	84
62	0xe0	-32
63	0x38	56
64	0x23	35
65	0x2c	44
66	0xe9	-23
67	0x36	54
68	0xd8	-40
69	0xb9	-71
70	0x7f	127
71	0x20	32
72	0xc3	-61
73	0x4f	79
74	0xc8	-56
75	0xe6	-26
76	0xbb	-69
77	0xa0	-96
78	0xff	-1
79	0xc4	-60
80	0xf3	-13
81	0x31	49
82	0x12	18
83	0xf5	-11
84	0x4a	74
85	0x0d	13
86	0x10	16
87	0xf0	-16
88	0x21	33
89	0x9a	-102
90	0xa9	-87
91	0x34	52
92	0x39	57
93	0xc8	-56
94	0x30	48
95	0x76	118
96	0x4c	76
97	0x4f	79
98	0x20	32
99	0xf0	-16
100	0x29	41
101	0xe6	-26
102	0x00	0
103	0x1b	27
104	0x51	81
105	0x14	20
106	0x00	0
107	0xbd	-67
108	0x46	70
109	0xaa	-86
110	0xf8	-8
111	0xc8	-56
112	0xf8	-8
113	0x10	16
114	0x2c	44
115	0x45	69
116	0x3a	58
117	0xba	-70
118	0x40	64
119	0xfc	-4
120	0x01	1
121	0xef	-17
122	0x92	-110
123	0xd8	-40
124	0xdc	-36
125	0x24	36
126	0x3b	59
127	0xdd	-35
128	0xca	-54
129	0xf8	-8
130	0xd6	-42
131	0xfa	-6
132	0x5e	94
133	0x47	71
134	0x31	49
135	0x06	6
136	0xc9	-55
137	0x9c	-100
138	0x1c	28
139	0x14	20
140	0x3c	60
141	0xb5	-75
142	0x9f	-97
143	0xd4	-44
144	0x47	71
145	0x6a	106
146	0x7c	124
147	0xc2	-62
148	0x7d	125
149	0xf7	-9
150	0x38	56
151	0xa1	-95
152	0xb6	-74
153	0x76	118
154	0xc0	-64
155	0x2d	45
156	0xa7	-89
157	0x9c	-100
158	0xaf	-81
159	0x1d	29
160	0xf9	-7
161	0x62	98
162	0x05	5
163	0xae	-82
164	0xd8	-40
165	0xb4	-76
166	0x4a	74
167	0xed	-19
168	0xe7	-25
169	0x40	64
170	0x39	57
171	0x4e	78
172	0xff	-1
173	0x08	8
174	0x4b	75
175	0x0d	13
176	0x75	117
177	0xae	-82
178	0xfa	-6
179	0xf8	-8
180	0x45	69
181	0x09	9
182	0x12	18
183	0x57	87
184	0xf2	-14
185	0xf8	-8
186	0x7f	127
187	0x44	68
188	0xa2	-94
189	0x24	36
190	0x6c	108
191	0x40	64
192	0x21	33
193	0x0c	12
194	0xff	-1
195	0x5c	92
196	0x87	-121
197	0xdb	-37
198	0x5e	94
199	0x77	119
200	0x2d	45
201	0xf8	-8
202	0x20	32
203	0xf2	-14
204	0xfd	-3
205	0x9a	-102
206	0x05	5
207	0x77	119
208	0xaf	-81
209	0xa3	-93
210	0xed	-19
211	0x9f	-97
212	0x53	83
213	0xa0	-96
214	0xcc	-52
215	0x8d	-115
216	0x36	54
217	0xd6	-42
218	0xb9	-71
219	0x51	81
220	0x9f	-97
221	0x47	71
222	0xc2	-62
223	0x8a	-118
224	0x0b	11
225	0x05	5
226	0x8f	-113
227	0xb4	-76
228	0xc1	-63
229	0x69	105
230	0xea	-22
231	0x12	18
232	0x63	99
233	0x62	98
234	0x12	18
235	0xa2	-94
236	0x76	118
237	0x58	88
238	0xe6	-26
239	0xc7	-57
240	0x6a	106
241	0x0b	11
242	0x98	-104
243	0xa6	-90
244	0xab	-85
245	0x3e	62
246	0xdf	-33
247	0xdf	-33
248	0x40	64
249	0x3e	62
250	0x41	65
251	0xf7	-9
252	0x0e	14
253	0x64	100
254	0xb1	-79
255	0x2e	46

sequential/conv2d_8/Conv2D i1 [256, 1, 1, 256]
0	0x1d	29
1	0xcb	-53
2	0x28	40
3	0x17	23
4	0x1c	28
5	0x40	64
6	0x11	17
7	0x0b	11
8	0x2d	45
9	0xe2	-30
10	0xde	-34
11	0xc8	-56
12	0xcd	-51
13	0xbe	-66
14	0xc9	-55
15	0xf5	-11
16	0x4f	79
17	0x4b	75
18	0x1b	27
19	0xf3	-13
20	0xe1	-31
21	0xcc	-52
22	0xb3	-77
23	0xc1	-63
24	0x34	52
25	0x20	32
26	0x34	52
27	0xa7	-89
28	0x6f	111
29	0x58	88
30	0xd8	-40
31	0xe8	-24
32	0xdf	-33
33	0x1f	31
34	0xc7	-57
35	0xd8	-40
36	0x11	17
37	0x0e	14
38	0x5f	95
39	0x2b	43
40	0xa6	-90
41	0xc9	-55
42	0xd8	-40
43	0xcb	-53
44	0x1b	27
45	0x8f	-113
46	0x9a	-102
47	0x2c	44
48	0xb7	-73
49	0x17	23
50	0x4a	74
51	0xb0	-80
52	0x92	-110
53	0xb1	-79
54	0xb7	-73
55	0x17	23
56	0xd9	-39
57	0x00	0
58	0xb9	-71
59	0x26	38
60	0xe4	-28
61	0x52	82
62	0x00	0
63	0xc4	-60
64	0xc3	-61
65	0xd4	-44
66	0xd4	-44
67	0x03	3
68	0xc5	-59
69	0xd9	-39
70	0xe0	-32
71	0xff	-1
72	0xb1	-79
73	0x69	105
74	0x43	67
75	0xa6	-90
76	0x7f	127
77	0x02	2
78	0xfa	-6
79	0x56	86
80	0x03	3
81	0x0a	10
82	0xff	-1
83	0x3a	58
84	0xfa	-6
85	0x14	20
86	0xaa	-86
87	0x16	22
88	0x56	86
89	0x2c	44
90	0x5f	95
91	0xba	-70
92	0x66	102
93	0xdb	-37
94	0x8f	-113
95	0x14	20
96	0x55	85
97	0x0d	13
98	0xef	-17
99	0xab	-85
100	0xdf	-33
101	0xe2	-30
102	0x51	81
103	0x2e	46
104	0xc1	-63
105	0xdc	-36
106	0xdd	-35
107	0x3b	59
108	0x3f	63
109	0xd2	-46
110	0x2e	46
111	0x93	-109
112	0x9b	-101
113	0x34	52
114	0x47	71
115	0x5e	94
116	0x35	53
117	0xd1	-47
118	0x25	37
119	0x2b	43
120	0x21	33
121	0xc9	-55
122	0xa3	-93
123	0x66	102
124	0x1b	27
125	0xa7	-89
126	0xae	-82
127	0x44	68
128	0x5e	94
129	0x17	23
130	0x68	104
131	0x6e	110
132	0xb6	-74
133	0xf9	-7
134	0xc2	-62
135	0x45	69
136	0xaa	-86
137	0xd0	-48
138	0xae	-82
139	0xc7	-57
140	0x4e	78
141	0xcd	-51
142	0xdb	-37
143	0x2c	44
144	0xc2	-62
145	0xe3	-29
146	0x05	5
147	0x27	39
148	0x29	41
149	0xa1	-95
150	0xdd	-35
151	0x47	71
152	0x5f	95
153	0xc1	-63
154	0xe9	-23
155	0x36	54
156	0x0a	10
157	0xda	-38
158	0xb5	-75
159	0x3b	59
160	0x5e	94
161	0x99	-103
162	0xbb	-69
163	0x8f	-113
164	0x49	73
165	0xc7	-57
166	0x23	35
167	0xc4	-60
168	0xd7	-41
169	0x9b	-101
170	0xab	-85
171	0xd3	-45
172	0x43	67
173	0x49	73
174	0xed	-19
175	0x39	57
176	0x03	3
177	0xb8	-72
178	0x25	37
179	0xbc	-68
180	0xf5	-11
181	0xd0	-48
182	0xe3	-29
183	0x5e	94
184	0x20	32
185	0xef	-17
186	0x72	114
187	0x30	48
188	0xdc	-36
189	0xa8	-88
190	0xfa	-6
191	0x2b	43
192	0xc1	-63
193	0xb9	-71
194	0x58	88
195	0xe9	-23
196	0xb2	-78
197	0x1f	31
198	0x9c	-100
199	0x4a	74
200	0xfd	-3
201	0x66	102
202	0x39	57
203	0x0d	13
204	0xcd	-51
205	0xd4	-44
206	0x67	103
207	0xb7	-73
208	0x38	56
209	0xa6	-90
210	0x9a	-102
211	0x1f	31
212	0x45	69
213	0x26	38
214	0xb4	-76
215	0x18	24
216	0x67	103
217	0x29	41
218	0xef	-17
219	0x1e	30
220	0x50	80
221	0x32	50
222	0x01	1
223	0xcc	-52
224	0xc4	-60
225	0xdf	-33
226	0x09	9
227	0x9c	-100
228	0xe7	-25
229	0xd8	-40
230	0xef	-17
231	0xf7	-9
232	0x01	1
233	0xa2	-94
234	0x5c	92
235	0x12	18
236	0xd7	-41
237	0x58	88
238	0x62	98
239	0xd4	-44
240	0xad	-83
241	0xc6	-58
242	0x46	70
243	0x95	-107
244	0x04	4
245	0x3f	63
246	0x50	80
247	0x2e	46
248	0x33	51
249	0x0c	12
250	0x76	118
251	0xb8	-72
252	0x15	21
253	0x0c	12
254	0xad	-83
255	0x32	50

sequential/batch_normalization_1/FusedBatchNormV3;sequential/depthwise_conv2d/depthwise i1 [1, 3, 3, 8]
0	0xa0	-96
1	0x7f	127
2	0x4b	75
3	0x36	54
4	0x56	86
5	0x7f	127
6	0x81	-127
7	0xd5	-43
8	0x51	81
9	0x05	5
10	0x1e	30
11	0xb4	-76
12	0xeb	-21
13	0x5c	92
14	0x5e	94
15	0x5c	92
16	0xd8	-40
17	0x9e	-98
18	0xd9	-39
19	0x5d	93
20	0x6d	109
21	0xc1	-63
22	0xbd	-67
23	0x94	-108
24	0x81	-127
25	0xdf	-33
26	0xd5	-43
27	0x7f	127
28	0x9b	-101
29	0x47	71
30	0x67	103
31	0xd5	-43
32	0x16	22
33	0x75	117
34	0x67	103
35	0xa6	-90
36	0xb7	-73
37	0xa0	-96
38	0x6a	106
39	0xfa	-6
40	0x09	9
41	0x68	104
42	0x16	22
43	0xa3	-93
44	0xc6	-58
45	0xdc	-36
46	0x19	25
47	0x7f	127
48	0xb2	-78
49	0xba	-70
50	0xc8	-56
51	0x2e	46
52	0x50	80
53	0xaf	-81
54	0xef	-17
55	0x16	22
56	0xd6	-42
57	0xc6	-58
58	0xd9	-39
59	0x7e	126
60	0x01	1
61	0x66	102
62	0xe7	-25
63	0xac	-84
64	0x21	33
65	0x79	121
66	0x81	-127
67	0x81	-127
68	0x81	-127
69	0x20	32
70	0x36	54
71	0x27	39

sequential/batch_normalization_3/FusedBatchNormV3;sequential/depthwise_conv2d_1/depthwise i1 [1, 3, 3, 16]
0	0x6b	107
1	0x71	113
2	0xca	-54
3	0x0e	14
4	0x7f	127
5	0x58	88
6	0xf1	-15
7	0x2b	43
8	0x81	-127
9	0xd5	-43
10	0xab	-85
11	0x7f	127
12	0x06	6
13	0xaa	-86
14	0x1e	30
15	0x62	98
16	0x25	37
17	0x28	40
18	0xcc	-52
19	0x7f	127
20	0x2a	42
21	0x3a	58
22	0x59	89
23	0x2c	44
24	0x37	55
25	0x7a	122
26	0x15	21
27	0x41	65
28	0x4f	79
29	0x19	25
30	0xaa	-86
31	0xf4	-12
32	0xd7	-41
33	0xf4	-12
34	0xd4	-44
35	0x26	38
36	0x3a	58
37	0xbb	-69
38	0xee	-18
39	0xe8	-24
40	0x78	120
41	0xfc	-4
42	0x05	5
43	0x24	36
44	0x7f	127
45	0x08	8
46	0x07	7
47	0x7f	127
48	0x2b	43
49	0x6f	111
50	0x70	112
51	0x2f	47
52	0x0f	15
53	0xe6	-26
54	0x3e	62
55	0x00	0
56	0xef	-17
57	0x79	121
58	0x9c	-100
59	0xa0	-96
60	0x4f	79
61	0x81	-127
62	0xde	-34
63	0x90	-112
64	0x8d	-115
65	0x20	32
66	0x28	40
67	0x5a	90
68	0xbe	-66
69	0x0f	15
70	0x56	86
71	0xa6	-90
72	0x42	66
73	0x7f	127
74	0xe6	-26
75	0x94	-108
76	0x0a	10
77	0x10	16
78	0x68	104
79	0xd6	-42
80	0xf7	-9
81	0x9f	-97
82	0x3d	61
83	0x13	19
84	0xc3	-61
85	0x7f	127
86	0x21	33
87	0xec	-20
88	0x39	57
89	0x46	70
90	0x81	-127
91	0x73	115
92	0x26	38
93	0x17	23
94	0x7f	127
95	0x0b	11
96	0x82	-126
97	0xb3	-77
98	0x00	0
99	0x4c	76
100	0x10	16
101	0x0e	14
102	0x1d	29
103	0x81	-127
104	0x53	83
105	0x64	100
106	0xe5	-27
107	0xba	-70
108	0xd9	-39
109	0x7b	123
110	0x3b	59
111	0x13	19
112	0x7f	127
113	0x81	-127
114	0x55	85
115	0x29	41
116	0x09	9
117	0x08	8
118	0xc3	-61
119	0x94	-108
120	0xeb	-21
121	0x2c	44
122	0xff	-1
123	0x9c	-100
124	0x3f	63
125	0xb5	-75
126	0x2f	47
127	0xce	-50
128	0xdf	-33
129	0x79	121
130	0x7f	127
131	0x81	-127
132	0x9f	-97
133	0x78	120
134	0x7f	127
135	0x27	39
136	0x36	54
137	0x01	1
138	0x8c	-116
139	0x5e	94
140	0x9a	-102
141	0xa9	-87
142	0x29	41
143	0xc9	-55

sequential/batch_normalization_5/FusedBatchNormV3;sequential/depthwise_conv2d_2/depthwise;sequential/depthwise_conv2d_3/depthwise i1 [1, 3, 3, 32]
0	0x81	-127
1	0xc1	-63
2	0xe3	-29
3	0xeb	-21
4	0xdc	-36
5	0xf8	-8
6	0x7f	127
7	0x68	104
8	0x81	-127
9	0xf7	-9
10	0xea	-22
11	0xf8	-8
12	0x4f	79
13	0x1b	27
14	0x40	64
15	0xfd	-3
16	0xb2	-78
17	0x13	19
18	0x6e	110
19	0x2b	43
20	0x2f	47
21	0xfd	-3
22	0x1b	27
23	0x3c	60
24	0x7f	127
25	0x7f	127
26	0x68	104
27	0x16	22
28	0x7f	127
29	0x01	1
30	0x74	116
31	0x81	-127
32	0xc0	-64
33	0xa1	-95
34	0xe5	-27
35	0xcf	-49
36	0xa4	-92
37	0xfd	-3
38	0x7f	127
39	0xa6	-90
40	0x3e	62
41	0xc1	-63
42	0x23	35
43	0x1c	28
44	0x56	86
45	0x7f	127
46	0x47	71
47	0x05	5
48	0xd6	-42
49	0xef	-17
50	0x4b	75
51	0x7f	127
52	0xb0	-80
53	0x7f	127
54	0x06	6
55	0x20	32
56	0xb9	-71
57	0x4b	75
58	0xa8	-88
59	0xd0	-48
60	0x1e	30
61	0x81	-127
62	0x77	119
63	0xc8	-56
64	0x79	121
65	0xa4	-92
66	0x0e	14
67	0xb1	-79
68	0xff	-1
69	0x2d	45
70	0x0b	11
71	0xd9	-39
72	0x7d	125
73	0xc3	-61
74	0xcf	-49
75	0x0b	11
76	0xee	-18
77	0x01	1
78	0x81	-127
79	0x72	114
80	0x1d	29
81	0x7f	127
82	0xf6	-10
83	0xb2	-78
84	0x03	3
85	0x4e	78
86	0x5f	95
87	0x81	-127
88	0x13	19
89	0x93	-109
90	0x2f	47
91	0x6a	106
92	0xf2	-14
93	0xc2	-62
94	0xa9	-87
95	0x1c	28
96	0x07	7
97	0x88	-120
98	0x4f	79
99	0x5a	90
100	0x6b	107
101	0x14	20
102	0x14	20
103	0xa9	-87
104	0xa3	-93
105	0xcb	-53
106	0x7f	127
107	0x92	-110
108	0xf5	-11
109	0xde	-34
110	0xd7	-41
111	0x7f	127
112	0x10	16
113	0x8b	-117
114	0x21	33
115	0xf8	-8
116	0xfd	-3
117	0x75	117
118	0x81	-127
119	0x73	115
120	0x42	66
121	0xa7	-89
122	0x1d	29
123	0x2b	43
124	0x05	5
125	0x3c	60
126	0xf5	-11
127	0x2f	47
128	0xde	-34
129	0x3c	60
130	0xe1	-31
131	0x0c	12
132	0x81	-127
133	0x7f	127
134	0xe4	-28
135	0x81	-127
136	0x07	7
137	0x5d	93
138	0x79	121
139	0xa2	-94
140	0xe3	-29
141	0x61	97
142	0x60	96
143	0x9a	-102
144	0x96	-106
145	0x74	116
146	0x04	4
147	0xc7	-57
148	0x0b	11
149	0x74	116
150	0xd7	-41
151	0x0e	14
152	0xfc	-4
153	0x89	-119
154	0x32	50
155	0x20	32
156	0xec	-20
157	0x25	37
158	0x7f	127
159	0x7a	122
160	0xc5	-59
161	0xb3	-77
162	0x21	33
163	0x08	8
164	0x03	3
165	0x55	85
166	0xd5	-43
167	0xd8	-40
168	0xaf	-81
169	0x15	21
170	0xd8	-40
171	0x7f	127
172	0x7f	127
173	0x71	113
174	0xb2	-78
175	0x3a	58
176	0x0e	14
177	0x46	70
178	0x81	-127
179	0x38	56
180	0x2b	43
181	0x59	89
182	0xf4	-12
183	0x4d	77
184	0x3e	62
185	0x5f	95
186	0x7f	127
187	0xae	-82
188	0x65	101
189	0xbb	-69
190	0x09	9
191	0xfb	-5
192	0x22	34
193	0x86	-122
194	0xf4	-12
195	0xa3	-93
196	0xbb	-69
197	0xc2	-62
198	0xc3	-61
199	0x8a	-118
200	0xd7	-41
201	0x7f	127
202	0x9e	-98
203	0xd2	-46
204	0x4b	75
205	0xc3	-61
206	0x01	1
207	0x3d	61
208	0x81	-127
209	0x78	120
210	0x21	33
211	0x07	7
212	0x5a	90
213	0xa8	-88
214	0x2f	47
215	0x1d	29
216	0xbd	-67
217	0x82	-126
218	0x26	38
219	0xa6	-90
220	0x1c	28
221	0xbb	-69
222	0x1f	31
223	0x55	85
224	0x33	51
225	0x3e	62
226	0x81	-127
227	0x81	-127
228	0x9a	-102
229	0x02	2
230	0x15	21
231	0xa0	-96
232	0x44	68
233	0x4d	77
234	0xab	-85
235	0x12	18
236	0x56	86
237	0xc1	-63
238	0x00	0
239	0x89	-119
240	0xa0	-96
241	0x21	33
242	0x0d	13
243	0xa3	-93
244	0x7f	127
245	0x23	35
246	0xf7	-9
247	0xd5	-43
248	0x9f	-97
249	0x43	67
250	0x29	41
251	0x7f	127
252	0x4e	78
253	0xec	-20
254	0x92	-110
255	0x65	101

sequential/batch_normalization_7/FusedBatchNormV3;sequential/depthwise_conv2d_3/depthwise i1 [1, 3, 3, 32]
0	0xe6	-26
1	0x1e	30
2	0x81	-127
3	0x81	-127
4	0x12	18
5	0x95	-107
6	0x0e	14
7	0x2d	45
8	0xcb	-53
9	0xc0	-64
10	0xcb	-53
11	0x2c	44
12	0x9c	-100
13	0x6e	110
14	0x17	23
15	0xd1	-47
16	0x7f	127
17	0x57	87
18	0xd2	-46
19	0x48	72
20	0x44	68
21	0x2b	43
22	0xfe	-2
23	0x81	-127
24	0x58	88
25	0x07	7
26	0x7f	127
27	0xba	-70
28	0xff	-1
29	0xc2	-62
30	0x59	89
31	0x25	37
32	0x36	54
33	0x7f	127
34	0xbc	-68
35	0xa2	-94
36	0x81	-127
37	0xdc	-36
38	0xec	-20
39	0x25	37
40	0xc9	-55
41	0xb9	-71
42	0x2b	43
43	0xda	-38
44	0x81	-127
45	0xf8	-8
46	0x05	5
47	0x22	34
48	0xab	-85
49	0x35	53
50	0xb0	-80
51	0x66	102
52	0x44	68
53	0x33	51
54	0x7f	127
55	0x9c	-100
56	0x8c	-116
57	0x64	100
58	0x69	105
59	0xd8	-40
60	0x08	8
61	0x53	83
62	0x40	64
63	0x7f	127
64	0x2f	47
65	0x2a	42
66	0x1d	29
67	0xce	-50
68	0x7c	124
69	0xd1	-47
70	0xd6	-42
71	0xde	-34
72	0x0b	11
73	0x37	55
74	0xe6	-26
75	0xd1	-47
76	0xc7	-57
77	0xc3	-61
78	0x41	65
79	0x89	-119
80	0xfc	-4
81	0x4f	79
82	0x28	40
83	0x2b	43
84	0xcf	-49
85	0x72	114
86	0x7f	127
87	0x9e	-98
88	0x78	120
89	0x64	100
90	0x0a	10
91	0x81	-127
92	0x81	-127
93	0x23	35
94	0x07	7
95	0x1a	26
96	0x6a	106
97	0x14	20
98	0xbc	-68
99	0x63	99
100	0xbd	-67
101	0x81	-127
102	0x62	98
103	0x53	83
104	0xdc	-36
105	0x14	20
106	0x81	-127
107	0xb8	-72
108	0xad	-83
109	0x6d	109
110	0x7f	127
111	0x56	86
112	0x32	50
113	0xde	-34
114	0xd3	-45
115	0xd9	-39
116	0xf1	-15
117	0xd6	-42
118	0x43	67
119	0xb6	-74
120	0x3e	62
121	0x68	104
122	0xc1	-63
123	0xd8	-40
124	0xa7	-89
125	0x37	55
126	0x7a	122
127	0x5b	91
128	0x7f	127
129	0xd3	-45
130	0xaa	-86
131	0xb4	-76
132	0x46	70
133	0xb6	-74
134	0xdd	-35
135	0x7f	127
136	0xe0	-32
137	0xe5	-27
138	0xa1	-95
139	0x94	-108
140	0x9a	-102
141	0x75	117
142	0x75	117
143	0x81	-127
144	0xc1	-63
145	0x7a	122
146	0xb6	-74
147	0xa5	-91
148	0x02	2
149	0x04	4
150	0xc9	-55
151	0x1e	30
152	0x8d	-115
153	0x6e	110
154	0x04	4
155	0xd3	-45
156	0x49	73
157	0x41	65
158	0x03	3
159	0x30	48
160	0xa1	-95
161	0x28	40
162	0x88	-120
163	0x07	7
164	0x67	103
165	0x57	87
166	0x9a	-102
167	0xf3	-13
168	0x37	55
169	0x7f	127
170	0x25	37
171	0xba	-70
172	0xc3	-61
173	0x4e	78
174	0xda	-38
175	0x0d	13
176	0x21	33
177	0x7f	127
178	0xfe	-2
179	0x6e	110
180	0x6d	109
181	0x81	-127
182	0x55	85
183	0x05	5
184	0xa2	-94
185	0x7f	127
186	0x41	65
187	0xa7	-89
188	0x05	5
189	0x2f	47
190	0x2f	47
191	0x58	88
192	0xc7	-57
193	0x2c	44
194	0x21	33
195	0xd1	-47
196	0x4f	79
197	0xce	-50
198	0x8d	-115
199	0xb0	-80
200	0x81	-127
201	0xf8	-8
202	0x8d	-115
203	0x81	-127
204	0x1f	31
205	0x81	-127
206	0x5d	93
207	0xa3	-93
208	0xbd	-67
209	0x51	81
210	0x4e	78
211	0x2f	47
212	0x29	41
213	0x31	49
214	0x1f	31
215	0xfa	-6
216	0xe5	-27
217	0x9a	-102
218	0x68	104
219	0x10	16
220	0xae	-82
221	0x81	-127
222	0x2b	43
223	0x64	100
224	0x52	82
225	0xd7	-41
226	0x16	22
227	0xde	-34
228	0x9b	-101
229	0x2b	43
230	0x7f	127
231	0xb9	-71
232	0x90	-112
233	0x42	66
234	0xd0	-48
235	0x9e	-98
236	0xca	-54
237	0x99	-103
238	0xdb	-37
239	0xf8	-8
240	0x4a	74
241	0xe0	-32
242	0x81	-127
243	0x81	-127
244	0x7f	127
245	0xb0	-80
246	0x00	0
247	0x15	21
248	0x3c	60
249	0xe3	-29
250	0x9e	-98
251	0x58	88
252	0xdb	-37
253	0x64	100
254	0x6d	109
255	0x66	102

sequential/batch_normalization_9/FusedBatchNormV3;sequential/depthwise_conv2d_4/depthwise;sequential/depthwise_conv2d_5/depthwise i1 [1, 3, 3, 64]
0	0x91	-111
1	0x03	3
2	0xe3	-29
3	0xd0	-48
4	0x17	23
5	0xa2	-94
6	0x7f	127
7	0xc9	-55
8	0x25	37
9	0xf6	-10
10	0x7f	127
11	0xaa	-86
12	0x87	-121
13	0x15	21
14	0xde	-34
15	0xb8	-72
16	0x76	118
17	0xd6	-42
18	0xe9	-23
19	0xbf	-65
20	0xc7	-57
21	0x01	1
22	0x11	17
23	0xc5	-59
24	0x81	-127
25	0x6d	109
26	0xd6	-42
27	0x27	39
28	0xb4	-76
29	0xdf	-33
30	0x91	-111
31	0x12	18
32	0xc6	-58
33	0xb7	-73
34	0xd7	-41
35	0xd0	-48
36	0x27	39
37	0x41	65
38	0x7f	127
39	0x81	-127
40	0x13	19
41	0x3f	63
42	0x42	66
43	0xe9	-23
44	0x81	-127
45	0xbf	-65
46	0xd6	-42
47	0x21	33
48	0x58	88
49	0x81	-127
50	0x8d	-115
51	0xf9	-7
52	0x62	98
53	0x6f	111
54	0x6b	107
55	0x2e	46
56	0xf6	-10
57	0x3b	59
58	0x45	69
59	0x30	48
60	0x08	8
61	0x32	50
62	0xe4	-28
63	0x50	80
64	0xbf	-65
65	0x5e	94
66	0x8c	-116
67	0x94	-108
68	0x84	-124
69	0x0d	13
70	0x20	32
71	0x7f	127
72	0x50	80
73	0xca	-54
74	0x4e	78
75	0x48	72
76	0x50	80
77	0x56	86
78	0xa7	-89
79	0x27	39
80	0xa4	-92
81	0xf4	-12
82	0x05	5
83	0xdd	-35
84	0x52	82
85	0xa3	-93
86	0xf2	-14
87	0xf0	-16
88	0xc5	-59
89	0xbc	-68
90	0x25	37
91	0x7f	127
92	0xb0	-80
93	0x09	9
94	0x97	-105
95	0x81	-127
96	0xb7	-73
97	0xa2	-94
98	0x42	66
99	0x3a	58
100	0x7f	127
101	0xc4	-60
102	0x3b	59
103	0x49	73
104	0xe4	-28
105	0xf1	-15
106	0x62	98
107	0x3a	58
108	0x62	98
109	0x3c	60
110	0x15	21
111	0x7f	127
112	0x4c	76
113	0x73	115
114	0x9f	-97
115	0xbc	-68
116	0x7f	127
117	0x05	5
118	0x92	-110
119	0x7f	127
120	0x12	18
121	0x35	53
122	0xb0	-80
123	0xe0	-32
124	0xa3	-93
125	0x7f	127
126	0xda	-38
127	0xb7	-73
128	0x02	2
129	0x58	88
130	0xfe	-2
131	0xe3	-29
132	0x21	33
133	0x3a	58
134	0x7e	126
135	0x55	85
136	0x72	114
137	0x85	-123
138	0x3b	59
139	0xeb	-21
140	0x67	103
141	0x43	67
142	0x57	87
143	0x37	55
144	0xe2	-30
145	0x8b	-117
146	0xf2	-14
147	0x5e	94
148	0x8a	-118
149	0x81	-127
150	0x36	54
151	0x52	82
152	0xea	-22
153	0x64	100
154	0x26	38
155	0x2f	47
156	0xdc	-36
157	0x33	51
158	0x96	-106
159	0x2b	43
160	0x8f	-113
161	0x81	-127
162	0xba	-70
163	0xe8	-24
164	0x3d	61
165	0x0f	15
166	0x54	84
167	0x0b	11
168	0x81	-127
169	0x45	69
170	0x2c	44
171	0x1b	27
172	0x4d	77
173	0xca	-54
174	0xd7	-41
175	0x65	101
176	0x3d	61
177	0x44	68
178	0xdd	-35
179	0xb6	-74
180	0x54	84
181	0xa8	-88
182	0xc2	-62
183	0xf4	-12
184	0xea	-22
185	0xac	-84
186	0xb1	-79
187	0x0a	10
188	0x40	64
189	0x0f	15
190	0xa4	-92
191	0x23	35
192	0x36	54
193	0xa2	-94
194	0x11	17
195	0x7f	127
196	0x27	39
197	0x11	17
198	0xd6	-42
199	0x36	54
200	0x07	7
201	0x8b	-117
202	0xab	-85
203	0x8c	-116
204	0x2d	45
205	0x0b	11
206	0xd3	-45
207	0x70	112
208	0x72	114
209	0x4f	79
210	0xd9	-39
211	0xca	-54
212	0x00	0
213	0xad	-83
214	0x65	101
215	0x5a	90
216	0x67	103
217	0x7f	127
218	0xe5	-27
219	0xfc	-4
220	0x25	37
221	0xa2	-94
222	0xb0	-80
223	0xfa	-6
224	0xbd	-67
225	0xe4	-28
226	0xee	-18
227	0xe3	-29
228	0x28	40
229	0xf1	-15
230	0xe6	-26
231	0xd4	-44
232	0x0c	12
233	0xc3	-61
234	0x86	-122
235	0x09	9
236	0x20	32
237	0xc4	-60
238	0xa2	-94
239	0x64	100
240	0x7f	127
241	0xd4	-44
242	0x63	99
243	0x7f	127
244	0x42	66
245	0x94	-108
246	0xe1	-31
247	0xb4	-76
248	0xbb	-69
249	0x5c	92
250	0xed	-19
251	0x2d	45
252	0xcc	-52
253	0x9f	-97
254	0x7f	127
255	0xfd	-3

sequential/batch_normalization_11/FusedBatchNormV3;sequential/depthwise_conv2d_5/depthwise i1 [1, 3, 3, 64]
0	0x7f	127
1	0x75	117
2	0x98	-104
3	0x1c	28
4	0x55	85
5	0x2b	43
6	0x81	-127
7	0x28	40
8	0x30	48
9	0xf1	-15
10	0x81	-127
11	0x2d	45
12	0x7e	126
13	0x9a	-102
14	0xd9	-39
15	0x4e	78
16	0x08	8
17	0x08	8
18	0x07	7
19	0x52	82
20	0xf0	-16
21	0x6f	111
22	0x66	102
23	0xa0	-96
24	0x81	-127
25	0xc7	-57
26	0x11	17
27	0x68	104
28	0x7f	127
29	0x8e	-114
30	0x81	-127
31	0x2a	42
32	0xe5	-27
33	0xd7	-41
34	0x7f	127
35	0x0a	10
36	0xc8	-56
37	0x1c	28
38	0x62	98
39	0xf1	-15
40	0x4e	78
41	0xf0	-16
42	0x2b	43
43	0x41	65
44	0x20	32
45	0x18	24
46	0x7a	122
47	0xb7	-73
48	0x81	-127
49	0xec	-20
50	0x8c	-116
51	0x7c	124
52	0x55	85
53	0x71	113
54	0x0e	14
55	0xd9	-39
56	0x36	54
57	0x60	96
58	0xb5	-75
59	0x96	-106
60	0x53	83
61	0x81	-127
62	0x55	85
63	0x11	17
64	0x4c	76
65	0x7e	126
66	0x89	-119
67	0x23	35
68	0x16	22
69	0x96	-106
70	0xd8	-40
71	0x7f	127
72	0x22	34
73	0x12	18
74	0x89	-119
75	0xfe	-2
76	0x7f	127
77	0xf2	-14
78	0x65	101
79	0x7f	127
80	0x32	50
81	0xfc	-4
82	0xc4	-60
83	0x32	50
84	0xff	-1
85	0x9c	-100
86	0xf0	-16
87	0xde	-34
88	0x94	-108
89	0x06	6
90	0x1e	30
91	0x53	83
92	0x32	50
93	0x46	70
94	0x8c	-116
95	0x7f	127
96	0xbd	-67
97	0x31	49
98	0xfd	-3
99	0xc7	-57
100	0x3c	60
101	0x58	88
102	0x32	50
103	0xd5	-43
104	0xc1	-63
105	0x64	100
106	0x25	37
107	0xed	-19
108	0x17	23
109	0x3c	60
110	0x03	3
111	0x81	-127
112	0x84	-124
113	0xb6	-74
114	0x2f	47
115	0x7d	125
116	0x1e	30
117	0xb7	-73
118	0x70	112
119	0x0b	11
120	0xaa	-86
121	0x64	100
122	0x1e	30
123	0x81	-127
124	0x53	83
125	0xdd	-35
126	0xe7	-25
127	0x59	89
128	0xcc	-52
129	0x7f	127
130	0x43	67
131	0x40	64
132	0xdf	-33
133	0xb7	-73
134	0x17	23
135	0xec	-20
136	0x8d	-115
137	0x81	-127
138	0x30	48
139	0xea	-22
140	0x5f	95
141	0x30	48
142	0x76	118
143	0x3f	63
144	0x1f	31
145	0xf0	-16
146	0x7f	127
147	0x38	56
148	0x7f	127
149	0x7f	127
150	0xc9	-55
151	0x35	53
152	0xf0	-16
153	0xd4	-44
154	0x41	65
155	0x6f	111
156	0x66	102
157	0x53	83
158	0xd0	-48
159	0xfa	-6
160	0x39	57
161	0x3c	60
162	0xa3	-93
163	0xc4	-60
164	0x8d	-115
165	0x94	-108
166	0xc1	-63
167	0x9c	-100
168	0x81	-127
169	0x7f	127
170	0x81	-127
171	0x27	39
172	0xf5	-11
173	0xed	-19
174	0x1a	26
175	0x60	96
176	0xb4	-76
177	0x84	-124
178	0xfb	-5
179	0x43	67
180	0x06	6
181	0x16	22
182	0x54	84
183	0xc9	-55
184	0x75	117
185	0x3c	60
186	0x54	84
187	0x14	20
188	0x90	-112
189	0xc8	-56
190	0x99	-103
191	0x76	118
192	0xd0	-48
193	0x37	55
194	0x81	-127
195	0xf0	-16
196	0xdd	-35
197	0x7f	127
198	0x3f	63
199	0x78	120
200	0x01	1
201	0x32	50
202	0x1b	27
203	0x7f	127
204	0x3a	58
205	0xbd	-67
206	0xf9	-7
207	0xc0	-64
208	0x8e	-114
209	0xa4	-92
210	0xcd	-51
211	0x89	-119
212	0xf8	-8
213	0xb5	-75
214	0x81	-127
215	0x71	113
216	0x0a	10
217	0xf5	-11
218	0x4e	78
219	0xb4	-76
220	0x79	121
221	0xae	-82
222	0x03	3
223	0x2c	44
224	0x7e	126
225	0x81	-127
226	0x42	66
227	0xf0	-16
228	0x7f	127
229	0x01	1
230	0xf5	-11
231	0xfe	-2
232	0xd6	-42
233	0xb8	-72
234	0xe0	-32
235	0x7f	127
236	0x47	71
237	0xb2	-78
238	0x7f	127
239	0x48	72
240	0x8d	-115
241	0x01	1
242	0x81	-127
243	0xc8	-56
244	0x95	-107
245	0x7f	127
246	0xb2	-78
247	0x7f	127
248	0x7f	127
249	0x25	37
250	0x81	-127
251	0xed	-19
252	0x7f	127
253	0xed	-19
254	0xeb	-21
255	0x81	-127

sequential/batch_normalization_13/FusedBatchNormV3;sequential/depthwise_conv2d_6/depthwise i1 [1, 3, 3, 128]
0	0x99	-103
1	0x46	70
2	0xba	-70
3	0x81	-127
4	0x81	-127
5	0xf8	-8
6	0x2f	47
7	0x23	35
8	0x7f	127
9	0x27	39
10	0xdd	-35
11	0xe5	-27
12	0x61	97
13	0x7f	127
14	0x6c	108
15	0x7f	127
16	0x29	41
17	0xa2	-94
18	0x12	18
19	0xcb	-53
20	0x04	4
21	0xf6	-10
22	0xc8	-56
23	0xc9	-55
24	0xe3	-29
25	0xe6	-26
26	0x5b	91
27	0x5f	95
28	0xcc	-52
29	0x54	84
30	0x81	-127
31	0xc0	-64
32	0xee	-18
33	0x81	-127
34	0xf8	-8
35	0x8b	-117
36	0x61	97
37	0xbe	-66
38	0xe4	-28
39	0x81	-127
40	0x73	115
41	0x9e	-98
42	0x88	-120
43	0xdf	-33
44	0x9c	-100
45	0xf1	-15
46	0x5d	93
47	0x45	69
48	0x81	-127
49	0x3b	59
50	0x81	-127
51	0xf9	-7
52	0x8b	-117
53	0x60	96
54	0x3b	59
55	0x9b	-101
56	0x0e	14
57	0xb5	-75
58	0x7a	122
59	0xa2	-94
60	0xea	-22
61	0x7f	127
62	0x9d	-99
63	0x53	83
64	0x74	116
65	0x92	-110
66	0x24	36
67	0x04	4
68	0x4a	74
69	0x81	-127
70	0x68	104
71	0x61	97
72	0x3e	62
73	0x1e	30
74	0x3f	63
75	0x51	81
76	0x81	-127
77	0xa4	-92
78	0x2d	45
79	0x9c	-100
80	0x81	-127
81	0x7d	125
82	0xe1	-31
83	0x81	-127
84	0x97	-105
85	0xa4	-92
86	0x81	-127
87	0x1e	30
88	0x7f	127
89	0x7f	127
90	0x20	32
91	0xf5	-11
92	0x7f	127
93	0x96	-106
94	0x01	1
95	0xc8	-56
96	0x7f	127
97	0xde	-34
98	0x69	105
99	0x7f	127
100	0x81	-127
101	0x51	81
102	0xd3	-45
103	0x7f	127
104	0x0a	10
105	0x15	21
106	0x81	-127
107	0x7f	127
108	0xf1	-15
109	0x81	-127
110	0x81	-127
111	0x79	121
112	0x22	34
113	0x02	2
114	0xc7	-57
115	0x4a	74
116	0x56	86
117	0xf8	-8
118	0x7b	123
119	0x96	-106
120	0xc9	-55
121	0xd7	-41
122	0x73	115
123	0x04	4
124	0xda	-38
125	0xc4	-60
126	0x39	57
127	0x5e	94
128	0x8d	-115
129	0x04	4
130	0x3b	59
131	0xc3	-61
132	0x4d	77
133	0x39	57
134	0x36	54
135	0x9b	-101
136	0x48	72
137	0x81	-127
138	0x97	-105
139	0xc8	-56
140	0x64	100
141	0x37	55
142	0x5f	95
143	0x1e	30
144	0xc2	-62
145	0x13	19
146	0x1d	29
147	0x81	-127
148	0xe2	-30
149	0xbd	-67
150	0x03	3
151	0x4f	79
152	0x7f	127
153	0xe5	-27
154	0x7f	127
155	0xc3	-61
156	0x81	-127
157	0x4a	74
158	0x4d	77
159	0x69	105
160	0x4b	75
161	0x68	104
162	0x81	-127
163	0x46	70
164	0x56	86
165	0x9b	-101
166	0xad	-83
167	0xbc	-68
168	0xdc	-36
169	0x38	56
170	0x81	-127
171	0x7f	127
172	0xda	-38
173	0xe5	-27
174	0x00	0
175	0x03	3
176	0xeb	-21
177	0x7f	127
178	0x37	55
179	0xd0	-48
180	0x3f	63
181	0xc7	-57
182	0x63	99
183	0x7f	127
184	0xc3	-61
185	0xd7	-41
186	0x7f	127
187	0xe6	-26
188	0x00	0
189	0xe4	-28
190	0x7f	127
191	0x4d	77
192	0x54	84
193	0x81	-127
194	0xa8	-88
195	0x2a	42
196	0x0d	13
197	0x1f	31
198	0xaf	-81
199	0x30	48
200	0x07	7
201	0x47	71
202	0x35	53
203	0xa8	-88
204	0x20	32
205	0x0b	11
206	0xe1	-31
207	0x10	16
208	0xc7	-57
209	0x69	105
210	0x7f	127
211	0x91	-111
212	0x81	-127
213	0x90	-112
214	0x9b	-101
215	0xd5	-43
216	0x9b	-101
217	0xf9	-7
218	0x81	-127
219	0x7f	127
220	0xf0	-16
221	0xf0	-16
222	0xa7	-89
223	0x04	4
224	0xc0	-64
225	0x07	7
226	0x49	73
227	0x68	104
228	0xdb	-37
229	0xeb	-21
230	0x9c	-100
231	0xca	-54
232	0x7f	127
233	0x62	98
234	0xe0	-32
235	0x2f	47
236	0x81	-127
237	0x04	4
238	0x35	53
239	0x7f	127
240	0xf0	-16
241	0x3b	59
242	0x97	-105
243	0x5c	92
244	0x77	119
245	0x74	116
246	0x18	24
247	0x3d	61
248	0x8d	-115
249	0x37	55
250	0xbf	-65
251	0x7f	127
252	0x52	82
253	0x81	-127
254	0x62	98
255	0xab	-85

sequential/batch_normalization_15/FusedBatchNormV3;sequential/depthwise_conv2d_7/depthwise;sequential/conv2d_8/Conv2D i1 [1, 3, 3, 256]
0	0x99	-103
1	0x81	-127
2	0xe7	-25
3	0x1c	28
4	0x46	70
5	0x6c	108
6	0x13	19
7	0xb1	-79
8	0x7f	127
9	0x99	-103
10	0x3a	58
11	0x47	71
12	0x0a	10
13	0xea	-22
14	0x81	-127
15	0xb7	-73
16	0xde	-34
17	0x31	49
18	0x13	19
19	0xdb	-37
20	0x82	-126
21	0x40	64
22	0xb8	-72
23	0x6f	111
24	0xcb	-53
25	0x94	-108
26	0x81	-127
27	0x95	-107
28	0x22	34
29	0xb6	-74
30	0x81	-127
31	0x6f	111
32	0x3d	61
33	0x4b	75
34	0x9d	-99
35	0xd8	-40
36	0xeb	-21
37	0x0c	12
38	0x66	102
39	0x7c	124
40	0xce	-50
41	0x0b	11
42	0x77	119
43	0x0b	11
44	0xa1	-95
45	0xad	-83
46	0x81	-127
47	0xe8	-24
48	0xd0	-48
49	0x81	-127
50	0x8d	-115
51	0x7f	127
52	0xc1	-63
53	0x96	-106
54	0x46	70
55	0xf2	-14
56	0x75	117
57	0xc3	-61
58	0x45	69
59	0x53	83
60	0x15	21
61	0x05	5
62	0x77	119
63	0xd2	-46
64	0xc7	-57
65	0x7f	127
66	0x7a	122
67	0x01	1
68	0x1e	30
69	0xe7	-25
70	0x40	64
71	0x7f	127
72	0x49	73
73	0x8e	-114
74	0xe0	-32
75	0x70	112
76	0x7f	127
77	0x3f	63
78	0x03	3
79	0x81	-127
80	0x01	1
81	0x7f	127
82	0x97	-105
83	0xbe	-66
84	0xf9	-7
85	0x31	49
86	0x4f	79
87	0xb2	-78
88	0xd8	-40
89	0x7f	127
90	0xea	-22
91	0x81	-127
92	0x27	39
93	0x39	57
94	0x34	52
95	0x7f	127
96	0xb4	-76
97	0x68	104
98	0xfd	-3
99	0xf2	-14
100	0x7f	127
101	0xe4	-28
102	0x64	100
103	0xdb	-37
104	0x1b	27
105	0xba	-70
106	0xf0	-16
107	0x81	-127
108	0x3a	58
109	0x65	101
110	0x4f	79
111	0x46	70
112	0x3e	62
113	0x7f	127
114	0x33	51
115	0x42	66
116	0x66	102
117	0x78	120
118	0x94	-108
119	0x8a	-118
120	0x57	87
121	0xd3	-45
122	0x98	-104
123	0xcd	-51
124	0x90	-112
125	0x1e	30
126	0x0d	13
127	0x13	19
128	0x81	-127
129	0x1d	29
130	0x66	102
131	0x58	88
132	0x0c	12
133	0xdb	-37
134	0x36	54
135	0xb9	-71
136	0xac	-84
137	0x26	38
138	0x0a	10
139	0xdd	-35
140	0x32	50
141	0x31	49
142	0x57	87
143	0x7e	126
144	0xed	-19
145	0xd2	-46
146	0x27	39
147	0x47	71
148	0xf8	-8
149	0xe6	-26
150	0x81	-127
151	0x61	97
152	0x04	4
153	0x49	73
154	0xaa	-86
155	0xbd	-67
156	0xd7	-41
157	0x5b	91
158	0x05	5
159	0x08	8
160	0x81	-127
161	0xb9	-71
162	0x7f	127
163	0x5b	91
164	0x81	-127
165	0x21	33
166	0x7f	127
167	0x7f	127
168	0x50	80
169	0xeb	-21
170	0xe3	-29
171	0xf0	-16
172	0x81	-127
173	0x4a	74
174	0xc1	-63
175	0x01	1
176	0x97	-105
177	0xea	-22
178	0x87	-121
179	0xc3	-61
180	0x7f	127
181	0xfb	-5
182	0x36	54
183	0x86	-122
184	0x2a	42
185	0x81	-127
186	0xee	-18
187	0x61	97
188	0x6f	111
189	0x8c	-116
190	0xab	-85
191	0xf4	-12
192	0x71	113
193	0x7f	127
194	0xf3	-13
195	0xb5	-75
196	0x84	-124
197	0x13	19
198	0x57	87
199	0x0d	13
200	0x25	37
201	0xb6	-74
202	0x98	-104
203	0x1e	30
204	0xa5	-91
205	0x9b	-101
206	0x81	-127
207	0x43	67
208	0x9a	-102
209	0x40	64
210	0x61	97
211	0xc9	-55
212	0x7f	127
213	0x2c	44
214	0xfc	-4
215	0x81	-127
216	0x7f	127
217	0x41	65
218	0x81	-127
219	0x0a	10
220	0x69	105
221	0xb1	-79
222	0xc0	-64
223	0x8c	-116
224	0x4b	75
225	0x5c	92
226	0x09	9
227	0x6a	106
228	0xda	-38
229	0x4f	79
230	0xee	-18
231	0xeb	-21
232	0x64	100
233	0x61	97
234	0xf6	-10
235	0xa5	-91
236	0x34	52
237	0x19	25
238	0x81	-127
239	0x2e	46
240	0x2e	46
241	0x7f	127
242	0xc8	-56
243	0x2b	43
244	0x1d	29
245	0x30	48
246	0x44	68
247	0x3c	60
248	0xaf	-81
249	0x81	-127
250	0xe2	-30
251	0xbf	-65
252	0xb2	-78
253	0xde	-34
254	0x0c	12
255	0xbf	-65
