MobileNet/mobilenet_125_10/model_quant.tflite (tflite, 133128 bytes, 29 tensors)

model/dense/MatMul i1 [64, 128] scale=0.001679018 zero_point=0
-0.036938395 -0.07723483 -0.15782769 0.035259377 0.07555581 -0.0654817 -0.030222325 -0.13264242
0.13264242 -0.028543307 -0.115852244 -0.07219777 0.078913845 0.078913845 0.011753126 0.05876563
0.078913845 -0.124247335 0.13935849 0.07555581 0.05204956 -0.15782769 0.021827234 0.11081519
0.030222325 0.13935849 -0.13432144 0.16958082 0.030222325 -0.030222325 -0.1208893 0.04029643
-0.15950671 -0.097383045 -0.035259377 0.08227188 -0.03190134 -0.088987954 -0.001679018 -0.06380268
-0.14103751 0.001679018 -0.16958082 0.005037054 0.00839509 -0.05037054 -0.057086613 0.043654468
-0.08059286 -0.011753126 0.05876563 0.015111162 0.14271653 -0.07555581 -0.114173226 0.11753126
0.09234599 0.05876563 -0.097383045 -0.13600045 -0.13935849 0.018469198 -0.08227188 -0.06380268
-0.010074108 -0.088987954 0.048691522 -0.15279064 -0.013432144 0.003358036 0.006716072 -0.12760536
-0.055407595 0.06883974 0.15279064 0.15111162 -0.14103751 0.16454376 -0.15782769 0.114173226
-0.03358036 0.02518527 -0.16118573 0.07723483 0.010074108 0.005037054 0.02518527 0.15782769
0.01679018 -0.00839509 -0.04197545 0.010074108 -0.09234599 -0.09906206 -0.19308707 -0.12760536
0.11753126 -0.16454376 0.020148216 -0.028543307 -0.16286474 0.12928438 -0.078913845 0.070518754
-0.10745715 -0.045333486 0.09402501 0.13264242 0.06883974 -0.12928438 -0.088987954 0.006716072
0.10074108 -0.13935849 0.020148216 0.07387679 -0.13935849 0.021827234 -0.17797591 -0.06716072
0.07219777 -0.09066697 -0.1309634 0.05204956 0.07387679 0.1494326 0.07555581 0.15279064
0.14439555 -0.04029643 -0.14271653 -0.14271653 0.062123667 -0.14775358 -0.1024201 -0.013432144
-0.11249421 -0.06883974 -0.07219777 -0.13432144 -0.115852244 -0.013432144 -0.11921028 0.14607456
-0.055407595 0.1679018 0.14439555 0.026864288 -0.08059286 0.16118573 0.087308936 0.124247335
0.16622278 0.105778135 -0.10913617 -0.018469198 -0.15950671 -0.1309634 0.003358036 -0.11753126
-0.088987954 -0.02518527 -0.14775358 -0.07555581 -0.1309634 -0.06883974 0.078913845 0.10409912
-0.12592635 0.0839509 0.105778135 0.030222325 0.15279064 0.088987954 -0.00839509 -0.07555581
-0.07723483 0.1024201 0.023506252 -0.15614867 -0.16286474 -0.12928438 0.12256832 0.07387679
-0.09570403 -0.001679018 -0.07555581 0.17797591 -0.11921028 -0.14103751 0.055407595 -0.09402501
-0.097383045 -0.020148216 0.10913617 -0.018469198 -0.04029643 -0.07555581 0.1024201 0.124247335
-0.06716072 -0.001679018 -0.07723483 -0.10913617 -0.05204956 0.12592635 -0.057086613 -0.006716072
0.15614867 -0.14271653 -0.16286474 0.11753126 -0.14271653 -0.018469198 0.15782769 -0.14439555
-0.06380268 -0.16454376 0.038617413 -0.105778135 0.14103751 0.13767947 0.097383045 0.0
-0.08059286 0.13935849 0.124247335 -0.026864288 0.10745715 -0.020148216 -0.03190134 0.0839509
0.15446965 -0.047012504 0.07555581 0.16286474 -0.14607456 0.11249421 -0.11081519 -0.035259377
0.13600045 0.006716072 0.04029643 -0.09066697 0.053728577 0.021827234 -0.05204956 -0.1679018
-0.14271653 -0.14775358 -0.1309634 -0.006716072 0.11921028 -0.105778135 0.18301296 0.015111162
00000000: ead2 a215 2dd9 eeb1 4fef bbd5 2f2f 0723
00000010: 2fb6 532d 1fa2 0d42 1253 b065 12ee b818
00000020: a1c6 eb31 edcb ffda ac01 9b03 05e2 de1a
00000030: d0f9 2309 55d3 bc46 3723 c6af ad0b cfda
00000040: facb 1da5 f802 04b4 df29 5b5a ac62 a244
00000050: ec0f a02e 0603 0f5e 0afb e706 c9c5 8db4
00000060: 469e 0cef 9f4d d12a c0e5 384f 29b3 cb04
00000070: 3cad 0c2c ad0d 96d8 2bca b21f 2c59 2d5b
00000080: 56e8 abab 25a8 c3f8 bdd7 d5b0 bbf8 b957
00000090: df64 5610 d060 344a 633f bff5 a1b2 02ba
000000a0: cbf1 a8d3 b2d7 2f3e b532 3f12 5b35 fbd3
000000b0: d23d 0ea3 9fb3 492c c7ff d36a b9ac 21c8
000000c0: c6f4 41f5 e8d3 3d4a d8ff d2bf e14b defc
000000d0: 5dab 9f46 abf5 5eaa da9e 17c1 5452 3a00
000000e0: d053 4af0 40f4 ed32 5ce4 2d61 a943 beeb
000000f0: 5104 18ca 200d e19c aba8 b2fc 47c1 6d09

model/dense_1/MatMul i1 [2, 64] scale=0.0024087022 zero_point=0
-0.060217556 -0.06744366 0.17342655 -0.08912198 0.09875679 0.14933953 -0.16620044 -0.26254854
0.25532243 0.19269617 -0.110800296 0.110800296 -0.26495725 -0.30590516 0.055400148 -0.009634809
-0.226418 -0.20473969 -0.27940944 -0.30349648 -0.03131313 0.06262626 0.08430458 0.28181815
-0.060217556 0.079487175 0.08189587 -0.060217556 0.29386166 0.019269617 -0.052991446 -0.15415694
0.009634809 -0.13247862 -0.14211343 -0.050582744 -0.036130533 -0.12766121 -0.0024087022 -0.072261065
0.30590516 0.06262626 0.12043511 0.15415694 -0.040947936 0.28663555 0.17824396 0.23364411
-0.20714839 0.06262626 0.27218336 0.113209 -0.07466976 -0.24087022 0.25773114 0.2191919
0.2191919 -0.13247862 0.055400148 0.17583525 -0.26013982 -0.26736593 0.24327892 -0.23605281
0.024087021 0.09393939 0.103574194 0.0072261067 -0.028904427 0.15897435 -0.16138305 0.24327892
0.02167832 -0.0048174043 0.118026406 0.10598289 -0.21196578 -0.07466976 -0.2288267 0.20233098
-0.07466976 -0.26495725 0.038539235 -0.16138305 -0.29627037 0.07466976 0.09153068 -0.052991446
-0.2288267 -0.24809632 -0.03372183 0.26736593 0.16379175 -0.26736593 -0.19992228 0.048174042
-0.24087022 -0.15897435 -0.27940944 -0.048174042 -0.02167832 0.028904427 0.2191919 -0.23123541
0.2288267 0.060217556 0.18306136 0.14933953 0.2529137 0.28904426 0.14211343 -0.04576534
-0.20714839 -0.0048174043 0.29867905 -0.17824396 -0.08430458 0.0 0.2288267 0.18547006
-0.18306136 0.14452213 -0.13247862 0.16379175 0.118026406 0.079487175 -0.10598289 -0.20233098
00000000: e7e4 48db 293e bb93 6a50 d22e 9281 17fc
00000010: a2ab 8c82 f31a 2375 e721 22e7 7a08 eac0
00000020: 04c9 c5eb f1cb ffe2 7f1a 3240 ef77 4a61
00000030: aa1a 712f e19c 6b5b 5bc9 1749 9491 659e
00000040: 0a27 2b03 f442 bd65 09fe 312c a8e1 a154
00000050: e192 10bd 851f 26ea a199 f26f 4491 ad14
00000060: 9cbe 8cec f70c 5ba0 5f19 4c3e 6978 3bed
00000070: aafe 7cb6 dd00 5f4d b43c c944 3121 d4ac

model/conv1/Conv2D i1 [4, 3, 3, 3]
-100 -112 50 67 5 113 89 -33
97 105 -9 -67 -127 -34 -14 43
74 -37 -9 -89 13 116 97 56
59 8 68 -96 -8 -33 121 -93
127 50 26 43 60 -21 -46 63
75 53 53 26 106 -64 10 -84
89 -100 -92 45 -99 110 107 -55
95 69 -87 -114 -3 -38 32 -95
104 -127 -20 30 46 -87 -93 -32
15 89 26 85 -121 83 -76 -36
117 -46 -18 14 44 109 84 15
-93 -66 -81 -5 -108 -87 -100 -75
-104 -127 72 15 111 -117 -98 105
100 -67 -10 59
00000000: 9c90 3243 0571 59df 6169 f7bd 81de f22b
00000010: 4adb f7a7 0d74 6138 3b08 44a0 f8df 79a3
00000020: 7f32 1a2b 3ceb d23f 4b35 351a 6ac0 0aac
00000030: 599c a42d 9d6e 6bc9 5f45 a98e fdda 20a1
00000040: 6881 ec1e 2ea9 a3e0 0f59 1a55 8753 b4dc
00000050: 75d2 ee0e 2c6d 540f a3be affb 94a9 9cb5
00000060: 9881 480f 6f8b 9e69 64bd f63b

model/conv_pw_1/Conv2D i1 [8, 1, 1, 4]
-109 127 99 -71 -104 80 -34 -127
127 126 -23 -22 -24 127 -54 38
-15 -40 24 -127 -6 -127 42 -74
-97 23 -111 -127 58 39 -127 23
00000000: 937f 63b9 9850 de81 7f7e e9ea e87f ca26
00000010: f1d8 1881 fa81 2ab6 9f17 9181 3a27 8117

model/conv_pw_2/Conv2D i1 [16, 1, 1, 8]
35 31 127 -10 -64 0 -8 -94
-127 48 39 117 86 98 -8 13
-116 -9 33 53 52 -12 127 -69
22 -48 -127 -24 -81 38 20 117
-47 -70 -62 127 99 -99 103 -109
20 -103 6 127 -120 41 -90 -123
-114 127 -55 13 82 -49 -21 55
127 -49 -13 -124 -51 -122 -98 -98
50 -123 -98 -82 -20 111 86 127
102 97 106 -23 127 111 -27 87
68 -79 127 38 -45 -65 -62 -89
75 62 -44 32 127 6 103 -48
36 -28 111 -99 127 90 121 111
27 -82 -73 62 121 -127 112 -21
-30 25 -18 23 -34 54 127 122
61 -71 27 -26 127 -48 -68 -65
00000000: 231f 7ff6 c000 f8a2 8130 2775 5662 f80d
00000010: 8cf7 2135 34f4 7fbb 16d0 81e8 af26 1475
00000020: d1ba c27f 639d 6793 1499 067f 8829 a685
00000030: 8e7f c90d 52cf eb37 7fcf f384 cd86 9e9e
00000040: 3285 9eae ec6f 567f 6661 6ae9 7f6f e557
00000050: 44b1 7f26 d3bf c2a7 4b3e d420 7f06 67d0
00000060: 24e4 6f9d 7f5a 796f 1bae b73e 7981 70eb
00000070: e219 ee17 de36 7f7a 3db9 1be6 7fd0 bcbf

model/conv_pw_3/Conv2D i1 [16, 1, 1, 16]
-76 -127 -88 -47 -126 60 62 53
-44 -11 -101 22 -53 -36 117 -103
85 -108 -105 -118 127 1 -76 22
-12 -91 60 -120 31 -47 -57 77
123 -125 -104 -127 66 -70 -86 68
84 -96 6 102 3 85 76 97
100 126 101 101 116 -127 -12 74
-75 21 100 -87 42 -10 -97 -55
-103 -42 16 0 40 -50 33 113
-58 107 -60 8 105 -30 -60 127
-59 -83 -3 -19 112 7 -15 37
23 -115 -61 -66 127 -34 111 5
14 -97 -26 14 80 -127 115 85
-70 56 13 -7 -38 86 -55 15
0 113 68 -126 -127 28 33 -98
-9 -105 95 -121 54 -28 -58 82
55 86 34 -75 -79 88 62 -55
62 110 -118 72 35 -42 36 -127
47 -110 82 -43 -48 94 -26 19
-127 67 91 -112 78 -72 16 16
-18 -23 -23 10 30 -127 -115 71
-30 -19 30 10 -22 60 19 -91
-66 92 -81 -127 57 -13 -14 -10
-103 96 -59 97 -88 -80 -97 69
47 -37 -57 -117 85 -82 -13 -24
-104 112 127 -106 -94 86 -83 -91
107 63 -102 122 -112 30 93 -13
12 127 -45 -65 -50 84 -2 -64
-114 101 -106 127 73 50 115 -36
60 119 5 59 -99 85 93 48
-126 101 87 80 1 70 6 103
-127 -43 36 2 107 -44 65 41
00000000: b481 a8d1 823c 3e35 d4f5 9b16 cbdc 7599
00000010: 5594 978a 7f01 b416 f4a5 3c88 1fd1 c74d
00000020: 7b83 9881 42ba aa44 54a0 0666 0355 4c61
00000030: 647e 6565 7481 f44a b515 64a9 2af6 9fc9
00000040: 99d6 1000 28ce 2171 c66b c408 69e2 c47f
00000050: c5ad fded 7007 f125 178d c3be 7fde 6f05
00000060: 0e9f e60e 5081 7355 ba38 0df9 da56 c90f
00000070: 0071 4482 811c 219e f797 5f87 36e4 c652
00000080: 3756 22b5 b158 3ec9 3e6e 8a48 23d6 2481
00000090: 2f92 52d5 d05e e613 8143 5b90 4eb8 1010
000000a0: eee9 e90a 1e81 8d47 e2ed 1e0a ea3c 13a5
000000b0: be5c af81 39f3 f2f6 9960 c561 a8b0 9f45
000000c0: 2fdb c78b 55ae f3e8 9870 7f96 a256 ada5
000000d0: 6b3f 9a7a 901e 5df3 0c7f d3bf ce54 fec0
000000e0: 8e65 967f 4932 73dc 3c77 053b 9d55 5d30
000000f0: 8265 5750 0146 0667 81d5 2402 6bd4 4129

model/conv_pw_4/Conv2D i1 [32, 1, 1, 16]
-61 -76 -56 92 -120 -36 -26 -19
123 -38 70 38 39 127 10 -83
123 -120 -81 8 46 -76 -55 115
69 127 -49 -66 27 -58 51 -85
-100 47 -78 -94 6 -113 -15 58
-12 -51 25 -127 -39 125 -115 69
-60 -45 18 -92 -115 -77 50 86
-39 -70 -127 20 30 8 67 -83
37 -93 -121 -7 -34 -65 98 -100
69 45 -127 96 126 -24 111 39
41 -43 16 48 -109 -93 1 -79
64 30 -27 127 -59 21 -98 110
108 80 127 -52 36 61 -120 -54
-90 -34 -36 -89 -17 -13 107 -71
55 29 74 -56 93 -77 -32 -57
-22 -63 18 95 127 -19 101 29
7 -6 -4 108 73 10 124 65
-9 -27 119 -46 -64 10 42 127
-64 -64 -25 -94 -125 49 -7 -55
127 -19 -104 -28 111 49 -9 -5
-5 10 -26 -29 -44 -1 82 -62
-65 103 -116 127 -114 44 113 -11
-86 -7 -105 77 -28 57 -100 -115
36 -16 -78 -61 -127 -14 66 -78
99 -87 -89 -89 -27 -91 12 23
-7 -127 -31 -65 15 -108 33 -14
-80 -32 126 4 34 -127 111 -61
102 53 -113 -120 90 14 89 108
45 -123 127 27 114 -120 42 -75
24 32 43 76 -100 110 109 74
71 -107 -79 -69 -109 -90 -75 -66
12 35 25 12 127 -108 1 -7
00000000: c3b4 c85c 88dc e6ed 7bda 4626 277f 0aad
00000010: 7b88 af08 2eb4 c973 457f cfbe 1bc6 33ab
00000020: 9c2f b2a2 068f f13a f4cd 1981 d97d 8d45
00000030: c4d3 12a4 8db3 3256 d9ba 8114 1e08 43ad
00000040: 25a3 87f9 debf 629c 452d 8160 7ee8 6f27
00000050: 29d5 1030 93a3 01b1 401e e57f c515 9e6e
00000060: 6c50 7fcc 243d 88ca a6de dca7 eff3 6bb9
00000070: 371d 4ac8 5db3 e0c7 eac1 125f 7fed 651d
00000080: 07fa fc6c 490a 7c41 f7e5 77d2 c00a 2a7f
00000090: c0c0 e7a2 8331 f9c9 7fed 98e4 6f31 f7fb
000000a0: fb0a e6e3 d4ff 52c2 bf67 8c7f 8e2c 71f5
000000b0: aaf9 974d e439 9c8d 24f0 b2c3 81f2 42b2
000000c0: 63a9 a7a7 e5a5 0c17 f981 e1bf 0f94 21f2
000000d0: b0e0 7e04 2281 6fc3 6635 8f88 5a0e 596c
000000e0: 2d85 7f1b 7288 2ab5 1820 2b4c 9c6e 6d4a
000000f0: 4795 b1bb 93a6 b5be 0c23 190c 7f94 01f9

model/conv_pw_5/Conv2D i1 [32, 1, 1, 32]
-20 -31 -43 18 42 -39 -108 -26
45 87 14 30 -49 27 -35 90
-73 127 70 -44 -24 126 -47 -70
-84 -88 35 35 95 -1 -106 -93
-70 -127 -115 -67 30 55 -36 65
8 -122 -81 8 108 -87 96 -106
35 60 -52 -81 100 111 -10 -19
-5 51 -117 119 44 -100 124 -27
127 34 -111 -74 -16 -2 -9 -64
-53 -41 102 -110 -108 -42 74 -71
19 -51 -47 20 -34 -66 49 102
42 -3 66 -25 -50 50 -33 -15
46 -80 103 74 -17 -4 -46 127
-99 -45 -61 95 3 54 -1 121
-23 76 -2 21 -17 48 -12 -111
-8 -8 33 -80 -75 -11 -111 -62
115 23 -75 -71 124 111 -11 105
-64 110 83 71 2 -105 21 -116
-95 40 126 -37 0 -127 9 112
-92 -106 -106 -5 48 39 54 -102
-109 15 -49 56 85 -19 -83 -127
-118 0 51 81 -24 26 -116 52
-121 -76 45 54 -103 -34 108 -18
61 122 -56 -39 93 -123 -62 52
55 -2 46 -110 11 -117 47 -91
-82 75 -127 -60 -66 81 65 -125
-106 -13 91 50 -70 50 -75 -21
1 73 -61 -58 -93 -62 -26 -16
-110 -98 -46 109 -52 49 9 85
-10 51 1 11 -5 -14 -103 113
-70 52 111 -19 -14 -110 76 30
93 -27 -44 127 19 27 -19 67
00000000: ece1 d512 2ad9 94e6 2d57 0e1e cf1b dd5a
00000010: b77f 46d4 e87e d1ba aca8 2323 5fff 96a3
00000020: ba81 8dbd 1e37 dc41 0886 af08 6ca9 6096
00000030: 233c ccaf 646f f6ed fb33 8b77 2c9c 7ce5
00000040: 7f22 91b6 f0fe f7c0 cbd7 6692 94d6 4ab9
00000050: 13cd d114 debe 3166 2afd 42e7 ce32 dff1
00000060: 2eb0 674a effc d27f 9dd3 c35f 0336 ff79
00000070: e94c fe15 ef30 f491 f8f8 21b0 b5f5 91c2
00000080: 7317 b5b9 7c6f f569 c06e 5347 0297 158c
00000090: a128 7edb 0081 0970 a496 96fb 3027 369a
000000a0: 930f cf38 55ed ad81 8a00 3351 e81a 8c34
000000b0: 87b4 2d36 99de 6cee 3d7a c8d9 5d85 c234
000000c0: 37fe 2e92 0b8b 2fa5 ae4b 81c4 be51 4183
000000d0: 96f3 5b32 ba32 b5eb 0149 c3c6 a3c2 e6f0
000000e0: 929e d26d cc31 0955 f633 010b fbf2 9971
000000f0: ba34 6fed f292 4c1e 5de5 d47f 131b ed43

model/conv_pw_6/Conv2D i1 [64, 1, 1, 32]
-96 57 84 -61 -11 -36 11 8
-76 -78 10 3 -103 -51 -108 -52
-27 -127 29 27 25 53 41 -37
-101 6 42 -6 -13 -41 67 -29
61 88 -85 -37 124 71 32 -105
-27 95 -114 -108 -106 -72 -120 113
-81 38 -24 -127 -67 -7 -2 -47
13 23 -38 85 59 79 2 100
-124 100 -48 65 -2 -1 70 127
-105 -10 -68 -43 81 -85 -9 45
-76 -19 -17 60 76 -27 98 -48
111 -113 -91 -60 -96 -55 -32 81
-74 90 -114 -123 -114 38 -86 82
-76 -6 28 35 -54 89 -68 -53
-36 80 110 -100 61 114 -114 -127
57 27 -55 42 -75 33 -113 -104
-111 -32 -101 59 -51 14 -93 2
-2 38 -1 118 -117 -101 -6 -108
35 109 52 -52 91 -9 35 117
41 106 -126 -127 -46 84 -85 59
-96 96 -45 -1 -124 71 -58 -37
-11 -9 -20 30 -89 22 -24 -48
-79 47 19 -70 -95 -22 -73 -47
71 -127 32 97 68 -113 -9 105
-23 -98 -88 -65 -84 -2 -4 46
90 -19 13 64 -56 15 -19 -13
-97 21 57 50 87 4 -94 -85
-108 112 124 -38 127 66 -4 96
-90 -60 18 96 -16 -33 -127 -65
86 -50 -55 116 -111 79 -40 11
-64 -68 -71 51 -89 21 -103 -3
-90 -86 -31 -72 -61 -35 117 -34
00000000: a039 54c3 f5dc 0b08 b4b2 0a03 99cd 94cc
00000010: e581 1d1b 1935 29db 9b06 2afa f3d7 43e3
00000020: 3d58 abdb 7c47 2097 e55f 8e94 96b8 8871
00000030: af26 e881 bdf9 fed1 0d17 da55 3b4f 0264
00000040: 8464 d041 feff 467f 97f6 bcd5 51ab f72d
00000050: b4ed ef3c 4ce5 62d0 6f8f a5c4 a0c9 e051
00000060: b65a 8e85 8e26 aa52 b4fa 1c23 ca59 bccb
00000070: dc50 6e9c 3d72 8e81 391b c92a b521 8f98
00000080: 91e0 9b3b cd0e a302 fe26 ff76 8b9b fa94
00000090: 236d 34cc 5bf7 2375 296a 8281 d254 ab3b
000000a0: a060 d3ff 8447 c6db f5f7 ec1e a716 e8d0
000000b0: b12f 13ba a1ea b7d1 4781 2061 448f f769
000000c0: e99e a8bf acfe fc2e 5aed 0d40 c80f edf3
000000d0: 9f15 3932 5704 a2ab 9470 7cda 7f42 fc60
000000e0: a6c4 1260 f0df 81bf 56ce c974 914f d80b
000000f0: c0bc b933 a715 99fd a6aa e1b8 c3dd 75de

model/conv_pw_7/Conv2D i1 [64, 1, 1, 64]
67 22 75 113 88 72 83 -88
-29 72 90 103 97 94 40 -58
-28 24 56 -86 -21 -59 -21 -94
-1 104 79 -99 -38 -10 93 97
7 85 82 118 -99 31 59 35
-92 -75 -18 85 92 102 -3 -107
57 -78 74 11 96 -112 56 -93
96 127 -77 -10 -2 -104 20 44
-17 -52 -60 -106 -18 -84 -88 -45
101 99 -34 33 51 25 21 -30
-102 -10 -30 64 -1 49 44 116
-55 55 119 -76 -52 -11 47 86
24 43 35 -11 87 -83 -23 -8
114 20 -49 -74 -127 -84 79 -61
94 -127 -27 18 82 -11 26 60
-21 -96 41 -117 -47 1 101 21
-76 30 83 88 94 44 96 -76
-112 -33 -76 -81 -70 84 12 49
120 101 -108 24 74 -23 -33 -111
76 114 81 -83 -96 -100 -72 26
16 -31 97 -127 -31 32 -120 82
61 -82 51 48 18 0 -15 13
42 100 46 0 28 -21 26 -30
-102 -37 106 24 80 -73 -110 81
98 -106 68 30 62 -64 4 -34
-102 -75 -69 16 100 48 95 127
69 28 25 42 -63 29 53 -51
49 123 -42 80 -31 -83 82 2
27 26 -72 17 118 -63 0 -102
-71 -81 67 -73 -31 -28 -70 58
20 86 31 -51 45 -125 47 102
-60 81 -57 -74 96 -2 75 -12
00000000: 4316 4b71 5848 53a8 e348 5a67 615e 28c6
00000010: e418 38aa ebc5 eba2 ff68 4f9d daf6 5d61
00000020: 0755 5276 9d1f 3b23 a4b5 ee55 5c66 fd95
00000030: 39b2 4a0b 6090 38a3 607f b3f6 fe98 142c
00000040: efcc c496 eeac a8d3 6563 de21 3319 15e2
00000050: 9af6 e240 ff31 2c74 c937 77b4 ccf5 2f56
00000060: 182b 23f5 57ad e9f8 7214 cfb6 81ac 4fc3
00000070: 5e81 e512 52f5 1a3c eba0 298b d101 6515
00000080: b41e 5358 5e2c 60b4 90df b4af ba54 0c31
00000090: 7865 9418 4ae9 df91 4c72 51ad a09c b81a
000000a0: 10e1 6181 e120 8852 3dae 3330 1200 f10d
000000b0: 2a64 2e00 1ceb 1ae2 9adb 6a18 50b7 9251
000000c0: 6296 441e 3ec0 04de 9ab5 bb10 6430 5f7f
000000d0: 451c 192a c11d 35cd 317b d650 e1ad 5202
000000e0: 1b1a b811 76c1 009a b9af 43b7 e1e4 ba3a
000000f0: 1456 1fcd 2d83 2f66 c451 c7b6 60fe 4bf4

model/conv_pw_8/Conv2D i1 [64, 1, 1, 64]
2 -36 20 86 76 -98 39 103
45 -13 43 105 122 0 -82 -62
-68 -38 74 -63 -110 -28 89 88
6 116 45 -29 -38 72 89 -75
-27 -40 -52 -12 -61 -43 -89 21
37 80 -75 97 -32 -1 91 -89
31 -63 -76 5 -1 88 127 -119
-116 -8 66 -19 112 -78 38 -81
63 -4 71 3 10 -91 91 46
65 -10 19 -105 -78 -6 122 56
74 -97 -21 72 -22 -107 -67 -100
8 -33 -4 -53 68 14 94 101
127 -1 -27 35 -106 -3 39 -26
23 -48 53 -75 -90 -107 111 -16
-40 -68 -11 -12 -4 67 3 74
97 111 7 -99 -110 4 -69 -90
-63 -82 39 -115 114 25 62 7
32 59 -55 -81 9 -31 -32 77
-32 -27 57 -22 -56 -20 -8 61
-74 -123 -72 20 81 -61 -39 99
-99 4 -37 41 -33 -59 -34 -72
88 72 -75 -42 -65 -9 -103 -81
127 -27 31 -37 -20 27 75 95
91 -80 -52 -76 91 -70 20 -42
3 102 72 -17 54 27 -68 -31
82 65 46 -70 70 -48 -103 85
79 11 -104 87 -2 71 88 -106
73 57 6 -80 3 89 13 49
45 -83 -38 28 10 -63 55 44
-71 0 -89 23 -12 51 -35 -27
-127 -28 58 36 33 20 -24 38
-85 25 -42 33 82 -59 77 -27
00000000: 02dc 1456 4c9e 2767 2df3 2b69 7a00 aec2
00000010: bcda 4ac1 92e4 5958 0674 2de3 da48 59b5
00000020: e5d8 ccf4 c3d5 a715 2550 b561 e0ff 5ba7
00000030: 1fc1 b405 ff58 7f89 8cf8 42ed 70b2 26af
00000040: 3ffc 4703 0aa5 5b2e 41f6 1397 b2fa 7a38
00000050: 4a9f eb48 ea95 bd9c 08df fccb 440e 5e65
00000060: 7fff e523 96fd 27e6 17d0 35b5 a695 6ff0
00000070: d8bc f5f4 fc43 034a 616f 079d 9204 bba6
00000080: c1ae 278d 7219 3e07 203b c9af 09e1 e04d
00000090: e0e5 39ea c8ec f83d b685 b814 51c3 d963
000000a0: 9d04 db29 dfc5 deb8 5848 b5d6 bff7 99af
000000b0: 7fe5 1fdb ec1b 4b5f 5bb0 ccb4 5bba 14d6
000000c0: 0366 48ef 361b bce1 5241 2eba 46d0 9955
000000d0: 4f0b 9857 fe47 5896 4939 06b0 0359 0d31
000000e0: 2dad da1c 0ac1 372c b900 a717 f433 dde5
000000f0: 81e4 3a24 2114 e826 ab19 d621 52c5 4de5

model/conv_pw_9/Conv2D i1 [64, 1, 1, 64]
-82 18 58 32 71 36 92 -102
-68 51 -77 -58 -57 -48 63 -17
-98 -41 -3 -16 -14 101 -47 -93
-61 -12 -111 69 33 60 -23 -5
97 -35 -116 66 -6 -94 -44 -2
29 -92 28 54 -21 28 50 95
-63 20 18 37 92 4 15 -64
127 105 -50 -81 46 49 -19 -59
29 82 115 -62 -64 -4 -62 127
61 -34 16 -31 99 -92 110 -12
-7 -83 -33 -59 19 -47 7 68
45 -67 54 33 -114 -88 -32 -76
63 60 -48 38 -69 105 -57 102
-15 56 79 -17 -7 -100 -30 20
98 45 40 80 -14 41 54 38
-36 -16 -2 79 -42 -53 10 -41
56 78 84 -126 65 56 24 81
1 38 44 -81 -62 -8 -117 20
1 73 -35 93 85 39 -101 104
125 46 4 -9 -4 -14 -118 -90
60 62 25 -74 35 107 11 88
101 68 32 -11 7 29 58 18
-120 -39 -127 23 14 -112 -119 67
125 -12 58 -87 -9 25 -109 50
-35 47 54 -36 -108 -31 87 79
95 75 27 10 -66 34 -120 54
90 -96 -14 20 -14 62 40 17
104 40 68 80 45 75 -44 127
-125 12 101 43 0 21 37 -27
53 -12 -5 101 7 -99 -56 -15
-24 -9 111 -20 76 -10 114 107
14 92 36 42 9 56 -24 -76
00000000: ae12 3a20 4724 5c9a bc33 b3c6 c7d0 3fef
00000010: 9ed7 fdf0 f265 d1a3 c3f4 9145 213c e9fb
00000020: 61dd 8c42 faa2 d4fe 1da4 1c36 eb1c 325f
00000030: c114 1225 5c04 0fc0 7f69 ceaf 2e31 edc5
00000040: 1d52 73c2 c0fc c27f 3dde 10e1 63a4 6ef4
00000050: f9ad dfc5 13d1 0744 2dbd 3621 8ea8 e0b4
00000060: 3f3c d026 bb69 c766 f138 4fef f99c e214
00000070: 622d 2850 f229 3626 dcf0 fe4f d6cb 0ad7
00000080: 384e 5482 4138 1851 0126 2caf c2f8 8b14
00000090: 0149 dd5d 5527 9b68 7d2e 04f7 fcf2 8aa6
000000a0: 3c3e 19b6 236b 0b58 6544 20f5 071d 3a12
000000b0: 88d9 8117 0e90 8943 7df4 3aa9 f719 9332
000000c0: dd2f 36dc 94e1 574f 5f4b 1b0a be22 8836
000000d0: 5aa0 f214 f23e 2811 6828 4450 2d4b d47f
000000e0: 830c 652b 0015 25e5 35f4 fb65 079d c8f1
000000f0: e8f7 6fec 4cf6 726b 0e5c 242a 0938 e8b4

model/conv_pw_10/Conv2D i1 [64, 1, 1, 64]
65 11 1 -60 30 111 -68 91
-39 31 -19 43 -97 65 67 -22
-27 44 -54 106 29 -74 -22 -37
-118 -64 64 2 84 -116 37 85
-35 36 -35 74 99 18 87 -33
-89 33 89 -53 -99 86 72 -127
-90 40 24 -3 -43 35 -79 79
-56 -30 37 51 -61 -12 -97 -68
-100 -84 -101 -106 47 -93 39 -18
25 15 -57 -28 68 -66 -20 125
110 96 -67 14 91 109 86 48
-28 -119 -54 70 48 -47 48 100
104 40 -127 -44 -113 97 115 -30
-120 -9 -112 -41 122 -1 61 1
126 -74 -20 37 15 32 105 61
-5 39 36 -97 68 -88 -109 55
42 125 98 18 67 46 -16 -42
127 -79 45 94 9 -92 -10 109
5 -107 -31 -99 51 -111 70 90
69 -37 93 -29 -65 106 -67 49
-40 47 7 22 -71 -34 -62 -35
-17 71 -5 -24 -71 -115 4 -64
99 -100 -40 -72 -67 11 14 -54
-73 33 58 32 -97 -97 -5 -25
-4 -52 -88 -94 -82 79 38 -59
91 -46 -76 0 -3 20 79 62
111 -92 20 62 -22 -74 84 9
114 17 94 -13 -79 -37 88 -38
26 -17 -124 38 93 62 32 -72
-87 90 91 50 59 -94 -92 -98
76 127 -27 67 -54 60 29 -80
-66 11 90 58 -38 91 11 -115
00000000: 410b 01c4 1e6f bc5b d91f ed2b 9f41 43ea
00000010: e52c ca6a 1db6 eadb 8ac0 4002 548c 2555
00000020: dd24 dd4a 6312 57df a721 59cb 9d56 4881
00000030: a628 18fd d523 b14f c8e2 2533 c3f4 9fbc
00000040: 9cac 9b96 2fa3 27ee 190f c7e4 44be ec7d
00000050: 6e60 bd0e 5b6d 5630 e489 ca46 30d1 3064
00000060: 6828 81d4 8f61 73e2 88f7 90d7 7aff 3d01
00000070: 7eb6 ec25 0f20 693d fb27 249f 44a8 9337
00000080: 2a7d 6212 432e f0d6 7fb1 2d5e 09a4 f66d
00000090: 0595 e19d 3391 465a 45db 5de3 bf6a bd31
000000a0: d82f 0716 b9de c2dd ef47 fbe8 b98d 04c0
000000b0: 639c d8b8 bd0b 0eca b721 3a20 9f9f fbe7
000000c0: fccc a8a2 ae4f 26c5 5bd2 b400 fd14 4f3e
000000d0: 6fa4 143e eab6 5409 7211 5ef3 b1db 58da
000000e0: 1aef 8426 5d3e 20b8 a95a 5b32 3ba2 a49e
000000f0: 4c7f e543 ca3c 1db0 be0b 5a3a da5b 0b8d

model/conv_pw_11/Conv2D i1 [64, 1, 1, 64]
-17 -93 -63 34 102 -72 89 107
85 22 90 -4 4 -104 -62 -24
-76 -11 13 -88 11 -42 59 -72
-52 -87 -24 -25 -26 14 67 -37
76 -111 -103 -76 43 13 -82 43
-58 57 -89 127 -69 -85 -93 -86
12 -5 -96 124 1 10 24 -75
-74 22 -96 105 -67 -62 85 8
-58 -110 -9 62 -78 -82 79 26
-52 -52 6 62 -96 93 -94 -96
50 -57 -70 -30 103 -48 83 -21
87 -49 32 -26 93 -10 -38 80
-98 37 -75 -61 -51 -25 -41 51
13 -52 13 10 98 -109 113 -115
-40 82 -86 34 -66 -6 98 -64
127 -16 89 91 77 94 5 -36
-30 -63 -19 38 -100 -74 60 -49
-20 -95 -36 -92 -80 -2 52 -46
-54 -78 43 74 57 -94 14 74
24 80 -12 110 -77 9 61 -107
43 -93 -50 107 -60 47 83 75
-47 89 6 104 -45 -67 38 -8
-61 127 -104 -67 -112 87 -53 14
4 82 -6 58 -32 5 -33 -54
-16 38 -41 9 -20 115 -33 -96
95 24 9 -8 -91 -77 26 -66
9 99 1 11 -44 -58 -36 73
-13 -4 -122 -10 117 34 -43 -111
-90 -127 -32 2 -82 -43 -27 -59
16 18 -1 96 10 82 8 5
-7 -7 -81 -20 107 111 79 66
52 36 85 49 0 34 -27 -59
00000000: efa3 c122 66b8 596b 5516 5afc 0498 c2e8
00000010: b4f5 0da8 0bd6 3bb8 cca9 e8e7 e60e 43db
00000020: 4c91 99b4 2b0d ae2b c639 a77f bbab a3aa
00000030: 0cfb a07c 010a 18b5 b616 a069 bdc2 5508
00000040: c692 f73e b2ae 4f1a cccc 063e a05d a2a0
00000050: 32c7 bae2 67d0 53eb 57cf 20e6 5df6 da50
00000060: 9e25 b5c3 cde7 d733 0dcc 0d0a 6293 718d
00000070: d852 aa22 befa 62c0 7ff0 595b 4d5e 05dc
00000080: e2c1 ed26 9cb6 3ccf eca1 dca4 b0fe 34d2
00000090: cab2 2b4a 39a2 0e4a 1850 f46e b309 3d95
000000a0: 2ba3 ce6b c42f 534b d159 0668 d3bd 26f8
000000b0: c37f 98bd 9057 cb0e 0452 fa3a e005 dfca
000000c0: f026 d709 ec73 dfa0 5f18 09f8 a5b3 1abe
000000d0: 0963 010b d4c6 dc49 f3fc 86f6 7522 d591
000000e0: a681 e002 aed5 e5c5 1012 ff60 0a52 0805
000000f0: f9f9 afec 6b6f 4f42 3424 5531 0022 e5c5

model/conv_pw_12/Conv2D i1 [128, 1, 1, 64]
11 -47 -69 -65 -31 -13 45 -6
76 6 -107 84 2 5 -46 6
-77 -77 113 -3 -48 -15 -9 -121
-49 -54 -106 -66 -27 34 70 65
-64 59 23 127 -40 65 99 -26
-104 103 -10 -79 95 -55 -4 69
100 -48 -60 116 -24 -28 16 56
-107 41 -61 -55 -27 85 72 -89
-20 -93 -39 -34 50 85 -84 74
25 68 -18 74 16 88 117 -43
110 59 56 -106 -69 95 -117 73
-104 -102 73 71 47 -10 33 -45
37 51 -83 1 -22 -94 -6 90
74 -94 -44 44 -13 105 90 95
127 -34 35 95 24 -13 1 -27
-74 -12 15 -104 -5 87 -110 53
16 -16 86 -87 -11 -55 57 -65
-111 -90 -4 1 -56 -60 -29 84
-4 -31 8 -55 82 9 -61 -6
65 24 -127 -99 115 115 -27 34
-70 77 105 -18 -60 65 57 52
82 25 2 16 -70 -1 21 33
-58 -47 5 0 -103 89 24 -90
53 -79 -100 -4 -44 96 -50 -82
33 -87 -79 61 80 54 -35 -19
-38 -64 33 -44 -66 -100 -30 -127
-69 17 69 -86 -2 -6 58 76
-83 -122 -93 -42 -30 58 -5 -57
3 64 -52 109 38 4 50 81
7 85 38 8 1 41 -107 72
-54 -50 -11 -94 -120 -57 -57 -74
64 40 -64 61 68 -64 -108 -38
00000000: 0bd1 bbbf e1f3 2dfa 4c06 9554 0205 d206
00000010: b3b3 71fd d0f1 f787 cfca 96be e522 4641
00000020: c03b 177f d841 63e6 9867 f6b1 5fc9 fc45
00000030: 64d0 c474 e8e4 1038 9529 c3c9 e555 48a7
00000040: eca3 d9de 3255 ac4a 1944 ee4a 1058 75d5
00000050: 6e3b 3896 bb5f 8b49 989a 4947 2ff6 21d3
00000060: 2533 ad01 eaa2 fa5a 4aa2 d42c f369 5a5f
00000070: 7fde 235f 18f3 01e5 b6f4 0f98 fb57 9235
00000080: 10f0 56a9 f5c9 39bf 91a6 fc01 c8c4 e354
00000090: fce1 08c9 5209 c3fa 4118 819d 7373 e522
000000a0: ba4d 69ee c441 3934 5219 0210 baff 1521
000000b0: c6d1 0500 9959 18a6 35b1 9cfc d460 ceae
000000c0: 21a9 b13d 5036 dded dac0 21d4 be9c e281
000000d0: bb11 45aa fefa 3a4c ad86 a3d6 e23a fbc7
000000e0: 0340 cc6d 2604 3251 0755 2608 0129 9548
000000f0: cace f5a2 88c7 c7b6 4028 c03d 44c0 94da

model/conv_pw_13/Conv2D i1 [128, 1, 1, 128]
82 113 8 12 109 91 87 17
68 -89 1 18 -8 35 -24 56
55 -20 -60 94 109 -43 -106 -6
-106 -69 -113 113 -17 10 89 -59
37 58 14 -85 -33 -39 -30 127
104 -75 -35 80 113 48 -60 -30
36 -65 -3 -65 43 -64 33 -8
4 110 -100 -40 98 -19 -67 -74
61 -78 54 -44 26 -6 -69 -13
-5 10 -58 18 -10 -56 -14 -37
-13 -32 -61 -19 62 42 30 -31
-76 -28 78 73 104 -33 49 -71
-14 -70 -122 -47 -15 -21 -43 -89
35 15 -56 89 -106 38 -83 -75
-40 -109 55 -49 41 9 -13 -43
68 87 -3 -24 48 -77 75 16
-38 -51 7 -62 9 -64 86 -104
71 31 98 12 13 -16 88 54
-31 -23 -42 -25 88 -34 -97 -73
-36 -79 56 77 -33 -26 4 -71
48 114 -82 125 30 90 -30 -58
111 51 -39 -53 -23 46 -9 -35
-40 -60 -89 -71 -126 -45 -7 -105
-77 -36 72 -55 -20 74 4 61
101 10 43 -80 -29 -22 24 71
-8 -38 33 35 23 28 4 -103
-109 96 61 116 31 5 91 34
-27 61 88 91 -109 38 -99 -17
-40 7 11 0 81 68 8 -108
113 -28 -44 49 37 -77 58 -1
-66 -1 -52 -21 -105 49 103 -89
110 -55 81 86 4 -127 16 -55
00000000: 5271 080c 6d5b 5711 44a7 0112 f823 e838
00000010: 37ec c45e 6dd5 96fa 96bb 8f71 ef0a 59c5
00000020: 253a 0eab dfd9 e27f 68b5 dd50 7130 c4e2
00000030: 24bf fdbf 2bc0 21f8 046e 9cd8 62ed bdb6
00000040: 3db2 36d4 1afa bbf3 fb0a c612 f6c8 f2db
00000050: f3e0 c3ed 3e2a 1ee1 b4e4 4e49 68df 31b9
00000060: f2ba 86d1 f1eb d5a7 230f c859 9626 adb5
00000070: d893 37cf 2909 f3d5 4457 fde8 30b3 4b10
00000080: dacd 07c2 09c0 5698 471f 620c 0df0 5836
00000090: e1e9 d6e7 58de 9fb7 dcb1 384d dfe6 04b9
000000a0: 3072 ae7d 1e5a e2c6 6f33 d9cb e92e f7dd
000000b0: d8c4 a7b9 82d3 f997 b3dc 48c9 ec4a 043d
000000c0: 650a 2bb0 e3ea 1847 f8da 2123 171c 0499
000000d0: 9360 3d74 1f05 5b22 e53d 585b 9326 9def
000000e0: d807 0b00 5144 0894 71e4 d431 25b3 3aff
000000f0: beff cceb 9731 67a7 6ec9 5156 0481 10c9

model/conv_dw_1_bn/FusedBatchNormV3;model/conv_dw_1/depthwise i1 [1, 3, 3, 4]
-123 127 68 -82 34 -109 127 -56
-31 -110 44 112 120 -24 99 127
127 -63 28 81 -105 34 121 27
11 -31 21 125 39 -66 34 52
-90 -48 64 119
00000000: 857f 44ae 2293 7fc8 e192 2c70 78e8 637f
00000010: 7fc1 1c51 9722 791b 0be1 157d 27be 2234
00000020: a6d0 4077

model/conv_dw_2_bn/FusedBatchNormV3;model/conv_dw_2/depthwise i1 [1, 3, 3, 8]
73 -74 127 -103 -41 -9 108 33
121 -127 102 -127 89 -50 -114 -39
-15 15 -58 -17 -116 93 70 1
-55 14 -101 -84 105 -34 127 -121
38 14 -34 -69 63 -21 -114 -114
106 -89 111 -13 -101 33 13 67
-44 -109 85 67 -25 -127 50 -10
-4 -104 120 6 22 24 37 127
127 10 95 112 127 91 -93 -43
00000000: 49b6 7f99 d7f7 6c21 7981 6681 59ce 8ed9
00000010: f10f c6ef 8c5d 4601 c90e 9bac 69de 7f87
00000020: 260e debb 3feb 8e8e 6aa7 6ff3 9b21 0d43
00000030: d493 5543 e781 32f6 fc98 7806 1618 257f
00000040: 7f0a 5f70 7f5b a3d5

model/conv_dw_3_bn/FusedBatchNormV3;model/conv_dw_3/depthwise;model/conv_dw_4/depthwise i1 [1, 3, 3, 16]
-31 -84 8 -15 -45 -69 -51 71
-15 100 -53 71 -3 -96 -78 47
119 -55 -90 15 127 -104 8 37
-67 102 -46 -77 73 36 -112 92
-39 -9 62 -122 41 -127 -25 113
112 -38 -92 127 127 -16 -44 -93
92 -83 5 -127 104 -1 65 -4
-3 56 35 -75 -84 40 -18 -85
127 -127 -88 2 -67 90 35 79
16 -97 -65 10 3 -4 -99 57
-57 -75 -127 60 -3 43 -127 -78
34 106 73 -40 27 -62 124 123
25 -108 99 -53 62 -78 -39 -105
-91 127 73 -86 -2 1 93 127
87 117 -29 56 94 63 -8 -127
33 -22 -106 84 -21 127 -127 -83
-20 80 -14 18 0 -71 17 -34
-127 69 127 -54 -115 37 126 -18
00000000: e1ac 08f1 d3bb cd47 f164 cb47 fda0 b22f
00000010: 77c9 a60f 7f98 0825 bd66 d2b3 4924 905c
00000020: d9f7 3e86 2981 e771 70da a47f 7ff0 d4a3
00000030: 5cad 0581 68ff 41fc fd38 23b5 ac28 eeab
00000040: 7f81 a802 bd5a 234f 109f bf0a 03fc 9d39
00000050: c7b5 813c fd2b 81b2 226a 49d8 1bc2 7c7b
00000060: 1994 63cb 3eb2 d997 a57f 49aa fe01 5d7f
00000070: 5775 e338 5e3f f881 21ea 9654 eb7f 81ad
00000080: ec50 f212 00b9 11de 8145 7fca 8d25 7eee

model/conv_dw_4_bn/FusedBatchNormV3;model/conv_dw_4/depthwise i1 [1, 3, 3, 16]
-127 76 71 -126 106 -108 116 59
-58 42 -127 -127 48 -127 -107 23
-27 -3 -127 20 111 -89 33 56
80 38 119 -87 -59 -98 11 71
90 4 -118 51 -57 44 -127 14
-1 -79 24 39 13 10 -116 -56
-47 68 26 30 67 41 47 120
-30 -101 -64 -85 65 -96 -71 127
12 -78 45 -113 -4 -61 -47 74
34 127 -16 -104 82 -62 116 61
-6 -76 78 127 127 83 45 -51
-16 21 110 18 34 32 -127 -82
86 10 -36 6 88 127 -27 127
127 -106 33 66 -123 35 34 110
19 -127 81 -25 -1 -21 1 107
-35 -60 3 30 -127 43 -32 54
63 -124 -2 117 59 65 8 126
-110 -39 -104 3 -95 -4 67 30
00000000: 814c 4782 6a94 743b c62a 8181 3081 9517
00000010: e5fd 8114 6fa7 2138 5026 77a9 c59e 0b47
00000020: 5a04 8a33 c72c 810e ffb1 1827 0d0a 8cc8
00000030: d144 1a1e 4329 2f78 e29b c0ab 41a0 b97f
00000040: 0cb2 2d8f fcc3 d14a 227f f098 52c2 743d
00000050: fab4 4e7f 7f53 2dcd f015 6e12 2220 81ae
00000060: 560a dc06 587f e57f 7f96 2142 8523 226e
00000070: 1381 51e7 ffeb 016b ddc4 031e 812b e036
00000080: 3f84 fe75 3b41 087e 92d9 9803 a1fc 431e

model/conv_dw_5_bn/FusedBatchNormV3;model/conv_dw_5/depthwise;model/conv_dw_6/depthwise i1 [1, 3, 3, 32]
-72 -59 -82 -31 111 1 -58 -127
11 -65 -46 -35 109 68 80 -56
-127 -123 -105 110 -49 -24 83 13
-31 37 -58 -116 127 24 -41 -63
-26 -84 127 -92 18 127 -36 -1
-6 118 127 -43 -127 -127 91 0
-104 -107 16 -56 127 18 -97 83
-25 20 57 19 -59 35 -127 -78
-45 127 -41 -8 91 -115 -35 -39
-92 -16 66 18 -44 105 -53 126
-83 -17 -27 -32 -19 81 2 123
-106 -21 47 108 -55 -97 -127 -101
-10 -47 98 -95 127 -26 123 -50
-127 -55 -120 104 8 47 -127 -108
-116 -65 117 -86 36 37 33 127
38 -40 76 19 16 -58 -101 -19
-38 -79 -99 -13 109 -10 26 54
-113 1 -78 56 63 -73 31 -97
-79 127 -14 -15 112 -85 65 -4
-11 127 -38 62 -13 -43 -44 -26
-110 -80 -79 -94 -102 87 -127 -22
-98 -69 52 127 63 -88 10 -19
47 121 127 104 -81 -79 -127 -124
127 102 -47 2 -67 102 24 -22
-127 120 -87 58 -105 -42 -26 -113
-89 -95 -76 -103 -99 21 11 65
30 14 57 127 -20 127 -59 5
40 64 92 46 -109 127 126 -127
20 -42 73 -127 -43 64 -39 53
-48 -108 -60 -2 45 -111 74 -96
9 -94 85 110 88 32 58 -37
120 44 75 38 -5 40 -93 -50
00000000: b8c5 aee1 6f01 c681 0bbf d2dd 6d44 50c8
00000010: 8185 976e cfe8 530d e125 c68c 7f18 d7c1
00000020: e6ac 7fa4 127f dcff fa76 7fd5 8181 5b00
00000030: 9895 10c8 7f12 9f53 e714 3913 c523 81b2
00000040: d37f d7f8 5b8d ddd9 a4f0 4212 d469 cb7e
00000050: adef e5e0 ed51 027b 96eb 2f6c c99f 819b
00000060: f6d1 62a1 7fe6 7bce 81c9 8868 082f 8194
00000070: 8cbf 75aa 2425 217f 26d8 4c13 10c6 9bed
00000080: dab1 9df3 6df6 1a36 8f01 b238 3fb7 1f9f
00000090: b17f f2f1 70ab 41fc f57f da3e f3d5 d4e6
000000a0: 92b0 b1a2 9a57 81ea 9ebb 347f 3fa8 0aed
000000b0: 2f79 7f68 afb1 8184 7f66 d102 bd66 18ea
000000c0: 8178 a93a 97d6 e68f a7a1 b499 9d15 0b41
000000d0: 1e0e 397f ec7f c505 2840 5c2e 937f 7e81
000000e0: 14d6 4981 d540 d935 d094 c4fe 2d91 4aa0
000000f0: 09a2 556e 5820 3adb 782c 4b26 fb28 a3ce

model/conv_dw_6_bn/FusedBatchNormV3;model/conv_dw_6/depthwise i1 [1, 3, 3, 32]
-28 127 -5 -17 -127 45 127 -104
-67 127 -124 127 -101 -68 17 95
15 3 -44 -127 -65 49 51 -45
-127 13 14 -127 -31 7 -127 -127
-57 -21 -127 -15 37 18 -23 43
-76 -36 -33 16 -25 122 -25 37
127 87 -80 113 -30 127 -110 -102
-20 127 48 -7 14 -127 95 -33
-66 23 -104 -65 6 -1 -1 -30
58 46 -59 17 3 1 -51 56
38 122 -112 1 68 -26 119 93
22 6 -27 97 59 3 -106 78
58 60 -110 -127 115 -109 51 -43
28 56 105 69 -5 -127 40 1
-39 127 -42 -110 60 -71 127 17
-51 -62 48 62 23 -88 -33 -72
127 15 49 -20 62 -28 39 -20
-70 -84 -100 -90 109 17 -25 43
80 -35 -106 -18 75 103 82 65
122 -53 -73 -47 -127 -12 -22 95
-112 -47 25 2 -13 -63 -76 -105
26 -62 -4 74 125 18 104 127
-86 -61 44 65 87 44 16 76
76 4 68 -118 -121 -50 31 -50
17 -103 -107 -52 -85 78 54 127
-84 -6 127 19 127 -29 94 99
101 -79 7 -40 -127 -28 -88 -94
83 79 -72 37 4 -114 -20 -74
8 42 -37 -51 67 -66 -24 70
56 127 1 19 -20 24 -80 70
-32 -111 127 88 49 -68 -73 -35
87 -94 46 -26 123 74 -105 -24
00000000: e47f fbef 812d 7f98 bd7f 847f 9bbc 115f
00000010: 0f03 d481 bf31 33d3 810d 0e81 e107 8181
00000020: c7eb 81f1 2512 e92b b4dc df10 e77a e725
00000030: 7f57 b071 e27f 929a ec7f 30f9 0e81 5fdf
00000040: be17 98bf 06ff ffe2 3a2e c511 0301 cd38
00000050: 267a 9001 44e6 775d 1606 e561 3b03 964e
00000060: 3a3c 9281 7393 33d5 1c38 6945 fb81 2801
00000070: d97f d692 3cb9 7f11 cdc2 303e 17a8 dfb8
00000080: 7f0f 31ec 3ee4 27ec baac 9ca6 6d11 e72b
00000090: 50dd 96ee 4b67 5241 7acb b7d1 81f4 ea5f
000000a0: 90d1 1902 f3c1 b497 1ac2 fc4a 7d12 687f
000000b0: aac3 2c41 572c 104c 4c04 448a 87ce 1fce
000000c0: 1199 95cc ab4e 367f acfa 7f13 7fe3 5e63
000000d0: 65b1 07d8 81e4 a8a2 534f b825 048e ecb6
000000e0: 082a dbcd 43be e846 387f 0113 ec18 b046
000000f0: e091 7f58 31bc b7dd 57a2 2ee6 7b4a 97e8

model/conv_dw_7_bn/FusedBatchNormV3;model/conv_dw_7/depthwise;model/conv_dw_12/depthwise i1 [1, 3, 3, 64]
-83 -59 127 76 -28 3 -76 -127
71 -69 -83 -45 -33 84 63 -22
-18 61 -77 -46 -99 -42 87 -44
-71 51 -47 -26 6 127 61 91
32 102 -57 20 -127 37 127 -34
49 -127 -58 -127 127 -91 -58 -60
18 -43 -86 -127 26 -127 -91 -127
76 -4 -50 -36 -64 7 42 -19
-114 -29 53 -62 92 111 72 102
108 48 -29 -34 89 39 -88 -64
75 -47 -11 10 12 49 -30 -50
45 127 -20 43 -40 -89 -68 -51
-38 -125 -87 -66 57 -35 -27 -30
3 57 32 -35 18 55 127 24
-116 49 -67 41 49 -114 57 89
60 -37 92 13 -23 -85 110 117
-6 -67 56 -29 127 50 -32 -88
77 -69 -127 95 -45 127 48 -122
93 -127 -87 -102 109 123 127 -76
-38 5 16 -28 -46 117 26 108
-42 15 -90 91 -40 -59 -58 -94
-25 -53 -69 -83 -47 124 99 -62
-48 81 -1 18 -30 -87 -107 -61
14 62 -71 -3 -89 49 -55 80
19 31 37 -27 -1 53 -32 -63
-63 126 -56 -77 80 54 -95 109
-127 -81 39 71 76 127 58 104
-127 123 127 85 30 75 -32 32
-36 -46 -127 -34 -35 -8 102 -43
-127 68 29 -35 -112 88 -7 48
127 125 8 73 127 -121 78 -88
-19 -19 -62 7 23 -95 -112 78
00000000: adc5 7f4c e403 b481 47bb add3 df54 3fea
00000010: ee3d b3d2 9dd6 57d4 b933 d1e6 067f 3d5b
00000020: 2066 c714 8125 7fde 3181 c681 7fa5 c6c4
00000030: 12d5 aa81 1a81 a581 4cfc cedc c007 2aed
00000040: 8ee3 35c2 5c6f 4866 6c30 e3de 5927 a8c0
00000050: 4bd1 f50a 0c31 e2ce 2d7f ec2b d8a7 bccd
00000060: da83 a9be 39dd e5e2 0339 20dd 1237 7f18
00000070: 8c31 bd29 318e 3959 3cdb 5c0d e9ab 6e75
00000080: fabd 38e3 7f32 e0a8 4dbb 815f d37f 3086
00000090: 5d81 a99a 6d7b 7fb4 da05 10e4 d275 1a6c
000000a0: d60f a65b d8c5 c6a2 e7cb bbad d17c 63c2
000000b0: d051 ff12 e2a9 95c3 0e3e b9fd a731 c950
000000c0: 131f 25e5 ff35 e0c1 c17e c8b3 5036 a16d
000000d0: 81af 2747 4c7f 3a68 817b 7f55 1e4b e020
000000e0: dcd2 81de ddf8 66d5 8144 1ddd 9058 f930
000000f0: 7f7d 0849 7f87 4ea8 eded c207 17a1 904e

model/conv_dw_8_bn/FusedBatchNormV3;model/conv_dw_8/depthwise;model/conv_dw_12/depthwise i1 [1, 3, 3, 64]
-65 -27 38 127 -4 -2 18 -56
-30 25 -74 127 -4 -27 119 -32
-59 83 81 4 -118 79 -32 -44
-37 -70 -36 -113 -98 24 127 -101
96 91 -127 -44 -71 22 -91 -100
76 77 42 -115 -36 117 113 -127
-11 8 -6 15 -82 76 85 -71
-14 7 119 20 96 127 60 43
-102 35 -127 -107 18 49 -44 72
-127 -127 127 -13 -108 65 -73 15
-9 -84 -4 -61 26 12 51 37
-69 -49 -48 11 -42 127 -34 -117
-79 127 99 -96 14 86 -11 6
6 -31 12 -107 35 52 46 -83
23 -126 67 52 -15 9 57 116
127 -72 72 59 -94 -38 -110 9
9 -30 20 52 -62 58 -8 37
7 106 -18 47 -12 21 25 77
-105 -53 -112 22 -99 92 38 124
55 53 6 106 47 4 18 -127
8 101 35 28 54 -126 10 127
88 10 74 122 -69 -11 -69 30
-83 -26 -79 -67 88 -62 -111 -34
-107 91 -90 114 99 3 -12 -127
-55 72 -26 -114 -127 127 4 -102
-24 61 10 -39 -19 5 95 -35
76 -127 4 41 68 -23 23 127
127 -65 43 15 -127 13 -71 -13
-41 110 2 74 14 -96 23 121
38 127 -39 77 -18 -96 72 22
-31 13 -127 -127 -41 -66 22 42
11 99 -49 1 76 -80 53 -14
00000000: bfe5 267f fcfe 12c8 e219 b67f fce5 77e0
00000010: c553 5104 8a4f e0d4 dbba dc8f 9e18 7f9b
00000020: 605b 81d4 b916 a59c 4c4d 2a8d dc75 7181
00000030: f508 fa0f ae4c 55b9 f207 7714 607f 3c2b
00000040: 9a23 8195 1231 d448 8181 7ff3 9441 b70f
00000050: f7ac fcc3 1a0c 3325 bbcf d00b d67f de8b
00000060: b17f 63a0 0e56 f506 06e1 0c95 2334 2ead
00000070: 1782 4334 f109 3974 7fb8 483b a2da 9209
00000080: 09e2 1434 c23a f825 076a ee2f f415 194d
00000090: 97cb 9016 9d5c 267c 3735 066a 2f04 1281
000000a0: 0865 231c 3682 0a7f 580a 4a7a bbf5 bb1e
000000b0: ade6 b1bd 58c2 91de 955b a672 6303 f481
000000c0: c948 e68e 817f 049a e83d 0ad9 ed05 5fdd
000000d0: 4c81 0429 44e9 177f 7fbf 2b0f 810d b9f3
000000e0: d76e 024a 0ea0 1779 267f d94d eea0 4816
000000f0: e10d 8181 d7be 162a 0b63 cf01 4cb0 35f2

model/conv_dw_9_bn/FusedBatchNormV3;model/conv_dw_9/depthwise;model/conv_dw_12/depthwise i1 [1, 3, 3, 64]
66 123 -100 55 -60 -40 -9 80
10 -42 -126 -127 -86 50 -31 -97
54 -63 -63 51 16 -10 -127 92
14 89 95 42 14 -25 119 102
-124 6 88 82 86 127 43 -46
84 -127 54 99 -51 -4 -22 52
81 -68 -114 -40 -127 68 -96 49
-9 72 -127 50 103 61 127 71
94 -63 48 25 -9 38 75 -113
-61 6 -51 -36 127 45 35 34
-30 119 -71 31 -35 -96 49 62
64 60 116 -1 109 46 6 -87
-27 127 -102 -4 -127 -84 72 -53
-9 -52 -103 119 95 70 -75 -90
-51 -112 48 42 -78 -14 -14 -115
127 92 53 -91 73 8 -63 -56
127 78 -24 102 -76 -5 81 40
-85 54 -86 -16 -104 56 40 4
46 97 -127 -125 53 -45 -96 49
28 -113 95 -85 122 60 91 -105
-55 -67 -22 60 66 71 -11 108
48 74 67 116 118 4 75 121
91 -78 58 54 -93 -88 -28 -80
-14 30 -45 50 23 91 -96 62
-68 -78 -101 -104 49 -83 67 2
-127 78 127 99 64 -31 8 101
11 -94 47 116 7 95 -68 127
53 127 127 -32 22 -12 -16 34
-117 -27 -81 -127 3 25 127 -61
-62 -1 -127 -127 127 127 27 -77
98 -62 113 71 25 13 -28 -127
104 -113 -57 -81 1 127 -111 -47
00000000: 427b 9c37 c4d8 f750 0ad6 8281 aa32 e19f
00000010: 36c1 c133 10f6 815c 0e59 5f2a 0ee7 7766
00000020: 8406 5852 567f 2bd2 5481 3663 cdfc ea34
00000030: 51bc 8ed8 8144 a031 f748 8132 673d 7f47
00000040: 5ec1 3019 f726 4b8f c306 cddc 7f2d 2322
00000050: e277 b91f dda0 313e 403c 74ff 6d2e 06a9
00000060: e57f 9afc 81ac 48cb f7cc 9977 5f46 b5a6
00000070: cd90 302a b2f2 f28d 7f5c 35a5 4908 c1c8
00000080: 7f4e e866 b4fb 5128 ab36 aaf0 9838 2804
00000090: 2e61 8183 35d3 a031 1c8f 5fab 7a3c 5b97
000000a0: c9bd ea3c 4247 f56c 304a 4374 7604 4b79
000000b0: 5bb2 3a36 a3a8 e4b0 f21e d332 175b a03e
000000c0: bcb2 9b98 31ad 4302 814e 7f63 40e1 0865
000000d0: 0ba2 2f74 075f bc7f 357f 7fe0 16f4 f022
000000e0: 8be5 af81 0319 7fc3 c2ff 8181 7f7f 1bb3
000000f0: 62c2 7147 190d e481 688f c7af 017f 91d1

model/conv_dw_10_bn/FusedBatchNormV3;model/conv_dw_10/depthwise;model/conv_dw_12/depthwise i1 [1, 3, 3, 64]
-90 67 -127 -38 -97 14 46 -24
-40 -120 127 68 24 -126 68 -127
127 -127 -13 45 39 -7 29 -76
127 57 -83 5 -127 -57 -38 79
-5 109 108 -79 -39 -7 -27 -101
-59 3 -75 44 20 95 13 36
90 40 19 -15 -98 -119 -127 127
121 -31 -127 59 -4 25 -69 127
127 -127 -82 -19 -127 -26 25 -91
120 -16 38 -70 28 48 56 101
-113 -41 10 -68 -113 96 127 -24
-52 -36 -76 113 3 -36 61 -18
30 127 -10 -58 54 31 92 -51
-78 -32 -20 83 73 -53 108 -94
-127 16 56 55 -89 86 -59 56
125 -38 96 17 44 -34 2 79
108 32 32 90 121 -117 -59 -109
8 -127 -108 21 94 -98 93 112
-102 -103 79 -83 -10 -98 -94 114
-3 95 69 -118 101 16 127 -78
35 -23 48 -127 71 -58 59 77
-90 -70 -79 -57 -81 1 5 127
-44 1 60 -46 105 127 98 62
-15 87 14 27 -70 -7 -77 103
-30 -11 -67 -35 -41 116 -62 -127
83 47 3 -80 127 127 -127 -38
58 59 80 -127 45 19 38 70
-25 -127 44 -50 112 -19 108 -56
-79 -64 42 68 12 -1 104 -2
58 -31 85 -15 117 -9 53 -124
26 -114 -40 -56 47 -108 -11 65
82 94 -49 -53 -50 -65 127 70
00000000: a643 81da 9f0e 2ee8 d888 7f44 1882 4481
00000010: 7f81 f32d 27f9 1db4 7f39 ad05 81c7 da4f
00000020: fb6d 6cb1 d9f9 e59b c503 b52c 145f 0d24
00000030: 5a28 13f1 9e89 817f 79e1 813b fc19 bb7f
00000040: 7f81 aeed 81e6 19a5 78f0 26ba 1c30 3865
00000050: 8fd7 0abc 8f60 7fe8 ccdc b471 03dc 3dee
00000060: 1e7f f6c6 361f 5ccd b2e0 ec53 49cb 6ca2
00000070: 8110 3837 a756 c538 7dda 6011 2cde 024f
00000080: 6c20 205a 798b c593 0881 9415 5e9e 5d70
00000090: 9a99 4fad f69e a272 fd5f 458a 6510 7fb2
000000a0: 23e9 3081 47c6 3b4d a6ba b1c7 af01 057f
000000b0: d401 3cd2 697f 623e f157 0e1b baf9 b367
000000c0: e2f5 bddd d774 c281 532f 03b0 7f7f 81da
000000d0: 3a3b 5081 2d13 2646 e781 2cce 70ed 6cc8
000000e0: b1c0 2a44 0cff 68fe 3ae1 55f1 75f7 3584
000000f0: 1a8e d8c8 2f94 f541 525e cfcb cebf 7f46

model/conv_dw_11_bn/FusedBatchNormV3;model/conv_dw_11/depthwise;model/conv_dw_12/depthwise i1 [1, 3, 3, 64]
1 -45 65 -127 -85 55 -90 -92
127 -58 -107 10 6 -39 19 -127
-25 65 -114 27 45 -109 2 82
32 -103 -56 85 -119 13 -72 -74
-14 -46 -49 -47 -19 75 57 -47
56 54 21 -75 81 17 -3 23
81 32 -72 12 25 31 33 -127
-23 96 94 -23 13 -64 127 8
127 -69 -75 -58 6 51 53 19
17 21 29 -113 -26 33 54 -92
-37 -53 19 122 -24 101 112 -103
-5 -24 65 -89 -100 -127 -37 -69
37 67 92 50 71 -127 -11 43
32 -6 60 49 -127 127 -36 -29
127 24 45 74 63 -16 -74 31
-45 26 -111 -47 58 -25 108 47
83 98 11 59 -56 120 -108 1
20 -55 26 -53 -127 91 2 100
-98 34 40 -123 -73 127 -67 127
47 -17 50 55 -51 41 -118 87
-69 -39 53 -45 -44 -104 -52 -14
-43 56 -4 -49 71 17 -71 -43
-97 -1 39 53 97 76 -78 -64
45 -18 39 -25 -127 -37 -89 -86
116 127 86 -28 -42 127 127 -66
112 127 -66 87 -33 -59 -18 -42
-127 -71 127 -73 -34 73 115 48
-48 -101 124 127 -87 -36 77 53
11 -26 101 -127 127 19 58 -47
-52 14 81 -27 -39 0 88 47
108 -17 68 -127 76 127 -1 -43
26 99 -127 -27 74 83 -14 -38
00000000: 01d3 4181 ab37 a6a4 7fc6 950a 06d9 1381
00000010: e741 8e1b 2d93 0252 2099 c855 890d b8b6
00000020: f2d2 cfd1 ed4b 39d1 3836 15b5 5111 fd17
00000030: 5120 b80c 191f 2181 e960 5ee9 0dc0 7f08
00000040: 7fbb b5c6 0633 3513 1115 1d8f e621 36a4
00000050: dbcb 137a e865 7099 fbe8 41a7 9c81 dbbb
00000060: 2543 5c32 4781 f52b 20fa 3c31 817f dce3
00000070: 7f18 2d4a 3ff0 b61f d31a 91d1 3ae7 6c2f
00000080: 5362 0b3b c878 9401 14c9 1acb 815b 0264
00000090: 9e22 2885 b77f bd7f 2fef 3237 cd29 8a57
000000a0: bbd9 35d3 d498 ccf2 d538 fccf 4711 b9d5
000000b0: 9fff 2735 614c b2c0 2dee 27e7 81db a7aa
000000c0: 747f 56e4 d67f 7fbe 707f be57 dfc5 eed6
000000d0: 81b9 7fb7 de49 7330 d09b 7c7f a9dc 4d35
000000e0: 0be6 6581 7f13 3ad1 cc0e 51e5 d900 582f
000000f0: 6cef 4481 4c7f ffd5 1a63 81e5 4a53 f2da

model/conv_dw_12_bn/FusedBatchNormV3;model/conv_dw_12/depthwise i1 [1, 3, 3, 64]
-84 55 -127 99 -12 -112 96 -48
-8 -14 -36 5 -114 -76 -70 -14
-90 -56 -67 -70 -59 127 12 -62
-7 63 65 12 90 4 -125 38
51 63 -43 18 -85 83 -117 -6
81 73 17 -89 38 54 127 64
-82 5 -8 103 127 -87 -86 -63
99 -41 38 -111 2 109 10 104
78 127 61 -127 89 47 76 -123
2 5 -118 -127 -127 34 -94 91
-110 47 35 112 112 -39 58 104
62 57 47 19 74 -85 -17 -55
127 0 16 49 75 -89 85 110
-28 4 102 61 127 127 8 76
94 -37 -81 -3 100 44 109 83
122 -23 -41 8 -127 125 18 127
-52 25 -101 -76 56 -127 123 -19
-33 26 2 87 -78 -39 24 -65
88 43 110 127 88 -17 96 74
29 40 58 -103 58 -63 127 -127
-22 5 -87 -84 -84 -36 -50 -59
-24 -23 78 89 -80 -87 -4 81
-127 62 -53 127 -25 127 30 115
-127 127 -15 22 -16 18 -36 109
-122 22 -96 -122 -76 55 111 -127
53 -64 33 -19 103 -87 56 33
-24 127 127 52 -127 -74 -95 -92
127 113 17 -127 -127 -127 -96 -115
-44 65 -15 -27 127 3 -7 85
-76 40 92 -41 -19 -61 13 127
35 -3 -53 37 -21 -81 -18 10
-12 23 -11 -117 -96 127 127 -11
00000000: ac37 8163 f490 60d0 f8f2 dc05 8eb4 baf2
00000010: a6c8 bdba c57f 0cc2 f93f 410c 5a04 8326
00000020: 333f d512 ab53 8bfa 5149 11a7 2636 7f40
00000030: ae05 f867 7fa9 aac1 63d7 2691 026d 0a68
00000040: 4e7f 3d81 592f 4c85 0205 8a81 8122 a25b
00000050: 922f 2370 70d9 3a68 3e39 2f13 4aab efc9
00000060: 7f00 1031 4ba7 556e e404 663d 7f7f 084c
00000070: 5edb affd 642c 6d53 7ae9 d708 817d 127f
00000080: cc19 9bb4 3881 7bed df1a 0257 b2d9 18bf
00000090: 582b 6e7f 58ef 604a 1d28 3a99 3ac1 7f81
000000a0: ea05 a9ac acdc cec5 e8e9 4e59 b0a9 fc51
000000b0: 813e cb7f e77f 1e73 817f f116 f012 dc6d
000000c0: 8616 a086 b437 6f81 35c0 21ed 67a9 3821
000000d0: e87f 7f34 81b6 a1a4 7f71 1181 8181 a08d
000000e0: d441 f1e5 7f03 f955 b428 5cd7 edc3 0d7f
000000f0: 23fd cb25 ebaf ee0a f417 f58b a07f 7ff5

model/conv_dw_13_bn/FusedBatchNormV3;model/conv_dw_13/depthwise;model/conv_pw_13/Conv2D i1 [1, 3, 3, 128]
30 -114 -79 30 2 -13 -127 127
86 77 1 -120 47 -127 37 -85
-53 -23 -79 14 -127 -80 -63 56
-81 -9 -55 1 -25 -119 104 -89
73 -54 13 43 37 -23 -63 -121
-42 -101 45 -17 -24 -2 -50 72
-23 44 -96 -42 -113 58 9 -126
-110 -91 -95 -12 52 27 -125 97
-21 100 12 -32 -52 -37 19 82
-114 60 75 68 -9 96 -13 -88
2 69 70 -74 -43 66 -103 -25
-127 -25 121 107 -15 48 -127 43
-40 127 27 -25 -73 83 121 122
-22 127 88 -110 41 -84 -34 -42
-71 66 -50 50 39 -65 109 -22
-46 10 -16 -9 127 127 -65 27
-11 58 -127 74 -85 23 -10 14
18 72 85 53 6 -112 36 70
-127 36 37 -80 74 -55 -14 0
-32 16 36 -22 31 -89 127 78
-73 22 74 19 21 -77 11 -83
-1 43 -18 -47 34 21 -98 -5
26 37 98 -86 -44 -82 -2 -28
-93 53 59 -34 -63 -91 -33 -114
-78 27 -89 -35 9 -31 127 55
-127 48 127 -127 -33 26 18 71
17 -12 -87 114 -62 -31 -22 -38
91 46 22 -120 127 -15 -110 127
-48 52 -52 -119 -45 43 -29 -90
-75 -68 22 43 76 48 -30 -127
57 49 -50 12 19 46 7 127
49 -119 -21 38 84 -8 -89 46
00000000: 1e8e b11e 02f3 817f 564d 0188 2f81 25ab
00000010: cbe9 b10e 81b0 c138 aff7 c901 e789 68a7
00000020: 49ca 0d2b 25e9 c187 d69b 2def e8fe ce48
00000030: e92c a0d6 8f3a 0982 92a5 a1f4 341b 8361
00000040: eb64 0ce0 ccdb 1352 8e3c 4b44 f760 f3a8
00000050: 0245 46b6 d542 99e7 81e7 796b f130 812b
00000060: d87f 1be7 b753 797a ea7f 5892 29ac ded6
00000070: b942 ce32 27bf 6dea d20a f0f7 7f7f bf1b
00000080: f53a 814a ab17 f60e 1248 5535 0690 2446
00000090: 8124 25b0 4ac9 f200 e010 24ea 1fa7 7f4e
000000a0: b716 4a13 15b3 0bad ff2b eed1 2215 9efb
000000b0: 1a25 62aa d4ae fee4 a335 3bde c1a5 df8e
000000c0: b21b a7dd 09e1 7f37 8130 7f81 df1a 1247
000000d0: 11f4 a972 c2e1 eada 5b2e 1688 7ff1 927f
000000e0: d034 cc89 d32b e3a6 b5bc 162b 4c30 e281
000000f0: 3931 ce0c 132e 077f 3189 eb26 54f8 a72e
