TRAINED_MODELS/mobilenet/mobilenet_gray/mobilenet_gray_32_float.tflite (tflite, 497328 bytes, 36 tensors)

sequential/dense/BiasAdd/ReadVariableOp/resource f4 [2]
0.007158278 -0.0071582356
00000000: fd8f ea3b a28f eabb

sequential/batch_normalization/FusedBatchNormV3 f4 [4]
-0.72775793 -1.4425145 1.5897489 -1.6966599
00000000: 584e 3abf 51a4 b8bf e47c cb3f 272c d9bf

sequential/batch_normalization_1/FusedBatchNormV3 f4 [4]
-0.68245506 0.48016253 -0.8001926 -0.21884662
00000000: 60b5 2ebf ddd7 f53e 6cd9 4cbf 5419 60be

sequential/batch_normalization_10/FusedBatchNormV3 f4 [64]
-0.1319893 0.050815318 -0.28618863 0.08121107 0.36089975 0.5801068 0.96587443 -0.30766058
0.3443951 -0.5184661 0.49945077 0.46299404 -0.5790316 -0.0124906 -0.9890385 -0.5383444
-0.7524323 0.14590989 0.70148665 -0.7333408 -0.5512925 -0.4221764 0.75768805 0.112848625
-0.1482339 0.55682564 0.2769133 0.5461465 0.5370976 -0.23373875 0.5359948 0.5449345
0.061471183 0.048893273 -0.4488839 0.61130905 -0.08057347 0.9288239 0.031219404 0.3281221
0.65330565 -0.8880965 0.1371424 0.11842428 0.030984221 0.46542263 -0.0770034 0.55199844
-1.1265335 -0.74133396 0.68362665 -0.10043123 -0.32801804 -0.30744794 0.34763217 0.09429769
0.44875282 -0.19609423 1.2784498 0.11954017 0.5662792 -1.081932 -0.409092 -0.058983367
00000000: 3428 07be b923 503d 5187 92be fd51 a63d
00000010: dac7 b83e e181 143f 8c43 773f b085 9dbe
00000020: 8e54 b03e 32ba 04bf 03b8 ff3e 8e0d ed3e
00000030: 6a3b 14bf 60a5 4cbc a131 7dbf f0d0 09bf
00000040: 679f 40bf 6769 153e a194 333f 39bc 3bbf
00000050: 8121 0dbf 8127 d8be d8f7 413f 2e1d e73d
00000060: a1ca 17be 208c 0e3f 94c7 8d3e 42d0 0b3f
00000070: 3a7f 093f 3659 6fbe f536 093f d480 0b3f
00000080: 35c9 7b3d 5044 483d 1cd4 e5be c07e 1c3f
00000090: b403 a5bd 67c7 6d3f d6bf ff3c 9fff a73e
000000a0: 0a3f 273f 4b5a 63bf 0f6f 0c3e 6e88 f23d
000000b0: 9fd2 fd3c e04b ee3e f5b3 9dbd c54f 0d3f
000000c0: 4032 90bf 10c8 3dbf 2802 2f3f e4ae cdbd
000000d0: fbf1 a7be d169 9dbe d8fc b13e 261f c13d
000000e0: eec2 e53e edcc 48be 3ea4 a33f 7ad1 f43d
000000f0: acf7 103f bf7c 8abf 8274 d1be 8b98 71bd

sequential/batch_normalization_11/FusedBatchNormV3 f4 [64]
-0.095539525 0.47026384 0.05612246 -0.77126503 -0.7563563 -0.7686862 1.0671506 0.78695405
-0.24706396 -0.021646168 -0.13763808 -0.27878138 -0.48380795 1.1775655 -0.40245485 0.033496946
0.76371413 -0.055757884 -0.8918354 0.03905229 0.5866748 0.6040538 -0.63637674 -0.83267933
-0.57186544 0.8539373 -0.41050425 -0.70194024 -0.5713398 -0.6736485 -0.30282396 0.86553425
-0.8895506 -0.4266383 -0.79121923 -0.140326 -0.5583938 -0.66970104 -0.46863064 1.3985868
0.2744327 -0.77082115 0.6765479 -0.60500115 -0.8949104 -0.41889656 -0.29681113 0.51097935
0.5178104 0.721648 -0.25012255 -0.74759924 0.904465 0.9878421 -0.048711702 0.54585314
1.0926317 -0.5478264 -0.46419814 0.88654935 0.43529943 0.07487326 0.79123205 -0.25954753
00000000: 3aaa c3bd 6cc6 f03e aae0 653d a071 45bf
00000010: 91a0 41bf 9ec8 44bf 6498 883f d275 493f
00000020: 56fe 7cbe 4e53 b1bc fff0 0cbe 6fbc 8ebe
00000030: adb5 f7be 77ba 963f 900e cebe 1834 093d
00000040: c582 433f 6162 64bd 534f 64bf 4bf5 1f3d
00000050: 5230 163f 45a3 1a3f 96e9 22bf 792a 55bf
00000060: c665 12bf a39b 5a3f 9d2d d2be 5bb2 33bf
00000070: 5343 12bf 3a74 2cbf be0b 9bbe a793 5d3f
00000080: 97b9 63bf 5670 dabe 588d 4abf 9eb1 0fbe
00000090: e5f2 0ebf 8771 2bbf 5bf0 efbe e404 b33f
000000a0: 7182 8c3e 8954 45bf 3e32 2d3f 5be1 1abf
000000b0: d918 65bf 9c79 d6be a1f7 97be 8bcf 023f
000000c0: 398f 043f ecbd 383f 1010 80be aa62 3fbf
000000d0: 058b 673f 38e3 7c3f ec85 47bd 08bd 0b3f
000000e0: 5bdb 8b3f 5a3e 0cbf 61ab edbe e6f4 623f
000000f0: 91df de3e 2757 993d 2f8e 4a3f 6ae3 84be

sequential/batch_normalization_12/FusedBatchNormV3 f4 [128]
-0.11757951 0.39451927 -0.7059642 -0.64385676 0.3789604 -0.24421132 0.20013785 -0.22528535
-0.61744595 -0.3192131 -0.6343497 1.3325062 -0.75944704 0.94544554 -0.38201144 0.95305175
-0.30846015 -0.68261063 -0.10839456 0.42118964 -0.47530603 0.41077754 -0.6488058 0.21761602
-0.78232235 -0.33402732 -0.5925545 0.40898138 -0.45261133 0.44107443 -0.37512085 0.2827757
-0.13629137 -0.050302513 -0.1326484 1.1342111 0.49020398 0.69749767 1.894681 0.5895136
0.17922741 0.49952322 -0.8605104 -0.3776344 -0.7012704 -0.08483579 -0.2249514 0.59039
0.14667444 0.80330026 0.7403304 1.2986133 0.23385864 0.1190343 -0.29483837 -0.58606243
0.46596703 -0.1544368 -0.062552154 0.5973579 0.31747612 0.45134804 0.26979017 -0.1767698
-0.25557637 -0.056328017 -0.1149416 -0.46238795 1.031683 -0.13129275 0.017035535 -0.6273069
0.5840706 -0.411107 -0.49966693 0.739599 -0.24703342 0.18048802 -0.096618764 -0.19416463
0.6254899 0.58099943 -0.20783317 -0.08286998 0.17843306 -0.09273674 0.50745684 0.6535049
0.2666881 0.80669546 -1.0079006 0.00820861 0.40499833 0.28457648 0.5477423 -0.57419413
0.92089635 0.56808686 -0.48605555 0.30440414 0.466773 0.53093994 0.19823581 -0.010047197
0.093596384 0.35288617 -0.4769945 0.73019296 0.9824364 -0.8864812 0.18565133 -0.01755586
-0.09420799 -0.041594468 -0.4566997 -0.4287676 -0.019274851 0.076298416 0.4438726 0.27652657
-1.4391834 -0.45852286 0.6030295 0.0021269247 0.37919468 -0.5740502 1.0366654 0.45834628
00000000: 87cd f0bd 6efe c93e 12ba 34bf ccd3 24bf
00000010: 1907 c23e 8812 7abe f0f0 4c3e 34b1 66be
00000020: f010 1ebf e66f a3be be64 22bf 908f aa3f
00000030: 1f6b 42bf b808 723f 0197 c3be 33fb 733f
00000040: 7dee 9dbe 92bf 2ebf f8fd ddbd 2ba6 d73e
00000050: 505b f3be 6f51 d23e 2318 26bf bcd6 5e3e
00000060: 4746 48bf a105 abbe a7b1 17bf 0266 d13e
00000070: acbc e7be 82d4 e13e d70f c0be fac7 903e
00000080: f78f 0bbe 020a 4ebd fbd4 07be d42d 913f
00000090: 04fc fa3e 358f 323f e884 f23f 5dea 163f
000000a0: 6487 373e 82c1 ff3e 694a 5cbf 4c59 c1be
000000b0: 7586 33bf 63be adbd a959 66be cd23 173f
000000c0: d331 163e 16a5 4d3f 4b86 3d3f f638 a63f
000000d0: a478 6f3e 41c8 f33d 0ef5 96be 3008 16bf
000000e0: 3b93 ee3e ae24 1ebe 581b 80bd 73ec 183f
000000f0: 3b8c a23e 1717 e73e f021 8a3e 2403 35be
00000100: e8da 82be 35b8 66bd 8066 ebbd 1dbe ecbe
00000110: 300e 843f 9b71 06be 1b8e 8b3c 2f97 20bf
00000120: a785 153f 9e7c d2be 58d4 ffbe 5c56 3d3f
00000130: 54f6 7cbe dad1 383e 0fe0 c5bd 18d3 46be
00000140: 1b20 203f 61bc 143f 38d2 54be bcb7 a9bd
00000150: 28b7 363e c3ec bdbd b1e8 013f 194c 273f
00000160: 588b 883e 9883 4e3f e302 81bf 687d 063c
00000170: f15b cf3e 02b4 913e d738 0c3f 63fe 12bf
00000180: ddbf 6b3f 246e 113f 46dc f8be dcda 9b3e
00000190: dffc ee3e aeeb 073f 54fe 4a3e 009d 24bc
000001a0: 76af bf3d 7fad b43e a038 f4be eded 3a3f
000001b0: f480 7b3f 6ff0 62bf 621b 3e3e 4fd1 8fbc
000001c0: 1ef0 c0bd f65e 2abd 8bd4 e9be 6d87 dbbe
000001d0: 4be6 9dbc 5842 9c3d 4543 e33e e494 8d3e
000001e0: 2937 b8bf 82c3 eabe 2460 1a3f e063 0b3b
000001f0: ce25 c23e f4f4 12bf 74b1 843f 5dac ea3e

sequential/batch_normalization_13/FusedBatchNormV3 f4 [128]
-0.46810985 1.1420876 -0.89157134 -0.7729853 0.8125204 -0.9861702 -1.1164477 -0.34954104
-0.042408034 0.50462073 -0.5801757 -0.26087314 -0.08585803 1.1030941 -0.8924928 0.63815665
-0.9910908 -0.42173257 -0.009317704 1.0758281 -0.730328 0.18565828 -0.5891953 -0.25000617
0.07903521 -0.7561031 -0.57922125 -0.43444905 -0.8657678 0.82388604 0.11938444 0.5786488
-0.46392334 -0.02358249 0.5399887 -0.45774654 -0.8047237 -0.20299451 0.71252215 0.9785237
0.9692305 1.0678898 -0.33471268 0.32300434 0.49968117 0.31706205 -0.74652684 0.61535686
0.65367085 1.078477 0.9714246 1.2729553 0.91676587 -0.6404309 -0.40301025 0.9332945
0.6152384 -0.8536676 -0.57119226 0.78039414 -0.94130343 0.43547118 -1.0779673 -0.3163214
0.5944871 0.74020255 0.7142481 -0.40863454 1.0044483 0.2957019 -1.1883456 -0.87452596
-0.25951743 0.48651034 -0.43881303 -0.74522513 -0.8490379 0.98700374 1.1599241 -0.5289232
-0.6936896 0.941699 -0.13735065 0.8689261 -0.3830993 0.72973317 -0.2758043 -1.0696212
-0.10515484 -0.8786036 -0.60038155 -0.7125949 -0.51159567 -0.39032352 0.18831359 -0.79062384
-0.79067665 0.9541976 -0.86310095 0.87885964 -0.062262908 -0.8138037 1.2776889 -0.66574246
-1.2574339 -0.86642724 -0.89553463 -0.655174 -0.41815814 -0.85338867 -0.8473737 0.5988846
0.97701985 -0.78210604 0.067656234 0.40332615 -0.5077203 -0.96677035 -0.98794687 0.90683955
-0.5841425 0.13694406 0.77648485 0.7369545 -1.0704048 -0.31309587 -1.3315018 -0.17104122
00000000: 18ac efbe ed2f 923f 053e 64bf 5de2 45bf
00000010: 5601 503f a675 7cbf c2e7 8ebf 0bf7 b2be
00000020: 0cb4 2dbd d32e 013f 6586 14bf 2a91 85be
00000030: 56d6 afbd 3032 8d3f 687a 64bf 3c5e 233f
00000040: 20b8 7dbf 55ed d7be 48a9 18bc bcb4 893f
00000050: c7f6 3abf 341d 3e3e 81d5 16bf cf00 80be
00000060: 36dd a13d f98f 41bf d847 14bf 1b70 debe
00000070: f5a2 5dbf 32ea 523f d47f f43d 5422 143f
00000080: 5c87 edbe 1130 c1bc b33c 0a3f c15d eabe
00000090: 5f02 4ebf cbdd 4fbe da67 363f 8780 7a3f
000000a0: 7d1f 783f 9db0 883f 765f abbe d360 a53e
000000b0: 36d6 ff3e f555 a23e 621c 3fbf 0788 1d3f
000000c0: f956 273f 890b 8a3f 48af 783f 33f0 a23f
000000d0: 2bb1 6a3f 48f3 23bf 5c57 cebe 63ec 6e3f
000000e0: 4480 1d3f f689 5abf a839 12bf e9c7 473f
000000f0: 43f9 70bf 14f6 de3e d5fa 89bf e1f4 a1be
00000100: 4e30 183f ea7d 3d3f f7d8 363f 8c38 d1be
00000110: c391 803f 3d66 973e b51b 98bf efe0 5fbf
00000120: 78df 84be e217 f93e 1aac e0be 13c7 3ebf
00000130: 8c5a 59bf 47ac 7c3f 6578 943f 8367 07bf
00000140: a495 31bf 3013 713f a6a5 0cbe f171 5e3f
00000150: 9725 c4be cbcf 3a3f 3936 8dbe 59e9 88bf
00000160: 6c5b d7bd 2aec 60bf 9bb2 19bf 9f6c 36bf
00000170: eff7 02bf 7cd8 c7be 47d5 403e 5366 4abf
00000180: c969 4abf 4b46 743f 2ff4 5cbf f2fc 603f
00000190: 6407 7fbd 7055 50bf 4f8b a33f 196e 2abf
000001a0: 98f3 a0bf 2dce 5dbf c241 65bf 7cb9 27bf
000001b0: d318 d6be ae77 5abf 7ced 58bf 8050 193f
000001c0: f91d 7a3f 1a38 48bf 5a8f 8a3d c480 ce3e
000001d0: f5f9 01bf 437e 77bf 16ea 7cbf a326 683f
000001e0: 5d8a 15bf 103b 0c3e b6c7 463f 0da9 3c3f
000001f0: 0603 89bf 1a4e a0be a76e aabf 6e25 2fbe

sequential/batch_normalization_14/FusedBatchNormV3 f4 [256]
-0.61879766 0.9227188 -0.363965 0.022341456 0.36267975 0.22615813 2.4612122 0.21865535
0.07151675 1.2550645 -0.09295831 -0.0016765743 -0.9639185 0.2920391 0.41561472 0.4758886
-0.58027333 0.3021893 0.14971511 0.9297429 0.14945686 0.14279684 0.36788732 0.44518155
1.5132307 1.5694015 0.27219662 -0.20563081 0.49945885 -1.1937449 -0.90568405 0.75995326
-0.35793865 1.2610953 -0.7555044 -0.35811228 -0.772406 -2.3228085 0.47799465 -0.5603706
0.33471355 0.8108727 0.7790181 -1.1072224 -0.0086355265 -0.3880017 -1.004592 0.19988714
0.06944856 -2.744563 0.26812738 0.30875942 0.73115677 -0.43517223 0.968154 -0.6756834
-0.6474227 -1.1053721 -0.2569097 -0.4897699 0.041923318 0.19015966 -0.9750339 1.3195512
-0.5823883 -0.1127011 1.2515678 0.4263407 -0.6182859 0.041129332 -1.34118 -0.7990024
-0.8032447 -0.31837362 1.222095 0.32855737 -0.05378012 -0.2983431 -1.1179352 0.22662617
0.23065309 -0.076649606 -0.0041001937 -0.01602737 -0.6919018 1.713109 -0.12139016 -0.21051581
-1.0049812 -0.24918067 0.0868974 -2.196777 0.36798108 0.22870998 1.055789 0.56860423
0.24432385 -1.8374691 1.4574624 -0.00626499 -1.2510649 0.24596661 -0.4811729 0.022363573
-0.7055853 0.87195987 0.123687364 -0.35547262 -1.117819 0.8979002 -0.08283177 -1.0884199
-1.234638 1.1756727 1.1644413 1.1352459 -1.1330242 0.3478691 0.5989141 0.14463247
0.25938508 0.036505446 -1.2385278 -3.1044743 0.7737389 0.017492529 0.16366442 0.27157474
0.58376503 -3.0381813 -1.812951 -0.5318856 0.4613965 -0.23211373 -0.46845466 -1.1339271
-0.09864368 -0.30997825 0.68179315 -0.7060546 0.040351264 0.5021075 -0.7967966 0.5100292
-0.40828258 0.21692708 -0.74513847 -1.3440281 0.4418101 -0.9260024 -0.029916748 0.009439751
-1.1876527 -0.04499226 -0.3153028 0.42459035 -0.25225112 0.18206148 -0.65114725 0.2128449
0.46735388 -0.41607758 0.8068122 0.4616141 -0.38645563 -0.0037398934 -1.2880783 0.44250196
-0.1628359 0.70289004 -0.47887075 -0.15994233 -0.37780228 1.7021917 -0.4920685 -0.08728517
-1.0601976 -1.3200177 -1.674514 0.5365437 -0.35058302 -0.49185506 -0.3586954 2.6110654
-0.201676 -0.10982273 0.057879906 -0.48478648 -1.1562496 -0.23420608 0.6240345 -0.38501215
-0.11574715 -0.15935616 0.4107998 0.026520438 0.76894844 -0.51176983 0.7473918 0.8210645
-0.17992339 0.04881846 -0.7613602 -0.41817355 -0.06657838 -0.06414032 -0.7458179 0.9989987
-0.22007972 -0.0008503869 -0.49258065 -0.7782822 -0.02211073 0.09544692 -0.5192363 1.0732715
2.0689113 -0.96110773 -0.3077586 -0.9177691 1.2810212 0.77754647 0.6826592 2.0329137
-1.8766134 1.3993758 -0.5011535 -0.1709993 0.031520803 -0.08402552 0.047386467 -0.7220113
-0.10411394 0.8816924 1.6439384 -2.8910718 -0.17919914 -0.19433698 1.0567259 -0.5439987
-0.67915285 0.4248082 0.055075273 0.15959272 -0.9026949 0.11004746 0.13444127 0.8026757
-0.26796943 0.43435237 -0.37188882 0.07883644 0.50008255 0.54157734 -0.85187644 0.41008046
00000000: 8669 1ebf 4d37 6c3f 9f59 babe 6e05 b73c
00000010: 29b1 b93e ff95 673e 8084 1d40 30e7 5f3e
00000020: 6077 923d f4a5 a03f ed60 bebd 80c0 dbba
00000030: 5dc3 76bf 2686 953e 74cb d43e aca7 f33e
00000040: cb8c 14bf 8eb8 9a3e eb4e 193e a103 6e3f
00000050: 380b 193e 5639 123e ba5b bc3e d6ee e33e
00000060: 8bb1 c13f 26e2 c83f 5b5d 8b3e e290 52be
00000070: 12b9 ff3e a2cc 98bf e9da 67bf 4c8c 423f
00000080: bc43 b7be 926b a13f bd68 41bf 7e5a b7be
00000090: 66bc 45bf e5a8 14c0 b7bb f43e 7374 0fbf
000000a0: 935f ab3e 5a95 4f3f bb6d 473f 77b9 8dbf
000000b0: 067c 0dbc 29a8 c6be 7896 80bf 37af 4c3e
000000c0: 0c3b 8e3d eca6 2fc0 fe47 893e b715 9e3e
000000d0: 172d 3b3f e5ce debe f1d8 773f 96f9 2cbf
000000e0: 7ebd 25bf d57c 8dbf ab89 83be 1fc3 fabe
000000f0: c9b7 2b3d 37b9 423e d29b 79bf 0ee7 a83f
00000100: 6617 15bf d6cf e6bd 6033 a03f 5449 da3e
00000110: fc47 1ebf 3b77 283d c9ab abbf 6c8b 4cbf
00000120: 72a1 4dbf de01 a3be 9c6d 9c3f ac38 a83e
00000130: 8b48 5cbd 6dc0 98be 8018 8fbf b110 683e
00000140: 5330 6c3e 78fa 9cbd eb5a 86bb d54b 83bc
00000150: 7a20 31bf 2847 db3f 679b f8bd 7591 57be
00000160: 39a3 80bf 3829 7fbe 44f7 b13d ff97 0cc0
00000170: 0468 bc3e f332 6a3e 1824 873f 0c90 113f
00000180: 0830 7a3e 3032 ebbf 218e ba3f 8c4a cdbb
00000190: e522 a0bf acde 7b3e 4b5c f6be d033 b73c
000001a0: 3da1 34bf c338 5f3f cd4f fd3d 8200 b6be
000001b0: b114 8fbf cadc 653f b4a3 a9bd 5851 8bbf
000001c0: 9e08 9ebf 717c 963f 6a0c 953f bd4f 913f
000001d0: f006 91bf e61b b23e 6f52 193f 891a 143e
000001e0: 1fce 843e bc86 153d 1488 9ebf b5af 46c0
000001f0: c113 463f 7e4c 8f3c a597 273e d80b 8b3e
00000200: a071 153f 9071 42c0 c70e e8bf a829 08bf
00000210: 293c ec3e 39af 6dbe 4ad9 efbe 8624 91bf
00000220: b305 cabd 78b5 9ebe ff89 2e3f ffbf 34bf
00000230: 5e47 253d 1e8a 003f ddfa 4bbf 4691 023f
00000240: 6a0a d1be 2222 5e3e 65c1 3ebf 1d09 acbf
00000250: ef34 e23e 7e0e 6dbf f813 f5bc 2fa9 1a3c
00000260: 0105 98bf ce49 38bd 5e6f a1be e863 d93e
00000270: 0f27 81be 536e 3a3e 96b1 26bf 03f4 593e
00000280: 0249 ef3e 1f08 d5be 3f8b 4e3f af58 ec3e
00000290: 83dd c5be 0019 75bb c0df a4bf 9e8f e23e
000002a0: 74be 26be 9af0 333f 8c2e f5be ecc7 23be
000002b0: 4d6f c1be 6be1 d93f 67f0 fbbe 91c2 b2bd
000002c0: 8eb4 87bf 57f6 a8bf 7a56 d6bf ee5a 093f
000002d0: 9e7f b3be 6dd4 fbbe eca6 b7be b21b 2740
000002e0: 2784 4ebe bdea e0bd 7b13 6d3d ef35 f8be
000002f0: fdff 93bf b8d3 6fbe bac0 1f3f 5020 c5be
00000300: d70c edbd 432e 23be 5a54 d23e 6441 d93c
00000310: ced9 443f 5903 03bf 1255 3f3f 4831 523f
00000320: d63d 38be def5 473d 81e8 42bf d81a d6be
00000330: 3f5a 88bd 005c 83bd eced 3ebf 61be 7f3f
00000340: 945c 61be 80ec 5eba 8833 fcbe 813d 47bf
00000350: 9021 b5bc ad79 c33d acec 04bf f660 893f
00000360: 0b69 0440 280b 76bf 8992 9dbe eaf2 6abf
00000370: 81f8 a33f 490d 473f c1c2 2e3f 421b 0240
00000380: de34 f0bf bf1e b33f 994b 00bf 711a 2fbe
00000390: f51b 013d 9215 acbd 5018 423d bcd5 38bf
000003a0: b039 d5bd 98b6 613f 936c d23f 5207 39c0
000003b0: fb7f 37be 4600 47be cb42 873f 8043 0bbf
000003c0: f6dc 2dbf 7680 d93e 9c96 613d 466c 233e
000003d0: 0317 67bf 9060 e13d f9aa 093e 287c 4d3f
000003e0: 4a33 89be 6f63 de3e 3668 bebe 0075 a13d
000003f0: 6905 003f d0a4 0a3f 9314 5abf 11f6 d13e

sequential/batch_normalization_15/FusedBatchNormV3 f4 [256]
0.22277007 -0.003447221 -0.16073716 0.31911454 -0.0030848407 -0.6263337 0.39290607 -0.15028884
-0.531364 0.39112577 -0.0023094863 -0.14601964 0.19205517 -0.0014610001 0.641663 -0.006405484
-0.13912068 -0.39269033 -0.42051578 0.38822317 -0.20797256 0.2715461 0.55489194 0.3468678
-0.52872944 -0.006329621 -0.15248398 0.24664341 -0.003165857 0.07343195 -0.073959984 -0.0041112863
-0.040441036 -0.4385237 0.36387026 -0.1591455 0.21005659 0.506345 -0.27624676 0.23996265
-0.2284827 -0.0038559267 -0.0003694523 -0.0026685847 0.0052567124 -0.12640719 0.4124895 -0.18902692
-0.00083925785 -0.63699865 -0.22732404 -0.10061248 -0.32657897 -0.24577911 -0.009174716 -0.132315
0.5550196 0.08850895 -0.24199942 -0.16141424 0.15990272 0.2508228 -0.004495318 0.09522558
-0.20409974 -0.39465392 0.117716976 -0.35933983 -0.0029515428 -0.24845982 0.33628386 -0.00220526
0.4395256 -0.013902329 0.6939932 -0.0002795357 -0.0049376283 -0.13137075 0.56239134 0.6469102
0.22175458 -0.0045975232 -0.00033652753 -0.31941554 0.10894264 0.58530354 0.4572078 -0.1532941
0.19154432 -0.51374733 0.7295561 -0.63102955 0.3372267 0.014770677 0.4528968 -0.0025047837
-0.1639102 0.18158229 0.79435635 -0.23874062 -0.0064726025 -0.37226427 -0.3942485 0.45582893
-0.0022088857 -0.2605272 0.17754318 -0.0023091233 -0.006947564 -0.5314925 -0.1357905 -0.0066194274
-0.007150054 -0.55997187 -0.64012647 0.82963145 -0.21219373 0.45963377 -0.4088664 0.694542
-0.001999788 -0.3282026 0.35184458 -0.64177966 0.50837064 -0.12819451 0.29898065 -0.13063556
0.38222122 -0.62517214 0.13619629 -0.41247323 -0.4864644 -0.0038685296 -0.00032889267 0.14315756
-0.30825204 -0.0050375117 0.52448475 -0.41703662 -6.910681e-05 0.080466315 0.51264757 0.43639675
0.12885183 -0.3827459 -2.556436e-05 -0.00028244566 0.21259765 -0.2549634 -0.11755084 -0.24629408
-0.0037284754 0.46184912 -0.13197403 -0.24023408 -0.0062183645 0.21085012 -0.11460587 -0.27691114
-0.0035621058 -0.10803108 0.5819862 -0.59812665 -0.14158459 0.037507694 -0.11996978 -0.61974007
-0.16103002 0.42059818 0.48239794 0.48793623 -0.29588166 0.558762 -0.38803646 0.30520368
0.5395043 0.14845139 0.10529208 -0.08508773 -0.05995456 -0.005604131 0.61662716 0.5856357
0.4426384 0.145363 -0.0023604142 -0.1260118 0.13704748 -0.11509223 -0.28798035 -0.19418466
-0.32557157 0.0047096387 -0.05948753 -0.25232452 -0.61049443 -0.0009568535 -0.0014622654 -0.70806587
0.05989153 -0.00052031263 0.6255915 -0.23577225 0.58311963 -0.3144493 0.27173188 -0.30223393
-0.0068202317 -0.1540579 -0.10407236 0.03857007 -0.30386174 -0.16698793 -0.17256066 -0.0033529643
-0.004528626 -0.48327526 0.24485444 -0.0012611228 0.22759129 -0.005140519 0.5753847 0.20926777
0.37842673 -0.1495356 -0.10598369 -0.386775 -0.0023873113 -0.00023537924 0.27166593 -0.0009641992
-0.16737685 0.7018759 0.15267125 -0.61776835 -0.22210786 -0.14057827 -0.70237017 -0.34037796
-0.10742292 -0.0022638696 -0.16341713 0.3962453 -0.19236802 -0.28794098 0.3118003 0.6473386
0.4140693 -0.20391689 -0.00814604 -0.12996285 -0.10748303 -0.3512236 -0.0023551031 -0.3707006
00000000: d61d 643e c5ea 61bb 4898 24be fb62 a33e
00000010: 0a2b 4abb 6857 20bf fc2a c93e 51e5 19be
00000020: 7907 08bf a341 c83e c05a 17bb 2c86 15be
00000030: 1caa 443e 077f bfba 0744 243f 18e5 d1bb
00000040: a775 0ebe b50e c9be d84d d7be 30c5 c63e
00000050: c2f6 54be 1708 8b3e 660d 0e3f a898 b13e
00000060: d05a 07bf b668 cfbb c324 1cbe 1790 7c3e
00000070: 447a 4fbb 7d63 963d 5578 97bd f8b7 86bb
00000080: 80a5 25bd 2e86 e0be 344d ba3e 0af7 22be
00000090: 1319 573e d39f 013f 3770 8dbe c5b8 753e
000000a0: 5ef7 69be b7b3 7cbb 0cb3 c1b9 6ce3 2ebb
000000b0: 8040 ac3b e370 01be d331 d33e 4690 41be
000000c0: a401 5cba 5812 23bf a2c7 68be ea0d cebd
000000d0: 5c35 a7be 85ad 7bbe 8c51 16bc 957d 07be
000000e0: c415 0e3f 2e44 b53d b2ce 77be c649 25be
000000f0: 8abd 233e d96b 803e 764d 93bb a105 c33d
00000100: 86ff 50be 1410 cabe 9915 f13d 64fb b7be
00000110: ac6e 41bb 406c 7ebe 662d ac3e 2086 10bb
00000120: 8009 e13e 98c6 63bc 8aa9 313f a68e 92b9
00000130: d4cb a1bb 0e86 06be e1f8 0f3f e89b 253f
00000140: a213 633e d2a6 96bb f66f b0b9 6f8a a3be
00000150: 521d df3d 74d6 153f 2417 ea3e 21f9 1cbe
00000160: 3224 443e f284 03bf 30c4 3a3f 278b 21bf
00000170: faa8 ac3e b600 723c 17e2 e73e 4c27 24bb
00000180: 13d8 27be b5f0 393e f05a 4b3f 6c78 74be
00000190: 2018 d4bb 6c99 bebe f0da c9be 6962 e93e
000001a0: f4c2 10bb d263 85be e1cd 353e a954 17bb
000001b0: 64a8 e3bb e40f 08bf aa0c 0bbe c8e7 d8bb
000001c0: 004b eabb 515a 0fbf 54df 23bf ba62 543f
000001d0: 5049 59be 1e55 eb3e f056 d1be 81cd 313f
000001e0: e00e 03bb 2c0a a8be f924 b43e ac4b 24bf
000001f0: 9424 023f 6c45 03be fe13 993e 54c5 05be
00000200: 80b2 c33e 480b 20bf 0a77 0b3e b12f d3be
00000210: dd11 f9be 2887 7dbb 3a6f acb9 e597 123e
00000220: 36d3 9dbe b611 a5bb a244 063f d385 d5be
00000230: 70ed 90b8 86cb a43d df3c 033f 656f df3e
00000240: bcf1 033e 45f7 c3be 0c73 d6b7 3715 94b9
00000250: 33b3 593e 908a 82be 7fbe f0bd 8434 7cbe
00000260: 7059 74bb 7d77 ec3e 3324 07be ecff 75be
00000270: 6cc3 cbbb 18e9 573e 7bb6 eabd 4cc7 8dbe
00000280: 3872 69bb 663f ddbd 0cfd 143f d41e 19bf
00000290: 8dfb 10be aba1 193d b7b2 f5bd 49a7 1ebf
000002a0: 0ee5 24be a558 d73e ddfc f63e c7d2 f93e
000002b0: cd7d 97be 070b 0f3f b7ac c6be a843 9c3e
000002c0: f41c 0a3f a403 183e 60a3 d73d 7a42 aebd
000002d0: ea92 75bd dca2 b7bb 47db 1d3f 39ec 153f
000002e0: 80a1 e23e 0ada 143e 2eb1 1abb 3d09 01be
000002f0: 2d56 0c3e 7ab5 ebbd 2972 93be 58d8 46be
00000300: 51b1 a6be 5053 9a3b 32a9 73bd ae30 81be
00000310: 5d49 1cbf 5ad5 7aba 7ca9 bfba ce43 35bf
00000320: d250 753d 9765 08ba c426 203f 486e 71be
00000330: 5447 153f 80ff a0be 7120 8b3e 68be 9abe
00000340: 407c dfbb 5bc1 1dbe e423 d5bd a6fb 1d3d
00000350: c493 9bbe e2fe 2abe beb3 30be 68bd 5bbb
00000360: de64 94bb db6f f7be 1fbb 7a3e 424c a5ba
00000370: b10d 693e cc71 a8bb 694c 133f 4a4a 563e
00000380: 26c1 c13e dc1f 19be fa0d d9bd 5f07 c6be
00000390: 7074 1cbb 22d0 76b9 cc17 8b3e 50c2 7cba
000003a0: d664 2bbe 24ae 333f da55 1c3e 1126 1ebf
000003b0: 3e70 63be c0f3 0fbe 88ce 33bf 0546 aebe
000003c0: 8c00 dcbd 6e5d 14bb d256 27be aae0 ca3e
000003d0: 1ffc 44be 006d 93be 4aa4 9f3e fcb7 253f
000003e0: e400 d43e 97cf 50be f876 05bc fb14 05be
000003f0: 1020 dcbd 94d3 b3be 1358 1abb 78cc bdbe

sequential/batch_normalization_16/FusedBatchNormV3 f4 [256]
-0.33235756 0.50875413 -0.71671003 -0.41094714 0.757533 0.38041896 -0.8501579 -1.7296699
-1.2675891 -0.5318507 0.26277572 -0.62746364 0.13050418 0.6006181 -0.6704032 -0.33334154
0.64280206 0.20677432 -0.3545526 -0.50933486 0.25580874 -1.05082 -0.18288526 -1.354075
0.8172259 -0.4561974 -0.81898326 1.1892774 -0.4298882 -2.2418294 -1.030977 -0.23328598
-0.87637556 -0.055254724 -0.7887009 0.31214538 -1.0992932 -0.84519386 -0.7792338 0.07885859
-0.90248543 0.10094187 -0.3630438 -1.0976782 -1.1652939 0.3230802 -0.48940396 -0.5569656
-0.2815886 -0.30303103 -0.955953 0.22947627 0.5494322 0.22282675 -1.2110397 0.4693041
-1.1175569 -0.19186345 -0.59012705 -0.6615905 -0.36330312 -0.9333764 -0.71075547 0.07774569
-1.6308781 -0.14387527 -1.0236257 -0.61418086 -0.30839866 -0.74070984 0.6067495 0.40439686
-0.04966254 -1.5825083 0.64089316 -1.2877944 0.066078305 0.30239737 -1.0782393 -0.86570436
-0.4607574 0.51538026 0.8810556 -0.9903107 0.19505224 -0.18453711 -0.065752536 -0.38927746
-0.5006418 0.16562197 0.6460476 -0.67958206 -0.3059795 -0.76576364 -0.51645863 -0.1700778
0.41215274 -0.52107656 -1.2253487 -1.09692 -0.4707161 0.7198578 -1.1761589 0.19293661
-0.30231902 1.3985993 -0.5893713 -0.95308423 0.09213519 0.390816 0.61186534 -0.7707843
-0.8375668 0.36364317 0.95134777 0.03348648 -1.099536 -1.3429902 -0.2242872 -0.78498226
-0.29511043 0.48123965 -0.22522554 -1.8036348 -0.1976168 0.44944543 -0.1335431 1.0434874
0.05302266 -0.7875728 -1.1980175 0.7779167 -0.7201281 0.73130065 -0.8240714 1.3194413
-0.47948247 -0.8177032 -1.3103595 -0.72402024 0.46675205 0.84013474 -0.012385454 0.29719707
-0.5987369 0.24897458 -2.2130313 -0.8403937 0.56452775 -1.0189053 -0.5125457 -1.0391493
-0.20457447 -1.2191268 -0.69427484 -0.57760465 -1.4519637 -1.3092947 -1.1230783 -0.32290027
-0.13652281 -0.020285146 0.6162556 -0.93416834 -0.39552853 -2.1500778 -0.043257292 -0.11038602
-1.5824431 -0.33266068 -0.14294063 -0.8243834 0.81658155 -0.34261832 0.72229123 -0.75414145
0.3860885 -0.63877314 -0.18912937 -0.52217126 -0.7127979 0.8932845 -0.41750175 0.29886425
0.5661 -0.08689469 1.3399322 -0.5357576 -0.054727677 -0.9818157 -0.14234047 -0.10807937
0.6701733 -0.054489978 -0.68179774 0.2472843 -0.17108221 0.62485653 -0.1537075 0.61693186
0.9514669 0.19268736 0.3823413 0.29964453 0.08524676 -0.14342064 0.42354298 1.155336
0.45431033 -1.2207261 -1.4605676 -0.27351505 -1.6788056 -1.3498936 0.5650267 -0.4995364
-1.0564866 -0.309893 -0.60725176 -1.5426494 -0.38485172 -0.5073405 -0.5238086 0.0011049472
0.65525913 -0.24814574 1.6783831 0.21073353 -1.5442226 -0.81566036 0.50257874 0.14927372
-2.0115027 0.10074861 0.24453712 0.36426088 -0.50022894 0.043995116 -1.4776237 -0.91942513
0.35347375 0.18665859 0.51110774 -0.76813734 0.25759247 0.49886435 0.18584247 0.53012955
-1.4243011 0.4920635 -0.6724442 0.12559958 1.0083127 -0.71994936 0.17330731 0.030745227
00000000: c52a aabe b63d 023f 4f7a 37bf aa67 d2be
00000010: afed 413f 46c6 c23e f3a3 59bf d365 ddbf
00000020: 5c40 a2bf 5e27 08bf 8a8a 863e 75a1 20bf
00000030: e3a2 053e 1cc2 193f 8b9f 2bbf beab aabe
00000040: ad8e 243f a6bc 533e eb87 b5be c563 02bf
00000050: 5df9 823e 4581 86bf 4646 3bbe 5452 adbf
00000060: b735 513f b592 e9be e3a8 51bf 3e3a 983f
00000070: 4e1a dcbe 227a 0fc0 0ef7 83bf 85e2 6ebe
00000080: 265a 60bf c752 62bd 4de8 49bf 85d1 9f3e
00000090: a4b5 8cbf a05e 58bf de7b 47bf 9d80 a13d
000000a0: 4909 67bf 9cba ce3d e1e0 b9be b880 8cbf
000000b0: 5a28 95bf c56a a53e 2893 fabe 4c95 0ebf
000000c0: 622c 90be e226 9bbe 56b9 74bf d4fb 6a3e
000000d0: 97a7 0c3f b22c 643e 5903 9bbf a148 f03e
000000e0: 1b0c 8fbf da77 44be 9112 17bf ff5d 29bf
000000f0: de02 babe c1f1 6ebf 12f4 35bf 2239 9f3d
00000100: 9dc0 d0bf 0a54 13be 2b06 83bf f53a 1dbf
00000110: 6ee6 9dbe 299f 3dbf ef53 1b3f 1b0d cf3e
00000120: f36a 4bbd a28f cabf 9311 243f 72d6 a4bf
00000130: 1054 873d d4d3 9a3e bf03 8abf cd9e 5dbf
00000140: 65e8 ebbe f6ef 033f dc8c 613f 0185 7dbf
00000150: c6bb 473e 4cf7 3cbe 44a9 86bd 604f c7be
00000160: 102a 00bf ce98 293e 6063 253f 17f9 2dbf
00000170: 58a9 9cbe 1609 44bf a236 04bf e028 2ebe
00000180: af05 d33e 4665 05bf 3ad8 9cbf e067 8cbf
00000190: b301 f1be 9a48 383f 608c 96bf 2d91 453e
000001a0: 8fc9 9abe 4d05 b33f 0ae1 16bf 54fd 73bf
000001b0: 60b1 bc3d 0919 c83e 35a3 1c3f 1f52 45bf
000001c0: c76a 56bf 702f ba3e 878b 733f 1f29 093d
000001d0: 98bd 8cbf 1ae7 abbf 8bab 65be 99f4 48bf
000001e0: b718 97be 0b65 f63e 86a1 66be 81dd e6bf
000001f0: 0f5c 4abe b61d e63e 86bf 08be ff90 853f
00000200: 4a2e 593d 5f9e 49bf a358 99bf 8d25 473f
00000210: 515a 38bf 8536 3b3f 58f6 52bf 74e3 a83f
00000220: ba7e f5be ff54 51bf dcb9 a7bf 6459 39bf
00000230: 20fa ee3e 1213 573f 5cec 4abc 372a 983e
00000240: d246 19bf 31f3 7e3e 4ea2 0dc0 0b24 57bf
00000250: e484 103f 7d6b 82bf 3236 03bf d802 85bf
00000260: f87b 51be 590c 9cbf ffbb 31bf e6dd 13bf
00000270: f2d9 b9bf f896 a7bf 08c1 8fbf 2f53 a5be
00000280: a3cc 0bbe 092d a6bc edc2 1d3f a825 6fbf
00000290: b782 cabe e09a 09c0 8f2e 31bd 1112 e2bd
000002a0: 7f8d cabf 8052 aabe 075f 12be ca0a 53bf
000002b0: 7d0b 513f ab6b afbe 14e8 383f 6a0f 41bf
000002c0: 64ad c53e a386 23bf 21ab 41be 04ad 05bf
000002d0: ec79 36bf 4bae 643f cac2 d5be bc04 993e
000002e0: eeeb 103f d8f5 b1bd e682 ab3f 6927 09bf
000002f0: 212a 60bd 4658 7bbf b3c1 11be b758 ddbd
00000300: 7a90 2b3f e230 5fbd 4c8a 2ebf 1838 7d3e
00000310: 2d30 2fbe 99f6 1f3f 8065 1dbe 3fef 1d3f
00000320: 5693 733f d64f 453e 3dc2 c33e 026b 993e
00000330: da95 ae3d dcdc 12be a0da d83e 0de2 933f
00000340: 5d9b e83e c140 9cbf e1f3 babf 2a0a 8cbe
00000350: 1ae3 d6bf 50c9 acbf 97a5 103f 3cc3 ffbe
00000360: f43a 87bf 4caa 9ebe da74 1bbf 8975 c5bf
00000370: 490b c5be 11e1 01bf 5218 06bf e0d3 903a
00000380: 10bf 273f eb19 7ebe 42d5 d63f 88ca 573e
00000390: 16a9 c5bf 1ecf 50bf 00a9 003f 36db 183e
000003a0: 76bc 00c0 4a55 ce3d f067 7a3e 6780 ba3e
000003b0: 010f 00bf 3934 343d c622 bdbf 725f 6bbf
000003c0: 83fa b43e 6e23 3f3e f5d7 023f a6a4 44bf
000003d0: 29e3 833e 266b ff3e 7d4d 3e3e 92b6 073f
000003e0: 804f b6bf bfef fb3e 4e25 2cbf 2d9d 003e
000003f0: 6410 813f 9a4e 38bf 7977 313e 6add fb3c

sequential/batch_normalization_2/FusedBatchNormV3 f4 [16]
0.993238 -0.013427101 0.69018686 -0.48587182 -1.2720846 0.38038024 0.322803 0.5880304
0.036538225 0.045384537 -0.14144339 -0.1510664 0.84656143 -0.18275948 -0.97876155 0.054402143
00000000: d844 7e3f 58fd 5bbc 16b0 303f 31c4 f8be
00000010: abd3 a2bf 33c1 c23e 6f46 a53e 2989 163f
00000020: 1ba9 153d 23e5 393d 89d6 10be 26b1 1abe
00000030: 40b8 583f 4d25 3bbe 1e90 7abf c8d4 5e3d

sequential/batch_normalization_3/FusedBatchNormV3 f4 [16]
-0.23135889 -0.51087475 -0.18997538 0.0667399 0.6600333 -0.494654 -1.1104146 0.041674346
-0.55283964 -0.6987059 0.0690443 -0.45860633 -1.292423 0.025174785 -0.54932624 -0.08987574
00000000: 58e9 6cbe b0c8 02bf e888 42be eeae 883d
00000010: f1f7 283f 4a43 fdbe 1122 8ebf b8b2 2a3d
00000020: e686 0dbf 64de 32bf 1967 8d3d 73ce eabe
00000030: 1e6e a5bf 5a3b ce3c a5a0 0cbf c610 b8bd

sequential/batch_normalization_4/FusedBatchNormV3 f4 [32]
-0.6523891 0.3235489 0.12964071 0.5487342 0.24980134 -0.033671375 -0.17306234 0.24019496
-0.16247092 -1.1826928 0.27481848 -0.21555533 0.04467474 -0.7711869 -0.44991848 0.6870034
0.4201584 1.0334146 0.54400814 -0.569806 0.10956076 -0.72795403 0.1646139 -0.2150831
0.14465752 -0.09499792 0.11188449 0.6675693 -0.37524903 0.3827727 -0.7994733 0.1930668
00000000: f902 27bf 34a8 a53e 89c0 043e d879 0c3f
00000010: eccb 7f3e ffea 09bd 4137 31be abf5 753e
00000020: c75e 26be 7a62 97bf 02b5 8c3e 89ba 5cbe
00000030: dcfc 363d 816c 45bf b75b e6be 74df 2f3f
00000040: 001f d73e ee46 843f 1e44 0b3f cede 11bf
00000050: 6461 e03d 325b 3abf 8c90 283e bf3e 5cbe
00000060: 1a21 143e 458e c2bd b223 e53d d2e5 2a3f
00000070: a420 c0be c9fa c33e 48aa 4cbf 4eb3 453e

sequential/batch_normalization_5/FusedBatchNormV3 f4 [32]
-0.34787014 0.270723 -1.1079254 0.42345205 -1.0259383 -0.24135064 -0.3532907 0.0062609203
-0.052255247 0.7954774 -0.2305978 -1.2987214 0.2273942 0.58971614 -0.6679692 -0.5062109
-0.9932146 1.1563418 -0.7681169 0.5466817 0.78221494 -0.13023719 -0.39440164 0.28394294
-0.86718595 -0.74236035 -0.7534342 -0.38872936 -0.35390228 1.1467012 -0.40800187 -0.6009512
00000000: 091c b2be 349c 8a3e 80d0 8dbf b5ce d83e
00000010: f251 83bf 9f24 77be 85e2 b4be 6828 cd3b
00000020: 9909 56bd 68a4 4b3f d421 6cbe 813c a6bf
00000030: 06da 683e a3f7 163f 0800 2bbf 0a97 01bf
00000040: 5043 7ebf 0203 943f 4fa3 44bf 55f3 0b3f
00000050: 3d3f 483f e65c 05be 03ef c9be f860 913e
00000060: e6ff 5dbf 540b 3ebf 10e1 40bf 8907 c7be
00000070: ae32 b5be 1bc7 923f 9fe5 d0be f0d7 19bf

sequential/batch_normalization_6/FusedBatchNormV3 f4 [32]
0.0076948567 -0.65865946 -0.083742194 0.49304172 -0.4851897 -0.9133979 -0.6826227 -0.24292754
-0.50090003 -0.015286015 0.055494647 -0.3704834 0.07244429 0.77462536 0.022100331 0.09217507
-0.34315908 -0.61374235 0.34683943 0.7629157 0.68164676 -1.0130107 0.15674295 0.3620487
0.5950157 0.51637256 -0.8478991 -0.08578457 -0.105783544 -0.1836127 0.32384947 -0.36815563
00000000: 2325 fc3b e89d 28bf 0781 abbd f76f fc3e
00000010: c96a f8be 72d4 69bf 5cc0 2ebf ffc1 78be
00000020: fc3a 00bf 3272 7abc 5b4e 633d 00b0 bdbe
00000030: ac5d 943d d94d 463f c10b b53c 48c6 bc3d
00000040: 8cb2 afbe 381e 1dbf f094 b13e 714e 433f
00000050: 6780 2e3f 56aa 81bf 3981 203e 725e b93e
00000060: f352 183f fe30 043f ea0f 59bf d2af afbd
00000070: 0ba5 d8bd f804 3cbe 99cf a53e e57e bcbe

sequential/batch_normalization_7/FusedBatchNormV3 f4 [32]
0.24742517 0.5519023 0.5215803 -0.75422764 -0.12927395 -0.11674338 -0.8235448 0.05378755
-0.7291919 -0.13716167 -0.71386325 -0.3214921 1.06788 0.15178195 0.7202046 1.2327493
0.19186261 0.21595861 -0.76218605 0.8500667 -0.63013506 0.43544295 -0.74123555 0.5199616
1.0393573 0.15529202 -0.30153796 -0.9896952 -0.8630189 -0.84493756 -0.82372826 0.025081925
00000000: 065d 7d3e 7849 0d3f 4986 053f 1015 41bf
00000010: 6460 04be 2717 efbd d5d3 52bf 5650 5c3d
00000020: 52ac 3abf 1c74 0cbe bebf 36bf 9d9a a4be
00000030: 4bb0 883f ba6c 1b3e 545f 383f bbca 9d3f
00000040: a277 443e 4124 5d3e a01e 43bf f99d 593f
00000050: 8850 21bf 61f2 de3e 9dc1 3dbf 341c 053f
00000060: a909 853f df04 1f3e 2f63 9abe aa5c 7dbf
00000070: ceee 5cbf d44d 58bf dbdf 52bf 9c78 cd3c

sequential/batch_normalization_8/FusedBatchNormV3 f4 [64]
-0.14602777 0.85197294 0.20552358 -0.4500732 0.33931413 0.42980373 0.49890932 0.32270002
0.9069863 0.5052411 0.628731 0.6848961 -0.7369529 -0.79885006 0.59806347 -0.002700612
-0.42527527 0.16528273 -0.20535517 0.2429736 0.11966429 -0.19890343 0.08141418 -0.4267103
0.7120331 0.09590928 0.6655122 0.14741242 0.44454485 0.21051997 0.11342297 -0.5923754
-0.72089237 0.3515045 0.0012434423 0.8437241 -0.22891963 0.5517387 0.3050252 0.67678064
-0.40736794 -0.17568754 0.6899699 0.08283748 -1.1814303 -0.4739938 0.013758069 -1.109861
1.0849786 -0.3450299 1.1276492 0.21194634 0.5875948 0.02659079 -0.69418615 -0.013763279
0.33672094 0.7552457 0.0044269124 -1.3509036 0.07627721 0.00077258237 0.19940045 -0.012924293
00000000: 4e88 15be e61a 5a3f c674 523e ff6f e6be
00000010: 95ba ad3e 3c0f dc3e 0b71 ff3e f038 a53e
00000020: 4130 683f 7b57 013f 84f4 203f 5a55 2f3f
00000030: f2a8 3cbf 7081 4cbf b01a 193f c0fc 30bb
00000040: aebd d9be e03f 293e a048 52be 12ce 783e
00000050: 8d12 f53d 57ad 4bbe 7abc a63d c679 dabe
00000060: cd47 363f 166c c43d 025f 2a3f 48f3 163e
00000070: 629b e33e 8c92 573e 4d4a e83d eaa5 17bf
00000080: 678c 38bf 66f8 b33e 00fb a23a 4dfe 573f
00000090: e869 6abe bf3e 0d3f 432c 9c3e 7f41 2d3f
000000a0: 8892 d0be 6fe7 33be dea1 303f b2a6 a93d
000000b0: 1c39 97bf 51af f2be 8669 613c ed0f 8ebf
000000c0: 94e0 8a3f c2a7 b0be cf56 903f 7608 593e
000000d0: 9d6c 163f eed4 d93c 2fb6 31bf 607f 61bc
000000e0: b066 ac3e c857 413f a20f 913b 69ea acbf
000000f0: 3a37 9c3d 2087 4a3a a22f 4c3e 6ac0 53bc

sequential/batch_normalization_9/FusedBatchNormV3 f4 [64]
0.4282345 -0.42777404 -0.35251158 -0.24275868 1.358051 -0.5273195 0.3918821 0.49236372
1.333524 0.22305207 -0.25244373 -0.17724758 0.53456825 -0.610862 -0.244164 -0.39650124
-0.12121092 0.17394558 -0.6192439 0.71150154 -0.084458776 0.298841 0.8753795 0.1146387
0.73546046 -0.42682472 0.09701985 -1.0906903 -0.5387153 0.042828083 0.0868698 0.03982928
0.8315902 -0.25354898 -0.44598293 -0.1048947 -0.0048696976 -0.8905406 -1.0174875 -0.7384969
-0.031657718 -0.729252 0.110117964 0.3214429 0.77479154 0.54327595 0.19127795 0.099554576
0.591717 0.25156894 -0.49991143 -0.57224506 -0.5015506 -0.082799375 -0.48492172 -0.3854959
-0.23090334 -0.4835782 -0.7645048 0.54526097 0.3291781 0.41972706 0.7729622 -0.060256183
00000000: 8d41 db3e 3305 dbbe 667c b4be bb95 78be
00000010: 9dd4 ad3f 69fe 06bf c5a4 c83e 1917 fc3e
00000020: eab0 aa3f c367 643e 4e40 81be 6480 35be
00000030: 77d9 083f 7461 1cbf 2106 7abe 3602 cbbe
00000040: 6e3d f8bd ca1e 323e c586 1ebf f724 363f
00000050: b9f8 acbd b001 993e df18 603f b2c7 ea3d
00000060: 2347 3c3f c588 dabe 58b2 c63d bd9b 8bbf
00000070: 3fe9 09bf 806c 2f3d cbe8 b13d 0724 233d
00000080: 18e3 543f 2cd1 81be e057 e4be 08d3 d6bd
00000090: fc91 9fbb 78fa 63bf 083d 82bf 220e 3dbf
000000a0: 86ab 01bd 42b0 3abf 8785 e13d 2a94 a43e
000000b0: bd58 463f 2214 0b3f 5ede 433e 45e3 cb3d
000000c0: c47a 173f a5cd 803e 64f4 ffbe a77e 12bf
000000d0: 9f65 00bf b892 a9bd a947 f8be b85f c5be
000000e0: ed71 6cbe 9097 f7be 96b6 43bf 3996 0b3f
000000f0: 088a a83e 77e6 d63e dae0 453f 30cf 76bd

sequential/dense/MatMul f4 [2, 256]
-0.06468301 0.0046380092 -0.09763229 0.1991905 0.034931205 -0.177586 -0.030894624 0.011100751
0.14674182 -0.17335257 -0.13511996 -0.096483186 0.16522938 0.07153032 0.024374546 0.061020225
-0.16076979 -0.01678687 0.010653177 -0.09699401 -0.14913727 -0.03352513 -0.14334233 0.23570776
-0.026737016 -0.13871478 0.13601924 0.031811446 0.20600724 0.109633364 -0.01796988 0.20640591
-0.19493042 0.13825022 0.17490591 -0.19436787 0.21511528 0.027914992 -0.10763899 -0.20304108
-0.1469733 -0.160535 0.03194295 0.1427474 -0.1714391 0.0993511 -0.13781561 0.1766903
0.1886541 0.13575774 -0.083643794 0.24407077 0.16342264 0.0957782 0.041044146 -0.046689574
0.086805254 -0.21394023 -0.13173346 -0.018912697 0.12941283 -0.18585828 -0.18706617 -0.19895543
-0.17871653 0.20393173 0.17780855 0.088229895 -0.09343847 -0.0834513 -0.10894298 -0.04538394
-0.018470533 -0.046502627 0.20031139 0.18565436 0.12820786 0.009704328 0.1300064 0.18158987
-0.10481205 -0.10755735 0.082180925 0.10057561 -0.19092388 0.014257032 0.026225401 0.1587661
-0.14788081 -0.14075693 -0.0696686 0.16992748 -0.10248043 -0.1738191 0.03212105 0.08624187
0.13586815 -0.18933672 -0.19992824 -0.18915549 -0.15862195 -0.0079961 0.15988123 0.1753931
-0.119366355 -0.16481814 -0.08055382 -0.19968215 -0.030357726 0.17466526 0.067500114 -0.14787881
0.1596086 0.21008332 -0.17214333 0.22948581 -0.099510945 0.1283692 0.019292612 0.11328039
0.0690016 0.16032003 0.13671872 0.0857257 0.1456926 0.11672667 0.06445336 -0.09503821
0.10418351 0.10480032 -0.03799217 0.12776406 -0.16722119 -0.16007279 -0.17922337 -0.12407505
-0.023719609 -0.041517586 -0.0047792774 0.16851602 -0.08426145 0.031008175 -0.063990094 -0.09785755
0.08629852 0.03543173 0.14965439 -0.17006522 0.08108232 0.19911368 -0.01453299 -0.040252242
0.11852155 0.1599928 -0.14746149 -0.00034585304 0.05761142 0.051641196 0.15494841 -0.18570784
-0.19600116 0.19906889 0.19721779 0.20614196 0.08209557 -0.09457566 0.053737283 0.17631057
0.08232477 -0.036461998 -0.17237426 -0.08906338 -0.1569183 0.11198102 0.0664619 0.040455073
0.10173111 0.19528006 0.13904437 0.085916504 -0.17788818 0.09413732 0.18154816 -0.16246615
0.13175975 0.20568395 -0.121447206 0.1774608 -0.029096538 0.15980603 -0.19616164 -0.100378364
-0.046106067 0.1486206 0.045974042 -0.096357726 -0.100084215 0.13241626 -0.07901995 -0.031805243
-0.059781343 0.028317355 -0.20792222 -0.08501536 0.030142449 -0.20559226 0.2197672 -0.08803441
-0.07866786 0.14817747 -0.19094288 -0.20162883 -0.165484 -0.1502012 -0.1365688 -0.17452762
0.059015993 -0.16018441 -0.1413612 0.04756802 -0.19596107 0.1328197 0.16256464 -0.11723823
-0.024305487 0.1506145 -0.19318719 -0.0968474 0.024314081 -0.21474811 0.16150215 0.18692361
0.10386818 -0.088731304 -0.12091268 0.15690163 -0.019426009 0.07403304 0.17347649 0.21684146
0.032858808 -0.0735932 0.1482999 0.079629235 0.1434323 0.15912974 0.16454178 -0.12073453
0.071157634 0.05486431 0.13301343 -0.044169836 -0.14757366 0.05581971 -0.012849 -0.09961689
00000000: 8778 84bd 71fa 973b 70f3 c7bd 98f8 4b3e
00000010: 0614 0f3d 1bd9 35be b916 fdbc eddf 353c
00000020: 7d43 163e 5683 31be e35c 0abe fa98 c5bd
00000030: e431 293e 7d7e 923d 21ad c73c 58f0 793d
00000040: d6a0 24be 9e84 89bc aa8a 2e3c cca4 c6bd
00000050: 71b7 18be a651 09bd 55c8 12be 605d 713e
00000060: 9607 dbbc 3f0b 0ebe a148 0b3e b84c 023d
00000070: 90f3 523e 7587 e03d 9235 93bc 125c 533e
00000080: d79b 47be 7791 0d3e 891a 333e 5f08 47be
00000090: 2e47 5c3e fbad e43c d571 dcbd 00ea 4fbe
000000a0: 2b80 16be 4963 24be 9cd6 023d 602c 123e
000000b0: bb8d 2fbe 9778 cb3d 891f 0dbe 4dee 343e
000000c0: 8a2e 413e 1404 0b3e 704d abbd b0ed 793e
000000d0: 4458 273e 5c27 c43d e81d 283d 913d 3fbd
000000e0: f4c6 b13d 2613 5bbe 23e5 06be cdee 9abc
000000f0: cc84 043e a251 3ebe 468e 3fbe f9ba 4bbe
00000100: 7701 37be 7bd3 503e 7213 363e e0b1 b43d
00000110: ab5c bfbd 84e8 aabd 7f1d dfbd 83e4 39bd
00000120: 844f 97bc 8a79 3ebd 6e1e 4d3e 2d1c 3e3e
00000130: ec48 033e e7fe 1e3c 6620 053e b2f2 393e
00000140: b3a7 d6bd 0747 dcbd 794e a83d 96fa cd3d
00000150: 8d81 43be 5496 693c a7d6 d63c 9593 223e
00000160: 116e 17be 9622 10be 69ae 8ebd 7801 2e3e
00000170: 42e1 d1bd a2fd 31be 5d91 033d 949f b03d
00000180: 0521 0b3e 7ce1 41be fdb9 4cbe fab1 41be
00000190: cb6d 22be 1302 03bc e8b7 233e 409a 333e
000001a0: 5976 f4bd 16c6 28be 67f9 a4bd 7a79 4cbe
000001b0: c4b0 f8bc 73db 323e 803d 8a3d 8b6d 17be
000001c0: 7070 233e 1520 573e 5746 30be 54fe 6a3e
000001d0: 65cc cbbd 3773 033e 8a0b 9e3c 8dff e73d
000001e0: b650 8d3d ef2a 243e feff 0b3e f590 af3d
000001f0: 7130 153e 640e ef3d 2000 843d 65a3 c2bd
00000200: 2a5e d53d 8da1 d63d ad9d 1bbd 95d4 023e
00000210: 083c 2bbe 1fea 23be 5586 37be 0f1b febd
00000220: a04f c2bc 580e 2abd 7c9b 9cbb 778f 2c3e
00000230: 4491 acbd db04 fe3c 3d0d 83bd 8a69 c8bd
00000240: 47bd b03d dd20 113d 003f 193e 9425 2ebe
00000250: 7d0e a63d 75e4 4b3e c71b 6ebc 89df 24bd
00000260: 6dbb f23d 27d5 233e 2500 17be 9c53 b5b9
00000270: f4f9 6b3d b885 533d ccaa 1e3e 322a 3ebe
00000280: 87b4 48be b7d8 4b3e 76f3 493e e116 533e
00000290: b921 a83d e2b0 c1bd a01b 5c3d c28a 343e
000002a0: e499 a83d 2d59 15bd e182 30be dd66 b6bd
000002b0: 31af 20be 4e56 e53d 2d1d 883d 38b4 253d
000002c0: 6658 d03d 7ff7 473e a661 0e3e fef4 af3d
000002d0: 5228 36be 11cb c03d c3e7 393e 875d 26be
000002e0: 07ec 063e d09e 523e 50b9 f8bd 49b8 353e
000002f0: dd5b eebc 31a4 233e 99de 48be 2c93 cdbd
00000300: b7d9 3cbd 0030 183e 474f 3c3d 3357 c5bd
00000310: f4f8 ccbd 2198 073e 36d5 a1bd 3746 02bd
00000320: 48dd 74bd ccf9 e73c 90e9 54be 881c aebd
00000330: 4ced f63c c786 52be a70a 613e 624b b4bd
00000340: 9d1c a1bd d6bb 173e 8886 43be ca77 4ebe
00000350: a374 29be 58ce 19be b1d8 0bbe 5eb7 32be
00000360: c1ba 713d 6207 24be fec0 10be afd6 423d
00000370: 05aa 48be e301 083e 5877 263e 991a f0bd
00000380: 4d1c c7bc b03a 1a3e ddd2 45be ee57 c6bd
00000390: 532e c73c eee6 5bbe d260 253e e768 3f3e
000003a0: d7b8 d43d c2b8 b5bd 11a1 f7bd d2aa 203e
000003b0: 4b23 9fbc a29e 973d d2a3 313e b00b 5e3e
000003c0: f596 063d 08b8 96bd eedb 173e a714 a33d
000003d0: ebdf 123e e8f2 223e a47d 283e aa43 f7bd
000003e0: 18bb 913d 66b9 603d ac34 083e 6eeb 34bd
000003f0: 8d1d 17be 35a3 643d 9d84 52bc f103 ccbd

sequential/conv2d/Conv2D f4 [4, 3, 3, 1]
0.017616313 0.01482302 0.0010034982 -0.00999672 0.01191009 -0.0017924942 -0.00034978814 -0.015816519
-0.010023873 -0.0036162357 -0.004425128 -0.0003526952 0.0033993663 -0.004149188 0.011979525 0.013088847
-0.0022413642 0.0066535096 -0.0021219829 -0.0010185586 -0.0031693901 -0.0023672245 -0.0045942725 -0.004869058
-0.0056780786 -7.324306e-06 0.0021972575 0.0073725153 0.0103597455 0.008684403 -0.005475731 -0.006223777
0.005096353 0.0054589203 0.0035829428 -0.008527482
00000000: 1650 903c 41dc 723c d087 833a 48c9 23bc
00000010: 8a22 433c 20f2 eaba c563 b7b9 a591 81bc
00000020: 2c3b 24bc 5efe 6cbb aa00 91bb f3e9 b8b9
00000030: e7c7 5e3b e9f5 87bb c545 443c 9a72 563c
00000040: dae3 12bb af05 da3b f710 0bbb 2881 85ba
00000050: 8bb5 4fbb 7023 1bbb 8d8b 96bb 9e8c 9fbb
00000060: 2d0f babb 4fc3 f5b6 ddff 0f3b 2495 f13b
00000070: ecbb 293c 0749 0e3c c36d b3bb d3f0 cbbb
00000080: 4fff a63b bee0 b23b cecf 6a3b dab6 0bbc

sequential/conv2d_1/Conv2D f4 [16, 1, 1, 4]
-0.9323241 -0.95720357 -0.93038327 0.2765194 0.16888794 -1.2172037 0.22948755 1.1142296
-0.94644725 -1.3097678 0.3631743 -0.30628568 0.67087746 0.786858 -0.55002004 0.70249623
0.79948276 1.09503 0.8507884 0.7247548 -1.1027656 -0.23003648 -0.22209448 0.5430687
0.5491674 0.044525895 -1.2011523 -0.034690976 0.06240578 -0.016405545 -1.252267 -0.08086604
-0.20459144 -0.075757295 0.7177879 -1.0150629 -0.8080797 0.37755835 0.55270535 -0.37354743
0.5644398 0.29715928 -0.7181867 0.5370565 0.88559574 -0.07893625 -0.5390895 0.2398573
-0.51028025 0.015020307 -1.2869469 -0.5586168 -0.7763678 -0.07513714 0.9501756 0.19949114
0.96710044 -0.076669306 1.1125127 0.48997122 -0.61554354 0.24913397 0.5805173 -0.7222153
00000000: cbac 6ebf 4b0b 75bf 992d 6ebf f393 8d3e
00000010: f6f0 2c3e 55cd 9bbf c9fe 6a3e 139f 8e3f
00000020: 5e4a 72bf 79a6 a7bf fbf1 b93e 7ad1 9cbe
00000030: a0be 2b3f 876f 493f 1dce 0cbf cbd6 333f
00000040: e7aa 4c3f f129 8c3f 45cd 593f 8889 393f
00000050: 6c27 8dbf af8e 6bbe bc6c 63be 8d06 0b3f
00000060: 3c96 0c3f c960 363d 5cbf 99bf 2018 0ebd
00000070: 349d 7f3d ec64 86bc 494a a0bf 189d a5bd
00000080: 6b80 51be a426 9bbd f3c0 373f 95ed 81bf
00000090: 50de 4ebf 544f c13e 197e 0d3f 9c41 bfbe
000000a0: 207f 103f 4325 983e 15db 37bf 897c 093f
000000b0: 67b6 623f 54a9 a1bd c501 0abf 279d 753e
000000c0: baa1 02bf bc17 763c adba a4bf 8301 0fbf
000000d0: 0ac0 46bf 80e1 99bd b53e 733f 6847 4c3e
000000e0: e593 773f cc04 9dbd d166 8e3f 82dd fa3e
000000f0: 4394 1dbf fa1c 7f3e c89c 143f 1ae3 38bf

sequential/conv2d_2/Conv2D f4 [32, 1, 1, 16]
-0.15742958 0.24294753 -0.3960854 -0.13706398 0.13024175 -0.18922374 0.65782714 0.27921468
-0.40479293 0.23037294 0.45647034 -0.051386837 0.3698741 0.24311216 0.41703567 0.01527663
-0.34963158 0.15596816 0.32557106 -0.74585634 -0.09645292 -0.1957732 0.3695914 0.10103444
0.38779622 -0.31887376 -0.36321545 -0.431328 -0.024097044 -0.56248045 0.63939863 -0.5003463
0.20082909 -0.4039224 0.35315967 -0.598222 -0.42567998 -0.035407696 -0.5102241 -0.29460132
-0.252718 -0.6331038 -0.3787486 0.3897487 0.6188996 0.52722776 0.6220881 0.3716121
-0.21450353 -0.48483694 -0.35404924 0.6246327 0.061887566 -0.19478846 -0.29801124 0.06025409
0.50567293 -0.44528353 -0.45468366 0.38749424 -0.15556876 0.3872717 -0.5678343 -0.07030492
-0.0039657466 -0.28616288 0.30718777 -0.5909319 0.51133394 0.63774 -0.037316334 -0.6311364
-0.2222904 -0.30528012 -0.2573136 -0.5022441 0.32900307 0.26316965 0.025071071 -0.1571863
0.2715613 0.42093405 0.07636471 -0.15850796 -0.2013981 -0.103904136 0.38803598 -0.34925884
0.20903552 -0.31042868 0.3675271 0.42100343 -0.35985315 -0.15129858 -0.13877599 -0.3308182
0.047472045 -0.2780177 0.48162267 -0.00035800843 -0.6274214 0.60216016 -0.6447488 0.29343572
0.41290992 -0.1485752 -0.23698364 0.5798099 -0.1600502 -0.1293775 0.24518622 0.4929698
-0.29328448 -0.20409684 -0.17484021 0.5113978 -0.18989962 0.5446705 -0.4448404 -0.16509105
0.39560035 0.16718598 0.1427085 0.21607083 -0.3175141 0.24915926 -0.5744592 0.028115224
0.69299364 0.46490318 -0.3578395 -0.45121667 -0.60417056 0.6679095 -0.31743366 -0.18542379
-0.43445858 -0.07730773 0.26388457 0.13912146 0.11654501 0.26807782 0.095690824 0.30329344
0.41292208 0.47426045 0.07220924 0.5533081 -0.17044812 -0.3028213 0.08887387 -0.36214814
-0.18016927 0.45845246 -0.2255988 -0.41550174 0.7299251 0.1578933 0.9483245 0.4003924
-0.39610478 -0.09124264 0.46964666 -0.09878802 -0.3883065 -0.7741986 0.278395 0.15038967
-0.7467175 -0.21428564 -0.07416377 0.06455597 0.031755622 0.56133515 -0.26148012 0.8101558
0.08165169 0.21235457 -0.00049014046 -0.04710745 0.40942124 -0.15472507 -0.4377299 0.29848754
0.38429758 0.06300501 0.16268034 -0.3757533 0.47763115 0.12227389 -0.3413798 -0.104294285
0.1750626 0.42732826 -0.20284632 -0.09784075 0.2620939 -0.10900086 0.1501884 -0.2775075
-0.14357409 -0.5001425 0.07354042 -0.48022333 0.49137408 0.24918652 -0.17882553 -0.16355683
0.5081982 0.03802359 0.08998234 0.5394213 0.35467046 -0.37185454 -0.21495415 0.43494466
0.73087204 0.545084 -0.33604562 0.36708507 -0.32239342 0.047511127 0.20687054 -0.3593978
0.123352155 -0.22323003 0.508223 -0.10902024 0.43428594 0.37173775 -0.48575684 0.19094917
0.5489744 0.5392974 -0.37010366 0.48593518 0.25220254 -0.28166062 -0.34959322 -0.4017989
-0.2534908 -0.7223142 0.36451876 0.43907693 -0.6484467 0.4214266 0.1733615 0.056108754
0.31444293 -0.06294412 0.42177844 -0.7368515 -0.6200406 -0.55150205 0.62341684 -0.5971902
00000000: 3835 21be 3dc7 783e b5cb cabe 805a 0cbe
00000010: 185e 053e dec3 41be 5c67 283f 3af5 8e3e
00000020: 0541 cfbe e2e6 6b3e 7bb6 e93e 017b 52bd
00000030: 2360 bd3e 65f2 783e b385 d53e d54a 7a3c
00000040: e902 b3be 1eb6 1f3e 40b1 a63e 71f0 3ebf
00000050: 1c89 c5bd c578 48be 153b bd3e 25eb ce3d
00000060: 3a8d c63e 6c43 a3be 60f7 b9be 06d7 dcbe
00000070: 2a67 c5bc b8fe 0fbf a1af 233f b216 00bf
00000080: 24a6 4d3e ebce cebe 58d1 b43e 1425 19bf
00000090: baf2 d9be a907 11bd 0c9e 02bf fcd5 96be
000000a0: 4164 81be 1713 22bf 56eb c1be 248d c73e
000000b0: 3470 1e3f 66f8 063f 2a41 1f3f f143 be3e
000000c0: d0a6 5bbe 8c3c f8be f145 b5be eee7 1f3f
000000d0: d17d 7d3d a076 47be ee94 98be fecc 763d
000000e0: c873 013f 34fc e3be 4ccc e8be a565 c63e
000000f0: 6b4d 1fbe 7a48 c63e 975d 11bf 07fc 8fbd
00000100: 18f3 81bb f183 92be b747 9d3e 5047 17bf
00000110: c8e6 023f ee42 233f 03d9 18bd 2892 21bf
00000120: 18a0 63be ad4d 9cbe 9cbe 83be 1293 00bf
00000130: 1773 a83e 2cbe 863e d961 cd3c 72f5 20be
00000140: 150a 8b3e ab84 d73e 1a65 9c3d e94f 22be
00000150: 4e3b 4ebe b1cb d4bd a7ac c63e 0ed2 b2be
00000160: 680d 563e 82f0 9ebe 832c bc3e c38d d73e
00000170: ac3e b8be 04ee 1abe 4b1b 0ebe 0161 a9be
00000180: 0c72 423d 5658 8ebe 3f97 f63e 14b3 bbb9
00000190: b09e 20bf 2b27 1a3f 420e 25bf 353d 963e
000001a0: ee68 d33e 1924 18be d7ab 72be 6c6e 143f
000001b0: 33e4 23be 897b 04be 1912 7b3e 8a66 fc3e
000001c0: 6229 96be c3fe 50be 5009 33be f7ea 023f
000001d0: 0c75 42be 876f 0b3f 1fc2 e3be a10d 29be
000001e0: 218c ca3e cd32 2b3e 2d22 123e ac41 5d3e
000001f0: 3591 a2be 9b23 7f3e c20f 13bf e651 e63c
00000200: 0868 313f ca07 ee3e bd36 b7be df05 e7be
00000210: ecaa 1abf 1efc 2a3f aa86 a2be bcdf 3dbe
00000220: 5b71 debe 8453 9ebd e11b 873e db75 0e3e
00000230: 26af ee3d 7f41 893e 8df9 c33d 4749 9b3e
00000240: 866a d33e 44d2 f23e 70e2 933d 9aa5 0d3f
00000250: f489 2ebe 650b 9bbe 8103 b63d 7b6b b9be
00000260: 4b7e 38be 48ba ea3e 5f03 67be a5bc d4be
00000270: 5fdc 3a3f c8ae 213e 65c5 723f 3c00 cd3e
00000280: 3fce cabe 6cdd babd 8775 f03e 6051 cabd
00000290: 1cd0 c6be e131 46bf ca89 8e3e c0ff 193e
000002a0: e128 3fbf b26d 5bbe 2de3 97bd ec35 843d
000002b0: 2f12 023d a9b3 0f3f b9e0 85be 5f66 4f3f
000002c0: 0039 a73d 7a73 593e c57c 00ba bef3 40bd
000002d0: a99f d13e 4070 1ebe 221e e0be 5cd3 983e
000002e0: a7c2 c43e c508 813d ad95 263e bd62 c0be
000002f0: 128c f43e bc6a fa3d 55c9 aebe 3e98 d5bd
00000300: 9c43 333e c5ca da3e f2b6 4fbe bb60 c8bd
00000310: 2c31 863e d83b dfbd fdca 193e 7715 8ebe
00000320: 1605 13be 5709 00bf 5c9c 963d d5df f5be
00000330: 6295 fb3e c02a 7f3e 0a1e 37be 717b 27be
00000340: 4719 023f a0be 1b3d a948 b83d 8417 0a3f
00000350: 5e97 b53e b863 bebe f11c 5cbe 11b1 de3e
00000360: 6e1a 3b3f a08a 0b3f 2c0e acbe 93f2 bb3e
00000370: c010 a5be 079b 423d dfd5 533e fd02 b8be
00000380: 0ea0 fc3d 6a96 64be e71a 023f 0146 dfbd
00000390: ba5a de3e 6954 be3e 1fb5 f8be 2e88 433e
000003a0: 9689 0c3f 650f 0a3f 3a7e bdbe 7fcc f83e
000003b0: b120 813e d235 90be e2fd b2be 96b8 cdbe
000003c0: 8cc9 81be 95e9 38bf 34a2 ba3e b1ce e03e
000003d0: 9a00 26bf 3ac5 d73e ad85 313e 4bd2 653d
000003e0: aafe a03e d9e8 80bd 58f3 d73e 4da2 3cbf
000003f0: fbba 1ebf 3d2f 0dbf 3f98 1f3f 75e1 18bf
