MobileNet/mobilenet_v1_32_25/model_quant_32_25.tflite (tflite, 535616 bytes, 31 tensors)

model_13/dense_46/MatMul i1 [512, 256] scale=0.0015859301 zero_point=0
000000 f0 42 d0 1d dd 15 35 4f 59 f4 0a 44 4b ab ca 47
       -0.025374882 0.10467139 -0.076124646 0.045991972 -0.055507556 0.03330453 0.0840543 0.12528849 0.14114778 -0.019031161 0.015859302 0.10784325 0.11894476 -0.13480406 -0.08564023 0.11260104
000010 67 14 2d f2 c9 f4 1d ca 2e 36 ed 19 17 02 ba e8
       0.1633508 0.031718604 0.071366854 -0.02220302 -0.08722616 -0.019031161 0.045991972 -0.08564023 0.072952785 0.08564023 -0.030132672 0.039648253 0.036476392 0.0031718602 -0.11101511 -0.038062323
000020 d9 10 2e f3 08 11 b7 6e fe 36 2f 60 fb f7 2d 19
       -0.061851274 0.025374882 0.072952785 -0.020617092 0.012687441 0.026960813 -0.115772896 0.17445232 -0.0031718602 0.08564023 0.074538715 0.15224929 -0.007929651 -0.014273372 0.071366854 0.039648253
000030 fa f0 3b 1a eb f0 1a f7 1b f1 0a c2 f7 56 f0 c3
       -0.009515581 -0.025374882 0.093569875 0.041234184 -0.03330453 -0.025374882 0.041234184 -0.014273372 0.042820115 -0.023788951 0.015859302 -0.09832767 -0.014273372 0.13638999 -0.025374882 -0.096741736
000040 21 f9 db d4 df 1e c7 ef 1a 00 da 15 fc 18 26 28
       0.052335694 -0.01110151 -0.058679413 -0.06978092 -0.052335694 0.047577903 -0.09039801 -0.026960813 0.041234184 0.0 -0.060265344 0.03330453 -0.0063437205 0.038062323 0.060265344 0.06343721
000050 e6 ec 27 bd 12 38 27 f5 f3 4e 01 20 05 2e cf dd
       -0.041234184 -0.031718604 0.061851274 -0.10625732 0.028546743 0.08881208 0.061851274 -0.01744523 -0.020617092 0.12370255 0.0015859301 0.050749764 0.007929651 0.072952785 -0.07771058 -0.055507556
000060 09 46 1b e5 26 26 f6 4e e8 f0 32 38 c9 2a 41 c5
       0.014273372 0.11101511 0.042820115 -0.042820115 0.060265344 0.060265344 -0.015859302 0.12370255 -0.038062323 -0.025374882 0.07929651 0.08881208 -0.08722616 0.06660906 0.10308546 -0.093569875
000070 bf 09 e5 30 5a f7 4d 03 0b 46 1e ec f1 28 01 0a
       -0.10308546 0.014273372 -0.042820115 0.076124646 0.14273371 -0.014273372 0.12211662 0.0047577904 0.01744523 0.11101511 0.047577903 -0.031718604 -0.023788951 0.06343721 0.0015859301 0.015859302
000080 22 f8 3d fd c8 2c 1c 0b 0b 13 5d 3c e7 d9 1c e5
       0.053921625 -0.012687441 0.096741736 -0.0047577904 -0.08881208 0.06978092 0.04440604 0.01744523 0.01744523 0.030132672 0.1474915 0.095155805 -0.039648253 -0.061851274 0.04440604 -0.042820115
000090 19 ee 50 1f 36 f5 c9 1e 57 0f 0b 1b 39 25 35 34
       0.039648253 -0.028546743 0.12687442 0.049163833 0.08564023 -0.01744523 -0.08722616 0.047577903 0.13797592 0.023788951 0.01744523 0.042820115 0.09039801 0.058679413 0.0840543 0.08246837
0000a0 f3 da 08 fc 51 04 f5 f4 26 40 33 37 e7 1a 01 09
       -0.020617092 -0.060265344 0.012687441 -0.0063437205 0.12846033 0.0063437205 -0.01744523 -0.019031161 0.060265344 0.10149953 0.08088244 0.08722616 -0.039648253 0.041234184 0.0015859301 0.014273372
0000b0 21 47 0c 2a 05 10 32 37 fe f8 1c 48 42 16 1d be
       0.052335694 0.11260104 0.019031161 0.06660906 0.007929651 0.025374882 0.07929651 0.08722616 -0.0031718602 -0.012687441 0.04440604 0.11418697 0.10467139 0.03489046 0.045991972 -0.10467139
0000c0 22 0e 0e 03 06 e9 21 e1 23 e6 ee 35 0b e6 eb 64
       0.053921625 0.02220302 0.02220302 0.0047577904 0.009515581 -0.036476392 0.052335694 -0.049163833 0.055507556 -0.041234184 -0.028546743 0.0840543 0.01744523 -0.041234184 -0.03330453 0.15859301
0000d0 08 43 04 25 f0 f5 d6 f3 19 ff fe 1b f0 c3 2c 3c
       0.012687441 0.10625732 0.0063437205 0.058679413 -0.025374882 -0.01744523 -0.06660906 -0.020617092 0.039648253 -0.0015859301 -0.0031718602 0.042820115 -0.025374882 -0.096741736 0.06978092 0.095155805
0000e0 05 20 19 25 42 e9 20 20 0a 3e 2a 50 c5 d1 25 5b
       0.007929651 0.050749764 0.039648253 0.058679413 0.10467139 -0.036476392 0.050749764 0.050749764 0.015859302 0.09832767 0.06660906 0.12687442 -0.093569875 -0.074538715 0.058679413 0.14431964
0000f0 f2 06 fc e2 cf 06 f6 05 27 f0 e8 ec ed 59 ea c5
       -0.02220302 0.009515581 -0.0063437205 -0.047577903 -0.07771058 0.009515581 -0.015859302 0.007929651 0.061851274 -0.025374882 -0.038062323 -0.031718604 -0.030132672 0.14114778 -0.03489046 -0.093569875

model_13/dense_47/MatMul i1 [128, 512] scale=0.0014817073 zero_point=0
000000 fa e1 26 df 16 09 bd 34 e2 c0 d6 23 f9 f2 f7 f9
       -0.008890244 -0.045932926 0.05630488 -0.048896343 0.03259756 0.013335366 -0.09927439 0.07704878 -0.044451218 -0.09482927 -0.06223171 0.051859755 -0.010371951 -0.020743903 -0.013335366 -0.010371951
000010 fd e8 0e cc ca ea 09 08 36 c4 c6 e1 29 36 3b cc
       -0.004445122 -0.035560977 0.020743903 -0.07704878 -0.080012195 -0.03259756 0.013335366 0.011853659 0.080012195 -0.088902436 -0.08593903 -0.045932926 0.06075 0.080012195 0.08742073 -0.07704878
000020 31 ed 25 c1 1a c3 18 cb da 10 20 be f1 c4 22 38
       0.07260366 -0.02815244 0.05482317 -0.093347564 0.03852439 -0.09038415 0.035560977 -0.07853049 -0.05630488 0.023707317 0.047414634 -0.097792685 -0.022225609 -0.088902436 0.05037805 0.08297561
000030 b9 c8 32 e3 e5 f5 28 da 1e e5 2b ca 12 28 b7 d8
       -0.10520122 -0.08297561 0.07408537 -0.042969514 -0.040006097 -0.01629878 0.059268292 -0.05630488 0.044451218 -0.040006097 0.06371342 -0.080012195 0.026670732 0.059268292 -0.10816464 -0.059268292
000040 16 15 bc f9 28 05 de dd 16 20 27 e3 28 28 19 26
       0.03259756 0.031115854 -0.1007561 -0.010371951 0.059268292 0.0074085365 -0.05037805 -0.051859755 0.03259756 0.047414634 0.057786584 -0.042969514 0.059268292 0.059268292 0.037042685 0.05630488
000050 fe 36 11 bc 27 c9 f8 c7 e9 c2 be f9 0f c4 ce f4
       -0.0029634146 0.080012195 0.025189025 -0.1007561 0.057786584 -0.0814939 -0.011853659 -0.084457316 -0.03407927 -0.09186585 -0.097792685 -0.010371951 0.022225609 -0.088902436 -0.07408537 -0.017780488
000060 de 38 f2 3d 0e d7 01 3a dd cf 37 f4 bf e2 32 c0
       -0.05037805 0.08297561 -0.020743903 0.09038415 0.020743903 -0.06075 0.0014817073 0.08593903 -0.051859755 -0.07260366 0.0814939 -0.017780488 -0.09631097 -0.044451218 0.07408537 -0.09482927
000070 c7 d8 ef 1f d3 03 c6 2d cb 04 fb c2 d5 c9 e6 06
       -0.084457316 -0.059268292 -0.025189025 0.045932926 -0.06667683 0.004445122 -0.08593903 0.06667683 -0.07853049 0.0059268293 -0.0074085365 -0.09186585 -0.06371342 -0.0814939 -0.03852439 0.008890244
000080 0a db b9 12 1c e0 f5 20 30 c9 c3 23 fa ef 06 da
       0.014817073 -0.05482317 -0.10520122 0.026670732 0.041487806 -0.047414634 -0.01629878 0.047414634 0.07112195 -0.0814939 -0.09038415 0.051859755 -0.008890244 -0.025189025 0.008890244 -0.05630488
000090 fa 2e f5 c2 19 e1 c1 1d ef 01 c1 ea 02 cd c4 04
       -0.008890244 0.06815854 -0.01629878 -0.09186585 0.037042685 -0.045932926 -0.093347564 0.042969514 -0.025189025 0.0014817073 -0.093347564 -0.03259756 0.0029634146 -0.075567074 -0.088902436 0.0059268293
0000a0 ec e2 0a d4 e3 30 ee 11 be c1 d0 e8 cd 08 e7 2e
       -0.029634146 -0.044451218 0.014817073 -0.06519512 -0.042969514 0.07112195 -0.026670732 0.025189025 -0.097792685 -0.093347564 -0.07112195 -0.035560977 -0.075567074 0.011853659 -0.037042685 0.06815854
0000b0 0a 04 10 c2 f9 ec 2f c1 da 24 04 19 2a 20 c9 0d
       0.014817073 0.0059268293 0.023707317 -0.09186585 -0.010371951 -0.029634146 0.06964024 -0.093347564 -0.05630488 0.053341463 0.0059268293 0.037042685 0.06223171 0.047414634 -0.0814939 0.019262195
0000c0 32 d0 37 e8 02 0b 2a c0 be 25 31 c2 09 d3 d7 e9
       0.07408537 -0.07112195 0.0814939 -0.035560977 0.0029634146 0.01629878 0.06223171 -0.09482927 -0.097792685 0.05482317 0.07260366 -0.09186585 0.013335366 -0.06667683 -0.06075 -0.03407927
0000d0 bb c7 c0 39 ec c8 fe 15 c2 2a 20 f1 dd 10 02 26
       -0.102237806 -0.084457316 -0.09482927 0.084457316 -0.029634146 -0.08297561 -0.0029634146 0.031115854 -0.09186585 0.06223171 0.047414634 -0.022225609 -0.051859755 0.023707317 0.0029634146 0.05630488
0000e0 f7 05 e2 0e 04 e3 26 fa bf 12 11 f8 ef f1 25 d4
       -0.013335366 0.0074085365 -0.044451218 0.020743903 0.0059268293 -0.042969514 0.05630488 -0.008890244 -0.09631097 0.026670732 0.025189025 -0.011853659 -0.025189025 -0.022225609 0.05482317 -0.06519512
0000f0 0f d4 fa 32 0a df c5 d0 36 e4 2c e2 eb c0 35 0b
       0.022225609 -0.06519512 -0.008890244 0.07408537 0.014817073 -0.048896343 -0.08742073 -0.07112195 0.080012195 -0.041487806 0.06519512 -0.044451218 -0.031115854 -0.09482927 0.07853049 0.01629878

model_13/dense_48/MatMul i1 [64, 128] scale=0.0017952932 zero_point=0
000000 a0 e3 16 f0 9f 2a 55 f7 da fd 2e 33 e0 cf c3 b8
       -0.17234814 -0.052063502 0.03949645 -0.02872469 -0.17414343 0.07540231 0.15259992 -0.016157638 -0.068221144 -0.0053858794 0.08258349 0.091559954 -0.05744938 -0.08796936 -0.10951288 -0.1292611
000010 3c 29 1e f4 59 03 9a 41 b7 27 a3 d3 e4 58 10 f1
       0.10771759 0.07360702 0.053858794 -0.021543518 0.1597811 0.0053858794 -0.18311991 0.116694055 -0.1310564 0.07001644 -0.16696227 -0.080788195 -0.05026821 0.1579858 0.02872469 -0.026929397
000020 3b a9 ff 26 e6 23 18 9e fd 4b 00 13 2a e2 b8 9b
       0.1059223 -0.1561905 -0.0017952932 0.068221144 -0.046677623 0.06283526 0.043087035 -0.17593873 -0.0053858794 0.13464698 0.0 0.034110572 0.07540231 -0.053858794 -0.1292611 -0.18132462
000030 9d f8 ab d5 3b a7 4b 19 a7 ea e1 dd d0 ae 23 fe
       -0.17773403 -0.014362345 -0.15259992 -0.077197604 0.1059223 -0.1597811 0.13464698 0.04488233 -0.1597811 -0.03949645 -0.05565409 -0.06283526 -0.08617407 -0.14721404 0.06283526 -0.0035905864
000040 ae 41 ba cb 04 4a d3 04 28 0b c1 c2 4d 47 2a d9
       -0.14721404 0.116694055 -0.12567052 -0.09515054 0.0071811727 0.13285169 -0.080788195 0.0071811727 0.07181173 0.019748226 -0.11310347 -0.11130818 0.13823758 0.12746581 0.07540231 -0.07001644
000050 17 d9 9f c5 3f 42 b8 b0 e9 0b 52 ef 24 e3 0f 18
       0.041291744 -0.07001644 -0.17414343 -0.1059223 0.11310347 0.11848935 -0.1292611 -0.14362346 -0.041291744 0.019748226 0.14721404 -0.030519985 0.06463055 -0.052063502 0.026929397 0.043087035
000060 58 56 a9 a3 05 a9 2a c6 e7 47 d3 46 ce cc c1 dc
       0.1579858 0.15439521 -0.1561905 -0.16696227 0.008976466 -0.1561905 0.07540231 -0.104127005 -0.04488233 0.12746581 -0.080788195 0.12567052 -0.08976466 -0.093355246 -0.11310347 -0.06463055
000070 b2 44 c8 33 3b 1e f3 38 08 c5 e8 2e ae b8 c7 4e
       -0.14003287 0.12207994 -0.10053642 0.091559954 0.1059223 0.053858794 -0.023338811 0.10053642 0.014362345 -0.1059223 -0.043087035 0.08258349 -0.14721404 -0.1292611 -0.10233171 0.14003287
000080 40 ee 49 1f a3 ec 9d 51 18 19 f7 32 d1 fe fd 23
       0.11489876 -0.032315277 0.1310564 0.05565409 -0.16696227 -0.035905864 -0.17773403 0.14541875 0.043087035 0.04488233 -0.016157638 0.08976466 -0.08437878 -0.0035905864 -0.0053858794 0.06283526
000090 b6 39 19 22 3b bf b0 d4 3c af ee 09 4b 4e c3 17
       -0.13285169 0.10233171 0.04488233 0.06103997 0.1059223 -0.116694055 -0.14362346 -0.0789929 0.10771759 -0.14541875 -0.032315277 0.016157638 0.13464698 0.14003287 -0.10951288 0.041291744
0000a0 5c bf e7 3b 59 e2 c5 d2 a4 1f 23 e4 f5 ef 4d 4a
       0.16516697 -0.116694055 -0.04488233 0.1059223 0.1597811 -0.053858794 -0.1059223 -0.08258349 -0.16516697 0.05565409 0.06283526 -0.05026821 -0.019748226 -0.030519985 0.13823758 0.13285169
0000b0 db c9 be c4 37 36 b4 d8 ae 51 e3 01 60 06 52 e3
       -0.066425845 -0.09874112 -0.11848935 -0.10771759 0.09874112 0.09694583 -0.13644229 -0.07181173 -0.14721404 0.14541875 -0.052063502 0.0017952932 0.17234814 0.010771759 0.14721404 -0.052063502
0000c0 f6 28 d8 55 ee ff 65 ce 1a ae ba bb 06 cf 18 22
       -0.017952932 0.07181173 -0.07181173 0.15259992 -0.032315277 -0.0017952932 0.18132462 -0.08976466 0.046677623 -0.14721404 -0.12567052 -0.12387523 0.010771759 -0.08796936 0.043087035 0.06103997
0000d0 ca d6 b2 5d c3 1a da 34 02 b6 29 c6 0d d7 f9 e4
       -0.09694583 -0.07540231 -0.14003287 0.16696227 -0.10951288 0.046677623 -0.068221144 0.093355246 0.0035905864 -0.13285169 0.07360702 -0.104127005 0.023338811 -0.07360702 -0.012567053 -0.05026821
0000e0 04 e1 16 49 ce cf e6 18 68 4a b7 0f ad e9 28 d6
       0.0071811727 -0.05565409 0.03949645 0.1310564 -0.08976466 -0.08796936 -0.046677623 0.043087035 0.18671049 0.13285169 -0.1310564 0.026929397 -0.14900933 -0.041291744 0.07181173 -0.07540231
0000f0 4d d0 bb fe 49 a6 56 c0 e1 a6 d8 41 b3 dc d7 0c
       0.13823758 -0.08617407 -0.12387523 -0.0035905864 0.1310564 -0.16157639 0.15439521 -0.11489876 -0.05565409 -0.16157639 -0.07181173 0.116694055 -0.13823758 -0.06463055 -0.07360702 0.021543518

model_13/dense_49/MatMul i1 [2, 64] scale=0.0022492157 zero_point=0
000000 a8 63 ec cf b6 40 23 bf 07 02 ff 74 55 f5 b1 57
       -0.19793099 0.22267236 -0.044984315 -0.11021157 -0.16644196 0.1439498 0.07872255 -0.14619902 0.015744511 0.0044984315 -0.0022492157 0.26090902 0.19118334 -0.024741374 -0.17768805 0.19568177
000010 66 bb ec 43 50 2e fa db 0a 4b 4f d8 2d a9 56 5e
       0.22942 -0.15519589 -0.044984315 0.15069745 0.17993726 0.103463925 -0.013495294 -0.08322098 0.022492157 0.16869117 0.17768805 -0.08996863 0.10121471 -0.19568177 0.19343255 0.21142627
000020 55 ab bd c9 a6 1a b6 5b 2c eb e1 2d 40 95 d6 cb
       0.19118334 -0.19118334 -0.15069745 -0.12370686 -0.20242941 0.058479607 -0.16644196 0.20467862 0.098965496 -0.04723353 -0.069725685 0.10121471 0.1439498 -0.24066608 -0.09446706 -0.11920843
000030 c3 a9 df 79 7b 39 16 7b b8 dc 55 c1 48 dd 75 06
       -0.13720216 -0.19568177 -0.07422412 0.2721551 0.27665353 0.1282053 0.049482748 0.27665353 -0.16194353 -0.08097176 0.19118334 -0.1417006 0.16194353 -0.07872255 0.26315823 0.013495294
000040 31 c8 b1 11 f6 45 c8 56 b4 ad 99 1a 71 cc af db
       0.11021157 -0.12595609 -0.17768805 0.038236666 -0.022492157 0.15519589 -0.12595609 0.19343255 -0.1709404 -0.1866849 -0.23166922 0.058479607 0.2541614 -0.116959214 -0.18218647 -0.08322098
000050 66 f6 a9 c3 3c ae 81 2a 44 a7 c5 3f 6c 2a 21 73
       0.22942 -0.022492157 -0.19568177 -0.13720216 0.13495295 -0.1844357 -0.2856504 0.09446706 0.15294667 -0.2001802 -0.13270372 0.1417006 0.2429153 0.09446706 0.07422412 0.2586598
000060 67 d3 0c 72 c1 2a e9 08 b0 a2 5a 4b 15 79 b1 b2
       0.23166922 -0.10121471 0.026990589 0.2564106 -0.1417006 0.09446706 -0.051731963 0.017993726 -0.17993726 -0.21142627 0.20242941 0.16869117 0.04723353 0.2721551 -0.17768805 -0.17543882
000070 2a b0 2a bc 11 7c 9f 4e b9 d4 9a 20 05 f7 88 f6
       0.09446706 -0.17993726 0.09446706 -0.15294667 0.038236666 0.27890274 -0.21817392 0.17543882 -0.15969431 -0.098965496 -0.22942 0.0719749 0.011246079 -0.02024294 -0.2699059 -0.022492157

model_13/conv1/Conv2D i1 [8, 3, 3, 3]
000000 40 fe b4 41 07 ab 19 0a cb 58 03 99 6f 01 81 4b
       64 -2 -76 65 7 -85 25 10 -53 88 3 -103 111 1 -127 75
000010 fc a7 31 fd c4 4f f5 aa 3e ee bc c6 c3 de 98 81
       -4 -89 49 -3 -60 79 -11 -86 62 -18 -68 -58 -61 -34 -104 -127
000020 ce c3 cb e4 fe 0c fc 03 16 03 06 0f 04 0e 11 09
       -50 -61 -53 -28 -2 12 -4 3 22 3 6 15 4 14 17 9
000030 14 1a 0e 12 0f 0f 89 8c 81 89 8e 81 a3 a8 a2 8d
       20 26 14 18 15 15 -119 -116 -127 -119 -114 -127 -93 -88 -94 -115
000040 90 84 8c 8f 83 a5 aa a4 9b 9e 92 99 9e 91 ae b4
       -112 -124 -116 -113 -125 -91 -86 -92 -101 -98 -110 -103 -98 -111 -82 -76
000050 ac 00 00 00 00 00 00 00 00 00 00 00 00 00 00 00
       -84 0 0 0 0 0 0 0 0 0 0 0 0 0 0 0
000060 00 00 00 00 00 00 00 00 00 00 00 00 f2 fa 0a ea
       0 0 0 0 0 0 0 0 0 0 0 0 -14 -6 10 -22
000070 ed 05 ef f8 fe 36 44 28 5e 7f 33 34 39 19 04 03
       -19 5 -17 -8 -2 54 68 40 94 127 51 52 57 25 4 3
000080 09 fc ef 02 fc ff 03 0f 07 fb 2b 20 09 23 44 f3
       9 -4 -17 2 -4 -1 3 15 7 -5 43 32 9 35 68 -13
000090 dd ef 08 b1 cc fb 81 e4 cb 25 0e 04 3d fc 20 2e
       -35 -17 8 -79 -52 -5 -127 -28 -53 37 14 4 61 -4 32 46
0000a0 d8 1d 39 b5 fc 39 a4 17 0f cc 21 6d 94 f0 60 81
       -40 29 57 -75 -4 57 -92 23 15 -52 33 109 -108 -16 96 -127
0000b0 1b 13 bc 31 63 a6 ea 4f 97 10 0f c9 23 00 00 00
       27 19 -68 49 99 -90 -22 79 -105 16 15 -55 35 0 0 0
0000c0 00 00 00 00 00 00 00 00 00 00 00 00 00 00 00 00
       0 0 0 0 0 0 0 0 0 0 0 0 0 0 0 0
0000d0 00 00 00 00 00 00 00 00
       0 0 0 0 0 0 0 0

model_13/conv_pw_1/Conv2D i1 [16, 1, 1, 8]
000000 e5 fe 00 00 02 04 81 00 bf 03 00 00 fe f9 7f 00
       -27 -2 0 0 2 4 -127 0 -65 3 0 0 -2 -7 127 0
000010 7f fd 00 00 03 03 f8 00 00 00 00 00 00 00 00 00
       127 -3 0 0 3 3 -8 0 0 0 0 0 0 0 0 0
000020 00 00 00 00 00 00 00 00 0a 72 00 00 81 f8 f8 00
       0 0 0 0 0 0 0 0 10 114 0 0 -127 -8 -8 0
000030 ff 81 00 00 7f 05 0a 00 fa 81 00 00 fb fb 00 00
       -1 -127 0 0 127 5 10 0 -6 -127 0 0 -5 -5 0 0
000040 00 45 00 00 7f ac fc 00 13 07 00 00 fd ff 7f 00
       0 69 0 0 127 -84 -4 0 19 7 0 0 -3 -1 127 0
000050 81 fe 00 00 03 03 0a 00 49 00 00 00 00 03 81 00
       -127 -2 0 0 3 3 10 0 73 0 0 0 0 3 -127 0
000060 07 7f 00 00 89 02 02 00 00 00 00 00 00 00 00 00
       7 127 0 0 -119 2 2 0 0 0 0 0 0 0 0 0
000070 f9 08 00 00 81 fa f3 00 0b bc 00 00 7f fa 12 00
       -7 8 0 0 -127 -6 -13 0 11 -68 0 0 127 -6 18 0

model_13/conv_pw_2/Conv2D i1 [32, 1, 1, 16]
000000 bb d1 db 00 01 fd 03 00 fc 23 7f 33 ff 02 ff fb
       -69 -47 -37 0 1 -3 3 0 -4 35 127 51 -1 2 -1 -5
000010 00 00 00 00 00 00 00 00 00 00 00 00 00 00 00 00
       0 0 0 0 0 0 0 0 0 0 0 0 0 0 0 0
000020 09 02 05 00 00 12 05 00 fe 03 fd 04 7f 00 fd 09
       9 2 5 0 0 18 5 0 -2 3 -3 4 127 0 -3 9
000030 4d 08 81 00 03 fd ff 02 01 10 3e aa 01 fd 00 fb
       77 8 -127 0 3 -3 -1 2 1 16 62 -86 1 -3 0 -5
000040 fc fd fd 00 03 ff fb 7f fe fd 03 fc e9 04 09 7e
       -4 -3 -3 0 3 -1 -5 127 -2 -3 3 -4 -23 4 9 126
000050 e4 f2 04 00 03 92 7f 89 df 04 fc 06 86 03 e0 69
       -28 -14 4 0 3 -110 127 -119 -33 4 -4 6 -122 3 -32 105
000060 f4 f8 f7 00 00 7f 02 fe 13 ef 0b fb d7 00 ff f6
       -12 -8 -9 0 0 127 2 -2 19 -17 11 -5 -41 0 -1 -10
000070 ed 51 7f 00 00 0e 01 ff 08 01 96 cf 00 01 04 06
       -19 81 127 0 0 14 1 -1 8 1 -106 -49 0 1 4 6
000080 fc 49 5c 00 02 fe 02 ff 03 81 cb f1 fd 03 00 00
       -4 73 92 0 2 -2 2 -1 3 -127 -53 -15 -3 3 0 0
000090 18 0e 00 00 01 81 f5 df e7 10 0f 0b 24 00 d8 0a
       24 14 0 0 1 -127 -11 -33 -25 16 15 11 36 0 -40 10
0000a0 09 fe 05 00 fe 81 05 07 04 11 fb 04 33 ff 00 f0
       9 -2 5 0 -2 -127 5 7 4 17 -5 4 51 -1 0 -16
0000b0 02 04 05 00 00 81 02 00 ff 0d fd ff 25 00 ff 01
       2 4 5 0 0 -127 2 0 -1 13 -3 -1 37 0 -1 1
0000c0 ff 02 fe 00 02 fd 81 02 fd ff 04 03 00 01 02 04
       -1 2 -2 0 2 -3 -127 2 -3 -1 4 3 0 1 2 4
0000d0 fb fc 09 00 04 cf ed 36 fa ff f6 02 7f 03 25 fc
       -5 -4 9 0 4 -49 -19 54 -6 -1 -10 2 127 3 37 -4
0000e0 00 00 00 00 00 00 00 00 00 00 00 00 00 00 00 00
       0 0 0 0 0 0 0 0 0 0 0 0 0 0 0 0
0000f0 08 fe 02 00 01 f8 fc 73 f7 fc fe 07 11 01 81 d5
       8 -2 2 0 1 -8 -4 115 -9 -4 -2 7 17 1 -127 -43

model_13/conv_pw_3/Conv2D i1 [32, 1, 1, 32]
000000 1d 00 4b fe 11 ba 7f f6 08 3e f9 57 42 51 00 00
       29 0 75 -2 17 -70 127 -10 8 62 -7 87 66 81 0 0
000010 e9 29 00 2f ae 44 12 fe 0f cc bc 13 14 1a f6 05
       -23 41 0 47 -82 68 18 -2 15 -52 -68 19 20 26 -10 5
000020 0e 00 05 12 fc fd 0b fe 05 ff 02 00 01 02 00 16
       14 0 5 18 -4 -3 11 -2 5 -1 2 0 1 2 0 22
000030 0a 90 00 f0 fa 0a ff fa 81 0a 07 01 ea 10 ec fb
       10 -112 0 -16 -6 10 -1 -6 -127 10 7 1 -22 16 -20 -5
000040 01 00 00 00 7f fc fc fe f7 04 f5 02 06 fa 00 0b
       1 0 0 0 127 -4 -4 -2 -9 4 -11 2 6 -6 0 11
000050 eb fb 00 26 ff 0d fe 02 fa 76 09 f6 f2 fe 0a e9
       -21 -5 0 38 -1 13 -2 2 -6 118 9 -10 -14 -2 10 -23
000060 02 00 07 10 d7 0b 0a f1 fc dd 23 00 ec c9 00 0c
       2 0 7 16 -41 11 10 -15 -4 -35 35 0 -20 -55 0 12
000070 0f 66 00 11 31 ff 81 0c 42 27 dd 09 08 f9 2e d4
       15 102 0 17 49 -1 -127 12 66 39 -35 9 8 -7 46 -44
000080 e2 00 cb fd 2a 0c 99 0d 05 0a e7 b7 cb 7f 00 05
       -30 0 -53 -3 42 12 -103 13 5 10 -25 -73 -53 127 0 5
000090 a4 dd 00 fe 9e 22 f2 04 2d c7 44 01 0a e9 02 f5
       -92 -35 0 -2 -98 34 -14 4 45 -57 68 1 10 -23 2 -11
0000a0 fb 00 7f fd 08 06 8e 07 00 ff f6 c4 e4 fd 00 fd
       -5 0 127 -3 8 6 -114 7 0 -1 -10 -60 -28 -3 0 -3
0000b0 e8 dc 00 18 04 11 03 23 1d f5 fd f8 eb 03 0b ff
       -24 -36 0 24 4 17 3 35 29 -11 -3 -8 -21 3 11 -1
0000c0 fd 00 db 08 39 b2 de 02 01 fd fc f7 7f dc 00 ea
       -3 0 -37 8 57 -78 -34 2 1 -3 -4 -9 127 -36 0 -22
0000d0 1e f0 00 3d e7 39 f9 e3 ed 96 d7 f6 f5 05 0a c9
       30 -16 0 61 -25 57 -7 -29 -19 -106 -41 -10 -11 5 10 -55
0000e0 02 00 fd 00 06 01 f6 f4 05 fc 03 01 fd ff 00 07
       2 0 -3 0 6 1 -10 -12 5 -4 3 1 -3 -1 0 7
0000f0 02 7f 00 f7 01 04 01 08 fa f9 03 0c fa 04 f4 fc
       2 127 0 -9 1 4 1 8 -6 -7 3 12 -6 4 -12 -4

model_13/conv_pw_4/Conv2D i1 [64, 1, 1, 32]
000000 1a 4b 17 05 29 16 cf 2e ef 10 00 1e 81 0c f4 05
       26 75 23 5 41 22 -49 46 -17 16 0 30 -127 12 -12 5
000010 0e 19 12 0d 23 e4 5b bb 06 0a 0a 2d 2e 48 ee 1e
       14 25 18 13 35 -28 91 -69 6 10 10 45 46 72 -18 30
000020 fb 0f 06 f6 1c 0a fd e6 10 07 fe f6 f3 10 ff 3d
       -5 15 6 -10 28 10 -3 -26 16 7 -2 -10 -13 16 -1 61
000030 d9 21 10 81 0e 02 ff 00 01 fa fb 01 07 07 fd 0d
       -39 33 16 -127 14 2 -1 0 1 -6 -5 1 7 7 -3 13
000040 81 fd fa 18 5d be 4b ec b1 d5 26 c4 a4 d7 0d eb
       -127 -3 -6 24 93 -66 75 -20 -79 -43 38 -60 -92 -41 13 -21
000050 08 e4 eb 01 8a 21 fd 46 f0 1c 79 49 48 0d 08 f5
       8 -28 -21 1 -118 33 -3 70 -16 28 121 73 72 13 8 -11
000060 ff f4 09 d8 0a 04 07 d5 ec 11 11 d8 1c ec ed ef
       -1 -12 9 -40 10 4 7 -43 -20 17 17 -40 28 -20 -19 -17
000070 ad f2 2b 2c 0d 03 00 14 f1 eb c6 f6 f6 7f e1 e9
       -83 -14 43 44 13 3 0 20 -15 -21 -58 -10 -10 127 -31 -23
000080 f8 1c 01 08 9c 14 c4 07 db 03 16 7f 0f fc fe 11
       -8 28 1 8 -100 20 -60 7 -37 3 22 127 15 -4 -2 17
000090 38 09 a8 0c 1c f5 fb f4 fa e4 05 cd d6 11 03 f0
       56 9 -88 12 28 -11 -5 -12 -6 -28 5 -51 -42 17 3 -16
0000a0 15 7f 0e 04 00 13 e7 3a 15 1e f3 04 b4 0f 02 fe
       21 127 14 4 0 19 -25 58 21 30 -13 4 -76 15 2 -2
0000b0 06 12 f4 04 12 f7 39 d3 10 f9 08 10 03 fe f7 03
       6 18 -12 4 18 -9 57 -45 16 -7 8 16 3 -2 -9 3
0000c0 b4 1f f3 08 cf 81 2b 0e c6 90 43 91 15 a7 0e fb
       -76 31 -13 8 -49 -127 43 14 -58 -112 67 -111 21 -89 14 -5
0000d0 0d d6 17 ee c0 44 c9 39 b1 29 4b ec e9 fd f7 fc
       13 -42 23 -18 -64 68 -55 57 -79 41 75 -20 -23 -3 -9 -4
0000e0 0b f9 f3 57 f6 fb d4 f9 b6 e4 0e e2 14 00 5a 08
       11 -7 -13 87 -10 -5 -44 -7 -74 -28 14 -30 20 0 90 8
0000f0 da 03 2a fb 36 01 eb 10 f3 7f 13 25 24 ff f9 fd
       -38 3 42 -5 54 1 -21 16 -13 127 19 37 36 -1 -7 -3

model_13/conv_pw_5/Conv2D i1 [64, 1, 1, 64]
000000 ee fe 02 fe f9 01 fe 0d 7f 1c f8 03 fa fc 00 fd
       -18 -2 2 -2 -7 1 -2 13 127 28 -8 3 -6 -4 0 -3
000010 fd 09 fc e6 f6 fb f9 05 fb fa fd 1a ff 0e 03 04
       -3 9 -4 -26 -10 -5 -7 5 -5 -6 -3 26 -1 14 3 4
000020 03 f9 04 00 fc 03 00 04 ff fc f6 03 01 00 05 fe
       3 -7 4 0 -4 3 0 4 -1 -4 -10 3 1 0 5 -2
000030 0d 00 f9 fb ff 12 06 04 0d fa 02 24 b5 f8 0d fd
       13 0 -7 -5 -1 18 6 4 13 -6 2 36 -75 -8 13 -3
000040 fc df 00 04 e3 81 28 d0 2e ce df b5 f8 02 eb 0a
       -4 -33 0 4 -29 -127 40 -48 46 -50 -33 -75 -8 2 -21 10
000050 0f c9 da e9 c0 1c e9 0d e0 a6 f9 ff c3 f0 e8 ec
       15 -55 -38 -23 -64 28 -23 13 -32 -90 -7 -1 -61 -16 -24 -20
000060 f6 db 04 eb f7 e9 f9 49 f3 35 f5 01 f5 0f e7 3a
       -10 -37 4 -21 -9 -23 -7 73 -13 53 -11 1 -11 15 -25 58
000070 24 ca d6 f2 f8 e1 01 d8 d3 f1 e7 1c ee 1c 05 f2
       36 -54 -42 -14 -8 -31 1 -40 -45 -15 -25 28 -18 28 5 -14
000080 d5 fc f7 d1 84 03 40 0a 16 ed 01 eb 1d 19 00 1c
       -43 -4 -9 -47 -124 3 64 10 22 -19 1 -21 29 25 0 28
000090 ff d4 b6 00 f4 e8 16 01 0b da 06 04 0a f0 04 11
       -1 -44 -74 0 -12 -24 22 1 11 -38 6 4 10 -16 4 17
0000a0 ef 05 e1 fb fd f3 02 fb f0 08 04 06 eb 02 1f 08
       -17 5 -31 -5 -3 -13 2 -5 -16 8 4 6 -21 2 31 8
0000b0 c4 01 f2 c9 0c 0f 1c 0d e2 7f 0e f9 01 fa 00 15
       -60 1 -14 -55 12 15 28 13 -30 127 14 -7 1 -6 0 21
0000c0 81 f5 bd 07 1c f9 24 dd ed 09 ed 0d f5 e4 48 ba
       -127 -11 -67 7 28 -7 36 -35 -19 9 -19 13 -11 -28 72 -70
0000d0 21 e4 06 fa e1 28 1d 9d d0 c1 cc 08 d6 fd f6 14
       33 -28 6 -6 -31 40 29 -99 -48 -63 -52 8 -42 -3 -10 20
0000e0 04 05 10 09 03 e3 d9 27 21 ca f2 e0 f1 04 3b fb
       4 5 16 9 3 -29 -39 39 33 -54 -14 -32 -15 4 59 -5
0000f0 df 0a ee 04 f3 c4 0f fc e4 0a 42 fa 09 ed e0 97
       -33 10 -18 4 -13 -60 15 -4 -28 10 66 -6 9 -19 -32 -105

model_13/conv_pw_6/Conv2D i1 [128, 1, 1, 64]
000000 09 d4 10 eb ff 00 ea 0c 00 0c e9 32 15 ff f9 ff
       9 -44 16 -21 -1 0 -22 12 0 12 -23 50 21 -1 -7 -1
000010 04 15 03 f1 f6 0b 34 00 ef 01 b1 0b ec de 17 e9
       4 21 3 -15 -10 11 52 0 -17 1 -79 11 -20 -34 23 -23
000020 fd 19 06 03 d2 12 08 1f 1d fd 5c 1b 08 f1 7f f0
       -3 25 6 3 -46 18 8 31 29 -3 92 27 8 -15 127 -16
000030 06 f6 f0 1b 0d de f5 08 09 fa 36 ad 03 ee f4 54
       6 -10 -16 27 13 -34 -11 8 9 -6 54 -83 3 -18 -12 84
000040 08 fd 00 ea f9 00 04 1f 31 e5 24 fc f0 0c 1f 10
       8 -3 0 -22 -7 0 4 31 49 -27 36 -4 -16 12 31 16
000050 e5 e8 02 e8 26 e5 10 0a 27 e9 15 f6 ff fa 1a 81
       -27 -24 2 -24 38 -27 16 10 39 -23 21 -10 -1 -6 26 -127
000060 f5 04 f6 f0 f3 38 f8 02 ff 22 fd ec f0 f1 fe 13
       -11 4 -10 -16 -13 56 -8 2 -1 34 -3 -20 -16 -15 -2 19
000070 ee 18 f9 06 f8 e4 04 06 e8 f8 cf 0e 15 ee eb ea
       -18 24 -7 6 -8 -28 4 6 -24 -8 -49 14 21 -18 -21 -22
000080 ef 11 23 00 12 00 06 09 0b 05 7f 03 fe e3 fb 01
       -17 17 35 0 18 0 6 9 11 5 127 3 -2 -29 -5 1
000090 c3 ca 1c 06 f5 0d 20 0c ed fb eb 08 10 fe 1a f5
       -61 -54 28 6 -11 13 32 12 -19 -5 -21 8 16 -2 26 -11
0000a0 06 07 fc fa 13 e1 f0 cb 09 30 0c 08 09 1b 04 ff
       6 7 -4 -6 19 -31 -16 -53 9 48 12 8 9 27 4 -1
0000b0 f4 01 f7 fb 04 27 63 ea fa 21 1c df b6 0d 27 07
       -12 1 -9 -5 4 39 99 -22 -6 33 28 -33 -74 13 39 7
0000c0 fa 08 14 e9 e7 00 06 eb f3 13 11 d5 f9 1f cc 00
       -6 8 20 -23 -25 0 6 -21 -13 19 17 -43 -7 31 -52 0
0000d0 11 e4 fe 2f 09 f2 fd 17 2a fc 23 de 2a 1b eb 2a
       17 -28 -2 47 9 -14 -3 23 42 -4 35 -34 42 27 -21 42
0000e0 06 f6 00 e0 93 f5 01 10 19 1b 3d e9 f7 44 f2 f5
       6 -10 0 -32 -109 -11 1 16 25 27 61 -23 -9 68 -14 -11
0000f0 06 d3 cd 04 fb 31 f1 27 f7 0f 0f 81 0d 06 03 b2
       6 -45 -51 4 -5 49 -15 39 -9 15 15 -127 13 6 3 -78

model_13/conv_pw_7/Conv2D i1 [128, 1, 1, 128]
000000 16 30 e4 e9 4e a0 0c fe d4 06 0b 49 b9 d6 e7 ce
       22 48 -28 -23 78 -96 12 -2 -44 6 11 73 -71 -42 -25 -50
000010 e9 07 13 0f 0f 01 d0 0c 23 df 13 08 0b fb 02 10
       -23 7 19 15 15 1 -48 12 35 -33 19 8 11 -5 2 16
000020 db 0a 16 11 d5 fa f9 fd 09 02 02 18 ee 1f 30 ff
       -37 10 22 17 -43 -6 -7 -3 9 2 2 24 -18 31 48 -1
000030 27 0b 09 24 cb dd 55 09 cd d2 e0 d3 f6 ec 14 eb
       39 11 9 36 -53 -35 85 9 -51 -46 -32 -45 -10 -20 20 -21
000040 e5 25 03 09 b4 d9 bf 0b 14 0b fb eb 01 ff da f7
       -27 37 3 9 -76 -39 -65 11 20 11 -5 -21 1 -1 -38 -9
000050 1a f1 02 06 fb 02 12 14 2e cf e4 08 4d d9 08 e2
       26 -15 2 6 -5 2 18 20 46 -49 -28 8 77 -39 8 -30
000060 ef fa e4 81 2b 07 2a f1 e5 f2 f7 f2 2c 53 ee e7
       -17 -6 -28 -127 43 7 42 -15 -27 -14 -9 -14 44 83 -18 -25
000070 51 93 ef 13 4b 0f 00 f7 f0 e5 02 ce f7 0d dd f6
       81 -109 -17 19 75 15 0 -9 -16 -27 2 -50 -9 13 -35 -10
000080 f2 44 16 05 2d ea 02 0f e4 30 fe 40 08 df 11 f2
       -14 68 22 5 45 -22 2 15 -28 48 -2 64 8 -33 17 -14
000090 fd 0e f2 15 fe 1a f7 f5 fb 11 fb e4 ee 04 01 0a
       -3 14 -14 21 -2 26 -9 -11 -5 17 -5 -28 -18 4 1 10
0000a0 e6 12 ff ed 04 05 03 00 06 f8 02 0b fc ec 2c 07
       -26 18 -1 -19 4 5 3 0 6 -8 2 11 -4 -20 44 7
0000b0 de 06 0f 07 01 fe 0e eb 1d 05 b4 fb 03 fb f3 fe
       -34 6 15 7 1 -2 14 -21 29 5 -76 -5 3 -5 -13 -2
0000c0 fe 07 0c e9 e0 f8 16 0f 17 ce 07 02 fc 09 fb f0
       -2 7 12 -23 -32 -8 22 15 23 -50 7 2 -4 9 -5 -16
0000d0 1c ed 06 fb 02 02 f5 05 dc dc 0a ff 7f f0 f7 05
       28 -19 6 -5 2 2 -11 5 -36 -36 10 -1 127 -16 -9 5
0000e0 fd cf 0a c2 06 22 01 e8 eb 15 04 ad 3b cc 03 ac
       -3 -49 10 -62 6 34 1 -24 -21 21 4 -83 59 -52 3 -84
0000f0 49 12 0b de 25 08 f6 e6 f9 d7 09 fc 18 f7 08 07
       73 18 11 -34 37 8 -10 -26 -7 -41 9 -4 24 -9 8 7

model_13/conv_pw_8/Conv2D i1 [128, 1, 1, 128]
000000 df 06 d2 f9 fe 0a 2f 0f 0b 1b fa 03 ec ef 1a f7
       -33 6 -46 -7 -2 10 47 15 11 27 -6 3 -20 -17 26 -9
000010 08 f8 a8 f2 fb 11 ee 19 22 d4 0a d2 03 52 ef d1
       8 -8 -88 -14 -5 17 -18 25 34 -44 10 -46 3 82 -17 -47
000020 ec 1b e6 ff 3a 1e f7 ee fc 0b 2b ef 07 32 1d 00
       -20 27 -26 -1 58 30 -9 -18 -4 11 43 -17 7 50 29 0
000030 05 f3 11 e7 f0 ee 04 fc 13 ed fd 25 f5 12 f8 10
       5 -13 17 -25 -16 -18 4 -4 19 -19 -3 37 -11 18 -8 16
000040 16 08 11 0e fb fa 07 d7 f2 0f da 1a e0 0a 07 22
       22 8 17 14 -5 -6 7 -41 -14 15 -38 26 -32 10 7 34
000050 f1 06 de ef f9 16 18 cf 2e 14 41 11 e0 06 0f 7f
       -15 6 -34 -17 -7 22 24 -49 46 20 65 17 -32 6 15 127
000060 f8 24 06 01 d8 f4 eb e2 da 47 de fa 02 e1 d3 47
       -8 36 6 1 -40 -12 -21 -30 -38 71 -34 -6 2 -31 -45 71
000070 00 0a 3b 58 05 e7 11 0a 17 ef de f8 fe ee ea e6
       0 10 59 88 5 -25 17 10 23 -17 -34 -8 -2 -18 -22 -26
000080 18 2b 23 e5 01 c5 01 37 f9 f3 16 d3 cc 1d ff df
       24 43 35 -27 1 -59 1 55 -7 -13 22 -45 -52 29 -1 -33
000090 d4 ab e8 64 10 17 f6 f9 fe 38 19 04 06 03 17 ea
       -44 -85 -24 100 16 23 -10 -7 -2 56 25 4 6 3 23 -22
0000a0 13 01 16 f1 03 f3 fd e5 15 01 07 0a fe f0 00 40
       19 1 22 -15 3 -13 -3 -27 21 1 7 10 -2 -16 0 64
0000b0 08 ba 08 20 fc e3 37 ec 10 32 fa 0b 2e 07 d1 26
       8 -70 8 32 -4 -29 55 -20 16 50 -6 11 46 7 -47 38
0000c0 ba 01 0b b9 53 f6 02 0c de d8 e5 bc 01 21 e3 16
       -70 1 11 -71 83 -10 2 12 -34 -40 -27 -68 1 33 -29 22
0000d0 49 10 e7 bd 03 ee 20 48 01 05 12 20 ed fa 81 10
       73 16 -25 -67 3 -18 32 72 1 5 18 32 -19 -6 -127 16
0000e0 20 e2 18 ea 08 04 20 f0 00 24 0b d7 e7 23 cf f2
       32 -30 24 -22 8 4 32 -16 0 36 11 -41 -25 35 -49 -14
0000f0 0a f6 10 0b e1 fd b9 32 0c de 1a e1 09 0b f0 17
       10 -10 16 11 -31 -3 -71 50 12 -34 26 -31 9 11 -16 23

model_13/conv_pw_9/Conv2D i1 [128, 1, 1, 128]
000000 0d f2 ea f6 02 fc ee da 09 26 01 17 07 e3 05 00
       13 -14 -22 -10 2 -4 -18 -38 9 38 1 23 7 -29 5 0
000010 ea 10 01 1a f0 1c f6 2b 15 03 0d f8 e1 12 ef f4
       -22 16 1 26 -16 28 -10 43 21 3 13 -8 -31 18 -17 -12
000020 0b 05 fe ee 0f ea e8 06 0a fb 04 12 fc 08 03 02
       11 5 -2 -18 15 -22 -24 6 10 -5 4 18 -4 8 3 2
000030 15 03 08 14 fa f9 01 f9 ff 02 df f2 0e 21 18 fb
       21 3 8 20 -6 -7 1 -7 -1 2 -33 -14 14 33 24 -5
000040 00 04 0e f2 0b f7 04 f2 16 00 06 08 0e 0c fb e3
       0 4 14 -14 11 -9 4 -14 22 0 6 8 14 12 -5 -29
000050 13 ff e2 f4 f6 0d 1b fb 07 07 01 f8 f9 fd 12 ed
       19 -1 -30 -12 -10 13 27 -5 7 7 1 -8 -7 -3 18 -19
000060 e2 12 04 fc 3a f8 05 ff e4 f6 f3 eb 0b 0e 0a 02
       -30 18 4 -4 58 -8 5 -1 -28 -10 -13 -21 11 14 10 2
000070 0c fc 0c 07 00 1a ed 08 ff f7 f2 fd ea 7f f9 0e
       12 -4 12 7 0 26 -19 8 -1 -9 -14 -3 -22 127 -7 14
000080 fb fb 0e 09 f7 e7 07 fd fe fa ed f6 07 f9 d6 d9
       -5 -5 14 9 -9 -25 7 -3 -2 -6 -19 -10 7 -7 -42 -39
000090 00 df ff 02 03 03 3f fe e9 ef b1 df 05 fe 95 f2
       0 -33 -1 2 3 3 63 -2 -23 -17 -79 -33 5 -2 -107 -14
0000a0 eb fc 07 00 09 f9 f8 fd 0d 11 0e 0b 08 57 2b fe
       -21 -4 7 0 9 -7 -8 -3 13 17 14 11 8 87 43 -2
0000b0 20 fe 01 eb 1c e0 00 02 0b 34 06 fd 06 1a 01 6b
       32 -2 1 -21 28 -32 0 2 11 52 6 -3 6 26 1 107
0000c0 2f f7 05 09 12 f7 db 02 14 fb f6 ef 07 0a 1d 0e
       47 -9 5 9 18 -9 -37 2 20 -5 -10 -17 7 10 29 14
0000d0 02 5c 05 18 d0 ef 09 7f f8 ec ec fe 2d f5 d0 12
       2 92 5 24 -48 -17 9 127 -8 -20 -20 -2 45 -11 -48 18
0000e0 e9 08 10 da fb 07 03 0b 02 07 0c ef d4 06 fe 0c
       -23 8 16 -38 -5 7 3 11 2 7 12 -17 -44 6 -2 12
0000f0 24 f7 c1 0e 03 00 fa 08 fc 05 02 96 06 03 f1 dd
       36 -9 -63 14 3 0 -6 8 -4 5 2 -106 6 3 -15 -35

model_13/conv_pw_10/Conv2D i1 [128, 1, 1, 128]
000000 ca 38 e8 0b 10 31 3f f8 c2 c1 2a 12 96 e8 07 30
       -54 56 -24 11 16 49 63 -8 -62 -63 42 18 -106 -24 7 48
000010 1c 22 ea e5 d8 dc 43 fc 7f d0 04 22 14 e1 4a f9
       28 34 -22 -27 -40 -36 67 -4 127 -48 4 34 20 -31 74 -7
000020 09 c4 22 2f 0b 21 18 da 20 2e ec 20 ab 17 01 16
       9 -60 34 47 11 33 24 -38 32 46 -20 32 -85 23 1 22
000030 f1 f8 09 d1 f0 07 1d e0 06 d7 dd 06 32 e2 04 10
       -15 -8 9 -47 -16 7 29 -32 6 -41 -35 6 50 -30 4 16
000040 09 c9 e1 ec 02 cf 03 e9 2a 15 d7 f7 1e e6 0e 0c
       9 -55 -31 -20 2 -49 3 -23 42 21 -41 -9 30 -26 14 12
000050 f0 05 eb 4a ee dd 29 fc c6 1a e7 f3 d4 6f fc bd
       -16 5 -21 74 -18 -35 41 -4 -58 26 -25 -13 -44 111 -4 -67
000060 ef e1 bf ee 15 00 11 21 22 29 ef e5 fd 19 26 c5
       -17 -31 -65 -18 21 0 17 33 34 41 -17 -27 -3 25 38 -59
000070 98 9a 2e d3 33 31 ee 09 36 24 27 50 f1 c9 1a 16
       -104 -102 46 -45 51 49 -18 9 54 36 39 80 -15 -55 26 22
000080 7f f3 15 dc ed bb 16 fa f6 f9 f3 e3 f9 f3 38 eb
       127 -13 21 -36 -19 -69 22 -6 -10 -7 -13 -29 -7 -13 56 -21
000090 09 03 f7 16 cf 04 d4 0d cf f8 dd 14 33 bf db 25
       9 3 -9 22 -49 4 -44 13 -49 -8 -35 20 51 -65 -37 37
0000a0 ee f1 13 06 f6 07 af e5 1e 0c f6 0e f4 fa 08 ee
       -18 -15 19 6 -10 7 -81 -27 30 12 -10 14 -12 -6 8 -18
0000b0 df fc 2d 13 f8 10 23 ed 0e 09 0d 2c 95 24 df 06
       -33 -4 45 19 -8 16 35 -19 14 9 13 44 -107 36 -33 6
0000c0 00 d2 07 f8 e7 f0 fb d4 11 1f f4 b5 12 07 ff f7
       0 -46 7 -8 -25 -16 -5 -44 17 31 -12 -75 18 7 -1 -9
0000d0 12 20 36 fd b8 f4 08 fc 15 0b 05 ea ee de 10 e9
       18 32 54 -3 -72 -12 8 -4 21 11 5 -22 -18 -34 16 -23
0000e0 06 ea f3 f0 44 f3 1b 11 03 f8 0b e9 bf 02 1c 2b
       6 -22 -13 -16 68 -13 27 17 3 -8 11 -23 -65 2 28 43
0000f0 fb f7 f7 df 05 f0 f4 23 f3 08 fb 21 fc 1c 28 05
       -5 -9 -9 -33 5 -16 -12 35 -13 8 -5 33 -4 28 40 5

model_13/conv_pw_11/Conv2D i1 [128, 1, 1, 128]
000000 ec 0c 02 e4 e5 01 fb 05 08 07 00 05 f3 f8 08 0b
       -20 12 2 -28 -27 1 -5 5 8 7 0 5 -13 -8 8 11
000010 e6 01 39 f8 e5 1b 01 ee 03 00 0f 19 fa 18 e6 f5
       -26 1 57 -8 -27 27 1 -18 3 0 15 25 -6 24 -26 -11
000020 16 e9 f2 c0 0d 16 35 07 d8 f7 ac 1a f0 ef ee eb
       22 -23 -14 -64 13 22 53 7 -40 -9 -84 26 -16 -17 -18 -21
000030 fb eb 1d 0d 18 81 f3 e3 fc ef 16 d4 06 05 0a 0f
       -5 -21 29 13 24 -127 -13 -29 -4 -17 22 -44 6 5 10 15
000040 f5 f0 15 ff 12 f1 0c 1f 07 f2 f1 d0 d6 03 f6 06
       -11 -16 21 -1 18 -15 12 31 7 -14 -15 -48 -42 3 -10 6
000050 ff 0b f9 fb f5 04 0b 1e f4 31 22 f9 f6 dc 06 e1
       -1 11 -7 -5 -11 4 11 30 -12 49 34 -7 -10 -36 6 -31
000060 17 f7 db f7 2b ed 0c db f9 fe f7 07 00 fb be ee
       23 -9 -37 -9 43 -19 12 -37 -7 -2 -9 7 0 -5 -66 -18
000070 12 e4 0d 04 21 ff 0d 03 e8 06 fc f7 f4 40 19 f5
       18 -28 13 4 33 -1 13 3 -24 6 -4 -9 -12 64 25 -11
000080 f8 f8 de fd 08 f3 ca 03 ed ff fc e9 02 0c d0 e8
       -8 -8 -34 -3 8 -13 -54 3 -19 -1 -4 -23 2 12 -48 -24
000090 1e ff e3 1a 1f f1 01 14 27 1b ec ff f6 05 27 1d
       30 -1 -29 26 31 -15 1 20 39 27 -20 -1 -10 5 39 29
0000a0 13 dd 01 2d d8 0c 06 1b fa fd 0e fe 08 fa ef 12
       19 -35 1 45 -40 12 6 27 -6 -3 14 -2 8 -6 -17 18
0000b0 02 ff ca fb ea 0f 01 21 1a f1 f7 e9 07 fd 0e e0
       2 -1 -54 -5 -22 15 1 33 26 -15 -9 -23 7 -3 14 -32
0000c0 02 00 00 07 0b 0a df 20 04 0d 17 f8 ee e4 f0 f2
       2 0 0 7 11 10 -33 32 4 13 23 -8 -18 -28 -16 -14
0000d0 f1 dd 07 30 18 81 e7 e9 fc 10 d7 09 06 ec f2 07
       -15 -35 7 48 24 -127 -25 -23 -4 16 -41 9 6 -20 -14 7
0000e0 2b 00 ff 04 09 fc 21 41 f6 ab f4 f2 0d 09 15 f0
       43 0 -1 4 9 -4 33 65 -10 -85 -12 -14 13 9 21 -16
0000f0 26 f7 f5 0d f2 03 13 05 f0 eb ef fa eb f3 ec 01
       38 -9 -11 13 -14 3 19 5 -16 -21 -17 -6 -21 -13 -20 1

model_13/conv_pw_12/Conv2D i1 [256, 1, 1, 128]
000000 f5 e5 4c 28 ed dc ed fa bf 19 f9 5a ff 08 3b 0d
       -11 -27 76 40 -19 -36 -19 -6 -65 25 -7 90 -1 8 59 13
000010 fe e4 cc 18 15 25 53 5a 43 2a 0d 25 fe d3 da 00
       -2 -28 -52 24 21 37 83 90 67 42 13 37 -2 -45 -38 0
000020 02 bb fc 31 0a 34 b9 e6 54 28 2a 2b 16 0d 34 30
       2 -69 -4 49 10 52 -71 -26 84 40 42 43 22 13 52 48
000030 22 9b ec 36 05 06 bd ef fe 4a c6 f7 0d f9 de 1e
       34 -101 -20 54 5 6 -67 -17 -2 74 -58 -9 13 -7 -34 30
000040 18 c4 12 ca 1e be 1b d0 13 c3 fd d0 96 23 14 4a
       24 -60 18 -54 30 -66 27 -48 19 -61 -3 -48 -106 35 20 74
000050 e3 fb 1b 1c a4 ec 18 09 ec be 17 31 58 e3 e5 39
       -29 -5 27 28 -92 -20 24 9 -20 -66 23 49 88 -29 -27 57
000060 50 1b f9 ed 33 e8 7b 58 03 36 0b fa 23 65 0b 00
       80 27 -7 -19 51 -24 123 88 3 54 11 -6 35 101 11 0
000070 d4 06 e0 d4 42 ad 1a cf ef e1 b9 19 d8 7f de fa
       -44 6 -32 -44 66 -83 26 -49 -17 -31 -71 25 -40 127 -34 -6
000080 0b ef be fb 17 c5 dc ea 0c ed fa 3f ea db 33 05
       11 -17 -66 -5 23 -59 -36 -22 12 -19 -6 63 -22 -37 51 5
000090 b1 ed 02 ff c4 eb 1f 1c 29 bf e6 f5 f2 e2 e2 5f
       -79 -19 2 -1 -60 -21 31 28 41 -65 -26 -11 -14 -30 -30 95
0000a0 e6 1b d3 0f 2c fe 10 d5 1e e8 21 fb 37 17 3e 16
       -26 27 -45 15 44 -2 16 -43 30 -24 33 -5 55 23 62 22
0000b0 18 3c 17 30 37 d9 e6 fd 06 ea eb ff 2f f8 cb d1
       24 60 23 48 55 -39 -26 -3 6 -22 -21 -1 47 -8 -53 -47
0000c0 0d fe e2 e1 29 07 d7 22 e4 01 4c 1e ef 10 fc f0
       13 -2 -30 -31 41 7 -41 34 -28 1 76 30 -17 16 -4 -16
0000d0 60 04 01 0e 81 dd 12 37 ec ee e9 ee ee f6 2a 02
       96 4 1 14 -127 -35 18 55 -20 -18 -23 -18 -18 -10 42 2
0000e0 04 f1 c4 3d 02 e2 32 1b dd 25 fe 13 e8 46 15 12
       4 -15 -60 61 2 -30 50 27 -35 37 -2 19 -24 70 21 18
0000f0 36 d9 cc cd 3c 25 ef 20 30 d9 1c 15 f2 2b d7 bc
       54 -39 -52 -51 60 37 -17 32 48 -39 28 21 -14 43 -41 -68

model_13/conv_pw_13/Conv2D i1 [256, 1, 1, 256]
000000 e1 03 3a eb f5 f3 d4 e9 e2 bc c7 f6 dd d3 f1 d9
       -31 3 58 -21 -11 -13 -44 -23 -30 -68 -57 -10 -35 -45 -15 -39
000010 c7 f5 0b 09 d7 0d df d6 ef 1f 20 f5 f2 c3 f4 1a
       -57 -11 11 9 -41 13 -33 -42 -17 31 32 -11 -14 -61 -12 26
000020 01 0a 13 fa 3f e2 07 ca 02 25 07 0c 18 e7 f8 fd
       1 10 19 -6 63 -30 7 -54 2 37 7 12 24 -25 -8 -3
000030 d9 13 e9 fa 09 21 14 ee 1d 18 e4 d2 dd ed f8 1f
       -39 19 -23 -6 9 33 20 -18 29 24 -28 -46 -35 -19 -8 31
000040 06 d7 19 f4 00 d9 e7 05 eb 0d ff fb 06 b6 e4 2c
       6 -41 25 -12 0 -39 -25 5 -21 13 -1 -5 6 -74 -28 44
000050 e4 19 0a 3c 03 0f 22 da 17 e3 0a ee 1e 0b f0 f7
       -28 25 10 60 3 15 34 -38 23 -29 10 -18 30 11 -16 -9
000060 0f 05 1d d6 09 21 31 f1 06 ea f2 1d 12 0c ff 0a
       15 5 29 -42 9 33 49 -15 6 -22 -14 29 18 12 -1 10
000070 13 ba 10 d0 f5 2e e6 81 48 10 fb 0f 43 ef bf d0
       19 -70 16 -48 -11 46 -26 -127 72 16 -5 15 67 -17 -65 -48
000080 f6 1a ec 09 f4 fc 02 df ee 0c 3c de ff fe 22 d9
       -10 26 -20 9 -12 -4 2 -33 -18 12 60 -34 -1 -2 34 -39
000090 fa 12 0d ff fe e1 ea 06 f9 03 fc 91 e6 05 07 f8
       -6 18 13 -1 -2 -31 -22 6 -7 3 -4 -111 -26 5 7 -8
0000a0 e7 ce 09 f3 25 fd f3 00 b2 0c 20 4a fb 19 fb fb
       -25 -50 9 -13 37 -3 -13 0 -78 12 32 74 -5 25 -5 -5
0000b0 17 ee 4d ff fd 15 ff f3 0c f2 f2 0d 0d 12 fe 38
       23 -18 77 -1 -3 21 -1 -13 12 -14 -14 13 13 18 -2 56
0000c0 f7 d5 fb 1a 16 f8 25 e9 30 18 30 0c 91 0b f7 0c
       -9 -43 -5 26 22 -8 37 -23 48 24 48 12 -111 11 -9 12
0000d0 02 ee 0c ea 07 00 fe 07 f5 01 fb fe ff f4 fc ff
       2 -18 12 -22 7 0 -2 7 -11 1 -5 -2 -1 -12 -4 -1
0000e0 f6 e1 df e7 09 00 10 09 25 0c fc f0 3f f5 06 05
       -10 -31 -33 -25 9 0 16 9 37 12 -4 -16 63 -11 6 5
0000f0 2a 2b 15 02 30 0d 24 0f ef 06 1d ed b6 0e ec f7
       42 43 21 2 48 13 36 15 -17 6 29 -19 -74 14 -20 -9

model_13/conv_dw_1_bn/FusedBatchNormV3;model_13/conv_dw_1/depthwise i1 [1, 3, 3, 8]
000000 f0 fe 83 6d 07 f8 f3 c6 07 18 95 7f fb 0d 0b 81
       -16 -2 -125 109 7 -8 -13 -58 7 24 -107 127 -5 13 11 -127
000010 07 fd 81 57 04 09 05 8a 14 24 91 7b 21 7f 24 9d
       7 -3 -127 87 4 9 5 -118 20 36 -111 123 33 127 36 -99
000020 b0 81 95 7e 81 fa dc 90 cd 12 86 69 15 08 8f 92
       -80 -127 -107 126 -127 -6 -36 -112 -51 18 -122 105 21 8 -113 -110
000030 00 16 94 6e fd fa 32 0e 81 d2 9b 5d 1a 07 af 1e
       0 22 -108 110 -3 -6 50 14 -127 -46 -101 93 26 7 -81 30
000040 f9 0e 8f 49 00 09 81 fb
       -7 14 -113 73 0 9 -127 -5

model_13/conv_dw_2_bn/FusedBatchNormV3;model_13/conv_dw_2/depthwise i1 [1, 3, 3, 16]
000000 1c dd d1 67 16 fd f3 0b 37 0e c1 0f 02 4f f4 c3
       28 -35 -47 103 22 -3 -13 11 55 14 -63 15 2 79 -12 -61
000010 7f 81 73 7f 81 14 09 17 5d 7f 36 81 2d 38 e6 81
       127 -127 115 127 -127 20 9 23 93 127 54 -127 45 56 -26 -127
000020 f2 e2 7f 6b 99 db fd fe 3b 78 7f c3 f7 36 01 e6
       -14 -30 127 107 -103 -37 -3 -2 59 120 127 -61 -9 54 1 -26
000030 0a fd e0 b4 3f f4 f4 32 4e d0 05 c3 fe 56 da 33
       10 -3 -32 -76 63 -12 -12 50 78 -48 5 -61 -2 86 -38 51
000040 25 f6 18 4d 83 24 eb 6d 7f 0e 14 bf 7f 5f 9c 4f
       37 -10 24 77 -125 36 -21 109 127 14 20 -65 127 95 -100 79
000050 02 07 fe 75 90 81 14 22 50 de 34 be 01 73 d9 1a
       2 7 -2 117 -112 -127 20 34 80 -34 52 -66 1 115 -39 26
000060 e1 25 14 ad 02 01 7f c3 1f 1d 12 30 0d 33 33 0c
       -31 37 20 -83 2 1 127 -61 31 29 18 48 13 51 51 12
000070 c1 28 d6 f3 cd 09 a4 81 2f c4 db 6a 2c 7f 7f 1d
       -63 40 -42 -13 -51 9 -92 -127 47 -60 -37 106 44 127 127 29
000080 e4 fd c3 42 db db ef e4 29 ee aa 27 ff 60 26 fe
       -28 -3 -61 66 -37 -37 -17 -28 41 -18 -86 39 -1 96 38 -2

model_13/conv_dw_3_bn/FusedBatchNormV3;model_13/conv_dw_3/depthwise;model_13/conv_dw_4/depthwise i1 [1, 3, 3, 32]
000000 eb 5b f0 c9 18 ec 1b b7 d7 7f 81 ef 00 18 09 0b
       -21 91 -16 -55 24 -20 27 -73 -41 127 -127 -17 0 24 9 11
000010 05 ed 27 10 13 d6 fe ef 10 36 03 3d c4 fb 04 00
       5 -19 39 16 19 -42 -2 -17 16 54 3 61 -60 -5 4 0
000020 19 46 14 e3 cc a6 f1 e6 de 3a 72 15 81 7f fb b7
       25 70 20 -29 -52 -90 -15 -26 -34 58 114 21 -127 127 -5 -73
000030 1d fb 0f 6b 7f 7f 06 c7 01 81 e8 00 e5 0e ba f8
       29 -5 15 107 127 127 6 -57 1 -127 -24 0 -27 14 -70 -8
000040 fc 6c fd eb 0a 7f f8 f4 e7 fb 04 f9 19 03 30 07
       -4 108 -3 -21 10 127 -8 -12 -25 -5 4 -7 25 3 48 7
000050 fc fb e2 12 04 da fd 81 0b 27 16 04 10 f8 26 01
       -4 -5 -30 18 4 -38 -3 -127 11 39 22 4 16 -8 38 1
000060 66 7f 81 7f c4 14 7f 7f 7f 9d 75 81 00 ed 64 e8
       102 127 -127 127 -60 20 127 127 127 -99 117 -127 0 -19 100 -24
000070 ea 27 7f df e9 19 0f 09 f4 eb f4 81 7f 49 81 f6
       -22 39 127 -33 -23 25 15 9 -12 -21 -12 -127 127 73 -127 -10
000080 81 33 6d 20 7f 26 9f 36 13 ec a3 7e 05 86 7f 81
       -127 51 109 32 127 38 -97 54 19 -20 -93 126 5 -122 127 -127
000090 81 7f 28 81 9a a1 7f 27 81 3d 90 c2 22 81 98 81
       -127 127 40 -127 -102 -95 127 39 -127 61 -112 -62 34 -127 -104 -127
0000a0 1d da 10 da d0 9c e8 d6 e0 f5 f7 02 11 f8 0d f6
       29 -38 16 -38 -48 -100 -24 -42 -32 -11 -9 2 17 -8 13 -10
0000b0 01 d7 f8 e8 f6 20 02 19 17 f4 7f 2b df 37 0d ff
       1 -41 -8 -24 -10 32 2 25 23 -12 127 43 -33 55 13 -1
0000c0 05 43 f2 30 f9 07 0c 3c 2b ec 07 f5 ff 00 20 0a
       5 67 -14 48 -7 7 12 60 43 -20 7 -11 -1 0 32 10
0000d0 0e f5 fc 0c 03 06 f9 03 02 fc 03 d1 03 10 8f 06
       14 -11 -4 12 3 6 -7 3 2 -4 3 -47 3 16 -113 6
0000e0 f9 f6 09 00 0c 17 f4 17 f1 00 f9 0f 09 ee 3d fa
       -7 -10 9 0 12 23 -12 23 -15 0 -7 15 9 -18 61 -6
0000f0 22 f5 08 0c ec e0 0d 0f 14 0b f4 eb e9 f1 b1 f8
       34 -11 8 12 -20 -32 13 15 20 11 -12 -21 -23 -15 -79 -8

model_13/conv_dw_4_bn/FusedBatchNormV3;model_13/conv_dw_4/depthwise i1 [1, 3, 3, 32]
000000 c3 39 35 bd 31 2c c8 39 ce 4f f6 3b b2 4d 12 2f
       -61 57 53 -67 49 44 -56 57 -50 79 -10 59 -78 77 18 47
000010 f2 12 3f 08 41 b2 3f ca bf 33 4b 25 2c 4f 26 58
       -14 18 63 8 65 -78 63 -54 -65 51 75 37 44 79 38 88
000020 b0 4e 56 8b 5d 62 b5 53 af 63 56 64 9a 73 1c 5b
       -80 78 86 -117 93 98 -75 83 -81 99 86 100 -102 115 28 91
000030 08 7a 54 13 50 3b 56 b2 4d 60 62 47 55 7f 3f 17
       8 122 84 19 80 59 86 -78 77 96 98 71 85 127 63 23
000040 e1 26 2c c3 36 31 e2 22 d8 20 b9 3c d5 30 04 2b
       -31 38 44 -61 54 49 -30 34 -40 32 -71 60 -43 48 4 43
000050 fb 4e 23 2d 1e 0f 1c e3 00 33 31 29 2f 3d 21 da
       -5 78 35 45 30 15 28 -29 0 51 49 41 47 61 33 -38
000060 ad 54 4c 58 55 3a b7 5e a4 6a f5 5e a7 55 ae 59
       -83 84 76 88 85 58 -73 94 -92 106 -11 94 -89 85 -82 89
000070 33 1c 58 5f 5c 81 64 a8 8c 47 5e 57 53 bb 64 7f
       51 28 88 95 92 -127 100 -88 -116 71 94 87 83 -69 100 127
000080 81 7f 7f 7f 7f 7f 81 7f 81 7f 7f 7f 81 7f 8a 7f
       -127 127 127 127 127 127 -127 127 -127 127 127 127 -127 127 -118 127
000090 54 7f 7f 7f 7f 6f 7f 81 7f 7f 7f 7f 7f 9f 7f 5e
       84 127 127 127 127 111 127 -127 127 127 127 127 127 -97 127 94
0000a0 c3 44 3e 3e 46 41 bc 35 c8 2a 8f 4d cf 35 c5 35
       -61 68 62 62 70 65 -68 53 -56 42 -113 77 -49 53 -59 53
0000b0 2d 4e 41 4f 34 03 2b d1 f2 45 40 39 3d cd 41 09
       45 78 65 79 52 3 43 -47 -14 69 64 57 61 -51 65 9
0000c0 e6 27 1d fd 2c 18 e4 2e e0 2b 06 2f f0 0e 4d 39
       -26 39 29 -3 44 24 -28 46 -32 43 6 47 -16 14 77 57
0000d0 56 08 21 66 25 cd 2e d5 c6 1b 22 3c 2a f8 54 3a
       86 8 33 102 37 -51 46 -43 -58 27 34 60 42 -8 84 58
0000e0 bf 40 33 fb 3b 34 bf 35 de 34 38 36 e4 1d 7f 3c
       -65 64 51 -5 59 52 -65 53 -34 52 56 54 -28 29 127 60
0000f0 7f 26 3c 77 3b 33 33 bf 2f 2f 2a 48 36 fe 5f 46
       127 38 60 119 59 51 51 -65 47 47 42 72 54 -2 95 70

model_13/conv_dw_5_bn/FusedBatchNormV3;model_13/conv_dw_5/depthwise;model_13/conv_dw_6/depthwise i1 [1, 3, 3, 64]
000000 17 0b 82 07 20 dc d7 f7 e1 3c 0a 2b 03 35 2d d5
       23 11 -126 7 32 -36 -41 -9 -31 60 10 43 3 53 45 -43
000010 c0 0d ed e8 fc 82 1b a1 fd 20 c8 02 18 34 c0 3f
       -64 13 -19 -24 -4 -126 27 -95 -3 32 -56 2 24 52 -64 63
000020 a7 b9 d1 3b e0 f5 09 fd 70 de e5 05 f5 fe fb f6
       -89 -71 -47 59 -32 -11 9 -3 112 -34 -27 5 -11 -2 -5 -10
000030 1f e0 fe 15 fc f3 05 de 81 1c 31 0e ea 04 fe 17
       31 -32 -2 21 -4 -13 5 -34 -127 28 49 14 -22 4 -2 23
000040 d9 7f 06 ba d3 01 f8 f1 7f 93 cc d7 4c c3 c1 29
       -39 127 6 -70 -45 1 -8 -15 127 -109 -52 -41 76 -61 -63 41
000050 29 da f3 ef 19 77 14 3e 81 ec f0 ee 2d 43 0e e8
       41 -38 -13 -17 25 119 20 62 -127 -20 -16 -18 45 67 14 -24
000060 7f 4b a0 81 95 1d 20 0e 81 f2 96 25 c4 7f d0 05
       127 75 -96 -127 -107 29 32 14 -127 -14 -106 37 -60 127 -48 5
000070 14 38 01 d3 f9 81 7f d0 73 c8 9d c7 34 df 3d 6f
       20 56 1 -45 -7 -127 127 -48 115 -56 -99 -57 52 -33 61 111
000080 13 17 42 0b ff 1b f7 f7 0a 10 14 fc f5 10 09 0b
       19 23 66 11 -1 27 -9 -9 10 16 20 -4 -11 16 9 11
000090 2c 14 15 f8 f7 0c 14 43 da f5 3f fc 0f de 19 dc
       44 20 21 -8 -9 12 20 67 -38 -11 63 -4 15 -34 25 -36
0000a0 da 0b 61 2d f9 f1 01 f7 00 f1 ee f1 04 2b ff 00
       -38 11 97 45 -7 -15 1 -9 0 -15 -18 -15 4 43 -1 0
0000b0 ea ff f6 15 fc e2 f2 1a f2 fb 9a 03 1b 04 24 02
       -22 -1 -10 21 -4 -30 -14 26 -14 -5 -102 3 27 4 36 2
0000c0 d1 ea 7f f3 ce 81 05 0a fa 7f cf 7f 34 54 db 81
       -47 -22 127 -13 -50 -127 5 10 -6 127 -49 127 52 84 -37 -127
0000d0 2f 4e e8 fd 03 7f fd 7f 20 7f 7f 0b 14 42 e6 7f
       47 78 -24 -3 3 127 -3 127 32 127 127 11 20 66 -26 127
0000e0 2c ca 1c a3 81 b0 08 08 9f ea 22 1b 05 e0 fe 05
       44 -54 28 -93 -127 -80 8 8 -97 -22 34 27 5 -32 -2 5
0000f0 01 91 00 1a f7 18 ec fe 0a e2 39 e2 e9 ff f2 da
       1 -111 0 26 -9 24 -20 -2 10 -30 57 -30 -23 -1 -14 -38

model_13/conv_dw_6_bn/FusedBatchNormV3;model_13/conv_dw_6/depthwise i1 [1, 3, 3, 64]
000000 be c0 3c c1 40 91 49 a9 3f 3e bd 55 a2 bb 3b bb
       -66 -64 60 -63 64 -111 73 -87 63 62 -67 85 -94 -69 59 -69
000010 2c 18 36 d0 bf 20 78 b2 3e 61 c1 c0 d3 ac 2e c7
       44 24 54 -48 -65 32 120 -78 62 97 -63 -64 -45 -84 46 -57
000020 c3 ba b9 45 a1 47 3f c7 44 44 45 ba ce 4d 35 b3
       -61 -70 -71 69 -95 71 63 -57 68 68 69 -70 -50 77 53 -77
000030 33 41 b4 7f b9 d4 cf ca 8a 30 50 bd 3e ac 56 42
       51 65 -76 127 -71 -44 -49 -54 -118 48 80 -67 62 -84 86 66
000040 ae 51 57 a8 5b 33 59 9d 58 54 a7 5a 81 a2 4c ab
       -82 81 87 -88 91 51 89 -99 88 84 -89 90 -127 -94 76 -85
000050 4f a1 7f af ad 34 7f a1 3c c6 b0 b3 b1 a1 55 a2
       79 -95 127 -81 -83 52 127 -95 60 -58 -80 -77 -79 -95 85 -94
000060 a5 5c a0 5e 93 61 5f ae 58 52 54 a9 bb 67 47 9f
       -91 92 -96 94 -109 97 95 -82 88 82 84 -87 -69 103 71 -97
000070 4b 5e a3 61 aa bd b0 a2 be 50 6b a9 5b f6 7f 57
       75 94 -93 97 -86 -67 -80 -94 -66 80 107 -87 91 -10 127 87
000080 d5 47 2b d8 2f c3 30 e0 26 23 e1 27 cb d0 19 d7
       -43 71 43 -40 47 -61 48 -32 38 35 -31 39 -53 -48 25 -41
000090 2e 81 53 d9 e2 1b 1a d4 15 fa e6 df d7 e8 2f d1
       46 -127 83 -39 -30 27 26 -44 21 -6 -26 -33 -41 -24 47 -47
0000a0 d8 30 c4 37 cc 27 36 e2 32 16 1d dd d0 37 1f c8
       -40 48 -60 55 -52 39 54 -30 50 22 29 -35 -48 55 31 -56
0000b0 21 2d cd 13 dd d7 d2 c4 ef 35 2d dc 2a 36 43 1d
       33 45 -51 19 -35 -41 -46 -60 -17 53 45 -36 42 54 67 29
0000c0 a3 af 55 a6 55 49 65 93 5c 63 a6 64 18 a2 65 a3
       -93 -81 85 -90 85 73 101 -109 92 99 -90 100 24 -94 101 -93
0000d0 53 24 b7 b0 a9 5a 52 9f 77 7f 99 9b b3 9c 3b a2
       83 36 -73 -80 -87 90 82 -97 119 127 -103 -101 -77 -100 59 -94
0000e0 a4 81 94 64 90 61 57 a7 5f 66 61 a4 5a 5c 5d 9b
       -92 -127 -108 100 -112 97 87 -89 95 102 97 -92 90 92 93 -101
0000f0 60 57 a6 10 98 af ac b2 b6 54 61 9f 55 81 b5 61
       96 87 -90 16 -104 -81 -84 -78 -74 84 97 -97 85 -127 -75 97

model_13/conv_dw_7_bn/FusedBatchNormV3;model_13/conv_dw_7/depthwise;model_13/conv_dw_12/depthwise i1 [1, 3, 3, 128]
000000 f8 fd 0b 21 09 09 0a 11 0b f4 de fd 20 ff 1b 03
       -8 -3 11 33 9 9 10 17 11 -12 -34 -3 32 -1 27 3
000010 1a e2 01 04 f3 f2 1b 01 03 fd 02 0f fb f5 06 f7
       26 -30 1 4 -13 -14 27 1 3 -3 2 15 -5 -11 6 -9
000020 03 23 e5 02 16 f4 e6 e0 14 f2 01 ff e9 09 00 b2
       3 35 -27 2 22 -12 -26 -32 20 -14 1 -1 -23 9 0 -78
000030 fe f1 02 13 10 00 f9 01 06 92 02 25 11 04 0f 1d
       -2 -15 2 19 16 0 -7 1 6 -110 2 37 17 4 15 29
000040 f1 08 fb 19 04 09 12 ba ea fe fb e8 f1 12 79 f2
       -15 8 -5 25 4 9 18 -70 -22 -2 -5 -24 -15 18 121 -14
000050 09 fb e2 fa fd fb 5a 07 f9 13 ff 05 00 29 22 d6
       9 -5 -30 -6 -3 -5 90 7 -7 19 -1 5 0 41 34 -42
000060 7f fc 1a 01 fe 85 ed ff e9 0d 0c f9 f7 ee f4 ff
       127 -4 26 1 -2 -123 -19 -1 -23 13 12 -7 -9 -18 -12 -1
000070 fe 0e 03 0d 01 eb fe 18 ff e7 fe 09 f2 07 03 0e
       -2 14 3 13 1 -21 -2 24 -1 -25 -2 9 -14 7 3 14
000080 e8 e3 17 7f 11 10 1f 81 20 81 8e dc 5b fd e8 f9
       -24 -29 23 127 17 16 31 -127 32 -127 -114 -36 91 -3 -24 -7
000090 7f 81 f9 e6 81 e7 45 d9 e5 00 ff 05 d9 fd e6 ef
       127 -127 -7 -26 -127 -25 69 -39 -27 0 -1 5 -39 -3 -26 -17
0000a0 f9 7f 86 0f 7f e9 ef fe e1 dc 17 8c 91 03 ef cf
       -7 127 -122 15 127 -23 -17 -2 -31 -36 23 -116 -111 3 -17 -49
0000b0 f5 e1 fd 2a 05 eb ed 1d 05 7f 03 7f f3 2f 01 1b
       -11 -31 -3 42 5 -21 -19 29 5 127 3 127 -13 47 1 27
0000c0 04 14 fb 7f 13 f4 d6 3c d1 fe ec 85 01 7f ff ef
       4 20 -5 127 19 -12 -42 60 -47 -2 -20 -123 1 127 -1 -17
0000d0 f5 f5 c0 bc f1 f2 0a fc f1 de 00 f9 f5 7f 1c 97
       -11 -11 -64 -68 -15 -14 10 -4 -15 -34 0 -7 -11 127 28 -105
0000e0 58 06 72 f8 f9 7f c0 f0 c1 7f f1 eb 7f e0 81 fc
       88 6 114 -8 -7 127 -64 -16 -63 127 -15 -21 127 -32 -127 -4
0000f0 04 07 fa e2 f8 cb 02 39 e6 11 f6 15 07 32 f4 09
       4 7 -6 -30 -8 -53 2 57 -26 17 -10 21 7 50 -12 9
