MobileNet/mobilenet_25_10/model_no_quant_new.tflite (tflite, 923580 bytes, 58 tensors)

model/dense/BiasAdd/ReadVariableOp/resource f4 [64]
00000000: 25a3 7bbc 0058 6bbc e2cb 473c 3208 2bbc
00000010: 9dac 40bc 4dfa 5bbc e6a8 85bb e27d 8bbc
00000020: f540 663b a632 3dbc ca80 5d3c 4055 acbb
00000030: 6b18 5fbc 5436 42bb 8ec7 37bc 7456 82bc
00000040: 3910 333c 5351 5bbc 0c79 e03b c8fc 933b
00000050: 1811 b5ba ba86 7c3b d886 14ba e05b 5738
00000060: 8241 e9ba cffe 04bc 2660 a2bb 1543 76bc
00000070: 4612 113c ad5b 0ebc f738 c8ba 2c70 97bb
00000080: d8dc 2fbc 5607 123c 0a9d 42bb 498c b1bc
00000090: 484a 20bc 1638 78bc 0abd 14bc 89d6 90bc
000000a0: 468e 1dbc 4622 70bc 8365 cbbc 7949 45bc
000000b0: b4e5 6bbb 35e3 09bc 6f48 18bc c191 72bb
000000c0: ffae 15bc cd7a 8fbc 4ea3 b3bb 6ab8 84bc
000000d0: 06cc 4abb 40a7 96ba 8292 8dbb 73a6 bbbc
000000e0: ffa8 0dbb cae4 5e3b 5504 2dbc aee8 b9bb
000000f0: 6e91 c1bb 0648 24bc 5e04 623b 2c8e 8abc
-0.015358721 -0.014364243 0.012194606 -0.010438966 -0.011759904 -0.013426376 -0.004078972 -0.017027799
0.0035133932 -0.01154772 0.013519475 -0.005259186 -0.013616662 -0.0029634433 -0.011217011 -0.015910365
0.010929161 -0.013386088 0.0068503674 0.004516218 -0.0013814298 0.0038532452 -0.0005665845 5.134556e-05
-0.0017796012 -0.008117392 -0.0049553094 -0.015030642 0.008854454 -0.008688849 -0.0015275766 -0.004621526
-0.010733806 0.008912882 -0.0029695653 -0.021673338 -0.009783335 -0.015150091 -0.009078274 -0.017680423
-0.00961644 -0.014656609 -0.024828678 -0.012041443 -0.0035995068 -0.008415987 -0.009294613 -0.0037013146
-0.009135961 -0.01751461 -0.005482114 -0.016201217 -0.0030944361 -0.0011493936 -0.0043204436 -0.022906518
-0.0021615622 0.003401088 -0.010560115 -0.0056734895 -0.005907229 -0.010026937 0.0034487466 -0.016913496

model/dense_1/BiasAdd/ReadVariableOp/resource f4 [2]
00000000: 122b 0a3b 202b 0abb
0.00210828 -0.0021082833

model/conv1_bn/FusedBatchNormV3 f4 [8]
00000000: ec1b 0d40 7f29 8940 23c8 9d3e 0638 c7be
00000010: ae1c 393f 4d23 5141 975b 4640 3a8f b3be
2.2048292 4.2863154 0.30816755 -0.3890993 0.72309387 13.071118 3.0993402 -0.3507021

model/conv_dw_10_bn/FusedBatchNormV3 f4 [128]
00000000: 0cc5 05c0 d74a 0e40 f50f 3c40 e014 fa40
00000010: 467b 85c0 ec8b 31be d15d 99c0 adb9 b3bf
00000020: 726a 4b3f 1bb0 db3f 5c0b 5b40 5ca8 4740
00000030: c804 f13f 72a8 d140 d7ac 1cc0 5816 67bf
00000040: a3ed 1abf 9c41 2fbf 23f6 d73f 9892 bfbf
00000050: 8a04 7f40 4e2d 4c40 aa98 6a40 0873 0cc0
00000060: 3c64 d83f 3364 b4bf c9a0 9940 c46f 823c
00000070: 3b3a eb3f d614 74be 1176 93be 9a34 7abf
00000080: bc48 2c3f 107b 7d40 383f 0840 8407 55c0
00000090: 1630 dabf c426 723f dd19 7340 e315 a540
000000a0: 4807 75bf cce7 5040 1487 3dbe 6f2d ccbf
000000b0: dc12 6640 ae3b e9bf 8ccd 0abe 8015 08c0
000000c0: 7007 70be 4411 02c0 48e9 12be 0014 ec3b
000000d0: 91f4 6a40 ec4f 993e 2681 3640 4ae8 4f40
000000e0: 3cbe 0140 b287 3cbf 42e3 8bbe 44d9 c93f
000000f0: f0f7 c9be 492d cb40 c8eb a63d 584f 0ac0
00000100: 0bd0 13bf 68df cfbf ccc3 2dbf 0510 0740
00000110: 2e28 0340 6f57 1940 0cf6 e0bf e0cc c9bc
00000120: 765c 3f40 3f8c 6340 ea4f f83f bca1 9cbf
00000130: 5472 c83f 1c4b e33f b041 60be 3044 0fbe
00000140: e896 75be 1fde 3c40 be7b df40 a654 93bf
00000150: 5a88 04c0 30f7 863f 5614 bbbf 30cd 21bd
00000160: 6289 6340 2e10 ea3d c288 c5bf c3df 5f40
00000170: c8d2 29c0 551c 2640 8af1 dbbf 3c4e 03bf
00000180: 1dea 6740 3157 fa3f bc15 f63f 4a6f 4fc0
00000190: 6ca1 c240 804f 08bd f23a f33f 7aee d7c0
000001a0: 16d3 1f40 e303 d840 f9c5 803e 7dc8 d63f
000001b0: 96d8 d540 bb9c d23f 8136 35bf c461 313f
000001c0: 4258 3c40 069a de3f 666b 8a40 362c 85c0
000001d0: 517c 26c0 eab7 67bf ea31 1a40 bc6a 92c0
000001e0: 280b 0040 7170 0fc0 6eab 5a40 00d6 af40
000001f0: 700f 03bf bd32 0f40 61fa 3940 54ff edbe
-2.0901518 2.2233179 2.938474 7.815048 -4.171298 -0.17338532 -4.792702 -1.4041039
0.794593 1.7163118 3.4225683 3.1196508 1.8829584 6.551812 -2.4480493 -0.9026847
-0.60518855 -0.68459487 1.687199 -1.4966612 3.984652 3.1902652 3.6655679 -2.194521
1.6905589 -1.4093078 4.800877 0.015922435 1.8377146 -0.23836073 -0.28801015 -0.97736514
0.67298484 3.9606361 2.1288586 -3.3285837 -1.7045925 0.945904 3.7984536 5.1589217
-0.95714235 3.2641478 -0.1850856 -1.5951365 3.594901 -1.8221338 -0.13554972 -2.1263123
-0.23440337 -2.0323038 -0.14346802 0.0072045326 3.6711771 0.29943788 2.8516326 3.2485528
2.027236 -0.73644555 -0.2732182 1.5769429 -0.39446974 6.349278 0.081504405 -2.1610928
-0.57739323 -1.6240053 -0.6787689 2.1103528 2.0493274 2.3959615 -1.7575088 -0.024633825
2.9900184 3.555435 1.9399388 -1.2236857 1.565989 1.7757297 -0.21900058 -0.13990855
-0.23983347 2.9510572 6.9838552 -1.1510208 -2.0708222 1.0544186 -1.4615581 -0.039502323
3.5552602 0.11428867 -1.543236 3.4980323 -2.65349 2.5954792 -1.7183087 -0.5129125
3.6236641 1.9557859 1.9225383 -3.2411675 6.082205 -0.033278942 1.9002364 -6.747861
2.4972587 6.7504745 0.2515104 1.6779934 6.6826887 1.645408 -0.7078629 0.69289804
2.9428868 1.7390754 4.32561 -4.161647 -2.6013377 -0.90515006 2.4092965 -4.575529
2.000681 -2.2412379 3.4167132 5.494873 -0.5119543 2.2374718 2.905907 -0.46483862

model/conv_dw_11_bn/FusedBatchNormV3 f4 [128]
00000000: f4cd 08be 2374 9340 0fd6 9140 b3be e6be
00000010: ba06 9dbe 4443 d040 9c07 9dbf b72d a340
00000020: 5a39 38c0 df96 1940 43ef 92bf 7258 44bf
00000030: 80fa cf40 2c18 88bf aec5 c640 03a3 0ebf
00000040: bc65 303f 8f7b 13be dea8 0541 8f32 4d40
00000050: f839 6bbf 7ce7 2dbf 48ce 2c3d 96d3 cd3f
00000060: 406e b4be 9781 a8bf 3e7b 4040 d3bf 4840
00000070: 705e b0bd 46dc dcbf 7a5c 3d40 11b1 1bc0
00000080: 689a ccbe c20f b440 2083 c6bc 0524 1341
00000090: 5a05 8b40 23df 1b40 3828 8b40 d0c1 a83d
000000a0: b254 d0be 35fe bc3f 4a2b 4e40 e2c3 d2be
000000b0: 18fd 4640 62af 6240 a89d 95be 6224 00bf
000000c0: 6021 1240 67fd 0840 4a7b 31bf 0037 bd3b
000000d0: 20fe 9fbc 19e6 3ebf ce88 2e40 ba33 47bf
000000e0: d44f 893e cd6b 3bbf 3644 21bf 793d 8640
000000f0: e057 ce40 8e4b a9be 39f5 a740 0e9a 06c0
00000100: f8c4 1bbf 21ed 9d40 d76e 00bf f9b6 8ebf
00000110: 0d1f d9c0 eccd a1be 1a00 7f3e 1f45 7440
00000120: cfc1 b740 fb7f 32c0 a0e9 4b40 70f1 d43d
00000130: d0e2 ffbf 201f db3c b45a 6ebf 0b74 15bf
00000140: 7d3b 3abf d96a 4e40 2650 93bf 6f6d 7540
00000150: 840c 0140 d8f3 7340 b09d 8140 dc93 28bf
00000160: 4ee7 21c0 74df 8240 7cf4 1340 2019 8e3b
00000170: 90bf 6cbc 93db c340 cc40 6040 aa54 0f40
00000180: d5b2 0cc0 10b7 c1bf 3924 6f40 d0df 9c3f
00000190: 0e33 c840 e884 a440 181f 36be 68d1 7240
000001a0: 36cb bc40 607d 09bf 109b 04be 22d5 88bf
000001b0: 0a1b 12be 30a0 26bf 58ae efbf d4d6 0bbf
000001c0: b41c 28c0 313d 6d40 10b2 e8bd f4e6 b3bf
000001d0: bfac c940 4d36 20bf b025 6dbe 80cd 6abb
000001e0: b80d 65bf 1b22 b840 acd0 f8be a9e7 a540
000001f0: 1d9f 11bf 4cb5 33be 37fd 943f d024 16be
-0.13359815 4.607927 4.55738 -0.45067367 -0.30669194 6.508211 -1.2267947 5.0993304
-2.8785005 2.3998334 -1.1479267 -0.76697457 6.4993286 -1.0632377 6.211631 -0.55717486
0.68905234 -0.14402603 8.353727 3.2062109 -0.9188533 -0.6793134 0.042188913 1.6080196
-0.35240364 -1.3164548 3.007522 3.136708 -0.086117625 -1.7254722 2.9587693 -2.4326823
-0.39961553 5.6269236 -0.024232447 9.196294 4.3444033 2.4354942 4.3486595 0.08240092
-0.40689617 1.4765078 3.2213922 -0.41165072 3.1091976 3.5419545 -0.29221845 -0.50055516
2.283287 2.1404665 -0.6932875 0.005774379 -0.019530356 -0.7456985 2.7271 -0.77813303
0.26818717 -0.73211366 -0.62994707 4.195004 6.448227 -0.33065456 5.2486844 -2.1031528
-0.60847425 4.9351964 -0.5016913 -1.1149589 -6.7850404 -0.31602418 0.24902382 3.8167188
5.7424083 -2.7890613 3.1861343 0.10397613 -1.9991093 0.02674824 -0.9310715 -0.5838019
-0.7274702 3.2252715 -1.1508834 3.8348043 2.016389 3.811758 4.050499 -0.65850616
-2.5297427 4.089777 2.3117971 0.004336491 -0.014449969 6.1205535 3.503955 2.2395425
-2.198415 -1.5133991 3.7365859 1.2255802 6.2562323 5.141224 -0.17785299 3.7940311
5.899806 -0.5370693 -0.12949777 -1.0690043 -0.14268127 -0.65088177 -1.872508 -0.54624677
-2.626752 3.7068598 -0.11362088 -1.4054856 6.302337 -0.62582856 -0.23158908 -0.0035828054
-0.8947406 5.7541633 -0.48596704 5.184529 -0.5688341 -0.17549628 1.1639775 -0.1466248

model/conv_dw_12_bn/FusedBatchNormV3 f4 [128]
00000000: a6a8 6b40 9514 4e40 f088 56bd 8142 efbf
00000010: 7069 a8bd c25e 1fc0 e017 d8bd 5c66 2740
00000020: e9b5 6440 4033 edbc 9871 a040 1473 e440
00000030: d040 02be 7c53 d940 486d e6bd 5a33 b840
00000040: 10f9 7ac1 7001 67bf a8a1 10be 80c0 853c
00000050: d502 af40 8c77 96bd 8ab3 d240 a0b0 9c40
00000060: 6087 01be 2297 8640 c0dc 383d a8ef afbd
00000070: 7f1f c13f 3987 c540 9c5f c540 c070 c6bc
00000080: ccee 1dbd 68ca 6540 0284 f33e 0046 30bb
00000090: 6005 c8bc ca28 c240 883f 9140 0080 503a
000000a0: 5fe7 a540 9071 e03d 550e c240 2056 6bbd
000000b0: 3089 89bd da84 1ebe 72f6 9940 ac94 b1be
000000c0: d8ab bd40 4612 cb40 4473 0240 c02f 3e3d
000000d0: d0d7 373e 4a19 babf 709f 1bbd 00f6 9abe
000000e0: 2807 2abe afbb 8a3e 819b 8abf c085 a3bd
000000f0: 907f 19be 7b5e 9d40 e2cf 05be dc4c 6640
00000100: a087 dbbc 58d6 32bd fca4 a5c0 2ebc 4040
00000110: 7ee5 8840 65a2 c140 171c a040 54b5 bf40
00000120: 7c65 be40 6cd0 be40 8922 b440 30c8 9fbc
00000130: 1ff9 b540 d0ba 2dbd ab13 4c40 c051 b5bd
00000140: c8c0 52bd dff8 a440 6d74 b540 e075 02bd
00000150: d81d 3c40 13e8 df40 7f00 ec3f ac73 a340
00000160: 602a a73c 60d9 6540 5006 bebd 70a8 71bd
00000170: 48e3 c640 8661 29be 3a8c a540 9452 e0bd
00000180: 35fa c140 4a95 a340 e5fd 8ebe c825 babd
00000190: f041 243e 58de a4bd 2fce 8040 b4bb 8ebd
000001a0: b25a bdbf 91a4 6740 741a 9440 08fa d4bd
000001b0: 00db 5ebb e08c 4c3c 0546 3440 6292 1340
000001c0: 78f7 2dbe 4368 c240 4cde a740 0be1 b940
000001d0: cfe2 be40 d0c9 9ebc bdc2 b740 e051 fd3c
000001e0: a426 8240 1245 2040 5000 223f 59de 0ec0
000001f0: ccef 5bbe 7845 a4bd 505f 91bc fb7c a1bf
3.6821685 3.2200062 -0.052376688 -1.869217 -0.082232356 -2.4901586 -0.10551429 2.6156225
3.573603 -0.028955102 5.0138664 7.1390476 -0.12720037 6.791441 -0.112513125 5.7562685
-15.685806 -0.9023657 -0.14124167 0.016327143 5.4690957 -0.073470205 6.5844164 4.8965607
-0.12649298 4.205949 0.0451324 -0.08590633 1.5087737 6.1727567 6.167921 -0.024223685
-0.038557813 3.590479 0.4756165 -0.0026897192 -0.024416625 6.067479 4.5390053 0.0007953644
5.1844935 0.1095916 6.0642495 -0.057455182 -0.067156196 -0.15480366 4.8113337 -0.3468374
5.927227 6.3459806 2.0382853 0.046432257 0.1795342 -1.4538968 -0.03799385 -0.30265808
-0.16604292 0.27096316 -1.0828706 -0.07984495 -0.14990067 4.9177833 -0.13067582 3.5984411
-0.02679807 -0.043661445 -5.1763897 3.0114856 4.278014 6.0510736 5.003429 5.990885
5.949888 5.962942 5.6292157 -0.019504637 5.6866603 -0.042414486 3.1887004 -0.08853483
-0.05145338 5.15538 5.670462 -0.031850696 2.9393215 6.9970794 1.8437651 5.10787
0.020405948 3.5913925 -0.09278548 -0.058998525 6.2152443 -0.16541108 5.1733675 -0.109532505
6.061793 5.111974 -0.2792808 -0.090892375 0.16040778 -0.08050221 4.025169 -0.06969395
-1.4793303 3.6194193 4.628229 -0.10399252 -0.0034005046 0.012484759 2.8167737 2.3058095
-0.16988933 6.0752273 5.245886 5.808721 5.9651866 -0.019383341 5.742522 0.03092283
4.067217 2.5042157 0.63281727 -2.232321 -0.21478194 -0.080210626 -0.017745644 -1.2616266

model/conv_dw_13_bn/FusedBatchNormV3 f4 [256]
00000000: 44d6 1840 f692 8f40 f8b0 38bd 0243 f3bd
00000010: d5f0 d73f 6793 4d40 bc73 99bd bb3e 45be
00000020: 8c96 d7bd 88c6 02be b056 60be eabe 2b3e
00000030: 612b c2bf 82a1 1fbe c362 4440 b82c 4840
00000040: 70c6 46bc 11c6 dbbe c0ad a73f 3070 8f40
00000050: 60e0 6e40 2887 93bd 4633 8a40 f798 3340
00000060: 125e 95bd 5193 1640 d86d f2bd 34c2 febd
00000070: 8a9e a33f c0d4 42be 4894 9cbe fe48 1ebe
00000080: 5a30 663e 58c6 473d 1c19 273e 68da 2fbd
00000090: 6033 5640 989c 39be ec2b 183f 386c 6140
000000a0: a2cd a240 67f5 a140 0ace 10bf dc91 f43f
000000b0: f884 7ebd 8e07 c73f 88d9 1ebe 1056 d9bc
000000c0: 06bb 9f40 a2f5 3040 300b 4740 e998 873f
000000d0: e69e 593f 4216 1dbe a641 0440 5646 a4bf
000000e0: a879 6abe bb96 5440 1e64 3440 08d0 dfbd
000000f0: 932a 663f 6205 0240 cecd 983e f222 f93f
00000100: 5c3f 9dbe a032 1bbc 80d0 f03b 8e76 32be
00000110: 7344 1240 de02 6340 ef06 1f40 087a 6e40
00000120: 6877 42bd c495 b4bd 7055 0fbe 8cc2 9c3e
00000130: 1eae 7abf 9677 5340 8c87 a2bd c06e 80bb
00000140: de3d 3f3f c0f9 a7bd c049 acbc d57c 84be
00000150: 289d fcbd 88e7 7ebd aadf 9140 8c84 be40
00000160: 9cbe 5740 941d d0bd 8c8c bcbd f1be 1f40
00000170: ba44 fb3f c0ec 1040 6203 acbd f3f1 0e40
00000180: 1479 053e 8ad4 22bd 4374 2fc0 de1b 12be
00000190: e00d eb3e 283f 2bbd fa7e e13f 36af 98be
000001a0: 8000 6640 5869 debd bb71 a340 1abf 903d
000001b0: 66f9 00bf 1038 83bf b8cd 5c40 24a1 883f
000001c0: 18a2 52bd 8087 1c40 a032 54bd 1018 3e40
000001d0: a484 02be caea 4440 f057 51bd 2098 eb3f
000001e0: a0b5 f93f f499 503f 8e5a b640 8c27 84bd
000001f0: 0848 8abe 54e2 3dbe f401 8d40 1f69 b940
00000200: 6254 e63e 0090 7fbd 1e4e 25be f0a5 8ebd
00000210: 4476 2540 e406 ecbf 9130 bd40 008f b8be
00000220: 1cb8 30be 0062 fbbd b29e 38be cc09 5e40
00000230: e8bc 88bd 772e 7dbf da3b 4640 394c 1740
00000240: 2c33 0440 0cff 503d f800 33bd d085 3dbe
00000250: 8258 3a40 08d6 3640 fa7b d13f 7127 6e40
00000260: c07c 5abe b90e 7940 b391 d6be fe61 65be
00000270: e486 0d3f c4ff 5840 e8e3 82bd b92f 9440
00000280: 008b 99bb ace3 e8bd ce6a 2340 1d0d 3abe
00000290: 0016 b13b a8c8 ac3e b234 6ebe dd04 9dbe
000002a0: af7a 4440 b582 c43c a696 3240 ad5f 6940
000002b0: e41e 9bbe 7849 ab40 766e d5be 785f 2b40
000002c0: c424 6fbd 7861 dabd fec3 e73f ee43 9740
000002d0: d654 72be 210f be3f 6e97 2340 046e 11bf
000002e0: 5011 3f3f c72c 2840 17d0 8d40 4ce0 99be
000002f0: 8444 1440 f536 3440 d35c a43f 3ee7 b8be
00000300: 3ea8 1c3e 7432 933e 4e00 e93e f4c2 0e40
00000310: c2da 2e40 9c12 fc3f 4249 8cbe d215 10bf
00000320: 6dba 9140 a6d0 8c40 7a02 5a3e 7a5e a640
00000330: eb90 f940 782a 1b3e 9736 8040 16e9 e73e
00000340: 706b c9bd bd3a 1b40 2067 1b3f fa6c a4be
00000350: 16de 87be 7ed7 1bbe ca6a 08be c0b4 e9bd
00000360: e0c2 92be bc77 3f40 2c92 f53f 9566 90bf
00000370: f8c6 c0bd 5597 db3f b034 e1bd 5bb8 ec3f
00000380: f8b9 16bd 20e8 ccc0 afd7 df3f 96e5 db3f
00000390: 173e 22bf 761c 8e40 c614 0740 d14c 94be
000003a0: 3098 86bd c9af 0e40 9417 ad3f e8fd fdbd
000003b0: 478f 8240 7001 33bd 52fb 52be 8000 36bc
000003c0: 0a86 3740 880a c340 f5a8 52bf 4ca3 8b40
000003d0: 10f5 4640 f219 b840 530a 03bf 9fb3 b23e
000003e0: 408a 2240 25ee 4bbf 60bb 5cbc 2080 cabd
000003f0: 4092 693d 562b 23be 00e9 1a40 0a44 e5bd
2.3880777 4.4866896 -0.045090646 -0.11878015 1.6870371 3.2121217 -0.07492778 -0.19262211
-0.105267614 -0.12771046 -0.21908069 0.16772047 -1.5169488 -0.15588954 3.068528 3.1277294
-0.012132272 -0.4292455 1.3099899 4.482445 3.7324448 -0.072035134 4.318759 2.8062112
-0.07293333 2.3527415 -0.11837357 -0.12439385 1.2782757 -0.1902647 -0.3058188 -0.15457532
0.22479382 0.04877314 0.16318172 -0.042932898 3.3468857 -0.18126142 0.5944202 3.5222301
5.0876017 5.0612063 -0.5656439 1.9107013 -0.062138528 1.554918 -0.15512669 -0.026530296
4.99158 2.7649922 3.1100578 1.059354 0.85008085 -0.15340522 2.0665069 -1.2833965
-0.2289797 3.3216999 2.8186107 -0.10928351 0.89908713 2.0315785 0.29844517 1.946379
-0.30712402 -0.009472519 0.007349074 -0.17428038 2.2854278 3.54705 2.4847982 3.7261982
-0.047477156 -0.08817628 -0.13997436 0.30617177 -0.9792193 3.304174 -0.0793601 -0.0039194524
0.74703777 -0.08201933 -0.02103126 -0.2587649 -0.12334663 -0.062232524 4.5585527 5.95368
3.3710089 -0.101618916 -0.09206495 2.4960291 1.9630349 2.26445 -0.08399083 2.2335174
0.13034469 -0.039753474 -2.741471 -0.14268443 0.45909023 -0.041808277 1.7616875 -0.29821175
3.5937805 -0.108599365 5.107633 0.070677 -0.5038055 -1.0251484 3.450056 1.0674176
-0.051424116 2.4457703 -0.051806092 2.9702187 -0.12745911 3.0768304 -0.051109254 1.84058
1.9508553 0.81484914 5.698554 -0.064528555 -0.2700808 -0.18543369 4.4064884 5.794082
0.44986254 -0.06239319 -0.1614308 -0.06965244 2.5853434 -1.8439603 5.9121785 -0.360466
-0.17257732 -0.122745514 -0.18029287 3.469348 -0.06676656 -0.98899025 3.097403 2.3640273
2.0656233 0.05102448 -0.043702096 -0.18508077 2.911652 2.8568134 1.636596 3.7211573
-0.21336651 3.8915236 -0.41908035 -0.22400662 0.5528395 3.3906107 -0.06391126 4.6308255
-0.0046857595 -0.1137155 2.5533938 -0.18169065 0.005404234 0.3374684 -0.23262289 -0.30667773
3.069988 0.023988107 2.7904449 3.6464646 -0.30297005 5.3527184 -0.41685838 2.677702
-0.05838467 -0.10663122 1.8106687 4.727042 -0.23665175 1.4848367 2.5561175 -0.56808496
0.7463579 2.627733 4.4316516 -0.30053937 2.3166819 2.8158543 1.2840828 -0.36113924
0.15298554 0.2874943 0.45508045 2.230649 2.732102 1.9693179 -0.2739964 -0.56283295
4.554007 4.40047 0.21290007 5.199033 7.79894 0.1515292 4.006664 0.45295018
-0.09834945 2.42546 0.6070423 -0.32114393 -0.26536626 -0.15218922 -0.13321987 -0.114114285
-0.28664303 2.991683 1.9185233 -1.1281306 -0.0941295 1.7155558 -0.109963775 1.8493761
-0.036798447 -6.4033356 1.7487696 1.7179439 -0.6337599 4.440974 2.110643 -0.28964856
-0.06571996 2.229479 1.352282 -0.124019444 4.07999 -0.043702543 -0.20603684 -0.011108518
2.867556 6.0950356 -0.8228906 4.3636837 3.1087074 5.753167 -0.5118763 0.34902665
2.539688 -0.79660255 -0.013472408 -0.09887719 0.05702424 -0.159345 2.4204712 -0.11194618

model/conv_dw_1_bn/FusedBatchNormV3 f4 [8]
00000000: 2639 e740 0474 4b40 e65d 1e3f d6a6 b6be
00000010: 705d 6940 04e1 ac40 bc1b cf40 102d 3bbf
7.225726 3.178956 0.6186203 -0.3567416 3.646328 5.4024677 6.4721355 -0.73115635

model/conv_dw_2_bn/FusedBatchNormV3 f4 [16]
00000000: e01e 5340 ae45 903f 36c8 5dbe d860 b7bf
00000010: d721 a840 0c63 ba40 442a 993f ae8c 3c40
00000020: 96c7 6b3e 517c 19c1 9012 a03d 8e05 0241
00000030: e80d dabe 7062 a740 97e3 5240 0bee 4340
3.2987595 1.1271265 -0.21658406 -1.4326429 5.254131 5.8245907 1.1966023 2.9460864
0.23025355 -9.592851 0.078160405 8.126356 -0.42588735 5.2307663 3.295141 3.061404

model/conv_dw_3_bn/FusedBatchNormV3 f4 [32]
00000000: ccdb 00be 2f5d 19bf 7769 1440 3827 c23d
00000010: a8a8 3f40 5b2c 5740 399d 2a40 4a02 da3e
00000020: c010 1a3c 0a7a e23f ebf7 3540 61e6 5040
00000030: c16b 8340 6ed6 f43f 37a5 83bf a246 9540
00000040: 0f27 4f40 fec8 273f 96b0 8abf 29d4 c840
00000050: 3eea 3540 eeb9 943f bdf4 9cc0 a868 4f40
00000060: b65a a640 4199 3a40 3c4c 0f40 86fd a740
00000070: dc91 8abe be48 3c3e 5806 503f 4fc0 1c41
-0.12583846 -0.5990781 2.318937 0.09480137 2.994669 3.3620822 2.665846 0.4257987
0.009403408 1.7693493 2.8432567 3.2640612 4.1069036 1.9127939 -1.0284795 4.664872
3.236759 0.65541065 -1.083514 6.2758985 2.842422 1.1619241 -4.9048753 3.2407627
5.198573 2.9156039 2.239028 5.2496977 -0.27064407 0.18387124 0.8125968 9.79695

model/conv_dw_4_bn/FusedBatchNormV3 f4 [32]
00000000: 302e f340 c4a7 b43e b273 4340 eb7d 8cbf
00000010: 087b 283e 98af 603e 8c36 b740 905d d5be
00000020: 3112 bd40 0022 b3bd efcf ac40 0813 4b3e
00000030: 6a63 d040 1580 813f 4ae8 acbf 9c69 51be
00000040: a8a0 5e40 d89d bb3e 7cce 603e c225 cabe
00000050: 045c 0d3e 326d c040 c0c6 e7bf 1a74 be40
00000060: 5074 17be 386e e53d e55a ccc0 b810 4f3e
00000070: 6c57 653e a837 cbbf f058 9cbc 60ea 203d
7.599388 0.35284245 3.0539365 -1.0975927 0.16453183 0.21941984 5.7254086 -0.41672945
5.9084706 -0.08746719 5.4003825 0.19831479 6.5121355 1.0117213 -1.3508389 -0.20450443
3.4785557 0.36643863 0.21953768 -0.39481932 0.13804632 6.0133295 -1.8107529 5.9516726
-0.14790463 0.11202663 -6.3860955 0.20221221 0.2239663 -1.587636 -0.019085377 0.039286017

model/conv_dw_5_bn/FusedBatchNormV3 f4 [64]
00000000: 0ae7 1b40 e06a 4d3c 5eed 3a40 c3f0 ecbf
00000010: 2c43 c840 13a1 ba3d c0d0 1dbd cd6e 823f
00000020: 4041 513d 0c7a 853d e625 ae40 43cc 1c3e
00000030: 9434 f5c0 fdd0 4040 804a f43e 4a05 20bd
00000040: 0832 4a3f 4036 d1bf 0811 e140 2a26 8f40
00000050: 968e 1c3f ae4f a53c 4fcb 6d40 6910 ff3f
00000060: a6eb f8bd e7fb 643e 5832 193f 699e ba40
00000070: 4c8a 023f a88e 6f3d 90cb 77be de38 a3bd
00000080: b853 193f 1038 bcbc 6f15 af3f e76c 05bc
00000090: 4206 9d40 5dfd 21be b404 9ebf 7859 61bf
000000a0: 6eaa ce3e 0cec 3840 6eb4 c8be 200a 5dbf
000000b0: 3879 b9bf 2a0f 3ebf 7dcb 3bc0 4827 6fc1
000000c0: c85c 0cbe 57d8 f7bc 7f70 8dc0 c7db 263f
000000d0: 7c39 8640 5afe 39bd e71f 3f3e 6b46 563f
000000e0: 424c b93e 6004 d340 c3e5 6940 f854 a340
000000f0: 0051 25bc 531c 0141 833d 24c0 ee13 793f
2.4359765 0.012537688 2.9207377 -1.8510975 6.2581997 0.09112754 -0.038529158 1.0190064
0.051087618 0.06517419 5.4421263 0.15312295 -7.662668 3.0127556 0.4771309 -0.039067544
0.7898259 -1.6344681 7.033329 4.4734087 0.6115507 0.020179596 3.715534 1.9926883
-0.12154321 0.22361718 0.59842443 5.831837 0.50992274 0.058485657 -0.24198747 -0.07969831
0.5989337 -0.022975951 1.3678416 -0.00814364 4.907014 -0.15819307 -1.2345185 -0.88027143
0.40364403 2.8894072 -0.39200157 -0.86343575 -1.4490118 -0.7424189 -2.934295 -14.94709
-0.13707268 -0.030254526 -4.4199824 0.65179104 4.194517 -0.045408584 0.18664514 0.837012
0.36190993 6.594284 3.6546485 5.104122 -0.010090113 8.069415 -2.5662544 0.97296035

model/conv_dw_6_bn/FusedBatchNormV3 f4 [64]
00000000: ce48 c840 d89d 9e3f 745e 7f3f fc77 c140
00000010: 34e6 a63f 7ad6 063e d082 653f 7a0b bf40
00000020: 96dc 513f 900c e53d ab4b bf40 48e0 04bf
00000030: 54aa 633e 6819 a640 3060 21be 3eb7 ee40
00000040: 701e 4b3d 0aca 9140 5918 6fbd c5f8 f340
00000050: d1cd a540 b05c 88bd 278a adc0 adf8 c540
00000060: 58c3 0d3f 87d9 a7bf 6525 ce40 61b5 c940
00000070: 3c25 d340 bb8d 5740 7c81 50bf 66bb 1140
00000080: 2e54 9440 017c 0540 4c97 b840 4821 d9bd
00000090: f54d 9240 b818 bdbd 5081 913d cdce 0141
000000a0: 70b1 f23f c084 d0bd 00d4 6bc0 8848 1141
000000b0: e320 6abe 68e5 5bbf 808c 52be c567 5740
000000c0: c001 633e f02d 66bd c9f5 7b40 79c4 3d3f
000000d0: 9f0a 3a40 6b5e b440 ae4b af40 4a02 7440
000000e0: cae3 2940 f0a5 363f 688d b6bd 152b df40
000000f0: e0f7 23bd 1f45 5640 50a5 6e3c 6613 8bbf
6.2588873 1.239192 0.997535 6.0458965 1.3039002 0.13167754 0.8965273 5.970151
0.8197721 0.11184037 5.977987 -0.51904726 0.22232944 5.1906013 -0.15759349 7.4598684
0.049589574 4.555913 -0.05837283 7.6241174 5.181374 -0.06658304 -5.4231143 6.186606
0.55376196 -1.3113259 6.442065 6.303391 6.598295 3.3680255 -0.8144758 2.277063
4.635276 2.0856936 5.768469 -0.10602051 4.5720162 -0.0923323 0.071047425 8.112988
1.89604 -0.1018157 -3.6848145 9.080208 -0.22864108 -0.8589692 -0.20561409 3.3657086
0.22168636 -0.056196153 3.9368765 0.7412792 2.9068983 5.6365256 5.4779882 3.8126397
2.6545281 0.7134695 -0.0891369 6.974009 -0.040031314 3.3479688 0.014565781 -1.0865295

model/conv_dw_7_bn/FusedBatchNormV3 f4 [128]
00000000: ed66 c33f 8083 9c40 8c17 efbf a914 7b3e
00000010: a86b bbbe ac5d fabf 18f1 af3f 56a2 1bbf
00000020: 598e 01bf b2c2 203e 00f8 09b9 93f4 a240
00000030: ec0b 58be b49c 043d 4034 fa3d 78a8 8b3e
00000040: 26c7 a63e 0828 353c 5761 8b3d 8648 bc40
00000050: 9833 9fbe 968a 7c40 d63a 2fc1 9be1 a33f
00000060: 47cb 6f3f f7ec 2141 8da8 bc3c 1ea2 373e
00000070: 0659 9b40 5e27 9cbf cd07 343f e62d 10bf
00000080: 7828 e640 0c55 7a3f 9099 f7bd e2fb 9fbf
00000090: e01b 253f 24f1 503f 82bd ccbc 0301 b83d
000000a0: f052 703d efc4 8640 4924 c73f 0cb8 48bd
000000b0: 704f 2dbe d808 87bc c21b acbf afcf aabc
000000c0: 96b9 be3f 41e3 b040 74d1 ec3f d2ec 50bf
000000d0: be4c b7be e811 1f3e a2a0 813f a059 9abf
000000e0: 0895 d0be aaaa d43d 8edf 8040 1e64 5f3e
000000f0: 9445 c83f f835 8abd 06f0 c73c b772 0d40
00000100: 5a4d debe 3e8b 98bf cbd5 2f40 9164 773e
00000110: d82d b3bd 7f78 c940 13c4 a141 0058 993e
00000120: bcb3 c140 d668 8a3f 1059 7240 0dd7 c3bd
00000130: 507a 6f3d 79d9 3b3c a3b5 3a40 0c66 49bf
00000140: 44e7 7641 6edd ad3f 9496 08be 5a00 f23e
00000150: 5610 b63f dea6 6640 ded8 fd3f 1627 f93f
00000160: 3e4f 9740 00f1 9bbb baa5 34bf 8ea8 8bbd
00000170: b8f9 823e f810 b13d e467 e9bd 3d35 2b3e
00000180: e101 823f b3e2 e3bf 2750 a33e 82e9 65c1
00000190: 6596 b43f 74a3 1e40 b800 1940 7242 da40
000001a0: 8838 b340 a44b 323e bc4e c440 6876 0440
000001b0: b4a4 5f40 42db 8c40 b011 923d 8acd 86bf
000001c0: 14ed 553f c82d ce40 8e90 3641 b04a 7e41
000001d0: 0020 dc3e 1c20 f7be cc02 93be fd02 9dbf
000001e0: b0b5 3fbe be2e 15c0 1016 633f 64f1 21bf
000001f0: afd6 bfc0 10d0 bcbf 686e 213f 050a 85bd
1.5265785 4.8910522 -1.8679061 0.245196 -0.36605573 -1.9559836 1.3745451 -0.6079458
-0.5060783 0.1569927 -0.00013157725 5.0923553 -0.21098298 0.032376006 0.12216997 0.2727697
0.32573813 0.0110569075 0.068056755 5.883853 -0.3109405 3.9459586 -10.951864 1.2803224
0.9366955 10.120353 0.02302959 0.17932937 4.854617 -1.2199514 0.70324403 -0.56320035
7.19244 0.9778602 -0.120898366 -1.2498744 0.6449566 0.8161795 -0.024992708 0.08984568
0.058672845 4.2115397 1.5557948 -0.049003646 -0.16924834 -0.01648371 -1.3445971 -0.020850984
1.4900386 5.527741 1.850142 -0.8161136 -0.35800737 0.15534174 1.0127146 -1.2058601
-0.40738702 0.10384114 4.0272894 0.21815535 1.5646234 -0.06748575 0.024406444 2.2101266
-0.4341839 -1.1917493 2.747424 0.24159457 -0.087489784 6.295959 20.22074 0.2994995
6.05319 1.0813243 3.786686 -0.09562502 0.058466256 0.011465424 2.9173362 -0.78671336
15.431461 1.35832 -0.13338691 0.47265893 1.4223735 3.6039348 1.9831808 1.9465053
4.728423 -0.004758954 -0.7056538 -0.06819259 0.25581145 0.08645815 -0.11396769 0.16719528
1.0156823 -1.7803558 0.3189709 -14.369509 1.4108397 2.4787264 2.3906689 6.820611
5.600651 0.17411667 6.134611 2.069727 3.4944277 4.401765 0.0713228 -1.0531476
0.8356488 6.4430885 11.410292 15.893234 0.42993164 -0.48266685 -0.2871307 -1.2266537
-0.18721652 -2.330978 0.8870554 -0.6325896 -5.9949565 -1.4750996 0.6305909 -0.06496052

model/conv_dw_8_bn/FusedBatchNormV3 f4 [128]
00000000: 8013 e4bb ab68 9740 e716 2d40 35b0 a9bf
00000010: a853 e63d e8af a6c0 a0f3 c8bc 42b1 ce40
00000020: 1cd7 5d3f f045 c8be 9711 623f cf17 bbbf
00000030: 1697 5d40 2d0b a9bf 7246 8e3e 18a1 bf40
00000040: 8d05 8a40 5ef4 e040 bc93 a340 2d43 f740
00000050: e0b7 54bc 7092 3dbf a86f 963e 8831 a8bf
00000060: 4784 0140 02f2 0e40 2cf0 923f e33a 5b40
00000070: b717 efc0 1625 ffbf 404c 6ebd 1ede 403f
00000080: a802 303e 6e85 2fbf 3e30 bcc0 e036 babd
00000090: de56 26c0 9053 c53e 8c90 9740 9053 e23e
000000a0: 523f f8bf bd3a 05c0 1eba 553d 7557 eabf
000000b0: 89c5 713f 3844 4bbd 201d 1f40 51b0 25c0
000000c0: 4092 57bc 0074 95bf 424f 03c0 9599 33bd
000000d0: a85c 4c40 a3e9 b7bf f547 89bf 728a 933e
000000e0: fbf5 b840 265e 853e ddbe 35c0 40ec 9740
000000f0: b2d2 8440 0846 cf3d 8a72 05c0 1c98 acbe
00000100: 03b8 00c0 228f 0040 ad88 9bbf 4c56 443f
00000110: d4de 3b40 a1f1 0040 0eb3 2340 d874 a63e
00000120: 81b5 e93f 4c67 26c0 d302 53bf 52c4 8f3f
00000130: 5436 dd3f 519c 94be 59db ce40 f766 9a40
00000140: 0006 ab3a fc4f 2ec0 8c88 0240 3302 4540
00000150: d2da 353f b971 a23f ccee a73e 21fc d540
00000160: 9e42 a0bf 221e 4b3e d71e 7fbf e8a8 f13e
00000170: 08d8 fd3d 180c 613e 7873 2cbf d4bd 103f
00000180: 1ec1 abc0 f03d 5dc0 0c06 ddbd c14e 2f40
00000190: ca06 1b40 d313 1040 b9f7 09c0 b534 b640
000001a0: 7a38 5340 e466 5440 6c12 53be cc64 2940
000001b0: 90e9 d5c0 0997 aa40 d794 2d40 e4ee d7bf
000001c0: 1ef9 ab3f fb66 9140 9486 9f3f c5f7 8d40
000001d0: d03b 4f40 5d48 0a41 10db 6040 7f4a d3bf
000001e0: 8e31 023f 1c1c 6c40 162b 4abf ed66 a840
000001f0: a693 113f 5020 6b40 18f4 3b40 3857 b7bd
-0.0069603324 4.731527 2.7045228 -1.3256899 0.11246425 -5.208973 -0.024530232 6.459138
0.86656356 -0.39115858 0.8830809 -1.4616641 3.4623466 -1.3206536 0.2778812 5.988415
4.3131776 7.02983 5.111784 7.72695 -0.012983292 -0.7405157 0.29382062 -1.3140116
2.0236986 2.233521 1.1479545 3.4254692 -7.471645 -1.9933193 -0.058178186 0.75338924
0.17188513 -0.6856297 -5.880889 -0.09092498 -2.599052 0.38540316 4.736395 0.44204378
-1.9394324 -2.08171 0.05217945 -1.830794 0.9444204 -0.049625605 2.4861526 -2.5888865
-0.013157427 -1.1676025 -2.0517125 -0.04384764 3.1931553 -1.4368175 -1.0725085 0.28816563
5.780027 0.26048392 -2.8397744 4.747589 4.1507196 0.10120779 -2.085116 -0.337098
-2.0112312 2.0087361 -1.2151085 0.7669418 2.9354753 2.0147479 2.5578036 0.3251102
1.8258516 -2.6000547 -0.82426184 1.1231787 1.7282205 -0.2902551 6.464276 4.825069
0.0013048053 -2.7236319 2.0395842 3.0782592 0.7103702 1.2690955 0.32799375 6.6870275
-1.252033 0.19835714 -0.9965643 0.47199178 0.1239472 0.2197727 -0.6736369 0.56539655
-5.367324 -3.4569054 -0.10792169 2.7391818 2.4222894 2.25121 -2.1557448 5.693934
3.300322 3.31878 -0.20612496 2.6467772 -6.684761 5.330937 2.7122095 -1.6869779
1.34354 4.543821 1.2462945 4.4364953 3.2380257 8.642667 3.5133705 -1.6507109
0.50856864 3.6892157 -0.78971994 5.262564 0.5686592 3.6738472 2.9367733 -0.089521825

model/conv_dw_9_bn/FusedBatchNormV3 f4 [128]
00000000: af84 9840 ad8e c53f de79 4740 546c 2cc0
00000010: 442f 5c40 e156 e7c1 fcc6 1a3f 68d8 4c40
00000020: 3fc1 6440 a089 3d40 5aa9 11c0 a84e fe3f
00000030: 083e 4b40 0c28 09bf 929d ab3e 5424 5c40
00000040: a782 0fc0 fd6c e23e 81e8 9bbf 7a5b ecbf
00000050: e096 d33f cca9 b440 601c 2240 3564 8340
00000060: 5b75 7d40 30c9 9bbe 7eb2 9dbf 6e55 afbf
00000070: 2764 09c0 8469 633f 4b51 823e 6ed0 9440
00000080: 1ef7 5440 706d 423d 8c96 50bf 81ae 2d40
00000090: 423f 273f 3289 fd3f 1286 8e40 9a94 e2bf
000000a0: 2739 6e40 10a1 4d3e 123c 84be 3648 633f
000000b0: 67a5 4a40 ae43 ffbe b1c5 1240 3b67 7540
000000c0: 749e 5640 3a79 6640 3018 38be 784e 1c40
000000d0: c4ab 843e 2c11 5d40 b08a 0e40 224d af40
000000e0: 3ec0 803f 121c 34be e7e8 6a3f e680 2cbf
000000f0: aace 0fbf d2f8 7f40 20c0 93bf 592d b93e
00000100: a7f5 1dbe 44cb 0b40 30ed aa3e c829 1240
00000110: 1ffd 87be bee6 993f 8574 7d40 9afc c5bf
00000120: b5b1 9540 488d aabd a1f8 7c40 1b71 9c40
00000130: eeb9 d0bf 90a3 1fbc e0f3 4b40 8191 19c0
00000140: 3536 953f 5537 87c0 a3d5 8dbe 4c67 97be
00000150: 9cc1 5940 5379 8e40 ec42 cb3f 447c 6ebe
00000160: 8206 9d40 d125 2e40 508a d73d 6f1d 4a40
00000170: a259 14c0 ed67 1840 fa09 8dbf 7848 a2be
00000180: 7910 5c40 7ce9 8a3e fd3e d73f cac3 9640
00000190: d25b 183f 9244 0a40 cc03 3d40 eff2 6240
000001a0: e3f4 3640 88a1 7540 8811 893d 268c 6a40
000001b0: 0266 d83f 3c4b 6240 1430 7dbf fcfe 4640
000001c0: 5cad f5bf 3671 123e ad0e dbbe 1458 efbf
000001d0: 549d 33c0 c079 683f 9718 e1bf 66cd 3340
000001e0: 8ad1 5740 e217 6bbf 145e a3bd 3ae2 31be
000001f0: c4e8 c53f 4320 e03f d8c0 6ec0 5497 7040
4.7661967 1.5434166 3.1168132 -2.6941118 3.4403849 -28.917421 0.60459876 3.2007084
3.5742948 2.961525 -2.2759614 1.9867754 3.175661 -0.5357673 0.33518654 3.4397173
-2.2423494 0.44223776 -1.218033 -1.8465416 1.6530418 5.645727 2.5329819 4.1059823
3.9602878 -0.3042693 -1.2320096 -1.3697946 -2.1467378 0.8883288 0.25452647 4.650443
3.3275828 0.04746765 -0.81479716 2.7137759 0.653309 1.9807494 4.453866 -1.77016
3.7222383 0.20080972 -0.2582708 0.8878206 3.1663454 -0.49856323 2.2933161 3.8344257
3.3534212 3.601149 -0.17977977 2.4422894 0.25912297 3.454173 2.2272148 5.4781656
1.0058668 -0.17588833 0.9176163 -0.67384183 -0.5617472 3.9995618 -1.1543007 0.3616741
-0.1542574 2.1842813 0.33384085 2.2838001 -0.26560304 1.2023542 3.9602368 -1.5467713
4.6779428 -0.083277285 3.952675 4.888807 -1.6306741 -0.009743586 3.18676 -2.3995059
1.1657168 -4.2255044 -0.27702054 -0.29570997 3.402442 4.45231 1.5879798 -0.23289591
4.9070444 2.7210581 0.10524428 3.1580465 -2.3179708 2.3813431 -1.101867 -0.31695914
3.4385054 0.2713126 1.6816097 4.7114 0.59515107 2.1604352 2.9533567 3.5460775
2.8586967 3.837984 0.06692797 3.664804 1.690613 3.535842 -0.98901486 3.109313
-1.919353 0.14300999 -0.42784634 -1.8698754 -2.8064775 0.90810776 -1.7585629 2.8094115
3.3721642 -0.9183332 -0.07976928 -0.17371455 1.546166 1.7509845 -3.7305202 3.7592363

model/conv_pw_10_bn/FusedBatchNormV3 f4 [128]
00000000: 52ba fdbf 9cc0 6b3e 26d2 5640 0c8f 9c3f
00000010: d746 8fbf 7cfe 7940 ae16 0e40 6212 d43e
00000020: 1e54 7440 2c97 f83e 4a3b 6540 17bf 613f
00000030: eccf 0840 9794 fbbf 5225 8140 2964 35c0
00000040: 3789 ccbf 265f 20c0 e14a 0840 e018 8540
00000050: 720e 2540 0be7 9140 0630 fcbf 16e1 fabf
00000060: e847 05bd 4a35 cc3f c7ac 0c41 dbc9 bdbf
00000070: d036 cec0 19cb 5dbf d9f6 60bf c9e9 6e40
00000080: e4ca 1740 10eb 7e3e 145a c7bf c023 e63e
00000090: b576 4540 83e7 2340 8024 f33d aa2d 45bf
000000a0: 52e5 cf3f 365b 09bf ab7a 52c0 4e2e 46c0
000000b0: f639 8241 93dc 35c0 e4b1 ef3f 4000 e23c
000000c0: d246 bc40 da37 8dc0 150a f4bf bdcc 0b40
000000d0: ce5d ab3f 20a9 37be eb41 48c0 0a5f 56c0
000000e0: 82b3 b93f e044 9640 e4b6 e43f 2272 8440
000000f0: 1534 bc40 1a72 f1bf 070b bbbf 16d3 cebf
00000100: 8075 3ebd b91e 3040 36a4 ef3f 087b 4d40
00000110: 90c8 8fbe 88b8 a4bc 226a ec3f 2212 21bf
00000120: cbba 5b40 eab9 883f e8b8 f3bf 5532 4840
00000130: 95b5 abbf 20a5 2ebf 5c13 983e 8e2a f43f
00000140: a7f6 11be f0a2 4d40 486e 9e40 aa46 fb40
00000150: 8c96 cc40 95ca 74bf ea21 70c0 2ef1 84c0
00000160: eca3 07c0 f663 603f 5943 05c0 cb43 4cc0
00000170: 6811 68c0 9838 1dbd 789e e5bf 1426 cdbe
00000180: 934e 2940 d13f 4440 6051 32c0 7c2c 873e
00000190: 4c8a ecbf 3f07 443e d03e 8840 80b8 22bf
000001a0: 769e c73f dcbb 63c0 1929 86be 83d2 233f
000001b0: 4b95 9dc0 eaf6 253e f3b9 8740 db57 0540
000001c0: 6692 c9c0 4943 cb40 bca1 e2bf 564b 3cc0
000001d0: 6cca fdbe 255e 3a40 d807 6dbf 94a1 183f
000001e0: 3be2 acc0 18ac ad3f b338 afc0 1656 013f
000001f0: 52a4 25bf 9dea 1940 28ae e93e 00d9 23bf
-1.9822485 0.23022693 3.3565764 1.2231154 -1.1193494 3.9061575 2.2201343 0.41420275
3.817634 0.48552835 3.5817437 0.88182205 2.1376905 -1.9654721 4.0358057 -2.8342383
-1.5979375 -2.5058074 2.1295702 4.1592865 2.5790067 4.5594535 -1.9702156 -1.9599941
-0.03253928 1.5953763 8.792182 -1.4827226 -6.444191 -0.8663803 -0.8787666 3.733019
2.3717585 0.24894357 -1.5574365 0.4494915 3.0853703 2.5610054 0.11872196 -0.770228
1.6241858 -0.536548 -3.288737 -3.0965762 16.278301 -2.8415878 1.8726163 0.02758801
5.883645 -4.413068 -1.9065577 2.1843712 1.3388002 -0.1793561 -3.1290233 -3.3495507
1.4507906 4.6959076 1.7868314 4.138932 5.8813577 -1.8862946 -1.461274 -1.6158168
-0.046498775 2.7518752 1.8721988 3.2106342 -0.28082705 -0.020107523 1.8469889 -0.62918293
3.433276 1.0681736 -1.9040804 3.128072 -1.341479 -0.6822071 0.2970227 1.9075487
-0.14254247 3.21307 4.950962 7.852376 6.3933773 -0.95621616 -3.75207 -4.154441
-2.11938 0.8765253 -2.0822356 -3.1916378 -3.6260624 -0.03838405 -1.7938986 -0.40068114
2.6454208 3.066395 -2.7862167 0.26401126 -1.8479705 0.19143389 4.2576675 -0.63562775
1.5595233 -3.558341 -0.2620323 0.6399309 -4.9244742 0.16207471 4.241449 2.0834873
-6.299121 6.3519635 -1.7705607 -2.9420981 -0.49568498 2.9119961 -0.92590094 0.5962155
-5.402616 1.3568144 -5.4756713 0.5052198 -0.6470386 2.4049447 0.45640683 -0.6400299

model/conv_pw_11_bn/FusedBatchNormV3 f4 [128]
00000000: 16a5 2b3f 1416 ff40 52f8 1c41 a62a 1041
00000010: 840f edbe 6a72 153f 286c 7cbe 2b24 853f
00000020: 34ee 3941 ce8e 3340 73fd c13f c882 6b40
00000030: 8c90 9f40 035e 7041 adb0 4bbf b86d fabe
00000040: b518 4f40 2a4a 79c0 1855 01c0 423d 9d3f
00000050: 1239 a240 0c1f 1bbf 6079 993e 0011 8ec0
00000060: 4b3f c9bf f877 22bf ac34 d4bd f32d 28c0
00000070: 0210 c4c0 f88e 83be 7e3f 1ac0 c0fa 0dc0
00000080: 4c1a 8c3e 7ead 49c0 1a8f fa3f 9c10 34bd
00000090: 61b8 5ebf 552c 91c0 2153 dd3f 7c72 7cc0
000000a0: bdb0 6440 d1c2 b740 58a0 8f3f ce73 4640
000000b0: 08fe ee3f eaf1 c8c0 d8d9 1e3f 016d 993f
000000c0: 547e 1c3f d07b c73f c8b1 2440 551c 5ac0
000000d0: a048 f93f c98e 4d40 ad77 b0c0 3bd6 d140
000000e0: b2bc 763f 1484 aac0 c257 f73e 07e0 7340
000000f0: 10c8 1dc0 6a81 683f aacd adbf aa56 f140
00000100: 190c afc0 c331 5ec0 dbd9 f93f 64c7 5740
00000110: 963a 3b3f 07f0 6d40 1fc4 7c40 f464 4640
00000120: 87d9 2540 fc16 aabf 1e43 9f40 1744 52c0
00000130: b554 1c40 1507 5840 faa7 2b40 e3c2 f23d
00000140: 5b1e 8cc0 e307 5940 3e87 bb40 c809 ab3e
00000150: fb80 5a40 f6af 2d40 33ef 3740 3833 6740
00000160: fcff 26bf a893 34bf 7370 94bf 41a8 25c1
00000170: 6863 c13e 3099 2d40 3698 3c40 7e9d 7940
00000180: 0cbe 1040 1e86 b140 91ca cfc0 46b8 0840
00000190: 34d8 f43f 5739 bc3f 5285 60c0 334e 4dc0
000001a0: bab9 7a3f 4e67 a540 db79 e33f 4325 59bf
000001b0: 9ef8 3bc0 1cff 87c0 8b52 ce3f c48e c13f
000001c0: b0c7 9abd 40c7 ac3e 6acb a540 d728 8540
000001d0: 6fae a040 1817 8b40 0866 07bf 6f07 00c1
000001e0: 540b 003f 8ddc 4a40 ae8e 8d40 b75a be40
000001f0: d9a6 583f 18c1 9fbf 47d3 bdbf 9be8 e33f
0.67048776 7.971445 9.810625 9.010412 -0.463009 0.58377707 -0.24650633 1.0401663
11.620655 2.805591 1.5155472 3.6798573 4.986395 15.022952 -0.7956646 -0.48911834
3.235883 -3.8951516 -2.0208187 1.2284319 5.0694666 -0.6059425 0.29975414 -4.439575
-1.572244 -0.6346431 -0.10361609 -2.6278045 -6.126954 -0.25695014 -2.4101253 -2.2184296
0.27363813 -3.1512141 1.9574921 -0.043961152 -0.8700009 -4.5366616 1.7290994 -3.9444876
3.5732872 5.7425313 1.1220808 3.1008182 1.8671274 -6.2795305 0.62051153 1.198639
0.6113026 1.558466 2.573351 -3.4079792 1.9475288 3.21184 -5.514609 6.557401
0.96381676 -5.328623 0.4830914 3.8105485 -2.4653358 0.9082247 -1.3578389 7.541829
-5.470227 -3.4717872 1.9519609 3.3715448 0.7313627 3.717775 3.9494703 3.0999117
2.5914018 -1.3288264 4.976943 -3.2854059 2.44267 3.3754323 2.6821275 0.11853578
-4.3787055 3.3911064 5.860259 0.334059 3.4141223 2.7138648 2.8739746 3.6125011
-0.6523435 -0.70537806 -1.1596817 -10.353578 0.37771153 2.7124748 2.9467902 3.9002376
2.2615995 5.5476217 -6.4934773 2.1362472 1.912848 1.4704999 -3.5081372 -3.207898
0.97939646 5.1688604 1.7771562 -0.8482248 -2.9370494 -4.2498913 1.611894 1.5121694
-0.075576186 0.33745766 5.181081 4.1612353 5.021293 4.346569 -0.5289006 -8.001815
0.50017285 3.1697114 4.423667 5.9485736 0.8462959 -1.2480803 -1.4830102 1.780536

model/conv_pw_12_bn/FusedBatchNormV3 f4 [256]
00000000: d861 21c0 ae7f 14c0 afde 9dbf f474 07c1
00000010: 4f7c 9bc0 cd9d 1c40 9037 cb3f 2698 53c0
00000020: ac29 00c0 d799 823f 5656 cfbf 26a9 363f
00000030: 1ab7 a33e beab d0bf 65b2 7b40 92bd a740
00000040: 13f7 8ac0 80ff 3440 68cc 083e 2688 05be
00000050: 4f2b 2dc0 c937 fbbf f505 e83f c2c3 0340
00000060: c5ae 55c0 fead 8540 12fb b93f 9b12 b5bf
00000070: aab6 adbf d610 9fbe a668 a53f cabe b1c0
00000080: eeb9 b6bf 9a79 82be 000d 3dbb 4786 6dbf
00000090: 5b0d 2c3f 6022 26c0 6859 9e3f b217 df3f
000000a0: 0df7 4ebf 462d 10c0 833f ea3f 2e10 6b40
000000b0: c997 bbbf 00ed 89bf 809d b33c 92e9 47c0
000000c0: b9fa 3ac0 6775 1041 7e29 e83f 50c1 08bf
000000d0: d069 95bd ced2 d53f 70c0 b740 8aa0 b340
000000e0: c013 5bbf 488b e1bf d212 d93f 9a3b f33f
000000f0: baa7 6f40 6300 2140 edfd 3440 f5df c73f
00000100: b046 3f3f 60c9 94be 3cee e8be 1871 3dc0
00000110: bcb4 8640 6aa7 00c0 4c60 4ac0 05df eb3f
00000120: 5048 afbf 96de 36c0 1cf1 79c0 2080 36bd
00000130: 1466 4940 e659 163f 9459 3ac0 d000 20c0
00000140: 6831 0b41 d886 debe 95ac d23f 087b eec0
00000150: 7e84 d3be 481e 3640 c199 b9c0 0ffa 8a3f
00000160: 1278 c13f 70e3 bdbf 6ba5 75c0 2dff 17c0
00000170: 6452 963f 5452 2140 00d8 7e3d 8e64 96c0
00000180: 2c1f 723e 7619 81c0 a501 5540 d29a c83e
00000190: 9bc1 15bf c46d 00c0 b449 1a40 189f 92bf
000001a0: f02e e5c0 f22d 4bbf 2661 43c0 3efc 2ac0
000001b0: bc4e de40 204c bcbd b192 053e 8a9f 1cc0
000001c0: cfb1 afc0 390c 4440 a06f cec0 bbd4 0940
000001d0: 2a36 a6c0 f251 fabe 20b5 0c3d 57b7 083f
000001e0: ce33 d5bf 3b9f 2ebf 5dfb ef3f f699 5240
000001f0: dc59 97c0 4236 dbc0 cb22 a83f ce7b 8c40
00000200: 4aee 293e 0cbf 0440 8203 01c0 8fce 44c0
00000210: ea52 6e40 dce8 f2bf 2d89 5740 31aa 1cc0
00000220: 9d34 d9c0 4422 0abf ad27 e2c0 3d6a 2cc0
00000230: a52b 5dc0 ea06 283f ae56 c540 ba55 e9c0
00000240: 5441 433f d28d 35be a8b6 5ec0 c248 70c0
00000250: ca75 05c0 1890 acbe 540a a4bf e220 f53f
00000260: 4e31 b8bf c8fd 0241 fa45 11c0 8d5d 91c0
00000270: c090 0140 9e6d 62c0 10d3 05c0 ba41 cbc0
00000280: 53f3 b4c0 3079 4d40 9731 cdc0 a806 9bc0
00000290: de87 d7be 2167 9f40 5a18 1bbf ee88 a8bf
000002a0: 58ad 8fc0 4744 2740 af68 c0bf 8229 393f
000002b0: 62c1 2dc0 b101 2041 613f 823f 0a6b eabd
000002c0: b878 3f3e 2819 cf3f 1dd2 9dc0 6ed5 37c0
000002d0: ae03 9440 ae1f 0640 3e7e 9540 e9ae dc40
000002e0: 6063 ccbf 82e8 ffbf 88b3 b03e 6d7e a140
000002f0: 0e55 d3c0 6858 3c3f d4ae 4c40 6027 7fbe
00000300: 3f50 a0bf 4a03 fabf aa08 4040 867a 5cbf
00000310: 25b8 bdc0 f831 21c0 c315 fd3f f0ef 4ec0
00000320: 4bb1 c640 e6a1 3fc0 849d 7940 d1bc 5040
00000330: d2db 4e40 8e1e 0940 669b 0ac0 1e8d c040
00000340: b889 cf3e d6c5 0f40 2ef6 62c0 15e0 3c40
00000350: 4561 fc3f 8a2e cac0 6c6a abc0 a4f9 07c0
00000360: 5a13 7740 9401 c740 4e7a f93f 91ba 30c0
00000370: 28ff a93e 793c 8ec0 beb4 913e a25e 1fbf
00000380: c257 69c0 a422 bdbe 7ee5 d5c0 c9eb d1be
00000390: 7808 ea3e 3d00 7f3f 98ca cabe 900a a73e
000003a0: a23e a440 8e58 6b40 b867 9240 1ef2 16c0
000003b0: f8bc 193f 3210 2dc0 03bc 7440 e4ec f4bf
000003c0: 9adb 8b3e f28e d5be a568 e43f b46b 6840
000003d0: e58e b2bf cc44 6e40 63c9 6140 e0e4 b33f
000003e0: 7bf4 8440 a07e e73e 9d28 b13f 59aa c0bf
000003f0: 2e91 71c0 7fa2 df3f 114e aec0 3c7c 3940
-2.521597 -2.320293 -1.2333583 -8.466053 -4.8589244 2.4471314 1.5876331 -3.3061614
-2.0025434 1.0203198 -1.6198223 0.7135185 0.31975633 -1.6302412 3.9327633 5.241891
-4.3426604 2.8280945 0.13359225 -0.13040218 -2.7057683 -1.9626399 1.8126818 2.058823
-3.338792 4.1774893 1.4529746 -1.4146303 -1.357137 -0.31067532 1.2922561 -5.5545397
-1.4275491 -0.254834 -0.002884686 -0.92783016 0.6720788 -2.595848 1.2371035 1.7429106
-0.8084572 -2.2527633 1.8300632 3.6728625 -1.4655696 -1.0775452 0.021925688 -3.123631
-2.921553 9.028663 1.8137662 -0.5341997 -0.07295573 1.6704957 5.742241 5.613347
-0.8557701 -1.762063 1.6958869 1.9002564 3.7446122 2.5156486 2.8279984 1.5615221
0.74717236 -0.29059887 -0.45494258 -2.9600277 4.2095623 -2.0102181 -3.1621275 1.8427435
-1.3693943 -2.8573356 -3.9053411 -0.044555783 3.1468554 0.58730924 -2.9117174 -2.5000496
8.699562 -0.43462253 1.6458918 -7.4525185 -0.4131202 2.8455982 -5.800019 1.0857562
1.5114768 -1.4835033 -3.8382213 -2.3749497 1.1743894 2.52065 0.062217712 -4.6997747
0.23644704 -4.034358 3.3282254 0.3918062 -0.58498544 -2.0066996 2.4107485 -1.1454802
-7.1619797 -0.7936698 -3.0528045 -2.6716456 6.947111 -0.09194207 0.1304424 -2.4472375
-5.490455 3.063246 -6.451126 2.153609 -5.194112 -0.48890644 0.03435242 0.53404754
-1.6656435 -0.68211716 1.8748585 3.290647 -4.729719 -6.8503733 1.3135618 4.390113
0.16594806 2.0741606 -2.015839 -3.0751073 3.7238107 -1.8977313 3.3677475 -2.4478877
-6.7876725 -0.53958535 -7.067343 -2.6939843 -3.4557889 0.6563555 6.166831 -7.2917147
0.7627156 -0.17729881 -3.4798985 -3.7544408 -2.0853143 -0.33703685 -1.2815652 1.915066
-1.4390047 8.186958 -2.269896 -4.54267 2.0244598 -3.5379405 -2.0910072 -6.3517733
-5.6547027 3.2105217 -6.4123034 -4.8445625 -0.42095846 4.981339 -0.6058403 -1.3166788
-4.48991 2.6135423 -1.5031947 0.7232896 -2.7149282 10.000413 1.0175592 -0.11446197
0.18698394 1.6179552 -4.9318986 -2.8724017 4.625449 2.0956836 4.6716604 6.8963513
-1.5967827 -1.9992831 0.3451197 5.046683 -6.6041327 0.735724 3.1981707 -0.24917364
-1.2524489 -1.9532254 3.0005288 -0.86124456 -5.9287286 -2.5186749 1.9772266 -3.2333946
6.209142 -2.9942565 3.900239 3.2615244 3.2321668 2.14249 -2.1657348 6.017226
0.4053476 2.24645 -3.5462756 2.951177 1.9717184 -6.318181 -5.356741 -2.1246119
3.8605561 6.2189426 1.949045 -2.761387 0.3320248 -4.444882 0.28458208 -0.62253773
-3.6459813 -0.3694049 -6.684264 -0.41000202 0.45709586 0.9960974 -0.39607692 0.32625246
5.1326456 3.67728 4.575161 -2.3585277 0.6005397 -2.7041135 3.8239753 -1.9134793
0.2731598 -0.4171062 1.7844435 3.6315737 -1.3949858 3.722949 3.5279167 1.4054222
4.154844 0.45213795 1.3840519 -1.5051986 -3.774486 1.7471465 -5.4470296 2.8982077

model/conv_pw_13_bn/FusedBatchNormV3 f4 [256]
00000000: ba15 91c0 dc2f 923f e877 3b40 56d4 99c1
00000010: 6aea 3a41 1680 0c41 b54b c1c1 9554 80c1
00000020: bc32 a541 fef2 a141 8c84 9a41 96ba bfc0
00000030: 80f4 9a40 6244 8540 d234 a8c1 cf54 c4c0
00000040: 1a8c 45c1 9757 06c0 3ab6 b7c1 5247 eb41
00000050: 3527 91c1 314d eb40 1a15 4341 cc29 313f
00000060: 2c99 96c1 fb0a d7c1 5d82 0141 dbbc ec40
00000070: 90ee 9c41 4c6b 97c0 3491 edc0 20f4 6640
00000080: 52de 81c1 5943 1fc2 863d 5fc1 b075 4ec1
00000090: ff26 f541 ea84 1f40 b1d6 f7c0 df61 8141
000000a0: fdfb 72c1 9abd 0941 3ac1 aac0 8073 05be
000000b0: 8efa 0342 504d bec1 3e15 c141 3d6e 33c1
000000c0: fa74 6e40 10a1 ca3f ac96 4b41 3b47 1041
000000d0: d2f6 6940 1570 e540 d64b d4c0 0e09 4441
000000e0: 20c4 efc1 6e05 f040 2bc2 bfc0 faaf 1e41
000000f0: 5d26 54c1 4c6a 1a40 314b 1f41 ca90 57c1
00000100: 2a85 aac1 9ed1 96c0 4076 0842 7fb9 5941
00000110: 827c 82c1 7a26 1641 7436 f63f 0f37 30c1
00000120: b2c6 c8c0 548d 33c1 1023 19c2 6bc1 02c2
00000130: 76d3 8a40 9ab1 e4c1 0a16 d1c1 53f2 6c41
00000140: c146 9ac1 3312 3ec0 29f0 80c1 faa9 9541
00000150: e299 91c0 7965 dfc1 0430 8b41 906b e9bf
00000160: 6b3a 7dc1 0ea5 7f40 e7e9 1142 7a8b 1a41
00000170: 9e96 fa41 f714 8f41 e551 84c1 ab95 8e41
00000180: 902a 9e41 e5bf 2ac0 a4e8 aec1 b929 0cc0
00000190: 7e1a 0941 fdf5 cbc0 1316 94c1 d147 03c2
000001a0: 80cf 3b40 748d 46c1 d07d 43c1 27d7 e7c1
000001b0: b93a d4c1 a259 7fc1 edaf a640 ffed 23c1
000001c0: c326 6bc1 60f2 86bf 35eb b6c0 31e8 6a41
000001d0: 058d 1e41 0292 f8c0 040a 87c1 ec59 2f41
000001e0: 3efe 23c1 888b 32c1 e441 80c1 9a26 0741
000001f0: face 73c0 0a2d 4341 f830 643f 30e9 53c1
00000200: 3c98 45c1 a410 8241 82fd ac40 28aa 28c1
00000210: 6ae1 c4c1 4264 e8c1 b6c1 86c1 8a97 f441
00000220: feef 5ec1 2d19 9bc1 9e9c 5541 10cd e33e
00000230: c23e e3c1 e236 adc1 f163 a2c0 a515 f8c0
00000240: 4c6f 1ac1 6441 83bf 30bd 86c0 0d02 8c40
00000250: de30 b441 3514 0ac1 2242 e740 7efd a8c1
00000260: 2131 93c0 2e0d 76c1 5c68 27c0 4717 44c1
00000270: 601e 8041 7b9b eec0 ab36 3c41 2459 60c0
00000280: 69bc 0dc2 3a78 59c1 996e eac1 a612 69c1
00000290: 007c 35bb 20c5 d0c1 3688 27c1 8da5 06c2
000002a0: acf8 9e3f c9b6 9940 ce0b e4c1 4620 76c2
000002b0: 3842 02c1 f20a 0141 b6da ebc1 6cb7 7941
000002c0: ad38 bd41 391c 1fc1 29e5 54c1 2fcc c0c1
000002d0: eada 4c41 ea8c 20c1 e294 7b40 ad5e a340
000002e0: 226d cfc0 28a4 a340 78a0 db40 a24b 12c2
000002f0: fe4d f8bf 5de1 3841 deed 2fc2 30b0 4541
00000300: 9afb dc41 0cff 6dc1 f23d d0c0 cea1 45c1
00000310: 1cc1 b440 ed5f 3ec0 d03d 6fc0 26d4 15c1
00000320: b0f2 2d40 c705 c340 62d4 aac1 2e3c 7440
00000330: 4c5b 0d41 4a9e d0c1 6fa1 8bc1 c7ce b7c1
00000340: 65a8 3ec2 4178 19c1 f667 39c1 f0c6 4241
00000350: e01e 0840 f612 1341 227c 2dc1 8837 0f41
00000360: 3683 30c1 0691 fa3f f073 1040 58a4 1c40
00000370: b243 f940 da61 b1c1 64ed 6641 e910 5cc1
00000380: 64e9 62c0 bebd 0c41 b2a5 5940 1f36 1fc2
00000390: 517d f6c0 7154 10c1 bcba 4ec1 3c04 1f40
000003a0: 2d02 6640 7e53 2242 d0c0 ad41 e125 7140
000003b0: 619c 32c0 70aa 2440 9b97 95c1 5396 e441
000003c0: fd0b 8ac1 be08 7ac1 5e79 4cc0 f07a 223f
000003d0: 9dad 9541 db33 88c1 e755 ecc1 9ca4 cf41
000003e0: 6526 6840 0f8e 8841 44ba 6cc1 e8d0 3440
000003f0: dcdb cbbf f514 4bc0 1eeb 41c2 e39d d6c1
-4.533902 1.1420856 2.9291935 -19.22868 11.68223 8.781271 -24.161966 -16.0413
20.649773 20.243649 19.31472 -5.9915266 4.842346 4.1645975 -21.025791 -6.1353526
-12.3467045 -2.099096 -22.963978 29.409824 -18.144144 7.353173 12.192652 0.692044
-18.824791 -26.880362 8.094327 7.3980536 19.616486 -4.731848 -7.423975 3.6086502
-16.233555 -39.81577 -13.95252 -12.903732 30.644041 2.4924874 -7.7449574 16.172789
-15.186521 8.608789 -5.336087 -0.13032341 32.994682 -23.78775 24.135372 -11.214414
3.7258897 1.5830402 12.724285 9.01739 3.6556897 7.169932 -6.6342573 12.252211
-29.970764 7.500663 -5.992452 9.917963 -13.259366 2.4127378 9.955857 -13.472849
-21.315022 -4.713088 34.11548 13.607787 -16.310795 9.384394 1.9235368 -11.013442
-6.274255 -11.222004 -38.28424 -32.688885 4.338313 -28.58672 -26.135761 14.809161
-19.284548 -2.9698608 -16.117266 18.707996 -4.5500345 -27.924547 17.398445 -1.823595
-15.826762 3.9944491 36.47842 9.659052 31.323544 17.885237 -16.539988 17.82308
19.770782 -2.6679623 -21.863594 -2.1900465 8.568968 -6.373778 -18.510778 -32.820133
2.9345398 -12.409534 -12.218216 -28.980055 -26.528673 -15.959383 5.2089753 -10.2456045
-14.696963 -1.0542717 -5.716212 14.681687 9.909429 -7.767823 -16.87989 10.959454
-10.249571 -11.159065 -16.032173 8.446924 -3.8095078 12.198496 0.8913722 -13.244431
-12.349667 16.258125 5.405946 -10.541542 -24.610065 -29.048954 -16.844585 30.573994
-13.933592 -19.387293 13.350737 0.44492388 -28.405643 -21.651798 -5.0747 -7.752642
-9.652172 -1.0254331 -4.210594 4.3752503 22.52386 -8.629933 7.226823 -21.123775
-4.599747 -15.378218 -2.6157446 -12.255683 16.014832 -7.4564795 11.763347 -3.5054407
-35.433994 -13.591852 -29.304003 -14.567053 -0.0027692318 -26.096252 -10.470755 -33.66167
1.2419639 4.8035626 -28.505764 -61.531517 -8.141167 8.065172 -29.481792 15.607281
23.652674 -9.94439 -13.305947 -24.099699 12.803446 -10.034403 3.930962 5.105307
-6.482072 5.1137886 6.8633385 -36.57386 -1.9398801 11.55502 -43.982292 12.355515
27.622852 -14.874767 -6.5075617 -12.352003 5.648573 -2.9746048 -3.7381477 -9.364294
2.7179375 6.0944552 -21.353703 3.816173 8.834789 -26.07729 -17.453825 -22.975965
-47.664448 -9.591859 -11.587881 12.173569 2.1268845 9.192129 -10.842806 8.951057
-11.032034 1.9575508 2.2570763 2.4475307 7.7895136 -22.17278 14.432957 -13.754128
-3.545495 8.796324 3.4007382 -39.802853 -7.7027974 -9.020616 -12.920589 2.4846334
3.5938828 40.581535 21.719147 3.767937 -2.7907946 2.5729027 -18.699026 28.5734
-17.255854 -15.627134 -3.1949077 0.6346884 18.709772 -17.02532 -29.541945 25.955376
3.6273434 17.069365 -14.795475 2.8252506 -1.5926471 -3.173154 -48.479607 -26.827093

model/conv_pw_1_bn/FusedBatchNormV3 f4 [16]
00000000: 8f2b d340 6473 1ac1 f28a dbc0 f104 1cc0
00000010: 8872 8fc0 1682 4340 c5c3 0240 b413 c540
00000020: 29ec da3e 206b 28be ce33 bb40 72ad bc40
00000030: e716 1e40 e826 3bc0 6cfc a540 344e 0d3f
6.599067 -9.653172 -6.860711 -2.4378016 -4.482731 3.0548148 2.0431988 6.158655
0.427583 -0.16447115 5.850074 5.8961725 2.4701478 -2.9242496 5.187063 0.55197453

model/conv_pw_2_bn/FusedBatchNormV3 f4 [32]
00000000: 7217 0140 69b9 babf 2049 b03e f69a 3d40
00000010: 0909 18c2 99b0 eb41 3c4a 8b40 2882 7240
00000020: f79f c840 9803 a740 a2c7 8d40 4b1b a840
00000030: 189b c240 688c 8cbe a27b 9bbf 8d0d 013f
00000040: de06 a940 53df 0940 2e1b f3bf 8072 93c0
00000050: 4b4a 7440 6a58 f0c0 a687 1ac0 8e78 9a40
00000060: 3cdb 4a40 df7d 85c0 547d c740 62e0 e03f
00000070: 68f5 5440 709a 0140 46fc 3fc0 00c9 4cbc
2.017056 -1.4587833 0.3443079 2.962583 -38.008823 29.46123 4.352812 3.789194
6.269527 5.2191887 4.4306192 5.2533317 6.0814323 -0.2745087 -1.2147105 0.504113
5.2820883 2.1542556 -1.899267 -4.607727 3.8170345 -7.5107927 -2.4145293 4.827216
3.169631 -4.171615 6.234049 1.7568476 3.3274784 2.025051 -2.9997725 -0.012499094

model/conv_pw_3_bn/FusedBatchNormV3 f4 [32]
00000000: 5e5a 1140 3db1 b040 ad31 2ec1 d44a f03f
00000010: 4495 de3f ceb9 393f 4070 9b3f aad8 74bf
00000020: d9a9 6ec0 202e 99c0 c621 4a40 5481 82c0
00000030: 9897 3640 831e edbf e7f1 3440 511d 9d40
00000040: 4de5 91c0 14d5 4641 9c18 50be e539 0f41
00000050: e648 ecbf 5891 5840 9ae6 3b40 f183 7540
00000060: 3f1f 8840 ea82 aabf 2ba1 0241 0490 a43f
00000070: ac3f 5140 90c7 6e40 42a2 a240 96be 14bf
2.2711406 5.5216355 -10.887128 1.8772836 1.7389302 0.7254914 1.2143631 -0.95643103
-3.7291167 -4.7868805 3.1583114 -4.078287 2.8530025 -1.8524936 2.8272645 4.9098287
-4.559241 12.427021 -0.20321888 8.951634 -1.8459747 3.383871 2.9359498 3.836178
4.253814 -1.3321202 8.164348 1.285645 3.2695112 3.7309303 5.082307 -0.5810331
