MobileNet/mobilenet_32_25_40/model_quant.tflite (tflite, 535024 bytes, 31 tensors)

model/dense/MatMul i1 [512, 256] scale=0.0019920345 zero_point=0
0	0xfb	-0.009960173
1	0x18	0.047808826
2	0x02	0.003984069
3	0x1c	0.055776965
4	0xe9	-0.045816794
5	0xec	-0.03984069
6	0x11	0.033864588
7	0xeb	-0.041832723
8	0x0d	0.025896449
9	0x20	0.063745104
10	0xee	-0.03585662
11	0x17	0.045816794
12	0xf8	-0.015936276
13	0xfd	-0.0059761032
14	0xd5	-0.085657485
15	0x4d	0.15338665
16	0x42	0.13147427
17	0xf9	-0.013944241
18	0x2f	0.09362562
19	0x00	0.0
20	0xef	-0.033864588
21	0xdc	-0.07171324
22	0xf4	-0.023904413
23	0x0b	0.02191238
24	0xea	-0.04382476
25	0x12	0.03585662
26	0xf6	-0.019920345
27	0xd1	-0.09362562
28	0xf8	-0.015936276
29	0x31	0.09760969
30	0xf8	-0.015936276
31	0xfa	-0.0119522065
32	0xf9	-0.013944241
33	0x2c	0.08764952
34	0xf2	-0.027888482
35	0x1b	0.053784933
36	0x0c	0.023904413
37	0xe5	-0.053784933
38	0xff	-0.0019920345
39	0xe4	-0.055776965
40	0x05	0.009960173
41	0x24	0.07171324
42	0x13	0.037848655
43	0x07	0.013944241
44	0xe7	-0.04980086
45	0x3c	0.11952207
46	0xe2	-0.059761036
47	0xdc	-0.07171324
48	0xd8	-0.07968138
49	0x16	0.04382476
50	0x21	0.065737136
51	0xf0	-0.031872552
52	0x11	0.033864588
53	0x07	0.013944241
54	0x1b	0.053784933
55	0x1a	0.051792897
56	0xf6	-0.019920345
57	0xe8	-0.047808826
58	0x22	0.067729175
59	0xfa	-0.0119522065
60	0x30	0.09561765
61	0x26	0.07569731
62	0xe9	-0.045816794
63	0xf1	-0.029880518
64	0x20	0.063745104
65	0xf2	-0.027888482
66	0xf3	-0.025896449
67	0xde	-0.067729175
68	0x1e	0.059761036
69	0x00	0.0
70	0x1a	0.051792897
71	0xe2	-0.059761036
72	0x0c	0.023904413
73	0xfc	-0.007968138
74	0x02	0.003984069
75	0xf6	-0.019920345
76	0x24	0.07171324
77	0xd4	-0.08764952
78	0xf3	-0.025896449
79	0xfb	-0.009960173
80	0x0d	0.025896449
81	0x16	0.04382476
82	0xf6	-0.019920345
83	0xf2	-0.027888482
84	0xd4	-0.08764952
85	0x33	0.10159376
86	0xd7	-0.08167341
87	0x18	0.047808826
88	0x28	0.07968138
89	0x1e	0.059761036
90	0xfc	-0.007968138
91	0x1f	0.061753068
92	0xda	-0.07569731
93	0xf4	-0.023904413
94	0x4f	0.15737073
95	0x18	0.047808826
96	0x1c	0.055776965
97	0xe9	-0.045816794
98	0xd1	-0.09362562
99	0xcf	-0.09760969
100	0x20	0.063745104
101	0xde	-0.067729175
102	0xde	-0.067729175
103	0x04	0.007968138
104	0x11	0.033864588
105	0x24	0.07171324
106	0x05	0.009960173
107	0x0d	0.025896449
108	0x07	0.013944241
109	0x29	0.08167341
110	0xf7	-0.01792831
111	0x3b	0.11753003
112	0xe5	-0.053784933
113	0xe5	-0.053784933
114	0x0e	0.027888482
115	0x3b	0.11753003
116	0x05	0.009960173
117	0x18	0.047808826
118	0xf6	-0.019920345
119	0xe4	-0.055776965
120	0xe9	-0.045816794
121	0xfd	-0.0059761032
122	0xe9	-0.045816794
123	0x0a	0.019920345
124	0x05	0.009960173
125	0x1c	0.055776965
126	0x17	0.045816794
127	0x21	0.065737136
128	0xfc	-0.007968138
129	0x13	0.037848655
130	0xf8	-0.015936276
131	0xce	-0.09960172
132	0x01	0.0019920345
133	0xf0	-0.031872552
134	0x40	0.12749021
135	0x39	0.11354597
136	0x20	0.063745104
137	0xf6	-0.019920345
138	0xf7	-0.01792831
139	0x02	0.003984069
140	0xf9	-0.013944241
141	0x0d	0.025896449
142	0xca	-0.107569866
143	0x20	0.063745104
144	0x03	0.0059761032
145	0xf7	-0.01792831
146	0xff	-0.0019920345
147	0x16	0.04382476
148	0x03	0.0059761032
149	0x15	0.041832723
150	0xfe	-0.003984069
151	0x15	0.041832723
152	0xe4	-0.055776965
153	0xe6	-0.051792897
154	0xe5	-0.053784933
155	0xdd	-0.06972121
156	0x06	0.0119522065
157	0xfe	-0.003984069
158	0xdc	-0.07171324
159	0xea	-0.04382476
160	0x26	0.07569731
161	0x1d	0.057769
162	0xfc	-0.007968138
163	0xeb	-0.041832723
164	0x12	0.03585662
165	0x04	0.007968138
166	0x05	0.009960173
167	0x27	0.07768934
168	0x2c	0.08764952
169	0xe5	-0.053784933
170	0x17	0.045816794
171	0x1c	0.055776965
172	0x1f	0.061753068
173	0x31	0.09760969
174	0x0f	0.029880518
175	0xe6	-0.051792897
176	0x08	0.015936276
177	0x0d	0.025896449
178	0x05	0.009960173
179	0x19	0.04980086
180	0xe7	-0.04980086
181	0xbd	-0.13346632
182	0xf8	-0.015936276
183	0xe8	-0.047808826
184	0x3e	0.123506136
185	0xf8	-0.015936276
186	0xf1	-0.029880518
187	0xf9	-0.013944241
188	0xef	-0.033864588
189	0xef	-0.033864588
190	0x41	0.12948224
191	0xd3	-0.08964155
192	0x24	0.07171324
193	0x23	0.06972121
194	0xd5	-0.085657485
195	0x1a	0.051792897
196	0x3a	0.115538
197	0x05	0.009960173
198	0xf7	-0.01792831
199	0x0b	0.02191238
200	0xcd	-0.10159376
201	0x29	0.08167341
202	0x0c	0.023904413
203	0xe6	-0.051792897
204	0x08	0.015936276
205	0x25	0.07370528
206	0xc0	-0.12749021
207	0xe9	-0.045816794
208	0xff	-0.0019920345
209	0xf3	-0.025896449
210	0x07	0.013944241
211	0xfe	-0.003984069
212	0x05	0.009960173
213	0x2b	0.085657485
214	0x43	0.13346632
215	0xe9	-0.045816794
216	0xf3	-0.025896449
217	0xe2	-0.059761036
218	0x01	0.0019920345
219	0x00	0.0
220	0xde	-0.067729175
221	0x2a	0.083665445
222	0x10	0.031872552
223	0x0c	0.023904413
224	0x40	0.12749021
225	0xdd	-0.06972121
226	0x1d	0.057769
227	0x27	0.07768934
228	0x26	0.07569731
229	0xe8	-0.047808826
230	0x1a	0.051792897
231	0x04	0.007968138
232	0xd9	-0.07768934
233	0x0a	0.019920345
234	0xd8	-0.07968138
235	0x16	0.04382476
236	0xe4	-0.055776965
237	0x39	0.11354597
238	0xf7	-0.01792831
239	0x4f	0.15737073
240	0x08	0.015936276
241	0xfd	-0.0059761032
242	0xf8	-0.015936276
243	0x07	0.013944241
244	0x13	0.037848655
245	0xf5	-0.02191238
246	0xe9	-0.045816794
247	0x25	0.07370528
248	0x16	0.04382476
249	0x0c	0.023904413
250	0xe1	-0.061753068
251	0xf3	-0.025896449
252	0x16	0.04382476
253	0xeb	-0.041832723
254	0xd7	-0.08167341
255	0x01	0.0019920345

model/dense_1/MatMul i1 [128, 512] scale=0.0025945175 zero_point=0
0	0xef	-0.044106796
1	0xf3	-0.033728726
2	0x0f	0.038917765
3	0xe5	-0.070051976
4	0x0a	0.025945175
5	0x1b	0.070051976
6	0x18	0.06226842
7	0xec	-0.05189035
8	0x1a	0.06745745
9	0xfe	-0.005189035
10	0x14	0.05189035
11	0xe8	-0.06226842
12	0xe5	-0.070051976
13	0xe5	-0.070051976
14	0xee	-0.046701316
15	0xf7	-0.023350658
16	0xfd	-0.0077835526
17	0x17	0.059673905
18	0xf2	-0.036323246
19	0xea	-0.057079386
20	0xe9	-0.059673905
21	0xeb	-0.054484867
22	0xea	-0.057079386
23	0xd7	-0.10637522
24	0xe1	-0.080430046
25	0xde	-0.08821359
26	0x02	0.005189035
27	0x01	0.0025945175
28	0x15	0.054484867
29	0x10	0.04151228
30	0x12	0.046701316
31	0x0f	0.038917765
32	0xf8	-0.02075614
33	0xf7	-0.023350658
34	0x1d	0.07524101
35	0xd9	-0.101186186
36	0xfe	-0.005189035
37	0xf0	-0.04151228
38	0x00	0.0
39	0x03	0.0077835526
40	0x04	0.01037807
41	0x15	0.054484867
42	0xfa	-0.015567105
43	0xde	-0.08821359
44	0x0a	0.025945175
45	0xf8	-0.02075614
46	0x0b	0.028539693
47	0x05	0.012972588
48	0xe7	-0.06486294
49	0xe2	-0.07783553
50	0x00	0.0
51	0x1d	0.07524101
52	0xee	-0.046701316
53	0x1e	0.07783553
54	0x1f	0.080430046
55	0xf8	-0.02075614
56	0xd8	-0.1037807
57	0xfe	-0.005189035
58	0xf0	-0.04151228
59	0xe8	-0.06226842
60	0xf3	-0.033728726
61	0x1b	0.070051976
62	0xef	-0.044106796
63	0x09	0.023350658
64	0x14	0.05189035
65	0xd6	-0.10896973
66	0x02	0.005189035
67	0x1f	0.080430046
68	0xf5	-0.028539693
69	0xfc	-0.01037807
70	0x1a	0.06745745
71	0x20	0.08302456
72	0xdd	-0.090808116
73	0xf5	-0.028539693
74	0x19	0.06486294
75	0xe3	-0.07524101
76	0x0e	0.036323246
77	0x00	0.0
78	0xea	-0.057079386
79	0x0d	0.033728726
80	0x20	0.08302456
81	0x10	0.04151228
82	0xfe	-0.005189035
83	0x1c	0.07264649
84	0xdb	-0.09599715
85	0xfa	-0.015567105
86	0x08	0.02075614
87	0xf6	-0.025945175
88	0x17	0.059673905
89	0xdf	-0.08561908
90	0xe2	-0.07783553
91	0x0b	0.028539693
92	0x16	0.057079386
93	0x12	0.046701316
94	0x1b	0.070051976
95	0xf9	-0.018161623
96	0xfb	-0.012972588
97	0x11	0.044106796
98	0x1e	0.07783553
99	0xe1	-0.080430046
100	0x1d	0.07524101
101	0xf9	-0.018161623
102	0x0f	0.038917765
103	0x19	0.06486294
104	0xf8	-0.02075614
105	0xe0	-0.08302456
106	0x0a	0.025945175
107	0x11	0.044106796
108	0x09	0.023350658
109	0xf6	-0.025945175
110	0xe9	-0.059673905
111	0x19	0.06486294
112	0x20	0.08302456
113	0xf2	-0.036323246
114	0xf4	-0.03113421
115	0xea	-0.057079386
116	0x15	0.054484867
117	0x1f	0.080430046
118	0xe2	-0.07783553
119	0x08	0.02075614
120	0xe2	-0.07783553
121	0xe3	-0.07524101
122	0xef	-0.044106796
123	0x12	0.046701316
124	0x12	0.046701316
125	0xef	-0.044106796
126	0x18	0.06226842
127	0x09	0.023350658
128	0xef	-0.044106796
129	0xfe	-0.005189035
130	0x0d	0.033728726
131	0x09	0.023350658
132	0xf9	-0.018161623
133	0xe9	-0.059673905
134	0xf4	-0.03113421
135	0x0c	0.03113421
136	0x03	0.0077835526
137	0xea	-0.057079386
138	0xf2	-0.036323246
139	0xdc	-0.09340263
140	0xef	-0.044106796
141	0xf5	-0.028539693
142	0xdd	-0.090808116
143	0x0b	0.028539693
144	0xdd	-0.090808116
145	0xda	-0.09859167
146	0x17	0.059673905
147	0xf3	-0.033728726
148	0x0a	0.025945175
149	0x03	0.0077835526
150	0xfd	-0.0077835526
151	0xf5	-0.028539693
152	0xfc	-0.01037807
153	0xe0	-0.08302456
154	0x07	0.018161623
155	0x1f	0.080430046
156	0x1e	0.07783553
157	0xe8	-0.06226842
158	0x05	0.012972588
159	0x21	0.08561908
160	0x22	0.08821359
161	0xf6	-0.025945175
162	0x10	0.04151228
163	0xfa	-0.015567105
164	0x22	0.08821359
165	0xde	-0.08821359
166	0xf5	-0.028539693
167	0x1f	0.080430046
168	0x19	0.06486294
169	0xf7	-0.023350658
170	0x06	0.015567105
171	0x0f	0.038917765
172	0x0b	0.028539693
173	0xe0	-0.08302456
174	0xfa	-0.015567105
175	0xe9	-0.059673905
176	0xe6	-0.06745745
177	0xd7	-0.10637522
178	0xf8	-0.02075614
179	0x00	0.0
180	0xfb	-0.012972588
181	0xed	-0.049295835
182	0xe9	-0.059673905
183	0xff	-0.0025945175
184	0xed	-0.049295835
185	0x0e	0.036323246
186	0xe1	-0.080430046
187	0xe4	-0.07264649
188	0xf3	-0.033728726
189	0x18	0.06226842
190	0xfe	-0.005189035
191	0x25	0.09599715
192	0x1b	0.070051976
193	0xe4	-0.07264649
194	0x01	0.0025945175
195	0x07	0.018161623
196	0x05	0.012972588
197	0xfc	-0.01037807
198	0xdc	-0.09340263
199	0x19	0.06486294
200	0xff	-0.0025945175
201	0xfb	-0.012972588
202	0x01	0.0025945175
203	0xfb	-0.012972588
204	0x0a	0.025945175
205	0x24	0.09340263
206	0x0f	0.038917765
207	0xf7	-0.023350658
208	0x17	0.059673905
209	0x04	0.01037807
210	0x1b	0.070051976
211	0x21	0.08561908
212	0x08	0.02075614
213	0xd9	-0.101186186
214	0xfd	-0.0077835526
215	0x0f	0.038917765
216	0x19	0.06486294
217	0xed	-0.049295835
218	0x1b	0.070051976
219	0x10	0.04151228
220	0xf4	-0.03113421
221	0xdf	-0.08561908
222	0x19	0.06486294
223	0xdf	-0.08561908
224	0x02	0.005189035
225	0x0e	0.036323246
226	0xf0	-0.04151228
227	0xe6	-0.06745745
228	0xde	-0.08821359
229	0xf2	-0.036323246
230	0xfb	-0.012972588
231	0x1e	0.07783553
232	0x1a	0.06745745
233	0xdf	-0.08561908
234	0xff	-0.0025945175
235	0xe7	-0.06486294
236	0xe3	-0.07524101
237	0xdf	-0.08561908
238	0x06	0.015567105
239	0x12	0.046701316
240	0xd4	-0.11415877
241	0x12	0.046701316
242	0xd9	-0.101186186
243	0x1f	0.080430046
244	0x14	0.05189035
245	0xf4	-0.03113421
246	0x1d	0.07524101
247	0x12	0.046701316
248	0x21	0.08561908
249	0x03	0.0077835526
250	0xd8	-0.1037807
251	0x1c	0.07264649
252	0x17	0.059673905
253	0xed	-0.049295835
254	0xf6	-0.025945175
255	0xd7	-0.10637522

model/dense_2/MatMul i1 [64, 128] scale=0.0023441394 zero_point=0
0	0x48	0.16877803
1	0x3e	0.14533664
2	0x3f	0.14768077
3	0x10	0.03750623
4	0xf9	-0.016408976
5	0x15	0.04922693
6	0x2c	0.103142135
7	0xf9	-0.016408976
8	0xfc	-0.009376558
9	0x18	0.056259345
10	0x3e	0.14533664
11	0x03	0.007032418
12	0xfb	-0.011720696
13	0x1b	0.063291766
14	0xfa	-0.014064836
15	0xcd	-0.11955111
16	0xe2	-0.07032418
17	0xe5	-0.063291766
18	0x21	0.0773566
19	0x1c	0.065635905
20	0x1f	0.07266832
21	0xdc	-0.084389016
22	0xe1	-0.07266832
23	0x14	0.046882786
24	0xbe	-0.1547132
25	0x4d	0.18049873
26	0x03	0.007032418
27	0x24	0.084389016
28	0xd4	-0.103142135
29	0x0a	0.023441393
30	0x0c	0.028129673
31	0x1c	0.065635905
32	0x3a	0.13596009
33	0xda	-0.089077294
34	0xdc	-0.084389016
35	0xfb	-0.011720696
36	0xf7	-0.021097254
37	0x3c	0.14064837
38	0x27	0.09142143
39	0x3e	0.14533664
40	0x51	0.18987529
41	0xf3	-0.030473812
42	0x37	0.12892766
43	0x06	0.014064836
44	0x48	0.16877803
45	0xde	-0.07970074
46	0x44	0.15940148
47	0xf3	-0.030473812
48	0xe4	-0.065635905
49	0xba	-0.16408975
50	0x19	0.058603484
51	0xc1	-0.14768077
52	0x1d	0.06798004
53	0xe6	-0.060947623
54	0x12	0.042194508
55	0xbf	-0.15236907
56	0x2f	0.11017455
57	0x38	0.13127181
58	0x36	0.12658353
59	0xd3	-0.105486274
60	0x2e	0.10783041
61	0xf4	-0.028129673
62	0xda	-0.089077294
63	0x2d	0.105486274
64	0xea	-0.051571067
65	0xc7	-0.13361594
66	0xd7	-0.09610972
67	0xde	-0.07970074
68	0x04	0.009376558
69	0xbf	-0.15236907
70	0xe3	-0.06798004
71	0xe9	-0.053915206
72	0x24	0.084389016
73	0xf9	-0.016408976
74	0xd5	-0.100797996
75	0xec	-0.046882786
76	0x2c	0.103142135
77	0xf9	-0.016408976
78	0xca	-0.12658353
79	0x38	0.13127181
80	0x25	0.086733155
81	0x2f	0.11017455
82	0x37	0.12892766
83	0xde	-0.07970074
84	0xc2	-0.14533664
85	0x0a	0.023441393
86	0x09	0.021097254
87	0x10	0.03750623
88	0x1a	0.060947623
89	0xf3	-0.030473812
90	0x43	0.15705734
91	0xe4	-0.065635905
92	0x1d	0.06798004
93	0xc7	-0.13361594
94	0xc5	-0.13830422
95	0xec	-0.046882786
96	0xe1	-0.07266832
97	0x08	0.018753115
98	0x13	0.044538647
99	0x06	0.014064836
100	0xef	-0.03985037
101	0xf3	-0.030473812
102	0x2b	0.100797996
103	0xf1	-0.03516209
104	0xf1	-0.03516209
105	0xec	-0.046882786
106	0xd8	-0.09376557
107	0xc5	-0.13830422
108	0x34	0.121895246
109	0xba	-0.16408975
110	0x2f	0.11017455
111	0x3a	0.13596009
112	0xb9	-0.1664339
113	0xda	-0.089077294
114	0xfd	-0.007032418
115	0x26	0.089077294
116	0xc1	-0.14768077
117	0xd8	-0.09376557
118	0x11	0.03985037
119	0xeb	-0.04922693
120	0x2e	0.10783041
121	0x4f	0.18518701
122	0xc3	-0.1429925
123	0xe7	-0.058603484
124	0xe7	-0.058603484
125	0xcc	-0.121895246
126	0xd1	-0.11017455
127	0xe2	-0.07032418
128	0xe4	-0.065635905
129	0xd2	-0.10783041
130	0xbc	-0.15940148
131	0x40	0.15002492
132	0xde	-0.07970074
133	0x48	0.16877803
134	0x44	0.15940148
135	0xef	-0.03985037
136	0x1a	0.060947623
137	0xcd	-0.11955111
138	0x14	0.046882786
139	0xdd	-0.08204488
140	0x4c	0.17815459
141	0xf8	-0.018753115
142	0xb8	-0.16877803
143	0xf1	-0.03516209
144	0x45	0.16174562
145	0xea	-0.051571067
146	0xfd	-0.007032418
147	0xf4	-0.028129673
148	0x0f	0.03516209
149	0x2e	0.10783041
150	0xcf	-0.11486283
151	0xbf	-0.15236907
152	0xcb	-0.124239385
153	0x26	0.089077294
154	0x39	0.13361594
155	0x35	0.124239385
156	0x1a	0.060947623
157	0xf9	-0.016408976
158	0xe4	-0.065635905
159	0xfd	-0.007032418
160	0xe4	-0.065635905
161	0x10	0.03750623
162	0x2b	0.100797996
163	0xde	-0.07970074
164	0x1e	0.07032418
165	0xc3	-0.1429925
166	0x31	0.11486283
167	0x3c	0.14064837
168	0xbd	-0.15705734
169	0x20	0.07501246
170	0x1e	0.07032418
171	0xfe	-0.004688279
172	0x07	0.016408976
173	0x1e	0.07032418
174	0xe2	-0.07032418
175	0x46	0.16408975
176	0x0d	0.030473812
177	0x36	0.12658353
178	0x00	0.0
179	0x13	0.044538647
180	0x1c	0.065635905
181	0x23	0.08204488
182	0xf7	-0.021097254
183	0x3a	0.13596009
184	0x16	0.051571067
185	0x5c	0.21566083
186	0xd9	-0.09142143
187	0x2e	0.10783041
188	0xe2	-0.07032418
189	0xf5	-0.025785534
190	0xf9	-0.016408976
191	0xc9	-0.12892766
192	0x09	0.021097254
193	0xfc	-0.009376558
194	0x27	0.09142143
195	0xf5	-0.025785534
196	0x13	0.044538647
197	0x24	0.084389016
198	0xd6	-0.09845386
199	0x15	0.04922693
200	0x46	0.16408975
201	0x38	0.13127181
202	0xfa	-0.014064836
203	0x16	0.051571067
204	0x05	0.011720696
205	0x41	0.15236907
206	0x0d	0.030473812
207	0x18	0.056259345
208	0xcd	-0.11955111
209	0x19	0.058603484
210	0xf4	-0.028129673
211	0x1a	0.060947623
212	0x2a	0.09845386
213	0xc9	-0.12892766
214	0xbd	-0.15705734
215	0xd2	-0.10783041
216	0x0a	0.023441393
217	0x1c	0.065635905
218	0x38	0.13127181
219	0xca	-0.12658353
220	0xc4	-0.14064837
221	0x2d	0.105486274
222	0xaf	-0.18987529
223	0x14	0.046882786
224	0xda	-0.089077294
225	0xfb	-0.011720696
226	0xce	-0.11720697
227	0xd0	-0.11251869
228	0x44	0.15940148
229	0x08	0.018753115
230	0xc7	-0.13361594
231	0xfc	-0.009376558
232	0x07	0.016408976
233	0x15	0.04922693
234	0xe7	-0.058603484
235	0x01	0.0023441394
236	0xef	-0.03985037
237	0xbe	-0.1547132
238	0x15	0.04922693
239	0x1a	0.060947623
240	0x2e	0.10783041
241	0xee	-0.042194508
242	0xce	-0.11720697
243	0x47	0.1664339
244	0xe5	-0.063291766
245	0xb3	-0.18049873
246	0x44	0.15940148
247	0x11	0.03985037
248	0xfc	-0.009376558
249	0x28	0.09376557
250	0xc9	-0.12892766
251	0xea	-0.051571067
252	0x49	0.17112218
253	0x16	0.051571067
254	0xc6	-0.13596009
255	0xcb	-0.124239385

model/dense_3/MatMul i1 [2, 64] scale=0.0024433553 zero_point=0
0	0x16	0.053753816
1	0x2c	0.10750763
2	0x07	0.017103488
3	0xbc	-0.16614816
4	0x1d	0.0708573
5	0x59	0.21745862
6	0x56	0.21012856
7	0x6f	0.27121243
8	0xf2	-0.034206975
9	0x42	0.16126145
10	0x47	0.17347823
11	0x98	-0.25410894
12	0xd1	-0.1148377
13	0x10	0.039093684
14	0x0f	0.03665033
15	0xfb	-0.012216777
16	0xa7	-0.21745862
17	0x67	0.2516656
18	0xfd	-0.0073300656
19	0x2c	0.10750763
20	0x61	0.23700546
21	0xd0	-0.11728105
22	0x4e	0.19058171
23	0x5c	0.22478868
24	0x51	0.19791178
25	0x0b	0.026876908
26	0xf9	-0.017103488
27	0x20	0.07818737
28	0x4d	0.18813835
29	0xf1	-0.03665033
30	0x26	0.0928475
31	0x3c	0.14660132
32	0xd1	-0.1148377
33	0xac	-0.20524184
34	0xb6	-0.18080829
35	0xcb	-0.12949783
36	0xa5	-0.22234534
37	0x04	0.009773421
38	0x6d	0.2663257
39	0xe7	-0.061083883
40	0xfe	-0.0048867106
41	0x28	0.09773421
42	0x50	0.19546843
43	0x9d	-0.24189217
44	0xa1	-0.23211876
45	0xfd	-0.0073300656
46	0xe0	-0.07818737
47	0xcd	-0.12461112
48	0xf2	-0.034206975
49	0x39	0.13927124
50	0x42	0.16126145
51	0x7f	0.31030613
52	0x35	0.12949783
53	0xdf	-0.08063073
54	0x20	0.07818737
55	0x40	0.15637474
56	0xc6	-0.1417146
57	0xc7	-0.13927124
58	0x91	-0.27121243
59	0x52	0.20035513
60	0x3a	0.1417146
61	0xeb	-0.05131046
62	0xc9	-0.13438454
63	0xf4	-0.029320262
64	0x76	0.28831592
65	0x90	-0.2736558
66	0x02	0.0048867106
67	0x4d	0.18813835
68	0x6d	0.2663257
69	0xfe	-0.0048867106
70	0xd7	-0.100177564
71	0xd6	-0.10262092
72	0x1e	0.07330066
73	0xef	-0.04153704
74	0x9e	-0.23944882
75	0x72	0.2785425
76	0xe9	-0.05619717
77	0x0c	0.029320262
78	0x10	0.039093684
79	0xf9	-0.017103488
80	0x26	0.0928475
81	0x71	0.27609915
82	0xf7	-0.021990197
83	0x3a	0.1417146
84	0xd5	-0.10506428
85	0x30	0.11728105
86	0x3f	0.15393138
87	0xd2	-0.11239434
88	0x99	-0.2516656
89	0xa3	-0.22723204
90	0x2f	0.1148377
91	0x1f	0.07574401
92	0x3b	0.14415796
93	0xf0	-0.039093684
94	0x36	0.13194118
95	0x3f	0.15393138
96	0xd4	-0.10750763
97	0xab	-0.2076852
98	0x0b	0.026876908
99	0x88	-0.29320264
100	0x9f	-0.23700546
101	0xce	-0.122167766
102	0x74	0.2834292
103	0xa6	-0.21990198
104	0xfc	-0.009773421
105	0xf8	-0.019546842
106	0x4e	0.19058171
107	0xfc	-0.009773421
108	0xf3	-0.031763617
109	0xf4	-0.029320262
110	0xe5	-0.06597059
111	0x53	0.20279849
112	0xf5	-0.026876908
113	0xce	-0.122167766
114	0x0f	0.03665033
115	0x9a	-0.24922223
116	0x2b	0.10506428
117	0xbd	-0.1637048
118	0x14	0.048867106
119	0x3f	0.15393138
120	0xe6	-0.063527234
121	0xb7	-0.17836493
122	0x52	0.20035513
123	0x5e	0.2296754
124	0x3b	0.14415796
125	0xe4	-0.06841395
126	0xb5	-0.18325165
127	0x02	0.0048867106

model/conv1/Conv2D i1 [8, 3, 3, 3]
0	0x45	69
1	0x01	1
2	0xb4	-76
3	0x47	71
4	0x0b	11
5	0xab	-85
6	0x1f	31
7	0x11	17
8	0xd0	-48
9	0x60	96
10	0x09	9
11	0x9a	-102
12	0x75	117
13	0x05	5
14	0x81	-127
15	0x50	80
16	0x01	1
17	0xa9	-87
18	0x37	55
19	0x04	4
20	0xc7	-57
21	0x51	81
22	0xf8	-8
23	0xa9	-87
24	0x40	64
25	0xf1	-15
26	0xbd	-67
27	0xc4	-60
28	0xbe	-66
29	0xdc	-36
30	0x9c	-100
31	0x81	-127
32	0xd6	-42
33	0xc9	-55
34	0xce	-50
35	0xe7	-25
36	0xf9	-7
37	0x08	8
38	0xfd	-3
39	0x03	3
40	0x13	19
41	0x08	8
42	0x04	4
43	0x0b	11
44	0x02	2
45	0x09	9
46	0x0d	13
47	0x09	9
48	0x12	18
49	0x18	24
50	0x10	16
51	0x0f	15
52	0x0d	13
53	0x0d	13
54	0x89	-119
55	0x8c	-116
56	0x81	-127
57	0x89	-119
58	0x8e	-114
59	0x81	-127
60	0xa3	-93
61	0xa8	-88
62	0xa2	-94
63	0x8d	-115
64	0x90	-112
65	0x84	-124
66	0x8c	-116
67	0x8f	-113
68	0x83	-125
69	0xa5	-91
70	0xaa	-86
71	0xa4	-92
72	0x9b	-101
73	0x9e	-98
74	0x92	-110
75	0x99	-103
76	0x9e	-98
77	0x91	-111
78	0xae	-82
79	0xb4	-76
80	0xac	-84
81	0x00	0
82	0x00	0
83	0x00	0
84	0x00	0
85	0x00	0
86	0x00	0
87	0x00	0
88	0x00	0
89	0x00	0
90	0x00	0
91	0x00	0
92	0x00	0
93	0x00	0
94	0x00	0
95	0x00	0
96	0x00	0
97	0x00	0
98	0x00	0
99	0x00	0
100	0x00	0
101	0x00	0
102	0x00	0
103	0x00	0
104	0x00	0
105	0x00	0
106	0x00	0
107	0x00	0
108	0xec	-20
109	0xf7	-9
110	0x0d	13
111	0xe9	-23
112	0xee	-18
113	0x0a	10
114	0xef	-17
115	0xfe	-2
116	0x06	6
117	0x36	54
118	0x4a	74
119	0x2a	42
120	0x5c	92
121	0x7f	127
122	0x32	50
123	0x36	54
124	0x3d	61
125	0x21	33
126	0x01	1
127	0x07	7
128	0x0f	15
129	0x01	1
130	0xf6	-10
131	0x09	9
132	0xfb	-5
133	0x01	1
134	0x07	7
135	0x0f	15
136	0x0b	11
137	0x05	5
138	0x2b	43
139	0x25	37
140	0x16	22
141	0x21	33
142	0x45	69
143	0x03	3
144	0xdb	-37
145	0xf0	-16
146	0x0f	15
147	0xb0	-80
148	0xce	-50
149	0x03	3
150	0x81	-127
151	0xe5	-27
152	0xd4	-44
153	0x1d	29
154	0x09	9
155	0x0a	10
156	0x32	50
157	0xf6	-10
158	0x25	37
159	0x25	37
160	0xd2	-46
161	0x20	32
162	0x3e	62
163	0xb9	-71
164	0xfd	-3
165	0x38	56
166	0xa4	-92
167	0x16	22
168	0x0a	10
169	0xc8	-56
170	0x1a	26
171	0x72	114
172	0x97	-105
173	0xf1	-15
174	0x61	97
175	0x81	-127
176	0x19	25
177	0x0d	13
178	0xb7	-73
179	0x2b	43
180	0x6d	109
181	0xae	-82
182	0xf2	-14
183	0x56	86
184	0x9c	-100
185	0x16	22
186	0x11	17
187	0xcb	-53
188	0x26	38
189	0x00	0
190	0x00	0
191	0x00	0
192	0x00	0
193	0x00	0
194	0x00	0
195	0x00	0
196	0x00	0
197	0x00	0
198	0x00	0
199	0x00	0
200	0x00	0
201	0x00	0
202	0x00	0
203	0x00	0
204	0x00	0
205	0x00	0
206	0x00	0
207	0x00	0
208	0x00	0
209	0x00	0
210	0x00	0
211	0x00	0
212	0x00	0
213	0x00	0
214	0x00	0
215	0x00	0

model/conv_pw_1/Conv2D i1 [16, 1, 1, 8]
0	0xe9	-23
1	0xf9	-7
2	0x00	0
3	0x00	0
4	0x03	3
5	0x01	1
6	0x81	-127
7	0x00	0
8	0xe2	-30
9	0xf6	-10
10	0x00	0
11	0x00	0
12	0x06	6
13	0x00	0
14	0x7f	127
15	0x00	0
16	0x7f	127
17	0xfd	-3
18	0x00	0
19	0x00	0
20	0x02	2
21	0x03	3
22	0xf9	-7
23	0x00	0
24	0x00	0
25	0x00	0
26	0x00	0
27	0x00	0
28	0x00	0
29	0x00	0
30	0x00	0
31	0x00	0
32	0x00	0
33	0x00	0
34	0x00	0
35	0x00	0
36	0x00	0
37	0x00	0
38	0x00	0
39	0x00	0
40	0x02	2
41	0x7f	127
42	0x00	0
43	0x00	0
44	0x85	-123
45	0x09	9
46	0xec	-20
47	0x00	0
48	0xfe	-2
49	0x81	-127
50	0x00	0
51	0x00	0
52	0x7a	122
53	0x03	3
54	0x08	8
55	0x00	0
56	0x01	1
57	0x81	-127
58	0x00	0
59	0x00	0
60	0x07	7
61	0x01	1
62	0x06	6
63	0x00	0
64	0xf5	-11
65	0x48	72
66	0x00	0
67	0x00	0
68	0x7f	127
69	0xa6	-90
70	0xee	-18
71	0x00	0
72	0x15	21
73	0x03	3
74	0x00	0
75	0x00	0
76	0xfc	-4
77	0x05	5
78	0x7f	127
79	0x00	0
80	0x81	-127
81	0xfb	-5
82	0x00	0
83	0x00	0
84	0x06	6
85	0xfc	-4
86	0x03	3
87	0x00	0
88	0x38	56
89	0xf1	-15
90	0x00	0
91	0x00	0
92	0x10	16
93	0x00	0
94	0x81	-127
95	0x00	0
96	0x0c	12
97	0x7f	127
98	0x00	0
99	0x00	0
100	0x8f	-113
101	0x02	2
102	0x05	5
103	0x00	0
104	0x00	0
105	0x00	0
106	0x00	0
107	0x00	0
108	0x00	0
109	0x00	0
110	0x00	0
111	0x00	0
112	0xf6	-10
113	0x00	0
114	0x00	0
115	0x00	0
116	0x81	-127
117	0x0b	11
118	0xfb	-5
119	0x00	0
120	0x02	2
121	0xb4	-76
122	0x00	0
123	0x00	0
124	0x7f	127
125	0x02	2
126	0x07	7
127	0x00	0

model/conv_pw_2/Conv2D i1 [32, 1, 1, 16]
0	0xb8	-72
1	0xd3	-45
2	0xd4	-44
3	0x00	0
4	0x04	4
5	0xf5	-11
6	0xff	-1
7	0x0f	15
8	0xfa	-6
9	0x20	32
10	0x7f	127
11	0x32	50
12	0x04	4
13	0x03	3
14	0x0a	10
15	0xff	-1
16	0x00	0
17	0x00	0
18	0x00	0
19	0x00	0
20	0x00	0
21	0x00	0
22	0x00	0
23	0x00	0
24	0x00	0
25	0x00	0
26	0x00	0
27	0x00	0
28	0x00	0
29	0x00	0
30	0x00	0
31	0x00	0
32	0x0f	15
33	0x02	2
34	0x07	7
35	0x00	0
36	0xff	-1
37	0x16	22
38	0xfe	-2
39	0x04	4
40	0xfd	-3
41	0xff	-1
42	0xfc	-4
43	0x09	9
44	0x7f	127
45	0xff	-1
46	0xfb	-5
47	0x00	0
48	0x51	81
49	0x13	19
50	0x81	-127
51	0x00	0
52	0xf7	-9
53	0xfc	-4
54	0xf7	-9
55	0x07	7
56	0x09	9
57	0x14	20
58	0x44	68
59	0xa0	-96
60	0xf6	-10
61	0xfb	-5
62	0xfe	-2
63	0xfb	-5
64	0x07	7
65	0xff	-1
66	0xfa	-6
67	0x00	0
68	0xf5	-11
69	0x0a	10
70	0xf8	-8
71	0x7b	123
72	0xfa	-6
73	0xf8	-8
74	0xfe	-2
75	0xfb	-5
76	0xef	-17
77	0xef	-17
78	0x07	7
79	0x7f	127
80	0xfc	-4
81	0x09	9
82	0x0a	10
83	0x00	0
84	0xf3	-13
85	0x98	-104
86	0x6f	111
87	0xa0	-96
88	0xf0	-16
89	0xf8	-8
90	0xf7	-9
91	0xe2	-30
92	0x81	-127
93	0xfc	-4
94	0xe5	-27
95	0x60	96
96	0xf2	-14
97	0x03	3
98	0xfc	-4
99	0x00	0
100	0x02	2
101	0x7f	127
102	0x09	9
103	0xf8	-8
104	0x14	20
105	0xfa	-6
106	0x01	1
107	0xf3	-13
108	0xca	-54
109	0x05	5
110	0x04	4
111	0xfc	-4
112	0xdd	-35
113	0x52	82
114	0x7f	127
115	0x00	0
116	0xfe	-2
117	0x0e	14
118	0xf9	-7
119	0x01	1
120	0x05	5
121	0x02	2
122	0x87	-121
123	0xca	-54
124	0xf9	-7
125	0xf9	-7
126	0x06	6
127	0x00	0
128	0xff	-1
129	0x51	81
130	0x63	99
131	0x00	0
132	0x03	3
133	0xfc	-4
134	0x01	1
135	0xff	-1
136	0x00	0
137	0x81	-127
138	0xc3	-61
139	0xed	-19
140	0x06	6
141	0x02	2
142	0xfd	-3
143	0x08	8
144	0x1f	31
145	0x12	18
146	0x05	5
147	0x00	0
148	0x0a	10
149	0x81	-127
150	0xf3	-13
151	0xda	-38
152	0xdf	-33
153	0xfe	-2
154	0x10	16
155	0x10	16
156	0x21	33
157	0x06	6
158	0xee	-18
159	0x05	5
160	0xff	-1
161	0xef	-17
162	0xff	-1
163	0x00	0
164	0x01	1
165	0x81	-127
166	0x05	5
167	0x0a	10
168	0x0c	12
169	0x10	16
170	0xfd	-3
171	0x07	7
172	0x2a	42
173	0x00	0
174	0x04	4
175	0xee	-18
176	0xfe	-2
177	0xff	-1
178	0x01	1
179	0x00	0
180	0x03	3
181	0x81	-127
182	0x06	6
183	0xfc	-4
184	0xf8	-8
185	0x05	5
186	0x06	6
187	0x0d	13
188	0x29	41
189	0x02	2
190	0xf9	-7
191	0xfe	-2
192	0xfe	-2
193	0x06	6
194	0x00	0
195	0x00	0
196	0x01	1
197	0xff	-1
198	0x81	-127
199	0xfa	-6
200	0xff	-1
201	0xf8	-8
202	0x04	4
203	0x00	0
204	0xfa	-6
205	0x02	2
206	0xfc	-4
207	0x06	6
208	0xfa	-6
209	0xf8	-8
210	0x14	20
211	0x00	0
212	0x00	0
213	0xd1	-47
214	0xea	-22
215	0x36	54
216	0xf6	-10
217	0x04	4
218	0xf0	-16
219	0xfe	-2
220	0x7f	127
221	0xfa	-6
222	0x19	25
223	0xfb	-5
224	0x00	0
225	0x00	0
226	0x00	0
227	0x00	0
228	0x00	0
229	0x00	0
230	0x00	0
231	0x00	0
232	0x00	0
233	0x00	0
234	0x00	0
235	0x00	0
236	0x00	0
237	0x00	0
238	0x00	0
239	0x00	0
240	0x02	2
241	0xf7	-9
242	0xff	-1
243	0x00	0
244	0x01	1
245	0xf9	-7
246	0xf4	-12
247	0x7a	122
248	0xf2	-14
249	0xfb	-5
250	0xfb	-5
251	0x08	8
252	0x11	17
253	0x04	4
254	0x81	-127
255	0xce	-50

model/conv_pw_3/Conv2D i1 [32, 1, 1, 32]
0	0x0a	10
1	0x00	0
2	0x50	80
3	0xf9	-7
4	0x1a	26
5	0xb8	-72
6	0x7f	127
7	0xf1	-15
8	0x16	22
9	0x37	55
10	0xf4	-12
11	0x6e	110
12	0x3e	62
13	0x55	85
14	0x00	0
15	0x00	0
16	0xe8	-24
17	0x1f	31
18	0x00	0
19	0x35	53
20	0xc1	-63
21	0x4d	77
22	0x03	3
23	0x11	17
24	0x08	8
25	0xcd	-51
26	0xb6	-74
27	0x24	36
28	0x00	0
29	0x18	24
30	0x00	0
31	0x0d	13
32	0x10	16
33	0x00	0
34	0x01	1
35	0x11	17
36	0x03	3
37	0xfe	-2
38	0x06	6
39	0xf9	-7
40	0x07	7
41	0xfa	-6
42	0x03	3
43	0x01	1
44	0x08	8
45	0xfe	-2
46	0x00	0
47	0x16	22
48	0x0c	12
49	0x98	-104
50	0x00	0
51	0xf1	-15
52	0xfa	-6
53	0x02	2
54	0xfd	-3
55	0xfa	-6
56	0x81	-127
57	0x04	4
58	0x09	9
59	0xf9	-7
60	0xe6	-26
61	0x0f	15
62	0xf3	-13
63	0xf7	-9
64	0x05	5
65	0x00	0
66	0x04	4
67	0xfc	-4
68	0x7f	127
69	0xf7	-9
70	0xfd	-3
71	0x08	8
72	0xff	-1
73	0x06	6
74	0xfa	-6
75	0xf8	-8
76	0x08	8
77	0xf8	-8
78	0x00	0
79	0x05	5
80	0xf1	-15
81	0xff	-1
82	0x00	0
83	0x1e	30
84	0x05	5
85	0x0e	14
86	0xf8	-8
87	0xfd	-3
88	0xfa	-6
89	0x76	118
90	0x03	3
91	0xfc	-4
92	0xfc	-4
93	0xf6	-10
94	0x09	9
95	0xe9	-23
96	0x05	5
97	0x00	0
98	0xfb	-5
99	0x1f	31
100	0xe2	-30
101	0x06	6
102	0xf8	-8
103	0xf9	-7
104	0xf8	-8
105	0xd5	-43
106	0x31	49
107	0x01	1
108	0xef	-17
109	0xbb	-69
110	0x00	0
111	0xf8	-8
112	0x0b	11
113	0x6f	111
114	0x00	0
115	0x08	8
116	0x3f	63
117	0x06	6
118	0x81	-127
119	0x12	18
120	0x2d	45
121	0x3b	59
122	0xcb	-53
123	0xfa	-6
124	0x12	18
125	0xf3	-13
126	0x2a	42
127	0xce	-50
128	0xfb	-5
129	0x00	0
130	0xcc	-52
131	0x0e	14
132	0x2f	47
133	0x1d	29
134	0x93	-109
135	0xfa	-6
136	0xfd	-3
137	0x13	19
138	0x00	0
139	0xb8	-72
140	0xcb	-53
141	0x7f	127
142	0x00	0
143	0x07	7
144	0x9d	-99
145	0xe9	-23
146	0x00	0
147	0xf6	-10
148	0xa9	-87
149	0x34	52
150	0xed	-19
151	0xeb	-21
152	0x3c	60
153	0xc2	-62
154	0x51	81
155	0xfc	-4
156	0xed	-19
157	0xf8	-8
158	0xf9	-7
159	0x0d	13
160	0x00	0
161	0x00	0
162	0x7f	127
163	0x02	2
164	0x03	3
165	0xf0	-16
166	0x93	-109
167	0x05	5
168	0xfd	-3
169	0x05	5
170	0xf2	-14
171	0xc7	-57
172	0xe9	-23
173	0xfa	-6
174	0x00	0
175	0xef	-17
176	0xed	-19
177	0xe8	-24
178	0x00	0
179	0x0a	10
180	0x04	4
181	0x0e	14
182	0x07	7
183	0x1c	28
184	0x1b	27
185	0xf9	-7
186	0x03	3
187	0xf8	-8
188	0xef	-17
189	0xf9	-7
190	0x03	3
191	0x01	1
192	0x05	5
193	0x00	0
194	0xc6	-58
195	0xf8	-8
196	0x44	68
197	0xac	-84
198	0xd4	-44
199	0x09	9
200	0xfb	-5
201	0x04	4
202	0xf9	-7
203	0xf2	-14
204	0x6a	106
205	0xe4	-28
206	0x00	0
207	0xec	-20
208	0x28	40
209	0xde	-34
210	0x00	0
211	0x42	66
212	0xdd	-35
213	0x2f	47
214	0x04	4
215	0xd8	-40
216	0xe6	-26
217	0x81	-127
218	0xcc	-52
219	0x01	1
220	0xfb	-5
221	0xf6	-10
222	0x08	8
223	0xbb	-69
224	0x0c	12
225	0x00	0
226	0xfd	-3
227	0x08	8
228	0x01	1
229	0x03	3
230	0xf8	-8
231	0xf2	-14
232	0x03	3
233	0x02	2
234	0x03	3
235	0xf7	-9
236	0xf8	-8
237	0x00	0
238	0x00	0
239	0x08	8
240	0x04	4
241	0x7f	127
242	0x00	0
243	0xf8	-8
244	0x03	3
245	0xff	-1
246	0x03	3
247	0x03	3
248	0xfc	-4
249	0xfc	-4
250	0xfe	-2
251	0x05	5
252	0xfb	-5
253	0x03	3
254	0xf6	-10
255	0x02	2

model/conv_pw_4/Conv2D i1 [64, 1, 1, 32]
0	0x1d	29
1	0x5a	90
2	0x1e	30
3	0xff	-1
4	0x22	34
5	0x24	36
6	0xb6	-74
7	0x27	39
8	0xef	-17
9	0x01	1
10	0x04	4
11	0x36	54
12	0x81	-127
13	0x1e	30
14	0xe5	-27
15	0x0a	10
16	0x10	16
17	0x0e	14
18	0x1a	26
19	0x02	2
20	0x12	18
21	0xe1	-31
22	0x53	83
23	0x99	-103
24	0x19	25
25	0x18	24
26	0xfe	-2
27	0x3f	63
28	0x42	66
29	0x45	69
30	0xea	-22
31	0x20	32
32	0xfe	-2
33	0x24	36
34	0xfb	-5
35	0xfc	-4
36	0x0d	13
37	0x00	0
38	0x05	5
39	0xe7	-25
40	0x18	24
41	0x05	5
42	0xf3	-13
43	0xfd	-3
44	0xf2	-14
45	0x04	4
46	0x07	7
47	0x2d	45
48	0xe0	-32
49	0x1d	29
50	0x13	19
51	0x81	-127
52	0x06	6
53	0xfb	-5
54	0x02	2
55	0x09	9
56	0xf8	-8
57	0xfc	-4
58	0xf1	-15
59	0xee	-18
60	0x07	7
61	0x07	7
62	0x02	2
63	0x11	17
64	0x9f	-97
65	0xf6	-10
66	0x21	33
67	0x2b	43
68	0x3b	59
69	0xc6	-58
70	0x6c	108
71	0xe3	-29
72	0x91	-111
73	0xdd	-35
74	0x10	16
75	0xd0	-48
76	0x81	-127
77	0xd2	-46
78	0xfe	-2
79	0xfb	-5
80	0x18	24
81	0xc9	-55
82	0xcb	-53
83	0xe9	-23
84	0x89	-119
85	0x2c	44
86	0xf1	-15
87	0x4b	75
88	0xbe	-66
89	0x1d	29
90	0x6c	108
91	0x2c	44
92	0x3d	61
93	0x11	17
94	0xe3	-29
95	0xf2	-14
96	0x0c	12
97	0xee	-18
98	0xfe	-2
99	0xc8	-56
100	0x0a	10
101	0x0a	10
102	0x0b	11
103	0xda	-38
104	0xe9	-23
105	0xf1	-15
106	0x10	16
107	0xd7	-41
108	0x24	36
109	0xfd	-3
110	0xf5	-11
111	0x03	3
112	0xa9	-87
113	0xe3	-29
114	0x2e	46
115	0x1f	31
116	0x18	24
117	0x0c	12
118	0xf5	-11
119	0x02	2
120	0x01	1
121	0xeb	-21
122	0xcc	-52
123	0xdb	-37
124	0x0c	12
125	0x7f	127
126	0xd3	-45
127	0xef	-17
128	0xf5	-11
129	0x32	50
130	0x00	0
131	0x04	4
132	0x9a	-102
133	0x0d	13
134	0xb7	-73
135	0x02	2
136	0xd9	-39
137	0x0a	10
138	0x1f	31
139	0x7f	127
140	0x0f	15
141	0xf0	-16
142	0x00	0
143	0x10	16
144	0x38	56
145	0x14	20
146	0xa6	-90
147	0x11	17
148	0x2b	43
149	0xf3	-13
150	0xf7	-9
151	0xe1	-31
152	0x02	2
153	0xe2	-30
154	0x0a	10
155	0xcf	-49
156	0xd1	-47
157	0x13	19
158	0x06	6
159	0xe4	-28
160	0x0a	10
161	0x7f	127
162	0x11	17
163	0xf8	-8
164	0xf5	-11
165	0x18	24
166	0xe8	-24
167	0x37	55
168	0x06	6
169	0x18	24
170	0x0d	13
171	0x17	23
172	0xb3	-77
173	0xf8	-8
174	0x05	5
175	0x17	23
176	0xff	-1
177	0x0f	15
178	0xfd	-3
179	0xf8	-8
180	0x0a	10
181	0xe8	-24
182	0x34	52
183	0xd4	-44
184	0x0e	14
185	0xf8	-8
186	0x07	7
187	0x04	4
188	0x15	21
189	0xfa	-6
190	0xf0	-16
191	0x05	5
192	0xa2	-94
193	0x23	35
194	0x01	1
195	0x11	17
196	0xdc	-36
197	0x86	-122
198	0x11	17
199	0x02	2
200	0xe1	-31
201	0x99	-103
202	0x2d	45
203	0x81	-127
204	0x23	35
205	0xd0	-48
206	0x1b	27
207	0xe8	-24
208	0x0f	15
209	0xeb	-21
210	0x1d	29
211	0x04	4
212	0xc9	-55
213	0x57	87
214	0xd1	-47
215	0x56	86
216	0xa5	-91
217	0x26	38
218	0x5f	95
219	0xf8	-8
220	0xde	-34
221	0x07	7
222	0x05	5
223	0xeb	-21
224	0x01	1
225	0x0c	12
226	0xe7	-25
227	0x62	98
228	0xf3	-13
229	0xf2	-14
230	0xe3	-29
231	0xf2	-14
232	0xcb	-53
233	0xe6	-26
234	0x0d	13
235	0xe0	-32
236	0x14	20
237	0xfb	-5
238	0x60	96
239	0x02	2
240	0xe6	-26
241	0x06	6
242	0x22	34
243	0xf4	-12
244	0x24	36
245	0x14	20
246	0xf6	-10
247	0x13	19
248	0xf4	-12
249	0x7f	127
250	0x0c	12
251	0x1d	29
252	0x26	38
253	0xf0	-16
254	0x00	0
255	0x03	3

model/conv_pw_5/Conv2D i1 [64, 1, 1, 64]
0	0xf3	-13
1	0xfd	-3
2	0x03	3
3	0x06	6
4	0xf3	-13
5	0x01	1
6	0xfa	-6
7	0x08	8
8	0x7f	127
9	0x11	17
10	0xf6	-10
11	0x06	6
12	0xf7	-9
13	0x01	1
14	0x06	6
15	0xf7	-9
16	0x00	0
17	0x05	5
18	0x02	2
19	0xe8	-24
20	0xf7	-9
21	0xfe	-2
22	0xfd	-3
23	0x00	0
24	0x01	1
25	0xf7	-9
26	0xfb	-5
27	0x0e	14
28	0xf8	-8
29	0x09	9
30	0x02	2
31	0xff	-1
32	0x06	6
33	0xfc	-4
34	0x07	7
35	0xfe	-2
36	0x02	2
37	0x08	8
38	0xfd	-3
39	0x02	2
40	0xfe	-2
41	0x04	4
42	0xfa	-6
43	0x02	2
44	0x07	7
45	0x07	7
46	0x0d	13
47	0x01	1
48	0x09	9
49	0x01	1
50	0xfb	-5
51	0xfb	-5
52	0x02	2
53	0x17	23
54	0x00	0
55	0x04	4
56	0x0e	14
57	0xfc	-4
58	0x0b	11
59	0x26	38
60	0xb6	-74
61	0xf9	-7
62	0x12	18
63	0xff	-1
64	0xdd	-35
65	0xe8	-24
66	0xf6	-10
67	0xf3	-13
68	0xcd	-51
69	0x81	-127
70	0x22	34
71	0xdb	-37
72	0x10	16
73	0xe3	-29
74	0xee	-18
75	0xb7	-73
76	0x02	2
77	0x0b	11
78	0xf3	-13
79	0x09	9
80	0x1d	29
81	0xd4	-44
82	0xed	-19
83	0xf3	-13
84	0xbf	-65
85	0x12	18
86	0xfb	-5
87	0x07	7
88	0xe6	-26
89	0xce	-50
90	0x03	3
91	0xf6	-10
92	0xd8	-40
93	0x04	4
94	0xdf	-33
95	0xe8	-24
96	0xfb	-5
97	0xef	-17
98	0xfe	-2
99	0xf6	-10
100	0x00	0
101	0xe3	-29
102	0xed	-19
103	0x21	33
104	0xe4	-28
105	0x29	41
106	0xf4	-12
107	0x11	17
108	0xe7	-25
109	0xf3	-13
110	0xf8	-8
111	0x31	49
112	0x2b	43
113	0xc6	-58
114	0xe0	-32
115	0xf6	-10
116	0xed	-19
117	0xee	-18
118	0xff	-1
119	0xe3	-29
120	0xdf	-33
121	0x07	7
122	0xee	-18
123	0x04	4
124	0xf1	-15
125	0x11	17
126	0x08	8
127	0xfe	-2
128	0xdf	-33
129	0x02	2
130	0xf7	-9
131	0xd7	-41
132	0x81	-127
133	0xfe	-2
134	0x32	50
135	0xfc	-4
136	0x1c	28
137	0xee	-18
138	0x04	4
139	0xf7	-9
140	0x30	48
141	0x07	7
142	0x0b	11
143	0x1b	27
144	0x06	6
145	0xe4	-28
146	0xba	-70
147	0xf8	-8
148	0xeb	-21
149	0xf6	-10
150	0x13	19
151	0xfd	-3
152	0x04	4
153	0xe2	-30
154	0xfe	-2
155	0x0b	11
156	0x0a	10
157	0xea	-22
158	0xfc	-4
159	0xfe	-2
160	0xf5	-11
161	0x02	2
162	0xe0	-32
163	0xfc	-4
164	0xec	-20
165	0x02	2
166	0x09	9
167	0xf0	-16
168	0xff	-1
169	0x0e	14
170	0x06	6
171	0x02	2
172	0xe0	-32
173	0x08	8
174	0x17	23
175	0xfc	-4
176	0xc3	-61
177	0x0d	13
178	0xe7	-25
179	0xcf	-49
180	0x03	3
181	0x15	21
182	0x1d	29
183	0x04	4
184	0xe1	-31
185	0x64	100
186	0x04	4
187	0xfa	-6
188	0xf6	-10
189	0xfa	-6
190	0xfa	-6
191	0x1f	31
192	0x81	-127
193	0xef	-17
194	0xb5	-75
195	0x05	5
196	0x1c	28
197	0x03	3
198	0x38	56
199	0xf9	-7
200	0xe0	-32
201	0x0b	11
202	0xe4	-28
203	0xf0	-16
204	0xf3	-13
205	0xbe	-66
206	0x65	101
207	0xa0	-96
208	0x00	0
209	0xf5	-11
210	0xea	-22
211	0x02	2
212	0xee	-18
213	0x1e	30
214	0x0c	12
215	0x8b	-117
216	0xda	-38
217	0xb5	-75
218	0xb9	-71
219	0xfa	-6
220	0xd8	-40
221	0xf9	-7
222	0xf2	-14
223	0x17	23
224	0x01	1
225	0x11	17
226	0x0c	12
227	0xfe	-2
228	0x01	1
229	0xe2	-30
230	0xd6	-42
231	0x20	32
232	0x3b	59
233	0xac	-84
234	0xfe	-2
235	0xda	-38
236	0xe1	-31
237	0x09	9
238	0x4d	77
239	0xee	-18
240	0xbc	-68
241	0x0c	12
242	0xdc	-36
243	0xf4	-12
244	0xe5	-27
245	0xbe	-66
246	0x28	40
247	0xf2	-14
248	0xdc	-36
249	0x1a	26
250	0x48	72
251	0xeb	-21
252	0x13	19
253	0xff	-1
254	0xdc	-36
255	0x92	-110

model/conv_pw_6/Conv2D i1 [128, 1, 1, 64]
0	0x05	5
1	0xd8	-40
2	0x1a	26
3	0xe8	-24
4	0x03	3
5	0x00	0
6	0xdf	-33
7	0x05	5
8	0xfd	-3
9	0xf0	-16
10	0xe1	-31
11	0x38	56
12	0x24	36
13	0x08	8
14	0x02	2
15	0x0d	13
16	0x13	19
17	0x21	33
18	0xfd	-3
19	0xf9	-7
20	0xff	-1
21	0x19	25
22	0x2a	42
23	0xf6	-10
24	0xf4	-12
25	0xfe	-2
26	0xbb	-69
27	0x1b	27
28	0x04	4
29	0xd6	-42
30	0xf9	-7
31	0xee	-18
32	0xf1	-15
33	0x09	9
34	0xfa	-6
35	0x0a	10
36	0xcc	-52
37	0xfb	-5
38	0x18	24
39	0x26	38
40	0x22	34
41	0x0b	11
42	0x64	100
43	0x11	17
44	0x0d	13
45	0xea	-22
46	0x7f	127
47	0xe7	-25
48	0x20	32
49	0xfc	-4
50	0xf7	-9
51	0x1d	29
52	0x0f	15
53	0xe3	-29
54	0xf2	-14
55	0x0e	14
56	0x08	8
57	0x0a	10
58	0x26	38
59	0xac	-84
60	0xfd	-3
61	0xf8	-8
62	0xee	-18
63	0x40	64
64	0x04	4
65	0x02	2
66	0xfd	-3
67	0xe1	-31
68	0xfd	-3
69	0x00	0
70	0x03	3
71	0x25	37
72	0x2c	44
73	0xe3	-29
74	0x1f	31
75	0xfa	-6
76	0xf6	-10
77	0x10	16
78	0x24	36
79	0x0f	15
80	0xe6	-26
81	0xe2	-30
82	0x06	6
83	0xe6	-26
84	0x1c	28
85	0xdf	-33
86	0x06	6
87	0x06	6
88	0x2e	46
89	0xe6	-26
90	0x15	21
91	0xf8	-8
92	0xf9	-7
93	0xfc	-4
94	0x13	19
95	0x81	-127
96	0xfa	-6
97	0x04	4
98	0xfd	-3
99	0xfa	-6
100	0xf2	-14
101	0x33	51
102	0xef	-17
103	0x09	9
104	0x04	4
105	0x2b	43
106	0xf2	-14
107	0xe6	-26
108	0xed	-19
109	0xf3	-13
110	0x07	7
111	0x18	24
112	0xe8	-24
113	0x24	36
114	0xfc	-4
115	0x05	5
116	0xfc	-4
117	0xdb	-37
118	0xfc	-4
119	0x13	19
120	0xde	-34
121	0xfc	-4
122	0xd7	-41
123	0x0c	12
124	0x18	24
125	0xeb	-21
126	0xed	-19
127	0xe0	-32
128	0xfc	-4
129	0x01	1
130	0x1a	26
131	0x02	2
132	0x12	18
133	0x00	0
134	0x04	4
135	0x0e	14
136	0x07	7
137	0x03	3
138	0x7f	127
139	0xf3	-13
140	0x05	5
141	0xe9	-23
142	0x02	2
143	0x09	9
144	0xcf	-49
145	0xc7	-57
146	0x17	23
147	0x0a	10
148	0xfa	-6
149	0x0b	11
150	0x13	19
151	0x08	8
152	0xf0	-16
153	0x02	2
154	0xe9	-23
155	0x0e	14
156	0x02	2
157	0xfd	-3
158	0x18	24
159	0xea	-22
160	0x08	8
161	0x01	1
162	0xf7	-9
163	0xfa	-6
164	0xff	-1
165	0xe6	-26
166	0xf6	-10
167	0xde	-34
168	0x0a	10
169	0x2d	45
170	0x0c	12
171	0x08	8
172	0x09	9
173	0x04	4
174	0xfb	-5
175	0x04	4
176	0xf9	-7
177	0xfc	-4
178	0xf4	-12
179	0xfd	-3
180	0x01	1
181	0x25	37
182	0x50	80
183	0xfb	-5
184	0xf2	-14
185	0x24	36
186	0x12	18
187	0xe8	-24
188	0xaf	-81
189	0x0c	12
190	0x23	35
191	0x02	2
192	0x0d	13
193	0x04	4
194	0x09	9
195	0xf7	-9
196	0xe8	-24
197	0x00	0
198	0x07	7
199	0x0b	11
200	0xf2	-14
201	0xff	-1
202	0x2c	44
203	0xd4	-44
204	0xe8	-24
205	0x33	51
206	0xd4	-44
207	0x0d	13
208	0x08	8
209	0xdc	-36
210	0x0f	15
211	0x12	18
212	0xf9	-7
213	0xe8	-24
214	0x04	4
215	0x13	19
216	0x27	39
217	0x12	18
218	0x10	16
219	0xe8	-24
220	0x15	21
221	0x28	40
222	0xfd	-3
223	0x11	17
224	0x00	0
225	0x09	9
226	0x0c	12
227	0x03	3
228	0x91	-111
229	0x01	1
230	0x00	0
231	0x07	7
232	0x0b	11
233	0x21	33
234	0x20	32
235	0xe1	-31
236	0x08	8
237	0x36	54
238	0xf4	-12
239	0xe7	-25
240	0xf2	-14
241	0xdb	-37
242	0xd2	-46
243	0xff	-1
244	0xfd	-3
245	0x24	36
246	0xfa	-6
247	0x10	16
248	0x0b	11
249	0xfd	-3
250	0x07	7
251	0x81	-127
252	0x00	0
253	0x19	25
254	0x0b	11
255	0xdb	-37

model/conv_pw_7/Conv2D i1 [128, 1, 1, 128]
0	0x40	64
1	0x26	38
2	0xee	-18
3	0xfe	-2
4	0x66	102
5	0x81	-127
6	0x15	21
7	0xef	-17
8	0xdf	-33
9	0xf4	-12
10	0xf8	-8
11	0x5e	94
12	0x87	-121
13	0x9e	-98
14	0xf3	-13
15	0xe3	-29
16	0xf6	-10
17	0xef	-17
18	0xdf	-33
19	0x12	18
20	0xfb	-5
21	0x25	37
22	0xdb	-37
23	0x03	3
24	0x23	35
25	0xe3	-29
26	0xdb	-37
27	0xdc	-36
28	0xf7	-9
29	0xf8	-8
30	0x07	7
31	0x05	5
32	0xf2	-14
33	0x1e	30
34	0xe3	-29
35	0x04	4
36	0xe9	-23
37	0xdf	-33
38	0x11	17
39	0x20	32
40	0x1a	26
41	0x15	21
42	0x2d	45
43	0xf6	-10
44	0xf5	-11
45	0xfa	-6
46	0x29	41
47	0xe1	-31
48	0x13	19
49	0x16	22
50	0x0a	10
51	0x0d	13
52	0xd8	-40
53	0x00	0
54	0x58	88
55	0xec	-20
56	0xc0	-64
57	0xd4	-44
58	0xee	-18
59	0x12	18
60	0xdc	-36
61	0x04	4
62	0xe9	-23
63	0xe5	-27
64	0xfe	-2
65	0x3b	59
66	0x0e	14
67	0x09	9
68	0xc6	-58
69	0xd8	-40
70	0xa9	-87
71	0x18	24
72	0x26	38
73	0xe7	-25
74	0x02	2
75	0xd1	-47
76	0x10	16
77	0x01	1
78	0xea	-22
79	0xe7	-25
80	0x1c	28
81	0x21	33
82	0xf5	-11
83	0xf6	-10
84	0x0e	14
85	0xf8	-8
86	0xd5	-43
87	0x06	6
88	0x2c	44
89	0xe5	-27
90	0xd7	-41
91	0x1e	30
92	0x47	71
93	0xd2	-46
94	0xf9	-7
95	0xec	-20
96	0xe5	-27
97	0x0d	13
98	0xe5	-27
99	0x81	-127
100	0x2f	47
101	0x20	32
102	0x06	6
103	0x02	2
104	0xf1	-15
105	0xfb	-5
106	0xf0	-16
107	0xc3	-61
108	0x15	21
109	0x61	97
110	0xcd	-51
111	0xc9	-55
112	0x56	86
113	0x96	-106
114	0xe5	-27
115	0x20	32
116	0x5d	93
117	0x14	20
118	0x14	20
119	0xf5	-11
120	0xec	-20
121	0xc1	-63
122	0x1a	26
123	0xe3	-29
124	0xe2	-30
125	0x0e	14
126	0xe1	-31
127	0xc5	-59
128	0xed	-19
129	0x46	70
130	0x14	20
131	0x0b	11
132	0x3d	61
133	0xf5	-11
134	0x0f	15
135	0x12	18
136	0xe5	-27
137	0x26	38
138	0xee	-18
139	0x33	51
140	0x23	35
141	0xfc	-4
142	0x0c	12
143	0xf5	-11
144	0xfb	-5
145	0xfd	-3
146	0x08	8
147	0x15	21
148	0xfd	-3
149	0x14	20
150	0xfc	-4
151	0xf0	-16
152	0xff	-1
153	0x0e	14
154	0x0e	14
155	0xfe	-2
156	0xee	-18
157	0x17	23
158	0xfc	-4
159	0x0c	12
160	0xe8	-24
161	0x26	38
162	0xf4	-12
163	0xe8	-24
164	0x08	8
165	0x08	8
166	0xff	-1
167	0xf2	-14
168	0x0c	12
169	0xeb	-21
170	0x09	9
171	0x03	3
172	0xf4	-12
173	0x01	1
174	0x2f	47
175	0x1c	28
176	0xd5	-43
177	0x0b	11
178	0xf7	-9
179	0x0f	15
180	0xf5	-11
181	0xe4	-28
182	0x11	17
183	0xe8	-24
184	0x10	16
185	0xfa	-6
186	0x9e	-98
187	0xfd	-3
188	0x18	24
189	0x08	8
190	0xf8	-8
191	0xf1	-15
192	0xe5	-27
193	0x0f	15
194	0xfc	-4
195	0xef	-17
196	0xe1	-31
197	0x02	2
198	0x1e	30
199	0x03	3
200	0x02	2
201	0xf5	-11
202	0x04	4
203	0x0b	11
204	0xed	-19
205	0x0e	14
206	0x05	5
207	0xf3	-13
208	0x18	24
209	0x00	0
210	0x1d	29
211	0xeb	-21
212	0x0a	10
213	0xfe	-2
214	0x0f	15
215	0xf8	-8
216	0xda	-38
217	0xe4	-28
218	0xfa	-6
219	0xf1	-15
220	0x7f	127
221	0xed	-19
222	0xe9	-23
223	0x02	2
224	0x09	9
225	0xed	-19
226	0x0a	10
227	0xc2	-62
228	0x04	4
229	0x28	40
230	0x01	1
231	0xdf	-33
232	0xe8	-24
233	0x22	34
234	0xf9	-7
235	0xaf	-81
236	0x34	52
237	0xd7	-41
238	0xfa	-6
239	0x9d	-99
240	0x5c	92
241	0x12	18
242	0x0d	13
243	0xde	-34
244	0x20	32
245	0x1f	31
246	0xfc	-4
247	0xed	-19
248	0xe4	-28
249	0xdb	-37
250	0xf9	-7
251	0xfc	-4
252	0x2c	44
253	0xfc	-4
254	0x0a	10
255	0x0e	14

model/conv_pw_8/Conv2D i1 [128, 1, 1, 128]
0	0xe6	-26
1	0x00	0
2	0xd0	-48
3	0xde	-34
4	0xfa	-6
5	0xfa	-6
6	0x23	35
7	0x1a	26
8	0x0a	10
9	0x22	34
10	0xf0	-16
11	0xfa	-6
12	0xf0	-16
13	0xfb	-5
14	0x00	0
15	0xff	-1
16	0x0b	11
17	0xe9	-23
18	0xaa	-86
19	0xf5	-11
20	0x08	8
21	0xfe	-2
22	0xf1	-15
23	0x06	6
24	0x1c	28
25	0xe2	-30
26	0xef	-17
27	0xf1	-15
28	0x00	0
29	0x38	56
30	0xcd	-51
31	0xd8	-40
32	0xef	-17
33	0xfd	-3
34	0xf8	-8
35	0xf7	-9
36	0x25	37
37	0x10	16
38	0xff	-1
39	0x16	22
40	0xf6	-10
41	0x13	19
42	0x25	37
43	0xff	-1
44	0xf8	-8
45	0x31	49
46	0x00	0
47	0xfe	-2
48	0x02	2
49	0xef	-17
50	0xf7	-9
51	0xee	-18
52	0xde	-34
53	0xf7	-9
54	0x04	4
55	0xf3	-13
56	0x1d	29
57	0xe6	-26
58	0x07	7
59	0x23	35
60	0xeb	-21
61	0x15	21
62	0xe3	-29
63	0x20	32
64	0x04	4
65	0x0c	12
66	0x0a	10
67	0x0e	14
68	0xfe	-2
69	0xf5	-11
70	0x09	9
71	0xea	-22
72	0xeb	-21
73	0x06	6
74	0xd5	-43
75	0x1b	27
76	0xe0	-32
77	0x11	17
78	0x02	2
79	0x1f	31
80	0xfa	-6
81	0x0c	12
82	0xe6	-26
83	0x0e	14
84	0xec	-20
85	0x17	23
86	0x12	18
87	0xed	-19
88	0x07	7
89	0x19	25
90	0x33	51
91	0xf8	-8
92	0xd7	-41
93	0x0a	10
94	0xe9	-23
95	0x7f	127
96	0x07	7
97	0x29	41
98	0x0e	14
99	0x09	9
100	0xe6	-26
101	0x02	2
102	0xea	-22
103	0xef	-17
104	0xe2	-30
105	0x40	64
106	0xc5	-59
107	0x12	18
108	0xfb	-5
109	0xdf	-33
110	0xda	-38
111	0x56	86
112	0xfc	-4
113	0x04	4
114	0x40	64
115	0x4f	79
116	0x13	19
117	0xf5	-11
118	0x1d	29
119	0x03	3
120	0x1c	28
121	0x03	3
122	0xe3	-29
123	0xf9	-7
124	0xde	-34
125	0xfb	-5
126	0xe4	-28
127	0xd2	-46
128	0x02	2
129	0x32	50
130	0x20	32
131	0xf9	-7
132	0xeb	-21
133	0xcd	-51
134	0xfa	-6
135	0x25	37
136	0x12	18
137	0x07	7
138	0x08	8
139	0xce	-50
140	0xce	-50
141	0x17	23
142	0xed	-19
143	0x00	0
144	0xcd	-51
145	0xad	-83
146	0xe7	-25
147	0x70	112
148	0x2c	44
149	0x1e	30
150	0xf3	-13
151	0xfc	-4
152	0xf6	-10
153	0x48	72
154	0x18	24
155	0x0b	11
156	0xf3	-13
157	0x08	8
158	0x0d	13
159	0xf1	-15
160	0x07	7
161	0x00	0
162	0x12	18
163	0xf0	-16
164	0x18	24
165	0xf9	-7
166	0x0b	11
167	0xd8	-40
168	0x1f	31
169	0xf0	-16
170	0x06	6
171	0x10	16
172	0xef	-17
173	0xe8	-24
174	0x05	5
175	0x50	80
176	0x08	8
177	0xa4	-92
178	0xf1	-15
179	0x10	16
180	0xf4	-12
181	0xf3	-13
182	0x4c	76
183	0xe7	-25
184	0x0b	11
185	0x26	38
186	0xf6	-10
187	0x14	20
188	0x43	67
189	0x06	6
190	0xc9	-55
191	0x20	32
192	0xb6	-74
193	0xe9	-23
194	0x19	25
195	0xb3	-77
196	0x3d	61
197	0xfd	-3
198	0xf0	-16
199	0x06	6
200	0xd8	-40
201	0xd6	-42
202	0xdb	-37
203	0xb6	-74
204	0x04	4
205	0x29	41
206	0xfd	-3
207	0x04	4
208	0x65	101
209	0xfa	-6
210	0xde	-34
211	0xb7	-73
212	0x00	0
213	0xd3	-45
214	0x2e	46
215	0x44	68
216	0xeb	-21
217	0x1c	28
218	0xf8	-8
219	0x3a	58
220	0xd2	-46
221	0xfa	-6
222	0x81	-127
223	0x20	32
224	0x1b	27
225	0xf5	-11
226	0x3b	59
227	0x05	5
228	0x03	3
229	0xf6	-10
230	0x2d	45
231	0xf2	-14
232	0xfd	-3
233	0x09	9
234	0xfc	-4
235	0xe1	-31
236	0xe3	-29
237	0x2a	42
238	0xea	-22
239	0x0a	10
240	0xff	-1
241	0xf6	-10
242	0x01	1
243	0x02	2
244	0xea	-22
245	0xf0	-16
246	0xae	-82
247	0x1e	30
248	0xfa	-6
249	0xd4	-44
250	0x1b	27
251	0xe6	-26
252	0xf1	-15
253	0x0a	10
254	0xf5	-11
255	0x20	32

model/conv_pw_9/Conv2D i1 [128, 1, 1, 128]
0	0x1e	30
1	0xf3	-13
2	0xe5	-27
3	0xf2	-14
4	0x04	4
5	0xf5	-11
6	0xed	-19
7	0xd6	-42
8	0x12	18
9	0x25	37
10	0x05	5
11	0x20	32
12	0x03	3
13	0xd6	-42
14	0x0c	12
15	0xfe	-2
16	0xf1	-15
17	0x0b	11
18	0x07	7
19	0x19	25
20	0xed	-19
21	0x1e	30
22	0xf0	-16
23	0x31	49
24	0x12	18
25	0x13	19
26	0x0f	15
27	0xfc	-4
28	0xdf	-33
29	0x0e	14
30	0xf8	-8
31	0xf0	-16
32	0x0a	10
33	0x00	0
34	0x06	6
35	0xf3	-13
36	0x13	19
37	0xd5	-43
38	0xe6	-26
39	0x0e	14
40	0x0b	11
41	0x08	8
42	0x07	7
43	0x0d	13
44	0xfa	-6
45	0x07	7
46	0x08	8
47	0x0c	12
48	0x20	32
49	0x0d	13
50	0x0c	12
51	0x02	2
52	0xfc	-4
53	0xf1	-15
54	0xfc	-4
55	0xf8	-8
56	0xf9	-7
57	0x09	9
58	0xdb	-37
59	0xfc	-4
60	0x10	16
61	0x1d	29
62	0x16	22
63	0x01	1
64	0xff	-1
65	0x04	4
66	0x07	7
67	0xfc	-4
68	0x13	19
69	0xef	-17
70	0x0c	12
71	0xe8	-24
72	0x10	16
73	0xf9	-7
74	0x01	1
75	0x10	16
76	0x10	16
77	0x11	17
78	0x03	3
79	0xe7	-25
80	0x23	35
81	0x10	16
82	0xe8	-24
83	0xfa	-6
84	0xf7	-9
85	0x13	19
86	0x1c	28
87	0xf5	-11
88	0x0a	10
89	0x0a	10
90	0xff	-1
91	0xfa	-6
92	0x06	6
93	0xfe	-2
94	0x15	21
95	0xe6	-26
96	0xe6	-26
97	0x10	16
98	0xfe	-2
99	0xfa	-6
100	0x49	73
101	0xfb	-5
102	0xf8	-8
103	0xff	-1
104	0xe2	-30
105	0xfc	-4
106	0xf9	-7
107	0xf2	-14
108	0x0e	14
109	0x0a	10
110	0x0e	14
111	0x03	3
112	0x0d	13
113	0xff	-1
114	0x0f	15
115	0x0e	14
116	0x0a	10
117	0x1f	31
118	0xef	-17
119	0x03	3
120	0x02	2
121	0xf3	-13
122	0xf4	-12
123	0xff	-1
124	0xee	-18
125	0x7f	127
126	0x03	3
127	0x10	16
128	0xf3	-13
129	0x0a	10
130	0xf5	-11
131	0xea	-22
132	0x00	0
133	0xf4	-12
134	0x21	33
135	0xfc	-4
136	0x0b	11
137	0xfe	-2
138	0xf2	-14
139	0x06	6
140	0x0f	15
141	0xe8	-24
142	0xd1	-47
143	0xd9	-39
144	0xfe	-2
145	0xee	-18
146	0xff	-1
147	0xfc	-4
148	0x0d	13
149	0x1b	27
150	0x3c	60
151	0x01	1
152	0xe7	-25
153	0xe1	-31
154	0xa6	-90
155	0xf1	-15
156	0x14	20
157	0xec	-20
158	0x9e	-98
159	0x07	7
160	0xe0	-32
161	0x09	9
162	0xd5	-43
163	0x11	17
164	0x1e	30
165	0x08	8
166	0xfc	-4
167	0x12	18
168	0x22	34
169	0x11	17
170	0x24	36
171	0x00	0
172	0xf9	-7
173	0x4f	79
174	0x37	55
175	0x08	8
176	0x31	49
177	0xff	-1
178	0x16	22
179	0xf4	-12
180	0x1b	27
181	0xe9	-23
182	0x0d	13
183	0xf3	-13
184	0x16	22
185	0x36	54
186	0xf7	-9
187	0x08	8
188	0x07	7
189	0x15	21
190	0x05	5
191	0x6d	109
192	0x23	35
193	0x0f	15
194	0xf6	-10
195	0x1a	26
196	0x21	33
197	0xec	-20
198	0xdb	-37
199	0x09	9
200	0x26	38
201	0xe7	-25
202	0x19	25
203	0xdd	-35
204	0x13	19
205	0x22	34
206	0x3d	61
207	0xe3	-29
208	0x06	6
209	0x6a	106
210	0xf3	-13
211	0x12	18
212	0xc7	-57
213	0xef	-17
214	0x05	5
215	0x7f	127
216	0xf6	-10
217	0xd9	-39
218	0xed	-19
219	0x14	20
220	0x18	24
221	0x01	1
222	0xd4	-44
223	0x14	20
224	0xee	-18
225	0xeb	-21
226	0xfe	-2
227	0xcd	-51
228	0x0f	15
229	0xe1	-31
230	0xf5	-11
231	0x21	33
232	0xf7	-9
233	0xf2	-14
234	0xfa	-6
235	0xe7	-25
236	0xd3	-45
237	0xee	-18
238	0xff	-1
239	0x19	25
240	0x29	41
241	0x16	22
242	0xc4	-60
243	0xfb	-5
244	0x1a	26
245	0xed	-19
246	0xf0	-16
247	0x1e	30
248	0xf6	-10
249	0xfd	-3
250	0x25	37
251	0x9a	-102
252	0x12	18
253	0x10	16
254	0xf6	-10
255	0xf6	-10

model/conv_pw_10/Conv2D i1 [128, 1, 1, 128]
0	0xef	-17
1	0x42	66
2	0xd3	-45
3	0x02	2
4	0x09	9
5	0x0e	14
6	0x36	54
7	0xf4	-12
8	0xcb	-53
9	0xf9	-7
10	0x3b	59
11	0x0f	15
12	0xbb	-69
13	0xdb	-37
14	0x11	17
15	0x20	32
16	0x1f	31
17	0x27	39
18	0xe8	-24
19	0xcf	-49
20	0xd1	-47
21	0xea	-22
22	0x29	41
23	0xec	-20
24	0x7f	127
25	0xcc	-52
26	0xe9	-23
27	0x0a	10
28	0x01	1
29	0xda	-38
30	0x40	64
31	0xe7	-25
32	0xe9	-23
33	0xd1	-47
34	0x12	18
35	0x0d	13
36	0xef	-17
37	0x1d	29
38	0xf8	-8
39	0xf4	-12
40	0x06	6
41	0x34	52
42	0xcc	-52
43	0x12	18
44	0xad	-83
45	0xf8	-8
46	0xd9	-39
47	0xfb	-5
48	0xc2	-62
49	0xd6	-42
50	0xfd	-3
51	0xd1	-47
52	0xd8	-40
53	0x1a	26
54	0x2b	43
55	0xc9	-55
56	0x19	25
57	0xda	-38
58	0xd0	-48
59	0x06	6
60	0x22	34
61	0xfd	-3
62	0xfd	-3
63	0x05	5
64	0x2c	44
65	0xea	-22
66	0xe8	-24
67	0xe6	-26
68	0xfe	-2
69	0xbd	-67
70	0x06	6
71	0xd5	-43
72	0x10	16
73	0x25	37
74	0xf2	-14
75	0xde	-34
76	0x2a	42
77	0xfd	-3
78	0x03	3
79	0x03	3
80	0xf3	-13
81	0xed	-19
82	0xe0	-32
83	0x08	8
84	0xd0	-48
85	0xcd	-51
86	0x18	24
87	0xf0	-16
88	0xdb	-37
89	0x01	1
90	0xfd	-3
91	0xed	-19
92	0xe2	-30
93	0x3a	58
94	0xea	-22
95	0xbe	-66
96	0xec	-20
97	0xcd	-51
98	0xe1	-31
99	0xc1	-63
100	0x0a	10
101	0xfc	-4
102	0x1c	28
103	0x0e	14
104	0x07	7
105	0x45	69
106	0xf7	-9
107	0xce	-50
108	0xe7	-25
109	0x04	4
110	0x09	9
111	0xe6	-26
112	0xa7	-89
113	0xa8	-88
114	0x4c	76
115	0xc4	-60
116	0x2e	46
117	0x3b	59
118	0xf9	-7
119	0xe0	-32
120	0x3e	62
121	0x07	7
122	0x52	82
123	0x5e	94
124	0x0a	10
125	0xf3	-13
126	0x11	17
127	0x1e	30
128	0x7b	123
129	0xfd	-3
130	0x19	25
131	0xe9	-23
132	0xf9	-7
133	0xbf	-65
134	0x13	19
135	0xff	-1
136	0xfc	-4
137	0xe8	-24
138	0x07	7
139	0xf3	-13
140	0xdf	-33
141	0xeb	-21
142	0x30	48
143	0xee	-18
144	0x01	1
145	0xf9	-7
146	0xea	-22
147	0x14	20
148	0xbb	-69
149	0x02	2
150	0xe5	-27
151	0xfa	-6
152	0xe2	-30
153	0x01	1
154	0xd8	-40
155	0x19	25
156	0x49	73
157	0xd7	-41
158	0xef	-17
159	0x3c	60
160	0xe8	-24
161	0xe7	-25
162	0x0b	11
163	0xfb	-5
164	0x01	1
165	0x0c	12
166	0xc4	-60
167	0xe2	-30
168	0x1a	26
169	0x05	5
170	0xfe	-2
171	0x0f	15
172	0xf0	-16
173	0xed	-19
174	0x24	36
175	0xfa	-6
176	0xed	-19
177	0x00	0
178	0x3b	59
179	0x06	6
180	0xf7	-9
181	0x0a	10
182	0x24	36
183	0xfb	-5
184	0x0f	15
185	0x05	5
186	0x11	17
187	0x21	33
188	0x81	-127
189	0x19	25
190	0xe8	-24
191	0x15	21
192	0xee	-18
193	0xc9	-55
194	0xf8	-8
195	0xfb	-5
196	0xd7	-41
197	0xe9	-23
198	0xf7	-9
199	0xe5	-27
200	0x21	33
201	0x1e	30
202	0x10	16
203	0xca	-54
204	0x1f	31
205	0xed	-19
206	0x08	8
207	0xee	-18
208	0x23	35
209	0x1f	31
210	0x38	56
211	0x03	3
212	0xd0	-48
213	0xea	-22
214	0x07	7
215	0xfb	-5
216	0x23	35
217	0xfc	-4
218	0xff	-1
219	0xf0	-16
220	0xf0	-16
221	0xf2	-14
222	0x03	3
223	0xe2	-30
224	0x03	3
225	0xfb	-5
226	0xf6	-10
227	0xed	-19
228	0x4b	75
229	0xd7	-41
230	0x22	34
231	0x10	16
232	0xfc	-4
233	0xf2	-14
234	0x04	4
235	0xf4	-12
236	0xcf	-49
237	0xf6	-10
238	0x13	19
239	0x2c	44
240	0xf9	-7
241	0xf1	-15
242	0x08	8
243	0xe8	-24
244	0xfd	-3
245	0xef	-17
246	0xff	-1
247	0x36	54
248	0xe0	-32
249	0x03	3
250	0x0e	14
251	0x2f	47
252	0xff	-1
253	0x18	24
254	0x13	19
255	0x0d	13
