kernel_vs_latency/cnn_gray_32_k2_float.tflite (tflite, 49136 bytes, 6 tensors)

sequential/conv2d/BiasAdd/ReadVariableOp/resource f4 [32]
0	0xbc8299c4	-0.015942462
1	0xbcd10b18	-0.025517985
2	0x00000000	0.0
3	0xbccf7d7f	-0.025328396
4	0x3cd5e9b3	0.026112413
5	0xbc384250	-0.011246279
6	0x00000000	0.0
7	0x3cdfd4af	0.027323095
8	0x00000000	0.0
9	0x00000000	0.0
10	0xbd14df3f	-0.036345717
11	0x00000000	0.0
12	0x3d17b851	0.037041012
13	0x3cab20a3	0.020889586
14	0x3ce4c052	0.027923737
15	0xbc0795de	-0.008275477
16	0x3c87d5a9	0.016581373
17	0xbcc86f51	-0.024467142
18	0x00000000	0.0
19	0x3c8cdd58	0.017195389
20	0x3cf73798	0.030177876
21	0xbcfbf5e7	-0.030756904
22	0x3c6cff96	0.014465233
23	0x3a1ad06b	0.00059056905
24	0xbce5a41f	-0.02803236
25	0x3c9d137b	0.019174328
26	0xbd04b79c	-0.032401666
27	0x3ceca282	0.028886084
28	0x3ccf8d2b	0.025335869
29	0x370165cc	7.712701e-06
30	0x3c9ad62e	0.018900957
31	0x3cca9a70	0.024731845

sequential/conv2d_1/BiasAdd/ReadVariableOp/resource f4 [64]
0	0xbccfe9d9	-0.025380062
1	0xbce86cde	-0.028372224
2	0x3c9c7fd6	0.019103926
3	0x3cacd3db	0.021097114
4	0x3cf7600b	0.030197164
5	0x3c9e6bde	0.019338544
6	0x3b80e579	0.0039336053
7	0x00000000	0.0
8	0x3cd7b19d	0.02632981
9	0xbb873d78	-0.0041272007
10	0xbce7c56d	-0.028292382
11	0x3c478310	0.012177244
12	0x3cd741ec	0.026276551
13	0xbcc211dc	-0.023690157
14	0x00000000	0.0
15	0xbd5ac8b3	-0.053414058
16	0x3ba766f7	0.00510871
17	0xbce81c98	-0.028333947
18	0x3cb82195	0.02247695
19	0x3d0df1be	0.03465437
20	0x3ca0c941	0.019627215
21	0x3c278751	0.010225133
22	0x3ca172c3	0.019708043
23	0x3cdc7af5	0.0269141
24	0xbb5df54d	-0.0033868134
25	0x3cc3c6d8	0.023898527
26	0xbcbf34d3	-0.023340618
27	0xbbde99b3	-0.0067932247
28	0xbcbdbb2f	-0.023160545
29	0x3ca72f34	0.02040825
30	0x3caa72fa	0.020806778
31	0x3ca5ef22	0.020255629
32	0x3c85ef84	0.016349562
33	0xbcee46fd	-0.029086584
34	0xbcc20ace	-0.023686793
35	0x00000000	0.0
36	0xbbb84a7b	-0.005624113
37	0xbb7ff5a6	-0.003905633
38	0xbcc3b019	-0.02388768
39	0x3ce64898	0.028110787
40	0xbcc44026	-0.02395637
41	0x3c821722	0.015880171
42	0x3cd2cf25	0.02573354
43	0xbd4b96e9	-0.049704466
44	0xbcf24f26	-0.029578757
45	0x3bedb377	0.00725406
46	0x3c8557ae	0.01627716
47	0xbbddec29	-0.0067725373
48	0xbcca16a7	-0.024669005
49	0x3cf62e9a	0.030051518
50	0xbcc0c42c	-0.023531042
51	0x3b7b9ea5	0.003839412
52	0x3ca50e93	0.020148551
53	0x3cccb0b8	0.02498661
54	0x3cf6c609	0.030123727
55	0x3cfd130e	0.030892875
56	0xbcbd08e6	-0.023075532
57	0x3be4eca1	0.006986216
58	0xbcd4d022	-0.025978152
59	0x3c81e1ee	0.015854802
60	0xbcd609a7	-0.02612765
61	0x3bf6a20c	0.0075266417
62	0x3d00f131	0.031480018
63	0x3ca3d471	0.01999876

sequential/dense/BiasAdd/ReadVariableOp/resource f4 [2]
0	0x3cb41784	0.02198387
1	0xbcb41786	-0.021983873

sequential/dense/MatMul f4 [2, 1600]
0	0xbcfc0b14	-0.030767001
1	0x3c26e72f	0.010186954
2	0x3d64e5d5	0.055883247
3	0xbd2e9be7	-0.04262915
4	0xbcb49618	-0.022044227
5	0x3d220060	0.03955114
6	0x3aef28a5	0.0018246366
7	0xbd162aff	-0.036662098
8	0xbd61d24c	-0.055132195
9	0xbd3d7fe3	-0.04626454
10	0xbca4bbde	-0.020109113
11	0x3cd1a95e	0.025593456
12	0xbc31b119	-0.010845446
13	0xbd59a7f2	-0.05313868
14	0x3ca092da	0.019601274
15	0xbcd42f2b	-0.025901398
16	0xbd31cba4	-0.043407097
17	0x3cb15ce4	0.021650739
18	0xbccce050	-0.025009304
19	0xbd0e70fb	-0.034775715
20	0x3d01027f	0.03149652
21	0x3cda9d6e	0.026686396
22	0x3d3fddae	0.04684227
23	0xbb262d57	-0.0025356614
24	0x3c3ebf4c	0.011642288
25	0xbcda2107	-0.026627077
26	0x3c9460ce	0.018112566
27	0xbd4f1348	-0.050555497
28	0xbbfd8429	-0.007736702
29	0x3c5ffca8	0.013671078
30	0x3d05e7be	0.03269171
31	0xbd305368	-0.043048292
32	0xbcf01509	-0.029306905
33	0xbc12faf1	-0.008970962
34	0x3d567ed7	0.052367058
35	0x3d424a3d	0.04743408
36	0x3d6badbd	0.057538737
37	0xbd06750c	-0.03282647
38	0x3ce09e09	0.027419107
39	0x3d0cfa7a	0.03441856
40	0xbd0916be	-0.033468954
41	0xbc92326f	-0.017846314
42	0x3d3d7d97	0.04626235
43	0x3d353187	0.044236686
44	0x3c11cbba	0.00889867
45	0x3d1e999d	0.038720716
46	0xbcc16f0d	-0.023612523
47	0xbce6696d	-0.028126443
48	0xbd2e756e	-0.04259246
49	0x3d274773	0.040839624
50	0x3beda7ed	0.0072526843
51	0x3d11599d	0.035485853
52	0xbd03f535	-0.03221627
53	0x3c374437	0.011185697
54	0xbd6c3ba4	-0.057674065
55	0x3d7ba445	0.061435957
56	0x3d44805a	0.047973968
57	0x3b6849f3	0.0035444468
58	0xbca8a059	-0.020584272
59	0x3c2ad92e	0.010427756
60	0x3d32949c	0.043598756
61	0xbbc45f7d	-0.0059928284
62	0x3c9b8c9e	0.01898795
63	0xbd74d1ad	-0.059770275
64	0x3c062fae	0.008190079
65	0xbcd34e45	-0.025794158
66	0xbd1f0e49	-0.038831983
67	0x3d153f63	0.036437403
68	0x3cf63b2e	0.030057516
69	0x3cf0b328	0.029382303
70	0xbc764bd2	-0.015032725
71	0xb93eae00	-0.00018184632
72	0xbcd1ecbf	-0.025625585
73	0x3c75c6d4	0.015001018
74	0xbd70a442	-0.0587504
75	0xbca49f8b	-0.020095607
76	0xb9e2d082	-0.0004326143
77	0x3ce44078	0.027862772
78	0x3d1fe223	0.03903402
79	0xbc18c99c	-0.009325411
80	0xbd46dbcd	-0.048549462
81	0xbd0e9669	-0.03481141
82	0x3ce595d3	0.028025543
83	0xbad76128	-0.0016432153
84	0x3cb6f2c9	0.022332566
85	0xbc940def	-0.01807305
86	0xbba0c225	-0.0049059563
87	0x3d01dfdc	0.03170763
88	0xbc9276a5	-0.01787884
89	0x3d4f4689	0.050604377
90	0xbcf4c671	-0.02987978
91	0xbd5002e0	-0.05078399
92	0xbb1e9ef2	-0.0024203626
93	0xbc788da4	-0.0151704885
94	0xbc84fd59	-0.016234087
95	0xbd351d43	-0.04421736
96	0xbd73ec96	-0.059551798
97	0x3d53b8ad	0.051689792
98	0xbcdbd483	-0.026834732
99	0x3caa0562	0.02075452
100	0x3d16f26b	0.03685228
101	0x3d44f937	0.048089232
102	0x3c9cde67	0.019149018
103	0x3d87660d	0.066112615
104	0xbd17a2bf	-0.03702044
105	0xbda1f76f	-0.07908522
106	0xbd20368a	-0.039114513
107	0xbd743f40	-0.059630632
108	0xbd3a39b5	-0.04546519
109	0x3d0f6c93	0.035015654
110	0xbc1e6ca1	-0.009669454
111	0xbda50884	-0.08058265
112	0xbd6298bc	-0.05532144
113	0xbccf86f7	-0.025332911
114	0xbd28a8f8	-0.041176766
115	0xbb16a7d5	-0.002298822
116	0x3d373dae	0.044736557
117	0x3b8bc43b	0.004265336
118	0xbd43cd68	-0.047803313
119	0x3d348244	0.044069543
120	0x3d13078b	0.035895865
121	0xbd2323ec	-0.03982918
122	0x3d3a96b6	0.045553885
123	0xbd989d26	-0.07451849
124	0x3d1a84f7	0.03772446
125	0x3cc9541a	0.024576236
126	0x3cae4769	0.021274285
127	0x3d05b8c2	0.032646902
128	0x3af8de9b	0.001898724
129	0xbd064bcd	-0.032787133
130	0x3c9f7c99	0.019468592
131	0xbd1638a4	-0.03667511
132	0x3d8e055b	0.06934615
133	0x3c49a72c	0.012307923
134	0xbd1d9a96	-0.038477503
135	0x3d42866d	0.04749148
136	0x3d8603d1	0.06543697
137	0x3d267d11	0.040646616
138	0xbd071eb8	-0.03298828
139	0xbc02cffb	-0.007984157
140	0xbcee8e88	-0.029120699
141	0x3d4dd294	0.05024965
142	0xbd4fc85f	-0.0507282
143	0xbc1ef847	-0.009702749
144	0x3c907ff8	0.017639145
145	0x3a1083ac	0.00055127847
146	0xbb224ca5	-0.0024764922
147	0xbd3bf480	-0.04588747
148	0xbc07d659	-0.008290851
149	0xbd40c918	-0.047066778
150	0xbd604114	-0.054749563
151	0xbd4e207d	-0.050323952
152	0xbcbab7f4	-0.022792794
153	0xba5cd947	-0.0008424711
154	0x3d09a424	0.033603802
155	0x3c4e5cb4	0.012595344
156	0x3d2f05ac	0.04273002
157	0x3d198307	0.037478473
158	0x3cde07e6	0.027103376
159	0x3cad60f4	0.021164395
160	0x3b282d98	0.0025661942
161	0xbd1f5b45	-0.0389054
162	0xbd362a46	-0.04447391
163	0x3c8578f6	0.01629303
164	0xb967e0be	-0.000221136
165	0xbc899548	-0.016794816
166	0x3bca6757	0.00617687
167	0x3d658a66	0.05604019
168	0x3d1b02ab	0.03784434
169	0xbd5610d7	-0.052262153
170	0x3b0475b0	0.0020211749
171	0xbb1c6dc0	-0.0023869127
172	0xbd196193	-0.03744657
173	0xbc0d62fc	-0.008629557
174	0x3d1ecfc9	0.038772378
175	0x3ccaf9fb	0.024777403
176	0xbd552fef	-0.052047666
177	0x3b7a007b	0.003814726
178	0x3d41a8ca	0.04728011
179	0x3ce423f9	0.027849184
180	0x3d56b0da	0.052414753
181	0x3b6998c8	0.0035644043
182	0xbd3a6b06	-0.04551222
183	0xbbfd5758	-0.0077313595
184	0x3d4df56b	0.050282877
185	0x3c59b0d1	0.013286785
186	0x3c97b4c3	0.018518811
187	0xbd61d53d	-0.055135
188	0xbd45c8da	-0.04828725
189	0x3d12cc44	0.035839334
190	0x3ab2fb32	0.0013655184
191	0x3cb18b27	0.021672798
192	0x3c6906dd	0.014222828
193	0xbca8cb7b	-0.02060484
194	0xbbe0e2e3	-0.0068629845
195	0xbd715ff5	-0.058929402
196	0xbd2f87a7	-0.042853978
197	0x3d6d104e	0.057876877
198	0xbcad8523	-0.021181649
199	0x3c9d23a2	0.01918203
200	0xbce3efe3	-0.027824348
201	0x3c09dba4	0.008414183
202	0x39a961b3	0.00032306983
203	0xbc4bac8a	-0.012431273
204	0x3ce11d85	0.027479896
205	0xbd526823	-0.051368844
206	0xbd33e504	-0.04391958
207	0xbc353367	-0.011059619
208	0xbd592ccf	-0.05302125
209	0xbb0b8773	-0.002129045
210	0x3d16e238	0.036836833
211	0xbd400336	-0.046878062
212	0x3d0aadce	0.03385716
213	0xbd95607a	-0.07293792
214	0xbd45d5cf	-0.048299607
215	0xbd016fd4	-0.03160079
216	0x3d202e1a	0.039106466
217	0xbcc13d68	-0.023588851
218	0xbc7b67b3	-0.015344548
219	0xbccc2b68	-0.024923041
220	0x3cac32a2	0.021020237
221	0xbccf417b	-0.025299778
222	0x3d47eb1d	0.048808206
223	0x3d46cf6f	0.048537668
224	0xbd40aea1	-0.04704154
225	0xbb8d918f	-0.0043203305
226	0xbd506cc9	-0.050884996
227	0xbd63924d	-0.055559445
228	0x3d29db90	0.041469157
229	0x3d1ee28a	0.038790263
230	0xbd096edd	-0.033552993
231	0x3c783800	0.01515007
232	0x3b844190	0.004036136
233	0x3b961818	0.004580509
234	0x3d83d2ab	0.06436666
235	0xbc69e865	-0.014276599
236	0xbc8c304b	-0.017112872
237	0xbbee9d9a	-0.007281971
238	0x3cbbc018	0.022918746
239	0x3c0c11b3	0.008549142
240	0xbc8d5ff0	-0.01725766
241	0xbd204eed	-0.03913777
242	0xbd5e6039	-0.054290984
243	0x3d5fd66c	0.054647848
244	0xbb40fecc	-0.0029448746
245	0xbb7d3b8f	-0.0038640236
246	0xbb41fc5c	-0.002959988
247	0x3b8e0f10	0.0043352917
248	0xbc7bea9f	-0.015375762
249	0xbd379223	-0.0448171
250	0xbd3ca8c1	-0.046059374
251	0x3d407efe	0.04699611
252	0xbc8b97ba	-0.017040122
253	0x3c818da9	0.01581462
254	0x3cf2e583	0.029650455
255	0x3c1ddccd	0.009635163

sequential/conv2d/Conv2D f4 [32, 2, 2, 1]
0	0xbe02fc4f	-0.1279156
1	0xbe1f4eb2	-0.15557364
2	0x3e010137	0.1259812
3	0x3e164e7b	0.14678375
4	0x3d3dbe6b	0.046324175
5	0x3e2f723e	0.17133424
6	0x3e266d24	0.16252571
7	0x3dab4801	0.08363343
8	0xbd61ab60	-0.055095077
9	0xbe2e829c	-0.17042011
10	0xbd8555d6	-0.065105125
11	0xbe1fbc1c	-0.15599102
12	0x3da86db0	0.08224046
13	0xbd9f8109	-0.077882834
14	0xbe042641	-0.12905218
15	0x3e2429c2	0.16031554
16	0xbc316ebf	-0.010829627
17	0x3e29e68d	0.16591854
18	0xbd33414c	-0.043763444
19	0xbe01ee4a	-0.12688556
20	0x3e051431	0.12995984
21	0xbd9b2c3f	-0.07576799
22	0xbe46a47e	-0.19398686
23	0xbb9e18bf	-0.0048247273
24	0xbe2599c4	-0.16171938
25	0xbd1717bc	-0.03688787
26	0xbe4cf30b	-0.20014589
27	0xbe1199b8	-0.14218795
28	0xbd330abb	-0.043711405
29	0x3e593d66	0.21214828
30	0xbd8b1bc7	-0.067924075
31	0xbd4ff3b0	-0.050769508
32	0xbcc70178	-0.024292693
33	0xbe303654	-0.17208225
34	0xbdf30295	-0.11865727
35	0x3d9dbd78	0.07702154
36	0xbb30c600	-0.0026973486
37	0xbd4807f0	-0.048835695
38	0xbe5823d9	-0.21107425
39	0xbd0c90a8	-0.034317642
40	0x3d869e24	0.06573132
41	0xbdb73a7a	-0.089467004
42	0x3e04d1a3	0.12970595
43	0x3e4cfd07	0.20018397
44	0xbd92ec12	-0.07173933
45	0xbdcd6b81	-0.1003027
46	0x3c089b50	0.008337811
47	0xbe0aa6de	-0.13540217
48	0x3bab6537	0.0052305716
49	0x3e47baf8	0.19504917
50	0xbd6ad0cd	-0.057328034
51	0xbe414641	-0.18874456
52	0x3deda8a1	0.11604429
53	0x3e440969	0.19144215
54	0xbe1f53f0	-0.15559363
55	0xbe45f0c2	-0.19330123
56	0x3d97f86b	0.07420429
57	0xbd4ab592	-0.049489565
58	0x3e1b83ed	0.15187044
59	0xbe0e6fc8	-0.13909829
60	0xbd879b66	-0.06621437
61	0x3b200153	0.0024414852
62	0x3d92622b	0.0714763
63	0x3e1c9501	0.15291215
64	0xbe1f21e3	-0.1554027
65	0xbe1da200	-0.1539383
66	0x3e042a37	0.12906729
67	0xbddf0342	-0.10889293
68	0xbd9aea0e	-0.07564174
69	0x3de36e32	0.111050025
70	0x3c8e7d07	0.017393602
71	0x3dcb39a6	0.09923105
72	0xbd737c00	-0.059444427
73	0xbe58ecca	-0.21184078
74	0xbde7cf9f	-0.113188975
75	0xbe0767b1	-0.13223149
76	0xbd745f3e	-0.059661143
77	0x3e289e1b	0.16466562
78	0x3e5327b6	0.20620617
79	0xbdb2e905	-0.08735851
80	0x3e598d82	0.21245387
81	0xbd9006de	-0.0703256
82	0xbd3f8b9d	-0.046764005
83	0xbdb90aae	-0.0903524
84	0xbd205557	-0.039143886
85	0xbc88d414	-0.01670269
86	0x3da9d636	0.082928106
87	0x3ddcb426	0.10776548
88	0xbe2f8b34	-0.17142946
89	0x3de1d1aa	0.11026318
90	0x3c4a541c	0.012349155
91	0xbe0363a2	-0.12830976
92	0xbde22150	-0.1104151
93	0xbda71efa	-0.08160205
94	0xbd992da0	-0.074794054
95	0x3d8a8a1e	0.06764625
96	0x3d03b17a	0.032151677
97	0x3e1e9dbb	0.15489857
98	0x3e03a7f6	0.12857041
99	0x3c7c7998	0.01540985
100	0xbe05ba24	-0.13059288
101	0x3df4b8c8	0.11949307
102	0xbdcb9ef3	-0.099424265
103	0x3dae3c93	0.08507647
104	0x3e4022dc	0.18763298
105	0x3d2d2fe8	0.042282015
106	0x3d23b71e	0.039969556
107	0x3d4525ab	0.048131626
108	0xbe390325	-0.18067606
109	0xbd0fb207	-0.03508189
110	0x3ce80584	0.028322943
111	0x3df80fc8	0.12112385
112	0x3e48d859	0.1961378
113	0x3df171cd	0.11789284
114	0xbdf5e92c	-0.12007365
115	0xbe0167f5	-0.12637313
116	0xbe116dd7	-0.14202057
117	0xbe019241	-0.12653448
118	0xbe126c9c	-0.14299244
119	0x3de608e4	0.112321645
120	0x3e207db9	0.1567296
121	0xbe0e79de	-0.13913676
122	0x3db57109	0.0885945
123	0xbdc4bd15	-0.09606377
124	0xbd34222f	-0.043977913
125	0x3d5ab1da	0.05339227
126	0xbc0ce7f9	-0.0086002285
127	0x3e1d99cf	0.15390705

sequential/conv2d_1/Conv2D f4 [64, 2, 2, 32]
0	0xbd28d312	-0.041216917
1	0x3d6c5bb0	0.057704628
2	0xbdaddeb0	-0.0848974
3	0x3cffaf21	0.031211438
4	0xbdb3560d	-0.08756647
5	0x3ce89494	0.02839116
6	0xbd97c070	-0.074097514
7	0xbc5bbf34	-0.013412286
8	0x3d3fb120	0.04679978
9	0x3dcff1d0	0.10153544
10	0x3d4bb896	0.04973658
11	0xbd11f020	-0.03562939
12	0x3dcbb7ca	0.09947164
13	0xbd93e9bb	-0.07222315
14	0xbdf4faf2	-0.119619265
15	0x3c77eeb6	0.015132597
16	0xbd80002e	-0.06250034
17	0xbdd7178d	-0.10502539
18	0xbd773468	-0.060352713
19	0x3d253512	0.040333815
20	0xbdd4ecc0	-0.10396719
21	0xbdec5a24	-0.115406305
22	0xbdfb7b10	-0.12279332
23	0xbdeab9b1	-0.11461199
24	0x3d4a018f	0.049317893
25	0x3d8df576	0.069315836
26	0xbd5d2fe6	-0.054000758
27	0xbdb6b657	-0.08921497
28	0xbd6b904f	-0.05751067
29	0x3df2ada8	0.118495286
30	0x3dee1e84	0.11626914
31	0xbdccb797	-0.099959545
32	0xbcf6da02	-0.030133251
33	0xbd49f205	-0.049303073
34	0xbdf5dafc	-0.120046586
35	0xbde59c0b	-0.112114035
36	0xbdf1a1f6	-0.1179847
37	0xba98a1dd	-0.0011644919
38	0xba41ba00	-0.0007390082
39	0xbd9ec735	-0.077528395
40	0xbdc69ff8	-0.0969848
41	0x3d09a540	0.03360486
42	0x36f2da3d	7.2375683e-06
43	0xbd9b124c	-0.07571849
44	0x3d40f868	0.0471119
45	0xbe0ef47e	-0.13960454
46	0x3bc1a808	0.0059099235
47	0xbb8f44ca	-0.004372214
48	0x3de140f7	0.10998719
49	0x3d936086	0.07196145
50	0x3d325da0	0.04354632
51	0xbdd46c85	-0.10372261
52	0x3d8fc2b0	0.070195556
53	0xbd3a1783	-0.04543258
54	0x3d13ea38	0.03611204
55	0xbdad67e4	-0.08467081
56	0xbd7d264a	-0.061804093
57	0xbdd1c1e8	-0.10242063
58	0x3db34560	0.087534666
59	0xbdbe89d9	-0.09303636
60	0xbd9e8465	-0.07740096
61	0x3d066960	0.032815337
62	0xbd9dab27	-0.0769866
63	0x3cc0b8cd	0.02352562
64	0x3cecde64	0.028914638
65	0x3dd91bb0	0.10600984
66	0xbda758f4	-0.08171263
67	0xbd5d9f02	-0.05410672
68	0xbdeab972	-0.11461152
69	0xbdc5f346	-0.09665541
70	0xbd8ef8a8	-0.06981021
71	0xbe050d8e	-0.12993452
72	0xbd98ec30	-0.07466924
73	0x3c348580	0.011018157
74	0x3d6547e4	0.055976763
75	0xbbdf2e00	-0.0068109035
76	0xbcebcef3	-0.028785205
77	0xbd6e7349	-0.058215413
78	0xbdfd8a41	-0.123798855
79	0xbdaa5108	-0.08316237
80	0x3dda4ee2	0.10659577
81	0xbb2662d6	-0.00253885
82	0xbd98398c	-0.07432851
83	0xbdeba7bf	-0.115066044
84	0x3d2f4873	0.042793702
85	0xbba46ffb	-0.005018232
86	0xbd4f7d9f	-0.05065691
87	0x3d9b6b58	0.075888336
88	0x3dd38d1b	0.10329648
89	0xbd46c999	-0.048532102
90	0xbd4925e1	-0.04910839
91	0xbcb4101e	-0.021980342
92	0xbd2a4bd3	-0.041576218
93	0x3ddf217e	0.1089506
94	0xbadec277	-0.0016995211
95	0xbda331c2	-0.07968475
96	0xbd04d37b	-0.032428246
97	0x3c2c25be	0.010507045
98	0x3dbc7d4c	0.09203586
99	0xbde56d99	-0.11202545
100	0xbd5e3324	-0.05424799
101	0xbbe3f366	-0.0069565056
102	0x3d2f1660	0.042745948
103	0x3c546a36	0.012964776
104	0x3de59a30	0.112110496
105	0xbddff428	-0.10935241
106	0x3c895af4	0.016767003
107	0x3d437de0	0.047727466
108	0x3da7a3f1	0.08185566
109	0xbbbbd57b	-0.005732236
110	0x3db36a08	0.08760458
111	0x3dee2ba5	0.11629418
112	0xbdca3d8e	-0.09875022
113	0x3cb22655	0.021746794
114	0x3d3b4210	0.0457173
115	0x3d139474	0.036030248
116	0x3d79e5f9	0.061010335
117	0xbdf98a9f	-0.12184643
118	0x3dda59ad	0.106616355
119	0x3d384a48	0.044992715
120	0x3d46ea42	0.04856325
121	0xbde123bd	-0.10993145
122	0xbcac2df6	-0.02101801
123	0x3dacf816	0.08445756
124	0x3d00b20b	0.031419795
125	0x3d833d78	0.064082086
126	0x3bdb9d63	0.0067021116
127	0xbd22deec	-0.039763376
128	0x3da31c1d	0.079643466
129	0x3e0414b7	0.12898527
130	0x3d066be8	0.03281775
131	0x3de523a1	0.11188436
132	0xbd925436	-0.07144968
133	0xbd3ce67f	-0.046118256
134	0x3d0f4028	0.034973294
135	0xbd67f7f7	-0.056632962
136	0x3c058b20	0.008150846
137	0x3d7a8580	0.06116247
138	0xbc128585	-0.008942966
139	0x3d91785c	0.07103035
140	0xbd46789d	-0.04845487
141	0x3d97d076	0.07412808
142	0xbd14c9ac	-0.03632514
143	0x3d3377a2	0.043815263
144	0x3cd6601c	0.026168875
145	0x3bc2f7dd	0.0059499578
146	0x3d0c6a80	0.034281254
147	0xbc82c890	-0.015964776
148	0x3d356c2c	0.044292614
149	0xbcc091b5	-0.023506979
150	0xbd6bcdc0	-0.057569265
151	0x3d8a757b	0.06760689
152	0xbd859f3a	-0.06524511
153	0x3ca61739	0.020274745
154	0xbdc26ea1	-0.09493757
155	0x3db1680c	0.086624235
156	0x3da0f867	0.07859879
157	0x3d51afed	0.051193167
158	0x3c9bde84	0.019027002
159	0xbd5c96c6	-0.053854726
160	0xbdbefe28	-0.0932582
161	0x3b80d763	0.003931926
162	0xbd24d838	-0.040245265
163	0xbdf4bbb7	-0.11949866
164	0x3d60a44a	0.05484418
165	0x3dede19a	0.11615296
166	0xbce080c0	-0.027405143
167	0xbd3caf7d	-0.046065796
168	0xbde255a0	-0.11051488
169	0xbd492c78	-0.049114674
170	0xbd1f0ecf	-0.038832482
171	0x3d0ab948	0.033868104
172	0xbdd8e9ca	-0.10591467
173	0x3d03283d	0.032020796
174	0xbbae3b3d	-0.0053171203
175	0x3daae2ac	0.083440155
176	0xbdaa6438	-0.083198965
177	0x3cb71bd3	0.022352135
178	0x3c28e7a0	0.01030913
179	0xbc0390a6	-0.008030092
180	0xbd287c34	-0.041134074
181	0xbd379494	-0.04481943
182	0xbdf5c209	-0.119999
183	0x3d57d291	0.052691046
184	0x3b86cbfb	0.004113672
185	0x3c929513	0.01789335
186	0xbdf30fb8	-0.118682325
187	0x3d90aaf7	0.07063859
188	0xbd316ffb	-0.043319684
189	0xbdbbbb99	-0.09166641
190	0x3d772fb0	0.060348213
191	0x3c94a25f	0.01814383
192	0x3adc4316	0.0016804661
193	0x3d03f815	0.03221901
194	0x3d8398f8	0.06425661
195	0x3d9ad969	0.07560999
196	0xbd8f30fd	-0.06991766
197	0xba75a1a5	-0.0009370095
198	0xbd3993a0	-0.0453068
199	0x3c5a049f	0.013306766
200	0x3d241e80	0.04006815
201	0xbd8ad38c	-0.067786306
202	0x3db9ada5	0.09066323
203	0xbd9bcd74	-0.076075464
204	0x3db7725b	0.089573584
205	0x3cb58743	0.022159224
206	0xbdaaf6f5	-0.083478846
207	0xbd8db49e	-0.069192156
208	0xbbe35f35	-0.00693884
209	0xbcf63ace	-0.030057337
210	0xbd77bd20	-0.060483098
211	0x3dd0dab3	0.101979636
212	0x3db494b3	0.088174246
213	0xbd8fb211	-0.07016385
214	0xbc50e36d	-0.012749535
215	0x3d441770	0.047873914
216	0xbdc98ecf	-0.09841692
217	0x3cfa0685	0.030520687
218	0x3d67d5d3	0.056600403
219	0xbdcf07d0	-0.10108912
220	0xbbb54f20	-0.005533114
221	0x3dd4d74f	0.10392629
222	0x3dc2a0f9	0.09503359
223	0xbdaa1c7e	-0.08306216
224	0xbdf52809	-0.11970527
225	0x3dc894ee	0.09794031
226	0xbb4f1900	-0.0031600595
227	0xbd8083e7	-0.062751584
228	0x3def2676	0.11677258
229	0xbe07e3ae	-0.13270447
230	0x3d647670	0.055777013
231	0xbd82a6ae	-0.06379448
232	0x3d985280	0.074376106
233	0x3d942a7c	0.07234666
234	0x3dcdf361	0.100561865
235	0x3d3b0380	0.045657635
236	0x3d904a8b	0.07045468
237	0x3de2beec	0.11071572
238	0xbc886664	-0.016650386
239	0x3c9dd229	0.019265251
240	0xbc92c6d7	-0.01791708
241	0x3d8c7747	0.06858688
242	0x3d340530	0.04395026
243	0xbe01fca7	-0.12694035
244	0xbd54013b	-0.051758986
245	0x3de0c51d	0.109750964
246	0x3d99e3e3	0.07514169
247	0x3d38ca44	0.04511477
248	0xbbfc994d	-0.0077087046
249	0x3d8fcfc9	0.07022054
250	0x3ca67dbf	0.020323632
251	0x3d8f8be7	0.07009106
252	0x3dc5256e	0.0962628
253	0xbde8dd5b	-0.11370345
254	0xbd36c986	-0.04462578
255	0xbd8db9d7	-0.06920212
