kernel_vs_latency/cnn_gray_32_k3_float.tflite (tflite, 49776 bytes, 6 tensors)

sequential/conv2d/BiasAdd/ReadVariableOp/resource f4 [32]
00000000: 4db3 1f3a b0ed 3bbc d91e b0bc 20c7 f63c
00000010: 8af2 633c edb3 92bb 1adf a13c 885c ac3c
00000020: bba0 9c3c 7ee8 b4bc 4e4e 84bc 471a 8fbc
00000030: be31 02bc a594 8e3c 7906 4ebc e35c 193c
00000040: 5165 393b 8f2b 67bc da61 703b c768 bbbc
00000050: 9572 983c 1d09 043d 8a37 633c 2256 9f3c
00000060: 682c c4bc e515 d1ba 1693 e13c 74f4 173a
00000070: 6e28 af3c 7ac4 d8bc 9848 833c ce9c d5bb
0.00060920866 -0.011470243 -0.021499084 0.030124247 0.013912806 -0.004477015 0.019759703 0.021040216
0.019119611 -0.022083517 -0.01615062 -0.017468585 -0.00794643 0.017404864 -0.012574785 0.009360525
0.002828915 -0.014109506 0.0036679418 -0.02287711 0.018609324 0.032235254 0.013868222 0.019450251
-0.023946956 -0.001595196 0.027535956 0.0005796619 0.021381583 -0.026460875 0.016025826 -0.0065189367

sequential/conv2d_1/BiasAdd/ReadVariableOp/resource f4 [64]
00000000: e2fb 9fbc fbac 76ba d149 913c 1db8 3dbd
00000010: 888d 873c a81b 663c 968c c53c 4bd6 9fbc
00000020: 0342 a9bc 559c 8b3c 7e4d afbc 592b 893c
00000030: 7b41 8a3c 56ba ff3b bade 023b 8d4e 033c
00000040: ddbb 8cbb 48bd 833c 5f72 413c 2886 e73c
00000050: 6a61 803c 0e51 8b3c ff8a 973b e382 b1bc
00000060: 83db ef3c f182 b8bc 0000 0000 93f4 d03c
00000070: 734a 9cbc 9a21 00bc eb6a 963c b88b abbc
00000080: 0000 0000 7122 c33c 9146 f33b 9bd2 623b
00000090: 3d47 8c3c ca5e b03b c08e af3c 7199 a5bc
000000a0: cd56 a4bc 87d2 883c 0cfe 6a3c e8d9 873c
000000b0: bb2a a23c 02da cd3b cde9 9dbc 1579 98b9
000000c0: 0d65 5c3c c92c 883c c080 433c a78e b3bc
000000d0: ac44 713c 1e86 11bb 3d4e a73c 3ce5 ba3c
000000e0: c2ca 663c 0000 0000 2660 be3c ca45 9fbc
000000f0: 427f db3c e179 9cbc 7ece 543c cbab 883c
-0.019529287 -0.00094099314 0.017735394 -0.046318162 0.01654698 0.01404468 0.024114888 -0.019511363
-0.02066136 0.017042318 -0.021399256 0.016744303 0.016876927 0.0078041954 0.001996918 0.008014333
-0.004294856 0.016081467 0.011807053 0.028262213 0.01567145 0.017006423 0.004624724 -0.021668857
0.029279476 -0.022523375 0.0 0.025507247 -0.019078469 -0.007820511 0.01836153 -0.020940647
0.0 0.023820134 0.0074241837 0.0034610394 0.017123813 0.0053823935 0.021430373 -0.020214768
-0.020060921 0.01670195 0.014342796 0.016583398 0.019795766 0.006282092 -0.019276524 -0.00029081912
0.013451827 0.016622918 0.011932552 -0.021918608 0.014725845 -0.0022205184 0.02042305 0.022814386
0.014086427 0.0 0.023239207 -0.019442458 0.02679408 -0.019101085 0.012988685 0.01668348

sequential/dense/BiasAdd/ReadVariableOp/resource f4 [2]
00000000: 6339 953c 6239 95bc
0.01821584 -0.018215839

sequential/dense/MatMul f4 [2, 1600]
00000000: c488 963c 9852 0cbd e8d6 b13c e008 273c
00000010: db14 083d c768 0c3d df99 a63b 42ac 953c
00000020: 2d0f 82bd 8764 593c 2351 e73c fae4 a43c
00000030: 506b 7e3d a5df b43c efc5 1ebd 1824 57bd
00000040: 3588 0b3d bd23 3fbd 7f3e 0bbd 3024 3d3d
00000050: 4010 a93c 7f2b 623d 43f6 68bd 8847 b13c
00000060: dcc8 50bd bc30 1ebd b4c8 3cbd a9b4 8fbd
00000070: 9b4d 53bd 82f8 bd3c cd93 71bd 0b4e dabc
00000080: c624 8ebc 05f4 3dbd 4534 233d 6966 c63c
00000090: 7fe5 193d 491b 3f3d ebd3 973c 931a 043d
000000a0: 1e34 353d 8347 30bc 3690 5dbd f05c 8a3c
000000b0: ae80 aebb 1043 12bd 5494 5dbd 3836 df3b
000000c0: 1c25 3ebd ab06 93bb ae2b 7dbd 39be fa3c
000000d0: e749 213d 63c1 553d 3cc8 eebc 232d 53bd
000000e0: 30e2 08bd 54d7 283c c2a8 223d 74b5 55bc
000000f0: d5cb de3c 84e7 b33c 6818 10bc 465a c13c
00000100: 495f 42bd 17d8 073d d278 d7bb 7d70 603c
00000110: 6c67 b1bc b975 2b3d e68b f33c 65fc ee3c
00000120: efce 2ebd f725 bbbc 2193 e83c 5c44 5f3b
00000130: 3ead 563b c496 4bbd 6b8e e2bc 038d 9bbc
00000140: c530 373d 03e9 3bbd b72f 473d 6a66 a5ba
00000150: a8cc 193d 1533 45bd f938 2b3d 014b 76bc
00000160: 4a37 0a3a c963 37bd 60d3 3dbd 2ceb 793b
00000170: 0bd9 483b 2473 6f3c 9d53 2c3c 071d 43bd
00000180: 6394 763d 0fa2 3ebc aed1 2c3c 02f7 f53c
00000190: 1da4 09bd ea65 e03c 49ff 9e3b b167 f73b
000001a0: 64c8 36bc f147 853d d97d e8bc f4fb 4b3d
000001b0: 5ac5 2fbd bc2e 9abb f2c4 16bd d01a 6fbc
000001c0: 305d 763c fb47 653c d8ca e33c 5601 30bc
000001d0: 8abc 2c3d 2835 3fbd da2c 763c 22d5 843c
000001e0: 2b41 e93c 2819 ebbc ac4f fc3c b479 09bd
000001f0: 8896 343b 61f1 f33c 36c2 043d 0c77 a9bc
00000200: 5201 45bd a542 063d 49fe a33c 6379 573d
00000210: bd34 6bbd 48a3 0dbd 2138 193d 60d8 fdbc
00000220: b3f4 a33c 0bd1 65bc 60e6 1c3c fd6b 03bd
00000230: ce46 3dbc cf91 ecbb c4aa 14bd 9d32 5cbc
00000240: ce62 323d 73b2 703d 9ad5 043d 785e 00bd
00000250: 5555 403b 5d99 0dbd e92f 43bc 41c4 1a3d
00000260: 91b7 06bc 5834 af3c 91c7 f9bc 43a6 2cbd
00000270: 040d 193d a69c 76bd a7fc 97bb 9617 513d
00000280: e72b 013d cbf0 ca3c 626b 543d 340c 3b3d
00000290: ba93 30bd d35a 2bbc 2224 ccbc 3291 773c
000002a0: 692e 52bb 5fea 153c b34b 5f3c 6cc3 ee3c
000002b0: e58b 343c 2957 9f3b 1092 26b8 cb40 4dbd
000002c0: eb05 66bd a1cb f6bc 137d 0c3c 5a90 34bd
000002d0: a349 ef3c 81ea 72bc 4fd2 61bb 4e9a 1c3d
000002e0: 30d1 d33c 7b57 0a3d 3146 5e3d 1bf6 573c
000002f0: 34f2 e6bc aa72 2b3d 8be7 64bd c244 ff3c
00000300: c93c 70bd 007a 513d 5d5d 54bd 473e 953a
00000310: fd49 e1bc 163c f3bb 47cb f13c 2169 3f3d
00000320: 5ce3 f33c 7dd7 dd3b a38e d7bb 254b f73c
00000330: 9f5b 4cbc 87bb d3bc 4971 31bd 9689 c43c
00000340: a6b5 07bd 9861 453d 5cbb 513d 7fac 87bc
00000350: 56d8 08bd 02c9 4b3c 4eb5 3f3d 4772 f43c
00000360: a803 9cbc 052b 803d f26d a8bc 8675 2e3d
00000370: 38a4 2b3d 759d c23c 7768 f63c 8702 f8bc
00000380: ee2a 9bbc e477 733d 7174 cebc f69e ebbc
00000390: 92c3 3cbb c948 8bbc 8b6e 3a3d 0fec 9e3c
000003a0: 5c6b 44bc c5b5 69bd ef3c d93a 720c b63c
000003b0: 66ad 8c3c 7c64 593d b599 2b3d 53b7 6abd
000003c0: f0ec bc3b 28a1 2fbd 1677 9ebc 6264 3cbd
000003d0: ddd2 e03c 2b8d 373b 354b 25bd 5262 83bd
000003e0: 2dc8 7b3b 1b80 393d fe6a e1bc f5df 75bd
000003f0: 2ecf 46bd c7a5 04bd d3a7 813c d96e ffbc
0.018375762 -0.034258455 0.02170892 0.010194987 0.033223014 0.03427961 0.005084261 0.018270615
-0.06350551 0.0132685965 0.028236931 0.020128716 0.06211406 0.022079298 -0.038762983 -0.052524656
0.034065444 -0.046664942 -0.033995148 0.04617709 0.020637631 0.055217262 -0.05687548 0.021640554
-0.050972804 -0.038620695 -0.046089843 -0.0701688 -0.051587682 0.023189787 -0.058978844 -0.026648542
-0.01735152 -0.046375293 0.03984477 0.024218755 0.03757238 0.04665688 0.018533668 0.032251906
0.044239156 -0.010759237 -0.05409261 0.01689002 -0.0053253984 -0.035708487 -0.054096535 0.0068118833
-0.04642211 -0.004486879 -0.061809234 0.030608283 0.03937712 0.05218638 -0.029148214 -0.051556718
-0.033418834 0.0103052445 0.03971172 -0.01304375 0.027196804 0.021960981 -0.008794881 0.023602616
-0.047454152 0.033165064 -0.006575682 0.013698694 -0.02165576 0.041860316 0.029729795 0.029173085
-0.042677816 -0.022845251 0.028390469 0.0034067845 0.003275707 -0.04970433 -0.0276558 -0.018988138
0.044724245 -0.045876514 0.04862949 -0.0012619023 0.03754869 -0.04814442 0.04180238 -0.015032531
0.0005272521 -0.044772897 -0.04634416 0.0038134558 0.0030646946 0.014614854 0.010517982 -0.047635105
0.060200106 -0.0116353175 0.010548038 0.030025009 -0.033603776 0.027392346 0.0048522097 0.007550203
-0.011156175 0.06507862 -0.028380321 0.049800828 -0.04291282 -0.004705278 -0.036808915 -0.014593795
0.015036866 0.013994212 0.027806684 -0.010742506 0.042171992 -0.046681553 0.015025342 0.01621491
0.028473457 -0.028698519 0.03079971 -0.03356333 0.0027555544 0.029778184 0.032411776 -0.020686649
-0.048096962 0.0327784 0.020018714 0.052605998 -0.057423342 -0.034579545 0.037407044 -0.030986965
0.020014143 -0.0140268905 0.00957641 -0.032085408 -0.011552526 -0.00721953 -0.036295667 -0.0134398015
0.04355126 0.058763932 0.03243027 -0.031340092 0.0029347737 -0.034570087 -0.011913278 0.03778482
-0.008222477 0.021387264 -0.030490668 -0.042150747 0.03736593 -0.060207985 -0.004638273 0.051047884
0.03153601 0.024773022 0.05186022 0.045665935 -0.043109633 -0.010458666 -0.024919573 0.015110301
-0.003207112 0.009150117 0.013628888 0.029145919 0.011019682 0.004862685 -3.9713515e-05 -0.05011062
-0.056157988 -0.030126395 0.008574742 -0.044082977 0.029209917 -0.014826418 -0.003445763 0.038233094
0.025856584 0.033774834 0.05426616 0.013181235 -0.028191663 0.0418574 -0.05588488 0.031160716
-0.05865172 0.05114174 -0.05184685 0.0011386358 -0.0275011 -0.0074229343 0.029515876 0.046731118
0.0297715 0.006770073 -0.006578283 0.030187199 -0.012473016 -0.025846256 -0.043320928 0.023991387
-0.033132218 0.048188776 0.05120407 -0.016561745 -0.03340944 0.012438061 0.046803765 0.029839648
-0.019044712 0.06258205 -0.020560239 0.042592548 0.041904658 0.023756722 0.03007911 -0.030274643
-0.018941369 0.05944051 -0.025202008 -0.028762322 -0.0028803092 -0.01700248 0.04551558 0.01939967
-0.011988487 -0.057058115 0.0016573946 0.022222731 0.017172527 0.053074345 0.041894633 -0.057303738
0.00576555 -0.0428783 -0.019343894 -0.04599417 0.027444297 0.0028007727 -0.040354926 -0.064152375
0.0038418875 0.045288187 -0.027516838 -0.060028035 -0.048537426 -0.03238466 0.015827095 -0.031180786

sequential/conv2d/Conv2D f4 [32, 3, 3, 1]
00000000: 62db 74bd ff7a 033e 17c2 523c b520 653d
00000010: 1ca5 a8bd 5799 293d c823 96bd 46c3 c83d
00000020: 1fdd f13d 9fad 24bd 3b38 81bc 7a30 adbd
00000030: 8cec 8bbd 6c7a 3d3c fea5 0fbe 27cb 0ebe
00000040: 18a5 8a3d d738 05be bb13 973c c15c 3bbd
00000050: 330c 13bd 718c 00bd 1590 d3bd 324c 573d
00000060: 1418 f23d 311c 1d3d 6d44 f63d 6fa4 0a3e
00000070: 3300 edbd 500c 853d 98b2 c0bd e280 173d
00000080: 74cc cbbd 2db9 de3d fd8c 17bd f8d5 c6bc
00000090: 780f ebbd 00f6 cb3c 1076 88bc b5fb bbbd
000000a0: e132 57bd 92f2 c83d c539 c53c 4ef6 19bc
000000b0: 85ce 49bd 53a8 8ebc b142 f8bb aad4 23bc
000000c0: 86e9 0cbe 193e e13d b0bc 75bd 40ce d8bd
000000d0: 30d2 65bd f41a 913d 3a7b 93bd 6f73 da3c
000000e0: 2238 b5bd 13c0 30bd a7f0 36bd 1350 e73d
000000f0: ea50 b5bd 1c26 d1bd 5e27 aebd 8b8b 493d
00000100: 7ced 3b3d 63c9 9e3c 845c 573d 75fd 153d
00000110: a7b2 a03c 172d 13bd c9d9 903d 170b 89bd
00000120: fbef 103e ef95 f5bd c806 c0bd 3dee 0c3e
00000130: 704f 22bd 3859 aebd 524d 033e 2d2e 7cbd
00000140: 8221 d53d 3884 033d 7ee4 4f3c 4f31 02be
00000150: 7915 d53c 92c3 88bd 7793 fe3d 85a2 073e
00000160: d9dd dabd 4e60 053e 096c 0cbc d0ec 373d
00000170: 002f 8b3d a595 c33d a2a5 a4bd f11f a13d
00000180: 3b8c 553d c192 ddbd 48bd 513d 3d5a 64bd
00000190: 1870 093e eed1 c4bc 2a10 0d3e da63 d1bc
000001a0: ba76 29bd 6260 d03c dda9 833d 2dad 65bd
000001b0: 1551 10bd 27bb 973d ec8a bbbd c05b 0abe
000001c0: 530f ba3c 7fe4 b43d 0c29 943d 83db 32bc
000001d0: dd52 413d 1dff 353d 8d85 bc3d abf6 13be
000001e0: 40aa bf3d 03c6 a1bc 2534 063e 5051 dc3d
000001f0: e678 71bc 00f9 d6bc a415 eb3c ae12 b9bd
00000200: 00ab d6bd 145e 663d 03f4 59bc 8ec3 f43d
00000210: 5f9e 9f3d 8bbd 5a3c 66a3 12bd cecf abbd
00000220: d71b f7bd c9df c93d 87fa 8b3d 7df7 bebd
00000230: 582a d63b 85a1 84bd 4603 cb3d f595 933d
00000240: 153d b2bd 43e6 49bd 7e53 ff3d 48ce 09bd
00000250: c36a b3bd e1d2 f3bc 813c 8abd dc20 6dbd
00000260: 4050 d3bc 7b11 a73c 7bb7 423d 7e17 e5bc
00000270: b400 88bd 2772 713c c0ff c9bd 9c58 c03d
00000280: 1e59 27bd 9a32 dbbd d1a6 303c 9912 b4bd
00000290: 53a9 e13d 3350 00be 50e7 23bc f62e 4c3b
000002a0: 107d 90bd f712 013d 898e e1bb e89e a23d
000002b0: 99ea 30bb e9f5 313d a1d3 0b3e 277e a3bd
000002c0: fdf7 ce3d 65ed a63d e993 8b39 9b87 413d
000002d0: 5ad7 30bd 7176 d43c 5189 02bc 46f7 98bd
000002e0: 50c5 593d 8aef cf3d d696 ac3b c2dc 60bc
000002f0: b184 ef3c f6e1 bebc 7f41 99bd c907 1d3e
00000300: 65d8 a9bd a73b cd3d 5360 7cbd e086 b9bd
00000310: def9 debd 5b1b 143e 86ac c33c 13f6 7e3a
00000320: 4e20 3abd a985 e43d 5ee2 34bd 2720 ca3d
00000330: eb2c a83d 6ccc 09be baa9 ff3c c2dc c13d
00000340: 3926 273d 634a 10bc e32c 13be bef4 c93d
00000350: 6523 0e3e 0fc0 f8bd c7d4 043d e8ef b8bc
00000360: 5cf6 69bc bd14 ed3c 48cb 96bc 43b8 6c3d
00000370: 0298 153d 14a6 063c d12e 9cbd 6f16 6b3c
00000380: 4eff fa3c a6ef 0fbe b2e0 51bc c3c4 6ebc
00000390: 292f cd3d 1eef c3bd fd0f 76bd 330a febd
000003a0: 2d86 6bbc 81ff 0bbe 13f2 95bd 22bb 443d
000003b0: a286 7fbd 733d 9e3d c5d8 0ebd d8aa 343d
000003c0: 62bb bb3d 58cb 00be a02f ec3c 28e7 aebd
000003d0: b382 89bb ddf3 d1bd b612 0dbe 2376 713d
000003e0: 33f4 65bd 580e eb3c bff1 f7bd f8e8 d53c
000003f0: 6d41 acbd 9903 9d3d ac6a 95bd 2f50 eb3c
-0.059779532 0.12839888 0.012863657 0.055939395 -0.08234617 0.041406002 -0.073310435 0.098028705
0.118097536 -0.04020464 -0.015773883 -0.08456512 -0.06832227 0.011564832 -0.14028165 -0.13944684
0.067697704 -0.13009964 0.018442025 -0.045742754 -0.035900306 -0.031383935 -0.10330216 0.0525629
0.11820999 0.038356964 0.1202477 0.13539289 -0.115723036 0.06496489 -0.09409064 0.036988147
-0.09951106 0.10875163 -0.03699969 -0.02427195 -0.1147756 0.024897575 -0.01665786 -0.09178869
-0.052538756 0.098118916 0.024075398 -0.0093971025 -0.049269218 -0.017414248 -0.0075763096 -0.0099994335
-0.13760957 0.10998172 -0.0599944 -0.10586214 -0.056108654 0.07085219 -0.07201238 0.026666371
-0.08848597 -0.043151926 -0.044663098 0.1129457 -0.08853324 -0.10212347 -0.085036024 0.049205344
0.04588078 0.019383138 0.052578464 0.03661867 0.019616438 -0.035931673 0.07072789 -0.06691568
0.14154045 -0.11991488 -0.093762934 0.13762756 -0.03962654 -0.08513111 0.12822464 -0.061567474
0.10406782 0.032108516 0.012688754 -0.12714122 0.026011216 -0.06677927 0.124304704 0.1324559
-0.10686845 0.13025019 -0.008570679 0.044903576 0.06796074 0.09550027 -0.080394045 0.078674205
0.052135687 -0.10819007 0.051205903 -0.05575012 0.13421667 -0.024025884 0.13775697 -0.025560308
-0.041372992 0.025436584 0.06428883 -0.056073356 -0.035233576 0.07408743 -0.091573566 -0.13511562
0.022712385 0.08832645 0.072343916 -0.0109165935 0.047198165 0.044432748 0.0920516 -0.14449565
0.093586445 -0.01974774 0.13105829 0.10757697 -0.014738297 -0.02624178 0.028696842 -0.09036766
-0.104818344 0.056242064 -0.013302806 0.119513616 0.07793879 0.013350855 -0.03580036 -0.08389245
-0.12065857 0.09857137 0.06834894 -0.093245484 0.0065358095 -0.0647612 0.09912734 0.072063364
-0.08703057 -0.04929186 0.12467097 -0.03364399 -0.087605976 -0.02976364 -0.067498215 -0.057892665
-0.025795102 0.020394078 0.04753826 -0.027965304 -0.06640759 0.014736689 -0.098632336 0.09391901
-0.040856473 -0.10703011 0.01078196 -0.0879261 0.11018624 -0.12530594 -0.01000388 0.003115592
-0.07055104 0.031512227 -0.0068834466 0.07940465 -0.00269953 0.04344741 0.13654949 -0.07983046
0.10105894 0.08150748 0.00026622348 0.047248464 -0.043174125 0.025935384 -0.007967309 -0.07469039
0.053166687 0.1015311 0.0052670045 -0.013724508 0.029238077 -0.023301106 -0.074831955 0.15335001
-0.08293227 0.100211434 -0.0616153 -0.090589285 -0.10887502 0.1446356 0.023885977 0.0009725999
-0.045440964 0.11158306 -0.044161193 0.09869414 0.082116924 -0.13456887 0.031208862 0.09465934
0.040807936 -0.008806798 -0.14372592 0.09861134 0.1388069 -0.12146007 0.032429483 -0.022575334
-0.014279928 0.028940553 -0.018407479 0.057792913 0.03652192 0.008218307 -0.07626117 0.01434861
0.030639317 -0.14056262 -0.012809919 -0.014573279 0.10018761 -0.09567092 -0.06007384 -0.12404289
-0.014375252 -0.13671686 -0.073215626 0.048030026 -0.062384255 0.07726564 -0.034874696 0.04410824
0.091666 -0.1257757 0.028831303 -0.08540183 -0.0041964888 -0.10251591 -0.13776669 0.058950555
-0.05614109 0.028693363 -0.12106656 0.026112065 -0.084109165 0.07666702 -0.07295737 0.028724758

sequential/conv2d_1/Conv2D f4 [64, 2, 2, 32]
00000000: 4d8f e13d ecd9 fb3d 6811 ab3d 20bd d73d
00000010: 5dba 92bd fdc0 64bd 658a 9bbd a8e1 853c
00000020: 5506 a73d 1668 b6bd 25e6 d93d c94d df3d
00000030: d9d1 5bbd a79e c63c 8f7f 953d adf2 123d
00000040: 9900 e7bd 22d3 9b3c cb0c 973d 6fcb f83d
00000050: dccb f83b 84de ee3d 7864 bebd eb44 3e3d
00000060: 7a7c 983d e0f8 c23d deb7 23bd e098 85bc
00000070: 2816 d93d c3e7 72bd dac5 423d 7079 b0bd
00000080: efc3 143d f5ad d5bd 8c37 e03d 9a9a 6e3d
00000090: 573d 073c 016a a13d f05a d5bd d440 d33c
000000a0: 064d bcbd d3e4 f6bd 3054 413d 20b0 c23d
000000b0: 8081 533d 2828 013d fe2f c13d 1d5d 073d
000000c0: 03c1 a9bd 3dd0 8abd e227 3dbd 6d74 d93d
000000d0: 363d a23d 629d dabc 86c4 043c e5a8 00be
000000e0: 9519 b53d a84e b4bd 53e3 323d d409 c03d
000000f0: 559f e2bd dabc 453d 9362 db3c ff72 f1bc
00000100: f8f6 edbd 6029 943c 0a39 31bd 6dc7 ed3d
00000110: 3fed 6b3d d8f4 bbbd 5090 fdbb 3b64 babb
00000120: 489d 87bd 4b52 803d 0d0f 083c 6d64 efbd
00000130: bac5 d0bd 2483 d33d d55e 9fbb e3e1 003d
00000140: 788a d2bd dce7 82bb 868a 73bc f3f0 e43d
00000150: aeb6 e4bd cb14 eebb daa5 d13b 4e4a 933c
00000160: 9a56 913d b896 5e3d 6ec8 133d 688c f0bd
00000170: 4895 6039 2145 89bd bcb1 5ebb bd63 d0bd
00000180: 453f 993c caa6 f2bd eba3 adbc c03f 00be
00000190: e9e4 f6bd 4c14 d63d c6de 703d 8cae ca3d
000001a0: c715 ed3c 6358 f53d 1cb7 ffbd 804d 523c
000001b0: 4f92 f8bc 5bcf 01bd a696 63bd 7cb1 e2bd
000001c0: 72dc fcbd 87d8 6d3d 59dc 193d 4d8a ffbd
000001d0: cfc0 353c df6e ccbd abf4 47bd 3e18 283d
000001e0: 3658 b23d 40fd 76bd 1d9f 3e3c f053 11bd
000001f0: b0f6 333c 6c62 14bd 0367 c4bd d1ec 413c
00000200: 85c2 7cbd c06d b73c 4b99 d23b 37f9 0bbd
00000210: e134 283d a605 39bd c069 6d3c 8b49 cdbd
00000220: bcb6 cabd be46 a7bd ab92 883d de9f ffbd
00000230: 476f 37bd fbfa 1b3d 442a 87bc 0510 d9bd
00000240: 60e4 ee3c 0cae 99bd c248 f4bd d85a 79bc
00000250: e3dd 9bbd 095d bb3d b794 10bd 167f 29bd
00000260: 051d 003c 9013 f9bc 7f98 223d c4c8 893d
00000270: e020 813c 27ce 473d c739 c9bd 77d8 5e3d
00000280: 99ef 64bc b0dc 6b3d fe1b 383d cadc c6bd
00000290: 3404 cb3d 796c 4fbd 6457 ff3d 4a4e d53d
000002a0: 6a65 223d f888 a33c ad84 753b 2a92 a73d
000002b0: f628 88bd 7f13 823d 24e4 3a3d 398a 45bd
000002c0: b0f1 f13c 80d4 273c 69c0 42bb 0ca1 ecbd
000002d0: 3593 043d ea33 323d 4927 fdbc accb 2dbd
000002e0: 4d15 ec3d 00f0 4e3b 0941 e9bd 5c84 e63d
000002f0: 4055 41bc 9005 97bc b070 f5bd e7d0 10bd
00000300: 76bb 043d f037 b13c bf3d dc3d 56cc f83d
00000310: 52eb e13d 491e 22bd a002 f13d c647 c63c
00000320: 6a5d 9dbc 5bc5 fc3d 3248 633c fc52 b33b
00000330: 6760 ddbd aaa3 00be 37c8 113c 579f 0b3d
00000340: f0c1 ff3d a8ef c2bd 4276 84bd d89d fbbd
00000350: ca89 853d e70b ad3c 3ca7 63bc b1bd 84bd
00000360: aff3 e93c a0f7 093d 5db9 513d c8ce 573d
00000370: a8a6 c13d 074d f7bd a58d 2cbb b4d2 cabd
00000380: fcc8 9cbd c005 9bbc eb56 a6bc 5119 c1bd
00000390: d007 d2bd 6c45 843c 003c 4e3a ba90 e6bd
000003a0: bcaa 5f3d 0f6c 88bd c7ed b2bd 2939 b5bd
000003b0: d9a5 00be 56b1 c53d 8c51 09bd e980 0f3d
000003c0: b449 e4bd c4ff c3bc f49c f83d 2495 d23d
000003d0: b6b4 91bd c431 aa3d c830 c53d 1e0e d03d
000003e0: 8fb0 ab3c 80f2 20bb a5c2 20bd 9058 dbbc
000003f0: 60cf cfbd 5a00 b23d d67d f2bd 2f0b 593c
0.110136606 0.12297425 0.08352929 0.105341196 -0.07164452 -0.05584811 -0.07594756 0.016342953
0.081555046 -0.089065716 0.106396 0.10903508 -0.053666923 0.024245573 0.072997205 0.035875965
-0.11279411 0.019021574 0.07375487 0.12148177 0.0075926613 0.11663535 -0.09296507 0.046452444
0.07445617 0.095201254 -0.03997027 -0.016308248 0.10599929 -0.059303056 0.047551967 -0.08616912
0.03631967 -0.1043357 0.10948095 0.05825291 0.008254371 0.07881547 -0.104177356 0.025787748
-0.091943786 -0.120553635 0.047199428 0.095062494 0.051637173 0.031532437 0.09432982 0.033047784
-0.08288767 -0.067779996 -0.046180613 0.106179096 0.07921831 -0.026686374 0.008103495 -0.12564428
0.0884277 -0.08804065 0.043673825 0.093768746 -0.110655464 0.048275806 0.026780402 -0.02947378
-0.11619371 0.018086135 -0.043267287 0.11610303 0.057599302 -0.091775596 -0.0077381507 -0.005688218
-0.06621796 0.06265696 0.00830437 -0.116890766 -0.10193963 0.103277475 -0.0048636 0.031465422
-0.10280317 -0.003994925 -0.0148645695 0.1117877 -0.11167656 -0.0072656623 0.006397945 0.017979767
0.07096596 0.054342955 0.036079817 -0.1174553 0.00021417916 -0.067026384 -0.003398045 -0.101752736
0.018706927 -0.11848219 -0.021196326 -0.12524319 -0.1205538 0.1045309 0.058806203 0.098965734
0.028941048 0.11979749 -0.12486097 0.01283586 -0.030343203 -0.03169189 -0.05556359 -0.11069009
-0.12346734 0.058067825 0.037563656 -0.12477551 0.011093332 -0.099820845 -0.048817318 0.041038744
0.08708231 -0.06030011 0.011634615 -0.03548044 0.010984108 -0.036226675 -0.095899604 0.011836247
-0.061708946 0.0223912 0.0064269654 -0.034173217 0.041066054 -0.045171402 0.014490545 -0.10023793
-0.09898135 -0.0816779 0.066686 -0.12481664 -0.044783857 0.03808115 -0.016499646 -0.105987586
0.029161632 -0.075039 -0.1192794 -0.015219413 -0.07610681 0.091486044 -0.035298076 -0.041380964
0.007819419 -0.030404836 0.039696213 0.06727746 0.015762746 0.048780587 -0.09825473 0.054405656
-0.01397314 0.05758351 0.04494857 -0.09710081 0.09912911 -0.050640557 0.1246784 0.10415323
0.039647497 0.019962773 0.0037463114 0.081821755 -0.06648438 0.06351375 0.045627728 -0.048227523
0.02953419 0.010243535 -0.0029716736 -0.11554155 0.03236695 0.04350654 -0.030902522 -0.042430565
0.115275 0.0031576157 -0.113893576 0.11255714 -0.01180011 -0.01843527 -0.11984384 -0.035355475
0.03240534 0.021633118 0.10753965 0.12148349 0.11031212 -0.039579663 0.11768079 0.024204146
-0.019209582 0.1234233 0.013872193 0.005472539 -0.10809403 -0.12562433 0.008897833 0.034087505
0.124881625 -0.09518367 -0.064678684 -0.12285966 0.06520422 0.02112384 -0.013894852 -0.06481493
0.02855858 0.03368342 0.051202167 0.052687436 0.09455615 -0.12075239 -0.0026329544 -0.0990347
-0.07655522 -0.01892364 -0.020305118 -0.09428657 -0.10255396 0.016146384 0.0007867217 -0.11258073
0.054606184 -0.066612355 -0.08736759 -0.08848793 -0.12563266 0.09652965 -0.033525035 0.035035048
-0.1114687 -0.02392567 0.121393114 0.102823526 -0.07114546 0.08310273 0.09628445 0.10158943
0.020958213 -0.0024558604 -0.039248127 -0.026775628 -0.101469755 0.08691473 -0.118404076 0.013247295
