kernel_vs_latency/cnn_gray_32_k1_float.tflite (tflite, 48752 bytes, 6 tensors)

sequential/conv2d/BiasAdd/ReadVariableOp/resource f4 [32]
0	0x00000000	0.0
1	0xbcc7c820	-0.02438742
2	0x3c07838d	0.00827111
3	0x3c942b86	0.01808716
4	0x00000000	0.0
5	0x3caceb6f	0.021108357
6	0x00000000	0.0
7	0xbd05a0c1	-0.03262401
8	0xbc6b9f41	-0.014381231
9	0x00000000	0.0
10	0x00000000	0.0
11	0xbc77ba1a	-0.015120054
12	0x00000000	0.0
13	0xbd1bc211	-0.038026873
14	0x00000000	0.0
15	0x00000000	0.0
16	0x00000000	0.0
17	0x3b39dbda	0.0028359802
18	0x00000000	0.0
19	0x00000000	0.0
20	0xbca704bf	-0.020388005
21	0xbc743660	-0.014905542
22	0x3ce3c858	0.027805492
23	0x00000000	0.0
24	0xbcc6736f	-0.024224965
25	0xbd0e2247	-0.03470066
26	0x00000000	0.0
27	0xbcda476e	-0.026645388
28	0x3ca188e2	0.019718591
29	0x00000000	0.0
30	0xbceadcc7	-0.028669728
31	0x00000000	0.0

sequential/conv2d_1/BiasAdd/ReadVariableOp/resource f4 [64]
0	0xbcd5821f	-0.026063023
1	0x3cebf061	0.028801145
2	0xbce110e2	-0.02747387
3	0x3c55f5a7	0.013059056
4	0xbcd2b83c	-0.025722615
5	0x3c9b2b56	0.018941563
6	0xbcc255c3	-0.023722535
7	0x3cb6d1ea	0.022316892
8	0x00000000	0.0
9	0xbcf00852	-0.029300842
10	0x3cf621fa	0.030045498
11	0x3cfa03fe	0.030519482
12	0x3bea4357	0.007149141
13	0x3cda9872	0.02668402
14	0xbd48e2bc	-0.049044356
15	0x3c845b23	0.016156739
16	0x3c952a8b	0.018208763
17	0x00000000	0.0
18	0x3cb5e1d1	0.022202404
19	0x3ca7120e	0.020394351
20	0xbce6740e	-0.028131511
21	0x3cf38c1e	0.029729899
22	0x3cb7f96e	0.022457805
23	0x3cf79d6a	0.030226428
24	0xbcc49541	-0.023996951
25	0xbcfa4226	-0.03054912
26	0x3caef072	0.021354888
27	0x3cf7f709	0.030269163
28	0xbd4195ae	-0.047261886
29	0xbcdb9862	-0.02680606
30	0x3ccc691a	0.02495246
31	0x00000000	0.0
32	0x3c7c49e1	0.0153984735
33	0xbca49f67	-0.02009554
34	0x3ca3e369	0.020005899
35	0x00000000	0.0
36	0xbcd14a69	-0.025548177
37	0x3cb014e5	0.021494338
38	0xbc34ebf6	-0.011042586
39	0x3c762836	0.0150242355
40	0x00000000	0.0
41	0xba0e7f1d	-0.00054358115
42	0x3cb2841d	0.021791512
43	0x3cbd1b97	0.023084445
44	0x3ca69c98	0.020338342
45	0x00000000	0.0
46	0xbcd28439	-0.025697814
47	0xbcf992c4	-0.030465491
48	0x3be6a4dd	0.007038696
49	0x3d12d26f	0.035845216
50	0x00000000	0.0
51	0x00000000	0.0
52	0x00000000	0.0
53	0x00000000	0.0
54	0x3cbfa32f	0.023393242
55	0x3c910b7f	0.017705677
56	0x00000000	0.0
57	0x3cce3702	0.025172714
58	0x3cbee7da	0.023303915
59	0x3cff1cf3	0.031141734
60	0x3c864526	0.016390394
61	0x3d11c7af	0.035590824
62	0x00000000	0.0
63	0xbab79a9b	-0.0014007868

sequential/dense/BiasAdd/ReadVariableOp/resource f4 [2]
0	0x3cc497b8	0.023998126
1	0xbcc497b4	-0.023998119

sequential/dense/MatMul f4 [2, 1600]
0	0xbd7777eb	-0.060417097
1	0x3ce8595f	0.028362928
2	0x3d2a3dfd	0.041563023
3	0x3ca347f0	0.019931763
4	0x3c9dde90	0.019271165
5	0xbd82a8d0	-0.06379855
6	0xbd42686c	-0.047462866
7	0x3b46dc20	0.0030343607
8	0xbb936e88	-0.0044992603
9	0xbc8378e6	-0.01604886
10	0xbd24f00b	-0.040267985
11	0x3d140b58	0.03614363
12	0x3cb5633b	0.022142043
13	0x3caeb4fd	0.021326536
14	0x3d009f96	0.031402193
15	0x3cd0c18b	0.025482913
16	0x3c753af6	0.014967671
17	0xbd5a6418	-0.053318113
18	0x3d28197d	0.041039933
19	0x3c911d3e	0.01771414
20	0xbc9be455	-0.019029776
21	0xbcf0612e	-0.029343214
22	0xbd1af8df	-0.037835
23	0x3c841f0c	0.016128086
24	0x3d2d9849	0.04238156
25	0xbd4f4011	-0.050598208
26	0xbc401d14	-0.011725683
27	0xbd2f181c	-0.042747602
28	0xbd0a119e	-0.033708207
29	0x3d5c0f7f	0.053725716
30	0xbc28eb83	-0.010310057
31	0x3d6fb56b	0.058522623
32	0xbc8a95b3	-0.016917085
33	0xbcc1514a	-0.023598332
34	0xbd23f5c2	-0.040029295
35	0xbb76ba80	-0.0037647784
36	0xbd35b58c	-0.04436259
37	0xbc50e7d4	-0.012750585
38	0xbc9e5b77	-0.019330723
39	0xbc662f0b	-0.014049302
40	0xbcc6f2bc	-0.024285667
41	0xbc39d1fe	-0.01134157
42	0x3d0b9e6e	0.034086637
43	0xbcb54e94	-0.022132196
44	0xbcbdc219	-0.023163842
45	0x3d1dd729	0.03853527
46	0xbd1bd17d	-0.03804158
47	0xbd34fc91	-0.04418618
48	0xbd068c0a	-0.032848395
49	0x3c6513e8	0.013981797
50	0xbc4b08c0	-0.012392223
51	0x3c261f34	0.010139275
52	0xbc921a92	-0.017834935
53	0xbd171e7e	-0.036894314
54	0x3c096f8c	0.008388411
55	0xba7e7e1e	-0.0009708124
56	0xbc277674	-0.0102211125
57	0x3d282d71	0.04105896
58	0x3d4a6128	0.04940906
59	0xbd6a8632	-0.057256885
60	0x3c5c502d	0.01344685
61	0x3cc6e480	0.02427888
62	0xbcfd29c7	-0.03090371
63	0xbcfc0c8b	-0.0307677
64	0x3cadb093	0.021202361
65	0x3d13fabe	0.0361278
66	0xbd53da26	-0.051721714
67	0xbd17f892	-0.03710229
68	0x3c10f5ba	0.008847648
69	0x3d5fa8ce	0.054604344
70	0x3d0a589d	0.033775914
71	0xbd0eb119	-0.034836862
72	0xbccdc7ac	-0.025119625
73	0x3c9e0053	0.019287264
74	0xbb6f3060	-0.003649734
75	0x3c9d25f3	0.019183135
76	0x3c83cc76	0.016088706
77	0xbc8dbf79	-0.017303215
78	0xbc72d04b	-0.014820169
79	0x3d1c7b24	0.038203374
80	0xbc911e4c	-0.017714642
81	0x3d0b5631	0.034017745
82	0x3cb25bde	0.021772321
83	0xbc602445	-0.013680522
84	0xbcd112f1	-0.025521727
85	0xbbdec7a6	-0.0067987023
86	0x3c937917	0.018002076
87	0x3bc3ee3a	0.0059793266
88	0x3cbdbe78	0.023162112
89	0xbcca64fd	-0.024706358
90	0x3d8eaa7a	0.069661096
91	0x3d44695b	0.047952037
92	0xbd2e8678	-0.04260871
93	0xbccd79cb	-0.02508249
94	0x3ca5337c	0.020166151
95	0x3d79e6e3	0.061011206
96	0x3cf74894	0.030185975
97	0xbd890d34	-0.066919714
98	0xbc014af8	-0.007891409
99	0x3b53dff0	0.0032329522
100	0x3d1cb113	0.03825481
101	0xbd63f579	-0.055654023
102	0x3cc172b0	0.023614258
103	0xbbf6afef	-0.007528297
104	0xba646900	-0.0008713156
105	0xbbbeccc0	-0.005822748
106	0xbb5ca9ab	-0.0033670466
107	0xba350352	-0.0006905097
108	0xbc5ef39d	-0.013607887
109	0xbd5f9973	-0.0545897
110	0xbc5926a6	-0.013253843
111	0xbb815d96	-0.003947924
112	0xbd65bce7	-0.056088354
113	0x3cb5c989	0.022190826
114	0xbd3a4a42	-0.045480974
115	0xbd6b73b6	-0.057483397
116	0xbce50832	-0.02795801
117	0x3cff9c76	0.031202536
118	0x3bb0e57c	0.0053984504
119	0xbd6c918f	-0.057756003
120	0x3d3198c1	0.043358568
121	0x3cc74609	0.024325388
122	0x3d4a205a	0.04934726
123	0x3c8602b0	0.016358703
124	0x3d0b7876	0.034050427
125	0xbcc0dc7f	-0.02354264
126	0x3d5bc6e5	0.053656477
127	0x3d2d9bdd	0.04238497
128	0xbad93478	-0.0016571423
129	0x3d3b021a	0.0456563
130	0x3d5e2216	0.054231726
131	0x3d71402a	0.058899082
132	0xbd23c041	-0.03997827
133	0x3d4aa11b	0.04947005
134	0xbd84a204	-0.064762145
135	0x3d64e038	0.055877894
136	0x3c946b7e	0.018117663
137	0x3cd24b99	0.025670813
138	0xbc4be7a9	-0.012445369
139	0x3cee25f4	0.029070832
140	0xbd38efc1	-0.045150522
141	0x3cda1045	0.026619086
142	0x3cafaaab	0.021443686
143	0xbd1324dc	-0.035923824
144	0xbc9c5a61	-0.019086065
145	0xbbca3d60	-0.0061718673
146	0xbbee0a34	-0.0072644
147	0x3d834175	0.06408969
148	0x3d6d2c3e	0.05790352
149	0xbd5546e4	-0.05206956
150	0x3ce67e37	0.028136356
151	0x3c5edf9e	0.013603119
152	0x3d106647	0.03525379
153	0xbcae8dcf	-0.021307854
154	0x3d264fc0	0.0406034
155	0xbc918dd8	-0.017767832
156	0xbd4de684	-0.050268665
157	0x3c446f4f	0.011989429
158	0x3c9795f2	0.018504117
159	0x3c5c287c	0.013437387
160	0xbd5464e0	-0.051854014
161	0xbd440766	-0.04785862
162	0xbd6b8447	-0.057499196
163	0xbd59eed2	-0.053206272
164	0xbd32f300	-0.043688774
165	0xbc41c18e	-0.011825932
166	0xbca8a189	-0.020584838
167	0xbd651df3	-0.055936765
168	0xbcd551f4	-0.026040055
169	0xbd64c0f2	-0.05584807
170	0xbca53706	-0.020167839
171	0xbd0e66df	-0.034766074
172	0x3d3175b9	0.04332516
173	0xbd735de7	-0.059415724
174	0x3cd71d61	0.026259126
175	0xbc1c3136	-0.009533217
176	0xbc31af63	-0.010845038
177	0xbc3314c4	-0.010930244
178	0x3cc37c42	0.023862962
179	0xbce98732	-0.028506849
180	0xbd3799d4	-0.044824436
181	0x3d15dda5	0.03658833
182	0x3c905590	0.017618924
183	0xbd4db70e	-0.050223403
184	0xbb80cf60	-0.003930971
185	0xbc92246f	-0.017839639
186	0x3c227ace	0.009916974
187	0x3d9dc013	0.07702651
188	0xbd45fe1e	-0.04833805
189	0x3d563b79	0.05230281
190	0xbd37ef40	-0.0449059
191	0xbd3da2b5	-0.046297748
192	0xbd3c5fe4	-0.045989886
193	0x3d9eb5b9	0.077495046
194	0xbca5c3b3	-0.020234918
195	0x3d49cb15	0.04926594
196	0xbcd7db3a	-0.026349653
197	0xbc73eb96	-0.014887711
198	0xbcb71b53	-0.022351896
199	0x3ba10ffe	0.0049152365
200	0x3d34dddf	0.044156905
201	0x3cb92da8	0.022604778
202	0xbbae9f7b	-0.00532907
203	0xbc7cbfdb	-0.015426601
204	0x3d3bdc7e	0.045864575
205	0x3c8832cf	0.01662579
206	0xbc76cbf3	-0.015063274
207	0xbd54d87b	-0.051964264
208	0xbd136dfa	-0.035993554
209	0x3ceb8916	0.028751891
210	0x3d0999f0	0.033594072
211	0x3d6cc4bc	0.057804808
212	0xbd5bd932	-0.05367393
213	0xbca0a3ad	-0.019609297
214	0x3bf10f8a	0.0073565887
215	0xbd5fde04	-0.05465509
216	0x3d5adad4	0.053431347
217	0x3c888809	0.01666643
218	0x3c295f03	0.010337594
219	0xbcf9c6a0	-0.03049022
220	0x3d52ce24	0.051466122
221	0xbd31d62a	-0.043417133
222	0xbcc2bb6d	-0.023771012
223	0xbc4f6ab4	-0.012659717
224	0x3ccb12aa	0.024789173
225	0xbd33dc25	-0.043911118
226	0x3d31641c	0.043308362
227	0xbd050662	-0.03247679
228	0xbd44ad48	-0.048016816
229	0x3d1389cf	0.036020096
230	0xbd4cfd2c	-0.05004613
231	0xbd0b2fdf	-0.0339812
232	0x3d37e517	0.04489621
233	0xbd1db388	-0.038501292
234	0xbbe47cd2	-0.0069728876
235	0xbd1128c4	-0.035439268
236	0x3bbd62a3	0.0057795807
237	0x3c8dfa4e	0.017331269
238	0x3d0ad2c2	0.0338924
239	0x3c9fba86	0.019498121
240	0xbd5a312c	-0.05326955
241	0xbd9917ed	-0.074752666
242	0xbc9ebada	-0.019376207
243	0x3d6f7123	0.058457505
244	0xbbe04210	-0.0068438128
245	0x3baa4018	0.005195629
246	0x3d35d22b	0.044389885
247	0xbbc7a159	-0.006092232
248	0x3d020897	0.031746473
249	0xbccfe40f	-0.025377301
250	0x3ca5d896	0.020244878
251	0x3ce7ec43	0.0283109
252	0x3c8b387f	0.016994713
253	0xbd907ae7	-0.07054692
254	0x3d46b977	0.048516717
255	0xbb804eb8	-0.003915634

sequential/conv2d/Conv2D f4 [32, 1, 1, 1]
0	0xbd6283f0	-0.055301607
1	0x3e83cc9b	0.2574204
2	0x3d005da2	0.031339295
3	0x3df64d45	0.12026457
4	0xbdc2da40	-0.09514284
5	0x3def9749	0.11698777
6	0xbe077e66	-0.13231811
7	0x3eb44f82	0.3521691
8	0x3c619a11	0.013769642
9	0xbeaffcfa	-0.34372693
10	0xbea87a9d	-0.32906047
11	0x3ec2a5ce	0.38017124
12	0xbeb0b665	-0.34514156
13	0x3eb0ee3f	0.34556767
14	0xbdcae124	-0.099062234
15	0xbe281950	-0.16415906
16	0xbed012bc	-0.40639293
17	0x3d30f8fb	0.043206196
18	0xbea72fba	-0.326536
19	0xbecdbf69	-0.40185097
20	0x3ce70867	0.028202249
21	0x3ec20564	0.37894738
22	0x3e0f902f	0.14019845
23	0xbed2e819	-0.411927
24	0x3e86f5f9	0.26359537
25	0x3e4405eb	0.19142883
26	0xbe7c4272	-0.24634722
27	0x3ec24f45	0.37951103
28	0x3d16fe06	0.03686335
29	0xbe125ccc	-0.14293212
30	0x3eac6584	0.336712
31	0xbe3365ce	-0.17519304

sequential/conv2d_1/Conv2D f4 [64, 2, 2, 32]
0	0xbc34a1a0	-0.0110248625
1	0x3d7df50a	0.062001266
2	0x3cb1010f	0.02160695
3	0xbc2811eb	-0.010258178
4	0x3ce7e770	0.0283086
5	0xbdf4843a	-0.11939283
6	0x3d87ee80	0.06637287
7	0x3d3571f8	0.044298142
8	0x3d9b0631	0.0756954
9	0x3c9223a0	0.017839253
10	0xbd847aac	-0.0646871
11	0x3dd855d0	0.105632424
12	0xbd8d0b30	-0.068868995
13	0xbd5324c6	-0.05154874
14	0xbdd60a40	-0.10451174
15	0xbdceb1b4	-0.10092488
16	0x3bf8d140	0.007593304
17	0xbd693046	-0.056930803
18	0xbd9a0574	-0.07520571
19	0xbdf2d8b0	-0.11857736
20	0x3df1a8e6	0.11799793
21	0xbdbb844f	-0.09156095
22	0x3d27fb97	0.04101142
23	0x3d9c3130	0.07626569
24	0x3dd5c29e	0.10437511
25	0x3d2ca416	0.042148672
26	0xbda00388	-0.078131735
27	0xbc813c38	-0.015775785
28	0x3ca35c36	0.01994143
29	0xbdc127c0	-0.0943141
30	0xbdea3202	-0.114353195
31	0xbdb3182c	-0.08744845
32	0x3d29cbd8	0.041454166
33	0x3dae42d4	0.0850884
34	0x3df4a13b	0.11944815
35	0xbd80e7e7	-0.06294232
36	0xbcda5f50	-0.026656777
37	0x3da9b706	0.08286862
38	0x3c3d2620	0.011544734
39	0xbd47bb08	-0.04876235
40	0xbcb42468	-0.021990016
41	0xbd178010	-0.036987364
42	0x3c6bef00	0.014400244
43	0x3db2b990	0.087267995
44	0xbd8ffc40	-0.07030535
45	0xbcd00922	-0.02539498
46	0xbcb319f0	-0.021862954
47	0x3d121bf8	0.035671204
48	0xbd3d7048	-0.046249658
49	0x3dcb32e1	0.09921814
50	0xbd6207a0	-0.055183053
51	0xbd7fb978	-0.062432736
52	0x3da37c52	0.079826966
53	0xbd7cffbb	-0.06176732
54	0xbdc38059	-0.09545965
55	0xbdf93164	-0.12167624
56	0x3d2167f1	0.039405767
57	0x3d081d3b	0.033231
58	0x3cab1380	0.020883322
59	0x3d558392	0.05212743
60	0x3d3f0907	0.04663947
61	0x3dd478d4	0.10374609
62	0xbc00302d	-0.007823986
63	0xbd86af60	-0.06576419
64	0xbd675570	-0.056477964
65	0x3db2326e	0.08701025
66	0xbdb03f39	-0.08605809
67	0xbcc1b42d	-0.023645485
68	0xbd596700	-0.053076744
69	0xbcd5465d	-0.026034528
70	0x3d01a4c8	0.03165129
71	0x3c4647d8	0.01210209
72	0x3c616052	0.013755875
73	0xbd90508c	-0.07046613
74	0xbd17df10	-0.037077963
75	0x3cc736d6	0.02431814
76	0x3d4f5c60	0.050625205
77	0xbd113eba	-0.03546021
78	0x3dadfcf8	0.084955156
79	0xbd879204	-0.06619647
80	0xbcb46cc0	-0.022024512
81	0x3c97aeb0	0.018515915
82	0x3d397998	0.045281976
83	0x3d3b5de8	0.045743853
84	0xbd320882	-0.043465145
85	0xbc04e109	-0.008110293
86	0x3d851d97	0.064997844
87	0xbd0cab78	-0.034343213
88	0x3d9d2977	0.076739244
89	0xbd9181e1	-0.071048506
90	0x3d856a2c	0.06514391
91	0xbd122e65	-0.035688777
92	0xbe00d5e2	-0.1258159
93	0x3c543760	0.012952656
94	0xbd598fe8	-0.053115755
95	0x3d83a6b0	0.064282775
96	0xbd14d098	-0.036331743
97	0x3dace564	0.0844219
98	0x3cc11499	0.023569392
99	0xbde5b1a2	-0.112155214
100	0x3d568620	0.052374005
101	0xbdd8fb3f	-0.105947964
102	0xbdb27800	-0.087142944
103	0xbccce731	-0.025012584
104	0x3c7186fd	0.014741656
105	0x3d85e894	0.065385014
106	0xbd498080	-0.049194813
107	0x3de553a6	0.11197595
108	0xbde32524	-0.110910684
109	0xbdc9c329	-0.09851677
110	0xbd7f98f8	-0.06240174
111	0x3b328e80	0.002724558
112	0x3d896e4c	0.067104906
113	0x3ccb7b29	0.024839
114	0x3ca72310	0.020402461
115	0x3d31c2e8	0.043398768
116	0xbd60dadb	-0.054896217
117	0xbd3fdf20	-0.046843648
118	0xbd032127	-0.03201404
119	0x3dbd6948	0.092485964
120	0x3d901499	0.07035179
121	0x3ca18c63	0.019720262
122	0x3dfdadf4	0.123866946
123	0x3d1dbe52	0.03851158
124	0xbde13040	-0.10995531
125	0xbd7e65c0	-0.062108755
126	0xbda40b6e	-0.080099925
127	0xbde759e8	-0.11296445
128	0x3dfd8eb0	0.12380731
129	0xbd347bfa	-0.044063546
130	0xbcd4462a	-0.025912363
131	0xbd4b718e	-0.04966884
132	0x3db78398	0.089606464
133	0xbcfedf82	-0.031112436
134	0x3c5c3940	0.013441384
135	0x3da3b9ba	0.07994409
136	0xbdd4eaa8	-0.1039632
137	0xbda3c6a8	-0.07996875
138	0xbcfdd200	-0.030983925
139	0x3d2c169e	0.042013757
140	0xbd8bcca0	-0.068261385
141	0xbd6abc3f	-0.05730843
142	0x3dcf52e4	0.10123232
143	0xbdd38c08	-0.10329443
144	0x3b892ec0	0.0041864812
145	0xbc7b5922	-0.015341075
146	0x3d792f60	0.060836196
147	0x3d9431fc	0.07236096
148	0xbdfdd628	-0.12394363
149	0x3d915a75	0.070973314
150	0x3d440a6b	0.047861498
151	0x3da1afac	0.07894835
152	0x3dacb21b	0.084324084
153	0xbdf9eb86	-0.12203126
154	0x3ddeddf0	0.10882175
155	0xbd57de71	-0.05270237
156	0xbd20e767	-0.039283182
157	0xbd96ce28	-0.0736354
158	0x3d3b771e	0.045767896
159	0xbdd40448	-0.10352379
160	0x3de20a6c	0.11037144
161	0xbda4c69f	-0.080456965
162	0x3d96e0b0	0.073670745
163	0x3def65e0	0.11689353
164	0x3da9a800	0.082839966
165	0xbcdcfacd	-0.02697506
166	0x3d109d70	0.035306394
167	0xbcf25279	-0.029580342
168	0x3d712302	0.058871277
169	0xbdc590b0	-0.096467376
170	0xbddf1334	-0.108923346
171	0x3ddf6edf	0.10909819
172	0x3dff4bec	0.12465653
173	0xbdd1b5cf	-0.10239755
174	0xbdc245a0	-0.09485936
175	0x3df4d10c	0.11953935
176	0x3cdd5c40	0.027021527
177	0x3db89be2	0.09014107
178	0xbddf72b0	-0.10910547
179	0x3de55afc	0.111989945
180	0x3d98bedf	0.07458281
181	0x3de452bd	0.111485936
182	0x3cf8d026	0.03037269
183	0x3dac249c	0.0840542
184	0xbc49ad4f	-0.012309386
185	0x3d394f07	0.045241382
186	0xbdcc27b0	-0.09968507
187	0xbd70e73a	-0.058814265
188	0x3d6a1e8a	0.05715803
189	0x3d309f68	0.04312077
190	0xbd15c55e	-0.036565177
191	0xbbb80100	-0.0056153536
192	0x3d8ad2c0	0.067784786
193	0x3c5ccd2f	0.013476654
194	0xbcd3d8d6	-0.025860231
195	0x3d1da95d	0.038491596
196	0xbd1d5428	-0.038410336
197	0xbddc6807	-0.10762029
198	0xbaf63500	-0.0018784106
199	0xbccaacd7	-0.02474062
200	0xbdc6fc37	-0.09716075
201	0x3d3abb80	0.04558897
202	0x3cbcd3f0	0.023050278
203	0xbb6cc872	-0.0036130217
204	0xbde01404	-0.10941318
205	0xbda4224e	-0.080143556
206	0xbc83b670	-0.016078204
207	0xbd8dc6c8	-0.0692268
208	0xbae3e400	-0.0017386675
209	0xbdc43b05	-0.095815696
210	0x3da9798c	0.08275136
211	0xbc0a7d00	-0.008452654
212	0x3db1da21	0.08684183
213	0x3df5cfed	0.12002549
214	0x3d92840e	0.07154094
215	0xbd97cc98	-0.0741207
216	0x3d8f37a4	0.069930345
217	0xbe00dbcf	-0.1258385
218	0xbd92fda0	-0.071772814
219	0x3dd99693	0.10624423
220	0x3cb346ce	0.021884348
221	0x3d4f39e8	0.050592333
222	0x3c9a2050	0.018814236
223	0xbdc102bc	-0.0942435
224	0xbdc8c204	-0.098026305
225	0xbd5d6c6d	-0.05405848
226	0xbd245078	-0.040115803
227	0xbc741f2c	-0.01490001
228	0xbc960050	-0.018310696
229	0x3c497c37	0.0122976815
230	0xbd969774	-0.07353106
231	0xbd81e571	-0.063425906
232	0xbcb603b4	-0.022218563
233	0x3d70c5b8	0.05878231
234	0x3d612248	0.054964334
235	0xbdf7ea87	-0.121052794
236	0x3da93d9c	0.08263704
237	0x3d48f784	0.049064174
238	0x3cf4c1b0	0.029877514
239	0x3dfc83fc	0.123298615
240	0x3c700b20	0.01465109
241	0x3d9b4783	0.07581999
242	0x3da013d0	0.07816279
243	0xbdfeb688	-0.12437159
244	0xbd0842e1	-0.033266906
245	0x3b993a2a	0.004676123
246	0xbd8e9fd5	-0.06964079
247	0x3bd43a00	0.0064766407
248	0xbdc0dbd0	-0.09416926
249	0xbd19d9ce	-0.03756123
250	0xbddd4d9c	-0.108058184
251	0x3d64dfd7	0.055877533
252	0xbd290d12	-0.04127223
253	0x3c2c3740	0.0105112195
254	0xbdf946c7	-0.12171703
255	0x3d844374	0.06458178
