kernel_vs_latency/cnn_gray_32_k4_float.tflite (tflite, 50672 bytes, 6 tensors)

sequential/conv2d/BiasAdd/ReadVariableOp/resource f4 [32]
0	0x3be99583	0.007128419
1	0xbc24a45b	-0.010048951
2	0x3a0b2428	0.0005307817
3	0xbcb5a162	-0.02217168
4	0x3c8c7b21	0.017148556
5	0x3cba36f4	0.022731282
6	0xbca0fd1a	-0.019651938
7	0x3a793e9b	0.0009507925
8	0xbb9771bb	-0.004621712
9	0x3b45c7a3	0.0030178807
10	0x3c425d9c	0.0118631385
11	0x3baff2f3	0.005369538
12	0xbc34d0a3	-0.011036071
13	0xbcdb1998	-0.026745602
14	0x3a992a12	0.0011685512
15	0x3b8e1e48	0.004337106
16	0xbccaf457	-0.024774713
17	0xbca831df	-0.020531593
18	0x3ccf4718	0.025302455
19	0x3ca2afca	0.019859213
20	0x3c254922	0.010088237
21	0xbc89dccd	-0.016828919
22	0x3ca34f72	0.019935343
23	0xbb4becbe	-0.003111645
24	0x3b3a610c	0.0028439192
25	0xbc7b3410	-0.015332237
26	0xbc78da10	-0.015188709
27	0xbc7f01f7	-0.015564433
28	0x39c01447	0.00036636202
29	0x3b138608	0.0022510309
30	0xbbb3a01e	-0.005481734
31	0x3cc3bd50	0.023893982

sequential/conv2d_1/BiasAdd/ReadVariableOp/resource f4 [64]
0	0x3c4ed34a	0.012623617
1	0x380088ed	3.06451e-05
2	0xbb8ab832	-0.0042333836
3	0x3c8f145c	0.017465763
4	0x3c23afff	0.009990691
5	0xbae01d73	-0.001709862
6	0x3c4d354e	0.012524916
7	0xbb9ef215	-0.004850636
8	0x3ce2e556	0.027697247
9	0x3c4aee1b	0.01238587
10	0x3c76ae4e	0.015056206
11	0x3b265ca8	0.0025384817
12	0xbc9922e8	-0.018693402
13	0x3cc5d3e2	0.024148885
14	0xba15002c	-0.00056839245
15	0x3cbd0ff0	0.023078889
16	0x3bccf686	0.006254974
17	0x3c2f0d16	0.010684272
18	0x3c169297	0.009190223
19	0xbca761e8	-0.020432428
20	0x3cb53dd2	0.022124205
21	0x3c85dca7	0.016340567
22	0xbc51b741	-0.012800039
23	0x3cbbfd65	0.022947976
24	0xbc758ce8	-0.014987208
25	0x3c9845ae	0.018587913
26	0xbb42c78a	-0.0029720985
27	0xbc6f5bbb	-0.014609273
28	0xbb04102c	-0.002015124
29	0x3c5082ac	0.012726467
30	0xbc30dbcf	-0.010794594
31	0x3b8a6324	0.0042232443
32	0x3c4b1046	0.012394017
33	0x3c2a8b5d	0.010409203
34	0xbc7b0232	-0.015320348
35	0x3b1e4d67	0.0024155022
36	0x3c84e93d	0.016224498
37	0x3bf36bc1	0.0074286168
38	0x3c388cc3	0.011264029
39	0x3ba25543	0.0049540116
40	0x3ce05dbf	0.027388452
41	0xbc80c727	-0.015719963
42	0xbc8b1bd1	-0.016981037
43	0x00000000	0.0
44	0xbc64e6f8	-0.013971083
45	0x3c0f3885	0.008741503
46	0xbc703f71	-0.014663563
47	0x3bcf3b1e	0.006324186
48	0xba43fee1	-0.00074766396
49	0xbc7170ab	-0.014736335
50	0x3c544c45	0.012957637
51	0xbca22092	-0.019790921
52	0x3c1261fd	0.008934495
53	0x3c84c76e	0.016208377
54	0x3c301965	0.010748242
55	0x3c3f22d1	0.011666016
56	0x3c5cfc15	0.013487835
57	0x3c5db45b	0.01353177
58	0xbc6b4556	-0.014359793
59	0x3c2c0d7d	0.010501263
60	0xbc869e98	-0.016433045
61	0x3c7b6ff4	0.015346516
62	0x3c431d80	0.011908889
63	0x3c47a7b0	0.012185976

sequential/dense/BiasAdd/ReadVariableOp/resource f4 [2]
0	0x3c5f8ca9	0.013644376
1	0xbc5f8cb0	-0.013644382

sequential/dense/MatMul f4 [2, 1600]
0	0x3d34e5ee	0.04416459
1	0xbc6abbfc	-0.0143270455
2	0x3d0d48b0	0.03449315
3	0xbd79554f	-0.060872372
4	0xbd2fc612	-0.042913504
5	0xbb20a1bf	-0.002451047
6	0xbd184d13	-0.03718288
7	0x3c6a8377	0.01431357
8	0xbd83005d	-0.06396554
9	0x3d5a866c	0.05335085
10	0xbc8bf42b	-0.017084202
11	0x3d5ddfa4	0.05416836
12	0xbd68f1cc	-0.05687122
13	0x3d621b41	0.055201773
14	0x3cb8b456	0.022546928
15	0x3d2f9b59	0.04287276
16	0x3d54fda6	0.05199971
17	0x3d1ca3c7	0.038242128
18	0x3d5a1f35	0.053252418
19	0x3d2e7dd6	0.042600475
20	0xbce855a3	-0.028361147
21	0xbd77ca95	-0.06049593
22	0x3cf8355e	0.030298885
23	0x3c47730b	0.0121734245
24	0xbc79f77a	-0.015256757
25	0xbd16ffca	-0.036865033
26	0x3cbf8256	0.023377579
27	0xbc4bfac0	-0.01244992
28	0xbd080eec	-0.033217356
29	0xbd7080f1	-0.058716718
30	0xbd8090b9	-0.06277604
31	0x3c9dcd82	0.019263033
32	0xbd2f4828	-0.042793423
33	0xbd19d9c5	-0.037561197
34	0x3cf00001	0.029296877
35	0xbd5ec6c4	-0.054388776
36	0xbb49ce54	-0.0030793147
37	0xbd2a35ed	-0.041555334
38	0xbc22b24e	-0.009930206
39	0xbd2aa2b0	-0.041659057
40	0x3d0a3e6f	0.033750948
41	0x3cf864fc	0.03032159
42	0x3c37c523	0.011216435
43	0xbd67d7e2	-0.056602366
44	0xbd5a3285	-0.053270835
45	0xbd86e097	-0.06585806
46	0xbd3d7e9d	-0.046263326
47	0xbaf5353c	-0.0018707882
48	0x3d507c1c	0.05089961
49	0xbcbe20a7	-0.02320893
50	0x3d32d9e0	0.043664813
51	0xbd275068	-0.040848166
52	0x3ccea004	0.025222786
53	0xbd0294b0	-0.03188008
54	0xba596ccc	-0.0008294105
55	0xbd5ad28f	-0.05342346
56	0x3c82cbf2	0.01596639
57	0x3d2de12b	0.042451065
58	0xbd15942a	-0.036518253
59	0xbca2fd31	-0.019896122
60	0xbd08ad40	-0.03336835
61	0xbd058d81	-0.03260565
62	0xbb75ac00	-0.0037486553
63	0xbd6a4dda	-0.05720315
64	0x3b450ae2	0.00300663
65	0xbba37f78	-0.0049895607
66	0x3c6b8864	0.01437578
67	0x381f31ca	3.7954924e-05
68	0xbc7633e7	-0.015027023
69	0x3cf9621f	0.030442296
70	0x3d4b81e6	0.049684428
71	0x3cb49400	0.022043228
72	0xbc32482a	-0.010881463
73	0xbd3eb2c8	-0.046557218
74	0x3cf5fb7c	0.030027144
75	0x3d3ba816	0.045814596
76	0x3cf09669	0.029368596
77	0x3c71a805	0.014749532
78	0xbd36b811	-0.044609133
79	0x3bdc34ef	0.0067201774
80	0x3d27ddf3	0.04098315
81	0x3cc5042e	0.024049845
82	0x3c3eea10	0.011652485
83	0xbc0604a6	-0.008179819
84	0xbd22ab77	-0.039714303
85	0x3d339661	0.043844584
86	0x3b930c04	0.0044875164
87	0xbcba6cfa	-0.022757042
88	0x3cf99c36	0.030469995
89	0x3ca41127	0.02002771
90	0xbd582943	-0.052773725
91	0xbccc63b9	-0.024949895
92	0x3c8326c2	0.016009692
93	0xbb999f8f	-0.0046882103
94	0xbd49d847	-0.049278524
95	0xbcdd46d6	-0.027011316
96	0x3b985358	0.004648607
97	0x3cc3a0cb	0.023880383
98	0x3d13cf98	0.03608665
99	0xbd74b02c	-0.059738323
100	0xbaef9912	-0.0018279871
101	0xbd86ab69	-0.06575663
102	0xbd317473	-0.043323945
103	0x3d03e574	0.032201245
104	0xbd377acf	-0.044794854
105	0xbc91eb4f	-0.0178124
106	0xbc65aef2	-0.014018761
107	0xbcc79566	-0.02436323
108	0xbd17781b	-0.036979776
109	0xbcb0a1fb	-0.021561613
110	0xbd6790e6	-0.05653467
111	0x3cd821ce	0.026383307
112	0xbd15c985	-0.036569137
113	0x3d33117a	0.04371784
114	0xbcac1e8a	-0.021010656
115	0x3d4c3f42	0.049865015
116	0xbba381e8	-0.0049898513
117	0x3d47ce9b	0.04878102
118	0xbd2b6334	-0.041842654
119	0x3d054c0c	0.032543227
120	0xbd739b3c	-0.059474215
121	0xbd08841c	-0.033329114
122	0x3d0cc93b	0.034371596
123	0x3c8ff2d9	0.017571853
124	0xbc992193	-0.018692767
125	0xbc3f501b	-0.0116768135
126	0xbcee54fc	-0.029093258
127	0xbd21bab2	-0.039484687
128	0xbcc6ac9d	-0.02425223
129	0xbcd94c6e	-0.026525702
130	0xbc07352c	-0.008252423
131	0x3cde2406	0.027116787
132	0xbadd6ee6	-0.0016894012
133	0x3d21ca59	0.039499614
134	0xbd3eb850	-0.046562493
135	0xb990a9f8	-0.00027592457
136	0x39e39d70	0.00043414114
137	0xbb86ad63	-0.004110025
138	0xbcefc733	-0.02926979
139	0x3d0fc8a1	0.035103444
140	0xbd76500f	-0.060134944
141	0xbca793b7	-0.020456178
142	0xbc1829dd	-0.009287325
143	0x3d62c3f2	0.05536265
144	0x3d638298	0.055544466
145	0x3d7098d3	0.058739495
146	0x3afd350e	0.001931818
147	0x3c2de8a2	0.010614546
148	0x3ce4c329	0.02792509
149	0xbd423088	-0.047409564
150	0x3ccfcfb7	0.0253676
151	0xbb97dd24	-0.0046345163
152	0x3bb91931	0.005648755
153	0xbcd018b0	-0.025402397
154	0xbd6335ea	-0.05547134
155	0xbbb548fa	-0.005532381
156	0xbd03c54a	-0.03217057
157	0x3d5e5bf7	0.054286923
158	0x3d1217cb	0.035667222
159	0xbcfef102	-0.03112078
160	0xbd0b725b	-0.034044605
161	0xbcd37421	-0.02581221
162	0x3cb6f222	0.022332255
163	0x3d456376	0.048190556
164	0xbc778cb3	-0.015109229
165	0xbc5fef7d	-0.013667938
166	0x3d804a32	0.06264152
167	0x3b993487	0.004675451
168	0x3cd58b25	0.026067326
169	0xbd110714	-0.03540714
170	0x3b32b32c	0.002726744
171	0xbd48ad56	-0.04899343
172	0x3c185fb4	0.009300161
173	0xbd2c9a3f	-0.042139288
174	0xbd1c9641	-0.03822923
175	0x3a98d27b	0.0011659408
176	0xbd1cbb73	-0.038264703
177	0xbbb9cca7	-0.0056701484
178	0x3ceaf125	0.02867944
179	0x3c1d1a8f	0.009588852
180	0xbd212b35	-0.039347846
181	0x3d790d6d	0.06080382
182	0x3d1806e5	0.03711595
183	0xbd07e072	-0.033173032
184	0x3c62f11c	0.01385143
185	0x3b20c594	0.0024531828
186	0xbd787fe7	-0.060668852
187	0xbcf19cc5	-0.029493699
188	0xbd2bae6d	-0.041914392
189	0x3d697f0d	0.05700593
190	0x3c4e6975	0.012598385
191	0x3d40f9c6	0.047113203
192	0x3d2bcf3b	0.041945677
193	0xbd04023e	-0.0322287
194	0x3cad3b4e	0.021146443
195	0x3d5ceac9	0.053934846
196	0xbd77b4e0	-0.06047523
197	0x3d59e78e	0.053199343
198	0xbd32a345	-0.043612737
199	0x3d4199df	0.047265884
200	0x3d24e2ea	0.040255465
201	0x3d5e92f6	0.05433937
202	0xbd7a369d	-0.06108724
203	0xbd7901d2	-0.06079275
204	0xbb83243f	-0.0040021236
205	0x3c96e7f9	0.01842116
206	0xbcb5bcd3	-0.022184765
207	0xbc3cd38d	-0.011525047
208	0xbd446007	-0.04794314
209	0x3d286dbd	0.04112028
210	0x3af07dd7	0.001834805
211	0x3cfb5a25	0.030682633
212	0xbc7c4a47	-0.0153985685
213	0x3c964eae	0.018348064
214	0xbd647981	-0.055779938
215	0xbd058625	-0.032598633
216	0xbcd9d1b4	-0.026589252
217	0xbc3547ec	-0.011064511
218	0xbc3d757c	-0.011563655
219	0xbba7e2fc	-0.005123494
220	0x3ca9d02a	0.020729143
221	0x3950942e	0.00019891627
222	0x3b4fb185	0.0031691503
223	0xbd6aba5f	-0.057306644
224	0x3d1371e0	0.03599727
225	0xbbdff8ad	-0.0068350644
226	0xbd4fa98f	-0.050698813
227	0xbd0d6208	-0.034517318
228	0x3cf479b7	0.029843194
229	0x3ca87488	0.020563379
230	0x3d927d39	0.071527906
231	0x3cf15b4c	0.029462479
232	0xbd09a0cc	-0.033600613
233	0xbd2a0593	-0.041509222
234	0x3d15aeb5	0.036543567
235	0xbb492510	-0.0030692257
236	0x3b871a4b	0.0041230074
237	0xbcf0b3cf	-0.029382614
238	0xbc8dc2d2	-0.017304812
239	0xbcc89d17	-0.024488969
240	0xbbbd5f4d	-0.005779183
241	0xbd88da29	-0.06682236
242	0xbd7e6fb9	-0.062118266
243	0x3cf300a2	0.029663388
244	0x3c06f258	0.00823649
245	0xbc1692da	-0.009190286
246	0xbc0ef504	-0.008725408
247	0x3b30202d	0.0026874647
248	0x3d2c03c6	0.041995786
249	0x3cd078e9	0.02544828
250	0x3c9feac1	0.01952112
251	0x3d29a7f4	0.04141994
252	0xbcedb591	-0.029017242
253	0x3d159150	0.036515534
254	0x3c1296f1	0.00894712
255	0x3d0798ef	0.033104833

sequential/conv2d/Conv2D f4 [32, 4, 4, 1]
0	0x3d19eb2e	0.0375778
1	0xbd3dde57	-0.046354618
2	0x3dc83f78	0.09777731
3	0xbd95f257	-0.07321613
4	0x3b84ed4d	0.004056609
5	0xbd9ea592	-0.07746424
6	0xbcd2d95e	-0.025738414
7	0xbccba3eb	-0.024858436
8	0x3cf0192c	0.029308878
9	0x3da847c7	0.082168154
10	0xba7bcbe3	-0.00096052716
11	0x3a58ecb8	0.000827502
12	0x3cfc5ece	0.030806925
13	0xbd3d3fbc	-0.04620336
14	0x3d0c7e5b	0.03430019
15	0xbd42e438	-0.047580928
16	0xbc365f18	-0.011131071
17	0xbc8960bc	-0.01676976
18	0xbd2e28e2	-0.042519458
19	0x3d7dd212	0.061967917
20	0x3c00fb17	0.0078723645
21	0xbdb55a20	-0.088550806
22	0xbc8cc768	-0.017184928
23	0xbd1b15f6	-0.03786274
24	0x3d77f3d6	0.060535274
25	0x3c1b5408	0.009480484
26	0x3d9ba581	0.07599927
27	0xbd451b32	-0.04812164
28	0x3d45d2f1	0.048296873
29	0x3c9cdd6a	0.019148547
30	0x3ce9d943	0.028545981
31	0xbd740e7d	-0.05958413
32	0x3cdefe4b	0.027220866
33	0xbd5a0658	-0.053228706
34	0x3daad201	0.08340836
35	0xbd2e6b83	-0.042583
36	0xbcbdf88b	-0.023189804
37	0xbcdea982	-0.027180437
38	0xbd79f7f9	-0.0610275
39	0x3dbe9dfe	0.09307478
40	0x3cf968ba	0.030445445
41	0xbd6d741a	-0.05797205
42	0xb9fa4179	-0.00047732497
43	0xbd48243f	-0.048862692
44	0x3d9a477a	0.07533164
45	0x3dc4c9e3	0.09608819
46	0xbab50fcc	-0.0013813912
47	0xbc96ad35	-0.018393138
48	0x3dbd5489	0.092446394
49	0x3b6bfe1d	0.0036009618
50	0xbd284294	-0.04107912
51	0x3dade0ab	0.08490118
52	0xbc89ae33	-0.016806697
53	0x3d074edc	0.03303419
54	0xbd299cd3	-0.041409325
55	0xbcd279c9	-0.025692837
56	0xbd82140f	-0.06351482
57	0xbdd99ace	-0.1062523
58	0xbc5de3ca	-0.013543079
59	0x3c217407	0.009854323
60	0x3d843663	0.06455686
61	0x3c8a4504	0.016878612
62	0x3d92d314	0.07169166
63	0x3db744cf	0.08948671
64	0x3da04aac	0.078267425
65	0xbb5dc190	-0.0033837296
66	0xbdc242dd	-0.094854094
67	0x3d84fd3e	0.064936146
68	0x3db3f4b4	0.08786908
69	0xbd2b0d7b	-0.041760903
70	0x3d824929	0.063616104
71	0xbd4d3c24	-0.050106183
72	0x3dc0697e	0.09395121
73	0xbd946533	-0.07245865
74	0xbd400e99	-0.04688892
75	0xbd2a7051	-0.04161102
76	0x3dcbd7a0	0.099532366
77	0xbde0d3dc	-0.10977909
78	0xbd73856a	-0.059453405
79	0xbc1304e9	-0.008973339
80	0x3ddd1601	0.107952125
81	0x3d2c3624	0.04204382
82	0x3ca6fa6a	0.020383079
83	0x3d03cf86	0.03218033
84	0xbd6aef5b	-0.057357173
85	0xbd99b251	-0.07504714
86	0xbda60d33	-0.08107986
87	0x3dac12ef	0.08402049
88	0x3da3c419	0.07996387
89	0xbdb8e88a	-0.09028728
90	0xbd9eaeca	-0.07748182
91	0xbdad93fc	-0.084754914
92	0xbcd479cb	-0.025936982
93	0xbd8032df	-0.06259703
94	0xbdb404ab	-0.08789953
95	0x3d49c73a	0.049262263
96	0x3cd3b8bb	0.025844922
97	0x3d0b1324	0.0339538
98	0xbda4d515	-0.08048455
99	0x3dcf4174	0.10119906
100	0x3d9317c2	0.07182266
101	0x3c8e260b	0.017352125
102	0xbdcb96a7	-0.09940844
103	0x3d926548	0.07148224
104	0xbda0c79c	-0.078505725
105	0xbd904a86	-0.07045464
106	0x3c38b644	0.011273924
107	0x3c962d44	0.018332131
108	0x3d804a92	0.06264223
109	0x3d0b5030	0.03401202
110	0x3c878355	0.016542116
111	0xbb88a67d	-0.0041702376
112	0xbcde6c72	-0.02715132
113	0xbd58ad29	-0.052899513
114	0x3b3dbd1a	0.0028951825
115	0xbd69af1b	-0.05705176
116	0x3de2b9e7	0.11070614
117	0xbcd99a2a	-0.026562769
118	0x3d8a859a	0.06763764
119	0x3daf0105	0.08545116
120	0xbd81d88f	-0.063401334
121	0xbd777bf2	-0.060420938
122	0xbdc6845c	-0.09693214
123	0x3d19e3de	0.037570827
124	0xbb07e415	-0.0020735313
125	0xbd92f228	-0.07175094
126	0x3db881c3	0.09009125
127	0xbdc6ffef	-0.09716784
128	0x3dcfe8d4	0.1015183
129	0xbd269c9f	-0.04067671
130	0xbd12118b	-0.03566126
131	0x3ccbdf81	0.024886848
132	0xbdb2f2bd	-0.08737705
133	0x3cdfae9a	0.027304936
134	0xbdb0c293	-0.08630862
135	0xbb668d75	-0.003517953
136	0x3d9d10b0	0.076691985
137	0xbd2b02c6	-0.04175069
138	0xbd8accba	-0.0677733
139	0xbd795b62	-0.060878165
140	0x3d97fd36	0.07421343
141	0xbda13447	-0.07871299
142	0xbd870c42	-0.06594135
143	0xbd83a6da	-0.06428309
144	0xbd17ce23	-0.03706182
145	0xbdadc3d2	-0.084846154
146	0x3c81c6a1	0.015841784
147	0xbcc3c0dd	-0.023895675
148	0x3d9356bc	0.07194278
149	0x3d7187b6	0.058967315
150	0xbd9af3e8	-0.07566053
151	0xbd9916a7	-0.07475024
152	0xbda9b588	-0.082865775
153	0x3d2441e6	0.04010191
154	0x3d05af91	0.032638136
155	0x3dabec38	0.083946645
156	0x3d8af32e	0.06784664
157	0x3d8b70eb	0.06808647
158	0xbd808a5f	-0.06276392
159	0xbdabc74d	-0.08387623
160	0xbd2c3101	-0.04203892
161	0x3dc439f0	0.09581363
162	0x3d6d55a2	0.057942994
163	0x3d5d329e	0.05400335
164	0xbd5aaabe	-0.05338549
165	0xba6b6e3d	-0.00089809654
166	0x3d876688	0.06611353
167	0xbd390182	-0.045167454
168	0xbdc272d6	-0.094945595
169	0x3c8b8bac	0.017034374
170	0x3c7756f3	0.015096414
171	0xbd8f450a	-0.0699559
172	0xbca07cab	-0.019590696
173	0xbcaedaaf	-0.02134451
174	0x3db630c1	0.08896018
175	0xbd248c9e	-0.040173166
176	0xbcbc0881	-0.022953274
177	0xbd164df8	-0.03669545
178	0xbdcc1b5f	-0.09966158
179	0xbdaa4e34	-0.08315697
180	0xbccc921d	-0.024972016
181	0x3d6d13cb	0.057880204
182	0x3d0fcaaf	0.035105404
183	0xbd38b858	-0.04509768
184	0xbd58d747	-0.05293968
185	0x3d815f43	0.06316998
186	0xbdc9760f	-0.09836971
187	0x3dd2264c	0.10261211
188	0xbdaec3d3	-0.08533444
189	0xbd51a9d5	-0.051187355
190	0x3d886436	0.06659739
191	0x3d82311e	0.063570246
192	0xbdda442a	-0.106575325
193	0xbca9bee8	-0.020720914
194	0xbb4b0dd6	-0.0030983589
195	0xbd53cf63	-0.05171145
196	0x3c87941d	0.016550118
197	0xbc4e2c78	-0.012583844
198	0x3d268441	0.04065347
199	0xbcbae3a9	-0.022813635
200	0x3dd2363d	0.102642514
201	0xbdb2e943	-0.087358974
202	0xbd6fa297	-0.058504667
203	0xbd8cec6f	-0.06881034
204	0x3dcdfaa4	0.100575715
205	0x3c0f81c3	0.008758965
206	0x3dc20fb5	0.09475652
207	0x3d5656e1	0.052328948
208	0x3ce5e97f	0.028065441
209	0x3d701d12	0.058621474
210	0x3d9097eb	0.07060226
211	0x3db42336	0.087957785
212	0x3dcc963d	0.09989593
213	0x3cb77f0f	0.022399453
214	0xbd9cb010	-0.07650769
215	0x3d9c1965	0.07622031
216	0xbce95f7f	-0.028487919
217	0xbd8d3d43	-0.0689645
218	0xbd412455	-0.04715379
219	0x3d3b46ce	0.04572182
220	0xbd5fa056	-0.054596268
221	0xbd8b7d21	-0.06810976
222	0xbdaacc28	-0.08339721
223	0x3d6d2bd9	0.057903145
224	0x3d8816ff	0.06645011
225	0xbc1a907c	-0.009433862
226	0x3daf9f9a	0.085753635
227	0xbd86ee0c	-0.065883726
228	0xbd80d685	-0.06290916
229	0xbcd6b85e	-0.02621096
230	0x3dd838ff	0.10557746
231	0xbd4edf2a	-0.050505795
232	0xbc6d57c6	-0.014486259
233	0xbdbd88bb	-0.09254595
234	0xbca6e595	-0.020373145
235	0xbd724070	-0.059143484
236	0x3c9243f7	0.017854674
237	0xbd874299	-0.06604499
238	0xbd8ee41c	-0.06977102
239	0xbbbb12e8	-0.005709041
240	0xbb2f7115	-0.0026770283
241	0x3da1c56d	0.07898984
242	0xbd024507	-0.03180411
243	0xbd3e3096	-0.046433054
244	0xbd5672a9	-0.052355442
245	0xbdb73989	-0.08946521
246	0xbd98a5ea	-0.074535206
247	0xbd82374a	-0.06358202
248	0xbd383242	-0.044969805
249	0xbd845f8d	-0.06463537
250	0x3d3a8c83	0.04554416
251	0xbdad9e8a	-0.084775046
252	0xbd268d3a	-0.040662028
253	0x3de8f8c9	0.11375577
254	0x3cfc0632	0.030764673
255	0xbd2020c9	-0.039093766

sequential/conv2d_1/Conv2D f4 [64, 2, 2, 32]
0	0x3aeec872	0.0018217696
1	0xbdf941a8	-0.12170726
2	0xbda89c22	-0.08232905
3	0xbdcad8a3	-0.099046014
4	0x3cfbf90e	0.030758407
5	0x3d57e725	0.05271067
6	0xbd2a2cc0	-0.041546583
7	0xbca6d910	-0.020367175
8	0xbd742e79	-0.059614632
9	0x3c59b2ef	0.01328729
10	0x3cee3202	0.02907658
11	0xbde3c7fc	-0.11122128
12	0x3c94005d	0.01806658
13	0x3cc97fa8	0.024597004
14	0x3da16c9d	0.078820445
15	0xbb89f0c2	-0.004209609
16	0x3c261f24	0.01013926
17	0xbc9ad881	-0.018902065
18	0x3d9a9ebf	0.0754981
19	0xbc38ef6e	-0.011287553
20	0xbd083157	-0.03325018
21	0xbb8231f0	-0.003973238
22	0x3d2617bd	0.040549982
23	0x3cfde31b	0.030992081
24	0xbcd289e2	-0.025700513
25	0xbe031af8	-0.12803257
26	0x3cd411a0	0.02588731
27	0x3dd95f7a	0.10613914
28	0xbdc6aee6	-0.09701328
29	0x3ded06a2	0.11573531
30	0xbdd62d5e	-0.10457872
31	0xbda277b8	-0.07932991
32	0xbd7732cc	-0.060351178
33	0x3cfa9df2	0.030592892
34	0xbd859d42	-0.06524135
35	0xbbe326f3	-0.0069321333
36	0x3c8b8a20	0.017033637
37	0x3ca66dcb	0.020316025
38	0xbd3ea527	-0.04654422
39	0x3d89d8a3	0.06730773
40	0x3db292c3	0.08719399
41	0x3d3e3a43	0.04644228
42	0x3ded850d	0.11597643
43	0xbdb71529	-0.08939583
44	0xbd4580b2	-0.048218437
45	0x3de33e49	0.11095864
46	0x3d2f8e44	0.042860284
47	0x3dca298e	0.09871207
48	0x3dd46479	0.10370726
49	0xbd07045c	-0.03296314
50	0x3dfdf863	0.12400892
51	0x3dd7c01c	0.10534689
52	0xbdbfe287	-0.093693785
53	0x3ce3d36e	0.027810778
54	0xbd407783	-0.046988975
55	0x3d9c9530	0.07645643
56	0xbdb89f9d	-0.09014819
57	0x3ddb5bb4	0.1071085
58	0x3d6fa1fc	0.05850409
59	0xbd83e3ea	-0.064399555
60	0xbd1d07a2	-0.038337357
61	0x3cf78382	0.030214075
62	0x3d3f2002	0.046661384
63	0x3da8d363	0.08243444
64	0xbdcd3c24	-0.100212365
65	0xbce85549	-0.02836098
66	0xbda09a4c	-0.0784193
67	0x3d716ad0	0.058939755
68	0x3daa331d	0.0831053
69	0x3d69ba04	0.057062164
70	0xbd871be6	-0.06597118
71	0x3c4bbfc4	0.012435857
72	0x3db47cca	0.08812864
73	0x3dbe1033	0.092804335
74	0x3d11894d	0.03553133
75	0xbdefb465	-0.117043294
76	0xbcbab6a4	-0.022792168
77	0x3d34fa10	0.04418379
78	0x3d6a89f3	0.057260465
79	0x3d8ca212	0.0686685
80	0x3d9bb432	0.07602729
81	0xbd67d882	-0.056602962
82	0x3dc6095c	0.09669754
83	0x3d461301	0.048357967
84	0x3dd7caa7	0.105367
85	0xbd8333e4	-0.06406382
86	0x3e092e3a	0.1339654
87	0x3d83236b	0.0640324
88	0x3d0645ef	0.032781538
89	0xbd996010	-0.074890256
90	0xbd8abd66	-0.06774406
91	0xbda1749e	-0.07883571
92	0x3d41b0ef	0.047287878
93	0x3d4137ac	0.047172233
94	0x3c5baabc	0.0134074055
95	0xbdac9092	-0.08426012
96	0x3d87e6b2	0.066357985
97	0x3d1a6157	0.037690487
98	0x3da72e60	0.08163142
99	0x3d53d23d	0.05171417
100	0x3b0cf09e	0.0021505724
101	0x3db0b354	0.08627954
102	0xbb66d552	-0.0035222364
103	0x3ddcca07	0.10780721
104	0x3d8624c9	0.06549985
105	0xbcdca5c1	-0.026934506
106	0x3d9ae21d	0.07562659
107	0x3e00c84a	0.12576404
108	0xbd0e69ec	-0.034768984
109	0x3d7c7b29	0.061640892
110	0x3d118c44	0.03553416
111	0x3c490ebf	0.012271582
112	0xbda6d7ad	-0.08146606
113	0xbd831b08	-0.0640164
114	0x3e0f801b	0.14013712
115	0x3de4ad82	0.111659065
116	0xbd946267	-0.07245331
117	0xbd9dc95d	-0.077044226
118	0xbdc95e23	-0.09832408
119	0xbddd5ed1	-0.108091004
120	0x3dbd707b	0.092499696
121	0x3bd0d862	0.006373451
122	0x3da3838b	0.07984074
123	0x3dddf1d5	0.108371414
124	0xbd387b73	-0.045039605
125	0xbd95d6cb	-0.07316359
126	0x3b5b9194	0.003350352
127	0x3dfa6915	0.12227074
128	0x3daf63c2	0.08563949
129	0x3da77e81	0.081784256
130	0xbdb42216	-0.08795564
131	0xbdf20d14	-0.11818901
132	0xbdfe85a4	-0.12427834
133	0x3c2d1aa0	0.01056543
134	0xbdfedc82	-0.12444402
135	0xbda7314c	-0.081636995
136	0xbde7c94c	-0.11317691
137	0x3d44e220	0.048067212
138	0xbdb45a6c	-0.08806309
139	0x3dc795d0	0.09745371
140	0xbdf8f695	-0.12156407
141	0x3d9cb720	0.07652116
142	0xbd47e628	-0.04880348
143	0x3df8fa4c	0.12157115
144	0xbdf12b74	-0.11775866
145	0x3d6c3288	0.057665378
146	0xbd645405	-0.05574419
147	0x3dc88e7c	0.09792802
148	0xbbc95f12	-0.0061453665
149	0x3dae3fbc	0.0850825
150	0xbd521d9b	-0.051297765
151	0x3dc6d2d6	0.097081825
152	0x3c53a020	0.012916595
153	0x3dbc6532	0.09198989
154	0x3c21c4d2	0.009873586
155	0x3bf37bc1	0.007430524
156	0x3df90cc0	0.12160635
157	0x3d21ea58	0.03953013
158	0xbdaab6ee	-0.08335672
159	0x3d2e6fa8	0.042586952
160	0x3de2eb08	0.11079985
161	0xbd2fef00	-0.042952538
162	0xbde021b8	-0.10943931
163	0xbd64bbcd	-0.055843163
164	0xbdfff3f4	-0.12497702
165	0x3d7e5f18	0.062102407
166	0x3d4a6448	0.049412042
167	0x3db10fd4	0.08645597
168	0xbd1c6e30	-0.03819102
169	0x3d3807e0	0.044929385
170	0x3d9b5c75	0.07585994
171	0x3b54f41d	0.0032494136
172	0x3d636f9e	0.05552637
173	0xbda3d855	-0.080002464
174	0x3d57c0d0	0.052674115
175	0xbce62e20	-0.028098166
176	0x3cb54680	0.022128344
177	0xbbe10c66	-0.006867933
178	0x3d27491e	0.040841214
179	0xbd502810	-0.050819457
180	0x3a1c0fe6	0.0005953297
181	0x3db6aece	0.0892006
182	0xbdc35bb0	-0.095389724
183	0x3d81ee42	0.06344272
184	0xbccf6ca0	-0.025320351
185	0xbdc0e1a5	-0.09418038
186	0xbd5426e1	-0.05179489
187	0xbde5a2b5	-0.112126745
188	0xbc14aac4	-0.009073917
189	0xbc6973a0	-0.014248759
190	0xbdffa77c	-0.12483117
191	0xbd7befd0	-0.061508
192	0xbd5707b5	-0.052497584
193	0xbd95f3b6	-0.07321875
194	0xbd0b7158	-0.03404364
195	0xbdf6d9fd	-0.12053297
196	0xbcf451aa	-0.029824097
197	0x3ccf1073	0.025276398
198	0xbd1eb853	-0.038750004
199	0x3dd2f923	0.10301425
200	0xbb694d00	-0.0035598874
201	0xbc501de0	-0.012702435
202	0xbddd0818	-0.107925594
203	0xbc0f9a60	-0.008764833
204	0x3c1c070c	0.0095231645
205	0x3bd3675f	0.006451532
206	0xbc8d7e03	-0.017272001
207	0x3d0dcb40	0.034617662
208	0x3df49112	0.119417325
209	0x3dfaec23	0.12252071
210	0x3c9e2e66	0.019309234
211	0x3d9e171e	0.07719253
212	0xbde1c411	-0.11023725
213	0xbbc1bb4f	-0.0059122215
214	0x3d1bd767	0.03804722
215	0xbdc6ee95	-0.09713475
216	0xbd3f2377	-0.04666468
217	0xbda36169	-0.07977564
218	0xbd45a865	-0.048256297
219	0xbd980a9d	-0.07423899
220	0xbc00ed5a	-0.007869089
221	0x3c5dee20	0.013545543
222	0x3d1ae195	0.037812788
223	0xbcddc8c1	-0.027073266
224	0x3de28a7c	0.1106157
225	0xbc6daac0	-0.014506042
226	0xbd6f5c95	-0.058437902
227	0xbd846f65	-0.06466559
228	0xbdc89b99	-0.09795303
229	0x3de49012	0.11160292
230	0x3df7b864	0.120957166
231	0x3d55793d	0.052117575
232	0x3d49e418	0.049289793
233	0xbc546380	-0.012963176
234	0xbde1c9c3	-0.11024811
235	0x3d808316	0.06275003
236	0xbd343844	-0.04399897
237	0xbb76cb34	-0.003765774
238	0x3dfb2b3c	0.12264106
239	0xbdef947c	-0.11698243
240	0x3dca896f	0.09889495
241	0x3dbeda42	0.09318973
242	0x3ddc0359	0.10742826
243	0x3cfcc26d	0.030854428
244	0xbd5d2f4f	-0.054000195
245	0x3df7b3a8	0.120948136
246	0x3df8eedc	0.12154934
247	0x3c7ec59f	0.015550046
248	0x3c907299	0.01763277
249	0x3dd8f8a6	0.10594301
250	0xbd50366c	-0.05083315
251	0xbdcc2386	-0.09967713
252	0xbdf8be4d	-0.12145672
253	0xbc154180	-0.009109855
254	0xbd955868	-0.07292253
255	0xbd7528f0	-0.059853494
