kernel_vs_latency/cnn_gray_32_k4_quant.tflite (tflite, 18752 bytes, 3 tensors)

sequential/dense/MatMul i1 [2, 1600] scale=0.0007480829 zero_point=0
0.04413689 -0.014213575 0.034411814 -0.06059471 -0.042640723 -0.0022442485 -0.037404142 0.014213575
-0.06433513 0.053113885 -0.017205907 0.05386197 -0.0568543 0.055358134 0.022442486 0.042640723
0.052365802 0.038152225 0.053113885 0.042640723 -0.02842715 -0.06059471 0.030671397 0.011969326
-0.014961658 -0.03665606 0.02319057 -0.012717409 -0.032915648 -0.058350466 -0.062838964 0.019450154
-0.042640723 -0.037404142 0.029175233 -0.05461005 -0.0029923315 -0.04189264 -0.009725077 -0.04189264
0.03366373 0.030671397 0.011221243 -0.0568543 -0.053113885 -0.065831296 -0.04638114 -0.0022442485
0.050869636 -0.02319057 0.043388806 -0.041144557 0.025434818 -0.032167565 -0.0007480829 -0.053113885
0.015709741 0.042640723 -0.03665606 -0.020198237 -0.03366373 -0.032915648 -0.0037404145 -0.0568543
0.0029923315 -0.00523658 0.014213575 0.0 -0.014961658 0.030671397 0.04937347 0.021694403
-0.011221243 -0.04638114 0.029923316 0.045633055 0.029175233 0.014961658 -0.044884972 0.006732746
0.041144557 0.023938652 0.011969326 -0.008228912 -0.03964839 0.04413689 0.004488497 -0.022442486
0.030671397 0.020198237 -0.053113885 -0.024686735 0.015709741 -0.004488497 -0.04937347 -0.026930984
0.004488497 0.023938652 0.035907976 -0.059846632 -0.0014961658 -0.065831296 -0.043388806 0.032167565
-0.044884972 -0.017953988 -0.014213575 -0.024686735 -0.03665606 -0.021694403 -0.0568543 0.026182901
-0.03665606 0.043388806 -0.02094632 0.050121553 -0.00523658 0.048625387 -0.04189264 0.032915648
-0.059846632 -0.03366373 0.034411814 0.017205907 -0.018702071 -0.011969326 -0.029175233 -0.03964839
-0.023938652 -0.026182901 -0.008228912 0.026930984 -0.0014961658 0.03964839 -0.04638114 0.0
0.0007480829 -0.0037404145 -0.029175233 0.035159897 -0.059846632 -0.020198237 -0.008976994 0.055358134
0.055358134 0.05909855 0.0022442485 0.01047316 0.027679067 -0.04712922 0.025434818 -0.004488497
0.005984663 -0.025434818 -0.055358134 -0.00523658 -0.032167565 0.05461005 0.035907976 -0.031419482
-0.034411814 -0.026182901 0.022442486 0.047877304 -0.014961658 -0.013465492 0.062838964 0.004488497
0.026182901 -0.035159897 0.0029923315 -0.048625387 0.008976994 -0.04189264 -0.038152225 0.0014961658
-0.038152225 -0.005984663 0.02842715 0.009725077 -0.03964839 0.06059471 0.037404142 -0.032915648
0.014213575 0.0022442485 -0.06059471 -0.029175233 -0.04189264 0.0568543 0.012717409 0.04712922
0.04189264 -0.032167565 0.02094632 0.05386197 -0.06059471 0.053113885 -0.043388806 0.04712922
0.040396474 0.05461005 -0.061342794 -0.06059471 -0.0037404145 0.018702071 -0.022442486 -0.011221243
-0.047877304 0.041144557 0.0014961658 0.030671397 -0.015709741 0.018702071 -0.056106217 -0.032915648
-0.026930984 -0.011221243 -0.011221243 -0.00523658 0.02094632 0.0 0.0029923315 -0.057602383
0.035907976 -0.006732746 -0.050869636 -0.034411814 0.029923316 0.020198237 0.07181595 0.029175233
-0.03366373 -0.041144557 0.03665606 -0.0029923315 0.004488497 -0.029175233 -0.017205907 -0.024686735
-0.005984663 -0.06657938 -0.062090877 0.029923316 0.008228912 -0.008976994 -0.008976994 0.0029923315
0.04189264 0.025434818 0.019450154 0.041144557 -0.029175233 0.03665606 0.008976994 0.032915648
00000000: 3bed 2eaf c7fd ce13 aa47 e948 b44a 1e39
00000010: 4633 4739 daaf 2910 eccf 1fef d4b2 ac1a
00000020: c7ce 27b7 fcc8 f3c8 2d29 0fb4 b9a8 c2fd
00000030: 44e1 3ac9 22d5 ffb9 1539 cfe5 d3d4 fbb4
00000040: 04f9 1300 ec29 421d f1c2 283d 2714 c409
00000050: 3720 10f5 cb3b 06e2 291b b9df 15fa bedc
00000060: 0620 30b0 fea8 c62b c4e8 eddf cfe3 b423
00000070: cf3a e443 f941 c82c b0d3 2e17 e7f0 d9cb
00000080: e0dd f524 fe35 c200 01fb d92f b0e5 f44a
00000090: 4a4f 030e 25c1 22fa 08de b6f9 d549 30d6
000000a0: d2dd 1e40 ecee 5406 23d1 04bf 0cc8 cd02
000000b0: cdf8 260d cb51 32d4 1303 afd9 c84c 113f
000000c0: 38d5 1c48 af47 c63f 3649 aeaf fb19 e2f1
000000d0: c037 0229 eb19 b5d4 dcf1 f1f9 1c00 04b3
000000e0: 30f7 bcd2 281b 6027 d3c9 31fc 06d9 e9df
000000f0: f8a7 ad28 0bf4 f404 3822 1a37 d931 0c2c

sequential/conv2d/Conv2D i1 [32, 4, 4, 1]
49 -60 127 -95 5 -101 -33 -32
38 107 -1 1 40 -60 45 -62
-16 -24 -61 89 11 -127 -25 -54
87 14 109 -69 69 27 41 -85
36 -70 110 -56 -31 -36 -81 123
40 -77 -1 -65 100 127 -2 -24
110 4 -49 101 -20 39 -49 -31
-76 -127 -16 12 77 20 86 107
91 -4 -110 75 102 -48 74 -58
109 -84 -54 -48 115 -127 -69 -10
127 49 24 38 -67 -88 -95 99
94 -106 -91 -100 -31 -74 -103 58
32 43 -101 127 90 22 -125 90
-99 -88 14 23 79 43 21 -5
-31 -61 3 -65 127 -30 78 98
-73 -69 -111 43 -2 -82 103 -111
127 -51 -45 31 -109 34 -108 -4
96 -52 -85 -76 93 -98 -82 -80
-55 -127 24 -36 108 88 -113 -112
-124 60 49 126 102 102 -94 -126
-56 127 77 72 -71 -1 88 -60
-126 23 20 -93 -26 -28 118 -53
-28 -45 -123 -103 -31 72 43 -56
-66 78 -122 127 -106 -63 82 79
-127 -25 -4 -62 20 -15 48 -27
122 -104 -70 -82 120 10 113 62
36 75 90 112 127 28 -97 97
-36 -88 -60 58 -69 -87 -106 74
80 -11 103 -79 -76 -32 127 -61
-17 -111 -25 -71 21 -79 -84 -7
-3 88 -36 -52 -58 -100 -83 -71
-50 -72 51 -95 -45 127 34 -44
00000000: 31c4 7fa1 059b dfe0 266b ff01 28c4 2dc2
00000010: f0e8 c359 0b81 e7ca 570e 6dbb 451b 29ab
00000020: 24ba 6ec8 e1dc af7b 28b3 ffbf 647f fee8
00000030: 6e04 cf65 ec27 cfe1 b481 f00c 4d14 566b
00000040: 5bfc 924b 66d0 4ac6 6dac cad0 7381 bbf6
00000050: 7f31 1826 bda8 a163 5e96 a59c e1b6 993a
00000060: 202b 9b7f 5a16 835a 9da8 0e17 4f2b 15fb
00000070: e1c3 03bf 7fe2 4e62 b7bb 912b feae 6791
00000080: 7fcd d31f 9322 94fc 60cc abb4 5d9e aeb0
00000090: c981 18dc 6c58 8f90 843c 317e 6666 a282
000000a0: c87f 4d48 b9ff 58c4 8217 14a3 e6e4 76cb
000000b0: e4d3 8599 e148 2bc8 be4e 867f 96c1 524f
000000c0: 81e7 fcc2 14f1 30e5 7a98 baae 780a 713e
000000d0: 244b 5a70 7f1c 9f61 dca8 c43a bba9 964a
000000e0: 50f5 67b1 b4e0 7fc3 ef91 e7b9 15b1 acf9
000000f0: fd58 dccc c69c adb9 ceb8 33a1 d37f 22d4

sequential/conv2d_1/Conv2D i1 [64, 2, 2, 32]
2 -110 -75 -90 28 48 -38 -18
-54 12 26 -101 16 22 71 -4
9 -17 68 -10 -30 -4 37 28
-23 -116 23 96 -88 105 -95 -72
-55 28 -59 -6 15 18 -42 61
79 42 105 -81 -44 101 39 89
94 -30 112 95 -85 25 -43 69
-82 97 53 -58 -35 27 42 75
-91 -26 -71 53 75 52 -60 11
80 84 32 -106 -21 40 52 62
69 -51 88 44 95 -58 121 58
30 -68 -61 -71 43 43 12 -76
60 34 74 47 2 78 -3 98
59 -24 69 114 -32 56 32 11
-74 -58 127 101 -66 -70 -89 -98
84 6 72 98 -41 -66 3 111
87 83 -89 -120 -126 11 -126 -83
-115 49 -89 99 -124 78 -50 124
-120 59 -57 100 -6 86 -52 99
13 93 10 8 124 40 -85 43
113 -44 -111 -57 -127 63 50 88
-39 46 77 3 56 -81 54 -29
22 -7 42 -52 1 91 -97 64
-26 -96 -53 -114 -9 -14 -127 -63
-53 -74 -35 -122 -30 26 -39 105
-4 -13 -110 -9 10 7 -18 35
121 125 20 78 -112 -6 39 -99
-47 -81 -49 -75 -8 14 38 -28
112 -15 -59 -66 -100 113 123 53
50 -13 -112 64 -45 -4 125 -119
100 95 109 31 -55 123 124 16
18 108 -52 -101 -123 -9 -74 -61
00000000: 0292 b5a6 1c30 daee ca0c 1a9b 1016 47fc
00000010: 09ef 44f6 e2fc 251c e98c 1760 a869 a1b8
00000020: c91c c5fa 0f12 d63d 4f2a 69af d465 2759
00000030: 5ee2 705f ab19 d545 ae61 35c6 dd1b 2a4b
00000040: a5e6 b935 4b34 c40b 5054 2096 eb28 343e
00000050: 45cd 582c 5fc6 793a 1ebc c3b9 2b2b 0cb4
00000060: 3c22 4a2f 024e fd62 3be8 4572 e038 200b
00000070: b6c6 7f65 beba a79e 5406 4862 d7be 036f
00000080: 5753 a788 820b 82ad 8d31 a763 844e ce7c
00000090: 883b c764 fa56 cc63 0d5d 0a08 7c28 ab2b
000000a0: 71d4 91c7 813f 3258 d92e 4d03 38af 36e3
000000b0: 16f9 2acc 015b 9f40 e6a0 cb8e f7f2 81c1
000000c0: cbb6 dd86 e21a d969 fcf3 92f7 0a07 ee23
000000d0: 797d 144e 90fa 279d d1af cfb5 f80e 26e4
000000e0: 70f1 c5be 9c71 7b35 32f3 9040 d3fc 7d89
000000f0: 645f 6d1f c97b 7c10 126c cc9b 85f7 b6c3
