kernel_vs_latency/cnn_gray_32_k1_quant.tflite (tflite, 18272 bytes, 3 tensors)

sequential/dense/MatMul i1 [2, 1600] scale=0.0007231224 zero_point=0
00000000: ac27 391c 1ba8 be04 faea c832 1f1d 2b23
00000010: 15b6 3918 e6d7 cc16 3bba f0c5 d14a f251
00000020: e9df c9fb c3ee e5ed def0 2fe1 e035 cbc3
00000030: d313 ef0e e7cd 0cff f239 44b1 1322 d5d5
00000040: 1d32 b8cd 0c4c 2fd0 dd1b fb1b 16e8 ec35
00000050: e82f 1eed ddf7 1908 20de 6042 c5dd 1c54
00000060: 2aa3 f504 35b3 21f6 fff8 fbff edb5 eefb
00000070: b21f c1b1 d92b 07b0 3c22 4417 2fdf 4a3b
00000080: fe3f 4b51 c944 a64d 1923 ef28 c225 1ece
00000090: e6f7 f659 50b8 2713 31e3 38e7 ba11 1a13
000000a0: b8be b0b6 c4f0 e4b3 dcb3 e4d0 3cae 24f3
000000b0: f1f1 21d9 c233 18bb fbe7 0e6b bd48 c2c0
000000c0: c06b e444 dceb e107 3d1f f9eb 3f17 ebb8
000000d0: ce28 2e50 b6e5 0ab4 4a17 0ed6 47c4 dfee
000000e0: 22c3 3cd3 be32 bbd1 3ecb f6cf 0818 2f1b
000000f0: b699 e551 f707 3df8 2cdd 1c27 189e 43fb
-0.06074228 0.028201774 0.041217975 0.020247426 0.019524304 -0.06363477 -0.047726076 0.0028924895
-0.0043387343 -0.015908692 -0.04049485 0.036156118 0.022416795 0.02097055 0.031094262 0.025309283
0.01518557 -0.053511057 0.041217975 0.017354937 -0.018801183 -0.029648017 -0.037602365 0.015908692
0.042664222 -0.050618567 -0.011569958 -0.042664222 -0.03398675 0.053511057 -0.010123713 0.058572914
-0.016631816 -0.023863038 -0.039771732 -0.003615612 -0.044110466 -0.013016203 -0.019524304 -0.013739325
-0.024586162 -0.011569958 0.03398675 -0.022416795 -0.023139916 0.038325485 -0.038325485 -0.044110466
-0.032540508 0.013739325 -0.012293081 0.010123713 -0.018078059 -0.03687924 0.008677469 -0.0007231224
-0.010123713 0.041217975 0.049172323 -0.057126667 0.013739325 0.024586162 -0.031094262 -0.031094262
0.02097055 0.036156118 -0.052064814 -0.03687924 0.008677469 0.0549573 0.03398675 -0.034709875
-0.025309283 0.019524304 -0.003615612 0.019524304 0.015908692 -0.017354937 -0.014462448 0.038325485
-0.017354937 0.03398675 0.021693671 -0.013739325 -0.025309283 -0.0065081017 0.018078059 0.005784979
0.023139916 -0.024586162 0.06941975 0.047726076 -0.042664222 -0.025309283 0.020247426 0.06074228
0.03037114 -0.06725038 -0.007954346 0.0028924895 0.038325485 -0.055680424 0.023863038 -0.007231224
-0.0007231224 -0.005784979 -0.003615612 -0.0007231224 -0.013739325 -0.05423418 -0.013016203 -0.003615612
-0.056403548 0.022416795 -0.04555671 -0.057126667 -0.028201774 0.031094262 0.0050618565 -0.05784979
0.043387342 0.024586162 0.049172323 0.016631816 0.03398675 -0.023863038 0.053511057 0.042664222
-0.0014462448 0.04555671 0.05423418 0.058572914 -0.039771732 0.049172323 -0.065081015 0.055680424
0.018078059 0.025309283 -0.012293081 0.028924895 -0.04483359 0.026755529 0.021693671 -0.036156118
-0.018801183 -0.0065081017 -0.007231224 0.06435789 0.05784979 -0.052064814 0.028201774 0.013739325
0.035432998 -0.02097055 0.04049485 -0.018078059 -0.050618567 0.012293081 0.018801183 0.013739325
-0.052064814 -0.047726076 -0.05784979 -0.053511057 -0.043387342 -0.011569958 -0.020247426 -0.055680424
-0.026032407 -0.055680424 -0.020247426 -0.034709875 0.043387342 -0.059296034 0.026032407 -0.009400591
-0.010846836 -0.010846836 0.023863038 -0.028201774 -0.04483359 0.03687924 0.017354937 -0.049895443
-0.003615612 -0.018078059 0.010123713 0.07737409 -0.0484492 0.052064814 -0.04483359 -0.046279833
-0.046279833 0.07737409 -0.020247426 0.049172323 -0.026032407 -0.01518557 -0.022416795 0.0050618565
0.044110466 0.022416795 -0.0050618565 -0.01518557 0.04555671 0.016631816 -0.01518557 -0.052064814
-0.036156118 0.028924895 0.03326363 0.05784979 -0.053511057 -0.019524304 0.007231224 -0.0549573
0.053511057 0.016631816 0.010123713 -0.03037114 0.05134169 -0.043387342 -0.023863038 -0.013016203
0.024586162 -0.044110466 0.043387342 -0.032540508 -0.047726076 0.036156118 -0.049895443 -0.03398675
0.04483359 -0.038325485 -0.007231224 -0.035432998 0.005784979 0.017354937 0.03398675 0.019524304
-0.053511057 -0.07448161 -0.019524304 0.058572914 -0.0065081017 0.0050618565 0.044110466 -0.005784979
0.031817384 -0.025309283 0.020247426 0.028201774 0.017354937 -0.070865996 0.0484492 -0.003615612

sequential/conv2d/Conv2D i1 [32, 1, 1, 1]
00000000: 817f 7f7f 817f 817f 7f81 817f 817f 8181
00000010: 817f 8181 7f7f 7f81 7f7f 817f 7f81 7f81
-127 127 127 127 -127 127 -127 127
127 -127 -127 127 -127 127 -127 -127
-127 127 -127 -127 127 127 127 -127
127 127 -127 127 127 -127 127 -127

sequential/conv2d_1/Conv2D i1 [64, 2, 2, 32]
00000000: f53f 16f6 1d87 432d 4c12 bf6b bacc 979a
00000010: 08c7 b488 77a4 294d 692b b1f0 14a1 8da8
00000020: 2a56 79c0 e554 0ccf eadb 0f58 b9e6 ea24
00000030: d164 c8c1 51c2 a085 2822 1535 2f69 f8be
00000040: c758 a9e8 cae6 200c 0eb9 db19 33dc 56bd
00000050: ea13 2e2e d4f8 42dd 4db8 42dc 810d ca41
00000060: db55 188f 3595 a8e7 0f42 ce71 909d c103
00000070: 4419 152c c9d1 e05d 4714 7d27 91c1 af8e
00000080: 7dd4 e6ce 5ae1 0e51 97af e12a bbc6 6698
00000090: 04f1 3d49 8348 3050 5585 6ecb d8b6 2e98
000000a0: 6faf 4a76 54e5 24e2 3b9f 926e 7e99 a079
000000b0: 1b5b 9271 4b71 1f55 f42e 9bc5 3a2c dbfa
000000c0: 440e e627 d993 fee7 9e2e 17fc 92af f0ba
000000d0: fe9f 54f7 5879 48b5 4781 b86b 1633 13a1
000000e0: 9dc9 d8f1 ee0c b6c0 ea3b 3786 5332 1e7c
000000f0: 0f4d 4f82 de05 ba07 a1da 9338 d60b 8541
-11 63 22 -10 29 -121 67 45
76 18 -65 107 -70 -52 -105 -102
8 -57 -76 -120 119 -92 41 77
105 43 -79 -16 20 -95 -115 -88
42 86 121 -64 -27 84 12 -49
-22 -37 15 88 -71 -26 -22 36
-47 100 -56 -63 81 -62 -96 -123
40 34 21 53 47 105 -8 -66
-57 88 -87 -24 -54 -26 32 12
14 -71 -37 25 51 -36 86 -67
-22 19 46 46 -44 -8 66 -35
77 -72 66 -36 -127 13 -54 65
-37 85 24 -113 53 -107 -88 -25
15 66 -50 113 -112 -99 -63 3
68 25 21 44 -55 -47 -32 93
71 20 125 39 -111 -63 -81 -114
125 -44 -26 -50 90 -31 14 81
-105 -81 -31 42 -69 -58 102 -104
4 -15 61 73 -125 72 48 80
85 -123 110 -53 -40 -74 46 -104
111 -81 74 118 84 -27 36 -30
59 -97 -110 110 126 -103 -96 121
27 91 -110 113 75 113 31 85
-12 46 -101 -59 58 44 -37 -6
68 14 -26 39 -39 -109 -2 -25
-98 46 23 -4 -110 -81 -16 -70
-2 -97 84 -9 88 121 72 -75
71 -127 -72 107 22 51 19 -95
-99 -55 -40 -15 -18 12 -74 -64
-22 59 55 -122 83 50 30 124
15 77 79 -126 -34 5 -70 7
-95 -38 -109 56 -42 11 -123 65
