kernel_vs_latency/dnn_gray_32_k3_quant.tflite (tflite, 211552 bytes, 6 tensors)

sequential/dense/MatMul i1 [512, 256] scale=0.0009201985 zero_point=0
00000000: 1c2d b443 ee34 0ad3 b9c4 0d22 5e62 01ed
00000010: dfb0 cc26 e2c9 c549 bf17 3c27 2ac3 fb33
00000020: 3ca9 5bcd eff1 ede0 bbc8 5cf6 e7e0 ff45
00000030: 4000 5aaa 1305 58a5 ee10 e830 f25e 1727
00000040: e5bf 15ba 06ec fdd7 40b0 1c16 01cb e308
00000050: e3f7 a34c eb54 2aa1 2555 c347 c939 d1fa
00000060: f0c9 d503 c4df 3657 be1c 2aad d5b5 a5da
00000070: 4c2e fbe6 fdfd 0d62 5a42 4352 0d0d a220
00000080: 20a8 1ae0 3d40 52fb af42 96dc cd4f 3448
00000090: 3dad 0033 0df4 b2e2 d2d5 32e3 090a b9f9
000000a0: c2e3 163a d200 0530 54c8 b4d8 b2c8 f5ea
000000b0: b23a 252a ca43 1d3e 14ae 173d 39be 25b1
000000c0: 54d2 46ec 6547 f5e6 fc13 25c5 14f5 dfbf
000000d0: 3d0b 13b0 58ba bbb8 4907 de2c 59d7 c099
000000e0: 0d2e 5452 b2b7 4bf5 4ffb c2c5 dc17 ff46
000000f0: 32c5 9511 a757 e2aa 5807 54d7 c94e a219
0.025765559 0.041408934 -0.06993508 0.0616533 -0.016563574 0.047850322 0.009201985 -0.041408934
-0.0653341 -0.05521191 0.0119625805 0.03128675 0.08649866 0.09017945 0.0009201985 -0.01748377
-0.030366551 -0.07361588 -0.047850322 0.03496754 -0.027605955 -0.05061092 -0.05429171 0.067174494
-0.059812903 0.021164566 0.05521191 0.03588774 0.038648337 -0.056132108 -0.0046009924 0.046930123
0.05521191 -0.08005727 0.083738066 -0.046930123 -0.015643375 -0.013802977 -0.01748377 -0.029446352
-0.0634937 -0.051531117 0.084658265 -0.009201985 -0.023004962 -0.029446352 -0.0009201985 0.0634937
0.058892705 0.0 0.08281787 -0.07913707 0.01748377 0.0046009924 0.08097747 -0.083738066
-0.016563574 0.014723176 -0.022084765 0.04416953 -0.012882779 0.08649866 0.021164566 0.03588774
-0.02484536 -0.059812903 0.019324169 -0.0644139 0.0055211913 -0.01840397 -0.0027605956 -0.03772814
0.058892705 -0.07361588 0.025765559 0.020244367 0.0009201985 -0.04877052 -0.026685758 0.007361588
-0.026685758 -0.008281787 -0.085578464 0.06993508 -0.019324169 0.077296674 0.038648337 -0.08741886
0.034047347 0.07821687 -0.056132108 0.0653341 -0.05061092 0.052451316 -0.04324933 -0.0055211913
-0.014723176 -0.05061092 -0.039568536 0.0027605956 -0.05521191 -0.030366551 0.04969072 0.08005727
-0.060733102 0.025765559 0.038648337 -0.076376475 -0.039568536 -0.069014885 -0.083738066 -0.03496754
0.06993508 0.042329133 -0.0046009924 -0.023925161 -0.0027605956 -0.0027605956 0.0119625805 0.09017945
0.08281787 0.060733102 0.0616533 0.07545628 0.0119625805 0.0119625805 -0.08649866 0.029446352
0.029446352 -0.08097747 0.023925161 -0.029446352 0.056132108 0.058892705 0.07545628 -0.0046009924
-0.07453608 0.060733102 -0.09754104 -0.033127148 -0.046930123 0.07269568 0.047850322 0.066254295
0.056132108 -0.076376475 0.0 0.046930123 0.0119625805 -0.011042383 -0.07177548 -0.027605955
-0.042329133 -0.039568536 0.046009924 -0.026685758 0.008281787 0.009201985 -0.0653341 -0.0064413897
-0.057052307 -0.026685758 0.020244367 0.053371515 -0.042329133 0.0 0.0046009924 0.04416953
0.077296674 -0.051531117 -0.06993508 -0.03680794 -0.07177548 -0.051531117 -0.010122184 -0.020244367
-0.07177548 0.053371515 0.034047347 0.038648337 -0.04969072 0.0616533 0.026685758 0.057052307
0.01840397 -0.07545628 0.021164566 0.056132108 0.052451316 -0.060733102 0.034047347 -0.07269568
0.077296674 -0.042329133 0.0644139 -0.01840397 0.09294005 0.0653341 -0.010122184 -0.023925161
-0.003680794 0.01748377 0.034047347 -0.05429171 0.01840397 -0.010122184 -0.030366551 -0.059812903
0.056132108 0.010122184 0.01748377 -0.07361588 0.08097747 -0.0644139 -0.0634937 -0.066254295
0.067174494 0.0064413897 -0.03128675 0.040488735 0.08189767 -0.03772814 -0.058892705 -0.094780445
0.0119625805 0.042329133 0.077296674 0.07545628 -0.07177548 -0.067174494 0.069014885 -0.010122184
0.07269568 -0.0046009924 -0.057052307 -0.05429171 -0.033127148 0.021164566 -0.0009201985 0.0644139
0.046009924 -0.05429171 -0.09846124 0.015643375 -0.08189767 0.08005727 -0.027605955 -0.07913707
0.08097747 0.0064413897 0.077296674 -0.03772814 -0.05061092 0.07177548 -0.08649866 0.023004962

sequential/dense_1/MatMul i1 [2, 512] scale=0.0009286474 zero_point=0
00000000: 9912 f403 6737 adad 2bc7 6370 b1fb f01b
00000010: f5a7 7a23 f836 fc3b ce40 9237 8ed1 e455
00000020: f335 0c5d fc90 caa0 f92b 1ec9 11a2 59bc
00000030: eec9 0fe9 e823 d02d 1a9d e09a ad47 8e0a
00000040: c7c4 244d d091 10e2 9d0e 0f1a 6c56 9461
00000050: 37f6 0e55 f619 982b 66e4 123a d943 379d
00000060: c4c0 e12d 9ef5 fc1b 231d 3090 4aea 0532
00000070: 26ce 969c d142 e5c6 cde9 26b5 1935 a056
00000080: a03c da32 a35d 1d64 a9a2 6709 321b e5a9
00000090: 56d7 1360 5f1e 352b b1e0 1e26 3f94 5c44
000000a0: 2228 6e5d 9af6 409e 68f6 d377 e206 3843
000000b0: b557 0bd0 a2dc 0ad2 3511 ab6b 4cfa 0c5c
000000c0: 653a 228e f542 4d58 dc2c 0b3f 02e2 4ecb
000000d0: 1207 3031 fdd4 d4c8 dce1 34dd 50e0 fb72
000000e0: 1d1f 21ab c041 3c4c 53c3 91df 18aa 5a18
000000f0: 26f0 3b14 1c03 be3a 603c f1d8 bb52 9fa4
-0.09565068 0.016715653 -0.011143769 0.0027859423 0.09565068 0.051075608 -0.07707773 -0.07707773
0.039931837 -0.052932903 0.0919361 0.10400851 -0.07336315 -0.004643237 -0.014858359 0.02507348
-0.010215121 -0.08264962 0.11329498 0.03250266 -0.0074291793 0.05014696 -0.0037145896 0.0547902
-0.046432372 0.059433434 -0.102151215 0.051075608 -0.10586581 -0.04364643 -0.026002128 0.07893503
-0.012072416 0.049218312 0.011143769 0.08636421 -0.0037145896 -0.10400851 -0.05014696 -0.08915015
-0.006500532 0.039931837 0.027859421 -0.051075608 0.015787005 -0.08729286 0.08264962 -0.06314802
-0.016715653 -0.051075608 0.013929711 -0.02135889 -0.022287538 0.03250266 -0.044575077 0.041789133
0.024144832 -0.0919361 -0.029716717 -0.09472203 -0.07707773 0.065933965 -0.10586581 0.009286474
-0.052932903 -0.055718843 0.033431306 0.07150585 -0.044575077 -0.10307986 0.014858359 -0.027859421
-0.0919361 0.013001064 0.013929711 0.024144832 0.10029392 0.079863675 -0.10029392 0.0900788
0.051075608 -0.009286474 0.013001064 0.07893503 -0.009286474 0.023216186 -0.09657933 0.039931837
0.09472203 -0.026002128 0.016715653 0.05386155 -0.03621725 0.062219378 0.051075608 -0.0919361
-0.055718843 -0.059433434 -0.02878807 0.041789133 -0.09100745 -0.010215121 -0.0037145896 0.02507348
0.03250266 0.026930775 0.044575077 -0.10400851 0.06871991 -0.020430243 0.004643237 0.046432372
0.035288602 -0.046432372 -0.098436624 -0.092864744 -0.04364643 0.06129073 -0.02507348 -0.05386155
-0.047361016 -0.02135889 0.035288602 -0.06964856 0.023216186 0.049218312 -0.08915015 0.079863675
-0.08915015 0.055718843 -0.035288602 0.046432372 -0.08636421 0.08636421 0.026930775 0.092864744
-0.08079232 -0.08729286 0.09565068 0.008357827 0.046432372 0.02507348 -0.02507348 -0.08079232
0.079863675 -0.038074546 0.017644301 0.08915015 0.088221505 0.027859421 0.049218312 0.039931837
-0.07336315 -0.029716717 0.027859421 0.035288602 0.058504786 -0.10029392 0.08543556 0.06314802
0.03157401 0.037145898 0.102151215 0.08636421 -0.09472203 -0.009286474 0.059433434 -0.09100745
0.09657933 -0.009286474 -0.041789133 0.11050904 -0.027859421 0.0055718846 0.052004255 0.062219378
-0.06964856 0.08079232 0.010215121 -0.044575077 -0.08729286 -0.033431306 0.009286474 -0.04271778
0.049218312 0.015787005 -0.07893503 0.09936527 0.070577204 -0.0055718846 0.011143769 0.08543556
0.093793385 0.05386155 0.03157401 -0.10586581 -0.010215121 0.06129073 0.07150585 0.08172097
-0.033431306 0.040860485 0.010215121 0.058504786 0.0018572948 -0.027859421 0.0724345 -0.049218312
0.016715653 0.006500532 0.044575077 0.045503724 -0.0027859423 -0.040860485 -0.040860485 -0.052004255
-0.033431306 -0.02878807 0.048289664 -0.03250266 0.074291795 -0.029716717 -0.004643237 0.10586581
0.026930775 0.02878807 0.030645365 -0.07893503 -0.059433434 0.060362082 0.055718843 0.070577204
0.07707773 -0.05664749 -0.10307986 -0.030645365 0.022287538 -0.079863675 0.083578266 0.022287538
0.035288602 -0.014858359 0.0547902 0.018572949 0.026002128 0.0027859423 -0.06129073 0.05386155
0.08915015 0.055718843 -0.013929711 -0.037145898 -0.06407667 0.07614909 -0.0900788 -0.08543556

sequential/conv2d/Conv2D i1 [32, 3, 3, 1]
00000000: 0804 7f17 aed2 8aab 7b27 b96b 650d 395b
00000010: 4e7f 3319 7f61 5455 5973 f8fc ef9a feda
00000020: 3147 8581 da7f 32c0 1a91 bcde 7c79 de2c
00000030: 9545 68bf ad7f e7b9 234a 532f b181 af25
00000040: 7e06 8141 9f50 e39d 97cd 02d0 894e bf81
00000050: c5be ea38 6381 32cb 18c5 dbfd 7fa9 ce57
00000060: 1c11 fd88 d549 857f 4afe 4898 4e95 d64c
00000070: 3e66 c88a 7f81 3afc d2c9 859a 6d6a 7ffc
00000080: e564 f6ba 3b56 de48 4f04 f308 d8c1 7f28
00000090: 73da 3a14 1e81 3328 c5ca 3228 5778 16f5
000000a0: 987f 7856 4dc4 2e81 48d6 d428 9191 b27f
000000b0: 7616 07c5 4b8c 977f c540 f3b3 f403 8146
000000c0: 29f0 2573 8b3e cfc2 7bb5 b885 7ff7 97ec
000000d0: f87f 448e a70a 4dbd 7c43 81ce 1167 f5c8
000000e0: bb8d dbea 8116 2123 83d6 3412 62ac 3e81
000000f0: 4dde d399 46e2 2463 9e97 8115 d6b7 a67f
8 4 127 23 -82 -46 -118 -85
123 39 -71 107 101 13 57 91
78 127 51 25 127 97 84 85
89 115 -8 -4 -17 -102 -2 -38
49 71 -123 -127 -38 127 50 -64
26 -111 -68 -34 124 121 -34 44
-107 69 104 -65 -83 127 -25 -71
35 74 83 47 -79 -127 -81 37
126 6 -127 65 -97 80 -29 -99
-105 -51 2 -48 -119 78 -65 -127
-59 -66 -22 56 99 -127 50 -53
24 -59 -37 -3 127 -87 -50 87
28 17 -3 -120 -43 73 -123 127
74 -2 72 -104 78 -107 -42 76
62 102 -56 -118 127 -127 58 -4
-46 -55 -123 -102 109 106 127 -4
-27 100 -10 -70 59 86 -34 72
79 4 -13 8 -40 -63 127 40
115 -38 58 20 30 -127 51 40
-59 -54 50 40 87 120 22 -11
-104 127 120 86 77 -60 46 -127
72 -42 -44 40 -111 -111 -78 127
118 22 7 -59 75 -116 -105 127
-59 64 -13 -77 -12 3 -127 70
41 -16 37 115 -117 62 -49 -62
123 -75 -72 -123 127 -9 -105 -20
-8 127 68 -114 -89 10 77 -67
124 67 -127 -50 17 103 -11 -56
-69 -115 -37 -22 -127 22 33 35
-125 -42 52 18 98 -84 62 -127
77 -34 -45 -103 70 -30 36 99
-98 -105 -127 21 -42 -73 -90 127

sequential/conv2d_1/Conv2D i1 [32, 3, 3, 32]
00000000: 7fea 9a30 b145 1049 6895 e975 241b e95f
00000010: bcc3 4e51 6d36 e463 ddf4 499f f660 4548
00000020: 4297 26dd f7cb acbc 9f55 a14f 0940 574f
00000030: 0b97 e22a 070a 53ca 47a8 ec61 ff6a 5450
00000040: 15f7 3f04 3c47 56d6 d362 991e ff23 2b37
00000050: e8a6 b40b d09b f9bc 71c9 ffb5 61fc e571
00000060: 7a4f 5829 264d 913b 3dd1 d260 c68b c466
00000070: ca41 c1e1 2fd2 2ee6 a70e fa21 b6cd 0b20
00000080: f64e 96e5 0959 903d 4193 d536 2107 dcad
00000090: 22bc 46bd ff0e c0ed 07fd b0ec 9b2b 6221
000000a0: 5d13 4fac 594b 98fd e275 ea14 4b0b d15d
000000b0: c1e8 a502 c320 bd2c caf7 0f1a 9fdf 6618
000000c0: 6291 b29a 1cb3 c6c9 f237 0e69 b5f6 a434
000000d0: 4e59 dd71 a3f3 4df9 3360 eb23 f3dd c013
000000e0: 783f 35a4 41aa b13e a1d6 4810 ed60 0907
000000f0: ef44 1eb5 ced3 68d3 ad23 b04f 3f5e cb57
127 -22 -102 48 -79 69 16 73
104 -107 -23 117 36 27 -23 95
-68 -61 78 81 109 54 -28 99
-35 -12 73 -97 -10 96 69 72
66 -105 38 -35 -9 -53 -84 -68
-97 85 -95 79 9 64 87 79
11 -105 -30 42 7 10 83 -54
71 -88 -20 97 -1 106 84 80
21 -9 63 4 60 71 86 -42
-45 98 -103 30 -1 35 43 55
-24 -90 -76 11 -48 -101 -7 -68
113 -55 -1 -75 97 -4 -27 113
122 79 88 41 38 77 -111 59
61 -47 -46 96 -58 -117 -60 102
-54 65 -63 -31 47 -46 46 -26
-89 14 -6 33 -74 -51 11 32
-10 78 -106 -27 9 89 -112 61
65 -109 -43 54 33 7 -36 -83
34 -68 70 -67 -1 14 -64 -19
7 -3 -80 -20 -101 43 98 33
93 19 79 -84 89 75 -104 -3
-30 117 -22 20 75 11 -47 93
-63 -24 -91 2 -61 32 -67 44
-54 -9 15 26 -97 -33 102 24
98 -111 -78 -102 28 -77 -58 -55
-14 55 14 105 -75 -10 -92 52
78 89 -35 113 -93 -13 77 -7
51 96 -21 35 -13 -35 -64 19
120 63 53 -92 65 -86 -79 62
-95 -42 72 16 -19 96 9 7
-17 68 30 -75 -50 -45 104 -45
-83 35 -80 79 63 94 -53 87

sequential/conv2d_2/Conv2D i1 [64, 3, 3, 32]
00000000: 5a63 dcab c500 42fd c7d9 ad27 460f 3f12
00000010: eaeb 57c7 d7c5 d7e3 0b4b b4ff 0623 e77f
00000020: aac8 ad2b fb3a fcdd 282b a866 d4f5 56ee
00000030: cdba 44ab d1f5 e0d5 49c4 3c2f a30d 66db
00000040: 025c e02e 1c27 1347 e1f9 c5f2 a204 33bf
00000050: bec8 c5e0 19ad 272d c35a 55c1 3a0a 2bc1
00000060: 0115 0537 4f3a e2aa 2e3e 0aab d603 def7
00000070: 1ba6 acad 286c 4d1c 660f b20e 64dd ac3b
00000080: d129 081a 0205 dba4 e03b b3f7 554a 1701
00000090: 20fc ceed bb61 553d 21c0 e4c0 c4c1 605c
000000a0: fe27 4f0d 2b4f a919 2eb3 dc61 3338 4faf
000000b0: ff2a 165b d419 09c7 c5a8 f856 42e9 fe53
000000c0: 5b49 a01d 56d5 e8ae f7e6 0a15 2c0e 4f4d
000000d0: 23cd c0dc f626 b097 4cf2 d6df b2dc 1805
000000e0: 0f31 1cb5 1220 1220 c05e ea22 b3dd 3abf
000000f0: c9e7 b91c dc0a 2e09 fdab 14f1 3510 bf4d
90 99 -36 -85 -59 0 66 -3
-57 -39 -83 39 70 15 63 18
-22 -21 87 -57 -41 -59 -41 -29
11 75 -76 -1 6 35 -25 127
-86 -56 -83 43 -5 58 -4 -35
40 43 -88 102 -44 -11 86 -18
-51 -70 68 -85 -47 -11 -32 -43
73 -60 60 47 -93 13 102 -37
2 92 -32 46 28 39 19 71
-31 -7 -59 -14 -94 4 51 -65
-66 -56 -59 -32 25 -83 39 45
-61 90 85 -63 58 10 43 -63
1 21 5 55 79 58 -30 -86
46 62 10 -85 -42 3 -34 -9
27 -90 -84 -83 40 108 77 28
102 15 -78 14 100 -35 -84 59
-47 41 8 26 2 5 -37 -92
-32 59 -77 -9 85 74 23 1
32 -4 -50 -19 -69 97 85 61
33 -64 -28 -64 -60 -63 96 92
-2 39 79 13 43 79 -87 25
46 -77 -36 97 51 56 79 -81
-1 42 22 91 -44 25 9 -57
-59 -88 -8 86 66 -23 -2 83
91 73 -96 29 86 -43 -24 -82
-9 -26 10 21 44 14 79 77
35 -51 -64 -36 -10 38 -80 -105
76 -14 -42 -33 -78 -36 24 5
15 49 28 -75 18 32 18 32
-64 94 -22 34 -77 -35 58 -65
-55 -25 -71 28 -36 10 46 9
-3 -85 20 -15 53 16 -65 77

sequential/conv2d_3/Conv2D i1 [64, 3, 3, 64]
00000000: 2832 b216 2dbd 4f2a 4947 4927 2dd2 3f59
00000010: e9e7 49b1 d412 211e 344d 12ed 05e8 c5af
00000020: 3f64 cbd2 e65f bf52 dc9f b00a e59a f4fd
00000030: d6aa 26b3 f752 54a5 5ab7 98fb ebd3 c9a1
00000040: 22f3 c131 b33f efbb 9849 17a4 f39e defc
00000050: 194e ff0e a71d b0dc 38f5 f757 4512 f935
00000060: 57fd 0de6 b8f0 5fba e3a1 f8a9 1ea5 d6fa
00000070: 609a 49b1 312a eca9 aeba af1f 0319 0ec5
00000080: 41fd 54f9 e6f3 4872 f813 56bd 4cfb a1a7
00000090: 14c6 c8ce 33ed 4a6c f0e0 42e2 cdf4 4431
000000a0: 4d1d 0523 385e 1c3a 1703 2b3c 100f bb49
000000b0: e056 a0ab f465 3fb1 fd69 55e7 06d1 3aa4
000000c0: 2eb4 2798 5862 2302 4257 2768 0b0f 07cd
000000d0: e327 b9a8 eb99 40bb a25f dd51 b6a9 e9c1
000000e0: 4bd7 2d61 4cb8 d65b eb33 0801 07c0 aff1
000000f0: c427 40b7 e1ae 21c1 c6e5 afc2 4f1b 065f
40 50 -78 22 45 -67 79 42
73 71 73 39 45 -46 63 89
-23 -25 73 -79 -44 18 33 30
52 77 18 -19 5 -24 -59 -81
63 100 -53 -46 -26 95 -65 82
-36 -97 -80 10 -27 -102 -12 -3
-42 -86 38 -77 -9 82 84 -91
90 -73 -104 -5 -21 -45 -55 -95
34 -13 -63 49 -77 63 -17 -69
-104 73 23 -92 -13 -98 -34 -4
25 78 -1 14 -89 29 -80 -36
56 -11 -9 87 69 18 -7 53
87 -3 13 -26 -72 -16 95 -70
-29 -95 -8 -87 30 -91 -42 -6
96 -102 73 -79 49 42 -20 -87
-82 -70 -81 31 3 25 14 -59
65 -3 84 -7 -26 -13 72 114
-8 19 86 -67 76 -5 -95 -89
20 -58 -56 -50 51 -19 74 108
-16 -32 66 -30 -51 -12 68 49
77 29 5 35 56 94 28 58
23 3 43 60 16 15 -69 73
-32 86 -96 -85 -12 101 63 -79
-3 105 85 -25 6 -47 58 -92
46 -76 39 -104 88 98 35 2
66 87 39 104 11 15 7 -51
-29 39 -71 -88 -21 -103 64 -69
-94 95 -35 81 -74 -87 -23 -63
75 -41 45 97 76 -72 -42 91
-21 51 8 1 7 -64 -81 -15
-60 39 64 -73 -31 -82 33 -63
-58 -27 -81 -62 79 27 6 95
