kernel_vs_latency/dnn_gray_32_k3_float.tflite (tflite, 794860 bytes, 12 tensors)

sequential/conv2d/BiasAdd/ReadVariableOp/resource f4 [32]
00000000: ee38 e13c b211 eabc 88bc d6bc b94b 9838
00000010: ec3f babb ee4b f03b eac1 9b3b a1e1 b23c
00000020: 5796 83bb f56e 9b3c 41e7 c43c 5fac c13c
00000030: 0731 193c 255c 9c3b 54bb 94bc 6c3d 9c3b
00000040: 92f6 4bbc 3203 103c d5fd 06bc aec2 b6ba
00000050: bc52 0c3d 884c e9bc 83b6 3d3b 5bd6 f13c
00000060: f19d 653c c908 033c 7b15 b13c e394 3c3c
00000070: f9a4 443c 83e6 763c 4292 dc3c ec27 aa39
0.027492967 -0.02857289 -0.026212946 7.262029e-05 -0.0056838896 0.0073332703 0.004753341 0.021836104
-0.0040157246 0.018973807 0.024036052 0.023641763 0.009350068 0.0047717267 -0.018155731 0.0047680642
-0.012448924 0.008789824 -0.008239229 -0.0013943517 0.03425859 -0.028478876 0.0028947897 0.029521158
0.014014707 0.0079977 0.021616688 0.011510107 0.012002223 0.015069607 0.02692521 0.0003245467

sequential/conv2d_1/BiasAdd/ReadVariableOp/resource f4 [32]
00000000: 37b4 5b3c bb33 5f3c a8ae b13b 4c5b 05bc
00000010: fac1 29bc 02a4 68ba 20db 4fbb 2e23 b5bc
00000020: 12e4 bbbc 7a52 b03c fcfe 6e3c 4df6 c83c
00000030: ea31 833b 2393 da3b ba16 c93c 0000 0000
00000040: 64ad 203c 9d14 cdbc 19d8 973c 0f54 123a
00000050: a42d 40bb b7d2 7d3c d843 2e3b 6680 b6ba
00000060: f64e a53c 6793 bdbc 8e00 90bc ab93 cc3b
00000070: 21c7 ac3c 46ec 743c b447 a03b acb8 ce3c
0.013409666 0.013623173 0.005422432 -0.008139443 -0.010361189 -0.0008874537 -0.0031716302 -0.022111502
-0.0229359 0.021523703 0.01458716 0.024531508 0.004003753 0.006670372 0.02454697 0.0
0.009806965 -0.025034243 0.01853566 0.0005581984 -0.002932408 0.015492133 0.002659073 -0.0013923764
0.020179253 -0.023141576 -0.01757839 0.0062431893 0.021091046 0.01494891 0.00489136 0.025234543

sequential/conv2d_2/BiasAdd/ReadVariableOp/resource f4 [64]
00000000: 57cd 5b3c 33ec 153c aad0 bcbb e876 20bc
00000010: ef35 c1bb 71f0 24bc 6ce7 e13b 4968 5c3b
00000020: 5923 853c 8a5e 9abb eac3 693c 04d0 a83c
00000030: ce75 e5bb edc0 993c 7da7 9bbc 157e 6a3c
00000040: 16d3 57bc f2f8 733c c909 7a3c d148 3a3c
00000050: cdad 573c f28c 42b9 02bb 293b ceb0 153c
00000060: 2758 bfbb 6173 90bc c8d2 283c dddc 6a3a
00000070: 4792 a03a 5dc0 c5bb 57d8 46bc 8ad0 993c
00000080: 98b4 3e3c b674 18bb 10b1 83bc d11d 5cbc
00000090: c3b4 663c 78d1 03bc 16b6 83ba a087 8a3b
000000a0: 2dfd b8ba bcca 773c 2028 25bc 31a9 27bc
000000b0: aec5 ef3b 917b 483c 3332 17ba e84c 653c
000000c0: 5196 383c 3b7a 83bc e60e 483c 8dfc 0fbb
000000d0: de55 a1bc 06f5 94bc 4f05 3a3c 01bc 96bc
000000e0: 0567 83b7 e176 10bc aa28 723c 5f6b d43a
000000f0: b784 99bc a046 0abb 1acd 43bc d03e 943b
0.013415656 0.009150553 -0.0057621794 -0.009793974 -0.005896322 -0.010067091 0.0068940427 0.0033631495
0.016252207 -0.004710977 0.014267901 0.020607002 -0.007002569 0.018768752 -0.019000763 0.014312287
-0.013172885 0.014890896 0.015261122 0.0113699 0.013163996 -0.00018553788 0.002589882 0.009136392
-0.005839366 -0.017633142 0.01030416 0.0008959303 0.0012250625 -0.0060348944 -0.01213654 0.018776197
0.011639737 -0.0023262925 -0.01607564 -0.013434843 0.014081183 -0.008045547 -0.0010048773 0.0042275935
-0.0014113538 0.015124019 -0.010080367 -0.0102332095 0.0073172664 0.012236492 -0.0005767673 0.013995387
0.011266307 -0.016049495 0.012210583 -0.00219706 -0.019694265 -0.018183243 0.011353805 -0.018400194
-1.566439e-05 -0.008817405 0.014780203 0.0016206315 -0.018740041 -0.0021099225 -0.0119507555 0.0045240894

sequential/conv2d_3/BiasAdd/ReadVariableOp/resource f4 [64]
00000000: 48b7 1fbc 4f96 563c 0f0d 0bbc 5f54 ce3b
00000010: 28ac 3abc c72f 97bb 154a db3b 2a6c 4dbc
00000020: b781 44bc 1914 fbbb b48a 70bc a8dd 33bc
00000030: 0289 61ba 8f6a 69bc 207a f73b 75ad fbbb
00000040: d6f6 2b3c e96b c63b f6b7 3d3c b827 47bc
00000050: 9fd1 82bc d184 26bc dcf4 06bb 1535 5dba
00000060: bbfe 313c 8d39 afbb 786a 83bb 9683 153c
00000070: 56c2 41bc 9168 3fbc 6593 0f3b fad1 873b
00000080: 5a1e 92bc d7d1 50bc 7297 123b e184 29bc
00000090: 8d46 4bbc 76f0 35bb 76af d1bb e85b 17bb
000000a0: 1049 2a3a ec99 bd3a 9662 3d3c 17e4 33bc
000000b0: d7bd 5fbb 28df 4ebc a3e3 2bbc 4428 1d3c
000000c0: 621d 5abc d988 0b3c 1dbf 353c 3786 1b3c
000000d0: dec6 5dbc e971 e3bb 30aa 6aba 58d4 22bc
000000e0: ac65 4cbc 3265 5dbc 51a5 8eb9 2a94 c7bb
000000f0: 5b75 b73b ad50 83bc 1166 3abc d2ec 853c
-0.0097482875 0.01309736 -0.008487 0.006296679 -0.011393584 -0.00461385 0.006692181 -0.012537995
-0.011993817 -0.007662308 -0.014681507 -0.01097814 -0.00086034846 -0.014246597 0.0075524 -0.00768059
0.010495862 0.0060553444 0.011579504 -0.012155466 -0.015969096 -0.010163502 -0.0020592725 -0.0008438391
0.010863955 -0.0053474368 -0.004010495 0.009125611 -0.011826118 -0.011682645 0.0021907922 0.004144904
-0.017836738 -0.012745342 0.00223681 -0.010346622 -0.012406957 -0.0027761734 -0.0063990904 -0.0023095552
0.00064958725 0.0014465428 0.011559149 -0.010979674 -0.0034140253 -0.012626447 -0.010491285 0.00959212
-0.0133126695 0.008516514 0.011092928 0.0094924485 -0.013536183 -0.0069410694 -0.00089517515 -0.009938322
-0.012475412 -0.013512896 -0.0002720752 -0.0060906606 0.0055987067 -0.01602968 -0.011376874 0.016348276

sequential/dense/BiasAdd/ReadVariableOp/resource f4 [512]
00000000: d2eb 4bbc c704 58bb 3bf7 833a c221 7dbb
00000010: ece9 3a3c 979c 603b 6b46 04bb 6e48 7dbb
00000020: aad7 4c3c 5322 54bc ee8b 173c 5b60 4c3c
00000030: c88a 103c f42d f2bb 7936 2abc f207 30ba
00000040: f810 38ba 1b8d 0fbc 8e53 1a3c eaa6 8eb9
00000050: aad3 1b3c 3cc0 583c 1fa0 223c 1a92 a83b
00000060: ebd4 fd39 c9da 4a3c 8b19 d2bb 581c 013c
00000070: 5793 49bc a5ae 943c 753b 5239 7adc b73b
00000080: d603 92bb 440d 083c 80eb f23b 3a5a 683c
00000090: bee7 e1bb a735 55bc f39c 62bc 526a c23b
000000a0: f433 a83a 0000 0000 02c4 48bc 006f 52bc
000000b0: ce2e 4bbc aa54 9aba 5acf 783b 7792 9bbb
000000c0: ccef e2bb a5a4 08bb ec93 363c e6ac 173c
000000d0: 0344 1a3c aedd 4a3c c956 d1ba ff12 da3b
000000e0: a81d 4cbb f559 90bc d640 1fbc 0357 dbb9
000000f0: e3c0 55bc b100 5e3c fd56 44bc 3070 283c
00000100: 46b7 20bc b14a 4fbc 976c 383c ae80 863b
00000110: 61de e3bb ab4b 7bb9 8cad b33b 0c27 173c
00000120: 62ae 60bb a54a 013b 54f9 053c 4051 99bb
00000130: 5a22 343c 351f e23a 513a 2fbc 1fc2 2e3c
00000140: 29ea 4d3c 36d5 5fbc 044a f5bb 3fae 8bbc
00000150: 1769 493c c1cf 283c 8c50 08bc fbde 44bc
00000160: 9fdb 133c 67fc 1dbb 8a8b 5d3c 8383 c93a
00000170: bcf7 79bb 2ee9 673b d31f 81bb eef2 d9ba
00000180: 0090 a836 315e 363c 8819 b6bb 5052 3e3c
00000190: 753a c0bb d43c 213c c3cd 173c a6bc 57bc
000001a0: 5d4d d73a 6083 47bc 586f 5f3a eb6d 4ebc
000001b0: 9ec7 04bc be66 383c 9646 393c e28e 4a3c
000001c0: 0265 1e3c 3e6c e6bb cede 7cbb ef13 99bb
000001d0: ce58 28bc 8b2f 313c ad74 ab3b d68f 32bb
000001e0: c731 843c 0000 0000 b7db 293c 3bc1 33bb
000001f0: 82b8 fabb d9fb c6bb 79a2 5dbc 8e1c 37bc
00000200: a965 4fbc 4a81 813c 416e 013c 616d bd3a
00000210: 17ee 9cbb 9f89 a1b9 58be 48bb e45a 343c
00000220: 1255 90bb 6a99 05bc 00f3 93ba 9530 4dbc
00000230: 5fdc af3b 00cf 50b7 c80a 51bc bcef 24bc
00000240: ee6c 9f3b 2a87 083c 8388 033b 962c 383c
00000250: e475 2f3c 27a4 193c 5807 543a cf61 293c
00000260: feeb 61bc 515d 58bc 25a0 4e3c f654 43bc
00000270: 697b 583c ba67 c43a 5473 9cbc 7a22 feb9
00000280: 133a 1b3c 5eb3 503c 0e46 2b3c 6e89 443c
00000290: 339f f3b8 281c 52bc 638b 3c3c d4d4 ed3a
000002a0: d8ff 323c 7a96 b0bb feba 71bb 6805 f63b
000002b0: 6e79 8a3a a5d1 2f3c 2b8d cf3b e923 3b3c
000002c0: b373 43bc 1342 383b d813 53bc 57f5 0abc
000002d0: fbb3 4ebc 47f2 0abc 2b0f 48bc b9d9 e8ba
000002e0: bb0a 61bc 25d9 59bc d1bd 4cbc b629 803c
000002f0: 0fe3 93b8 cef6 4abc 6cc8 a13b d137 0f3a
00000300: a952 4a3c 8da7 21bc 1d39 e4bb 0000 0000
00000310: 0ec1 563c 4700 8dba 6adc 193c 0ea4 4a3c
00000320: 49e7 4fbc e6d2 43bc 2443 93bb d999 1b3c
00000330: 4e5a 223c 4b5b 7bbb 8ac3 123b fb77 51bc
00000340: 042b 663c 254e 55bc b490 0abc b67a d23b
00000350: ad7c 57bc b99c 2cb9 7be3 97ae ed0b 1fbc
00000360: cb9e 0f3c 222f 4fbc db90 96ba 3232 063c
00000370: 24e9 243c c100 1fbc f6f9 f13b d8e7 ee3b
00000380: 0b33 3d3c e1b2 0ebc bea3 483c 48a6 0bbb
00000390: 3c9e 4ebc 9a21 093c 34a8 4c3c f32f 3e3c
000003a0: 35ad 473c f237 4abc cb96 56bc 6b9f 333c
000003b0: 2ad9 0dba 970c 1cbc 952a f03b 6c23 2c3c
000003c0: 1009 bcbb ff3e efbb fbe7 45bc b418 20bc
000003d0: 0847 55bc 8d97 4c3c b812 a5bb 547b a5ba
000003e0: 7e2a 443c 5e31 46bc b772 1f3c 03d7 c3bb
000003f0: a67c b43b cbc9 e2b9 d7fe 53bc 6827 cbbb
-0.012446361 -0.0032961832 0.0010068187 -0.0038624858 0.01140831 0.0034273022 -0.0020183574 -0.0038647908
0.01250259 -0.012947637 0.00924967 0.012474145 0.0088221505 -0.007390732 -0.010388964 -0.0006715051
-0.00070215715 -0.0087616695 0.009419335 -0.0002720871 0.009510914 0.013229426 0.009925871 0.00514437
0.00048414557 0.012381264 -0.0064117364 0.007880293 -0.012303195 0.018149683 0.0002004931 0.0056109997
-0.0044560237 0.008303944 0.0074133277 0.014181668 -0.006894081 -0.01301328 -0.013831365 0.0059330845
0.0012832866 0.0 -0.012253763 -0.012843847 -0.012401296 -0.00117745 0.0037965388 -0.0047476846
-0.0069255587 -0.002085009 0.011143666 0.009257531 0.009415629 0.012381954 -0.0015971299 0.0066550965
-0.0031145606 -0.01762102 -0.009720048 -0.00041835764 -0.013046476 0.0135499695 -0.01198363 0.010280654
-0.009809321 -0.012652085 0.011256359 0.0041046953 -0.006954 -0.00023965414 0.005483335 0.009225618
-0.0034283628 0.001972833 0.00817712 -0.004678875 0.010994518 0.0017251732 -0.010695056 0.010666399
0.012568035 -0.013661673 -0.00748563 -0.01705086 0.012293122 0.010303439 -0.008319985 -0.012016053
0.00902453 -0.0024106742 0.013522038 0.0015374277 -0.0038142046 0.0035386789 -0.0039405613 -0.0016628185
5.023554e-06 0.011130855 -0.005557243 0.0116163045 -0.0058663436 0.009841163 0.009265366 -0.013167536
0.0016426254 -0.012177318 0.00085233664 -0.012599449 -0.008104233 0.011254964 0.011308333 0.0123631675
0.009667637 -0.0070319464 -0.003858495 -0.0046715657 -0.010275079 0.010814558 0.0052324147 -0.0027246377
0.016137017 0.0 0.0103673255 -0.0027428407 -0.0076513896 -0.006072503 -0.013527506 -0.011176242
-0.012658515 0.01580872 0.007899822 0.0014452153 -0.0047891247 -0.0003081085 -0.0030631032 0.011007998
-0.0044046724 -0.008154253 -0.001128763 -0.01252379 0.0053668465 -1.2445962e-05 -0.012758918 -0.010066923
0.0048652804 0.008333007 0.002007038 0.011241099 0.01070926 0.009377516 0.00080882525 0.010338261
-0.013789175 -0.013205842 0.012611424 -0.011922112 0.013213017 0.0014984526 -0.019097961 -0.00048472342
0.009474295 0.012738077 0.010453714 0.011995656 -0.00011616796 -0.012824096 0.011507842 0.0018145093
0.010925256 -0.005389032 -0.0036885138 0.0075079687 0.0010564753 0.0107311355 0.006333967 0.011422136
-0.01192944 0.0028115555 -0.012883149 -0.008481345 -0.012616153 -0.008480615 -0.012210648 -0.0017765082
-0.0137354685 -0.0132964 -0.012496428 0.01564489 -7.051799e-05 -0.012387944 0.004937222 0.00054633344
0.012348809 -0.009866607 -0.0069648162 0.0 0.013107551 -0.0010757529 0.00939093 0.012368215
-0.01268942 -0.011952138 -0.004494088 0.009497129 0.009909226 -0.0038353975 0.0022394382 -0.012784953
0.014048342 -0.013019119 -0.0084573515 0.0064233197 -0.013152284 -0.00016461582 -6.9070936e-11 -0.009707433
0.008765887 -0.012645515 -0.0011487262 0.008190678 0.010065351 -0.00970477 0.007384534 0.0072908215
0.011547814 -0.00870964 0.01224607 -0.0021308828 -0.012610968 0.008369828 0.012491275 0.011608112
0.012187292 -0.01234244 -0.013097475 0.010963301 -0.0005411083 -0.009524486 0.007329295 0.010506492
-0.005738385 -0.007301211 -0.012079234 -0.009771515 -0.013017423 0.012487304 -0.005037632 -0.0012625256
0.011973022 -0.012096731 0.00973194 -0.005976559 0.0055080233 -0.00043256427 -0.0129391765 -0.006199766

sequential/dense_1/BiasAdd/ReadVariableOp/resource f4 [2]
00000000: 590b 4d3c 5f0b 4dbc
0.0125149125 -0.012514918

sequential/dense/MatMul f4 [512, 256]
00000000: c7d0 cf3c 4bc3 283d 0c90 8fbd 14b7 7d3d
00000010: 557f 85bc 5337 443d a017 1a3c 04e3 28bd
00000020: 0d3b 86bd e99b 60bd 0f3c 463c 9e60 ff3c
00000030: 3c62 b13d 774f b93d 9182 273a 3db9 8cbc
00000040: 40e0 f9bc 2454 96bd 77a7 44bd 8930 0e3d
00000050: 5f4c e1bc 60d0 4dbd c890 5ebd 7449 8a3d
00000060: 2bf5 74bd 871b b03c a572 633d 9abe 113d
00000070: e217 1e3d b856 67bd 1cd8 9bbb 0f4f 3f3d
00000080: 8464 613d f5f2 a3bd 5403 ac3d 0f54 40bd
00000090: 7714 81bc 994f 5cbc ed83 8ebc f175 f3bc
000000a0: 3673 81bd 0dbd 54bd 5fc0 ad3d 606c 16bc
000000b0: 40c3 bbbc 8c5d f2bc 75fe 80ba 7652 823d
000000c0: d47f 703d cd68 f0b9 8915 a93d 7b9f a1bd
000000d0: 115f 8c3c 3346 9e3b 0dfb a53d c7d8 abbd
000000e0: e2e8 85bc be82 723c 3625 b4bc df26 353d
000000f0: a7e1 53bc c2bc b13d 9d95 aa3c b7f1 113d
00000100: f9e9 c9bc 3393 73bd 1697 9f3c 4d78 84bd
00000110: f8ad bf3b 9753 94bc 92fd 40bb 9427 1abd
00000120: 3d80 703d 7376 96bd 8588 d13c fd18 a43c
00000130: ff1b 8e3a 8d1f 47bd a98e dcbc 88a2 f93b
00000140: d7aa d8bc 2b9a 05bc 4e7f aebd acb6 8e3d
00000150: ff61 9fbc 4e13 9f3d 9c86 1e3d 835e b2bd
00000160: f43c 0a3d 74c4 9f3d f89f 67bd faf0 853d
00000170: 056e 4fbd 054b 583d f1e2 30bd 402b b1bb
00000180: a283 72bc 8d77 4dbd 803f 22bd d957 413b
00000190: fc1f 62bd d888 fbbc b235 4c3d a9be a33d
000001a0: d234 79bd 1038 d53c 508a 1f3d a698 9bbd
000001b0: b23d 23bd 5295 8cbd 40d6 abbd 2aa9 0fbd
000001c0: a101 903d 684e 2e3d 70eb 8fbb c0d8 c1bc
000001d0: 7ab5 4ebb 9141 26bb 26fd 423c 70e9 b73d
000001e0: e53e a93d 4610 783d 0f33 7d3d fbf3 993d
000001f0: e343 443c 1567 423c 23af b1bd 162c ef3c
00000200: 6108 f13c 9223 a5bd 8b3d c73c 549f f3bc
00000210: 6c1c 643d 4c2c 723d f0c2 9a3d e35c a1bb
00000220: 1d9a 98bd dc90 773d 5735 c7bd a69d 08bd
00000230: c34b 3fbd 5cab 943d c184 433d fe6e 883d
00000240: 3e21 643d 972d 9cbd 79a8 4038 91f1 413d
00000250: 0b57 443c ad5d 38bc d511 93bd e8fa debc
00000260: 9fe8 2dbd 7a52 22bd ffa9 3b3d 99d9 d7bc
00000270: 7eeb 093c 9575 163c bc71 85bd 39aa c8bb
00000280: 785c 68bd 15c3 d9bc 20b5 a83c ae41 5a3d
00000290: c5ca 2bbd 42ea 22b9 1ec7 8f3b 6e70 343d
000002a0: 47af 9e3d 5158 51bd 4207 90bd d480 18bd
000002b0: 8935 93bd c257 54bd 2297 26bc d64a a9bc
000002c0: 0451 93bd e8e4 5a3d 5e95 0a3d d1fb 1c3d
000002d0: fb89 4cbd 50e0 7a3d 5bda dd3c 0c08 683d
000002e0: 196b 953c d6be 9abd 0634 ad3c 5ff3 643d
000002f0: 1fcc 553d 6a87 78bd 4e12 0a3d 7446 94bd
00000300: 3cfc 9d3d d20d 2cbd 836e 833d 4a84 94bc
00000310: 74e1 be3d 06b1 853d 8cd4 1fbc 1543 c4bc
00000320: 13c9 59bb cdbc 8d3c a0cc 0c3d f76f 5ebd
00000330: 4a3d 963c 43b9 21bc 91ea f9bc 6f24 75bd
00000340: b31d 643d 79d2 1f3c 16f6 8f3c 9e60 97bd
00000350: 5e8c a53d 260d 83bd 8c46 82bd 9dc6 86bd
00000360: e89c 893d 8151 d03b 2f71 fdbc e5e6 263d
00000370: d440 a83d fcad 19bd dc67 70bd 7f56 c2bd
00000380: 4e7f 453c 3b91 2e3d 0292 9e3d 0dc1 9a3d
00000390: 97a4 92bd 523b 8abd 6826 8d3d 7e1c 25bc
000003a0: b172 953d 39d4 92bb 9580 6bbd 76e2 5fbd
000003b0: c7ff 07bd d182 aa3c 7e7c 05ba d968 843d
000003c0: 9db2 3c3d b428 5fbd fc8a c9bd c13e 803c
000003d0: 3059 a8bd 2083 a33d 5600 e5bc bdc1 a1bd
000003e0: 0819 a63d 5dbc c93b 9476 9e3d ac91 1abd
000003f0: 269d 50bd af8f 933d 66e4 b1bd f446 be3c
0.025368107 0.04120187 -0.07009897 0.061942175 -0.016296068 0.047904324 0.009405047 -0.041232124
-0.06554232 -0.054836188 0.01209928 0.031174 0.08661315 0.0904836 0.00063900003 -0.017178172
-0.030502439 -0.07340267 -0.04801127 0.034714255 -0.027502237 -0.05024755 -0.054337293 0.06752291
-0.059804123 0.021497501 0.055529255 0.035582162 0.038596995 -0.056479186 -0.004755987 0.046706256
0.0550275 -0.08005325 0.08399072 -0.046955165 -0.015756829 -0.013446712 -0.017396891 -0.029719325
-0.06320803 -0.051938105 0.084839575 -0.009181112 -0.02292025 -0.029585622 -0.0009841459 0.063633844
0.058715656 -0.0004585445 0.08256061 -0.078917466 0.017135175 0.0048301457 0.08104525 -0.08390956
-0.016346399 0.014801679 -0.0219904 0.044226523 -0.012932218 0.08678581 0.020823294 0.035630908
-0.0246477 -0.059466552 0.019481223 -0.06468258 0.005849596 -0.018106265 -0.0029448015 -0.0376354
0.058716048 -0.07346811 0.025577793 0.020031447 0.0010842084 -0.048614074 -0.026923494 0.007618252
-0.02644865 -0.008154432 -0.08520375 0.06968436 -0.019455908 0.07767354 0.038702592 -0.08709433
0.033749536 0.07801142 -0.056549042 0.06540103 -0.050642032 0.05280592 -0.04318518 -0.005406767
-0.0148018915 -0.05016284 -0.03961134 0.0029501824 -0.055206284 -0.0307049 0.049855895 0.0799535
-0.06084139 0.02602771 0.038950264 -0.07597475 -0.03985376 -0.06864418 -0.08390474 -0.035073437
0.07031561 0.042555243 -0.00439208 -0.023662925 -0.0031541274 -0.002536867 0.011901176 0.089800715
0.08263949 0.060562395 0.06181627 0.07517239 0.011979076 0.011865397 -0.08675983 0.029195827
0.02942294 -0.08063425 0.024321338 -0.02973906 0.055691168 0.059124276 0.075567126 -0.004924403
-0.0745127 0.060440883 -0.09726971 -0.03335347 -0.04670311 0.07259247 0.047734026 0.06661795
0.055695765 -0.07625883 4.593327e-05 0.047349516 0.011983643 -0.011252803 -0.071811356 -0.02721925
-0.042458173 -0.039629437 0.045816418 -0.026348876 0.008417962 0.009183307 -0.06515834 -0.0061238077
-0.05672881 -0.02658228 0.02059418 0.053285293 -0.041941423 -0.00015536792 0.0043877503 0.044052534
0.07748275 -0.051109616 -0.07032634 -0.037232235 -0.071879454 -0.051841505 -0.010167869 -0.020665567
-0.07193187 0.05344096 0.033833854 0.03832609 -0.049936276 0.061249077 0.027081659 0.0566483
0.018239545 -0.0755593 0.02114297 0.05589616 0.05219662 -0.060676016 0.033708863 -0.0724
0.077141255 -0.042005368 0.06417563 -0.018129487 0.093203455 0.06527905 -0.009755265 -0.023957768
-0.0033231422 0.017301941 0.034374833 -0.054305997 0.018339772 -0.00987083 -0.030507358 -0.0598492
0.055692386 0.00975477 0.017573398 -0.07391475 0.080834135 -0.06398992 -0.06361112 -0.06580851
0.067193806 0.0063573723 -0.03093776 0.040747542 0.0821549 -0.03751944 -0.058692798 -0.09489154
0.012054278 0.04261897 0.077426925 0.07556353 -0.07160299 -0.06749596 0.06892091 -0.010077594
0.07297266 -0.0044808653 -0.057495672 -0.05465933 -0.033202913 0.020814331 -0.0005092098 0.064653106
0.046068776 -0.054482177 -0.09840962 0.015654923 -0.08220136 0.079839945 -0.027954262 -0.07898281
0.08110243 0.006156488 0.07737461 -0.03773658 -0.05093112 0.0720514 -0.08686142 0.023227192

sequential/dense_1/MatMul f4 [2, 512]
00000000: 50c5 c3bd a9a9 873c 1390 37bc a2e8 403b
00000010: b015 c33d d43b 513d 4ac8 9ebd 8a68 9dbd
00000020: 0a1d 233d 135d 58bd a898 bc3d e2cd d53d
00000030: 2b94 95bd 0bac 9bbb a6bd 74bc df0f ca3c
00000040: 04df 22bc 9755 a8bd 1d5e e73d 1e34 063d
00000050: 2ca0 ebbb 79a5 4d3d d8c4 72bb 9c77 603d
00000060: 72ce 3ebd d8ca 713d 580c d2bd 94ee 513d
00000070: 2ebe d9bd 7654 34bd 9a94 d1bc 4f93 a23d
00000080: 8819 41bc 9289 493d 3587 393c 834b b13d
00000090: 2b1c 6cbb a726 d5bd 7f22 4ebd f5bb b5bd
000000a0: ff43 ccbb f89b 223d 96c6 e03c 145e 51bd
000000b0: db96 823c 771d b2bd 6eae a93d 477d 81bd
000000c0: 2605 8bbc 0afa 50bd f149 683c 3b5f b0bc
000000d0: d5a7 b8bc 596f 063d f614 35bd 4d94 2a3d
000000e0: e17f c33c c520 bcbd 151b f4bc bdcf c1bd
000000f0: 4da5 9ebd 7ef4 873d a52e d8bd 0d8b 1d3c
00000100: 0998 59bd 6801 64bd bc28 093d c122 923d
00000110: 85db 35bd e6db d3bd 8efb 773c 34c8 e1bc
00000120: cc15 bdbd 71f5 573c 753f 633c c5f9 c63c
00000130: 1d3d cd3d 4c4e a33d be56 cebd 2543 b83d
00000140: 09b9 513d a1ce 1cbc e489 523c 77c0 a03d
00000150: 89f3 12bc c7c5 bb3c 3af2 c4bd ba43 223d
00000160: 4857 c13d 321f d6bc 2c47 863c f125 5d3d
00000170: e731 13bd dc9a 7d3d 2a3a 513d 23a7 bbbd
00000180: 39e5 63bd 3ed5 73bd 5990 ebbc 06ec 2a3d
00000190: 01de babd 0aa8 2bbc 21e2 84bb 588b cc3c
000001a0: eb4b 063d 0902 dc3c 483d 383d 2aa9 d5bd
000001b0: af0f 8d3d 00d1 a6bc 5aee 923b af2e 3f3d
000001c0: 24cc 0f3d 5a71 3fbd a55a c9bd bf12 bfbd
000001d0: cdee 32bd 9e1c 7b3d ca28 ccbc 3973 5cbd
000001e0: 4699 40bd 284d acbc 54ff 0f3d 9603 8ebd
000001f0: 63c4 bc3c ca25 483d 83d0 b5bd 975e a33d
00000200: c1aa b5bd 8582 633d 368e 10bd a7e6 3f3d
00000210: 6d79 b0bd 24b5 b13d 28e3 d83c 5b44 be3d
00000220: eb4a a6bd 9f84 b3bd 9959 c43d 047f 0a3c
00000230: 0178 3c3d 0850 d03c 438e cebc 7f2d a5bd
00000240: 82c7 a33d f51d 1dbd 72dc 903c 4bbc b63d
00000250: 62b3 b43d 79e0 e63c 7072 4a3d c256 223d
00000260: 87ad 95bd cc1d f1bc 6059 e23c e5c0 0e3d
00000270: 9962 6f3d a8bf cdbd 3903 af3d 4891 813d
00000280: 3281 003d 7c7f 183d acc9 d13d acb7 b13d
00000290: c51b c2bd 61f7 1ebc 0806 723d cf66 babd
000002a0: 2203 c53d b6e5 11bc 756b 2abd cd12 e33d
000002b0: a54b e6bc f528 b23b 1780 533d 8d22 7f3d
000002c0: bcce 8ebd a09e a43d 01bf 223c 94af 34bd
000002d0: 37a7 b3bd 3158 08bd 2ffc 1b3c 4118 2dbd
000002e0: af72 4b3d caed 803c e645 a1bd 93c4 ca3d
000002f0: a558 903d 51b0 bbbb de7f 3d3c 14ed ae3d
00000300: 52e8 c03d 5b52 5d3d 26ba 003d 096b d9bd
00000310: 7917 2dbc 8932 793d 8f46 933d 8e74 a73d
00000320: a2f2 09bd ebd0 253d 8e6f 203c b3ad 6e3d
00000330: a4c6 123b 5ff3 e6bc 8031 943d cbb4 4abd
00000340: 1454 8c3c 1e75 e03b 2be6 343d 7ed0 383d
00000350: b633 43bb b856 28bd 301c 28bd ae2f 55bd
00000360: 9ae5 09bd 54a1 e8bc 6029 473d 8c23 04bd
00000370: 1f1d 983d c200 f3bc bffd 8abb 1253 d83d
00000380: 85e7 df3c 7ce3 ee3c b4bf fa3c fa3a a1bd
00000390: f4c3 72bd f922 763d e86a 653d 6c36 903d
000003a0: c5b8 9e3d 8131 69bd f70d d3bd eefa fbbc
000003b0: 7cf9 b33c c5a2 a3bd 1196 aa3d ad63 b63c
000003c0: 8d0c 123d 8eb4 78bc ddb7 5f3d 197a 993c
000003d0: 9acb d33c d31d 3f3b f4c8 7bbd e468 5c3d
000003e0: 4444 b73d b9c8 653d 8c28 6bbc 3b4d 18bd
000003f0: c14b 83bd d6e6 9b3d 542e b9bd eff2 aebd
-0.09559119 0.016560392 -0.011203784 0.0029435535 0.09525621 0.051082447 -0.07753046 -0.07685955
0.039822616 -0.052823137 0.09208804 0.1043966 -0.073036514 -0.0047507337 -0.014937794 0.024665771
-0.009940866 -0.0821945 0.112972476 0.032764547 -0.007190725 0.050206635 -0.0037043598 0.05480157
-0.0465836 0.059031337 -0.10256261 0.051252916 -0.10631977 -0.04402586 -0.025583554 0.07938253
-0.011785872 0.049203463 0.01132374 0.08656981 -0.0036027532 -0.10407763 -0.050325867 -0.088737406
-0.0062336917 0.039699525 0.027438443 -0.05111511 0.015941074 -0.08697026 0.08285223 -0.06322723
-0.016970228 -0.051019706 0.014177785 -0.021529784 -0.022540966 0.032821033 -0.044209443 0.041645337
0.023864688 -0.09185938 -0.02979807 -0.09463451 -0.07746372 0.0663843 -0.10555772 0.009615672
-0.053123508 -0.055665404 0.033486113 0.07135535 -0.044398803 -0.10344677 0.015135659 -0.027561285
-0.09232673 0.013181076 0.01387011 0.024289021 0.10021422 0.07973918 -0.100751385 0.08997182
0.051201854 -0.009570749 0.0128502585 0.0784921 -0.008969196 0.022921456 -0.096165136 0.03961537
0.09440476 -0.026137922 0.01639136 0.053991262 -0.035936262 0.061915264 0.05108086 -0.09162738
-0.055638526 -0.059529535 -0.028755354 0.041728996 -0.09124375 -0.010477075 -0.004055277 0.024968788
0.032787245 0.02685644 0.044980317 -0.10432656 0.06887757 -0.02036333 0.00448398 0.04667538
0.035106793 -0.04673896 -0.09831742 -0.093297474 -0.04368477 0.06130659 -0.024921793 -0.053820822
-0.047021173 -0.021032885 0.03515561 -0.06934278 0.023042863 0.048864163 -0.08877661 0.07977026
-0.08870459 0.055544395 -0.035291873 0.046850827 -0.0861691 0.08677128 0.026475504 0.092903815
-0.08119758 -0.0876553 0.09587402 0.008453134 0.046012882 0.025428787 -0.02521432 -0.08065318
0.079970375 -0.038358647 0.017683242 0.08922633 0.08823277 0.028183209 0.049425542 0.03963352
-0.07308488 -0.029433154 0.027630508 0.034851927 0.05844364 -0.10046321 0.085455365 0.06326538
0.03137321 0.037230954 0.10243544 0.08677611 -0.09477953 -0.009702534 0.059087783 -0.091016404
0.09619738 -0.008904865 -0.041606385 0.1108757 -0.028112242 0.0054370114 0.051635828 0.06228881
-0.06973025 0.08038068 0.009933234 -0.044112757 -0.08772128 -0.03328723 0.0095205745 -0.04225946
0.049669918 0.015738387 -0.0787466 0.09900775 0.070481576 -0.0057278057 0.01156613 0.08541313
0.094193116 0.05403362 0.031427525 -0.106161185 -0.010564678 0.06083921 0.07191192 0.08176528
-0.03367866 0.040482443 0.009792222 0.05827112 0.002239623 -0.02819222 0.07236004 -0.049488824
0.017129935 0.006849899 0.044164818 0.04512071 -0.002978546 -0.041098326 -0.041042507 -0.052047424
-0.03366623 -0.02839724 0.048623443 -0.032260463 0.074274294 -0.029663447 -0.0042416747 0.105627194
0.027332077 0.029161207 0.03060899 -0.07872577 -0.059268907 0.060091946 0.056010157 0.0704163
0.07750086 -0.056931976 -0.10305398 -0.030759301 0.02196955 -0.0799003 0.08329404 0.022264326
0.0356565 -0.015179766 0.054618705 0.018734979 0.02585392 0.0029162064 -0.06147094 0.05381097
0.089485675 0.056099627 -0.014352929 -0.037183028 -0.06410933 0.07612388 -0.090420395 -0.0854243

sequential/conv2d/Conv2D f4 [32, 3, 3, 1]
00000000: ce54 d13b 5449 503b 846e d63d ef9f 9a3c
00000010: 6de8 89bd 18e0 1abd 8bd5 c7bd 22e5 8fbd
00000020: 38b1 cf3d 9ed9 ed3c c22c 5abd f6f8 a33d
00000030: c869 9b3d 763c 243c 2b77 2e3d 1f5e 8b3d
00000040: f2c3 703d 73f4 c23d d120 523d f196 d23c
00000050: 2778 033e e8f0 c73d 4131 ad3d 1b50 af3d
00000060: 4ad7 b83d fcd3 ed3d 561b 0cbc d1d3 6ebb
00000070: 5ff3 8dbc 499c d1bd 18c6 04bb 14e6 1bbd
00000080: afbd 4a3d 7790 923d 9fdc fdbd f3a3 02be
00000090: 0280 13bd 434c f43d 3f17 413d 26fc 74bd
000000a0: 05c1 c43c 73a8 d4bd f424 82bd e483 03bd
000000b0: faf9 ee3d 1f2c 0a3e 5abf 19bd 38d5 483d
000000c0: 0d9d f3bd 178f 9e3d 5623 ee3d 682c 94bd
000000d0: 5d8c bdbd 1f2d 113e 40c0 e8bc 0a1d a5bd
000000e0: 1d18 203d eb67 ac3d b32d c03d d46e 5b3d
000000f0: 8f88 b6bd 29f8 12be 9ac3 bbbd f8b0 1c3d
00000100: 4993 043e ba5b ba3b ac2e 05be 3257 873d
00000110: 616e ccbd 9d70 a73d 70fd f0bc fb8a d0bd
00000120: 0c03 edbd fca0 63bd 5f4b ea3a c0f6 57bd
00000130: 5bf8 05be edd2 ae3d afe7 92bd 2402 0fbe
00000140: 32e8 84bd 81f7 7bbd 7623 acbc 75e2 553d
00000150: a4b3 be3d 1fe6 f3bd 0097 413d 6733 4abd
00000160: 185d bb3c 8b03 64bd 8bd4 20bd eac3 5dbb
00000170: cf24 0b3e aead bebd d570 59bd 8b5d bf3d
00000180: 6f87 f53c 63ed 903c 7d20 4bbb 8eba 03be
00000190: e3ca 3dbd db9f a03d 3c44 07be 2fc4 0b3e
000001a0: 72fe a23d 1c49 1dbb 5865 9f3d 20a0 e4bd
000001b0: 5081 a73d 9544 e7bd 5065 37bd 92df a33d
000001c0: d3c2 853d a501 dc3d c049 72bd c24a febd
000001d0: 563b 093e 1778 0dbe 7313 813d 8122 a0bb
000001e0: cd5f 4bbd a18c 74bd 8a90 08be 7903 e3bd
000001f0: f60f f23d 1a6e ec3d 2b17 ef3d 2333 86bb
00000200: 6f25 cebc 7073 bc3d ebd8 10bc bef6 82bd
00000210: 8be8 5d3d bfa9 a13d 37d1 00bd a340 9b3d
00000220: 00eb a93d 9479 833b 7ccb 60bc 4247 103c
00000230: 7af6 2bbd 50d4 88bd b805 093e c4c0 2b3d
00000240: 7c79 093e f23d 35bd ce08 8b3d f575 c33c
00000250: b74a 0f3d 792d 18be 1111 723d 801c 3f3d
00000260: 5eec 8cbd 1765 6bbd b59c 583d 1f7f 2f3d
00000270: 43c4 bb3d f900 023e af64 bc3c 91d8 42bc
00000280: ff30 e1bd b9bf 093e fb25 f33d f616 af3d
00000290: b3c8 9c3d 6a35 75bd 51e5 383d 91cc 00be
000002a0: 8e40 923d e014 2abd c682 33bd 3121 193d
000002b0: ffed d2bd 6940 d1bd e83d 94bd 1f63 f03d
000002c0: 0a7b de3d 1d7e a63c a71d cd3b f1f0 5dbd
000002d0: 55c2 833d cc45 ccbd 6af0 b9bd a255 e03d
000002e0: bbe0 50bd 4cd7 603d 938b 39bc a882 88bd
000002f0: 73e2 28bc 610a 613b e70f 10be 21b5 9f3d
00000300: 9f18 393d 11dd 8ebc 5e60 293d b26c 023e
00000310: a074 04be 1d58 8d3d aaaa 57bd 0778 89bd
00000320: 0a4c 083e 2b2b a6bd cc3f 9ebd 7895 08be
00000330: 7b80 0c3e 46ab 19bc de88 e7bd 9118 bcbc
00000340: b685 1ebc a27f 163e 002f a13d 262b 07be
00000350: 6994 d3bd 1c2c 423c ffb4 b63d 9bde 9fbd
00000360: 90e2 053e d346 913d 52a7 09be fa7f 58bd
00000370: 1b29 923c 3860 df3d 5aee 44bc 6843 74bd
00000380: 78c9 95bd 942b fabd 968d 20bd bdc3 c3bc
00000390: 8f31 0abe 76bc bb3c 2fb7 0f3d 1866 1a3d
000003a0: bf31 08be b6f6 38bd 1db6 1d3d bd20 583c
000003b0: 61e2 943d 76dd 7ebd 3e3e 3c3d 13a6 c0bd
000003c0: 7ca9 683d 19b3 cdbc 60d1 07bd 1d6e c9bd
000003d0: 1e37 883d a060 ebbc 937c 0b3d ab77 c13d
000003e0: 81ed bebd db1b ccbd 19bc f7bd 9c73 a63c
000003f0: e30d 3bbd a31d a3bd 7256 cabd 5d48 0e3e
0.0063882833 0.0031781988 0.10470298 0.01887509 -0.06733785 -0.03781137 -0.09757527 -0.070261255
0.10141224 0.029034432 -0.05326534 0.0800647 0.075885355 0.010024181 0.042594116 0.068050615
0.058780618 0.09519281 0.051300827 0.02570674 0.12838803 0.09762746 0.0845666 0.08560201
0.09025438 0.116126984 -0.008551439 -0.003644217 -0.017327962 -0.10234887 -0.0020259675 -0.038061216
0.049497303 0.07156461 -0.12395596 -0.12757854 -0.03601075 0.11928608 0.04714131 -0.05981078
0.02401782 -0.10383692 -0.063547045 -0.032108203 0.11668773 0.13493393 -0.037536003 0.049031466
-0.118951894 0.07742136 0.116278335 -0.07235032 -0.09255288 0.14177369 -0.028411984 -0.080621794
0.039085496 0.08418258 0.093837164 0.05357249 -0.08912765 -0.14352478 -0.091681674 0.038254708
0.1294681 0.005687204 -0.13006085 0.06608428 -0.099819906 0.08175776 -0.029417723 -0.101827584
-0.11572847 -0.05557345 0.0017875246 -0.052725554 -0.13083021 0.08536325 -0.071730964 -0.1396566
-0.064896 -0.061515335 -0.021013003 0.05221792 0.093116075 -0.119091265 0.047263145 -0.049365427
0.022871539 -0.05566744 -0.039265197 -0.0033838698 0.1358826 -0.093104705 -0.05308612 0.09344014
0.029971806 0.01769132 -0.0030994706 -0.12864134 -0.046336066 0.0784299 -0.13209623 0.13649057
0.07958688 -0.0023999875 0.07783002 -0.11163354 0.08178961 -0.11292378 -0.044774354 0.08001627
0.065313004 0.10742501 -0.059152365 -0.12416603 0.13401541 -0.13815342 0.06302538 -0.0048869257
-0.04965191 -0.059704427 -0.13336387 -0.11084647 0.118194506 0.11544438 0.11674341 -0.0040954514
-0.025164334 0.092017055 -0.00884078 -0.063947186 0.05417685 0.078937046 -0.031449523 0.07580688
0.08296776 0.004012296 -0.013720389 0.008806052 -0.041983105 -0.066811204 0.13381088 0.041931883
0.13425249 -0.04424853 0.06788789 0.023859957 0.034983363 -0.14861096 0.059098307 0.04665804
-0.06881021 -0.057469454 0.052883822 0.04284584 0.09168293 0.12695684 0.022997228 -0.011892454
-0.109956734 0.13452043 0.118724786 0.08549301 0.07655468 -0.059865393 0.04514057 -0.12578036
0.07141219 -0.041523814 -0.043825887 0.03738517 -0.102993004 -0.102173634 -0.0723837 0.11737656
0.108633116 0.020323807 0.0062596384 -0.054184858 0.0643355 -0.0997425 -0.090790585 0.10953833
-0.05099557 0.054892823 -0.011324781 -0.06665546 -0.010307896 0.0034338462 -0.14068566 0.077982195
0.045189496 -0.017439397 0.04135167 0.12736776 -0.12935114 0.06901572 -0.052652992 -0.067123465
0.13310257 -0.081137024 -0.07727012 -0.13338268 0.13720886 -0.009379214 -0.11305402 -0.022960933
-0.009675434 0.14697126 0.07870293 -0.13200054 -0.10331041 0.011851337 0.08921241 -0.078061305
0.13074708 0.07093587 -0.13442734 -0.052856423 0.017841866 0.10907024 -0.012019718 -0.059634596
-0.07313818 -0.12215343 -0.039197527 -0.023897046 -0.13495468 0.022917014 0.035086807 0.03769502
-0.13300227 -0.045157157 0.038503755 0.013191399 0.07269741 -0.06222292 0.045957796 -0.09406676
0.056802258 -0.025109814 -0.03315866 -0.098354556 0.06651138 -0.028732598 0.03405435 0.09446653
-0.09322644 -0.099662505 -0.12096424 0.020318799 -0.04566754 -0.07964637 -0.098797694 0.13894792

sequential/conv2d_1/Conv2D f4 [32, 3, 3, 32]
00000000: 116a f63d 700e adbc 80c0 c5bd e258 3b3d
00000010: b7f7 98bd 2303 863d cc01 713c 274b 8e3d
00000020: 9fbd c93d 8bb8 cfbd ac48 b5bc 998c e23d
00000030: 3a2a 0d3d a576 d33c bc74 b3bc 7630 b83d
00000040: 6814 84bd 01b5 6bbd f410 983d 3216 9e3d
00000050: e10b d43d a4f3 523d bf78 d8bc a100 c13d
00000060: 4352 09bd e0ef 3ebc b189 8d3d 0cd7 bbbd
00000070: bec8 1cbc 869b b93d fb9f 863d 268b 8c3d
00000080: 9b27 7f3d fce8 cabd c139 133d 6382 06bd
00000090: f0db 08bc 7def 4dbd 8837 a2bd 2c5e 84bd
000000a0: 895e bbbd 96a8 a53d 9a32 b8bd a85f 983d
000000b0: 0bcf 053c 61e7 793d db45 a93d 1a65 983d
000000c0: 4bac 313c b6c4 cabd 72c1 e6bc 6d72 243d
000000d0: 22b0 e43b 9324 143c e043 a03d 652b 53bd
000000e0: 3bda 893d 4417 aabd 9cd9 9ebc c18b bb3d
000000f0: 28b5 3dba 95e6 cc3d fa69 a23d ed1f 9c3d
00000100: a68b a13c f0a9 06bc 03bc 753d fd6e 893b
00000110: 1101 693d 08aa 893d 3622 a73d ca63 22bd
00000120: c602 30bd c8d3 be3d 39f4 c7bd 0767 e93c
00000130: fb5b 81ba d2b8 093d ba51 283d ebc8 563d
00000140: b397 b9bc 19c8 adbd 8e22 93bd 62ed 263c
00000150: 5876 39bd d971 c4bd af71 d9bb 6d95 83bd
00000160: 83db da3d 8aa0 54bd 7c88 abba dc88 91bd
00000170: 1ec5 bc3d aaec 80bb b504 d2bc 9ce8 da3d
00000180: 4cfb eb3d 5653 983d 394a aa3d d8dc 1f3d
00000190: d540 153d fe28 963d e4d7 d7bd 2aac 643d
000001a0: 031f 6e3d af8b 34bd 4b66 31bd e476 b93d
000001b0: 19df 60bd fc7f e2bd e5d9 68bd 06e9 c53d
000001c0: 1db0 50bd 5f96 7c3d 64f5 74bd 863e f0bc
000001d0: cd59 363d 3c63 32bd fa0f 323d d3d8 c9bc
000001e0: 849f adbd 850c 553c 4d82 b8bb ecd5 ff3c
000001f0: 1ce3 8fbd a8f6 46bd 4d99 2e3c 45aa f83c
00000200: 2c70 14bc aafc 963d 99ec ccbd dbef d4bc
00000210: 15cf 0e3c 20cf ac3d a257 d8bd b77a 6c3d
00000220: d2ff 7d3d 1dbe d3bd 216b 25bd 68cf 523d
00000230: 4b73 003d b328 e03b 1943 0abd 959f a0bd
00000240: c55b 033d 2883 84bd bfa6 873d 46d6 82bd
00000250: 303b 5eba e4af 593c b3df 78bd 23ed 92bc
00000260: b97b df3b 181e 40bb c6d2 9bbd f57e 98bc
00000270: 864e c3bd 5a5d 273d 10c2 bd3d 8238 003d
00000280: dfd6 b43d a400 973c 42bb 993d c398 a3bd
00000290: ea0b ad3d 9ba9 903d c060 c9bd d3be 30bb
000002a0: 1ac2 e8bc 4d13 e23d 641d aabc e1c3 9a3c
000002b0: f7cb 903d c81d 323c 7b0f 35bd d390 b43d
000002c0: d05d 73bd 3da6 babc 9d11 b0bd 4f53 bb3a
000002d0: 4122 6dbd 265c f83c 4b24 81bd 236d 2b3d
000002e0: 5c66 53bd a0fb 0bbc 9612 683c 0f08 c63c
000002f0: 0676 bcbd 8676 fcbc 971e c63d ecd8 bc3c
00000300: e978 be3d 77f0 d7bd ce80 96bd eb3a c5bd
00000310: 65d2 db3c 3bf3 94bd c475 61bd 5c71 55bd
00000320: 4535 54bc e0ff 563d bf0b 5d3c 52f9 ca3d
00000330: 6492 91bd fc1f 1bbc 85ce b2bd ee29 493d
00000340: f085 973d 0393 ac3d 60e3 07bd 99f2 da3d
00000350: b367 b4bd aff2 46bc 6dc7 943d 6e8b e1bb
00000360: 5ad6 443d b6d0 ba3d 4615 a5bc 3ac4 083d
00000370: d75d 4fbc 29a5 06bd d7d3 78bd be26 943c
00000380: d800 e83d e41f 753d 84dc 4c3d 146f b2bd
00000390: be58 7a3d 4663 a7bd 6f65 99bd 4641 723d
000003a0: efd8 b7bd 013b 21bd ec0a 8b3d 794a 763c
000003b0: 513b 92bc aa91 ba3d 70f4 0b3c 58eb d53b
000003c0: 8d26 87bc c032 833d 171e ea3c 4597 90bd
000003d0: 2e75 40bd af02 2ebd 3da2 c93d 922a 2dbd
000003e0: 53df a1bd 22ba 063d 1e2f 9bbd 1066 993d
000003f0: a9ea 753d eda1 b63d fb79 4ebd 0640 a83d
0.12031949 -0.021125048 -0.09655857 0.045739062 -0.07469123 0.06543567 0.014709901 0.06947928
0.098506205 -0.10142621 -0.02212938 0.11061973 0.0344641 0.02581341 -0.02190625 0.08993618
-0.06449205 -0.057545666 0.074251086 0.07719077 0.10353828 0.051501885 -0.026424764 0.09423948
-0.033525717 -0.01165387 0.06911028 -0.09171876 -0.009569345 0.09062867 0.065734826 0.06862478
0.06229363 -0.099077195 0.03594375 -0.03283919 -0.008353218 -0.050277222 -0.07920748 -0.06463274
-0.091488905 0.08088796 -0.089940265 0.0744012 0.008167039 0.061011676 0.08265277 0.074411586
0.0108443005 -0.09900801 -0.028168414 0.040148187 0.0069790045 0.009041923 0.07825446 -0.051555056
0.06731077 -0.08305219 -0.019390874 0.09157515 -0.0007236772 0.100049175 0.0793037 0.07623277
0.01971991 -0.008219227 0.059993755 0.004194139 0.056885783 0.06721884 0.08160822 -0.039645948
-0.042971395 0.09317738 -0.09763379 0.02849151 -0.0009869331 0.033623524 0.041093566 0.052437704
-0.022655344 -0.08485431 -0.07184325 0.010188432 -0.045278877 -0.09592027 -0.0066358666 -0.06424985
0.106864 -0.051910914 -0.001308694 -0.07106182 0.092172846 -0.0039344626 -0.02563701 0.10688898
0.115225405 0.0743777 0.08314938 0.039028972 0.03643878 0.073320374 -0.10539225 0.05582825
0.058135044 -0.044078525 -0.043310445 0.0905588 -0.054900263 -0.11059567 -0.056848425 0.09663586
-0.050949205 0.061666843 -0.059804335 -0.029326688 0.044519234 -0.04355167 0.043472268 -0.024639523
-0.08477691 0.013003473 -0.0056307674 0.031229936 -0.070257396 -0.048575073 0.010656667 0.030354628
-0.009059947 0.073724106 -0.10006065 -0.025993278 0.008716364 0.084379435 -0.1056359 0.057734217
0.062011547 -0.103389956 -0.04038537 0.05146733 0.031359952 0.006840789 -0.033755396 -0.07842938
0.03206994 -0.064703286 0.06623601 -0.06388526 -0.00084774476 0.0132865645 -0.06076021 -0.017935341
0.006820169 -0.0029314812 -0.07608561 -0.018615225 -0.095364615 0.04086051 0.0926553 0.03130389
0.08830046 0.018432923 0.0750642 -0.07988121 0.08449538 0.070636 -0.09832907 -0.002696921
-0.028412867 0.110388376 -0.020765968 0.01889223 0.07070153 0.010871358 -0.044204216 0.088166855
-0.05941564 -0.022784347 -0.085971095 0.0014291796 -0.057893995 0.030317377 -0.063057505 0.041852128
-0.05161129 -0.008543879 0.0141645875 0.024173765 -0.09202199 -0.030818235 0.09673803 0.023052655
0.093004055 -0.10543912 -0.07348786 -0.09630378 0.026833722 -0.07272955 -0.05504395 -0.05211006
-0.012952154 0.052490115 0.01349157 0.09910835 -0.07108 -0.009468075 -0.08730797 0.049112253
0.073985934 0.08426478 -0.033175826 0.10690803 -0.088088416 -0.012142821 0.072646 -0.0068830764
0.048055984 0.0912184 -0.020151746 0.03339026 -0.0126566505 -0.032872353 -0.0607489 0.01808488
0.11328286 0.059844866 0.050014988 -0.08712593 0.061119787 -0.08173232 -0.0749005 0.05914428
-0.08976924 -0.03936291 0.067891926 0.015032404 -0.01785055 0.091098145 0.008542165 0.0065282993
-0.016497875 0.06406164 0.028578801 -0.070601024 -0.04698675 -0.042483028 0.098453976 -0.042276926
-0.07903924 0.032892354 -0.07577346 0.0749017 0.060038242 0.08917604 -0.0504093 0.082153365

sequential/conv2d_2/Conv2D f4 [64, 3, 3, 32]
00000000: ae1c a03d e262 af3d fb72 00bd 9732 97bd
00000010: 6a1f 50bd e023 6ab8 2386 6a3d 0994 40bb
00000020: 4637 48bd 4d57 0abd b2b9 92bd d175 093d
00000030: cef0 773d 5dd2 583c 899c 5d3d 1868 7e3c
00000040: 10ac 9dbc febe 96bc 1329 993d ca22 4bbd
00000050: c355 10bd 4167 52bd 5e7f 10bd 5f23 cebc
00000060: dd85 223c 1bab 843d 69b8 85bd b857 2cba
00000070: f6c3 a33b 5159 f43c ea51 aebc 0cce e03d
00000080: 680d 99bd d2e3 46bd 730c 92bd d224 173d
00000090: cd7e 8abb 27ed 4c3d 48e2 5dbb 59cb f4bc
000000a0: 25a4 0d3d caf0 163d c37f 9cbd 2d27 b43d
000000b0: 5f2d 1dbd 5bb2 18bc 5c45 983d 98b5 79bc
000000c0: 99ad 33bd de89 76bd 96a1 6f3d 3e9b 95bd
000000d0: 75b9 27bd dd76 1ebc 5823 e3bc b3a7 17bd
000000e0: 366e 813d 39f1 52bd f36a 533d be23 273d
000000f0: 99cb a4bd e700 323c 8b12 b53d 27d1 01bd
00000100: 24ec cd3a e1e1 a23d ff30 e4bc 500c 223d
00000110: f0ba c33c 1d67 093d 2c11 833c 1918 7b3d
00000120: f5f4 d7bc 877c b9bb df45 52bd 8913 4cbc
00000130: 4710 a6bd 0ce3 583b 0d92 353d a0b7 66bd
00000140: b538 6bbd 89cb 45bd 5a9f 4fbd cb0f dfbc
00000150: 81e6 af3c 9d35 92bd f69f 0a3d ff6c 1e3d
00000160: 5276 56bd 53ca 9e3d f62b 963d 9922 60bd
00000170: 8064 4e3d 3205 073c eee9 173d ff75 5ebd
00000180: 3fd9 763a b13e 973c 5ef3 8e3b ca5c 423d
00000190: 7dc9 8b3d 7c62 4d3d 9db0 d3bc a715 98bd
000001a0: 8769 213d e408 5d3d b859 083c 5f18 97bd
000001b0: 58ff 14bd 8338 143b 9cd8 f1bc 4010 00bc
000001c0: f310 bc3c 98cd 9ebd 6301 94bd 903d 93bd
000001d0: 533e 0f3d 7a21 bf3d 7222 893d f4fa c43c
000001e0: 616e b53d 2f26 5b3c c7c0 8abd da1c 443c
000001f0: 8347 b03d a40b f7bc 6746 94bd fa03 523d
00000200: 5e09 25bd 48ff 103d 66d3 ee3b b01d b63c
00000210: 0bb5 023b f3fd 8f3b 381f 02bd 9e73 a3bd
00000220: b91c e3bc 0045 523d 3c1f 89bd 962d 02bc
00000230: a639 963d 8490 833d 8fee a43c 80f6 5c3a
00000240: 1cb8 e13c 549f 78bb 9425 30bd 847b 84bc
00000250: a904 73bd 9a1e ac3d 399e 963d a7da 573d
00000260: 29eb ea3c 842f 64bd d5ba c2bc 9dfd 60bd
00000270: 699c 55bd 5e8e 60bd 61bb aa3d 2c4c a23d
00000280: 3453 b4ba df48 0a3d ec1b 8c3d 19b8 363c
00000290: 5415 183d 0c18 8c3d d925 99bd 4d72 b43c
000002a0: 06f6 233d a53a 88bd 359c febc 3df3 ab3d
000002b0: 6f31 363d 943d 473d 0c3a 8c3d aea8 8fbd
000002c0: b437 46ba 862e 133d b981 9a3c ada8 a13d
000002d0: cccf 1cbd fb58 b13c 3485 fe3b 2bf1 49bd
000002e0: e69f 52bd 60ad 9bbd 38b4 dcbb b5cf 983d
000002f0: 9600 6a3d 5c67 a3bc 1090 07bb f69b 933d
00000300: 2930 a13d c9b6 803d 1f0f aabd fd89 cb3c
00000310: 6920 983d cfd8 17bd 19f2 a6bc c202 92bd
00000320: 9c74 01bc 40e0 b7bc 7d9e 0f3c da73 933c
00000330: 7975 1d3d da8a 493c 02a0 8c3d 816c 883d
00000340: df7b f93c 51aa 34bd 33b9 61bd e028 ffbc
00000350: 5f87 11bc 937d 063d 4f92 8dbd 0a73 b9bd
00000360: 66ef 863d 514f 42bc 71ed 13bd 3cb0 ecbc
00000370: e889 8abd 75bb fdbc 299e ac3c fb4c 943b
00000380: f8ff 4f3c 0e04 2d3d 8c26 c63c 6a54 85bd
00000390: b19a 813c 7c37 e13c 6c40 823c eb7b e13c
000003a0: a681 61bd 5e17 a63d 275f 99bc 00bc ef3c
000003b0: a021 88bd 771e f9bc 3089 4d3d 86c8 67bd
000003c0: e4a1 41bd 0f38 b3bc 6214 7cbd aeef c43c
000003d0: a607 fcbc 10ed 103c 6c5d 223d 1c39 063c
000003e0: cc86 33bb b8d6 96bd 0fe5 8b3c 6797 4fbc
000003f0: eb0d 3b3d ad15 633c a3d1 65bd e46a 873d
0.0781797 0.08563782 -0.031359654 -0.07382696 -0.05081121 -5.582336e-05 0.05725683 -0.002938511
-0.048880838 -0.033774663 -0.07164325 0.033559624 0.060532384 0.013233748 0.05410436 0.015527748
-0.019247085 -0.018401619 0.074785374 -0.049593724 -0.03523804 -0.051368 -0.035277717 -0.02516335
0.009919611 0.06477948 -0.06529314 -0.00065743504 0.0049977256 0.029827746 -0.021279294 0.109768
-0.0747326 -0.04855711 -0.07131281 0.03690035 -0.0042265416 0.050030854 -0.0033856798 -0.02988212
0.03458037 0.036850728 -0.07641556 0.08796535 -0.038373347 -0.009319867 0.07435104 -0.015241049
-0.043866728 -0.060190074 0.05850371 -0.07305001 -0.04094835 -0.009671894 -0.027726814 -0.037025165
0.06319849 -0.05149958 0.051615667 0.04080557 -0.08046646 0.010864473 0.088414274 -0.031693604
0.0015710634 0.07953239 -0.027855394 0.039562523 0.02389285 0.033545602 0.0159994 0.06130228
-0.026361922 -0.005660597 -0.051336166 -0.012455829 -0.081085734 0.0033094315 0.044328738 -0.056327462
-0.057427127 -0.04828981 -0.05068908 -0.02722921 0.021472218 -0.07139132 0.033843957 0.038678166
-0.052358933 0.07753434 0.07332604 -0.054720495 0.050388813 0.008240985 0.037088327 -0.05431175
0.00094165275 0.01846251 0.0043625077 0.04745177 0.0682554 0.05014275 -0.025841052 -0.07426005
0.03940728 0.053963557 0.008322172 -0.07377695 -0.036376327 0.0022616691 -0.029522233 -0.007816374
0.0229573 -0.07754058 -0.07226827 -0.071894765 0.034971546 0.09332557 0.06696023 0.024045445
0.08858944 0.013375803 -0.067750506 0.011969769 0.0860739 -0.030156918 -0.07239991 0.051273324
-0.040292136 0.035399705 0.0072883843 0.022230953 0.0019944336 0.004394287 -0.031768054 -0.079810366
-0.027723657 0.051335335 -0.066954106 -0.007945439 0.07335214 0.064240485 0.020133285 0.00084290653
0.02755361 -0.0037936764 -0.043004587 -0.016172178 -0.059330616 0.08404274 0.07354397 0.052698757
0.028676586 -0.055709377 -0.02377073 -0.054929364 -0.052151117 -0.054823272 0.08336521 0.07924685
-0.0013757707 0.0337609 0.06841263 0.011152291 0.037129715 0.06840524 -0.07477922 0.02202716
0.040029548 -0.066518106 -0.031080345 0.083960034 0.044480737 0.04864271 0.06847009 -0.07014595
-0.0007561401 0.03593304 0.018860685 0.078935005 -0.038284108 0.021648875 0.007767344 -0.04930226
-0.051422022 -0.07601428 -0.006735351 0.07461492 0.057129465 -0.019946747 -0.0020685233 0.072074816
0.07870514 0.062848635 -0.08303665 0.024846071 0.07428057 -0.037072 -0.020379113 -0.07129432
-0.007901337 -0.022445798 0.008765814 0.017999578 0.03844211 0.012301171 0.068664566 0.066613205
0.030454574 -0.04410774 -0.05510826 -0.03114742 -0.008882373 0.0328346 -0.06912672 -0.09055145
0.065886304 -0.011859731 -0.036115114 -0.028892629 -0.06764585 -0.030973176 0.02107151 0.0045257783
0.012695305 0.042240195 0.024188302 -0.06510241 0.015820833 0.027492277 0.01589986 0.027524909
-0.055055283 0.08109926 -0.01872213 0.02926445 -0.066470385 -0.030410035 0.05017966 -0.05658772
-0.04727353 -0.021877317 -0.061542876 0.02404007 -0.030765366 0.008845583 0.039639875 0.008192327
-0.0027393578 -0.07365173 0.017076997 -0.0126703745 0.04566757 0.013860148 -0.05610813 0.06612185

sequential/conv2d_3/Conv2D f4 [64, 3, 3, 64]
00000000: c451 ee3c 7c53 133d 66e3 66bd 3a0b 7e3c
00000010: 0b86 053d b7d7 46bd cb62 683d c19f f63c
00000020: 094f 563d 1adf 4f3d 6c0f 563d 8949 e53c
00000030: e455 033d fbbe 07bd 053c 3a3d 6a7d 823d
00000040: 9fb3 87bc 1546 91bc 0c13 573d 4407 69bd
00000050: 4160 00bd 2747 593c d63f c23c 978c ae3c
00000060: 24a1 1a3d dadd 613d b951 593c 4262 5ebc
00000070: fa71 593b f615 8fbc dcef 2ebd f563 6ebd
00000080: 879c 383d 8309 933d 5541 1dbd 547d 07bd
00000090: 476d 96bc fa50 8c3d d458 40bd 5a1a 723d
000000a0: 6a2a d5bc de72 8ebd 6f01 6cbd 54e9 e63b
000000b0: 8758 9fbc 1ec6 95bd 6946 0dbc 6749 23bb
000000c0: b573 f9bc 7c84 7ebd f7b1 dd3c 4291 63bd
000000d0: 295d dcbb 2640 713d 2f4a 763d 5b87 86bd
000000e0: 925c 843d 72cc 57bd 2202 99bd 21e2 70bb
000000f0: f75e 77bc c402 05bd f1c4 21bd 5965 8bbd
00000100: 1891 c83c f208 16bc 7079 38bd 54dc 0f3d
00000110: b099 61bd f5bb 383d 1f54 49bc 4d3c 4abd
00000120: 98f8 99bd a937 563d c41c 863c 3e39 87bd
00000130: f06e 17bc 7af2 8fbd cc84 c9bc ea61 42bb
00000140: b7ee 903c 0352 663d 5e68 88ba 5988 273c
00000150: b9a3 83bd 8432 aa3c a954 6cbd f02d d6bc
00000160: 59a1 253d 3f45 07bc 78e9 d9bb 188f 7f3d
00000170: 490a 4a3d ab24 543c 00c4 adbb a36b 1c3d
00000180: b09a 7f3d 1a39 03bb d249 193c 52b4 9bbc
00000190: 73c3 53bd 78f7 3ebc e061 8c3d 0034 4ebd
000001a0: 1556 aabc 0602 8cbd ed8a b6bb 5fcd 80bd
000001b0: 7524 af3c 8d54 86bd 4b07 f9bc e137 84bb
000001c0: b47a 8d3d ba6c 96bd 8531 583d f44e 68bd
000001d0: 1c96 113d 7013 f53c 7c99 69bc 33e6 80bd
000001e0: 6f05 73bd 97b5 4dbd 21d5 6dbd 5289 b63c
000001f0: 1377 f03a 4537 913c a792 243c b22e 2ebd
00000200: 6628 3e3d 5210 fcba d2c8 783d fa87 9fbb
00000210: 909e 9bbc ba53 1bbc e288 553d 587a a83d
00000220: 53e9 b1bb 7345 5f3c d828 7d3d c497 44bd
00000230: 5b7b 603d 5d43 81bb ae60 8bbd 386d 83bd
00000240: 1780 6e3c 1ea7 29bd eae9 23bd 4f4c 13bd
00000250: 2272 173d 80e2 5bbc 534f 5b3d 37bd 9e3d
00000260: 4a7e 40bc 73d9 bebc 6ce3 413d b93a b3bc
00000270: cc7c 15bd dd78 0ebc 868a 483d d415 113d
00000280: 59a4 613d 2dff a93c e5d2 763b 8d81 cd3c
00000290: a47b 243d f203 8a3d 4508 a83c 35cb 293d
000002a0: b526 883c f63f 1d3b 3a31 fc3c a74b 313d
000002b0: 6874 3e3c 224c 2c3c 99ac 4cbd 35f8 553d
000002c0: 6637 bfbc d2c1 7e3d da73 8dbd 791d 7bbd
000002d0: 1f58 13bc 7f31 953d 75b0 3a3d 8b3b 68bd
000002e0: 5158 0fbb 2314 9a3d f335 7b3d 4d1a 91bc
000002f0: 90f4 943b 41c9 0abd 2d5b 2a3d d54a 88bd
00000300: 8b19 073d a82a 61bd 53c3 e43c d60d 99bd
00000310: 80fa 813d 162c 913d 56cb d03c 438f ce3a
00000320: aaed 413d 2f48 803d 405b e33c 6c8c 993d
00000330: 9079 063c 5949 353c c0bc ab3b dffb 16bd
00000340: 413e acbc 21bb e83c 03d0 51bd aec0 81bd
00000350: e910 79bc b5c7 97bd 424d 3b3d 2da5 4bbd
00000360: f534 8abd e210 8c3d 02bb cfbc e701 6e3d
00000370: af0e 5abd 077d 80bd 85c0 85bc da4c 39bd
00000380: 4a4d 5c3d 3791 f4bc 0fe8 043d 4a9b 8f3d
00000390: eb35 603d 5f67 53bd 7f0a f7bc 01b7 863d
000003a0: ca0c 7abc 4000 173d c3b4 b53b 4bcb cd39
000003b0: 8f5e 9f3b e7a3 3dbd 8485 6fbd 5f0a 2dbc
000003c0: 0dde 31bd d74a e83c 6081 3c3d 54d1 57bd
000003d0: 5e25 b5bc 8b81 72bd f4b3 c13c 025e 39bd
000003e0: 1571 2bbd 4ae7 9fbc 51c6 6dbd 2384 37bd
000003f0: 72f4 683d c365 9c3c 0bc8 983b 6178 8c3d
0.029091723 0.03596829 -0.056369208 0.015505606 0.032598536 -0.048545565 0.05673484 0.030105473
0.052321468 0.050749876 0.0522608 0.027989166 0.032064334 -0.033141118 0.045467395 0.06371577
-0.016565142 -0.017733613 0.0525084 -0.056891695 -0.031341795 0.013261593 0.02371208 0.021307273
0.037751332 0.055143215 0.013264113 -0.013573231 0.0033179508 -0.017466526 -0.042709216 -0.058200795
0.04507115 0.071795486 -0.038392384 -0.033078507 -0.018362654 0.068513826 -0.046959713 0.059107162
-0.026021201 -0.06955503 -0.057618555 0.007046858 -0.019451393 -0.073131785 -0.008622744 -0.0024915577
-0.030450681 -0.062138066 0.0270624 -0.05555845 -0.0067249727 0.058899067 0.06012934 -0.06568786
0.06462969 -0.05268521 -0.0747111 -0.0036755877 -0.015098325 -0.03247334 -0.03949446 -0.0680644
0.024483249 -0.009157406 -0.045037687 0.03512223 -0.05507821 0.045101125 -0.012288122 -0.049373914
-0.075181186 0.052299175 0.016371138 -0.06602715 -0.009242758 -0.070286706 -0.024599455 -0.0029660412
0.017691953 0.056230556 -0.001040708 0.010225379 -0.06427712 0.02077604 -0.057697926 -0.026144952
0.040437076 -0.008256256 -0.006650146 0.062392324 0.049326215 0.012948195 -0.005302906 0.038188588
0.06240338 -0.002002305 0.009355979 -0.019006882 -0.051700067 -0.011655681 0.06854606 -0.05034256
-0.020793 -0.068363234 -0.0055707605 -0.062891714 0.021379689 -0.065590955 -0.030398985 -0.0040349816
0.069081694 -0.07344957 0.0527816 -0.05671592 0.035543546 0.029916495 -0.014257785 -0.06293907
-0.059331354 -0.050222006 -0.058064584 0.022282276 0.0018346034 0.01772655 0.01004473 -0.042525
0.046425246 -0.0019230938 0.060738392 -0.0048685046 -0.018996507 -0.009480411 0.052132495 0.0822646
-0.0054294257 0.013627398 0.06180653 -0.047996297 0.05480514 -0.003944798 -0.068055496 -0.06417316
0.014556906 -0.04141914 -0.040018 -0.035961445 0.03697408 -0.013420701 0.053542446 0.077509336
-0.01174886 -0.023297047 0.047336027 -0.021878587 -0.03649597 -0.008695808 0.04896023 0.035421208
0.055088375 0.02075156 0.0037662324 0.025086189 0.040156975 0.06739034 0.020511756 0.04145356
0.01662002 0.0023994423 0.030785192 0.04328504 0.011624433 0.010516198 -0.04996929 0.05223866
-0.023341846 0.06219656 -0.069068626 -0.061307404 -0.008993178 0.07284831 0.04557844 -0.05669741
-0.002187271 0.07523372 0.061330747 -0.017712737 0.0045457557 -0.033883337 0.04159086 -0.06654898
0.032983344 -0.05497232 0.02792517 -0.07473342 0.06346607 0.07088487 0.025487583 0.0015759248
0.047345795 0.06263768 0.027753472 0.074974865 0.008207694 0.011064851 0.0052410066 -0.036861297
-0.021025779 0.028409543 -0.051223766 -0.06335579 -0.015201786 -0.07411138 0.045727976 -0.04971807
-0.06748382 0.06839158 -0.025357727 0.058107283 -0.05323666 -0.06273847 -0.016327152 -0.045239307
0.053784646 -0.0298544 0.03244787 0.07012041 0.05473892 -0.051612254 -0.030156372 0.06577874
-0.015261838 0.036865473 0.00554523 0.00039252112 0.004863567 -0.046298888 -0.05847694 -0.010561555
-0.043424655 0.028355999 0.04602182 -0.052689865 -0.022112545 -0.059205573 0.023645379 -0.04525567
-0.04185589 -0.019519467 -0.058050457 -0.04480375 0.056873746 0.019091493 0.004662519 0.06858898
