kernel_vs_latency/dnn_gray_32_k2_float.tflite (tflite, 794220 bytes, 12 tensors)

sequential/conv2d/BiasAdd/ReadVariableOp/resource f4 [32]
0	0x3cc33f54	0.023833908
1	0xbc2bc799	-0.0104845995
2	0x3c848b93	0.016179835
3	0x00000000	0.0
4	0xbcd1f3d3	-0.02562896
5	0x00000000	0.0
6	0xbcccfeac	-0.02502378
7	0x3c806b12	0.015676055
8	0xbb99eba1	-0.0046972786
9	0x3b7d37fe	0.003863811
10	0x3c55c72a	0.013047973
11	0xba1c86e5	-0.00059710286
12	0x3d3126c8	0.043249875
13	0x3c33f000	0.010982513
14	0xbc049fd1	-0.008094744
15	0xbb9295f8	-0.004473444
16	0xbc76954d	-0.0150502445
17	0xba5990b5	-0.0008299456
18	0x3c48c92e	0.012254996
19	0xbccf1ca0	-0.025282204
20	0xbc8d07d1	-0.017215641
21	0x00000000	0.0
22	0x3cf872d7	0.030328197
23	0xbc0755fc	-0.008260246
24	0x3c894f9b	0.016761592
25	0xbccf631c	-0.025315814
26	0x3c93993e	0.018017408
27	0xbc8271b3	-0.015923357
28	0x3c407cba	0.011748487
29	0x3cb3643c	0.021898381
30	0xbb267ca9	-0.0025403893
31	0xbc8ae4cf	-0.016954808

sequential/conv2d_1/BiasAdd/ReadVariableOp/resource f4 [32]
0	0x3cc2b5a6	0.023768257
1	0x3c1063e3	0.008812877
2	0xbca7751f	-0.02044159
3	0x3c521013	0.012821215
4	0xbcaacef8	-0.020850644
5	0x3ce2e8de	0.02769893
6	0x3cb64698	0.022250459
7	0xbd1325cc	-0.035924718
8	0xbc0a70af	-0.008449717
9	0x3c674ba8	0.014117159
10	0x3c51df97	0.012809656
11	0x3c87f4a8	0.016596153
12	0x3c1feddb	0.009761299
13	0x3c95cfb7	0.018287523
14	0xbb8b9cc9	-0.0042606336
15	0xbc2f5fdc	-0.010704007
16	0x3c6e353a	0.014539057
17	0xbc2264d1	-0.009911732
18	0xbad731d5	-0.0016418049
19	0x3c386d92	0.011256592
20	0x3bfb204e	0.007663763
21	0x3c01b384	0.007916335
22	0x3c8f6892	0.017505918
23	0xbc65b546	-0.01402027
24	0xba472fa4	-0.00075983466
25	0xbc354fa3	-0.01106635
26	0xbcbc21f2	-0.022965405
27	0x3c9568ee	0.018238511
28	0xbc85685e	-0.016285118
29	0x3c819665	0.015818784
30	0x3cd03f04	0.025420673
31	0xbcb3903a	-0.021919359

sequential/conv2d_2/BiasAdd/ReadVariableOp/resource f4 [64]
0	0x39c3026d	0.00037195106
1	0x3c5e228b	0.01355804
2	0x3c7623a3	0.015023145
3	0xbb119820	-0.0022215918
4	0x3c801976	0.01563714
5	0xbbf1f184	-0.0073835272
6	0x3c9a6f4a	0.018851895
7	0xbc91b7bb	-0.017787805
8	0x3c2ad03e	0.010425625
9	0xbc829184	-0.015938528
10	0x3c9c98cc	0.019115828
11	0x3c6cb588	0.014447577
12	0xb9cb1a6b	-0.0003873886
13	0xbc3a2ca9	-0.011363187
14	0x3c244bb4	0.010027815
15	0x3cbd54d5	0.02311174
16	0x3c504a39	0.012713009
17	0x3c2ac907	0.010423905
18	0x3c2d5e92	0.010581629
19	0x3b7c72ee	0.0038520652
20	0x3c37ac9b	0.011210586
21	0x3c8e3af3	0.017362094
22	0x3beb4200	0.0071794987
23	0x3b5cd653	0.0033697083
24	0x3c8198af	0.015819876
25	0xbc5e39af	-0.0135635575
26	0x3bda3a9d	0.0066598193
27	0x3bdcb42f	0.0067353467
28	0x3bbccd82	0.005761803
29	0x3bee0778	0.007264074
30	0xbc81eb4f	-0.015859274
31	0x3c439f21	0.011939795
32	0xbc7dacfd	-0.015483138
33	0x3c346c5f	0.011012166
34	0xbc261eab	-0.010139148
35	0xbc73b151	-0.0148738185
36	0x3b9aa88c	0.0047197994
37	0x3c8edf08	0.017440334
38	0x3ac279ce	0.0014837326
39	0x3c22fd15	0.009948035
40	0xbc3b0df2	-0.011416899
41	0x3a21158b	0.0006144873
42	0xbc92766f	-0.01787874
43	0x3c368175	0.011139263
44	0x3c105f85	0.008811836
45	0x3bd9002e	0.006622336
46	0x3c16400b	0.0091705425
47	0x3c7a0c3e	0.015261708
48	0xbc720ed2	-0.014774041
49	0x3c5cf8e3	0.013487074
50	0xb947c85e	-0.00019052761
51	0xbac84f71	-0.0015282464
52	0x3be000cb	0.006836032
53	0x3c79f0c0	0.015255153
54	0x3c61db34	0.013785172
55	0xbc55d853	-0.013052064
56	0x3aa41783	0.0012519214
57	0xbc842f27	-0.016135765
58	0xbc97a8cb	-0.018513104
59	0x3a834851	0.0010016059
60	0x3bd0c286	0.0063708453
61	0xbc68f544	-0.014218632
62	0xbc808732	-0.015689466
63	0x3bb89913	0.0056334822

sequential/conv2d_3/BiasAdd/ReadVariableOp/resource f4 [64]
0	0xbc4b1b89	-0.012396702
1	0xbc445564	-0.011983249
2	0x3c2ac1f9	0.010422223
3	0xbad10fee	-0.0015950182
4	0xbb9128e2	-0.0044299224
5	0x3c01b087	0.007915623
6	0xbc6a6953	-0.014307338
7	0xbc04ce7a	-0.0081058685
8	0x3b081ac8	0.0020767916
9	0xbb1f00f4	-0.0024262043
10	0x3b8d8e63	0.0043199523
11	0x3be64433	0.007027173
12	0xbbe40bd7	-0.006959419
13	0xbb2641f1	-0.0025368894
14	0xbc6549f9	-0.013994687
15	0xbc813688	-0.015773073
16	0xbc6a0b48	-0.014284916
17	0x3c00b1a3	0.007854852
18	0xbb7d8f93	-0.0038690313
19	0x39ea4787	0.0004468525
20	0x3bf84949	0.0075770956
21	0x39e69c4d	0.00043985472
22	0x3be8e01f	0.0071067954
23	0x3be76813	0.007061967
24	0x3c28a267	0.010292626
25	0xbbe5da2f	-0.007014535
26	0x3bf70905	0.007538917
27	0x3c090fbb	0.008365567
28	0xbc451cab	-0.012030761
29	0xbc2e5cef	-0.010642274
30	0xb82bf42a	-4.0996973e-05
31	0x3bc9b1f8	0.0061552487
32	0xbc75c051	-0.014999465
33	0xba89817a	-0.0010490858
34	0xbc30c534	-0.010789204
35	0xbc4caa43	-0.012491765
36	0x3c39ae62	0.01133308
37	0xbc77daaf	-0.015127822
38	0x3c1502c2	0.009094896
39	0x3c096bb1	0.008387492
40	0xbb6add33	-0.0035837411
41	0x3c02480d	0.007951749
42	0xbb9a39d9	-0.004706603
43	0x3b00661d	0.0019592114
44	0x3bcd96e6	0.006274092
45	0xbc4279f9	-0.011869901
46	0xbbba67e3	-0.005688654
47	0xbbb2ed75	-0.005460436
48	0x3af29e0f	0.001851024
49	0x3c1660df	0.009178369
50	0x3bfad557	0.0076548266
51	0xbc463ec4	-0.012099925
52	0xbc64c6ff	-0.01396346
53	0x3ba2b96c	0.0049659517
54	0xbc2c86cd	-0.010530186
55	0xbc28ca68	-0.010302164
56	0xbc43a39b	-0.011940862
57	0xbc5f1bea	-0.013617495
58	0xb9552bae	-0.00020329535
59	0xbc513987	-0.012770063
60	0x3bafea9c	0.005368544
61	0x3bea1e30	0.007144712
62	0xbb1023f9	-0.0021994098
63	0x3bf013a5	0.0073265606

sequential/dense/BiasAdd/ReadVariableOp/resource f4 [512]
0	0xbc23d09d	-0.009998468
1	0x3c196b68	0.009363987
2	0x3c1b37dd	0.009473768
3	0x3b70b260	0.0036727414
4	0x3c015065	0.007892703
5	0x3a174e10	0.0005771825
6	0x3c0928aa	0.0083715115
7	0x3c01737f	0.007901072
8	0xbc345706	-0.011007076
9	0xbc1e01e6	-0.009644007
10	0x392a9224	0.00016266905
11	0xbc27d956	-0.010244688
12	0xba880858	-0.0010378463
13	0xbbbd32a7	-0.0057738605
14	0x3c1b7bb8	0.009489946
15	0xbac1b05b	-0.001477729
16	0xbc37f08d	-0.011226785
17	0x3c23eb27	0.010004795
18	0x3b921453	0.0044579892
19	0xbbbb59b3	-0.00571748
20	0x3c32b5de	0.010907618
21	0xba3b464d	-0.00071439595
22	0xbc10ad5f	-0.008830397
23	0x3c2fc8df	0.010729044
24	0xbc339907	-0.0109617775
25	0xbac9d451	-0.0015398358
26	0xbb5377ce	-0.0032267454
27	0x3b9d3559	0.0047976193
28	0xbab5a477	-0.0013858218
29	0x3c451f22	0.012031348
30	0x3bef4728	0.0073021837
31	0x3ba142d6	0.0049212975
32	0xbc1c775e	-0.009549944
33	0x3c43e901	0.011957408
34	0x3aa02c08	0.0012220154
35	0x3a504da3	0.0007946139
36	0xbbe97811	-0.0071249087
37	0x3bfbc00a	0.007682805
38	0xbbe8d0e7	-0.007104981
39	0x3c0a5957	0.008444152
40	0xbc39597a	-0.011312837
41	0x3a97d640	0.0011584237
42	0xbc515457	-0.012776456
43	0x3be9f75e	0.007140084
44	0x3c312e0e	0.010814203
45	0xb987a08d	-0.00025868826
46	0x3c19f069	0.009395697
47	0x3c2e29ad	0.0106300535
48	0x3c2f81dc	0.010712113
49	0xbb61bdfa	-0.003444551
50	0x3c0bf2fc	0.008541819
51	0xbc2945d5	-0.010331591
52	0x3c2bfb49	0.010496923
53	0xb9b82b81	-0.00035127628
54	0xb5726532	-9.0299284e-07
55	0x3c00c252	0.00785883
56	0x3c310404	0.01080418
57	0x3bf8c8b2	0.007592284
58	0xbb75a5b7	-0.0037482807
59	0xbc0a0ebb	-0.008426364
60	0x3c088da9	0.008334556
61	0xbba465b1	-0.0050170054
62	0x3c23bd48	0.009993859
63	0x00000000	0.0
64	0xbc359df2	-0.01108502
65	0x3c25b17c	0.010113116
66	0xbbf97cb9	-0.007613745
67	0xbb8e34c8	-0.004339788
68	0xbc26ae85	-0.010173445
69	0x3c298c1d	0.010348347
70	0x3b804166	0.003914046
71	0x3c304c6f	0.010760411
72	0xbaa31a79	-0.0012443803
73	0x3bd310b2	0.006441199
74	0xbb963f41	-0.004585177
75	0xbb40836e	-0.0029375213
76	0x3b375f3c	0.0027980348
77	0xbc05fec7	-0.008178419
78	0x3b1ffa41	0.0024410638
79	0xbc269b24	-0.010168824
80	0xbc40e944	-0.011774365
81	0x3c13e5ce	0.009026958
82	0x3bf848d3	0.0075770407
83	0x3be98852	0.0071268464
84	0x3c332082	0.010933043
85	0x00000000	0.0
86	0x3c340bc2	0.010989131
87	0xbbb3dfe1	-0.005489335
88	0xbc3ecb0a	-0.011645088
89	0x3b4ea8bd	0.0031533681
90	0x3c6f4756	0.01460441
91	0xbc369465	-0.011143778
92	0xbb9d94cf	-0.004808999
93	0x3c5839ae	0.013197346
94	0xbc09f245	-0.008419578
95	0xbc3514dc	-0.011052337
96	0x3c289605	0.010289674
97	0xbc580483	-0.013184669
98	0xbc35bee7	-0.011092878
99	0xbc1ac3ab	-0.009446065
100	0x3c3dcfa7	0.011585153
101	0xbbbdff52	-0.005798259
102	0xbb62a606	-0.003458382
103	0xbb5cbda2	-0.0033682366
104	0x3b6f44d7	0.0036509538
105	0xbc39c52c	-0.011338513
106	0xbc3ad23a	-0.011402661
107	0xbc399c43	-0.01132876
108	0xbc48351f	-0.012219696
109	0x3c4ee8f0	0.012628779
110	0xbc08804e	-0.0083313715
111	0xbc07b93a	-0.008283908
112	0x3c3138d2	0.01081677
113	0xbc3b0360	-0.011414379
114	0x3c23e94c	0.010004353
115	0x3c2f0f4d	0.0106848
116	0x3b2a7cb5	0.0026014273
117	0x3bbfc66f	0.0058525125
118	0xbc232f1e	-0.009959964
119	0x3bd57889	0.006514613
120	0x3aef01bc	0.001823477
121	0xbbd0d7c9	-0.00637338
122	0xbc138340	-0.00900346
123	0xbb7fa6ee	-0.003900941
124	0xbc3917ae	-0.01129715
125	0xbc34b47d	-0.01102936
126	0xbbfd3095	-0.0077267387
127	0xbc32a6ec	-0.010904055
128	0x3c296cbc	0.010340866
129	0xbc33bc63	-0.010970208
130	0xbbdd3c30	-0.0067515597
131	0x3be4d8b7	0.0069838422
132	0x3a78512e	0.0009472546
133	0x3c1e0137	0.009643844
134	0x3a74f87a	0.0009344887
135	0x3c1c6306	0.009545093
136	0x3c1b8f5d	0.00949463
137	0xb50427af	-4.923158e-07
138	0x3baa8d09	0.005204801
139	0xbbf70622	-0.007538573
140	0x3b68153e	0.0035413052
141	0x3c0b2398	0.008492373
142	0x3ba47f18	0.0050200336
143	0x3bd8d6c6	0.0066174
144	0x3c4019ff	0.011724948
145	0x3c294e1b	0.010333563
146	0xbc399f6f	-0.011329516
147	0xbc37ce82	-0.011218669
148	0x3c2facb3	0.010722327
149	0x3bdeb45c	0.006796403
150	0xbbd2054a	-0.006409322
151	0x3bf99923	0.0076171323
152	0x3b6128bb	0.0034356553
153	0x00000000	0.0
154	0x3bf2c19a	0.007408333
155	0x3c0695f4	0.008214463
156	0xbc1e7687	-0.009671814
157	0xbc008416	-0.007843992
158	0x3c16db5d	0.009207574
159	0xbaf743f3	-0.0018864855
160	0xbc410687	-0.011781341
161	0xbc34db36	-0.011038592
162	0xbb935961	-0.004496739
163	0xbc345eaa	-0.011008898
164	0xbc0137b2	-0.007886814
165	0x3c2183d5	0.009858091
166	0x3c014ce1	0.0078918645
167	0xbbdc5d52	-0.006724992
168	0x3b3a70a6	0.0028448491
169	0xbc0c5284	-0.008564595
170	0x3bfe9581	0.007769287
171	0xbc3c9f24	-0.011512551
172	0xbc439c10	-0.011939064
173	0x3c3b3731	0.011426733
174	0x3ba63a93	0.0050729006
175	0x3c459095	0.012058397
176	0xbc30c386	-0.010788804
177	0xbb019462	-0.001977228
178	0x3bf9cf4f	0.00762359
179	0x3c4d19e9	0.0125183845
180	0x3ba0c814	0.0049066637
181	0x3bc5f30a	0.0060409354
182	0x3b064f0d	0.0020493895
183	0xbc041ba3	-0.00806323
184	0x3bf41977	0.0074493247
185	0x3818a526	3.639343e-05
186	0x3c07e47b	0.00829422
187	0x3c325c31	0.010886238
188	0xbc3ada95	-0.011404653
189	0x3bff96f8	0.0077999793
190	0xbbb379e8	-0.005477179
191	0xbc3bd6be	-0.011464773
192	0xbc3ca07e	-0.011512874
193	0x3b715b34	0.0036828043
194	0xbb13cf3e	-0.0022553946
195	0xbc124000	-0.008926392
196	0xbb4b0cf7	-0.003098307
197	0x3c62c85b	0.013841714
198	0x3bacc15a	0.0052720727
199	0x3c12c87d	0.008958933
200	0x3bb3b24e	0.005483902
201	0xbc7a299a	-0.015268708
202	0x3c403086	0.011730319
203	0x3b2e2880	0.0026574433
204	0xbc2fed87	-0.010737783
205	0xbafe750e	-0.0019413547
206	0x3aa581ea	0.0012627218
207	0xbc1ba947	-0.009500808
208	0xbb8b241d	-0.0042462484
209	0x3c166cdf	0.00918123
210	0xbc0f5427	-0.008748091
211	0xbc3643ce	-0.011124564
212	0x3adc99dc	0.0016830522
213	0xbc3bf7de	-0.01147267
214	0xbbeb914a	-0.0071889507
215	0x3c320ced	0.01086734
216	0xb8ee5e3c	-0.00011366277
217	0x3ba01c15	0.00488616
218	0xbb85eb48	-0.0040868856
219	0xbba1b621	-0.0049350415
220	0xbb3d44b9	-0.0028880073
221	0xbbc13ee9	-0.005897392
222	0xbb02ac4b	-0.001993912
223	0xbbaa6c0a	-0.0052008675
224	0x3c0c5157	0.008564315
225	0x3baf68f4	0.0053530876
226	0x3c17e13c	0.009270009
227	0xbc122a5d	-0.008921233
228	0x3bc6756a	0.0060564773
229	0x3c2742da	0.01020881
230	0xbc3b98ae	-0.011449976
231	0xbc57f98c	-0.013182055
232	0x397012e3	0.0002289522
233	0xbc311e27	-0.010810412
234	0xb9da7e05	-0.00041674092
235	0x3c31c1cb	0.0108494265
236	0x3be6a5b6	0.0070387973
237	0x3c09c423	0.008408579
238	0x3c0e3fd6	0.008682212
239	0xbc206234	-0.009789038
240	0x3c304aa8	0.010759987
241	0x3c2ef5c5	0.010678713
242	0xbc156f33	-0.00912075
243	0x3b07bd8b	0.0020712342
244	0xbb30df03	-0.0026988394
245	0x3b098fa0	0.0020990148
246	0xbadeca1e	-0.0016997491
247	0x3c0fe3cc	0.008782338
248	0x3bcaaba5	0.0061850124
249	0xbc11016f	-0.008850439
250	0x3c215197	0.009846113
251	0x3bfd0a85	0.0077222013
252	0x3c3bda0b	0.01146556
253	0x3c2e45ec	0.010636788
254	0xbc12c300	-0.008957624
255	0xbc38114c	-0.011234593

sequential/dense_1/BiasAdd/ReadVariableOp/resource f4 [2]
0	0x3c33ffbe	0.010986267
1	0xbc33ffc3	-0.010986271

sequential/dense/MatMul f4 [512, 256]
0	0xbd7f9716	-0.062399946
1	0xbd31a6bf	-0.043371912
2	0xbc460ebb	-0.012088473
3	0x3c41fdcf	0.011840298
4	0x3d430344	0.047610536
5	0xbd721d64	-0.05911006
6	0x3cef7d38	0.029234514
7	0x3d47ee91	0.0488115
8	0xbd925ec8	-0.07146984
9	0x3d4b46d6	0.0496281
10	0xbbe25885	-0.006907525
11	0x39bbd0ef	0.00035823087
12	0xbd23820a	-0.039918937
13	0xbd8896b8	-0.06669372
14	0xbd967536	-0.07346575
15	0xbd6a6ec8	-0.057234555
16	0x3dad7fdc	0.08471653
17	0x3da0eef9	0.078580804
18	0x3cb8f284	0.022576578
19	0x3d4f7402	0.050647743
20	0x3cf08fd8	0.029365465
21	0xbd4886d3	-0.048956703
22	0xbdabc125	-0.08386449
23	0xbcfa6c0c	-0.030569099
24	0xbd976904	-0.07393077
25	0x3d4a1388	0.049335033
26	0x3c27a862	0.010233017
27	0x3c52de46	0.012870377
28	0xbd394a7c	-0.04523705
29	0x3cfa7023	0.03057105
30	0x3d19caa9	0.037546787
31	0x3c8b1b2f	0.016980736
32	0x3c4068de	0.011743752
33	0x3d4ce651	0.050024334
34	0xbd68b1f8	-0.05681035
35	0xbd6468c4	-0.055763975
36	0x3d63f2f6	0.055651627
37	0x3c437bc0	0.01193136
38	0x3daed92f	0.08537518
39	0x3d4ac73b	0.049506407
40	0xbd1ea87f	-0.03873491
41	0xbcea818e	-0.02862623
42	0x3d19ba07	0.037530925
43	0x3cf14424	0.029451437
44	0xbdb9f2b2	-0.090794936
45	0x3d8426fe	0.0645275
46	0xbd2e21ca	-0.042512693
47	0xbcd2aec1	-0.025718095
48	0x3d722516	0.0591174
49	0x3d52c335	0.051455695
50	0xbb89d81c	-0.0042066704
51	0x3be08746	0.0068520634
52	0xbc73f0e0	-0.014888972
53	0xbcb9b366	-0.022668552
54	0x3c7bdd70	0.015372619
55	0xbcf6616f	-0.030075757
56	0xbc33bcbc	-0.010970291
57	0xbd70facf	-0.05883294
58	0x3cf10302	0.02942038
59	0x3c4f8091	0.01266493
60	0xbcbb2556	-0.022844952
61	0x3da13a63	0.078724645
62	0x3da3d1ef	0.07999026
63	0x3db3a343	0.08771374
64	0xbd00bc9d	-0.031429876
65	0x3c991f5d	0.018691713
66	0x3d0f5302	0.03499127
67	0xbd31d323	-0.043414246
68	0x3d7cc9fa	0.061716057
69	0xbd8e859c	-0.06959078
70	0xbd7c51bc	-0.061601385
71	0xbd7ab59f	-0.061208364
72	0x3c8ea5ce	0.017413046
73	0xbd68fc14	-0.056881025
74	0xbcab2688	-0.020892397
75	0xbd53f3f0	-0.05174631
76	0xbd1391df	-0.036027785
77	0x3d111ca4	0.035427704
78	0x3ba3ce25	0.0049989396
79	0x3cc65512	0.024210487
80	0x3d9d8623	0.076916
81	0x3dad8195	0.084719814
82	0x3da31149	0.07962281
83	0xbca637a7	-0.020290209
84	0x3c1e17ca	0.009649226
85	0x3d91133b	0.07083746
86	0xbd2ee038	-0.0426943
87	0x3b803224	0.003912227
88	0xbd91ae50	-0.071133256
89	0x3daa1751	0.083052285
90	0xbd979cf7	-0.074029855
91	0x3d22dc63	0.03976096
92	0x3d41dc20	0.04732907
93	0x3c3ae3da	0.011406863
94	0xbd0d16b1	-0.03444547
95	0x3c98af87	0.018638385
96	0x3d556f55	0.052108128
97	0xbd7f1ef4	-0.06228538
98	0x3c7e3714	0.015516061
99	0x3cd80d28	0.02637346
100	0xbdae10e4	-0.084993154
101	0xbd41485a	-0.04718814
102	0xbd01e420	-0.031711698
103	0xbd586117	-0.052826967
104	0xbb82b045	-0.003988298
105	0xbcfecf74	-0.03110478
106	0xbcfd3b33	-0.030912017
107	0xbc232b08	-0.00995899
108	0x3d662387	0.056186225
109	0xbd18785b	-0.037224155
110	0xbc98c48c	-0.018648408
111	0x3ceaf182	0.028679613
112	0x3d1fd806	0.039024375
113	0xbd7abf42	-0.061217554
114	0x3d016438	0.031589717
115	0xbcbd14dc	-0.023081236
116	0x3ca702ab	0.020387014
117	0x3db1278f	0.08650123
118	0xbc684e25	-0.014178787
119	0x3dbd07e4	0.09230021
120	0x3cd6447b	0.0261557
121	0xbc2e2355	-0.010628541
122	0xbd58187e	-0.052757733
123	0x3d7b45cc	0.06134586
124	0x3cef9ade	0.029248651
125	0xbc8f4097	-0.017486854
126	0x3b299ce7	0.0025880875
127	0x3ca62c5e	0.020284828
128	0x3c8719b5	0.01649175
129	0xbd8fa29c	-0.07013437
130	0xbd3e251e	-0.046422116
131	0x3d8dc07b	0.06921478
132	0x3c2cda67	0.010550118
133	0xbd3db511	-0.046315257
134	0x3d17e10c	0.037079856
135	0xbda09adf	-0.07842039
136	0xbd5eecfc	-0.054425225
137	0xbd8173ed	-0.06320939
138	0xbc5af3a7	-0.013363755
139	0x3bdab7e7	0.006674755
140	0xbdbfc225	-0.09363202
141	0xbd111f91	-0.035430495
142	0x3d9b97ee	0.07597338
143	0x3d138294	0.0360132
144	0xbd428abd	-0.047495592
145	0x3cbe4e64	0.023230739
146	0xbc95588d	-0.0182307
147	0x3c9cd5f9	0.019144999
148	0x3d50230a	0.050814666
149	0x3ce07bcd	0.027402783
150	0x3da70de7	0.081569485
151	0xbbe2477d	-0.0069054947
152	0xbcfc2f8a	-0.030784387
153	0xbd2a1700	-0.04152584
154	0xbd3d76da	-0.046255924
155	0x3a1da704	0.0006013962
156	0x3c934f53	0.01798216
157	0x3d28100f	0.04103094
158	0x3c030781	0.007997395
159	0x3d184fbe	0.037185423
160	0xbd99697b	-0.07490822
161	0x3d16e53e	0.036839716
162	0xbc25f82a	-0.010129968
163	0x3d6d0476	0.057865582
164	0xbc44884e	-0.011995388
165	0x3d567d9c	0.052365884
166	0x3d2cd05f	0.042190906
167	0xbd6f2931	-0.058388893
168	0xbd72188e	-0.05910545
169	0xbd4d326d	-0.050096918
170	0xbdaeb50e	-0.08530627
171	0xbc811f67	-0.015762044
172	0xbd8a7bcd	-0.067618944
173	0x3db94968	0.09047204
174	0xbd2246fd	-0.03961848
175	0x3c7fbe56	0.0156093445
176	0x39a19df2	0.0003082599
177	0xbc29f6d2	-0.010373788
178	0x3daf6446	0.085640475
179	0xbd052235	-0.032503325
180	0x3da6c13e	0.08142327
181	0x3d5f0164	0.054444686
182	0x3dac4ed8	0.08413476
183	0xbd38b237	-0.045091834
184	0x3cb12260	0.021622837
185	0xbcbf9bd9	-0.023389744
186	0x3ce771be	0.028252479
187	0x3c88799d	0.016659552
188	0xbbc77742	-0.0060872147
189	0xbd40d4a9	-0.04707781
190	0xbd6c5a9a	-0.057703592
191	0x3d4c2539	0.049840186
192	0xbd558c41	-0.05213571
193	0x3da48efb	0.08035084
194	0xbd76aca5	-0.06022324
195	0x3b9a1265	0.0047019
196	0x3d876ed0	0.06612933
197	0xbd2de775	-0.042457063
198	0x3d98db58	0.074637115
199	0x3d4435d2	0.04790289
200	0xbd135db3	-0.03597803
201	0x3d96f240	0.07370424
202	0x3c0456bb	0.008077319
203	0xbd28c335	-0.04120179
204	0xbc4ca1e9	-0.012489774
205	0xbc200358	-0.009766422
206	0xbcbee3da	-0.023302007
207	0x3da8cf95	0.08242718
208	0xbc4ec6c1	-0.012620629
209	0xbd91594b	-0.070971094
210	0x3db1de5d	0.086849906
211	0xbda06943	-0.07832577
212	0x3b22ddc4	0.002485142
213	0xbd5c9c66	-0.05386009
214	0x3d63a005	0.05557253
215	0xbcd04c1f	-0.025426922
216	0x3c7c5a4a	0.015402386
217	0x3c2edb7e	0.010672448
218	0xbc86b24a	-0.016442437
219	0xbc892a6f	-0.016743867
220	0xbb71950c	-0.003686252
221	0xbcd1679d	-0.025562102
222	0x3d8fe6d5	0.070264496
223	0x3cc97228	0.024590567
224	0x3d8c0af1	0.068380244
225	0x3da5b1ca	0.08090551
226	0x3cadf9b1	0.021237226
227	0xbd8943d8	-0.06702393
228	0xbd72b202	-0.059251793
229	0xbccd2eb7	-0.02504669
230	0xbd346230	-0.04403895
231	0x3d045068	0.032303244
232	0x3da5f97b	0.08104225
233	0xbd19a6fc	-0.037512764
234	0x3d0e620d	0.034761477
235	0xbda13147	-0.07870727
236	0x3db2e256	0.087345764
237	0xbd73cc97	-0.059521284
238	0xbd7784be	-0.060429327
239	0x3ce78f54	0.028266586
240	0xbc1ff42c	-0.009762805
241	0xbc2cb7e1	-0.010541887
242	0xbd7075ac	-0.05870597
243	0xbc0e57c4	-0.008687917
244	0xbd09d243	-0.033647787
245	0xbdb6cc73	-0.08925714
246	0xbd4a300e	-0.049362235
247	0xbd1041ab	-0.035218876
248	0xbc68f939	-0.014219576
249	0xbd68ef97	-0.056869116
250	0xbd212079	-0.03933761
251	0xbd091187	-0.03346398
252	0x3d8bada7	0.06820231
253	0x3d623b43	0.055232298
254	0xbcd0c2a7	-0.025483442
255	0x3cf63d6a	0.030058581

sequential/dense_1/MatMul f4 [2, 512]
0	0xbd974bb4	-0.07387486
1	0x3d309c36	0.043117724
2	0x3d1406d4	0.036139324
3	0x3d4a1fe4	0.04934682
4	0xbc89148c	-0.01673343
5	0x3d95a397	0.07306593
6	0x3ca8e1cc	0.02061548
7	0x3db30d87	0.087428145
8	0xbdc27aef	-0.09496104
9	0xbdaca660	-0.08430171
10	0xbd99c2af	-0.07507836
11	0xbd81c5f7	-0.06336587
12	0xbc4febb9	-0.012690478
13	0xbd520919	-0.051278207
14	0xbcdcfdc5	-0.026976475
15	0xbd2a4ec5	-0.041579027
16	0xbd852779	-0.065016694
17	0x3c7e94c8	0.015538402
18	0xbac1b372	-0.001477821
19	0x384a5fb0	4.824967e-05
20	0x3d2d5313	0.042315554
21	0xbd98505d	-0.07437203
22	0xbda8bf48	-0.08239609
23	0x3dd198a4	0.10234192
24	0x3d279992	0.04091794
25	0xbdc0ea32	-0.09419669
26	0xbdc11fcc	-0.09429893
27	0x3d0992c0	0.033587217
28	0x3d9d5791	0.076827176
29	0x3d4ccbcd	0.049999047
30	0x3d8d7ff0	0.06909168
31	0x3ca5b864	0.020229526
32	0xbdbb07d6	-0.09132354
33	0x3d5744fe	0.05255603
34	0x3beffbab	0.0073237023
35	0xbcdb5b05	-0.0267768
36	0xbdb4c2ee	-0.088262424
37	0xbd8f6a57	-0.070027046
38	0x3d93fc17	0.07225817
39	0x3dc1dd6e	0.094660625
40	0xbc952803	-0.018207556
41	0x3b8c44d7	0.0042806673
42	0x3db1913b	0.08670279
43	0x3da7a908	0.08186537
44	0x3d3ed42c	0.04658906
45	0x3ca5e669	0.02025147
46	0xbd8b8654	-0.068127304
47	0x3d981874	0.07426539
48	0x3da7ed92	0.0819961
49	0xbdd05925	-0.10173253
50	0x3d77900d	0.060440112
51	0xbd8212b0	-0.063512206
52	0x3dbf53b0	0.09342134
53	0xbc96bec2	-0.018401507
54	0xbb81f30d	-0.0039657415
55	0x3de95481	0.11393071
56	0x3ce033b3	0.027368402
57	0xbda4d765	-0.08048896
58	0xbbde60d2	-0.006786444
59	0xbd9c2b27	-0.07625418
60	0x3dc37bc2	0.09545089
61	0xbda9ccad	-0.08290992
62	0x3db09437	0.0862202
63	0x3cc122c8	0.023576155
64	0xbd92b36a	-0.07163127
65	0xbc0e575a	-0.008687818
66	0xbd8a7ae8	-0.06761724
67	0xbb9f64d1	-0.004864313
68	0x3d2155f2	0.039388604
69	0x3d80dfc0	0.06292677
70	0x3d2a82f9	0.04162881
71	0x3b857446	0.0040726988
72	0xbd8daec4	-0.069180995
73	0x3d5dba0c	0.054132506
74	0xbd68572a	-0.05672375
75	0x3d20259f	0.03909838
76	0x3c8b8748	0.01703228
77	0xbd3d8570	-0.046269834
78	0xbdc30de1	-0.095241316
79	0xbd4fa869	-0.050697718
80	0xbd37a613	-0.044836115
81	0x3d853941	0.06505061
82	0x3dc5cb38	0.096579015
83	0xbdbd9915	-0.09257714
84	0xbd0eb53d	-0.03484081
85	0xbda8ce15	-0.08242432
86	0x3d7cedaa	0.06175009
87	0xbc7cf3c4	-0.015438978
88	0xbdb5ebb9	-0.08882851
89	0x3d058b30	0.032603443
90	0x3de1d747	0.11027389
91	0x38bd2e97	9.0209e-05
92	0xbdb57254	-0.08859697
93	0x3df24b81	0.118308075
94	0xbc8c7a7d	-0.01714825
95	0xbd6c37f7	-0.05767056
96	0x3dd3e14b	0.103457056
97	0x3d379437	0.044819083
98	0xbd77ebd8	-0.060527653
99	0xbdd06328	-0.101751626
100	0x3da1b913	0.07896628
101	0xbdb10f3d	-0.086454846
102	0xbdb5b2e1	-0.08872009
103	0xbddfccd6	-0.10927741
104	0x3dda310b	0.106538855
105	0x3d642c46	0.055706285
106	0xbc5b766d	-0.013394934
107	0xbbb4459b	-0.0055014617
108	0xbd545245	-0.05183627
109	0x3c3db86a	0.011579612
110	0xbc60f1bc	-0.013729509
111	0xbdcba5c6	-0.09943728
112	0x3cad3fdc	0.021148615
113	0x3cc0b770	0.02352497
114	0xbca6f697	-0.020381255
115	0x3dbb19c0	0.09135771
116	0x3d90c969	0.07069666
117	0x3dbe7f09	0.09301574
118	0x3c411352	0.0117843915
119	0x3c8718cc	0.016491316
120	0x3d28e584	0.04123451
121	0x3ccb1255	0.024789015
122	0x3cbb6402	0.022874836
123	0xbd36ad72	-0.044599004
124	0xbd946f0d	-0.07247744
125	0xbddb3577	-0.10703557
126	0xbdde31e8	-0.108493626
127	0xbd58c57b	-0.052922707
128	0x3d9d37c2	0.076766506
129	0xbdb31ab6	-0.08745329
130	0x3c8040d7	0.015655918
131	0x3d84be1c	0.06481573
132	0xbdc1f077	-0.09469693
133	0x3d9943d9	0.07483644
134	0x3d651e13	0.055936884
135	0x3dac9842	0.084274784
136	0xbd7df08f	-0.061996993
137	0xbdb8569c	-0.090008944
138	0x3d191280	0.03737116
139	0x3d914adc	0.070943564
140	0x3dbf4512	0.09339346
141	0x3d1f072b	0.038825195
142	0x3d774577	0.06036898
143	0xbc59b3fc	-0.0132875405
144	0x3d6549b4	0.055978492
145	0x3d8a2e27	0.06747084
146	0x3cb3312b	0.021874031
147	0x3d753eda	0.059874393
148	0x3d835264	0.06412199
149	0x3de0cb25	0.10976247
150	0xbda3ec2b	-0.0800403
151	0x3d85e76d	0.065382816
152	0xbdd9325b	-0.10605308
153	0x3dd9eb34	0.106405646
154	0x3dcfbe77	0.1014375
155	0x3c6bd8ac	0.01439492
156	0xbd8cd5c4	-0.0687671
157	0xbb66f581	-0.0035241547
158	0x3d06bfae	0.032897644
159	0xbdd3b279	-0.10336775
160	0x3c1f5555	0.009724935
161	0xbcbc0687	-0.022952331
162	0x3d295733	0.041342925
163	0xbdc31980	-0.09526348
164	0xbd21ad3e	-0.039471857
165	0x3dcb817b	0.09936806
166	0x3dea01fe	0.11426161
167	0x3d0ff31b	0.035143953
168	0x3de08a88	0.10963923
169	0xbd901aa9	-0.07036335
170	0x3de8fca0	0.113763094
171	0xbd363084	-0.04447986
172	0xbdc0d158	-0.09414929
173	0x3cc393f2	0.023874257
174	0x3c4b9b53	0.012427169
175	0xbca00edf	-0.019538341
176	0xbd0f470f	-0.034979876
177	0x3d6f5113	0.058426928
178	0x3de76f17	0.113004856
179	0x3db2a02f	0.08721959
180	0xbcf8c34f	-0.030366568
181	0x3ddd382e	0.10801731
182	0xbd95cc63	-0.07314374
183	0xbdb3ac05	-0.087730445
184	0x3cf5ddad	0.03001293
185	0xbd8132fa	-0.06308551
186	0x3dd00f04	0.10159114
187	0x3dc72db2	0.097255126
188	0x3cc22850	0.023700863
189	0xbd31c5df	-0.043401595
190	0xbd0ac2de	-0.033877246
191	0x3d83fc88	0.06444651
192	0xb959337a	-0.00020713909
193	0x3d1fb42d	0.03899019
194	0xbd9b9f20	-0.0759871
195	0xbdc63b58	-0.09679288
196	0x3d66d237	0.05635282
197	0x3de867b8	0.11347908
198	0x3dad7ce9	0.0847109
199	0x3d748b17	0.05970296
200	0x3de5e9a4	0.11226204
201	0xbd957dee	-0.0729941
202	0x3de7e7ae	0.11323486
203	0x3dbbb417	0.09165209
204	0xbd8f5c12	-0.06999983
205	0xbcb2938f	-0.021798877
206	0x3cbab6c2	0.022792224
207	0xbd9754cc	-0.073892206
208	0x3db4e708	0.08833128
209	0x3d533e8b	0.051573317
210	0x3d47b277	0.04875418
211	0xbcf5b9fb	-0.029995909
212	0x3dbe8a8d	0.0930377
213	0xbd37bd7f	-0.044858452
214	0xbd6b393a	-0.057427622
215	0xbca6ea99	-0.020375537
216	0x3d662202	0.056184776
217	0x3df2a377	0.11847585
218	0xbd9aa2e6	-0.07550602
219	0x3a91a403	0.0011111501
220	0xbd102720	-0.035193563
221	0xbda79072	-0.08181848
222	0x3d8157c7	0.0631557
223	0xbd2e5f92	-0.04257161
224	0x3d809b7e	0.06279658
225	0x3d411c8f	0.047146376
226	0xbc2401aa	-0.010010162
227	0xbd3af578	-0.045644253
228	0x3c7ec896	0.015550753
229	0x3dbd12c8	0.09232098
230	0xbd81d3bb	-0.063392125
231	0xbdcfff8e	-0.10156165
232	0x3cef9c4f	0.029249338
233	0xbdc504c7	-0.09620052
234	0xbc3de4ff	-0.011590241
235	0x3d7994b4	0.06093283
236	0x3c9fce6f	0.019507615
237	0x3db5753d	0.08860252
238	0x3ddd16ab	0.10795339
239	0xbd5c63fd	-0.053806294
240	0x3ded790f	0.11595356
241	0x3dea0767	0.11427193
242	0xbddaec5d	-0.10689614
243	0x3dd36f72	0.10323991
244	0xbdb13a7a	-0.08653732
245	0x3d57ce23	0.05268682
246	0xbbd60a51	-0.0065319915
247	0x3c7c779d	0.015409377
248	0x3d9b47f5	0.07582084
249	0x3c97ac43	0.018514758
250	0x3dd784bc	0.10523364
251	0x3dabc7af	0.08387696
252	0x3d522ea4	0.05131401
253	0x3c261049	0.010135719
254	0xbdb780fd	-0.089601494
255	0x3d17b454	0.03703721

sequential/conv2d/Conv2D f4 [32, 2, 2, 1]
0	0x3d9df7a1	0.07713247
1	0xbe3839b9	-0.1799077
2	0x3d2567a9	0.04038206
3	0x3e1b4cdc	0.15166038
4	0xbc9ddaa6	-0.019269299
5	0xbe5434ad	-0.20723219
6	0x3dad060e	0.084484205
7	0xbca9e541	-0.0207392
8	0x3e13384f	0.14376949
9	0xbd66430c	-0.056216285
10	0xbe2fd9b8	-0.17172897
11	0x3dd0dd51	0.10198463
12	0xbd2a5194	-0.041581705
13	0xbde2427a	-0.11047836
14	0xbdb58955	-0.08864085
15	0x3d21cdd0	0.03950292
16	0x3e3f91a5	0.18707903
17	0x3e19e07c	0.1502704
18	0xbdcd49a5	-0.10023812
19	0xbbb9ee4c	-0.005674159
20	0xbd428e68	-0.04749909
21	0xbe2eb04a	-0.17059436
22	0xbd97060e	-0.07374202
23	0xbd25c6e0	-0.040472865
24	0xbd3c5576	-0.04597994
25	0x3c45c470	0.01207076
26	0x3e4a6f13	0.19768934
27	0xbc27f845	-0.010252063
28	0xbda4dc56	-0.08049838
29	0xbe1a19c8	-0.15048897
30	0x3e03376a	0.12814108
31	0x3da02bd0	0.078208566
32	0x3cb1944b	0.021677157
33	0xbdfdfb8c	-0.124014944
34	0xbd6ad6fc	-0.05733393
35	0x3e48681e	0.19570968
36	0xbd03c340	-0.032168627
37	0xbe40e37e	-0.18836781
38	0x3d0e5a68	0.034754187
39	0x3cfbf60f	0.030756978
40	0xbd525171	-0.0513472
41	0x3e3a28c2	0.1817961
42	0xbbb6d567	-0.0055796388
43	0xbd0c9a0c	-0.034326598
44	0x3d8ab6eb	0.0677317
45	0xbe0bfc4a	-0.1367046
46	0xbe546f03	-0.20745473
47	0xbe558d7d	-0.20854755
48	0xbe419d0d	-0.18907566
49	0x3e02873d	0.12746902
50	0xbe19f08c	-0.15033168
51	0x3e2fcd38	0.17168128
52	0xbc4b2659	-0.0123992795
53	0xbe112b45	-0.14176662
54	0x3d807394	0.06272045
55	0x3d701d49	0.05862168
56	0xbdfd4e4a	-0.12368448
57	0xbe30efe9	-0.17279018
58	0x3e1a3974	0.15060979
59	0xbd71a490	-0.05899483
60	0xbe51953c	-0.20467085
61	0x3ba0031c	0.004883183
62	0x3e399d5c	0.18126434
63	0x3e0c5d19	0.13707389
64	0xbe4cb1c7	-0.19989692
65	0x3e460129	0.1933638
66	0x3e2722e8	0.1632191
67	0xbd8e4a79	-0.06947798
68	0x3ddbfe0b	0.10741814
69	0x3c38d2df	0.011280744
70	0xbe1946a8	-0.1496836
71	0x3db12ebe	0.086514935
72	0xbda5224e	-0.08063184
73	0x3e0d555b	0.13802092
74	0xbd05c155	-0.03265508
75	0xbe15aa5d	-0.1461577
76	0x3dd56559	0.10419721
77	0x3e0b64ad	0.13612624
78	0xbe536ecb	-0.20647733
79	0x3e3b09a2	0.18265393
80	0x3de4d495	0.11173359
81	0x3e124241	0.14283086
82	0xbc9408e8	-0.018070653
83	0xbe14005b	-0.1445326
84	0xbdfc45c7	-0.123179965
85	0xbdc30dcb	-0.09524115
86	0xbe53f4c5	-0.20698841
87	0x3d9da7b8	0.076980054
88	0xbe159b07	-0.1460992
89	0x3c99de4d	0.01878276
90	0x3e0bfbb7	0.1367024
91	0xbd26e8fd	-0.04074954
92	0x3d46b810	0.04851538
93	0x3da4c042	0.08044483
94	0x3e538a18	0.20658147
95	0xbe4640a5	-0.19360597
96	0x3e1ec920	0.1550641
97	0x3e4b6b0c	0.19865054
98	0xbd5d375d	-0.054007877
99	0xbe03e6bb	-0.12880985
100	0x3e25c836	0.16189656
101	0x3e0ddad2	0.13853005
102	0x3e36d219	0.17853583
103	0x3da07e34	0.07836571
104	0xbe0b294a	-0.1358997
105	0x3c144be0	0.009051293
106	0xbdbe9b1d	-0.09306929
107	0x3e14d859	0.14535655
108	0x3d9d23b3	0.07672825
109	0xbe08adb6	-0.13347515
110	0xbcd87d25	-0.026426861
111	0x3e1567c4	0.14590365
112	0xbe476b4e	-0.19474527
113	0xbe1f126d	-0.15534373
114	0x3d1c2710	0.03812319
115	0x3e3b8fce	0.18316576
116	0x3ddd0714	0.10792366
117	0xbe397360	-0.18110418
118	0xbddc3fdb	-0.10754367
119	0xbcc35333	-0.023843383
120	0xbdacdb7d	-0.084403016
121	0xbe1befc4	-0.15228182
122	0x3e1d1ee3	0.15343814
123	0xbd459f56	-0.048247658
124	0x3d652869	0.05594674
125	0xbd7b6bd1	-0.06138212
126	0x3cd1f39b	0.025628855
127	0x3d3eee6f	0.046614107

sequential/conv2d_1/Conv2D f4 [32, 3, 3, 32]
0	0x3d0c0adc	0.034190044
1	0x3da17a7d	0.07884691
2	0x3db27d54	0.08715311
3	0xbca33ec0	-0.019927382
4	0x3d78c99b	0.06073914
5	0xbc31bf10	-0.0108487755
6	0xbd4e38cc	-0.050347134
7	0x3ccc8053	0.024963534
8	0xbcf35e3e	-0.029708024
9	0xbd0b07ce	-0.03394299
10	0x3dd2a82b	0.10285982
11	0x393ada00	0.00017819554
12	0xbda402c8	-0.08008343
13	0x3cb1a1fb	0.021683684
14	0x3d1b3003	0.037887584
15	0x3c21b244	0.009869162
16	0xbd9cfa88	-0.076649725
17	0x3d6273e2	0.055286296
18	0xbd5d3611	-0.05400664
19	0xbda43a78	-0.080189645
20	0x3c01d74c	0.007924866
21	0x3db0a2b2	0.08624782
22	0x3dc1ea92	0.09468569
23	0x3da38eaa	0.079861954
24	0x3dd71b94	0.10503307
25	0x3d8f2c73	0.069909
26	0x3d020bb5	0.031749446
27	0x3d12e38a	0.03586153
28	0xbc605baa	-0.013693729
29	0xbd6cd98a	-0.05782465
30	0x3d0d8086	0.034546398
31	0xbd974db5	-0.07387868
32	0x3d569689	0.052389655
33	0x3cbd7dd9	0.023131298
34	0xbd8bfa33	-0.06834831
35	0x3d04fd98	0.03246841
36	0x3d51edd5	0.051252205
37	0x3dd07d66	0.10180168
38	0xbc5d7999	-0.013517761
39	0xbda59ab6	-0.080861494
40	0xbd53e83d	-0.05173515
41	0x3d8f8778	0.070082605
42	0xbdcd2890	-0.10017502
43	0xbd899b03	-0.06719019
44	0xbc971041	-0.018440368
45	0xbd3af61f	-0.045644876
46	0xbd854f39	-0.06509251
47	0xbb00b8c6	-0.0019641384
48	0xbaa9e50c	-0.0012961938
49	0xbd9455a0	-0.07242894
50	0xbcf8f1f5	-0.030388812
51	0xbc825920	-0.015911639
52	0xbd07b00b	-0.033126872
53	0x3d17aadc	0.03702818
54	0xbdbf47da	-0.093398765
55	0xbd816634	-0.06318322
56	0x3cc91c53	0.024549639
57	0xbce03959	-0.027371095
58	0x3dc79d7d	0.097468354
59	0x3d21414f	0.039368924
60	0xbdc2988e	-0.09501754
61	0x3c5bb7aa	0.013410488
62	0xbd693f0b	-0.056944888
63	0xbcdf4232	-0.027253244
64	0xbd8d5807	-0.069015555
65	0xbb79ffd6	-0.0038146875
66	0x3d8c4044	0.06848195
67	0xbd01b3ae	-0.031665497
68	0x3d873a33	0.066028975
69	0x3d6e7ac8	0.058222562
70	0x3d16278f	0.03665882
71	0x3d2a2de2	0.041547664
72	0x3dbd5176	0.09244053
73	0xbd6a89a6	-0.057260178
74	0xbcf57d69	-0.029967027
75	0xbd902121	-0.07037569
76	0xbda12d5c	-0.0786998
77	0xbd869903	-0.065721534
78	0x3d04a1bf	0.032380816
79	0x3cedea9e	0.029042538
80	0x3d8ef0d0	0.06979525
81	0xbd9f7221	-0.0778544
82	0xbd8c5822	-0.068527475
83	0x3da02442	0.07819416
84	0xbd58b9e9	-0.052911673
85	0xbd44c383	-0.048038017
86	0x3d36c8e9	0.044625197
87	0x3c5ec1bb	0.013595994
88	0xbd91dba6	-0.07121973
89	0xbd80cb7a	-0.0628881
90	0xbd53df35	-0.05172654
91	0xbd552e33	-0.052046012
92	0xbbe8a805	-0.0071001076
93	0xbd77c30f	-0.060488757
94	0xbb0e30d8	-0.0021696594
95	0xbd029a14	-0.03188522
96	0x3dd28c59	0.102806754
97	0x3d6f2fc9	0.05839518
98	0x3d945192	0.07242121
99	0x3d982c50	0.07430327
100	0xbd9b62aa	-0.07587178
101	0xbdcf40ba	-0.101197675
102	0xbd9ed123	-0.077547334
103	0xbd99c602	-0.0750847
104	0xbd3d1f36	-0.046172343
105	0x3ceb56c9	0.028727906
106	0x3b6b3843	0.003589169
107	0x3dab4be1	0.08364082
108	0xbd549fc7	-0.051910188
109	0x3b4a3369	0.0030853397
110	0x3ca282e4	0.019837804
111	0xbda009b7	-0.07814353
112	0x3d85edb7	0.06539481
113	0xbd0b7aa2	-0.0340525
114	0x3aa39213	0.0012479447
115	0xbcec87ba	-0.028873313
116	0x3b9ae54c	0.0047270413
117	0xbcffe084	-0.031234987
118	0x3dbc6af0	0.09200084
119	0xbc40b021	-0.011760742
120	0xbdaaa26d	-0.083317615
121	0x3bceda0c	0.0063126143
122	0xbcea9eea	-0.02864023
123	0xbbb8a428	-0.0056348033
124	0x3d55ad76	0.05216738
125	0x3db75650	0.0895201
126	0x3c53ab9c	0.012919333
127	0x3ca2bc28	0.01986511
128	0xbdba2b54	-0.090902954
129	0x3dcd625f	0.100285284
130	0xbd8d7f56	-0.06909053
131	0xbd4982be	-0.04919695
132	0x3c9107fd	0.017704004
133	0x3dacf726	0.08445577
134	0x3dcb152a	0.09916146
135	0x3dbcca26	0.09218244
136	0x3d46d3b3	0.048541736
137	0x3dafdc92	0.08586992
138	0xbd8eea6c	-0.06978306
139	0x3c2dc8f3	0.010606992
140	0x3da312f5	0.079626
141	0xbd0b8af7	-0.034068074
142	0xbcf20931	-0.029545398
143	0xbc895db0	-0.016768306
144	0xbd0c85b3	-0.034307193
145	0xbc0acca6	-0.008471644
146	0xbd12cb1c	-0.03583823
147	0x3dcf983a	0.10136457
148	0xbd9af1bd	-0.07565639
149	0xbd858540	-0.06519556
150	0x3d92a6f5	0.07160751
151	0xbd15b394	-0.036548212
152	0xbd332bb7	-0.04374286
153	0xbd158b66	-0.036509894
154	0xbbfa079d	-0.007630302
155	0xbdcdba4f	-0.10045301
156	0x3d8df4bd	0.06931446
157	0x3da094f7	0.07840913
158	0x3c7447ca	0.014909694
159	0x3ccf26b5	0.025287012
160	0xbdcb9dc8	-0.09942204
161	0xbd8f90f3	-0.07010069
162	0x3d8c2852	0.06843628
163	0x3c59e8b0	0.013300106
164	0xbd216a3a	-0.039407946
165	0x3d5ec8f4	0.054390863
166	0xbd585a0c	-0.05282025
167	0x3dc421a2	0.095767274
168	0xbdbe03ec	-0.09278092
169	0xbcdeee18	-0.027213141
170	0xbd7ebd2e	-0.062192135
171	0xbd6b1781	-0.057395462
172	0x3daa3a76	0.08311932
173	0x3d83f9ea	0.06444152
174	0x3daa6ab9	0.08321137
175	0xbd542735	-0.051795203
176	0xbd0fe6af	-0.035132106
177	0xbd47b8dd	-0.048760284
178	0x3a925926	0.0011165484
179	0x3b2eb725	0.0026659456
180	0xbd228dc0	-0.039685965
181	0x3d31f7e8	0.043449312
182	0x3c92a22d	0.017899597
183	0x3d0f5bbb	0.03499959
184	0xbd9eddd2	-0.077571526
185	0x3dc13c5b	0.0943534
186	0x3d5cbaf5	0.053889234
187	0xbcd94593	-0.026522433
188	0x3cf9f67e	0.030513044
189	0xbda4f7f8	-0.08055109
190	0xbd6936e2	-0.056937106
191	0xbd39df5a	-0.04537902
192	0x3d624fc1	0.05525184
193	0xbd885d85	-0.066584624
194	0x3bd19afa	0.0063966485
195	0x3d6324cc	0.055455014
196	0xbca87e6e	-0.020568099
197	0xbcda416c	-0.026642524
198	0x3d8da0d4	0.06915441
199	0x3d047d77	0.032346215
200	0x3abc97da	0.0014388517
201	0xbd409ff6	-0.04702755
202	0xbdcee2ee	-0.10101877
203	0x3d5c1bf3	0.053737592
204	0xbcdec94d	-0.027195597
205	0xbda73e6d	-0.08166204
206	0x3d6dba63	0.05803908
207	0x3d883977	0.066515855
208	0xbd20f522	-0.039296277
209	0xbc754856	-0.0149708595
210	0xbd89aede	-0.067228064
211	0x3cb0ba95	0.021573344
212	0x3cecaf05	0.02889205
213	0xbd5778c7	-0.052605417
214	0x3cad68eb	0.021168193
215	0xbc5e00b1	-0.0135499695
216	0xbcace1ae	-0.021103706
217	0xbd243852	-0.040092774
218	0x3cf78595	0.030215064
219	0x3c711fc6	0.014717048
220	0x3d1484c0	0.036259413
221	0x3db3b6c7	0.087750964
222	0xbda8075a	-0.08204527
223	0x3d195e00	0.03744316
224	0x3d21dc66	0.03951683
225	0x3d5b7727	0.05358043
226	0x3ce1426d	0.027497495
227	0x3bbb8550	0.005722679
228	0x3d88d675	0.066815294
229	0xbd6bae9c	-0.057539567
230	0x3d97ffb0	0.074218154
231	0x3d5e0572	0.05420441
232	0xbd86398c	-0.06553945
233	0x3cd71286	0.02625395
234	0x3d919e74	0.07110301
235	0x3c55e0db	0.013054098
236	0x3ce6e1ad	0.028183782
237	0x3d2f8005	0.0428467
238	0x3dad7f9d	0.08471606
239	0xbd154e7f	-0.036451813
240	0xbdb9d686	-0.0907412
241	0xbd4db45a	-0.050220825
242	0xbc89eaf5	-0.016835669
243	0x3ccc4e06	0.024939548
244	0xbd4cff5e	-0.050048225
245	0x3d354bf8	0.044261903
246	0xbd0a7f77	-0.033812966
247	0xbdc6be2f	-0.097042434
248	0x3d760ffc	0.060073838
249	0xbd0f2fff	-0.034957882
250	0x3da724a7	0.08161288
251	0xbd9578b2	-0.072984114
252	0xbcdb80d1	-0.026794823
253	0xbd0a3046	-0.033737443
254	0x3d8f850e	0.070078
255	0xbda90318	-0.08252543

sequential/conv2d_2/Conv2D f4 [64, 3, 3, 32]
0	0x3c2f3f08	0.01069618
1	0x3cc48fbc	0.02399432
2	0xbc4e4936	-0.012590697
3	0xbc9880e1	-0.018616142
4	0x3d84f925	0.06492833
5	0x3cba4b5e	0.022741016
6	0x3d2bf862	0.041984923
7	0x3b1c63df	0.0023863239
8	0x3d9b244e	0.07575284
9	0x3d1f6db3	0.038922977
10	0x3c0bd58a	0.008534798
11	0xbd2b95a7	-0.041890766
12	0xbd8fc813	-0.07020583
13	0xbd3f1086	-0.046646617
14	0xbd288b35	-0.041148383
15	0x3cd96acb	0.02654018
16	0xbd2d5dba	-0.042325713
17	0x3d7e7d19	0.06213102
18	0x3d9d6112	0.0768453
19	0x3d9e9288	0.07742792
20	0x3da5c9c2	0.08095123
21	0xbcbe4fc4	-0.023231395
22	0x3cc039e0	0.023465097
23	0x3daf2d24	0.08553532
24	0x3d9ce3af	0.07660615
25	0xbce31f82	-0.027724985
26	0xbcf08728	-0.029361323
27	0xbc424fee	-0.011859877
28	0xbc0db56f	-0.008649214
29	0x3cd8e2a1	0.026475253
30	0xbbc2ad4c	-0.0059410688
31	0x3d7d2ff4	0.06181331
32	0xbd8cdf43	-0.06878521
33	0xbcd60aaa	-0.026128132
34	0x3cd682f8	0.026185498
35	0x3d201589	0.039083038
36	0xbcfdcb2d	-0.03098067
37	0xbce36c61	-0.02776164
38	0xbd44df80	-0.04806471
39	0xbd3a16e6	-0.045431994
40	0x3d051b72	0.032496877
41	0x3c4c0160	0.0124515
42	0xbcce159b	-0.025156787
43	0xbd5aaa39	-0.053384993
44	0x3d5f0727	0.05445018
45	0x3beebeb8	0.007285919
46	0x3cf6c188	0.03012158
47	0x3cd73bf7	0.02627371
48	0xbc64c28d	-0.0139624
49	0xbc8dcd11	-0.017309697
50	0xbd7c21dc	-0.06155573
51	0xbbe8805f	-0.007095381
52	0xbd9f21f1	-0.07770146
53	0xbd6f66f9	-0.05844781
54	0xbdbb8a00	-0.09157181
55	0xbd84232a	-0.064520195
56	0x3c873366	0.016504
57	0xbd90f663	-0.070782445
58	0xbd7ea40f	-0.062168177
59	0xbd9d6d2e	-0.0768684
60	0xbd8f3dc5	-0.069942035
61	0x3d7213f0	0.059101045
62	0xbd9d1d95	-0.07671658
63	0x3d591586	0.052999042
64	0xbd22fec8	-0.03979376
65	0x3d4236b5	0.047415454
66	0x3d11dc59	0.03561053
67	0xbcd74ed2	-0.026282702
68	0xbc128105	-0.0089418935
69	0x3bc5290e	0.006016857
70	0xbd1cfd61	-0.03832758
71	0x3d3de6bd	0.046362627
72	0xbd8466be	-0.06464909
73	0xbda212e7	-0.079137616
74	0xbca4aa54	-0.02010075
75	0x3c9d63ff	0.01921272
76	0x3d1cb36a	0.03825704
77	0xbcd38bb0	-0.025823444
78	0xbcc77202	-0.024346355
79	0x3d303920	0.04302323
80	0xbcb09570	-0.021555632
81	0xbd9ca301	-0.07648278
82	0x3d892f76	0.066985056
83	0x3d308a91	0.043100897
84	0x3d1a0906	0.03760626
85	0xbd741b5c	-0.059596404
86	0xbd2c762f	-0.042104896
87	0x3d9cb8ea	0.07652457
88	0x3c65365c	0.013990011
89	0xbd38637e	-0.04501676
90	0x3d42dceb	0.047573965
91	0x3d24c801	0.0402298
92	0xbd836e5a	-0.06417532
93	0x3d12d3ba	0.03584645
94	0x3c7a2739	0.0152681405
95	0xbd877661	-0.06614376
96	0xbd28b42a	-0.041187443
97	0xbd1387a5	-0.036018033
98	0xbc7fdbd1	-0.015616373
99	0x3cae4d23	0.021277016
100	0x3d81291e	0.063066706
101	0x3dafede6	0.085902974
102	0xbaf93722	-0.0019013623
103	0xbc44cd14	-0.012011785
104	0x3d9cfb6b	0.07665142
105	0xbcb5f668	-0.022212222
106	0xbd309c85	-0.04311802
107	0xbcf7e259	-0.030259298
108	0x3d5eb424	0.054371014
109	0xbda1ca73	-0.07899942
110	0xbd813ad8	-0.06310052
111	0x3da89a0d	0.08232508
112	0x3daa49d0	0.0831486
113	0xbd8ff57c	-0.07029244
114	0x3a83b177	0.0010047395
115	0x3db75d4f	0.08953344
116	0x3dac21a3	0.08404853
117	0xbcc60841	-0.024173858
118	0xbcf0283b	-0.029316058
119	0xbd65c635	-0.056097228
120	0xbd1918a6	-0.037377022
121	0xbccf4b41	-0.025304439
122	0xbd568454	-0.05237229
123	0x3d013ce4	0.03155221
124	0xbb70e079	-0.003675489
125	0x3d57f8e9	0.052727614
126	0x3af2d073	0.0018525257
127	0xbd3aa5bc	-0.045568213
128	0xbce37c78	-0.027769312
129	0x3cadc52d	0.021212185
130	0xbd0b0726	-0.033942364
131	0x3d9d7d72	0.076899424
132	0x3d421953	0.047387432
133	0xbd13ac71	-0.036053125
134	0xbd881d25	-0.06646184
135	0xbd874459	-0.06604833
136	0x3ce75e50	0.028243214
137	0x3d7a3630	0.061086833
138	0x3db9390b	0.09044083
139	0xbc1eeb76	-0.009699693
140	0x3d0adb77	0.033900704
141	0xbaca870d	-0.0015451625
142	0xbc62344b	-0.013806413
143	0xbc63d22f	-0.013905092
144	0xbc1bafa9	-0.00950233
145	0xbd8babca	-0.068198755
146	0x3d2d4a46	0.04230716
147	0xbd2e2399	-0.042514417
148	0x3d7a0b7e	0.061046116
149	0xbd7c58a5	-0.061607976
150	0xbda501d9	-0.08056993
151	0xbd204a39	-0.039133284
152	0xbd65c4bc	-0.056095824
153	0xbc5a11b7	-0.013309888
154	0xbd4f6c06	-0.05064013
155	0xbc9db3b3	-0.019250726
156	0xbcd73efa	-0.026275147
157	0xbc5ab53f	-0.0133488765
158	0x3cf4851b	0.029848626
159	0x3da35ab6	0.07976286
160	0xba335921	-0.00068415893
161	0xbd80e98a	-0.06294544
162	0xbd3bf1a9	-0.045884762
163	0xbc054d7d	-0.00813615
164	0x3da3e1b1	0.080020316
165	0x3cb568b7	0.022144658
166	0x3db823c1	0.089911945
167	0x3d9a78b8	0.075425565
168	0x3d339c8e	0.043850474
169	0x3d8afcad	0.06786475
170	0xbc97c21a	-0.018525172
171	0xbd7c9b8b	-0.061671775
172	0x3daa0f4c	0.08303699
173	0x3bf8186f	0.007571272
174	0xbba9a269	-0.0051768315
175	0xbd929914	-0.071581036
176	0xbd3ad04d	-0.045608807
177	0x3cd34243	0.025788432
178	0x3d3324fa	0.043736435
179	0xbd24ccd5	-0.040234406
180	0x3c2c2b69	0.010508397
181	0xbd4e2c2a	-0.050335087
182	0xbd81712f	-0.06320416
183	0x3d2a2b3a	0.04154513
184	0x39e499f5	0.00043602256
185	0xbcab8a98	-0.02094011
186	0xbd13ce10	-0.03608519
187	0x3dab196a	0.08354457
188	0xbda33bd6	-0.07970397
189	0xbc829e5f	-0.015944658
190	0x3da64810	0.081192136
191	0xbd1c8108	-0.03820899
192	0xbbe86e18	-0.0070932023
193	0x3c2e6479	0.010644072
194	0x3d1efef5	0.038817365
195	0x3d299873	0.041405153
196	0x3b894fa0	0.0041904002
197	0xbc234c2c	-0.009966891
198	0x3da07e64	0.07836607
199	0xbda0c639	-0.07850308
200	0x3d696508	0.056981117
201	0xbd069ab6	-0.032862388
202	0x3d99a6f0	0.07502544
203	0x3c34115d	0.010990468
204	0xbcd140cd	-0.025543595
205	0xbcd4a9dc	-0.025959902
206	0x3d034722	0.03205026
207	0x3d459d55	0.048245747
208	0x3d3d76d4	0.0462559
209	0x3b21a5bd	0.0024665438
210	0x3d910fb0	0.0708307
211	0x3d2c1956	0.04201635
212	0x3d20134c	0.039080903
213	0x3cffbf62	0.031219188
214	0x3d97885f	0.073990576
215	0xbcf88dca	-0.030341048
216	0x3d7ae2b9	0.061251376
217	0x3d07db25	0.033167977
218	0xbd55e67d	-0.052221764
219	0xbb80192e	-0.0039092517
220	0xbc10005f	-0.008789151
221	0xbb33301e	-0.0027341913
222	0x3d1f12f7	0.038836446
223	0x3c7aa61b	0.015298392
224	0x3dafd510	0.0858556
225	0x3c1963a3	0.009362134
226	0xbb4b56bd	-0.0031027042
227	0x3d32bf02	0.04363919
228	0xbd770378	-0.060306042
229	0x3d9a9e42	0.075497165
230	0xbd6c367e	-0.057669155
231	0x3d606f05	0.054793376
232	0xbc5859a3	-0.013204965
233	0xbd8e57f0	-0.069503665
234	0xbd732f49	-0.059371267
235	0x3ce66e59	0.02812879
236	0xbd0a3b97	-0.033748236
237	0xbd2181d1	-0.039430443
238	0xb9929a60	-0.00027962308
239	0xbca7dc11	-0.020490678
240	0x3d782e66	0.060591124
241	0xbbea6ddc	-0.0071542095
242	0x3ca934bd	0.02065503
243	0xbc8c4a2f	-0.017125217
244	0x3d6925bc	0.056920752
245	0x3c64894e	0.013948752
246	0x3dab8d61	0.08376575
247	0xbbf55c3c	-0.007487802
248	0xbd93db9a	-0.0721962
249	0x3c25d831	0.010122345
250	0x3c0d0e30	0.00860934
251	0x3d827b26	0.06371145
252	0x3a9e7ba5	0.0012091292
253	0x3d3d18db	0.046166282
254	0x3d42e6b9	0.047583316
255	0xbd9608f8	-0.073259294

sequential/conv2d_3/Conv2D f4 [64, 3, 3, 64]
0	0x3d06881a	0.03284464
1	0xbd019469	-0.031635676
2	0x3d2431ac	0.040086433
3	0xbd288352	-0.04114086
4	0xbd85858f	-0.06519615
5	0x3d5c8820	0.053840756
6	0x3a7c3bf9	0.0009621974
7	0xbc8869b9	-0.016651975
8	0xbd8ac15b	-0.06775161
9	0x3d7393f9	0.05946729
10	0xbd8aef61	-0.06783939
11	0x39a15fe5	0.0003077976
12	0x3d4345ae	0.047673874
13	0x3c1b120f	0.009464755
14	0xbcc7405a	-0.024322677
15	0xbd666175	-0.056245286
16	0xbcda2a44	-0.026631482
17	0x3d7e83bf	0.06213736
18	0xbd3291bf	-0.043596026
19	0xbc48557c	-0.012227412
20	0xbd3b5317	-0.045733538
21	0xbd3b97c9	-0.04579905
22	0x3cce4cf2	0.025183175
23	0xbc25d119	-0.010120654
24	0xbda6cd99	-0.081446834
25	0x3cc0192b	0.023449501
26	0x3cf46d68	0.029837325
27	0xbd878724	-0.06617573
28	0xbd08c3c4	-0.03338982
29	0xbd9b62a6	-0.07587175
30	0xbd7b72ca	-0.06138877
31	0xbcb86cde	-0.02251285
32	0xbd09d80d	-0.033653308
33	0xbb5c79df	-0.0033641977
34	0x3d047509	0.032338176
35	0x3b7b8faa	0.003838519
36	0xbc9599b4	-0.018261768
37	0xbd81bf6c	-0.06335339
38	0xbd8304d7	-0.063974075
39	0xbc75b2a8	-0.014996208
40	0xbb097eee	-0.0020980197
41	0xbd37b7de	-0.044853084
42	0x3d474ba5	0.048656125
43	0x3d04ab01	0.032389645
44	0x3cebdcdd	0.02879184
45	0xbd1be1ba	-0.038057067
46	0x3b463d66	0.0030248999
47	0x3d3d95c8	0.04628542
48	0xbced938b	-0.029001018
49	0xbc368adc	-0.011141505
50	0x3d185609	0.037191425
51	0xbc9b2cd8	-0.018942282
52	0x3cd9af48	0.026572838
53	0xbccbdbd3	-0.024885094
54	0xbd471087	-0.048599746
55	0x3a710514	0.0009194177
56	0x3c36284c	0.011118006
57	0xbd35555a	-0.04427085
58	0x3d70f62d	0.05882852
59	0x3d1c6001	0.038177494
60	0x3b4b3af3	0.0031010478
61	0x3b1d21b0	0.0023976378
62	0xbb9ba148	-0.004749451
63	0x3cc18bb0	0.023626179
64	0x3d2bd539	0.04195139
65	0xbd1ebdd5	-0.038755257
66	0x3b5dd58f	0.0033849215
67	0xbcdc2e36	-0.026877504
68	0xbce17c02	-0.027524952
69	0xbcc7ad3c	-0.024374597
70	0xbce61d98	-0.028090283
71	0x3d205c8c	0.03915076
72	0x3ceacf96	0.028663438
73	0x3d6cb44a	0.057789125
74	0x3c277953	0.010221797
75	0xbd4f4675	-0.050604302
76	0xbd23f054	-0.040024117
77	0x3d7539b7	0.059869494
78	0x3b34c0bc	0.00275807
79	0xbd914c11	-0.07094587
80	0xbd6ec362	-0.0582918
81	0x3c26413b	0.010147388
82	0xbd205274	-0.039141133
83	0xbd827e5f	-0.063717596
84	0xbd977687	-0.07395654
85	0xbd8727fb	-0.065994225
86	0x3c88f254	0.016717114
87	0xbd65a70d	-0.056067515
88	0xbda70345	-0.081549205
89	0x3d518b20	0.05115807
90	0xbda3c64f	-0.07996809
91	0xbd76c78b	-0.060248893
92	0xbd189227	-0.037248757
93	0x3d8d3d8f	0.06896507
94	0xbd1589c6	-0.036508344
95	0x3d3beda2	0.04588092
96	0x3d7e990c	0.062157676
97	0x3d29e9bf	0.041482683
98	0x3d123d10	0.035702765
99	0xbd39ab68	-0.04532948
100	0xbce937d8	-0.028469011
101	0xbcf23c02	-0.02956963
102	0x3d24a186	0.040193103
103	0x3d41c58f	0.047307547
104	0xbcd136af	-0.02553877
105	0x3c9fac3d	0.01949131
106	0x3c0460ac	0.008079689
107	0xbbf3f8dc	-0.007445438
108	0xbc3a40da	-0.011368001
109	0x3d903f0d	0.07043276
110	0x3d42b27b	0.047533493
111	0xbcb63fe5	-0.022247264
112	0xbc44406b	-0.011978249
113	0xbcdcf2ad	-0.026971186
114	0x3d450480	0.048099995
115	0x3d777f6c	0.060424253
116	0xbd079921	-0.03310502
117	0xbcba853f	-0.022768615
118	0xbb16a2aa	-0.002298514
119	0x3c1c629b	0.009544994
120	0xbd4e4ae7	-0.0503644
121	0xbd57dd21	-0.05270112
122	0x3d779741	0.06044698
123	0xbd7a8966	-0.06116619
124	0x3d8b04b0	0.067880034
125	0xbd163f08	-0.036681205
126	0x3d252ded	0.040327
127	0x3d2c505c	0.042068824
128	0x3cd1d7db	0.025615623
129	0x3cd53d0d	0.026030088
130	0xbcd08ca5	-0.02545769
131	0xbc82339d	-0.015893752
132	0xbc6b8a5d	-0.01437625
133	0xbcc165c1	-0.02360809
134	0xbd2e18bb	-0.042504054
135	0x3b22ea61	0.002485894
136	0xbd678c20	-0.056530118
137	0x3d235524	0.03987612
138	0xbcca8d43	-0.024725562
139	0xbd0fafd6	-0.0350798
140	0x3c4e968a	0.0126091335
141	0xbd71461d	-0.058904756
142	0x3d82f67b	0.06394669
143	0x3d4d6c5c	0.050152168
144	0xbccf73fc	-0.02532386
145	0x3cc96be8	0.024587587
146	0xbd052544	-0.032506242
147	0x3d042c63	0.032268893
148	0x3d2d6be5	0.042339224
149	0x3d513b41	0.0510819
150	0xbd92e06b	-0.071717106
151	0xbca92329	-0.020646648
152	0xbda3aa23	-0.079914354
153	0xbd292ffa	-0.04130552
154	0xbcec0faa	-0.028816063
155	0xbcd78102	-0.026306633
156	0xbd346759	-0.044043873
157	0x3bf927ab	0.0076036057
158	0xbcb63b01	-0.022244932
159	0xbd9d86e5	-0.07691745
160	0xbc5e8409	-0.013581284
161	0x3d618233	0.05505581
162	0xbd8627b0	-0.065505385
163	0x3ce7b536	0.02828465
164	0xbd9da5ef	-0.07697665
165	0xbc52a983	-0.012857798
166	0x3d0bd2a3	0.034136426
167	0x3a53e12d	0.0008082565
168	0x3d177165	0.036973376
169	0x3abc520e	0.0014367716
170	0xbc2280ee	-0.009918435
171	0xbd950f57	-0.072783165
172	0x3bfe15fa	0.0077540847
173	0x3bb4d5f4	0.0055186693
174	0xbac81910	-0.0015266258
175	0x3d39f732	0.04540176
176	0x3bd8fd04	0.0066219587
177	0x3d50b029	0.05094925
178	0x3ccad4d1	0.024759682
179	0x3d670f09	0.056410823
180	0xbd612446	-0.054966234
181	0xbda38f58	-0.07986325
182	0xbd949fad	-0.07257018
183	0x3cfead68	0.031088546
184	0xbd2718f1	-0.04079527
185	0x3c9558a9	0.018230753
186	0x3c1b0457	0.009461484
187	0xbd5a3bbc	-0.053279623
188	0xbd45d261	-0.048296336
189	0xbd31902f	-0.043350395
190	0x3d6f5df9	0.05843923
191	0x3d1eb7aa	0.038749374
192	0xbd28bb04	-0.041193977
193	0x3d3d71cb	0.0462511
194	0xbdaa254c	-0.08307895
195	0x3a1fe028	0.00060987705
196	0x3cb6e465	0.022325704
197	0xbd6db871	-0.058037225
198	0xbc8b3ee7	-0.016997768
199	0x3ca19c73	0.019727921
200	0xbc873687	-0.016505493
201	0xbb8eab9f	-0.004353955
202	0xbd000e2d	-0.03126352
203	0xbd4e0468	-0.05029717
204	0x3cf9b8ff	0.03048372
205	0x3d267133	0.0406353
206	0xbd16bac4	-0.036799207
207	0x3c1900cf	0.009338572
208	0x3d899776	0.06718342
209	0xbd5e9df6	-0.054349862
210	0x3d20cb9f	0.03925669
211	0xbbaf2cb8	-0.005345907
212	0xbc42be6b	-0.0118862195
213	0xbd7993f0	-0.0609321
214	0xbd183187	-0.037156608
215	0x3b22eb06	0.0024859323
216	0xbc09f83b	-0.008420999
217	0xbcc9a396	-0.024614137
218	0x3d32abcb	0.043620866
219	0x3d26f42f	0.040760215
220	0x3c651b73	0.013983595
221	0xbd3b417a	-0.04571674
222	0x3d01e685	0.03171398
223	0x3c50bb8d	0.012740028
224	0x3d400f1a	0.046889402
225	0x3d1eb98a	0.038751163
226	0xbc17a00a	-0.009254465
227	0xbd2a28b2	-0.041542716
228	0xbcebe188	-0.028794065
229	0xbd43897c	-0.047738537
230	0x3c4b1445	0.012394969
231	0x3d2a2f42	0.041548975
232	0x3c41fae4	0.011839602
233	0xbc96eda1	-0.018423857
234	0x3d6d33c5	0.0579107
235	0xbce64da8	-0.028113201
236	0x3d3f497f	0.04670095
237	0xbcfa9eea	-0.030593354
238	0xbcc9c867	-0.024631692
239	0xbdb0ad1d	-0.08626769
240	0x3d5c018e	0.05371242
241	0xbd2f0507	-0.042729404
242	0xbd6d20d7	-0.057892647
243	0x3d42c710	0.047553122
244	0xbd8b17c8	-0.06791645
245	0x3c57a535	0.013161947
246	0xbd42b4f1	-0.04753584
247	0x3d4537be	0.048148863
248	0x3d2f4c8a	0.042797603
249	0xbc60feff	-0.013732671
250	0xbd609250	-0.054827034
251	0x3d0bee76	0.03416296
252	0xbd3d446d	-0.046207834
253	0x3d255802	0.040367134
254	0xbcd047bd	-0.025424832
255	0xbd8f6bba	-0.07002969
