kernel_vs_latency/ds_cnn_gray_32_k4_float.tflite (tflite, 317240 bytes, 12 tensors)

sequential/dense/BiasAdd/ReadVariableOp/resource f4 [2]
000000 1f b6 1d bb 32 b6 1d 3b
       -0.0024064851 0.0024064896

sequential/batch_normalization/FusedBatchNormV3 f4 [32]
000000 c4 fd 58 3f b1 18 97 3f 1a fa b7 3f 2c 0c cc bf
       0.84762216 1.180441 1.43732 -1.5941215
000010 74 33 ea bf 7f c0 ae bf 6f ad d3 3f 61 c7 d8 3f
       -1.8296952 -1.3652495 1.6537303 1.6935846
000020 4c d6 dd bf a9 0a c1 bf e2 ae 67 3f 91 5a d1 bf
       -1.7331023 -1.5081378 0.90501225 -1.6355764
000030 3a 51 d2 bf 34 ef 7d bf 03 52 c2 bf f8 09 8a 3f
       -1.6431038 -0.9919312 -1.5181278 1.0784292
000040 66 2d fd be 59 2f a9 bf b0 59 97 bf f3 23 ea bf
       -0.494487 -1.3217574 -1.1824245 -1.8292221
000050 2b e9 a7 3f bb bf 48 bf 79 4c 86 bf b2 9f 49 3f
       1.3118032 -0.7841756 -1.0492088 0.787593
000060 71 01 63 3f 10 fe e5 3f 8b 71 c6 3f 9f 83 e3 3f
       0.88674074 1.7968159 1.55034 1.7774543
000070 f6 96 36 bf 42 74 ae bf 53 bf de bf 3f f4 44 bf
       -0.713241 -1.3629229 -1.7402138 -0.7693519

sequential/batch_normalization_1/FusedBatchNormV3 f4 [32]
000000 05 6a 11 3f e4 36 49 bf b7 16 78 3f 39 05 2a bf
       0.568024 -0.7859938 0.9690966 -0.6641422
000010 81 93 2f 3f a1 89 2c bf b5 59 17 bf 90 93 36 bf
       0.6858445 -0.67397505 -0.5912126 -0.7131891
000020 ee 27 26 bf 2a 6f fe 3e 75 37 af be 49 45 22 3f
       -0.6490468 0.49694186 -0.34221998 0.6338697
000030 56 46 fc bd d3 cd e2 3e 4f 83 19 bf 85 87 92 be
       -0.12318103 0.44297656 -0.59965986 -0.28619018
000040 ed 78 73 3f ff f3 46 3f 47 73 17 3f 41 41 9f be
       0.95106393 0.7771606 0.59160274 -0.31104472
000050 a6 07 98 be 72 35 2c 3f 60 ba c2 be 16 d2 1a 3f
       -0.29693335 0.6726905 -0.38032818 0.60476816
000060 c3 ad b9 be 06 bb 41 3f a1 7d c5 3e b6 75 4a bf
       -0.36265382 0.75676 0.3857241 -0.7908586
000070 12 ba dd 3e 5c 96 7d 3d 1b 18 0f 3f 64 4a 56 bf
       0.43306023 0.061910972 0.5589616 -0.8370726

sequential/batch_normalization_2/FusedBatchNormV3 f4 [256]
000000 a4 7b a9 3f d9 bc 14 be dc ff ce bd ed 7d 47 bf
       1.3240857 -0.14525165 -0.10107395 -0.7792652
000010 da c8 97 be 3c 39 5f bf 4c 7c b6 bb 0e c0 2a bf
       -0.29645425 -0.8719671 -0.0055690166 -0.666993
000020 2e 5b 7d 3f 9c 64 8b bc 05 57 9b be 18 e5 28 3f
       0.98967254 -0.017015748 -0.30339828 0.6597457
000030 f5 a2 9c 3f 5a d9 80 3f ad 0d 4a bf 1a 49 f1 be
       1.223723 1.006633 -0.7892712 -0.47126085
000040 89 4b 05 bc e4 a0 e1 be cf f3 31 3e 42 e0 63 3f
       -0.008135685 -0.44068062 0.17378162 0.89014065
000050 3e 52 f6 be 68 f0 52 3f 29 68 9a be ea 48 f0 3e
       -0.4810962 0.8239808 -0.30157593 0.4693063
000060 9a cf b5 be 0b 32 da 3d 18 3a b3 3d ab 26 97 3e
       -0.3550995 0.10654076 0.08751315 0.2952169
000070 b9 db 00 3f ea a2 dc 3e 66 a0 e8 3e e8 2a 73 3e
       0.5033527 0.43093044 0.45434874 0.23746836
000080 f9 9d 3a be 59 c4 ea be 48 a6 07 3f e5 0f 8b bf
       -0.18224324 -0.45852926 0.529881 -1.0864226
000090 70 47 1c 3f 71 18 29 3f 85 1d 70 bf 7f 89 fe be
       0.61046505 0.6605292 -0.93795043 -0.49714276
0000a0 24 0c 48 bf 3f 1a fe 3e 73 06 b6 be 99 41 36 bf
       -0.78143525 0.496294 -0.35551795 -0.71193844
0000b0 8f da 37 3f 9b d2 21 3f 7a 01 77 3f 61 68 5e be
       0.7181787 0.63211983 0.9648663 -0.21719505
0000c0 70 90 31 be da 50 9b bd ce 77 8b 3f 71 2d 93 be
       -0.17340255 -0.075837806 1.0895936 -0.28745607
0000d0 e9 84 32 3e 80 f2 17 3f 08 d2 07 bf a8 31 36 3d
       0.17433514 0.593544 -0.5305486 0.04448095
0000e0 18 2e 1b 3f 0f 75 c0 3e fd 18 0f bf 4f 62 3f 3f
       0.6061721 0.3758931 -0.55897504 0.7475938
0000f0 64 de d3 be 80 ef 48 3f a8 b1 80 be 59 27 9d bd
       -0.41380608 0.7849045 -0.2513554 -0.076735206
000100 ec 8c 97 be 0d 96 7b 3e 56 de 30 be 34 6a aa bf
       -0.29599702 0.24568959 -0.17272314 -1.3313661
000110 da 24 fe bc 24 37 22 3f da f5 8a be ee 23 bf bf
       -0.031023432 0.6336539 -0.27140695 -1.493284
000120 fd 7f 2b 3e 3b fe 71 3f 76 85 e1 3f d4 6f 42 bc
       0.16748042 0.9452855 1.7618854 -0.011867482
000130 f3 96 50 3f a9 d3 50 bf ba 5b 91 bf 7c 4d c3 bd
       0.8148033 -0.8157297 -1.1356118 -0.09536263
000140 16 c9 3b 3f 79 3b da bf 61 0b b5 be 64 b9 15 be
       0.7335371 -1.70494 -0.35360244 -0.14621502
000150 49 9b ae be e4 67 3b bf 84 70 89 be 74 7e 59 3f
       -0.34102848 -0.732054 -0.26843655 0.8495858
000160 77 32 fa be 4d f7 21 bf 5a 8b d1 3f 3f db cd bc
       -0.48866627 -0.63267976 1.6370652 -0.025128959
000170 cf 09 34 bf 99 9f 6f 3e 77 3f d7 3f ef 3c 33 be
       -0.70327467 0.23400725 1.6816243 -0.17503713
000180 e9 93 79 3d 8e 6a 72 3f 71 30 57 3e 40 3d c5 3e
       0.060932074 0.9469384 0.21014573 0.38523293
000190 d4 4f 8a be 88 79 19 be d3 ff b1 3e 75 d7 29 3f
       -0.2701403 -0.14987767 0.3476549 0.66344386
0001a0 cb 4f 13 3f 96 d0 7c 3e a7 ef a1 3e 42 78 e2 be
       0.5754363 0.24688944 0.31628153 -0.44232374
0001b0 a6 ad 79 be 75 49 5a bf fc 64 9b be bc 51 1b 3f
       -0.24382648 -0.85268337 -0.30350482 0.6067159
0001c0 39 88 2c bf 10 e9 c3 3e a7 0e 69 be 73 b9 22 bf
       -0.6739536 0.3826375 -0.22759496 -0.63564223
0001d0 3b 1c b0 bf ac 5b 0d 3f 34 9f 38 bf ae 3d 8c bf
       -1.3758615 0.55218005 -0.72117925 -1.0956323
0001e0 09 88 23 3f a1 72 5e bf b1 a9 7a 3f 20 48 44 bf
       0.6387945 -0.8689366 0.9791518 -0.76672554
0001f0 e4 48 e5 3e 9e 97 0c be 39 52 ed be 30 c0 22 be
       0.44782174 -0.13729712 -0.46351793 -0.15893626
000200 bc 09 f0 3f 64 df 85 bd 55 83 89 3e b9 21 9c 3e
       1.8752971 -0.06536749 0.2685801 0.30494478
000210 42 83 01 bf 65 35 18 bf 54 c0 87 be 99 65 d6 3d
       -0.5059091 -0.59456474 -0.26513922 0.10468597
000220 a9 3b 54 bf a4 8a 7e bf 2b c8 f2 be cc ac 91 3e
       -0.82903534 -0.994303 -0.4741834 0.28452146
000230 d6 cb 86 3f 51 22 87 be a5 96 4d bf 32 51 0d 3f
       1.0530956 -0.2639337 -0.8030799 0.5520202
000240 99 4e f8 3d b1 ab 46 be 6c 80 08 bf 4c f9 e8 be
       0.12124366 -0.19401433 -0.53320956 -0.45502698
000250 4f 03 ec bf ee 11 be bd 07 90 4d 3e 1c 16 05 3f
       -1.843851 -0.092807636 0.20074473 0.5198686
000260 e9 9a 49 3f bf fd 3e be c4 1e 31 3e f4 2b 0d 3e
       0.78752 -0.18651484 0.17296892 0.13786298
000270 a2 98 89 3d 01 89 04 be 32 5d e7 be 78 27 cb be
       0.067185655 -0.12942888 -0.4518829 -0.3967855
000280 6f 20 16 3f f1 52 10 be 3b 3b 18 be f2 4f a4 3e
       0.5864324 -0.1409414 -0.14866345 0.32092243
000290 8f c6 6d 3e cd 3f 15 3e 14 c9 6e bf ad 2e a4 be
       0.23220275 0.1457512 -0.9327557 -0.3206686
0002a0 b3 92 27 3f 06 b4 c4 be 8b 7a e2 3d 1a 65 e1 3e
       0.6545822 -0.38418597 0.110585295 0.44022447
0002b0 b9 4a 7e 3e 91 97 8b bd 5a 11 d7 bf 81 db 3b 3f
       0.24833192 -0.068160184 -1.680217 0.7338181
0002c0 a3 b9 10 bf 92 9c ed 3e 0d 91 b9 3d 2c 3e b0 3e
       -0.5653326 0.46408516 0.09060869 0.34422433
0002d0 47 9e 97 3d 49 9b 2e bf 94 2e a3 bf e0 25 90 3e
       0.07403236 -0.68205696 -1.274859 0.28153896
0002e0 e8 ef 13 bf ef c6 bf be 73 c9 44 3f cb 59 d8 be
       -0.5778794 -0.37456462 0.7686989 -0.42256007
0002f0 c1 4f 64 be ce 2d 75 bf 67 52 f8 be c9 e4 d2 be
       -0.22296049 -0.9577302 -0.48500368 -0.41190174
000300 bb 10 81 3e 0a 2d 7e bf e3 73 39 be 24 3e 45 3e
       0.25208077 -0.99287474 -0.18110614 0.19261986
000310 d8 a9 05 3f db fe 5f bf 4f 27 66 3f 39 f0 fb 3e
       0.52212286 -0.87498254 0.8990373 0.49206713
000320 97 23 86 3c 59 a2 47 3e df 53 89 be be fe 3c bf
       0.016374392 0.19495524 -0.268218 -0.73826206
000330 99 4a b6 3e 47 57 27 3f fb fd 7c 3f 96 20 aa 3c
       0.35603788 0.6536755 0.98825043 0.020767491
000340 83 3b 6b 3e 31 ec a9 3f 2f d9 0e 3f 2a 7a 1f bf
       0.2297192 1.3275205 0.55800146 -0.6229578
000350 8f 32 2f be 70 ab f7 bd e9 77 8e bf d1 98 7a be
       -0.1710913 -0.12093246 -1.1130344 -0.24472357
000360 35 01 d8 3e 21 78 af 3f e5 eb 81 3f f3 44 99 3f
       0.4218842 1.3708535 1.0150114 1.1974167
000370 29 dc bb bf fa 5a 01 3f 62 91 8a 3e aa 59 75 be
       -1.4676563 0.50529444 0.27064043 -0.23959985
000380 7f ff 5b 3e 45 d5 a3 bd 87 e8 62 3f 0d 90 3a bf
       0.21484183 -0.07999662 0.8863606 -0.72876054
000390 10 1e 0e bf bb 99 94 be 64 a0 23 3d 7a 07 21 bf
       -0.5551462 -0.29023537 0.039947882 -0.62902033
0003a0 c7 9a 02 3e aa f0 8d bc 01 e9 45 bf 37 dc ce 3e
       0.12754355 -0.017326672 -0.7730866 0.40402386
0003b0 fe 7e 9c 3e 67 bf ab 3d a0 2d 80 bf 63 e8 47 3f
       0.30565637 0.083861165 -1.0013924 0.7808897
0003c0 ae 23 39 3e 70 20 52 3e 5e 3a eb 3e c5 1c 69 bf
       0.18080017 0.20520186 0.45942968 -0.91059524
0003d0 03 9b 88 be 1e 3c 3a 3f 3b b7 1a 3f fc 6e 67 bf
       -0.26680765 0.7274798 0.6043584 -0.90403724
0003e0 38 8f 75 3f eb 4d 0d be 15 1f f2 3e 69 34 56 3f
       0.9592166 -0.13799255 0.4728934 0.8367372
0003f0 a7 39 b5 3f fa ab d7 3e 63 3c 4d be 67 cd 6c be
       1.4158219 0.42123395 -0.20042567 -0.2312523

sequential/batch_normalization_3/FusedBatchNormV3 f4 [256]
000000 f1 20 c5 bf e6 bb be 3f 47 56 f6 3e e3 c3 fe 3e
       -1.5400678 1.4901092 0.481127 0.49758825
000010 e1 34 9f be c3 e7 67 bf c9 ad 16 bf de c0 2c bf
       -0.3109503 -0.90588015 -0.58858925 -0.6748179
000020 e8 91 a0 3f 68 98 21 bd 7b f2 96 3f dc d5 74 3f
       1.2544527 -0.039451987 1.1792749 0.95638824
000030 cd 7f 42 3f 13 69 96 3f c8 63 ac be df 35 23 bf
       0.7597626 1.1750816 -0.33669877 -0.63754076
000040 a1 12 4f be 8b d1 1d 3f d2 b7 29 3f c7 56 35 bf
       -0.2022195 0.6164786 0.6629611 -0.70835537
000050 5b 0a df 3c 4f 27 06 bf fd dc 9d 3e 82 71 bc 3f
       0.027226618 -0.5240373 0.30832663 1.472214
000060 25 af 9c 3e b1 38 9f 3d fc 8c 13 3f 1a 06 37 bf
       0.30602375 0.07774485 0.57637 -0.71493685
000070 f7 7c eb 3d 34 99 e4 be fa 94 07 3e 73 4d 87 be
       0.114984445 -0.44648135 0.13240424 -0.26426277
000080 b9 a4 4b be 03 4b 0f 3f b1 49 87 3f bc 4b 8a bf
       -0.19887055 0.55973834 1.0569364 -1.0804362
000090 7a 3c 9c bd 57 38 32 3f 62 e2 81 be 0c c2 81 3d
       -0.076287225 0.6961722 -0.2536803 0.0633584
0000a0 a5 ae 2f bf 5b 0c 91 3e 83 ef 2d 3e 28 62 59 3f
       -0.6862586 0.2832974 0.16985898 0.849154
0000b0 0f 7c d2 bf d9 66 ce bf 9f 63 e8 bd a6 32 0c bf
       -1.644411 -1.6125137 -0.11347126 -0.54764783
0000c0 e5 ae b0 3e 75 08 1c 3f 79 ff ae bf d3 92 d5 be
       0.34508434 0.60950404 -1.3671714 -0.4171358
0000d0 b7 45 08 3c f7 47 1c be 60 b6 a3 bc 9d 03 db bd
       0.008317403 -0.15261827 -0.019984424 -0.106940486
0000e0 9d 7d 53 3f c1 54 41 3f dd fd c3 3e 9d 14 60 3f
       0.82613546 0.7551995 0.3827962 0.87531453
0000f0 2c 2f 85 bf 0f df 5a be c6 1b fb be ce 8e 05 bf
       -1.0405021 -0.21374153 -0.49044627 -0.5217103
000100 05 28 63 be f5 f0 5b 3f 75 cf 74 3f e5 76 57 bf
       -0.22183235 0.85914546 0.95629054 -0.84165794
000110 c3 1a ad 3e dd be 15 bf 33 ad 6e 3d ae fa 0b bf
       0.3380948 -0.5849436 0.058270644 -0.5467938
000120 4f b9 1b be 98 02 01 3e 5e 0f 7f 3f bf 35 1b 3f
       -0.15207408 0.12598646 0.99632823 0.60628885
000130 57 1b c0 bf a2 6e 5b 3f 57 5b fb be 80 ec a7 3f
       -1.5008343 0.8571569 -0.49093124 1.3119049
000140 22 2b 25 3f 38 02 89 3f d0 19 89 3f 7f 42 92 3d
       0.6451894 1.0703802 1.0711002 0.071415894
000150 a2 84 50 3f 62 9e e4 3e db fc 73 3e ed 7d 41 be
       0.8145238 0.44652086 0.23826925 -0.18895693
000160 22 be 98 3e f4 cc 51 bf 51 fa 93 3e ce 4f 0b bf
       0.2983256 -0.8195336 0.28901914 -0.5441865
000170 db 92 11 bf 9c 73 17 3f 81 a5 da 3e 7f ce cb 3e
       -0.5686471 0.5916078 0.42704394 0.39805982
000180 b3 d5 78 3f 97 9e 84 bd 1c 51 b8 bd 40 35 9a 3f
       0.9720108 -0.06475561 -0.089998454 1.2047501
000190 16 89 64 bf c7 a3 fe 3e 0c b4 dc bd 53 df 41 bf
       -0.89271677 0.49734327 -0.10776529 -0.7573139
0001a0 5d de b7 3f f6 1b 54 3e 5f fb c9 be 92 ee 01 bf
       1.4364735 0.20713791 -0.39449593 -0.50754654
0001b0 61 43 d7 3d 94 e2 da 3d db 09 ba be ff a2 4b 3e
       0.105108984 0.106877476 -0.36335644 0.19886397
0001c0 f5 33 b8 be 79 99 43 3f 8d 39 08 bf ef 19 38 3d
       -0.3597714 0.76406056 -0.53212816 0.044946607
0001d0 79 d6 eb be 04 1b e4 3d 9c 06 e8 bd 54 45 91 3f
       -0.46062067 0.11137965 -0.11329386 1.1349282
0001e0 41 96 ac bf d6 d9 11 3f a5 82 eb bd cc 0c 62 be
       -1.3483354 0.56973016 -0.11499528 -0.22075194
0001f0 07 1d 96 3f 79 e4 56 bf 91 fb 0e bf 7c 4c 7b 3e
       1.1727608 -0.8394237 -0.5585261 0.24540895
000200 69 da 83 be 6d 2c ae 3e 7e b6 9d 3e 37 af ed 3e
       -0.2575257 0.3401827 0.30803293 0.4642274
000210 72 6c 54 3f e9 50 8e be 7e 52 44 bf a5 4f 11 3f
       0.82977974 -0.27796105 -0.76688373 0.5676215
000220 c1 53 73 bf 1d c2 66 3e c4 02 0f bf 86 9a 40 3f
       -0.95049673 0.22534986 -0.55863595 0.75235784
000230 a8 a7 97 be 8a 33 9f bf df 72 23 bf d0 9c 9e 3e
       -0.296201 -1.2437603 -0.63847154 0.30979013
000240 84 78 00 3f 16 d6 18 bf bf bd 47 bf 67 c3 94 3e
       0.5018389 -0.5970167 -0.78023905 0.2905533
000250 6b f4 5f 3f f1 42 47 bf a1 12 72 3f 93 47 58 bf
       0.8748233 -0.7783652 0.94559675 -0.84484214
000260 f9 0a e1 3e b6 05 10 bf 16 27 89 bf 56 43 c0 bd
       0.43953684 -0.56258714 -1.0715053 -0.09387843
000270 02 f8 cd bf e6 90 33 3e 20 34 10 be 3d 94 f0 3e
       -1.6091311 0.17535743 -0.14082384 0.46988097
000280 06 53 49 bf 9a 6f 20 bf 26 4a 77 be bd 7f 91 bf
       -0.7864231 -0.6267029 -0.24149379 -1.1367108
000290 68 fc 49 bf ca b2 00 bf d0 46 12 bf 90 ee 84 3d
       -0.78900766 -0.5027281 -0.571393 0.06490815
0002a0 ec 0e 12 bf 3c 23 3c 3f f3 90 81 3f e6 80 0e bf
       -0.5705402 0.73491263 1.012236 -0.55665433
0002b0 8b 9b fd 3e 5b 13 02 be c5 26 4a bf e8 67 5e 3e
       0.49532732 -0.12702696 -0.7896541 0.21719325
0002c0 3b 0c 85 bf 11 66 63 3f d1 92 4f bf 9d 97 57 bf
       -1.0394357 0.88827616 -0.810834 -0.8421572
0002d0 54 e8 64 bf 68 9c db be 6f ad 8f be 53 47 a7 bf
       -0.89417005 -0.42892766 -0.28062007 -1.3068641
0002e0 99 a8 96 be 27 d4 55 bf 19 52 97 3f c0 c1 81 3f
       -0.29425505 -0.83526844 1.1821929 1.0137253
0002f0 62 a3 49 bf 26 86 80 be 79 b1 8f be dc bb 31 3c
       -0.7876493 -0.25102347 -0.28065088 0.010848012
000300 5a b5 0e bf 19 c4 12 bf 7b f5 09 bf 69 bf fc bf
       -0.5574547 -0.5733047 -0.538902 -1.9745914
000310 73 51 d2 bf 10 3b 7c 3e 48 93 d9 3e 94 9a a0 bd
       -1.6431106 0.24631906 0.4249518 -0.078419834
000320 ff 6d 99 3d bc dd a1 3f 49 34 1a bf 70 5a 3c 3e
       0.07491683 1.2645793 -0.6023603 0.18393874
000330 7f 07 92 3e 38 50 aa bd 68 1c e2 be 70 67 52 bf
       0.28521344 -0.08316082 -0.44162297 -0.82189083
000340 84 18 02 3f 36 2c 80 3c c2 c7 b4 bf 97 7f 99 be
       0.5081866 0.015646081 -1.4123461 -0.29980156
000350 cd 93 86 bf 15 10 29 bf 7f eb fb be cb d0 cd 3e
       -1.0513855 -0.66040164 -0.49203107 0.4019836
000360 f4 6b f8 be 11 62 22 bf 72 77 9c 3d 99 c4 c4 3e
       -0.48519862 -0.6343089 0.0763997 0.38431242
000370 b3 e0 3b be f0 a9 96 bd cd 81 87 3d 99 ec 89 bf
       -0.18347435 -0.07356632 0.066165544 -1.0775329
000380 f8 07 83 3f 62 3d 06 3f ed c3 80 3f 2b 0b 4d 3f
       1.0236807 0.5243741 1.0059792 0.80095166
000390 c1 b6 a5 3f 91 77 b4 3f a5 c4 1b be b6 29 6c be
       1.2946397 1.4098989 -0.15211733 -0.23062786
0003a0 d0 63 35 3f cc b1 64 3f ed 9e b6 bf 1d f4 02 3f
       0.70855427 0.89333797 -1.426725 0.5115374
0003b0 4a 78 b6 3f 1e 6d c2 be f0 cf ef bf 74 10 55 3e
       1.4255459 -0.37973875 -1.8735332 0.20807058
0003c0 11 eb fa bf 79 c5 30 bf c6 c5 6b 3e ea 36 43 3f
       -1.9602987 -0.6905132 0.23024663 0.7625567
0003d0 a4 ce 8e bd f9 06 11 bf b7 e6 81 3d c1 68 d4 3e
       -0.06973007 -0.56651264 0.063428335 0.4148617
0003e0 23 67 f7 3e 7d fe 69 3e b1 8a 0a 3e d8 2a 44 bf
       0.48320875 0.22850986 0.13529469 -0.76627874
0003f0 ad 0c 8c 3f 4f 44 b5 be 9f da 21 3f d7 1f 3f 3c
       1.0941368 -0.35403678 0.63224214 0.011665306

sequential/batch_normalization_4/FusedBatchNormV3 f4 [256]
000000 ad 27 54 3f 2a 26 8e be 8b ea 27 3f e7 70 ad be
       0.8287304 -0.27763492 0.6559226 -0.338752
000010 30 13 2f 3e 36 f2 15 bd 4b 28 78 bd 3e cc eb 3e
       0.17097163 -0.036607943 -0.0605853 0.46054262
000020 f7 93 d5 3e 37 23 16 3f 24 4d a8 3f 46 f3 c3 3e
       0.4171445 0.58647484 1.3148541 0.3827154
000030 7e 67 d6 be 79 c3 da bd 9f 14 c1 3e 3b 07 91 3d
       -0.41875833 -0.10681815 0.37711045 0.07081457
000040 7a d9 d6 be 79 73 31 bf d1 52 13 bf cb d0 48 be
       -0.41962796 -0.6931682 -0.5754824 -0.19610898
000050 be 23 43 3f ec de a1 3f 4d 78 74 bf fc 6f b1 bd
       0.76226413 1.2646155 -0.95496064 -0.086639374
000060 6e e0 a0 be 53 19 bc 3f 6a 4a 59 3f 3d 34 31 bf
       -0.31421226 1.4695228 0.8487917 -0.69220334
000070 88 53 91 be 37 30 46 3e ed 01 84 3f 60 d5 0b bf
       -0.28384042 0.1935433 1.0313088 -0.5462246
000080 de f0 55 3d 2c e8 bf be 59 5a c6 be 52 c3 98 3e
       0.052231662 -0.3748182 -0.38740805 0.29836518
000090 66 74 1f bf 1c a7 90 3e 36 22 7b 3e 80 68 08 3f
       -0.62286985 0.28252494 0.24524769 0.53284454
0000a0 51 32 c6 bd 0f 6e 4e bf a8 ec 8d bf fd e7 bb bf
       -0.09677566 -0.80636686 -1.1087847 -1.4680172
0000b0 52 60 b5 bf 37 f2 7f 3e 95 bb 7e 3e 4a ff 4d bf
       -1.417002 0.24994741 0.24876244 -0.80467665
0000c0 ba 9b 16 3f 82 5c 0e bf ed 86 61 3f 38 97 d4 bf
       0.5883137 -0.55609906 0.88096505 -1.6608648
0000d0 3f e8 9a 3d 61 69 1d 3e a0 51 76 3f f3 9d e6 3e
       0.07563829 0.1537223 0.962183 0.4504238
0000e0 4d fb 2d bf 7e e3 69 3e 20 ac 7e 3d cd 4d 02 3f
       -0.6796158 0.22840688 0.06217587 0.50899965
0000f0 2d 44 18 3f f5 93 db 3d da a0 01 3e c2 ec 45 3e
       0.5947903 0.1072158 0.12659016 0.19328597
000100 42 8a 27 3f 21 fc ec 3d a2 4b 8f bf 1b 48 c0 3e
       0.6544534 0.11571527 -1.1194956 0.37555012
000110 3e 03 a3 3d 4e 54 3b bf b1 58 04 3f d7 62 49 be
       0.07959603 -0.73175514 0.5169783 -0.1966661
000120 13 ae c2 be 6d d1 fd 3c 97 ad cd 3e 98 5a 46 bf
       -0.38023433 0.030983651 0.401715 -0.77481985
000130 7b 25 69 be 08 bd d7 3e de 20 df be 9b 04 ba be
       -0.22768204 0.42136407 -0.43579763 -0.3633164
000140 1a a0 5d bf 56 de d2 3e b1 ca f2 be 3b 5b 88 bd
       -0.8657242 0.41185254 -0.47420266 -0.06658026
000150 8f 9f 4d 3f 3c ec bc be 89 10 38 be b9 b6 15 3f
       0.8032159 -0.36898983 -0.17975058 0.5848194
000160 32 8b 16 be 5c 46 d9 3e 96 ec ce 3e e3 71 0a bf
       -0.14701536 0.42436492 0.40414876 -0.5408003
000170 40 f9 6b 3e 8a 63 da 3b 3e 32 1d 3e 13 a4 52 3f
       0.230443 0.006664698 0.15351197 0.8228161
000180 a7 8e 5c 3e a4 b3 27 be b4 15 e1 be c0 a9 01 3f
       0.21538793 -0.16377121 -0.4396187 0.5064964
000190 49 02 84 bf 0c 7d a8 bb 77 35 b3 be 41 9c 74 3f
       -1.0313197 -0.00514186 -0.35001728 0.95550925
0001a0 3d 52 b2 3f d6 ae 00 bf b0 cd d7 3e be eb 60 3f
       1.3931347 -0.5026678 0.42149115 0.87859714
0001b0 39 2e 4b bf 75 9c a3 3e 37 ca 2c be fe c2 ec be
       -0.79367405 0.31955305 -0.16874014 -0.46242517
0001c0 51 48 e6 be 02 32 b3 3b 13 ed e1 be d3 fc 00 bf
       -0.44977048 0.005468608 -0.44126186 -0.5038578
0001d0 0a da 1a bf de d4 48 be 52 9c 0c be a4 cd 7b ba
       -0.6048895 -0.19612452 -0.13731506 -0.0009605533
0001e0 f1 84 0c 3f 32 8c 64 bf 96 27 aa 3e 2f d7 5f 3f
       0.5489035 -0.8927642 0.33233327 0.8743772
0001f0 b6 3b a1 3e 78 11 32 3e 0a a8 04 3f b5 fe 48 3f
       0.31490868 0.17389476 0.5181891 0.7851365
000200 df 39 a9 be 8f a1 17 be 08 f8 dd be 1a 74 31 bf
       -0.33051965 -0.14807723 -0.43353295 -0.6931778
000210 50 88 07 3f c4 92 34 3f 99 d2 de be 2e 3e 33 3f
       0.5294237 0.70536447 -0.43520048 0.70016754
000220 37 74 00 be 1f 05 9e bf 5c f5 43 3f 0b b2 96 bf
       -0.12544332 -1.2345313 0.76546264 -1.1773084
000230 38 c9 31 3f 53 1b 5b be 34 01 21 bf e7 fc f9 3e
       0.6944766 -0.21397142 -0.6289246 0.48825762
000240 5c ae 1c bd a4 84 a3 3f 0b 54 d7 be 06 7b 34 bc
       -0.03825222 1.2774854 -0.42056307 -0.011015659
000250 a3 39 f0 3e 15 55 7b be ef d4 25 bf b0 3d 7f be
       0.46918973 -0.24544175 -0.64778036 -0.24925876
000260 11 64 77 be 7b 91 bf 3e 9e 38 0c 3e 3c ab fa bc
       -0.24159266 0.3741568 0.13693473 -0.030599229
000270 35 9f f3 3e 6b 50 61 bf db 81 ae 3e 4c 86 02 3e
       0.47582403 -0.88013333 0.34083447 0.12746543
000280 5b 2b 62 bd 6a a1 01 3d 12 7d 06 bf 40 11 bb 3d
       -0.05521713 0.031648077 -0.5253459 0.091341496
000290 87 1d 12 3f 4b d9 c8 3e f0 e2 5a be 7a a9 57 3d
       0.57076305 0.3922828 -0.21375632 0.05265186
0002a0 2c d8 f0 be ce ea 45 bf f3 e6 1a bf ff 20 28 3f
       -0.47039926 -0.7731141 -0.6050865 0.6567535
0002b0 bd 4a ad bf b9 48 a5 3e 22 3e 4c 3c bf 0e 04 3f
       -1.3538433 0.32282045 0.0124659855 0.51585
0002c0 e6 26 80 3e ca 6e da be b5 e9 af be 62 53 d8 be
       0.25029677 -0.4266265 -0.34357992 -0.42251116
0002d0 fa b8 54 3e 4a 6c dc 3d 16 e7 be 3d e3 a7 0b be
       0.20773688 0.10762842 0.0932142 -0.13638262
0002e0 83 27 49 be 4f 52 39 bf 4b 00 cc be f4 ed 53 3f
       -0.19643979 -0.7239122 -0.39843974 0.8278496
0002f0 4e e1 49 be 40 dc 65 3e 7a 87 d7 3e 77 a7 56 3e
       -0.19714853 0.224473 0.42095548 0.2096232
000300 e3 92 d2 bd cb 29 58 3e 95 a6 e9 bf 5a 13 56 3f
       -0.10281923 0.21109693 -1.8253962 0.8362328
000310 96 c7 04 3d 3a 15 fb 3f e0 cf 53 3e d1 dc 77 3f
       0.032416902 1.9615853 0.20684767 0.96821314
000320 63 2f f4 3e 58 4c 88 3f 94 cd da 3d 77 90 01 be
       0.47692403 1.0648298 0.10683742 -0.12652765
000330 16 6a 9b be 19 07 7d bf 29 bd 86 bf cd 24 99 3f
       -0.30354375 -0.98838955 -1.0526477 1.1964356
000340 04 e5 fa 3e 1a d8 d8 be f2 5b 8c bd 64 84 c9 3e
       0.4900285 -0.42352372 -0.06853475 0.3935882
000350 a6 3c 4e 3f a3 84 df be 37 92 8a be 90 fc 89 bf
       0.8056129 -0.4365588 -0.27064678 -1.0780201
000360 37 fa a5 bd d6 11 13 bf c3 98 a4 3e 3b ed 25 3f
       -0.08104365 -0.5744909 0.32147798 0.6481511
000370 14 7e 97 3e cb 2c 28 3f c8 c1 92 3f b9 7e 85 3e
       0.29588377 0.6569335 1.1465387 0.26073244
000380 26 21 85 be 30 03 cd 3e a8 fb 0a bf 5d a4 51 3f
       -0.26001853 0.40041494 -0.54290247 0.81891423
000390 0e 9d 4a 3d f9 eb cf bc 58 d2 24 bf a8 30 49 bd
       0.049466185 -0.025381075 -0.6438346 -0.049118668
0003a0 7f 62 5e 3f 57 a8 c6 be ee 05 26 bf a0 ab 2d 3f
       0.86869043 -0.38800308 -0.648528 0.67840004
0003b0 87 b8 87 3e 5d 21 89 be cc ae 82 3f 72 0f 56 be
       0.2650797 -0.26783267 1.0209594 -0.2090433
0003c0 0c 82 ee bd 35 5f 96 be 32 f9 89 be 7b 8b 4f 3f
       -0.11645898 -0.29369512 -0.26947933 0.81072205
0003d0 af 13 88 3f 42 d5 6c 3f 16 57 9a be 9c da 99 3e
       1.0631007 0.92512906 -0.30144566 0.30049598
0003e0 b2 32 a4 be a7 b1 59 bf 3b ab aa bd af fc 87 be
       -0.32069927 -0.850367 -0.08333441 -0.2655997
0003f0 77 d4 0d bd 56 60 d4 be d8 52 d8 3e 28 bd 93 3f
       -0.03462645 -0.41479748 0.42250705 1.1542101

sequential/dense/MatMul f4 [2, 256]
000000 6d 60 09 3e d6 3e 2e bd 78 96 0c 3e 71 9b 00 3e
       0.1341569 -0.042540394 0.13729274 0.12559296
000010 db 0c 8b bd 51 f8 11 3e ba ea 13 be c0 dd eb 3a
       -0.06789561 0.14254881 -0.1444501 0.0017995164
000020 29 9d 0b 3e 8a 82 a3 3d 99 42 21 be 14 70 8b 3d
       0.1363417 0.07983883 -0.15748061 0.068084866
000030 bf 1e a4 bd 88 82 fc bd 77 86 e6 bd 0e fc 1a 3d
       -0.08013677 -0.12329584 -0.11256116 0.037838034
000040 b5 86 15 be 5d 37 74 bd c1 6d 15 3d 71 e0 04 3d
       -0.14602168 -0.05962311 0.036481623 0.032440607
000050 95 00 56 3d 87 ac 0d bc 05 b5 05 bd 1c 5d 90 3d
       0.05224665 -0.008647091 -0.032643337 0.07049009
000060 57 87 2e 3a de ec a6 bc 72 b8 4f bd 86 95 9b 3d
       0.00066577405 -0.020376619 -0.05071301 0.07596879
000070 df 80 71 bd 8f 98 a8 bd 67 d9 1c 3a b6 30 c1 3d
       -0.05896079 -0.08232223 0.0005983323 0.09433119
000080 e5 9d 04 be f9 f3 18 be b6 7c af bd 9e 07 0e 3e
       -0.12950857 -0.14936818 -0.085687086 0.13870093
000090 91 de 94 bd 11 5a 88 bd da 91 18 3e 50 b3 af 3d
       -0.07269014 -0.06657804 0.14899388 0.08579123
0000a0 e3 5c 82 bd 20 68 a7 3d 98 30 fc 3d cf b6 50 bd
       -0.06365373 0.08174157 0.12313956 -0.05095559
0000b0 96 06 08 be 44 f9 c3 3d 5f eb cc 3d 3f fb 00 3e
       -0.13283762 0.09569028 0.10005831 0.12595843
0000c0 e8 95 15 be f4 c5 19 be 75 56 03 be a6 2b fb 3a
       -0.14607966 -0.1501692 -0.1282595 0.0019162789
0000d0 35 59 ee 3d a2 e3 03 3e eb c7 70 bd be 45 c4 bd
       0.11638109 0.12879804 -0.058784407 -0.09583615
0000e0 50 75 97 3d 70 15 8e bc 71 31 0e be 3d ec d0 3d
       0.073954225 -0.017344207 -0.13886048 0.10201309
0000f0 97 5d 49 3d 8e bd 08 be 66 e5 99 bc 7b 43 02 be
       0.04916152 -0.1335356 -0.018786144 -0.12721054
000100 d9 29 f3 bd e9 99 63 3d 0b 8d 32 bd bc 2d d9 bc
       -0.11873216 0.055566702 -0.04359154 -0.026511066
000110 d2 74 8e bd a9 2b 08 be 0f 31 07 be 29 90 38 3c
       -0.069558755 -0.13297905 -0.13202308 0.011264839
000120 8b a5 d7 bd 0f 6e be bd c1 f8 bf 3c 5d 89 06 3d
       -0.10529622 -0.09298336 0.023434045 0.032845844
000130 54 6e 1f 3e ca 7b e8 bd c8 9e f2 bd 51 98 df 3c
       0.1556943 -0.11351736 -0.11846691 0.02729431
000140 98 4b 03 3c 11 9c ea 3d 8d 87 68 bc 19 81 e3 3d
       0.008013628 0.114555486 -0.014192474 0.11108608
000150 94 01 c7 3d 09 3b 19 bd c7 11 4c 3d 01 f9 02 3e
       0.09717098 -0.037409816 0.04982164 0.127903
000160 2c 53 f0 bd 56 85 f2 3d ae 97 e7 3d d8 1a e3 bc
       -0.11734614 0.11841838 0.113082275 -0.027722761
000170 c5 ff 1b 3d 65 af 8d 3c 9d da db 3d ad 7e 73 3a
       0.038085718 0.017295549 0.107350565 0.00092885905
000180 61 7a 15 3e 23 a0 83 bd 3c fb 94 3c 97 28 18 be
       0.14597465 -0.06427028 0.018186204 -0.14859234
000190 76 28 f2 bd fa a7 bc 3c 2f 2d 0c be 7f 15 b8 3d
       -0.118241236 0.023029316 -0.13689111 0.08988475
0001a0 88 81 12 be 29 a6 17 3e 35 e1 12 3e e1 0f ce 3c
       -0.14307225 0.14809479 0.14343722 0.025154056
0001b0 16 e1 42 3d cc 9d 11 be b2 13 89 3d 88 4a f4 bd
       0.04757794 -0.14220351 0.0669321 -0.11928278
0001c0 d8 93 17 3e 86 60 bd bd 28 4d b2 bc 53 14 c4 3d
       0.14802492 -0.09246926 -0.021765307 0.09574189
0001d0 62 a1 12 be 60 66 f2 bd ba 57 d8 bd f7 17 91 3d
       -0.14319375 -0.11835933 -0.105636075 0.07084649
0001e0 f3 d2 b4 3c 7b b1 13 be dd fb ce bc 83 42 14 be
       0.022073245 -0.14423172 -0.025266582 -0.14478497
0001f0 23 a4 fc 3d 08 bb c3 3d ba 3c ed 3c ae 89 86 3d
       0.12335994 0.09557158 0.02895962 0.06569229
000200 3d 7d 08 3d 79 1a 65 bd 2b 53 18 be 82 e8 6b 3d
       0.03332256 -0.05593345 -0.14875476 0.057594784
000210 ea c5 17 be 5e b1 3b bd ba 23 8a 3d 1a fb 34 bb
       -0.14821592 -0.045823447 0.067450956 -0.0027615489
000220 52 db cf 3d ae 51 22 3d a1 c7 a0 bd 0c b9 a4 bd
       0.10149254 0.039628677 -0.07850576 -0.080431074
000230 6e 4b de bd fc 2f 72 bd 31 40 c2 bb 47 cd 0a bd
       -0.10854231 -0.059127793 -0.0059280624 -0.033887174
000240 92 92 76 bc c7 32 3e bd 98 02 0e 3c 20 74 35 3d
       -0.0150495935 -0.046435144 0.008667611 0.0443002
000250 ee 20 fb bb 3b 25 bd bd df 2a 0c bc fb 41 1e bc
       -0.0076638376 -0.09235617 -0.008555143 -0.009659286
000260 fb 53 27 bd 1c 6c 8c bd 8e af 13 bd e0 91 cb bd
       -0.040851574 -0.06856558 -0.036056094 -0.09939933
000270 8a 92 1b be d1 83 74 3d 72 d5 b7 3d db 32 0d be
       -0.15192619 0.059696022 0.08976258 -0.13788931
000280 43 2c 80 bd e0 e4 b3 3d 01 c0 7c 3d 10 48 3c 3d
       -0.06258442 0.08783889 0.061706547 0.04596716
000290 5a cf 18 be 03 55 8f bd e5 22 a8 3d d8 8c 22 bd
       -0.14922848 -0.069986366 0.082097806 -0.0396851
0002a0 ad 17 fa bd 02 94 c2 bd bd 1d 5f 3c 38 58 c5 3d
       -0.12211547 -0.095008865 0.01361793 0.09635967
0002b0 a4 b4 b5 bd 9b 14 8d 3d 26 99 71 3d 7a d1 87 bd
       -0.08872345 0.06888696 0.058983944 -0.06631751
0002c0 19 31 72 bd 29 c2 20 3d 28 0a 0d be 2f 43 33 3c
       -0.059128854 0.039247666 -0.13773406 0.010941311
0002d0 cd c1 fc 3d 98 46 70 bd f2 50 e5 3d 38 23 d8 bd
       0.12341652 -0.058661073 0.1119708 -0.105535924
0002e0 5e ac ff 3d 19 13 ec bd ca d7 1f bd a3 44 8d 3d
       0.12484048 -0.1152708 -0.03902415 0.06897857
0002f0 37 54 1c 3e 0d a3 5b 3c 11 56 b2 3d 5f 5d 8e 3d
       0.152665 0.013405574 0.08707822 0.06951403
000300 6f 93 69 bd 2a e0 c9 bc d0 b5 e7 3c db 84 03 3e
       -0.05702537 -0.024643023 0.028284937 0.12843649
000310 4e 85 f1 3d fc 6f 10 be 2a 5c 92 bd ed 2c db bd
       0.11793004 -0.14105219 -0.07146485 -0.10701928
000320 49 b3 13 3e 24 0c e9 bd 82 03 b6 3d c3 a8 8c 3d
       0.1442386 -0.11379269 0.08887388 0.06868126
000330 52 5f 31 3d d3 f5 e3 bd b4 8d 97 3d 99 e5 1c bd
       0.043303795 -0.111308716 0.074000746 -0.0383049
000340 9d 6b e4 bd 2b 04 11 be 9d f3 92 3d 61 23 d8 bc
       -0.11153338 -0.14161746 0.07175372 -0.026384057
000350 8c 2c bb ba fa dd d2 3d b6 8e bc 3d a6 03 a3 bd
       -0.0014280244 0.10296245 0.092069075 -0.0795968
000360 28 24 03 3e 41 f3 0c be 4d ef 1b 3d ca 95 3c 3d
       0.12806761 -0.13764669 0.038070012 0.046041287
000370 ae 26 77 bc 8f 9d 14 3a 0d 11 cd bc 37 89 e1 3d
       -0.015084906 0.000566923 -0.025032545 0.110125
000380 9e b4 ac bd fa 2c 4e 3d 83 9d 3c bb 40 93 c4 3d
       -0.084328875 0.05033586 -0.0028780408 0.09598398
000390 43 71 c7 bd e7 35 54 bd 24 b8 a7 3d 79 2c 0e 3c
       -0.097384 -0.051809218 0.08189419 0.008677595
0003a0 9d ec 8d 3b 99 0a 72 3d 26 43 19 be 72 82 1b 3d
       0.004331185 0.059092138 -0.14967021 0.0379662
0003b0 99 fe 13 be a9 c2 03 3e 57 9b 67 bd 02 a6 03 3e
       -0.1445259 0.12867226 -0.056544628 0.12856296
0003c0 b9 0b c4 3d 75 2e 84 bd e7 30 b9 bc 28 fd 0b be
       0.095725484 -0.064541735 -0.022606326 -0.1367079
0003d0 34 ea fb 3c 9a f3 f8 3d b9 62 c3 bd bf f5 fa bd
       0.030751325 0.12155838 -0.09540314 -0.122539036
0003e0 b2 7c 05 bd cb c8 a4 3d b8 fb 1a be 50 8b f3 bd
       -0.03258962 0.08046111 -0.15135086 -0.11891806
0003f0 ee f3 14 3c 21 79 07 3e 38 68 98 3c 0e bf c3 3d
       0.0090913605 0.13229801 0.018604383 0.09557925

sequential/conv2d/Conv2D f4 [32, 4, 4, 1]
000000 c5 ff 35 bc 3f a6 d6 3a c6 c6 26 bc 6e 72 10 3c
       -0.0111083435 0.001637645 -0.010179227 0.008816345
000010 a0 7e ed bb c7 7f 84 3b 68 75 3a 3b 79 2e 3b bc
       -0.007247761 0.0040435526 0.0028451327 -0.011424654
000020 af 44 61 bb 2d 61 93 3a 1e f3 ec bb 21 b5 ce 3b
       -0.0034373214 0.0011244171 -0.0072311303 0.0063082133
000030 79 00 8b ba 8c 14 f1 3a b0 14 1d 3b fc e1 28 3c
       -0.0010604999 0.0018392964 0.002396863 0.010307785
000040 e7 c8 10 3c 2e 15 77 3b e3 a7 23 3c bb 66 a7 bb
       0.008836961 0.0037701833 0.009988758 -0.005108682
000050 18 1c 2a bc 7a ae 7a bb ac f5 28 bc 4a 59 5b 3b
       -0.010382675 -0.0038250969 -0.010312479 0.0033469968
000060 83 99 19 bb 17 7a 64 bc 3f 1a 83 3b a2 5b 32 3c
       -0.0023437447 -0.013945124 0.0040009315 0.010886105
000070 8d 7b b6 3a dd 06 62 bc 3c f0 69 3c 6d 31 54 bc
       0.0013922319 -0.013795582 0.014278468 -0.012951237
000080 32 2f f3 3b 41 48 14 bc 53 fe 25 bc 94 f8 0d 3b
       0.0074213976 -0.00905043 -0.010131436 0.0021663057
000090 a8 b4 26 3b 5b 99 44 3b 56 fd 33 bc 81 e1 18 3c
       0.002543727 0.0029998634 -0.010985693 0.009331108
0000a0 81 16 4f 3c fd 5f 7b 3a f5 d7 6c bc 9b c9 fa bb
       0.012639643 0.00095891935 -0.014455785 -0.007653428
0000b0 22 dd 4c bc 48 62 15 bb 36 6c 4f 3c 0d 31 0e ba
       -0.012503894 -0.0022794176 0.012660077 -0.0005424179
0000c0 69 e7 23 3b 4a 28 13 3b a6 0d 97 3b cd bc a9 b9
       0.0025009757 0.0022454434 0.0046097813 -0.0003237486
0000d0 b5 1d b1 3b bb a8 dd 3b 9e f3 c6 ba f3 8a f6 3a
       0.0054051527 0.006764499 -0.0015178805 0.0018809721
0000e0 21 64 b0 bb 69 d6 e7 3b 6e 07 d0 3a b5 7f bb bb
       -0.00538303 0.00707512 0.0015871355 -0.005722011
0000f0 23 44 0c bb f9 8a b0 3a 1f 41 f0 3b 1a 20 b1 bb
       -0.0021402917 0.0013469151 0.007331982 -0.005405438
000100 e9 8b ce b9 78 7a c0 3a e7 49 f8 ba 62 43 a6 3b
       -0.00039395623 0.0014684936 -0.0018942923 0.0050739506
000110 b5 0e 99 3b 30 49 a7 3a 4f 13 1e bb d2 29 6e bb
       0.0046709427 0.00127629 -0.0024120396 -0.0036340845
000120 4d f9 c2 3b b9 55 e8 3a bb d1 55 3b 24 69 85 3b
       0.005950129 0.0017725743 0.003262623 0.0040713716
000130 31 fc a0 ba 03 1f 3a 3a 3c 83 a7 3a d8 5b 9b 3b
       -0.001228219 0.0007099958 0.00127802 0.0047411732
000140 67 bd 5a 3c 3a a1 06 bc 9e f7 d8 3b b8 f7 b2 bb
       0.013350821 -0.00821715 0.006621315 -0.0054616593
000150 b3 00 1f 3a c9 2c 16 3c 8b 4c ca 3b 68 1b f0 3b
       0.0006065473 0.009165951 0.0061736754 0.007327486
000160 89 2f c3 3a cd 40 2f 3b b5 a3 f7 b9 b0 7f 23 bb
       0.0014891486 0.0026741505 -0.00047233482 -0.0024947934
000170 34 5d e9 3b b9 a1 56 bc 60 95 43 bc 2e dd d1 3b
       0.0071217064 -0.013100081 -0.011937469 0.0064045405
000180 41 6f 20 bb 32 02 90 bb 09 af 98 bb ec 18 94 ba
       -0.0024480375 -0.004394793 -0.0046595377 -0.0011298931
000190 7f 81 33 ba a3 c4 85 3b 37 b2 b2 39 fe 6f 96 3b
       -0.00068476045 0.004082279 0.00034083586 0.004590987
0001a0 a4 78 8a b9 50 47 c3 bb ed 1b b7 bb fd ad 1f 3b
       -0.00026411295 -0.005959429 -0.005588046 0.002436518
0001b0 2a e0 7f bb 21 44 c8 bb 95 af 31 3b 8a 08 ef ba
       -0.0039043524 -0.006111637 0.0027112712 -0.0018236798
0001c0 26 a4 57 bb 14 ea c2 bb dc db 57 3b 73 16 f0 3b
       -0.0032904237 -0.0059483144 0.0032937443 0.007326895
0001d0 89 f7 56 bb 30 b0 7b bb f1 c5 c2 3b de df 45 ba
       -0.003280135 -0.0038404576 0.0059440066 -0.00075483124
0001e0 6b 87 f1 ba 8c c5 99 bb 9f b6 aa bb c5 7e d8 bb
       -0.0018427199 -0.004692739 -0.0052097584 -0.006606909
0001f0 16 40 5c 3b c0 fb 1c bb 4b 33 d3 bb f1 57 f2 3a
       0.0033607534 -0.0023953766 -0.0064453236 0.0018489343
000200 5b 62 38 3b 20 f4 af 3b 44 09 ff 3a ce e1 bb 3b
       0.0028134796 0.005369678 0.0019457717 0.005733705
000210 45 17 ab bb 19 67 f3 b9 18 51 dc ba fe bc 99 3b
       -0.00522128 -0.00046425386 -0.0016808836 0.004691719
000220 23 86 a8 3b 95 78 16 bb 23 94 c6 b8 a3 40 c0 3a
       0.0051429435 -0.0022960056 -9.468968e-05 0.0014667701
000230 4e 4a 9f 3b 02 7e 93 ba 76 be 66 3a e3 ce 23 3b
       0.0048611527 -0.0011252763 0.00088021846 0.002499514
000240 62 48 fe bb 80 96 fa 3b dd da b8 bb 2b ad a4 bb
       -0.0077600935 0.0076473355 -0.005641325 -0.005025526
000250 af 03 5f 3a 69 40 2d bb 02 37 38 ba 82 90 77 3b
       0.0008507324 -0.0026436097 -0.000702724 0.0037775342
000260 80 f7 73 3b 54 19 1c 3c 3c 3e 33 bb 7d 2c 82 3b
       0.003722638 0.009527523 -0.0027350327 0.0039725886
000270 df 13 18 3c 6d 92 08 bc 16 6b d7 3b 0e a8 00 3c
       0.009282081 -0.008335692 0.006574045 0.007852567
000280 9c 98 3e bc cc 50 7b 3b 01 ae c5 b9 ee 33 04 ba
       -0.011633065 0.003834772 -0.0003770441 -0.00050431385
000290 8a d6 3d bc e7 ad 1d bc 8b 5c 02 3c 7c 7f 7e bb
       -0.011586795 -0.009623981 0.007956634 -0.003883331
0002a0 3d e0 3d 3a 7c 90 2b bb 81 72 d5 ba 7a 03 b5 bb
       0.0007243192 -0.0026178649 -0.0016284735 -0.005524096
0002b0 a8 40 41 3c c4 17 5a 3c ce a3 bb 3b df 9d 02 bc
       0.0117952 0.01331133 0.005726314 -0.00797221
0002c0 8e c1 aa 3b c7 37 52 bb 24 c9 0c bc ba 15 a6 3b
       0.005211062 -0.0032076703 -0.008592878 0.005068508
0002d0 27 5c d7 bb 7a 10 1e 3c 9a 97 c0 bb a5 fc fa 3b
       -0.0065722647 0.009647483 -0.0058774473 0.007659512
0002e0 e1 d2 64 3c 8f ac a7 3b 2e 59 87 3a d1 de a1 3a
       0.013966293 0.005117006 0.001032626 0.001234973
0002f0 7d 43 a3 bb e4 8f dd bb 2e bc 2a 3b 3c 32 f4 3b
       -0.0049824105 -0.006761538 0.0026052105 0.0074522775
000300 70 ac ba 3b 6e 76 c4 bb 95 a7 f9 bb 41 a5 1b 3c
       0.0056968257 -0.005995563 -0.0076188543 0.009499849
000310 fa 5a b0 3a 31 aa 0d 3c 1e 57 a3 bb b7 b2 17 3c
       0.0013454848 0.008646534 -0.0049847504 0.0092589175
000320 7c f1 1a 3c d1 27 77 bb fe 27 48 3b 51 73 db bb
       0.009456988 -0.0037712941 0.0030541415 -0.0066970964
000330 1d 09 88 bb b4 17 a6 ba 35 e7 a3 3a 2b dc 1d 3c
       -0.004151477 -0.0012671859 0.0012504818 0.009635012
000340 12 af 9a 3b 69 85 ca b9 69 a2 c0 ba 03 2e 24 3c
       0.004720577 -0.0003862784 -0.001469684 0.010020736
000350 f1 57 02 bc d8 af fa bb 55 19 06 bc a9 fb 95 bc
       -0.007955537 -0.0076503567 -0.008184751 -0.018308477
000360 d6 9d 82 3c e1 71 e9 3b 22 a2 08 bc e1 ae 64 3b
       0.015944403 0.007124171 -0.008339437 0.0034894275
000370 6d f8 31 bc 57 1c cc 39 da e4 9e 3c d3 5b 87 3c
       -0.010862452 0.00038931027 0.019396234 0.016523277
000380 1f 44 1f 3c a7 d8 12 bc 20 88 8e bb f6 ac 8e bb
       0.009720831 -0.008962787 -0.0043497235 -0.0043541146
000390 2e af 68 bb 80 5e e3 3b fa e4 9c 39 30 dc 47 bb
       -0.0035504806 0.0069387555 0.0002992524 -0.0030496232
0003a0 a3 b8 21 3c b9 10 02 3b ef 81 b1 38 bc a0 1a 3c
       0.009870681 0.0019846393 8.46422e-05 0.009437736
0003b0 41 b2 a9 bb fb 26 de 3b 37 07 21 3c 54 09 d3 bb
       -0.00517872 0.006779549 0.00982838 -0.006440321
0003c0 08 cf 0d ba 97 c5 8e 3b 12 c2 d8 bb 50 d4 d0 bb
       -0.0005409573 0.0043570506 -0.006614932 -0.006372966
0003d0 76 50 a1 bb ca e8 fd 3b 79 1f 57 ba de a7 e4 bb
       -0.004922922 0.007748698 -0.0008206289 -0.006978019
0003e0 76 e5 8d 3b eb a7 de 3b e4 36 09 3c da a7 7a bb
       0.0043303324 0.0067949197 0.008374903 -0.003824702
0003f0 33 d1 bb ba f0 df 6a bb 26 f2 a6 bb 28 6e 10 bc
       -0.0014329314 -0.0035839044 -0.0050947843 -0.008815326

sequential/conv2d_1/Conv2D f4 [256, 1, 1, 32]
000000 3d ac 0a 3e 43 4b 01 bf 77 c9 fa be 9b ee 15 3f
       0.13542266 -0.50505465 -0.4898183 0.5856721
000010 0d a0 21 bf 1a b9 29 be dd 74 c9 3e e1 36 d1 ba
       -0.63134843 -0.16574517 0.39346972 -0.001596179
000020 a2 9f 01 bf 9d f6 1d bf e8 cc cf bd a7 a2 22 bf
       -0.50634205 -0.61704427 -0.10146505 -0.6352944
000030 9a d0 fc 3e 06 7d b5 be bb c1 20 bf 49 ac ac bd
       0.493779 -0.35446948 -0.6279561 -0.08431298
000040 0c 0c eb be 46 8d 0f 3f d5 33 11 bd fd 95 7b 3e
       -0.4590763 0.5607494 -0.03544982 0.24568935
000050 43 9d 21 3f 99 b2 ee 3e d4 31 15 bf ac 9d c4 be
       0.6313059 0.46620634 -0.58279157 -0.38401544
000060 b7 aa b8 3e f0 9c c5 3d ff b7 22 bb ce ea 05 be
       0.36067745 0.09649074 -0.0024828908 -0.13077852
000070 1e a7 53 be 4c 4b 11 be 04 74 b9 be 40 b4 e0 be
       -0.20669219 -0.1418888 -0.36221325 -0.4388752
000080 8a 9c 66 be b3 f1 06 3e 89 6b 43 be a0 20 40 be
       -0.22520652 0.13178138 -0.1908399 -0.18762445
000090 a8 d0 db bd 41 9a bc bd e0 bf e6 3e a0 ca 6e bd
       -0.107331574 -0.09209109 0.45068264 -0.058298707
0000a0 95 e4 c2 be 1a b4 61 be 59 11 1c bf 56 32 08 bf
       -0.3806502 -0.2204136 -0.6096397 -0.53201807
0000b0 69 fd 8d 3e ab 91 e7 3e b8 78 1f 3f 41 e0 96 be
       0.277324 0.45228323 0.6229358 -0.29467967
0000c0 76 93 fe 3e b3 3a 16 bf 54 f7 ab 3e b2 26 f7 3e
       0.4972188 -0.5868332 0.33587134 0.4827171
0000d0 98 bc 22 3e 3b 59 e1 3e dc 88 f6 be 7e 6f 3f be
       0.15892255 0.4401339 -0.4815129 -0.18694875
0000e0 7d 2c 7d 3e 23 69 2b 3e 86 66 a1 be e3 f7 f6 3e
       0.24724002 0.16739325 -0.31523532 0.48235998
0000f0 72 6e 3a be 48 4e ed 3e 47 68 14 bf 10 e0 f4 3e
       -0.18206194 0.46348786 -0.57971615 0.47827196
000100 e6 0b 6b 3e b5 c0 e3 be 11 8e 86 3d 72 9b 2a 3e
       0.22953758 -0.4448296 0.06570066 0.1666086
000110 10 35 68 be 4c a4 c9 be 22 38 12 3e c6 d9 d0 3d
       -0.22676492 -0.3938316 0.14279225 0.10197787
000120 98 6f c2 be 85 ce 66 be a7 ff ca 3e a7 29 de 3e
       -0.37975764 -0.22539718 0.39648172 0.43391153
000130 11 d2 d4 be 83 01 be bd ba 85 c9 be c0 a8 f4 be
       -0.41566518 -0.09277632 -0.39359838 -0.47784996
000140 76 97 ca 3d 8d bd 03 bd c1 fc 13 be 02 f4 e3 bd
       0.0989217 -0.03216319 -0.14451887 -0.11130525
000150 b5 b3 7d bd ea 38 a7 3e 76 ad 70 3e 0c ef 2a 3e
       -0.06193896 0.3266061 0.2350367 0.16692752
000160 3f d9 0e be 38 e2 8b be f9 9f 90 3e 5a bf 9b 3d
       -0.1395006 -0.2732103 0.2824705 0.07604857
000170 1c 0d 35 3e c1 a1 bb 3e f5 20 e8 3e a1 26 b2 3e
       0.17680782 0.36646846 0.45337644 0.34795097
000180 35 0c 79 3d 1d 0e 98 3e eb 84 8e 3c 33 9c cd be
       0.060802657 0.29698268 0.017397365 -0.40158233
000190 99 28 0f bf 1f 0b 86 3e 3b a7 c8 3e c9 40 25 3e
       -0.5592132 0.2618036 0.39190087 0.16137995
0001a0 8f 47 92 3e 89 c1 02 bc 97 f4 b1 3e 23 73 4a 3e
       0.2857022 -0.007980713 0.3475692 0.19770484
0001b0 0b 05 0c be 93 06 99 3d 2d 0a 0f 3f 57 60 99 be
       -0.13673799 0.07471957 0.558749 -0.29956314
0001c0 90 44 02 3f 1c 0d d8 3e e0 c5 f5 be 7a e6 88 be
       0.5088587 0.42197502 -0.4800253 -0.2673834
0001d0 7c 65 f8 bd a7 1d 77 3d d1 0c 09 bf 62 40 03 3f
       -0.121287316 0.060331013 -0.5353518 0.51270115
0001e0 d9 a0 cf be a8 7e eb 3e 97 97 a8 bd df f4 09 3f
       -0.40552405 0.4599507 -0.082320385 0.5388927
0001f0 96 2b 05 be da a8 2e 3d 16 59 d3 3e 4d 0c c0 be
       -0.13004908 0.0426415 0.41278905 -0.37509385
000200 7a 37 bd be 9f d5 c3 be 72 de df be 8a e7 ee 3c
       -0.36956388 -0.38248917 -0.437244 0.02916314
000210 89 1e 2a 3e 29 bf b3 3e 32 1b 23 3e 0c 42 68 3e
       0.1661321 0.3510678 0.15928343 0.22681445
000220 d6 6a 2f 3e 48 fe e9 be 36 10 89 be 99 24 51 3e
       0.17130598 -0.45701814 -0.2677018 0.20424117
000230 71 9c a9 3e 61 16 96 3e d5 f9 3e 3e ac 22 db be
       0.33127168 0.2931395 0.18649991 -0.4279989
000240 84 2c 68 be 20 83 c5 3d 2f 57 83 3e 78 6e e2 3e
       -0.22673231 0.09644151 0.25652453 0.44224906
000250 2f 1f 48 3e cf 76 49 bd d8 2a b4 be 51 35 6a be
       0.19543146 -0.04918557 -0.35188937 -0.22871901
000260 45 aa ab 3e 70 05 d7 3e b3 c6 b7 be 20 d0 7d be
       0.33528343 0.41996336 -0.35893783 -0.24786425
000270 16 bb d5 3e e6 af 96 3d 9f 5d 21 3e f2 5d 6d 3e
       0.41744298 0.07357769 0.1575837 0.23180369
000280 2a 80 7f 3c 9d f8 cb bd 1f ab ef bd ee ad a4 be
       0.015594522 -0.099595286 -0.11702561 -0.32163948
000290 29 07 09 3e 72 af 39 be f6 34 a3 3e fa 4f 95 3e
       0.13381638 -0.18133333 0.31876343 0.2916258
0002a0 6f 9b 37 be a3 de 7a 3e dd a6 79 3d a7 1b 8d 3e
       -0.17930387 0.24498992 0.06095015 0.2756016
0002b0 2a 91 06 3d 12 ab a4 be 2d a6 c3 3e 9a da a9 3e
       0.032853283 -0.32161766 0.3821272 0.33174592
0002c0 d8 62 0f bb 3f a8 c0 3d 7c c5 1a 3c bc 7e b6 3d
       -0.0021878984 0.094070904 0.009446498 0.089108914
0002d0 ba 6b a5 3e f9 54 44 3e 84 ca 24 3d 9e e8 d2 3d
       0.3230875 0.1917304 0.040232196 0.102982745
0002e0 e5 c4 72 be 3a 3f 09 be ff b7 8b bc b0 74 db 3e
       -0.23707922 -0.13403025 -0.01705551 0.42862463
0002f0 bb 7b 6d 3d 1d e6 b2 3e 2b 5c 28 3c 25 89 6e 3e
       0.057979327 0.34941188 0.010275881 0.23294504
000300 f2 58 c6 be bc e2 26 3e ad 64 a4 be f6 86 04 3f
       -0.38739735 0.1629743 -0.3210806 0.51768434
000310 f7 fc 1b be fd 50 48 be 97 1f 0b bf 3b 57 17 3d
       -0.15233217 -0.19562145 -0.5434508 0.036948424
000320 f6 c1 f0 3d e5 f8 14 bf 4c 15 a1 3e d0 30 91 3d
       0.11755745 -0.5819228 0.3146156 0.07089388
000330 21 e2 09 3f da 3c 54 be 97 c9 b8 be b1 17 c1 bd
       0.5386067 -0.20726338 -0.360913 -0.09428347
000340 62 f4 55 3e 0e ac 13 3e 78 2c 05 3e 0a 42 e7 3e
       0.20894006 0.14421102 0.13005245 0.4516757
000350 a7 10 f1 be 05 f0 8d 3e 5c 33 62 ba 10 8e ae be
       -0.47083017 0.27722183 -0.0008628869 -0.3409276
000360 61 8f ce 3e 16 28 4b 3e 09 b1 79 3e ed e8 00 3e
       0.40343764 0.1983951 0.2438394 0.12588854
000370 aa 8f f7 be ee b1 7d 3e e8 99 1b 3e a9 8a fd 3c
       -0.48351794 0.24774906 0.1519543 0.030949907
000380 00 ef f0 bd 12 b0 9c 3e 3b 7e 86 3e 00 06 5b 3b
       -0.11764336 0.3060308 0.2626818 0.0033420324
000390 00 69 62 bd 46 80 91 3e 80 40 db 3e d3 3c 3d 3e
       -0.055275917 0.28418177 0.42822647 0.18480234
0003a0 c0 6b c9 be 6b 99 b7 bd 28 2f b4 be 64 b5 aa be
       -0.3934002 -0.08964809 -0.35192227 -0.33341515
0003b0 22 26 a5 3e 96 e5 9f 3e 7b 50 87 be 9b 73 d2 be
       0.32255656 0.31229848 -0.2642859 -0.41103825
0003c0 0a f4 99 be b2 76 55 be b6 e8 98 3e 48 66 bb 3e
       -0.30069 -0.2084606 0.29865044 0.36601472
0003d0 8a e1 d5 3e a8 15 ae 3e ea e5 d8 be 31 bc e3 bb
       0.41773635 0.34000897 -0.4236291 -0.0069499244
0003e0 e8 02 40 be 8f d7 3b bd 95 39 09 be 77 ec e5 3e
       -0.18751109 -0.04585987 -0.13400872 0.4490697
0003f0 e8 61 bb 3e be 93 15 3e af 45 d1 3e 4a 33 60 3e
       0.36598134 0.1460714 0.40873477 0.21894565
