kernel_vs_latency/ds_cnn_gray_32_k2_float.tflite (tflite, 315704 bytes, 12 tensors)

sequential/dense/BiasAdd/ReadVariableOp/resource f4 [2]
00000000: 6492 18bb 5c92 183b
-0.0023280615 0.0023280596

sequential/batch_normalization/FusedBatchNormV3 f4 [32]
00000000: e2b3 dfbf c022 d6bf e6d4 d6bf fb53 cf3f
00000010: e286 d9bf 23f0 e0bf 89d5 da3f cac1 a0bd
00000020: 8175 d73f 6477 e4bf 7c0c d23e 0ae7 e03f
00000030: d946 e13f a30e b6bf 75f5 dabf ac6e ddbf
00000040: e250 ce3f 9df3 b63f e57c e1bf fbed cd3f
00000050: 5d2c 893e ce0c 09be 1782 be3f f90f da3f
00000060: a8f6 ddbf d51c dcbf 3d6c db3f b70c ddbf
00000070: 75f3 d8bf 06ce cabf 68df e0bf e415 1e3f
-1.7476771 -1.6729355 -1.6783721 1.6197504 -1.6994288 -1.7573284 1.7096416 -0.07849462
1.6832734 -1.7848935 0.4102515 1.7570508 1.7599746 -1.4223217 -1.7106158 -1.7299399
1.6118433 1.4293095 -1.761624 1.6088251 0.2679166 -0.13383791 1.488345 1.7036124
-1.7340899 -1.7196299 1.7142407 -1.7269505 -1.6949297 -1.5844123 -1.7568178 0.6175215

sequential/batch_normalization_1/FusedBatchNormV3 f4 [32]
00000000: 7c0b d6be f846 233f 7bc2 1abf 472d 763f
00000010: c8ca 1c3f 9879 153f 2db0 10bf 1b2c 62bf
00000020: 0c45 b33e 971b 8d3d 4ae3 993e b9c2 4d3f
00000030: c4f5 9ebe d56d 0d3f b56a 90be aa81 d5be
00000040: 5349 acbe 88e6 c33e fa21 e13e d49e 2cbf
00000050: 5372 94bc c66c 4e3d 39c3 64bf 1e25 953e
00000060: c4e9 a33e c106 24bf e1cb 5ebf f263 143f
00000070: c131 9f3e 3c72 ed3e eceb 2f3f 3081 0fbd
-0.41805637 0.63780165 -0.60453004 0.9616284 0.6124692 0.5838866 -0.5651882 -0.8834855
0.35013616 0.06890028 0.3005622 0.8037525 -0.3104688 0.55245715 -0.2820641 -0.41700488
-0.33649692 0.3826182 0.43971235 -0.6742985 -0.01812092 0.050396703 -0.89360386 0.2912988
0.32014287 -0.64072806 -0.87029845 0.57965004 0.31092647 0.46376216 0.68719363 -0.035035312

sequential/batch_normalization_2/FusedBatchNormV3 f4 [256]
00000000: fa9a c53e 1498 6f3f da8f c8be 4539 173e
00000010: 661d c6be 454b 493f e51a 5ebf dcf8 77bf
00000020: ab2a 65be 02be 56be 9347 633e e443 c63e
00000030: d800 57bf e5bc 8c3c 8321 0abf be8f 6ebd
00000040: 99c5 08bf 0a78 fb3e c793 dbbe 1d4b ca3f
00000050: 540a 33bf a8a2 7f3e ec34 f73e 166f 753f
00000060: 0834 fb3e 3303 8e3d 68ff 933f 3b77 5abf
00000070: 5dc3 06be 7487 d03e a954 40bf b652 6fbf
00000080: 9558 393f 846f b9bd 822a dfbe 91ff 513d
00000090: ad28 483f 0f92 233d 3ace 61bf 72e7 063f
000000a0: b173 a5be 8cf7 a3be 04c7 75bc cb78 93bf
000000b0: be49 54bf ac1e 8dbd b2e1 92bf 405d 80be
000000c0: 8ff7 75bf cea9 bebe 2e2a ad3e b0ca 9bbf
000000d0: 7158 2dbe b97a ba3e f6a8 283f 8761 b2be
000000e0: 75ea 033f bbad 36be 7210 87ba 2946 7a3f
000000f0: 4f02 883e 32b0 343f 62af 513e 7355 bcbe
00000100: 338b 58bf 143a 533e 9cec 973e 9f23 1f3e
00000110: a415 ccbe 5ace 233f 49d0 00bf 5558 dbbe
00000120: d787 b2be 979f 92bf 73b8 34bf 5b04 93bf
00000130: 212a dabe 2026 87be b965 7a3f 1cf7 16bf
00000140: fe8f e8be 69da b23e d456 1d3f 65da 1abf
00000150: e4ca 49bf 19f9 02c0 4e22 2cbd 00fb a7be
00000160: 84cc debe 5eed 223e adee 85be 7b34 c03e
00000170: b3c1 083f fa3d 093f e280 8fbf ed47 823f
00000180: 84d9 a73f 2c3d 153f cc75 ef3e fc45 5ebf
00000190: 8acc 54bf 137b 41bf 2cb9 e03d bc3c 3a3f
000001a0: 22ed 58be 56d1 2f3f d99d a53e fc95 733f
000001b0: 5a3d fd3e fd58 433f a764 28bf f31c 153f
000001c0: 2613 873e bc29 0f3f 0449 f33e f417 c9be
000001d0: a70e 043f a0b7 7dbf f536 753f 7e1c 093d
000001e0: e63a b83e fe6a b4bd 09be 80be 9044 7e3e
000001f0: 83f2 873d 4d1a 633d e1fc ad3f 33c1 a4be
00000200: cd02 69be 492d 113f 7390 513f 360b f2be
00000210: 43d8 303c 7bc5 3f3f be1f c0be aa9f ef3e
00000220: 3080 ed3a 291b bebf d7a4 0fbf 43fd 903e
00000230: f4ce 923f d488 84bf 2fea cdbd aadf 663f
00000240: 1dbb 813f e2ec 853f c9fb 443f ca28 21be
00000250: f311 873f f888 a4be e807 303e 5872 c0bd
00000260: 3802 e8be 16e8 793e 792e 68bd 9223 0b3f
00000270: 6731 c13f 9a93 91bf 3412 d9be 36b8 58be
00000280: 5846 953f ca29 843f 6c7a 0b3f 849b d43c
00000290: dc30 0d3f 7fc6 d9bd bc80 8a3f eafc eb3d
000002a0: b096 773f e749 fbbe 1082 dabe d173 083e
000002b0: 896a 6e3f 5811 863f b3fd 2e3f e53a 9e3f
000002c0: 0afa 983f 78ca fc3e b0f0 8a3e 3955 e0be
000002d0: 391c 823d 771b 7e3f 6cc0 34bf 2553 733e
000002e0: 2591 e7be e7f6 ed3e 51fa 1cbf 762f 193e
000002f0: 5cbe bbbd f3d5 17bf e8fd 16be 5f23 923f
00000300: b78d 11be 1fa4 c5bd b895 fdbc 28e8 1d3f
00000310: 2268 cfbf cc2f 10bf 9b1e 2d3f 4de2 12bf
00000320: dfb4 cb3f bfb5 90bf 613b 6b3e eeb5 67bf
00000330: 6e12 abbe d063 4dbf f384 853f 7d09 f1be
00000340: 36a9 713e 6e71 b2bd 6b07 a13e 425a 733f
00000350: c812 b3bd d860 39bd 9695 debd 08f1 203f
00000360: 0573 debc 2c50 81be 6e82 5ebf 0867 4dbf
00000370: 20ff f03f ed6d 9e3e a2ee 90bf 1e38 e9be
00000380: 7ca3 4ebe 58ff 8c3e f3f1 bb3e 0052 5e3f
00000390: 79f4 2d3f 244e 6d3f 5d1d a33f f3cb a2be
000003a0: e70b 86bf 66a2 b03e e20f aebe 4f75 223f
000003b0: d292 81bf 247f 073f 8693 453b 5872 a7bd
000003c0: 6514 d0be f4fd a63e 786b 54bf 2ecf 5abe
000003d0: 64b4 c63d d36f c93c 9c4a 87bf 8e09 0bbe
000003e0: 0c3d d73f 92d7 b43b 495c 4fbe 5c06 b93e
000003f0: e75f b6bd c4ed af3f 1b63 35bf a2f0 993d
0.385948 0.9359143 -0.3917225 0.1476794 -0.38694304 0.7863048 -0.8675979 -0.96864104
-0.22379558 -0.2097092 0.22195272 0.3872367 -0.8398566 0.017179916 -0.53957385 -0.058242552
-0.5342651 0.4911502 -0.42886183 1.5804173 -0.69937634 0.24964392 0.48282564 0.9587263
0.49063134 0.06934204 1.1562319 -0.8533818 -0.13160463 0.40728343 -0.7512918 -0.9348558
0.7240079 -0.09054473 -0.43587118 0.051269118 0.78187066 0.039934214 -0.882053 0.5269691
-0.32314828 -0.320248 -0.015001062 -1.1521238 -0.8292502 -0.06890616 -1.1475127 -0.25071144
-0.9608087 -0.37238926 0.33821243 -1.217123 -0.16928269 0.36421755 0.65882814 -0.34840032
0.5152963 -0.1783971 -0.0010304584 0.97763306 0.2656426 0.7058135 0.2047706 -0.36783943
-0.845874 0.20627624 0.29672706 0.15540932 -0.3986026 0.6398674 -0.5031782 -0.4284083
-0.34869263 -1.1454953 -0.7059395 -1.1485704 -0.42610267 -0.26396275 0.97811466 -0.5897081
-0.45422357 0.3493226 0.61460614 -0.60489494 -0.7882521 -2.0464537 -0.042024903 -0.32808685
-0.43515408 0.15910861 -0.26158658 0.3754004 0.5342056 0.53610194 -1.1211207 1.01782
1.3113256 0.58296466 0.4676956 -0.8682554 -0.831246 -0.7557842 0.10972819 0.72748923
-0.21184209 0.68678796 0.3234699 0.95150733 0.4946087 0.7630766 -0.65778583 0.582473
0.26381797 0.55923057 0.47516644 -0.39276087 0.5158486 -0.99108315 0.9578698 0.033474438
0.35982436 -0.0880947 -0.25144985 0.24830842 0.06638052 0.055445004 1.3592798 -0.3217865
-0.22754975 0.56709725 0.81861037 -0.47274178 0.010793748 0.74910706 -0.37524217 0.46801502
0.0018119868 -1.4852039 -0.561109 0.28318223 1.1469407 -1.0354257 -0.100544326 0.90185034
1.0135227 1.0462916 0.76946694 -0.15738216 1.0552353 -0.3213575 0.17190516 -0.09396809
-0.45314193 0.2440494 -0.056684945 0.5435115 1.5093201 -1.137317 -0.423967 -0.21164021
1.1662092 1.0325253 0.54483676 0.025953062 0.5515268 -0.10633563 1.0820537 0.11522849
0.96714306 -0.4907982 -0.42677355 0.1332543 0.9313131 1.0474043 0.68355864 1.2361723
1.1951306 0.4937322 0.27136755 -0.4381502 0.06353039 0.9926066 -0.7060611 0.23762186
-0.45227924 0.46477434 -0.6131945 0.14959511 -0.091671675 -0.59310836 -0.14745295 1.1417044
-0.14214216 -0.09650444 -0.03095518 0.6168237 -1.6203654 -0.5632293 0.67624825 -0.5737656
1.5914572 -1.1305465 0.2297187 -0.9051198 -0.33412498 -0.80230427 1.0431198 -0.4707755
0.23599705 -0.08713041 0.31450972 0.950596 -0.087438166 -0.045258373 -0.10868375 0.62867785
-0.027154455 -0.2525648 -0.8691777 -0.8023534 1.8827858 0.30943242 -1.1322825 -0.45550627
-0.20179552 0.27538562 0.3670803 0.8684387 0.6795116 0.9269736 1.2743336 -0.31796226
-1.0472382 0.344989 -0.33996493 0.6346025 -1.0122931 0.52928376 0.0030147745 -0.08176106
-0.4064056 0.32615626 -0.82976484 -0.21368095 0.097023755 0.024589455 -1.0569644 -0.13577864
1.6815505 0.005518862 -0.20250048 0.36137664 -0.08905011 1.3744435 -0.7085435 0.075166

sequential/batch_normalization_3/FusedBatchNormV3 f4 [256]
00000000: a43c 20be 2df1 ae3e 3cf6 183f 2675 d5be
00000010: 9cdb 383e 58f6 dcbd fcfc d1be 45ea d4be
00000020: cc24 00bf eeb8 d2be 4174 eebe b80c 5e3f
00000030: f07e 303f 4f7b fabe e531 fbbe b377 1bbf
00000040: 5ee2 c63f 44e9 18be f316 96bf c456 e3be
00000050: bc20 113f 8601 c6bf 3784 1ebf 9598 82be
00000060: d397 b93e 267f a73e 12eb 0b3f 51b4 80bf
00000070: f663 3fbf 833d 86bd 64a7 16be 4a01 343f
00000080: 4fdb 24bf 0a25 b1bf b607 143f 7234 69bf
00000090: bfa2 dbbd 3e80 89bc ec24 e73e 9248 543e
000000a0: b01b d9be e68b e0be 5ec6 dc3d 5cea 5abe
000000b0: 1b64 4c3f 3d88 5fbe 15ba 97bf 33c2 573e
000000c0: 5dd3 403f 4df1 6f3f f21d 37bf 4ea4 293f
000000d0: 46bf debd 67e9 69bf 64c0 8a3f 3e10 23bf
000000e0: 896a 71be 6241 6c3f fc99 bb3f 45c1 69bf
000000f0: d8eb d5be 2b11 873e 4723 b5be db8c fdbe
00000100: ff42 aa3e 561c 3d3f 7b2e 04bf 65f2 873e
00000110: 66e2 68bf 432a 6abf a164 6dbf ef33 03bf
00000120: d244 653f cad2 09bf 20c0 603f 10b6 5a3e
00000130: b281 063f 4785 4c3f 490c 9abf 1030 323e
00000140: d869 3abf 88e9 21bc 23f1 90bf a185 443f
00000150: ff91 efbe 706a 363e ff92 133f 1604 403e
00000160: 67a2 d03e 2476 c53e f446 6abf d996 12bd
00000170: 7f5e 25bf 1738 b1bf 2cdd ba3e b69c 213f
00000180: af9c fdbe ed4c 80bf 5efa 243f e78c 4c3f
00000190: 6865 ee3e 994b 9bbf 424a a9be 326e 833f
000001a0: c6ff 0cbf 0ae4 e73e 373e cbbe 6e4c bfbf
000001b0: dcd0 cabf 6bf3 b53f c65e 373e b083 443f
000001c0: ed48 efbe 6e21 b63d 929d 603f 708c 03bd
000001d0: 96a1 823f afaa 9e3f c1e5 a4bf 5e1b ef3d
000001e0: 5eec a1bf 6ecf da3f b4a2 e2bd e656 9bbf
000001f0: 7c11 b1bf b1b2 85bf 59e3 4fbf d7ad 413f
00000200: cb4a babe 90a3 d1be dc65 b5bf ca61 913d
00000210: de5b f5be 40d1 8fbe aeb2 babe 7f2b 2cbf
00000220: 29cb 70bd 2e40 9f3f 4556 c9be 8c07 6a3f
00000230: 9765 eebf 8ef3 a23d c04d 093f 2fa8 e0bf
00000240: d3f6 8dbf 44ba 14bf 3a75 0c3f b53c 9a3f
00000250: 196b 39bf 4433 99bd ce81 8d3f 7440 c3be
00000260: d1d9 993e 9883 90bc f50d 083d c90c dabe
00000270: 5270 df3d c37b 3fbf ad30 8dbf ff29 9bbf
00000280: e1b8 ad3e 1776 93bd cfc2 613d d425 d2bf
00000290: 7505 cd3e 9978 0dbf 89f8 df3e 04ff 41bd
000002a0: 314d 333f ca88 30bf 44c1 a6bf d9f0 053e
000002b0: 43d9 4d3f 51b4 f03d 178e 2fbf 77a1 0a3f
000002c0: e4c7 4fbe 62dd d03e 591a 223f 88db 683e
000002d0: 990b 16bf d0fa b53e 3e8f 80bf 1b1a 813d
000002e0: 9f54 4fbf 952c a0bf 4948 84be 19a3 813f
000002f0: 3998 adbe 182e ab3f e6f6 6c3e 9792 36bf
00000300: b124 3f3e 8ed9 05bf 58ba 113e ee71 a13e
00000310: 306d df3e 63b8 42bf be21 5bbf 991c 033f
00000320: 297b 653e 7d8b 9f3f 53e7 113f 68b0 53bf
00000330: aa5a 823f 1de6 ab3f 4ab4 8e3e 6258 503f
00000340: c606 22bf 99ec 16bf 7652 973e 5557 6abf
00000350: fe4a 6c3f b496 bd3f 1589 65bf fe50 0dbf
00000360: 95cb 6abe 487d b43e 929c 08bf 2dd2 50bf
00000370: cc40 7e3f 992d b93e 322d 17bf dd82 5d3e
00000380: df8e 12bf e699 433f 4f09 8ebf a9ea 2dbf
00000390: 8689 4a3e a642 82bf 58ed b8bd 5906 19bf
000003a0: 0f66 29be 65f8 913e ebcc d3be d988 bf3f
000003b0: 0543 fc3e 19ea e0be 0f22 7abf 3707 59bf
000003c0: 4935 01be f0fe bebd c18b 6fbf e3c6 02bf
000003d0: d3da d7be 0a64 723f 6087 a1bf 4da8 4a3f
000003e0: acaf 8e3f bea9 adbd 66d0 60be ce33 843f
000003f0: 27d6 2fbf e89a 80bf e604 abbf 85dd 663f
-0.15648133 0.34168378 0.59750724 -0.4169094 0.18052524 -0.10789174 -0.41013324 -0.41584983
-0.5005615 -0.41156715 -0.4657307 0.8673816 0.6894369 -0.48922202 -0.49061504 -0.6072952
1.5537832 -0.14932734 -1.1725754 -0.44402134 0.56690574 -1.5469215 -0.61920494 -0.25507036
0.36248645 0.32714194 0.54655564 -1.0055028 -0.74761903 -0.06554701 -0.14712292 0.70314467
-0.6439714 -1.3839428 0.57824266 -0.9109565 -0.10724401 -0.016784783 0.45145357 0.20730808
-0.42403936 -0.43856734 0.10780023 -0.21378464 0.7984025 -0.21829315 -1.1853663 0.21070175
0.75322515 0.9372757 -0.7153007 0.66266334 -0.10876326 -0.9137177 1.0839963 -0.6369666
-0.23575796 0.92287266 1.4656367 -0.9131053 -0.41781497 0.26380286 -0.35378477 -0.49521527
0.3325424 0.7387136 -0.51633424 0.2655212 -0.90970457 -0.91470736 -0.9273167 -0.5125112
0.89558136 -0.53837264 0.8779316 0.21358514 0.5254165 0.79890865 -1.2034999 0.17401147
-0.72817755 -0.009882338 -1.1323589 0.767664 -0.46791074 0.1781404 0.57646173 0.18751559
0.40748903 0.38566697 -0.91514516 -0.03578839 -0.64597315 -1.3845242 0.36496866 0.63129747
-0.49533603 -1.0023476 0.6444453 0.799025 0.46561742 -1.2132446 -0.33064467 1.0268004
-0.5507778 0.45291167 -0.39695904 -1.49452 -1.5844989 1.421491 0.17907247 0.7676344
-0.46735325 0.08893095 0.87740433 -0.032116354 1.0205562 1.2395838 -1.2882615 0.11675142
-1.2650259 1.7094553 -0.110661894 -1.2135894 -1.3833461 -1.0445157 -0.8120628 0.75655884
-0.36385188 -0.409451 -1.417171 0.0709873 -0.47921652 -0.28089333 -0.36464447 -0.6725387
-0.0587875 1.2441461 -0.3932363 0.91417766 -1.8624753 0.079566106 0.5363426 -1.7551326
-1.109095 -0.5809672 0.54866374 1.2049776 -0.72429043 -0.07480481 1.1055238 -0.3813511
0.30048993 -0.017640874 0.033216435 -0.4258788 0.10910095 -0.7479822 -1.103048 -1.2122191
0.33930114 -0.07200258 0.055117425 -1.6417794 0.40043226 -0.5526214 0.43744305 -0.047362342
0.7003966 -0.68958724 -1.302773 0.13080157 0.8040964 0.117531426 -0.68576187 0.54152626
-0.20291096 0.40793902 0.63321453 0.22739995 -0.58611447 0.35542917 -1.0043714 0.06303807
-0.80988497 -1.2513605 -0.258364 1.0127898 -0.339052 1.3373442 0.2314106 -0.7131743
0.1866634 -0.5228509 0.14231241 0.31532234 0.4363799 -0.760626 -0.8559836 0.5121551
0.22410263 1.2464443 0.569936 -0.8269105 1.0183918 1.34296 0.27871925 0.8138486
-0.63291585 -0.5895477 0.295551 -0.9153951 0.9230193 1.4811616 -0.89662296 -0.5520171
-0.22929223 0.35251832 -0.5336391 -0.815707 0.9931762 0.361676 -0.5905334 0.21631952
-0.57249254 0.76406705 -1.1096591 -0.6793619 0.19779024 -1.017659 -0.09029645 -0.5977531
-0.16542839 0.28509822 -0.41367278 1.4963638 0.49269882 -0.43928602 -0.9770822 -0.84776634
-0.12617983 -0.09325969 -0.9357262 -0.5108473 -0.42159137 0.946839 -1.2619438 0.79163057
1.1147361 -0.084796414 -0.21954498 1.032831 -0.68686146 -1.0047274 -1.336087 0.9018176

sequential/batch_normalization_4/FusedBatchNormV3 f4 [256]
00000000: 0d4e d03e 8e88 fabb e9d1 8ebe 6f24 27be
00000010: c866 8e3c b9d6 103f 346f 4abf 2730 15be
00000020: d140 9cbe 992b 0ebf 659e bf3e 750e 2d3e
00000030: 83b6 9abd 6bd1 383f f6e5 0f3f 5a13 c43e
00000040: 802f b6bd 50a8 d53e f919 3cbf c3c3 19bf
00000050: 742b 143f ed21 463e 101a be3f bc9c bdbf
00000060: 443e b4be 3885 403f e5b8 253e 8110 cd3e
00000070: f40b 05bf 64cf 023f 46b7 2bbf 6b25 93bf
00000080: c597 b93e 22df 083e 90f6 6dba 1006 a5bf
00000090: 1b3a c23e 456d e3be 12f3 cf3c be07 0cbf
000000a0: 06ad b9be e104 643e eed8 b9bf dd72 b2be
000000b0: 9578 963e e6e1 a6bf 34ba 0c3f 2161 30bf
000000c0: e3c0 ed3d 8083 943b f121 b1bd 72fc 38be
000000d0: 2795 64bf 2c06 58bf 3aef b2bd babb 26bf
000000e0: 8360 9e3d 0620 4cbe c926 bf3e 6927 433f
000000f0: 410c 0dbf 4111 a6be 43d6 07be cd39 033f
00000100: fab9 63bf c65f 163f dc01 4e3f 715a 243f
00000110: f06c 373f 2ffa 9fbf 9e5a 36bf 1855 b43e
00000120: 8115 e0bd 469b 943f 34cd 0cbf 0786 e03e
00000130: 83bb 0bbd 2eae a43e 0dd5 24bf 5616 0abd
00000140: 7c54 463f 4cbe 02bf ddc5 b83e bc0a a93f
00000150: baed 22bf 7013 103f b4e7 c63e b4ec a7bf
00000160: f687 24bf 66c1 383f 4d4e c2bd 88c3 ce3e
00000170: 7135 723e f37e a13e 418c adbd 166b d1bd
00000180: 394e 513d f962 5b3e a61e 4c3e bba8 75bf
00000190: 6880 a93e b9d1 dc3e 6c63 f23e 44b8 143d
000001a0: 9ecd 963e fce2 24be 1ad8 1fbf 8aed 0ebf
000001b0: 62c1 7cbf a6de 553e 3db2 c1be 54e7 7fbf
000001c0: 0c5b 08bf 611b e33e f002 c8bf f1bb 403f
000001d0: 3ea4 20be f6a8 2ebd 760b 9dbe ba92 fa3c
000001e0: a7a2 933e c823 163d c925 1a3f ce59 91be
000001f0: c5d7 9bbe 4490 453f 8e48 82bd 8581 273f
00000200: 4d59 663f a47a 333f 0a2e acbf cfff 793f
00000210: 0d1d 173e c9e8 57be 0bbe d9be 5d57 eb3e
00000220: ba53 e83c b3d8 d93e dc77 babe 003c bc3e
00000230: d39f a3be 8b60 6e3e 17e6 2e3e 2e08 a6bd
00000240: 44b9 983f dcdd af3f 2b96 49bf 0f62 39be
00000250: d8a2 5dbe daf4 48bf b073 e53e ef6f c4be
00000260: b9c0 de3e f2b2 a4bd 9723 523d d2e5 b63f
00000270: cfe4 64bf b73f abbd b5dc e03d dd8e 5f3d
00000280: 40e9 0c3f e839 a1bf 7bcc 1d3e 9fc5 95be
00000290: 8493 813e fdde f73e f0a3 4c3f ce31 94be
000002a0: d513 5c3f d042 1fbf 2fbf ac3e 3565 82be
000002b0: 0e08 083e cd70 92be 08f0 a3bf e8b5 e63c
000002c0: 3245 833f 793a 54be 1341 05bf be6b a8be
000002d0: dbaf 51bf 120f 8d3d 184d bebf e52f 7a3e
000002e0: 3855 343f 1fdb 083b f34b 463f ef7a b5bc
000002f0: 9f7a d43e 557a ebbe 96ca ca3e bd97 13bf
00000300: 4c35 26bf fbd3 8bbe b289 d6be 63d8 8dbd
00000310: 2259 c1bd cc12 2c3d 0d6d ce3e 0f5d eabd
00000320: 6536 6b3c 71c6 ce3e 36a3 bdbf 30e1 1fbe
00000330: edc0 a33f d4bb b9be 51c9 7d3f 79fb 7f3f
00000340: 31a4 bbbd 973d ee3e 45da 30bf ebb0 223f
00000350: 284d 73bc 12ca 4abe f2ee 93bd 298a 10bf
00000360: 50c7 18bf 7d25 8bbe 0215 853e 1486 903e
00000370: 6163 a6bf 7d8e fc3e de4c 08bd 96c1 41bf
00000380: bce1 db3c 9ca5 0abf a602 3e3f 22ab 8abe
00000390: cf8b 2cbd a88a c73e 22c0 173f 532e 7f3e
000003a0: 51ca 823f 9aff 4d3c 672f 03be 6c51 0ebe
000003b0: 2f2c 51be d6c4 c4bd f1e0 4c3e e6cb d6be
000003c0: 47a8 c63f ed1a 13bf 230a bebe 08dc a73e
000003d0: e5d0 ab3e 9f23 613e d08f 653e 09e1 1bbf
000003e0: 3dd1 203f ba08 813f 2d37 e33d 08d1 673f
000003f0: c4f8 2b3f 66df 963d 585b 80be 6cbd 7f3e
0.40684548 -0.007645673 -0.27894524 -0.16322492 0.017382994 0.5657764 -0.7907593 -0.1456915
-0.305182 -0.55535275 0.37425533 0.16900046 -0.075543426 0.72194546 0.5621027 0.38296014
-0.08895779 0.41729975 -0.7347713 -0.60064334 0.57878804 0.19348879 1.4851704 -1.4813457
-0.35203755 0.75203276 0.16183813 0.40051654 -0.51971364 0.510977 -0.6707653 -1.1495794
0.36248603 0.13366368 -0.0009077573 -1.2892475 0.37934956 -0.44419304 0.02538446 -0.54699314
-0.3626482 0.22267486 -1.4519327 -0.3485326 0.29388872 -1.3037689 0.54971623 -0.68898207
0.11609056 0.0045322776 -0.08649052 -0.1806505 -0.8929009 -0.8438442 -0.08737035 -0.651302
0.07733252 -0.19934091 0.37334278 0.7623201 -0.5509682 -0.3243504 -0.13265328 0.5126007
-0.8895565 0.5873989 0.8047159 0.642005 0.716506 -1.2498225 -0.7123202 0.3522117
-0.109416015 1.1609886 -0.55000615 0.43852255 -0.034114372 0.3216414 -0.6438759 -0.033712707
0.7747266 -0.5107162 0.36088458 1.3206401 -0.6364399 0.5627966 0.3884865 -1.3119111
-0.6426996 0.721701 -0.09487591 0.40383554 0.23653199 0.31542167 -0.08474017 -0.10225503
0.05109999 0.21424474 0.19933566 -0.9596059 0.3310578 0.43128756 0.47341478 0.036308542
0.29453748 -0.16102213 -0.6243912 -0.55831206 -0.9873258 0.20885715 -0.37831298 -0.99962354
-0.53263927 0.44356826 -1.5625896 0.75286776 -0.15687653 -0.042641602 -0.30672807 0.030587543
0.2883503 0.036655217 0.60213906 -0.28388828 -0.30438057 0.77173257 -0.06361495 0.65432006
0.8998001 0.7010901 -1.345155 0.9765596 0.14757176 -0.21084894 -0.42527804 0.4596509
0.028360236 0.4254814 -0.3641957 0.36764526 -0.31957874 0.23279016 0.1707996 -0.08107029
1.1931539 1.3739581 -0.78744763 -0.18103813 -0.21644151 -0.78498614 0.44814825 -0.3836665
0.4350641 -0.080419436 0.051303472 1.4288886 -0.89411634 -0.08361762 0.109795965 0.054579604
0.5504341 -1.2595797 0.15410034 -0.29252335 0.25307858 0.48412314 0.7993765 -0.28944248
0.8596776 -0.6221132 0.33739612 -0.2546784 0.13284323 -0.28601685 -1.2807627 0.028162912
1.0255492 -0.2072543 -0.5205242 -0.328947 -0.8190896 0.0688764 -1.4867277 0.24432333
0.70442533 0.002088256 0.7745964 -0.022153346 0.41499802 -0.4599177 0.39607686 -0.5765341
-0.64925075 -0.27310166 -0.41901928 -0.06926038 -0.09440829 0.042010114 0.40317574 -0.11443531
0.01435623 0.40385774 -1.4815433 -0.15613246 1.2793251 -0.36276114 0.9913531 0.9999309
-0.091621764 0.46531364 -0.6908305 0.63551205 -0.014849938 -0.19803646 -0.072233096 -0.56460816
-0.59679127 -0.2717704 0.2599259 0.28227293 -1.2999078 0.4932746 -0.03327643 -0.75686014
0.026841037 -0.5415895 0.7422279 -0.2708369 -0.04212552 0.38972974 0.59277546 0.24920015
1.0217992 0.012573147 -0.12811051 -0.13898247 -0.20427011 -0.09607856 0.20007683 -0.41952437
1.5520104 -0.5746296 -0.3711711 0.32785058 0.3355781 0.21986245 0.22418141 -0.6089025
0.6281927 1.0080788 0.11094508 0.9055333 0.6717646 0.073668286 -0.2506969 0.24974602

sequential/dense/MatMul f4 [2, 256]
00000000: a1fa 383d 44be 9ebc 1303 22bd 4dbc ce3d
00000010: 8ed4 663b 7406 a73d 830e 5abd f640 2f3d
00000020: 8f03 ebbb dbab 08be bed1 a83d 4172 0a3e
00000030: 1a2a 3dbd 3e72 ebbd 2777 b33d 67f9 1a3d
00000040: 067f 87bd 9b82 003e f06f 4fbd 6d9f b53d
00000050: eb5f b63d fd69 fe3d 46b3 9f3d 5b04 18bd
00000060: 472c cabd 5649 16be fece df3c a1ac 343d
00000070: 9e5e 5a3d f6ae a13d e57c 7ebd e58a 023e
00000080: 97ee 90bd e6a9 1abd 0f5d fbbd 5c67 c53d
00000090: beb8 e83d 568a 2e3c b0b6 cc3d 540a b83d
000000a0: 90ed 1e3e 54f7 d23d 2972 8bbc 7434 49bc
000000b0: 0468 843d 6777 a8bd 29f1 afbd b30f cc3c
000000c0: 65c0 cc3d f779 6fbd 7c58 363a a7f1 14be
000000d0: 5966 5abd f9fa 84bd 4240 303d 3f64 86bd
000000e0: 8039 b73d 42b2 063d b46a ffbd c499 993d
000000f0: 263c 20bd 5919 16be e4ed bfbd 58e1 febd
00000100: 4616 d53d bfef 193e 3082 83bd ec1d c7bd
00000110: f3d1 de3d 2240 9c3d c614 d8bd 793d 793c
00000120: 2b3b f6bc 5180 c33d 9a33 5ebd c032 e53d
00000130: 0735 19be fb87 dbbd a573 9ebd a3bc b8bc
00000140: a65d 4c3c dd0b 26bd 3c09 1ebc 69bc 20bd
00000150: 53ae 0c3e cb73 a9bd 77e6 dfbd bd05 e8bd
00000160: 7a37 cf3d 824b 3d3d 6403 133e 969a 253d
00000170: a91e bf3d 2067 34bd 64b9 da3d 4195 453c
00000180: 0610 de3d ee79 513c 9b85 ee3c 51d3 06be
00000190: 73c7 b73d 4824 a5bd f369 08be 519f 10bd
000001a0: 8588 cc3c 1cb2 d0bd 4d6a 853d 6d1d 00be
000001b0: b771 133e 84b4 b7bd 2991 0cbd 221c 4cbb
000001c0: 20af 0cba 28ed eebd d5e2 c73c 33bd 1fbe
000001d0: 6e62 e83d a628 663d b0c5 ac3d b835 933d
000001e0: 88be e83d 79b7 c33c 7be0 b13d 12f0 f0bc
000001f0: 9e6c df3d c158 c63c 37c3 163e 0cc4 aa3d
00000200: 4eca 04be 0981 ce3d c335 10be ee16 ae3d
00000210: 924a 04be 0447 37bd 315d cabd 97ff debd
00000220: 1763 163e 2e62 003e 4bbd fbbd de49 123e
00000230: 8ab8 70bd 513a 083c b45a 20bc b951 85bd
00000240: 5af2 b1bd 7140 9bbd d791 b03c 5f73 113c
00000250: 108a eb3b 74f7 ffbd 665e de3d 66ce ea3d
00000260: cb40 0fbc bf22 d5bd 7a70 093e 2019 fc3d
00000270: 6619 cdbd 1f74 91bd f7f7 e03c 51b6 ca3d
00000280: d4bc 8c3d 9e35 f53d 9698 1fbd e04c e0bc
00000290: e53a 6abd a187 8ebd 328e 9cbd 511a a3bd
000002a0: 05ef a1bd 677f d1bd 0ab7 0e3e e7b6 9c3d
000002b0: 4122 c2bd cf3a 003e cf75 163d 2646 e83d
000002c0: e98c 7dbc c8f0 1bbe bfb3 11be fec1 1a3e
000002d0: ffce abbd ecdb a63d ffd6 44bd 9fcc cb3d
000002e0: 59f0 a23d e7ce e33c 9fde 033d b621 8dbd
000002f0: 99b0 a7bd e0a7 7ebc 9096 8cbd 65cc b33c
00000300: b5c3 1dbe 55dd 3cbd b2f3 99bd b575 143e
00000310: 468d fd3d c306 c3bd 481d 96bc 2dba 233d
00000320: cf4e cbbc a4ba 14bc af1e f0bd 37fc 3a3d
00000330: a5c5 813d 443d c23d ca3e a83d 6798 7ebd
00000340: 6d45 0fbe 6f84 203d d29f 91bd af91 a03d
00000350: bc56 9dbd 0a79 d3bd 87dd 1abb 4a55 e53d
00000360: 961e e83d 930d a33d 1ec6 edbd d6e0 e7bd
00000370: 551b 653c bae6 d53d 6e82 b4bd c8b7 0e3d
00000380: 4ed3 b8bd b11a 01bd 14d0 84bd 0aa6 11be
00000390: c177 c73c 7aac 18be 508b 8c3d 438a bf3c
000003a0: fd5c a4bd 14fb 14be d7fd db3d 9cf7 be3d
000003b0: ca08 a83d 5770 25bd 82b2 77bc d308 1b3e
000003c0: 211c a5bb 5fea cabd 81d9 8ebc 5c99 18bd
000003d0: 1985 0ebe ed58 a63d 22db fd3d eed9 803c
000003e0: 0d80 b53d c260 123e 3a89 4a3d e48d 153d
000003f0: 3cfb 6cbd 3956 1bbd c375 f03c 0cbb b2bd
0.045160893 -0.019377835 -0.039553713 0.10094509 0.0035221907 0.08155528 -0.053236496 0.04278656
-0.007172055 -0.13346808 0.0824313 0.13520147 -0.04618273 -0.11496399 0.08762961 0.037835505
-0.06616025 0.12549822 -0.05064386 0.08868299 0.08905014 0.124225594 0.077978656 -0.03711353
-0.098717265 -0.14676413 0.027320381 0.044109944 0.05331289 0.07894699 -0.062130827 0.12748297
-0.070767574 -0.037759684 -0.12273609 0.09638855 0.11363362 0.010653099 0.099957824 0.08986345
0.1552031 0.1030108 -0.01702221 -0.012280572 0.06465152 -0.08225899 -0.085909195 0.02490983
0.09997634 -0.058465924 0.0006955934 -0.14545308 -0.053320263 -0.06493182 0.04303003 -0.06562089
0.08946514 0.032884844 -0.12471524 0.075000316 -0.039119862 -0.14658107 -0.09371546 -0.12445325
0.10404639 0.15032862 -0.06421316 -0.09722504 0.108798884 0.0762942 -0.10550837 0.01521241
-0.03005751 0.09545959 -0.05424843 0.111913204 -0.14961635 -0.107192956 -0.07736901 -0.022550886
0.012473499 -0.040538657 -0.009645756 -0.039242182 0.13738374 -0.08274039 -0.109326296 -0.113292195
0.10118003 0.046214588 0.14356762 0.040430628 0.0933202 -0.04404366 0.10679892 0.012059511
0.108429 0.012785418 0.029116442 -0.13166548 0.08973589 -0.08063561 -0.13321666 -0.035308186
0.024967441 -0.10190222 0.06514416 -0.12511225 0.14398848 -0.089699775 -0.034318123 -0.0031144698
-0.0005366672 -0.11666328 0.024400154 -0.15599518 0.11346899 0.05619111 0.084361434 0.071879804
0.11364466 0.023891198 0.086853944 -0.02941135 0.10909389 0.024212243 0.14722906 0.08338174
-0.12967798 0.10083205 -0.14083008 0.08500467 -0.12919071 -0.04474546 -0.09881056 -0.10888594
0.14686237 0.12537453 -0.12291964 0.1428599 -0.05876974 0.008314685 -0.00978725 -0.06509728
-0.08688803 -0.075806506 0.021553917 0.008877604 0.007188089 -0.1249837 0.10857849 0.11465149
-0.008743475 -0.10407018 0.13421813 0.1230948 -0.1001461 -0.071022265 0.027461989 0.09898055
0.068719536 0.11973117 -0.038963877 -0.027380407 -0.057185072 -0.06959463 -0.07644309 -0.07964004
-0.079069175 -0.10229378 0.13937011 0.07652073 -0.0947919 0.12522434 0.036733445 0.11341505
-0.01547549 -0.1522857 -0.14228724 0.15113065 -0.08389091 0.081474155 -0.0480566 0.09951138
0.07955999 0.02780862 0.03219473 -0.068911955 -0.0818798 -0.015542954 -0.06864655 0.021948049
-0.15406688 -0.046109516 -0.07517184 0.14498027 0.123804614 -0.09522774 -0.01832451 0.039972473
-0.024817852 -0.009077702 -0.117246024 0.045650687 0.06336526 0.09484342 0.08215101 -0.06215706
-0.13991328 0.0391888 -0.071105614 0.07840287 -0.07682559 -0.10325821 -0.0023630576 0.11197908
0.11333959 0.079615735 -0.116100535 -0.11322181 0.013983567 0.10444398 -0.0881394 0.034843236
-0.09024678 -0.031519596 -0.06485 -0.14223495 0.024349095 -0.14909545 0.06862509 0.023381358
-0.080255486 -0.14548904 0.107417755 0.093245715 0.082048014 -0.04039034 -0.015118243 0.15140085
-0.0050387536 -0.09907984 -0.017437698 -0.03725563 -0.1391796 0.0812243 0.12395312 0.015728917
0.088623144 0.14294723 0.049447276 0.03651227 -0.057856783 -0.037924025 0.029353028 -0.087270826

sequential/conv2d/Conv2D f4 [32, 2, 2, 1]
00000000: 9eb1 5d3c 20b0 033b f267 1dbb 0623 0e3c
00000010: 61ba 973c b339 4fba 96d6 343c 5fd4 06bc
00000020: 2e91 dc3c 0443 a63a 987e 49bb 2850 81bb
00000030: 21dd bebc fe77 42bc a98b 0cbb 2344 8e3c
00000040: 1bfa 0a3c 175f 37bc 5ab6 8f3b 1925 a33c
00000050: e9ed 5bbb 9851 3e3c bf96 443c bb66 cf3a
00000060: 4dbc 99bc c1f2 8b3c 1493 ad3b 6554 cfbc
00000070: 63a2 8fbd 5a61 5f3c 99be bf3c 694d 0d3d
00000080: cffe 0fbc b425 acbb d878 93bc 5504 2e3c
00000090: 04a8 a63b 2cfb 253b 82c8 1e3c 56c9 9c3b
000000a0: 46cb e9bc 2a23 943c 6182 22bd cb56 363d
000000b0: f657 76bb 349a faba 6b27 0bbc 13c8 f9bb
000000c0: 7220 60bb cce2 d8bb cd61 d0bb 0f93 b7bb
000000d0: e488 b8bc b68a 5fbc d3f5 ec3c cf9f ce3c
000000e0: 6b7f acbb b846 3e3c 2235 663b 6d30 3b3c
000000f0: 8e94 1a3c 3602 983c 6945 13bc 7eed 193b
00000100: 083f 513c 1ea0 003c 6a7a abbc a739 a5bc
00000110: d604 d4bc 83af 0d3d 002f a6bc 7707 c7bb
00000120: 7614 bf3b 300b 473b 8461 d73b 7663 d53b
00000130: 8e35 35bd b797 d63b 3203 d83c c774 17bc
00000140: 7ded 91bd a7b9 bdba dea2 3b3d 2537 bf3c
00000150: b099 2cbd d23c 0cbd 8460 6b3d 93d9 b13c
00000160: d329 eebc 7d0f 95bc fc3d 023c 76de a63c
00000170: 7cbe 31bc 0cb2 d0bb 2631 5b3c e7e5 8cbc
00000180: 54b0 153c 851a d63b 7c53 d3bb c838 473c
00000190: 1a60 2a3c 4ad1 7fbc e6fe 803c df88 2f3c
000001a0: 7241 183b 83e6 3cbc b383 1ebc ec2b 44bb
000001b0: 7525 703c 7213 4b3b a78e 263c 2eda cbbb
000001c0: fc9e 16bc fab2 493c ff22 4a3b c16a 733c
000001d0: 2853 9d3b ad80 a43c 9902 a7bc 531b 753c
000001e0: 607c e6bb 3fea ce3c cd64 9f3c 3484 80bc
000001f0: 14cd b43c 9c3a 223d 47ec 83ba 5d4d 8bbd
0.013531117 0.0020093992 -0.0024018255 0.008675342 0.01852149 -0.0007905021 0.011037489 -0.008229344
0.026924696 0.0012684767 -0.0030745622 -0.003946323 -0.023298802 -0.011869429 -0.0021445549 0.017366474
0.008482481 -0.011192105 0.0043857517 0.01991515 -0.0033558554 0.011616133 0.011998831 0.0015823463
-0.018766547 0.017083528 0.005297074 -0.025308797 -0.07013395 0.01363405 0.023406314 0.034497652
-0.008788778 -0.005253518 -0.018001959 0.01062115 0.005085947 0.0025326712 0.0096913595 0.0047847433
-0.028539311 0.018083174 -0.03967512 0.044516366 -0.003758905 -0.0019119442 -0.008493285 -0.0076227277
-0.0034199026 -0.006618833 -0.006359315 -0.0056022475 -0.022526212 -0.013643911 0.028925812 0.025222687
-0.005264213 0.01161354 0.0035126884 0.01142512 0.009434832 0.018555742 -0.008988717 0.0023487504
0.0127713755 0.007850675 -0.020932395 -0.020169092 -0.025881212 0.03459121 -0.020286083 -0.006073888
0.0058312966 0.0030371659 0.006572904 0.006512101 -0.044240527 0.0065488475 0.026368711 -0.0092441505
-0.071253754 -0.0014474884 0.04580962 0.023341725 -0.042138755 -0.03423769 0.05746509 0.021710193
-0.029072678 -0.018195862 0.007949349 0.02036975 -0.010848638 -0.006368881 0.013378417 -0.01719947
0.009136278 0.006533923 -0.006449161 0.012159534 0.010398889 -0.015613863 0.015746545 0.010713785
0.0023232368 -0.011529568 -0.009674954 -0.0029933406 0.014657368 0.0030986932 0.010165847 -0.0062210774
-0.009193178 0.012310738 0.0030843613 0.014856995 0.0048011728 0.020080889 -0.02038698 0.014960128
-0.0070338696 0.025258182 0.019457245 -0.01568804 0.022070445 0.039606676 -0.0010064923 -0.06801865

sequential/conv2d_1/Conv2D f4 [256, 1, 1, 32]
00000000: 6037 223c 0a38 ca3e 860f e1bd 2aab ee3d
00000010: 5304 d03e 9d67 ad3e 0b8c bebe c9bf 9a3e
00000020: 9dce 1cbe d6b9 173d 49f0 d03e e589 d4be
00000030: 7470 84be 62bb 953d 9acd 8cbe d5ff e9be
00000040: 4c1a c9be b13a 42be ac98 9a3e bdd1 c63e
00000050: 5220 9bbe b34a 1e3e d08f 513e c3ac 64be
00000060: 27e4 57bd f221 9dbe 4496 173e 8f54 a2be
00000070: a292 8dbe c9f7 84be 914c d3be 47ea 773e
00000080: 1204 d3bc 98a0 afbe ba23 f7be 3322 5f3b
00000090: b40b 983e aaad c4be 0541 783e 4fe4 5ebd
000000a0: f590 78be 9b8b 863e 549d 07bf 2041 623c
000000b0: e050 84be f078 c63e 88d9 8fbe 56a6 67be
000000c0: 4176 8e3e 05b0 773e 199d 903e 20a8 c9be
000000d0: 17f4 e1bd 2036 23be e8a7 b63e f4d2 dabe
000000e0: 310e b83d f012 80be 42e7 8e3d 9725 fabe
000000f0: 4627 b9bd add1 bcbe 4610 febe 30f5 fe3e
00000100: 6b23 433e 1848 0fbd 04bf 903e e121 babe
00000110: 5209 3c3e ec27 13bd 32bd 35be 48f6 6c3d
00000120: e508 b2be 0d65 ec3e edd9 ba3e bada 71be
00000130: b22b cb3e 2817 49be 3e22 d83e 4108 ea3e
00000140: ea28 063c a926 243e 9db8 353d 0a67 f53e
00000150: d62e 1bbd 7114 983e e5bb e1be 51a9 7b3e
00000160: 21de 593d ace9 fbbd 2ac9 b23e 62fe 2ebe
00000170: 1a41 efbe edcd 4dbe bf49 a5be 2aeb 653d
00000180: bd6c c8be 3a41 2b3e 3c5c cdbe 690a 633d
00000190: aacd b63e 284f c43e 26f3 543d 0056 cd3e
000001a0: 852e 9bbe 6c40 cd3e e954 7ebd 6607 c8be
000001b0: bbac d6bd 2f35 f33e f6e8 07bd f133 f1be
000001c0: 416b f0be 3200 54bd 24cf 023d 30cd 0b3e
000001d0: b725 d1be ddc1 3ebe c40c a13e 1c5a 203e
000001e0: 3108 fd3b c1d0 e23e 228e efbe 2d3b 353e
000001f0: 8e5c 8a3e 6f68 2d3e eff2 8ebe 4493 c5be
00000200: 68bd 723e 8fcf 993e 9ea7 843e 9dbf 19bf
00000210: f04e f8bd 133f 163e 18f9 7b3e 02b1 953e
00000220: 977e ecbe 8b33 0fbf cd5a 36be 66cf ce3e
00000230: 9629 6fbd 1ae6 bebe 51b9 cc3e a88a bd3d
00000240: c0d6 84bd 576e cfbc 8f74 0cbc f758 a33c
00000250: 45a4 833e 2da8 74be 833a 8b3e dbb5 65be
00000260: 7b1a 263e fe3e dcbe e903 7b3e b820 fc3e
00000270: 3744 0c3f c370 5a3d df12 fbbc 59aa 2ebc
00000280: 4ee3 80be 5390 1fbf c1b6 c1be c584 16bf
00000290: f35f e53d ef31 ddbe 1444 dbbe 1b13 593e
000002a0: 3550 9c3e 254e 8cbe 903e b73e b94f b03e
000002b0: a626 443e 9b46 023f 1c29 f2bd e7f7 d0be
000002c0: 7b3a fabe 9504 fcbe 7f28 b0be 2403 df3e
000002d0: f98c 2dbd c265 8d3e cc22 283f bdbb bcbe
000002e0: 12a6 063e f4dc 1ebe 02f6 94be 243b f3be
000002f0: 735a a53c 6fca e43e dfe6 dcbd b110 913c
00000300: 69e1 a9be f0f3 0dbe ec48 393e b3a2 753e
00000310: 76ec 0c3f 3f55 8abe 29cd 293f e689 2abe
00000320: eb13 d63e 0e2a 20bd c526 fa3d 3217 a3be
00000330: 9d72 d43e 1423 14bf 5737 e33d 7499 133f
00000340: a3a2 aa3e 914d 4fbe 54b1 1fbe ea15 043e
00000350: 56bd dd3e 75d6 513e 7044 abbe 6c82 de3e
00000360: 5e51 123f 7c43 62be 1c0d 35be 3ba3 de3d
00000370: fd00 c9be a098 9a3d 5a20 9e3d f908 b63e
00000380: 763c ffbe b0d1 a43e fc1a c83e 3157 083f
00000390: 79fc acbd b0c3 c3be 1d1c b8be 2b19 633e
000003a0: bda1 00bf 3de1 133d ff52 923e 4df7 8a3e
000003b0: c75b bcbe 950a 78be a122 ea3e 25c0 1abe
000003c0: f05b 5e3e e295 b23e f12b 103f da35 f8be
000003d0: c39f de3e 48d3 59bd 6611 dd3e c2d8 b93e
000003e0: e98e 683e 9ac2 673e ba18 ec3e 786a 993c
000003f0: 2237 f73e b3d3 883b f8ba 93be edae edbd
0.009900898 0.3949588 -0.10989289 0.11653741 0.406283 0.33868113 -0.3721622 0.30224445
-0.15313192 0.03704246 0.40808323 -0.41511455 -0.25867045 0.07311131 -0.27500612 -0.45702997
-0.39277875 -0.18967701 0.30194604 0.38831893 -0.30298096 0.15458183 0.20465016 -0.22331528
-0.052707817 -0.3068996 0.14803416 -0.31705138 -0.27650934 -0.25970295 -0.41269353 0.24210463
-0.025758777 -0.3430221 -0.48269445 0.0034047484 0.2969643 -0.38413745 0.24243553 -0.05441695
-0.24274047 0.26278386 -0.5297444 0.013809472 -0.25842953 0.38764143 -0.2809565 -0.22622046
0.27824596 0.2418824 0.28244856 -0.39386082 -0.110328846 -0.15938616 0.35674977 -0.4273907
0.08987082 -0.25014448 0.06977703 -0.48856804 -0.09040694 -0.3687872 -0.4962179 0.49796438
0.1905648 -0.034980863 0.28270733 -0.36353973 0.1836293 -0.035926744 -0.17747954 0.05785206
-0.3477241 0.46170846 0.3649439 -0.23618594 0.39681774 -0.1963774 0.42213625 0.45709422
0.008188466 0.16030373 0.044365514 0.47930175 -0.037886463 0.29703096 -0.44088665 0.24576308
0.053190354 -0.12300429 0.349191 -0.17089227 -0.46729356 -0.20098086 -0.32282826 0.056132473
-0.3914546 0.167241 -0.40109432 0.05542985 0.35703784 0.3834164 0.051989697 0.40104675
-0.3030893 0.40088212 -0.062092695 -0.39068145 -0.104821645 0.47501513 -0.033181153 -0.4710994
-0.46956828 -0.051758 0.031935826 0.13652492 -0.40849087 -0.1862864 0.31455052 0.15659374
0.0077219238 0.44299892 -0.46788126 0.17698355 0.2702374 0.1693437 -0.2791972 -0.38588917
0.23705065 0.30041167 0.25909132 -0.60058004 -0.12124431 0.14672498 0.2460674 0.2923661
-0.4619033 -0.55938023 -0.17808075 0.40392607 -0.05838927 -0.3728493 0.39985135 0.09254962
-0.06486273 -0.025321169 -0.008572712 0.019939883 0.25711265 -0.23892279 0.27193078 -0.22432654
0.16221039 -0.4301681 0.2451321 0.49243712 0.5479159 0.053330194 -0.030648647 -0.010660731
-0.2517342 -0.62329596 -0.37834743 -0.5879634 0.111999415 -0.4320216 -0.42825377 0.21198694
0.30529943 -0.2740337 0.3578992 0.34435824 0.19155368 0.50888985 -0.11824247 -0.40814134
-0.48872742 -0.49222246 -0.34405896 0.43557084 -0.04237077 0.27616698 0.65678096 -0.36861983
0.13149288 -0.15513974 -0.2909394 -0.47506058 0.020184731 0.44685695 -0.10786223 0.017708154
-0.33179787 -0.13862586 0.18094224 0.23987846 0.5504831 -0.27018163 0.66328675 -0.16654167
0.4181207 -0.039102606 0.12214426 -0.31853634 0.41493693 -0.57866025 0.110945396 0.57656026
0.33327207 -0.20244433 -0.15594989 0.12898985 0.43308514 0.20491965 -0.3345065 0.4345888
0.57155406 -0.22096056 -0.17680782 0.108709775 -0.39258566 0.07548642 0.07721014 0.3555372
-0.49850816 0.3219123 0.39083087 0.53258044 -0.08446593 -0.38235235 -0.3595895 0.2217757
-0.50246793 0.036103476 0.28578946 0.271418 -0.3678877 -0.24222787 0.45729545 -0.1511236
0.21714759 0.34879977 0.5631705 -0.48478585 0.43481264 -0.05318001 0.43177336 0.36298186
0.22710766 0.22632828 0.46112615 0.018727526 0.4828425 0.004175627 -0.28853583 -0.1160563

sequential/conv2d_2/Conv2D f4 [256, 1, 1, 256]
00000000: 04fb 9fbc 0245 5dbe 1362 cd3d 0d33 05be
00000010: 3e09 3c3e 6123 d43d d195 0a3e d09d 1fbe
00000020: 9f2e 22be 7578 1cbe 60e4 a73d 0a80 7cbd
00000030: 272b 27be 12fb 353d fdf9 b73d b17b 393e
00000040: 3c0b 27be 1da5 e1bd 7f00 303d 7aae b8bd
00000050: 4cee 2d3e bc3c 3ebe 71f0 e8bc 4f88 863d
00000060: 644a 243e 6be0 d1bc 9634 163e 8de4 a73c
00000070: b0ff d4ba ad2f 88bd a11c 953d 5b89 e03d
00000080: 9644 873d 3782 323e c62b 6b3e 2920 39be
00000090: 2a45 29bd 914b 0bbe 949d b33d 3026 0bbe
000000a0: b722 b7bd f6ff 413e c611 52bd 13bd 973c
000000b0: c6d7 22bd 638d 09be b228 e93d 6f01 c8bc
000000c0: 3aa3 0dbe 037b b13d 46c3 eabd 26cc 89bd
000000d0: b7a3 de3d d35e 0a3e 62c9 0c3e 2323 1fbe
000000e0: 7a15 363e 40c6 ddbd 4917 e5bd 3fc8 a4bc
000000f0: 268b d5bd 75f7 ae3d 0e41 abbd 4a8d 1dbe
00000100: f51c 65be cf2e 44bd 8a4c b6bd 0515 04be
00000110: c67c eb3d e452 15be 3867 78bc ae3e 513d
00000120: bf8d 923d 0fd9 2dbd 5991 47bd c7a6 333e
00000130: a0a1 6abd 82c5 2e3e 0f9e 6d3a b19b f5bd
00000140: dedf 343e 5a53 39be 1d5b 9a3c 8bd8 89bd
00000150: 640e 003e d7c8 f0bd 5b67 2c3d 24b4 c9bc
00000160: ecb3 293d af6b 1dbd 4af3 14be fed2 30bd
00000170: 9719 dcbd 4f3f 21bd b8d7 ffbc 48b2 273e
00000180: e810 12bd bd11 d9bd ba37 2fbe 0908 173e
00000190: 4fc7 1dbd 740c 07be 8c1f e7bc ce86 1fbe
000001a0: 8a10 9dbd 5ff8 d73d 4ea3 3dbd 6b50 c6bc
000001b0: 0ec8 a0bd 1573 483e 306b d83d e81f 0abe
000001c0: 3e39 8b3c e202 84bd 7da6 12be 62a9 08be
000001d0: d261 c83d 625d 333d 6cd4 a6bd aeaa ec3a
000001e0: 72bf afbc 36bb 2d3e f34d f73d 7526 243d
000001f0: 222a 3d3d 63ba 5f3c dcba 51bd 1381 cd3d
00000200: 7cb2 e93d ffbb c5bd 7218 12bd ab97 963d
00000210: 19cf 30be 6240 9c3d 8834 093d 751b 053e
00000220: d6c2 803e ec64 e5bd f9cc 1e3d 3b5f 46be
00000230: 469e e73d 8e77 c5bd 799f eabc 4841 9f3a
00000240: 1a20 213e 112e 173d a09b 82bd 12d2 38be
00000250: 209e ca3d 4f4f d23d a85c 1b3d 5f7a 423e
00000260: d985 e53d 23cc 0bbc e725 60be ef3a ec3d
00000270: d5b3 4e3e debf 06bd f0bc fa3b 79ad 443d
00000280: 0104 94bc 8b9a a63d f10e d7bd 2af9 f63d
00000290: ac6c 383e 290a 19bb 2634 d13d 2e8e 2a3e
000002a0: 06d9 15bc 81e4 21be 21ce ebbb 3072 ab3d
000002b0: f2fd c2bd 55ed 943d 8d0b d83d cd46 eabd
000002c0: 395c 53be 3f7d 4b3e 3cb3 753d 88d4 5abd
000002d0: 0252 92bd 23de c13d 616d 533e 30c8 253e
000002e0: 8d6c 1dbe 42ff 1fbc e9a9 273e f090 67be
000002f0: 46b1 1f3d 3a22 4fbd a301 3cbe a70e 3ebd
00000300: 9ec7 ffbd 1364 353e b152 12be b951 4cbe
00000310: cc43 803d 6e40 babd bf29 b3bc 9993 44be
00000320: 7310 2dbe 0468 183e aa5d d5bc b4b4 33be
00000330: 502c 6bbd 0bd3 bcbd 7b3b 45be f666 25bd
00000340: a83b 2b3e 94e7 c63d 3a5f 293e 6620 093e
00000350: 6aa3 683d fa30 ab3d feae 03be 8500 c63d
00000360: 9995 06bd c4d7 193e 2009 12be 5490 703d
00000370: 57ba 46be 1eb6 b03c 99ae 18be e30b 013e
00000380: ebf8 1ebd e959 aa3d 66cf e0bd c63c 00be
00000390: b9d8 4abd c6a7 41bd a782 a33d 234b 0bbc
000003a0: 571a d5bd ab60 25be 2301 203e 0550 913d
000003b0: aca4 08be d20d 2abe b927 f33d 7178 3b3e
000003c0: a1e5 653e ec93 2ebc 8e01 39be 10d5 d93d
000003d0: ce17 5fbe 7ece 033d 0177 56be 9bac d63d
000003e0: ce17 3b3e 2279 283d 1737 bc3d 5e55 92bd
000003f0: 2858 0dbe 0381 88bd 9ac7 f53d 9137 4abe
-0.019528873 -0.21608356 0.10028472 -0.13007756 0.183629 0.103583105 0.13533713 -0.15587544
-0.15838097 -0.15280326 0.08197856 -0.061645545 -0.16325055 0.044428892 0.08983228 0.18113591
-0.1631288 -0.11017821 0.042969223 -0.09017654 0.16985434 -0.18577856 -0.028434964 0.065689676
0.16044003 -0.025619706 0.14668497 0.020494724 -0.0016250517 -0.066497184 0.07280851 0.109636985
0.066048786 0.17432486 0.22965917 -0.18078674 -0.041325726 -0.13603045 0.0877029 -0.13588786
-0.08942168 0.18945298 -0.05128648 0.018522775 -0.03975656 -0.13432841 0.11384715 -0.024414746
-0.13831797 0.08666041 -0.11463027 -0.06728391 0.1087107 0.13512735 0.13748696 -0.15540747
0.1778163 -0.10828829 -0.11186082 -0.020115016 -0.10426931 0.085432924 -0.083620176 -0.15385929
-0.22374327 -0.047896203 -0.089013174 -0.12898643 0.11498408 -0.14582402 -0.015161328 0.051085167
0.07155942 -0.04244333 -0.0487226 0.1754409 -0.057283044 0.17067531 0.0009064385 -0.119925864
0.17663524 -0.18098202 0.018842274 -0.067307554 0.1250549 -0.11757057 0.042090755 -0.02462203
0.041431352 -0.038432773 -0.14545932 -0.043169968 -0.107470684 -0.039367016 -0.031230792 0.16376603
-0.035660654 -0.105990864 -0.17111102 0.14749159 -0.038520154 -0.13188344 -0.028213285 -0.15578768
-0.0766917 0.1054542 -0.046298318 -0.024208268 -0.078506574 0.1957515 0.105673194 -0.13488734
0.016995069 -0.06445862 -0.14321323 -0.13345864 0.09784283 0.04379023 -0.08145985 0.0018056238
-0.021453593 0.16965947 0.120754145 0.040075738 0.04618276 0.013655278 -0.051203594 0.100343846
0.11410996 -0.09654998 -0.035667844 0.07353147 -0.17266501 0.076294675 0.033497363 0.12998755
0.25148648 -0.1120089 0.038769696 -0.19372265 0.11309485 -0.09641944 -0.028640496 0.0012150193
0.15734902 0.036909167 -0.06377339 -0.18048885 0.09893441 0.10269033 0.03793016 0.18991993
0.1120717 -0.008532557 -0.21889459 0.11534678 0.20185788 -0.032897823 0.0076519176 0.048017
-0.018068315 0.081349455 -0.10500897 0.12059243 0.18010205 -0.0023352003 0.10215025 0.166558
-0.009145981 -0.15809824 -0.0071962033 0.08371389 -0.095210925 0.0727183 0.10549078 -0.114392854
-0.20640649 0.19871996 0.059985384 -0.05342534 -0.07144548 0.09466197 0.20647193 0.16189647
-0.1537344 -0.009765448 0.1637341 -0.22613883 0.03898742 -0.05056975 -0.1836 -0.046400692
-0.12489246 0.17713957 -0.14289357 -0.1995305 0.06262931 -0.0909432 -0.021870492 -0.19196929
-0.16900806 0.14883429 -0.026045639 -0.17549402 -0.057415307 -0.09219941 -0.19260971 -0.040381394
0.16721976 0.09712139 0.16540232 0.13391265 0.05679647 0.08358951 -0.12859723 0.09668068
-0.03285751 0.15023714 -0.14261293 0.058731392 -0.1940702 0.021571215 -0.14910354 0.1260219
-0.038811605 0.0831793 -0.10977058 -0.12523183 -0.04952309 -0.04727914 0.07983904 -0.008501801
-0.104054146 -0.16150157 0.15625434 0.07095341 -0.13344067 -0.16606835 0.11872811 0.18307664
0.22450878 -0.0106553845 -0.18067 0.106363416 -0.21786425 0.03217935 -0.20943834 0.10482141
0.182708 0.041131146 0.09190195 -0.07145189 -0.1380316 -0.06665232 0.120009616 -0.1974776

sequential/batch_normalization_1/FusedBatchNormV3;sequential/depthwise_conv2d/depthwise f4 [1, 3, 3, 32]
00000000: 0631 f73e 11a1 09bf 0a7b 4bbe adf4 1dbf
00000010: 7d4f 2abf a9dc a23d a317 883f a648 2a3f
00000020: b6b9 1a3d 70ec b23f 9709 a73e a390 4a3e
00000030: e730 84bf 7585 61bf cc8e 2abf f6d4 913f
00000040: d14d 1abf 456d 393f 4228 1c3e f6d6 6d3f
00000050: fd1b 273d 0ce5 b5be 7c36 75bd 6918 a03f
00000060: 9b90 823f 55a1 ba3e 9a4c 1b3e 7df7 1bbf
00000070: 0b62 42bf 9335 c6be 7bd3 b7be de26 6a3f
00000080: c1af 813e 4976 0ebf a620 fdbe 661d 14bd
00000090: 58a8 c4bd 5e21 10bf bc06 24bf 7e32 cc3e
000000a0: 40c9 71bf 9da7 cbbf fcf3 25bf 06c0 f8bd
000000b0: cf23 bebf 02c1 9fbe af48 6b3f f731 f03e
000000c0: 81fc a9bf d0c0 12bd 288b 95bf 5a22 543f
000000d0: 3c58 143f db2d 163f 643a 153e 8933 8ebd
000000e0: b44c ae3e a7e5 e0be b8a9 4d3c 637a 4bbe
000000f0: 3f26 5a3f e0b0 873f a8b0 8fbe 6fec 5fbf
00000100: 204f f0be 896a f9bc f71e 8d3e 223f e73e
00000110: 65f4 3dbf e0cd 2abf 0792 11bf 3c4a de3e
00000120: a6cf 4b3f 6928 92bf 55f7 60be 53f6 95be
00000130: 497d 883f 6e7c 313f 8d04 8dbf 8770 6b3f
00000140: ddcf bdbe 642f 6ebf 1175 67bf f6a5 38bf
00000150: d938 91bf af37 3bbf 8168 773f 1b20 94bf
00000160: 250b 05bf 1b32 233f 09f8 0a3f aba6 433f
00000170: 5a1d 0cbf d351 78bf 1bf2 aabe e52b 843f
00000180: 2390 6cbf d78c 793d 8c16 fa3e 2062 1bbf
00000190: 9ae0 23bf d63f 083f 842d a13f 05a9 7fbc
000001a0: 3a92 97bd 706d c53e 7078 b43e 4482 22bf
000001b0: ae40 e13f 3f50 223f 7318 5f3f d289 41bf
000001c0: c398 4a3f 7a44 c93e 9028 213f c60d 6c3f
000001d0: ce20 7b3f da7f 5a3f c219 723f 3e7d 92be
000001e0: 39f1 52bf 2369 3b3e 7322 2d3f e7f9 05bf
000001f0: 8a7a 80bf 8e09 2b3f c9cb 3f3e cbb4 13bd
00000200: c6a6 b03f 71c3 38be 019c c43e 6462 39bf
00000210: b97d 483f 0dd2 28bf a218 963e d2d4 183e
00000220: 9e06 8a3d 00c3 b03f f8ae 133e e699 a33e
00000230: 15b0 a8bf 9a6b c8be f148 443f 9d1b 94be
00000240: 17da 8d3e c8c8 b5bf 41b2 623f 9b1d 72be
00000250: db25 dabd 9bf4 e3be 81b0 bc3e f37f 22bf
00000260: 379b 783f 2fae f73e 0247 3c3f 865e d4be
00000270: 7c6b 51bf 2fdf 77be ab41 81be 39f2 423f
00000280: d3ec 88bf 28f9 a9be fbc6 163f eec2 12bf
00000290: cd14 98be 1c67 83be 6062 b63f ef71 e43e
000002a0: 9ed6 1d3f bef0 883f 90a7 1dbf 9824 f5be
000002b0: eeff c43f be16 57bc 0f4e fbbe a096 a5bd
000002c0: 86e4 763e f798 17bf 99c6 e7be 0f9e 26bf
000002d0: fe95 1bbf 8d42 69bf 5dd7 483d b991 293f
000002e0: 5faa d9be bae1 eb3e fe68 133f f69e 0bbe
000002f0: 96cd 1f3f cbd1 a9be 866f fcbd 443a 41bf
00000300: 7d6d 4e3e 292c b03e e420 343f 67af a9be
00000310: 680b a53d fe72 b9be 0a45 c0be bca6 a53e
00000320: 4f5c 97bf cb86 c6be 08d7 de3e 30b6 023f
00000330: 3169 da3f 238b 17bf c884 213f 4098 6e3e
00000340: fb81 363d b80b a83e a3e9 de3c bb91 813f
00000350: d553 9abd 8428 133f 3ebc 04bf 8da4 a93f
00000360: f671 4bbf 8463 513f 00e2 3bbf 5200 563e
00000370: 5d45 8dbe f7d0 eabe 6d4f 87be e525 26bd
00000380: b05b 723d 41f0 79be 8a1d 43be 1db7 123e
00000390: 1f68 9c3e 5e58 063e 0819 3bbe a5ce d33e
000003a0: 3d88 7fbf 55b6 a4bf 0f2b 12be 74d7 b2bf
000003b0: cdb3 1ebd 2db0 33bc a918 41bf fe9d be3e
000003c0: 3e7f bd3f 2d66 1ebf 4429 42bf 8bbc 51bf
000003d0: b015 323e 5bff 0cbc f7d5 70bd a245 66bf
000003e0: 7145 04bf 866d a5be ef1a e93e 7291 b3bd
000003f0: d886 813f 47ec bebe d409 09bf c89d aabe
0.4827959 -0.5376139 -0.19871154 -0.6170147 -0.6652754 0.07952244 1.0632213 0.665171
0.037774764 1.3978405 0.32624504 0.19781737 -1.0327424 -0.88094264 -0.6662414 1.1393116
-0.6027499 0.7243236 0.15249732 0.9290613 0.040798176 -0.3552631 -0.059866413 1.2507449
1.020038 0.36451212 0.1516594 -0.6092451 -0.7593085 -0.3871275 -0.35903534 0.91465557
0.25329402 -0.5564924 -0.4943897 -0.03616085 -0.096024215 -0.56300914 -0.64072776 0.39882272
-0.9444771 -1.5910527 -0.64825416 -0.121460006 -1.4854678 -0.3120194 0.9190778 0.4691312
-1.3280183 -0.03582841 -1.1683092 0.82864916 0.57947135 0.5866372 0.14573056 -0.06943423
0.34042895 -0.4392521 0.012552671 -0.19870906 0.8521461 1.0600853 -0.28064466 -0.87470144
-0.46935368 -0.030446308 0.27562687 0.45165354 -0.7420104 -0.6672039 -0.56863445 0.4341601
0.7961372 -1.1418582 -0.2196935 -0.29289493 1.0663234 0.6933049 -1.1017014 0.9196858
-0.3707265 -0.9304106 -0.90413004 -0.72128236 -1.1345474 -0.7313184 0.96643835 -1.1572298
-0.5197013 0.6374833 0.5428472 0.7642619 -0.54732287 -0.96999854 -0.33387837 1.0325896
-0.92407435 0.06092533 0.48845327 -0.606966 -0.6401459 0.53222406 1.2592015 -0.015604262
-0.074009374 0.38560057 0.35248137 -0.6348002 1.7597864 0.63403696 0.8714668 -0.7560092
0.79139346 0.39310056 0.6295252 0.92208517 0.9809693 0.85351336 0.94570553 -0.28611177
-0.82399327 0.18301825 0.6763069 -0.52334446 -1.0037396 0.66811454 0.18730082 -0.03606109
1.3800895 -0.18043305 0.38400272 -0.7241576 0.7831684 -0.6594551 0.29315668 0.14924935
0.067395434 1.3809509 0.14422214 0.31953353 -1.3178736 -0.39144593 0.766738 -0.28927317
0.27705452 -1.4201899 0.88553244 -0.23644106 -0.106517516 -0.44522557 0.36853412 -0.63476485
0.9711184 0.4837508 0.7354585 -0.41478366 -0.81804633 -0.24206232 -0.25245413 0.7615085
-1.0697273 -0.33197904 0.5889737 -0.5732869 -0.2970337 -0.25664604 1.4248772 0.44618174
0.61655605 1.0698469 -0.61583805 -0.4787948 1.5390604 -0.013127981 -0.4908299 -0.0808537
0.24110612 -0.5921778 -0.45268705 -0.6508493 -0.60775745 -0.91117173 0.04903351 0.6623798
-0.42512795 0.46070653 0.5758208 -0.13634858 0.62423074 -0.33167872 -0.12325959 -0.7547953
0.20158954 0.34408692 0.7036269 -0.33141634 0.08058816 -0.36220545 -0.37552673 0.3235377
-1.1825045 -0.38774714 0.4352343 0.51059246 1.7063352 -0.5919668 0.63093233 0.23300266
0.044557553 0.3282144 0.027211016 1.0122598 -0.07535521 0.57483697 -0.51849735 1.3253342
-0.79470766 0.81792474 -0.73391724 0.2089856 -0.27591982 -0.45862553 -0.26427785 -0.040563483
0.05916947 -0.24408056 -0.19054237 0.14327665 0.30548188 0.13119647 -0.18271267 0.41368595
-0.9981726 -1.2868143 -0.14274238 -1.3972001 -0.03874569 -0.010967297 -0.75428253 0.37229913
1.4804456 -0.6187466 -0.75844216 -0.8192832 0.17391086 -0.008605803 -0.058797803 -0.8995
-0.5166846 -0.32310122 0.4552836 -0.08767976 1.0119276 -0.3728964 -0.5353062 -0.33323503
