kernel_vs_latency/ds_cnn_gray_32_k1_quant.tflite (tflite, 112480 bytes, 6 tensors)

sequential/dense/MatMul i1 [2, 256] scale=0.0012927947 zero_point=0
-0.05171179 0.028441483 0.0982524 -0.10600916 -0.089202836 0.054297376 -0.10730196 0.13962182
-0.1460858 -0.011635153 -0.10859475 0.047833405 -0.11376593 -0.12798667 0.09566681 0.08403166
-0.010342358 -0.006463974 -0.08144607 0.144793 -0.011635153 -0.0012927947 -0.11118034 0.05300458
-0.054297376 -0.06981091 -0.045247816 0.08273886 -0.12669387 0.13315785 -0.13703623 0.01680633
0.02197751 -0.07627489 -0.05817576 0.029734278 -0.07110371 0.07756768 0.14867139 0.05300458
-0.11764432 -0.10342358 0.13186505 -0.08015327 -0.028441483 -0.10083799 -0.13445064 0.1473786
0.09308122 0.0723965 0.032319866 -0.11635152 0.11505873 -0.010342358 -0.10600916 -0.06722532
0.01680633 -0.15125698 0.07886048 0.01680633 -0.03361266 0.12022991 0.07627489 0.018099125
-0.099545196 0.144793 0.10988755 0.096959606 -0.05171179 -0.14996418 -0.089202836 -0.0245631
-0.05817576 0.07498209 -0.15642816 0.0077567683 -0.08144607 -0.08144607 -0.089202836 -0.09566681
-0.0077567683 0.10471637 -0.086617246 -0.005171179 0.11376593 0.07756768 -0.04395502 0.014220742
-0.094374016 -0.005171179 -0.10988755 -0.010342358 -0.034905456 0.0982524 -0.15513536 -0.06076135
-0.08273886 0.09566681 0.13445064 0.15384257 0.096959606 -0.020684715 -0.06722532 0.05559017
-0.034905456 0.03619825 0.08403166 0.06076135 0.15384257 -0.06334694 0.11118034 -0.09049563
0.032319866 -0.12022991 0.13832903 -0.020684715 -0.099545196 -0.032319866 0.10730196 -0.15125698
0.08791004 -0.15254977 -0.10600916 -0.13832903 0.144793 0.094374016 -0.13186505 -0.11764432
0.13315785 0.13315785 -0.11376593 0.020684715 -0.14220741 -0.05559017 -0.03361266 0.10600916
-0.12669387 0.15513536 0.1215227 -0.15513536 0.07886048 -0.13574344 0.056882966 -0.1215227
0.10471637 0.1228155 0.042662226 -0.045247816 0.045247816 -0.028441483 0.006463974 0.04136943
-0.014220742 0.047833405 0.07627489 0.0 -0.03878384 -0.012927948 -0.07627489 -0.14996418
-0.062054146 0.086617246 -0.13703623 -0.14350021 -0.08791004 -0.014220742 -0.14996418 0.13574344
-0.10083799 -0.08403166 -0.07110371 0.010342358 0.12669387 0.03619825 -0.102130786 -0.11376593
-0.05559017 0.13962182 -0.13186505 0.03361266 -0.12669387 -0.06722532 0.08015327 -0.010342358
0.03878384 0.10988755 0.031027073 -0.15384257 -0.0723965 0.12540108 0.06334694 -0.0245631
-0.16030654 -0.040076636 0.07498209 0.0982524 -0.13057226 0.0982524 -0.099545196 0.11505873
0.15254977 0.06593253 -0.12669387 0.050418995 0.16418493 -0.042662226 0.08403166 0.13057226
0.099545196 0.011635153 -0.13832903 0.08273886 -0.03361266 -0.14867139 -0.15384257 -0.012927948
-0.08015327 -0.0025855894 0.050418995 -0.094374016 -0.0245631 0.032319866 0.006463974 0.045247816
-0.03878384 -0.06334694 0.15513536 -0.11893711 0.07498209 -0.029734278 0.01939192 -0.056882966
-0.089202836 -0.05171179 -0.15125698 -0.11764432 0.07756768 -0.042662226 0.07756768 -0.13057226
0.12410829 -0.01939192 0.1215227 0.14867139 -0.06981091 -0.07498209 -0.13445064 -0.14220741
0.04654061 -0.13445064 0.0038783841 0.01680633 0.06722532 -0.03361266 0.11764432 0.11764432
00000000: d816 4cae bb2a ad6c 8ff7 ac25 a89d 4a41
00000010: f8fb c170 f7ff aa29 d6ca dd40 9e67 960d
00000020: 11c5 d317 c93c 7329 a5b0 66c2 eab2 9872
00000030: 4838 19a6 59f8 aecc 0d8b 3d0d e65d 3b0e
00000040: b370 554b d88c bbed d33a 8706 c1c1 bbb6
00000050: fa51 bdfc 583c de0b b7fc abf8 e54c 88d1
00000060: c04a 6877 4bf0 cc2b e51c 412f 77cf 56ba
00000070: 19a3 6bf0 b3e7 538b 448a ae95 7049 9aa5
00000080: 6767 a810 92d5 e652 9e78 5e88 3d97 2ca2
00000090: 515f 21dd 23ea 0520 f525 3b00 e2f6 c58c
000000a0: d043 9691 bcf5 8c69 b2bf c908 621c b1a8
000000b0: d56c 9a1a 9ecc 3ef8 1e55 1889 c861 31ed
000000c0: 84e1 3a4c 9b4c b359 7633 9e27 7fdf 4165
000000d0: 4d09 9540 e68d 89f6 c2fe 27b7 ed19 0523
000000e0: e2cf 78a4 3ae9 0fd4 bbd8 8ba5 3cdf 3c9b
000000f0: 60f1 5e73 cac6 9892 2498 030d 34e6 5b5b

sequential/conv2d/Conv2D i1 [32, 1, 1, 1]
127 -127 -127 127 -127 127 -127 127
127 127 -127 -127 127 -127 127 -127
-127 127 127 127 127 -127 -127 -127
-127 127 127 127 -127 -127 127 127
00000000: 7f81 817f 817f 817f 7f7f 8181 7f81 7f81
00000010: 817f 7f7f 7f81 8181 817f 7f7f 8181 7f7f

sequential/conv2d_1/Conv2D i1 [256, 1, 1, 32]
-39 -70 -29 -86 121 -81 52 84
-108 0 -116 31 72 -76 -20 -23
42 10 103 -32 -60 -2 -31 24
-82 18 -66 -11 83 23 34 -127
14 85 43 -63 120 51 -58 62
47 -4 94 110 72 -124 -37 96
-44 -46 -8 81 -29 -8 -116 -112
-107 -7 -85 123 -95 -68 -72 127
-99 -15 -78 58 113 -21 -26 -126
84 5 -59 -84 26 -26 69 -33
-50 0 -44 -11 -127 94 115 98
-92 125 24 -98 -100 24 77 -21
30 64 -12 -41 -8 9 108 -9
11 51 -51 107 -113 99 -125 23
105 100 -40 -46 -10 118 -124 -65
74 16 -121 19 41 9 127 29
76 36 -44 113 -33 60 68 47
47 -13 61 -84 126 -111 38 71
13 -39 -127 -34 -29 -111 -66 75
74 -103 90 101 -25 -59 -9 -82
64 72 -98 33 108 -96 50 35
7 58 -120 52 -117 94 105 -126
108 -34 -87 -127 6 109 68 -57
75 -2 -11 115 79 68 97 83
-104 -6 -76 -101 -28 -121 7 115
102 -45 53 -63 48 116 -123 -53
-7 89 -26 -85 53 62 84 -18
52 -127 -30 46 -101 41 -117 -27
10 60 66 4 -60 11 -14 83
76 -27 40 -49 -104 -13 -111 -126
-67 -58 72 70 -82 -94 -8 59
11 -33 51 127 11 -74 85 -118
00000000: d9ba e3aa 79af 3454 9400 8c1f 48b4 ece9
00000010: 2a0a 67e0 c4fe e118 ae12 bef5 5317 2281
00000020: 0e55 2bc1 7833 c63e 2ffc 5e6e 4884 db60
00000030: d4d2 f851 e3f8 8c90 95f9 ab7b a1bc b87f
00000040: 9df1 b23a 71eb e682 5405 c5ac 1ae6 45df
00000050: ce00 d4f5 815e 7362 a47d 189e 9c18 4deb
00000060: 1e40 f4d7 f809 6cf7 0b33 cd6b 8f63 8317
00000070: 6964 d8d2 f676 84bf 4a10 8713 2909 7f1d
00000080: 4c24 d471 df3c 442f 2ff3 3dac 7e91 2647
00000090: 0dd9 81de e391 be4b 4a99 5a65 e7c5 f7ae
000000a0: 4048 9e21 6ca0 3223 073a 8834 8b5e 6982
000000b0: 6cde a981 066d 44c7 4bfe f573 4f44 6153
000000c0: 98fa b49b e487 0773 66d3 35c1 3074 85cb
000000d0: f959 e6ab 353e 54ee 3481 e22e 9b29 8be5
000000e0: 0a3c 4204 c40b f253 4ce5 28cf 98f3 9182
000000f0: bdc6 4846 aea2 f83b 0bdf 337f 0bb6 558a

sequential/conv2d_2/Conv2D i1 [256, 1, 1, 256]
57 32 64 -71 12 -17 -83 -13
-114 -42 -44 -107 -88 -46 -53 85
-94 22 -50 -57 78 -92 19 -100
-27 19 99 93 -90 -46 -32 58
44 81 30 -4 23 88 -74 88
-25 -16 104 -44 -99 46 4 98
-41 122 -91 -72 -64 -99 65 96
118 88 78 -117 -14 114 67 66
-49 -12 25 33 -39 5 -91 -51
10 107 69 -49 58 -87 -65 79
109 -6 -59 -111 -49 -43 -107 1
-60 54 -97 -107 34 36 48 -30
-54 65 3 52 -29 47 47 -114
-42 -91 77 66 -77 65 119 -93
-55 -78 -36 -118 35 11 35 69
82 -92 -52 -10 -64 86 -38 52
-52 -41 20 23 20 -43 -77 -40
63 18 -30 19 -82 65 -28 35
120 42 -64 -85 -32 48 117 3
59 64 57 27 73 -90 -63 -62
29 -109 63 -19 -48 33 108 -93
-104 68 59 -3 92 38 8 -16
-1 67 -37 -42 -64 39 -26 9
-3 -62 58 -6 107 107 -61 -127
45 81 -101 -49 -89 51 60 -22
14 -96 112 -9 10 -31 -83 -42
-110 39 -28 -31 121 -44 44 -103
-74 22 -51 -16 52 53 -60 82
87 24 -92 -103 -119 19 -42 54
-81 84 -125 62 1 -44 -77 107
77 51 65 41 -68 44 -67 -81
-95 34 -5 -58 110 102 -23 74
00000000: 3920 40b9 0cef adf3 8ed6 d495 a8d2 cb55
00000010: a216 cec7 4ea4 139c e513 635d a6d2 e03a
00000020: 2c51 1efc 1758 b658 e7f0 68d4 9d2e 0462
00000030: d77a a5b8 c09d 4160 7658 4e8b f272 4342
00000040: cff4 1921 d905 a5cd 0a6b 45cf 3aa9 bf4f
00000050: 6dfa c591 cfd5 9501 c436 9f95 2224 30e2
00000060: ca41 0334 e32f 2f8e d6a5 4d42 b341 77a3
00000070: c9b2 dc8a 230b 2345 52a4 ccf6 c056 da34
00000080: ccd7 1417 14d5 b3d8 3f12 e213 ae41 e423
00000090: 782a c0ab e030 7503 3b40 391b 49a6 c1c2
000000a0: 1d93 3fed d021 6ca3 9844 3bfd 5c26 08f0
000000b0: ff43 dbd6 c027 e609 fdc2 3afa 6b6b c381
000000c0: 2d51 9bcf a733 3cea 0ea0 70f7 0ae1 add6
000000d0: 9227 e4e1 79d4 2c99 b616 cdf0 3435 c452
000000e0: 5718 a499 8913 d636 af54 833e 01d4 b36b
000000f0: 4d33 4129 bc2c bdaf a122 fbc6 6e66 e94a

sequential/batch_normalization_1/FusedBatchNormV3;sequential/depthwise_conv2d/depthwise i1 [1, 3, 3, 32]
84 112 37 119 -92 -27 122 -28
-95 124 118 30 77 52 -4 -122
-86 32 31 29 3 -15 5 120
-62 -127 -127 -67 -89 68 127 -20
69 91 4 127 -96 86 112 4
100 35 126 -77 70 18 -100 112
120 89 -111 -94 34 -3 -120 2
127 -28 -55 90 -33 -74 114 -21
-52 -40 83 5 -119 71 -52 -112
6 -73 -20 -26 19 -113 -127 -105
106 86 76 23 -63 31 -60 14
107 -76 52 114 -122 -127 5 -104
27 56 -114 67 101 78 -27 -119
-127 -22 -78 -78 23 36 8 8
18 -69 57 -8 -2 -127 -35 38
17 37 -118 107 -33 -21 -15 127
-82 -67 -33 43 50 46 100 84
46 -107 -25 -5 -105 78 20 69
127 -76 123 127 -113 -2 127 117
91 -57 20 2 -105 -62 75 -97
34 -120 -77 43 -94 56 -81 -16
-79 127 57 -72 25 -117 -118 -42
-75 19 127 80 -51 -86 49 60
-38 52 -75 36 6 -95 32 93
127 -31 -127 -108 -80 127 -127 120
88 -50 2 25 -127 48 -124 -127
20 60 -73 71 17 17 -68 83
-33 119 -19 85 127 -67 -90 -12
19 -127 4 -44 -127 2 -98 111
-61 84 -87 -127 8 -127 109 -49
-36 2 84 -110 127 38 1 127
-49 4 -77 -62 96 -16 32 39
00000000: 5470 2577 a4e5 7ae4 a17c 761e 4d34 fc86
00000010: aa20 1f1d 03f1 0578 c281 81bd a744 7fec
00000020: 455b 047f a056 7004 6423 7eb3 4612 9c70
00000030: 7859 91a2 22fd 8802 7fe4 c95a dfb6 72eb
00000040: ccd8 5305 8947 cc90 06b7 ece6 138f 8197
00000050: 6a56 4c17 c11f c40e 6bb4 3472 8681 0598
00000060: 1b38 8e43 654e e589 81ea b2b2 1724 0808
00000070: 12bb 39f8 fe81 dd26 1125 8a6b dfeb f17f
00000080: aebd df2b 322e 6454 2e95 e7fb 974e 1445
00000090: 7fb4 7b7f 8ffe 7f75 5bc7 1402 97c2 4b9f
000000a0: 2288 b32b a238 aff0 b17f 39b8 198b 8ad6
000000b0: b513 7f50 cdaa 313c da34 b524 06a1 205d
000000c0: 7fe1 8194 b07f 8178 58ce 0219 8130 8481
000000d0: 143c b747 1111 bc53 df77 ed55 7fbd a6f4
000000e0: 1381 04d4 8102 9e6f c354 a981 0881 6dcf
000000f0: dc02 5492 7f26 017f cf04 b3c2 60f0 2027

sequential/batch_normalization_3/FusedBatchNormV3;sequential/depthwise_conv2d_1/depthwise;sequential/conv2d_2/Conv2D i1 [1, 3, 3, 256]
40 -106 -4 -127 80 119 -1 -86
4 -119 -38 79 -87 -85 -17 -90
12 54 -103 37 -84 -80 43 48
-98 22 52 -73 22 -24 -47 55
21 127 103 2 71 -117 71 -74
29 -14 -127 127 -48 54 61 -46
122 127 92 -19 109 -51 -72 -33
-20 -127 -117 108 -67 59 -92 -10
4 -85 -30 -56 10 -12 18 105
-127 -46 -127 -7 -47 -127 -127 -118
20 -4 -38 68 127 102 -97 21
-45 99 65 -54 -69 -115 -62 76
-124 47 -44 122 39 53 21 -46
-48 -63 -103 -29 126 5 -2 -44
-26 -91 55 120 122 46 -21 -12
-32 -106 4 -18 -70 40 80 -71
-23 81 32 -127 84 127 110 -53
99 -127 80 74 -15 -114 86 72
-120 -61 -5 23 18 30 40 -91
-91 -2 -51 84 39 71 -108 25
40 -32 -70 -28 -97 -90 -60 -111
-30 -42 3 -54 26 54 -89 127
-74 107 36 90 99 -101 -82 -51
70 -104 127 -80 -3 -100 58 108
85 121 67 -102 49 -125 52 127
42 61 -28 -56 -91 48 85 -105
-127 -71 -13 31 72 93 -116 60
-59 22 -14 32 6 45 59 82
-117 -86 -25 79 66 78 -72 -114
84 27 -16 51 -43 83 -96 24
-107 -59 -123 112 -88 1 -127 -28
-72 64 86 -42 127 99 -113 114
00000000: 2896 fc81 5077 ffaa 0489 da4f a9ab efa6
00000010: 0c36 9925 acb0 2b30 9e16 34b7 16e8 d137
00000020: 157f 6702 478b 47b6 1df2 817f d036 3dd2
00000030: 7a7f 5ced 6dcd b8df ec81 8b6c bd3b a4f6
00000040: 04ab e2c8 0af4 1269 81d2 81f9 d181 818a
00000050: 14fc da44 7f66 9f15 d363 41ca bb8d c24c
00000060: 842f d47a 2735 15d2 d0c1 99e3 7e05 fed4
00000070: e6a5 3778 7a2e ebf4 e096 04ee ba28 50b9
00000080: e951 2081 547f 6ecb 6381 504a f18e 5648
00000090: 88c3 fb17 121e 28a5 a5fe cd54 2747 9419
000000a0: 28e0 bae4 9fa6 c491 e2d6 03ca 1a36 a77f
000000b0: b66b 245a 639b aecd 4698 7fb0 fd9c 3a6c
000000c0: 5579 439a 3183 347f 2a3d e4c8 a530 5597
000000d0: 81b9 f31f 485d 8c3c c516 f220 062d 3b52
000000e0: 8baa e74f 424e b88e 541b f033 d553 a018
000000f0: 95c5 8570 a801 81e4 b840 56d6 7f63 8f72
