kernel_vs_latency/mobilenet_gray_32_k4_float.tflite (tflite, 498128 bytes, 36 tensors)

sequential/dense/BiasAdd/ReadVariableOp/resource f4 [2]
00000000: 0df7 dbbb 0cf7 db3b
-0.0067128004 0.0067128

sequential/batch_normalization/FusedBatchNormV3 f4 [8]
00000000: 8432 e03f 7915 c4bf 4ccb d3bf 35cf 83bd
00000010: 2224 c63f f919 d3bf 3145 8fbf 1026 d13f
1.7515416 -1.5319053 -1.6546416 -0.06436006 1.5479777 -1.6492301 -1.119299 1.6339741

sequential/batch_normalization_1/FusedBatchNormV3 f4 [8]
00000000: 1ae0 aebd 9148 e63e 8fe8 313f 50a9 35bf
00000010: f9f2 543f ae6d 99bc d0f5 873e 5f6c 64bf
-0.08538838 0.4497724 0.6949548 -0.70961475 0.83183247 -0.018729057 0.26554728 -0.8922786

sequential/batch_normalization_10/FusedBatchNormV3 f4 [64]
00000000: 2ee3 1d3f ed5d d1be a8a8 f9bc 2bbf 723f
00000010: f86e 01bf 360e e93c b1ba 3bbd c38c 2c3f
00000020: c869 083f 318b 4abe ebe0 bc3f d528 b3be
00000030: b2f8 ca3c 6470 7dbe a79f 453f cbc0 413c
00000040: 71e5 e2be 1440 1f3f 2938 4ebf 6f89 c43e
00000050: 96e2 cc3e 0f28 953f 3dd2 04bf fd03 1b3e
00000060: c0b2 8dbf 89db 703e f1eb 11bf 1485 dbbc
00000070: 7dec 9ebf ce14 323f daf5 893f 02af 0a3f
00000080: ac20 06bf 340f 17bf 00ff d63e ecd1 2fbf
00000090: 52e7 4cbf 2236 22bf a28c 65be 5036 d4be
000000a0: 91c4 a03e 89d6 64bf 324a 77bf 3ae6 5fbc
000000b0: 132f 1dbf 821a e1bf 78e8 d0be 2894 293f
000000c0: 55b1 733f cced e5be 6dba 3dbf c404 bfbe
000000d0: 9058 c63e a68d 1d3f 51b5 a13e e1a7 293e
000000e0: 667e 493e 52e9 ff3e 26a5 22bf c27d 563e
000000f0: 58ff 2a3e 7ec4 23bd d7ed 98bf e96f 623f
0.61674774 -0.40891972 -0.03047593 0.9482295 -0.5055995 0.02844916 -0.04583234 0.67402285
0.5328641 -0.1977966 1.475614 -0.3499209 0.02477679 -0.24749905 0.77196735 0.011825751
-0.44315675 0.6220715 -0.80554444 0.38386104 0.4001662 1.165285 -0.518833 0.1513824
-1.1070175 0.23521246 -0.57000643 -0.026796855 -1.241592 0.69562995 1.0778153 0.5417329
-0.52393603 -0.59007573 0.41991425 -0.6867969 -0.80040467 -0.6336385 -0.22416928 -0.41447687
0.31399968 -0.89389855 -0.9659759 -0.01366573 -0.61399955 -1.7586215 -0.4080236 0.66241693
0.9519246 -0.44907987 -0.7411259 -0.37308323 0.38739443 0.61544263 0.31583646 0.16567947
0.19677123 0.49982697 -0.63533247 0.2094641 0.16698968 -0.03998231 -1.1947583 0.8845201

sequential/batch_normalization_11/FusedBatchNormV3 f4 [64]
00000000: e9af 693f fe8a 0a3f 7ce1 323f 50c2 6c3e
00000010: 088a 35bf 4a98 e23e c0c2 353f 8278 83be
00000020: 643c 3bbf 2495 643f fe10 b23e d956 693f
00000030: 6fa7 9f3e 5155 38bf f824 113f fbee 07bf
00000040: 956e 5a3f 35c0 68bf d43e 293f 3417 d5be
00000050: 4450 bc3e 471c 8bbf 3956 6fbf daeb 4e3f
00000060: 741c 123f 19b0 31bf 9664 94be 5273 843f
00000070: e708 323f 4ce8 47bf 4bc6 0e3f ef5f 5bbf
00000080: 2703 8e3f 5c2d 563f 9443 b0be 2462 17be
00000090: 4f84 99be 186a 12bf e4a7 033f 5355 3ebe
000000a0: d8c5 43bf a00c 13bf 5045 70be 7e02 b1be
000000b0: 6252 443f 573f 17bf a010 15bf 000a 2e3f
000000c0: cfd7 d03d 3328 cb3d c913 da3e 6603 713f
000000d0: 9ddf 2cbe f76f 20bf 1ee3 033e e05e d9be
000000e0: 552f b7be 109d a63f acb2 23be 2dd8 e63d
000000f0: f26e 983e 6cb8 33bf 3fe5 a8be 39e5 0a3e
0.9128404 0.54118335 0.6987531 0.23121 -0.70913744 0.44256812 0.7100029 -0.25677878
-0.73139024 0.8929007 0.3477859 0.91148144 0.3118243 -0.7200518 0.56697035 -0.5309903
0.85324985 -0.90918285 0.66111493 -0.41619265 0.36779988 -1.0868005 -0.9349094 0.8082863
0.57074666 -0.6940933 -0.2898299 1.0347693 0.69544834 -0.7808883 0.5577132 -0.8569326
1.1094712 0.8366296 -0.34426558 -0.14783531 -0.29983756 -0.57193136 0.51428056 -0.18587236
-0.7647376 -0.5744114 -0.2346394 -0.34572214 0.76688206 -0.59081024 -0.5822849 0.6798401
0.10197412 0.09919777 0.4259322 0.9414581 -0.16882177 -0.62670845 0.12879607 -0.42455196
-0.357783 1.3016682 -0.15986127 0.11271701 0.29772145 -0.7020328 -0.329874 0.13564004

sequential/batch_normalization_12/FusedBatchNormV3 f4 [128]
00000000: a464 503e 9c12 f5be 618c 683e b1e7 bb3d
00000010: efb7 0fbe e2f1 a43f 16a9 fbbb 5edb 5fbf
00000020: 0585 703f fc01 8a3f c7e4 89be d44c 3b3f
00000030: 0f16 a03f 9594 833f 1358 23bf 1971 fd3e
00000040: 2189 c13e 7811 bb3d 3048 01b9 aca9 98bd
00000050: 5a5a 88be 1e1f 253f 1fe5 dc3e f944 983f
00000060: ccd0 243f 91cb 28be 44e5 03bf df76 8bbf
00000070: 4e4e dc3e bbc2 1c3f 8077 173f b4d8 263f
00000080: 6d6c 213f c1f5 0cbe 281b db3e 7263 61bc
00000090: fad6 5dbe 5514 0a3f e4b6 3a3e 76a4 8bbd
000000a0: afc4 573f 4f60 923e ab12 88be 422a a7bf
000000b0: 59d1 aabd c411 a4bf fe80 91be 6bd9 72bf
000000c0: 9a93 e8be 1995 89bd a35a ad3c 3245 4d3e
000000d0: a4fd 4c3e 6682 b3be 8a86 09be 2f19 8d3f
000000e0: f809 763f 45cf 32bf 102d e53e 942a 163b
000000f0: 3b62 143f 897b 873d e1a0 85bc c44c 133e
00000100: be7a 2d3e e64b 9ebf 1618 ab3f 8ef2 8f3e
00000110: 1dff a93e 80ef 9d3f 844a 83be 25ec f63c
00000120: 5da7 98bf 4479 0abf def0 013e 073e 1dbe
00000130: 4a9e 26bf 02b5 6fbc d7a3 7e3f a6f7 6ebf
00000140: b261 c43e 80af e93e 3b52 5abf 7d10 45bf
00000150: eabb 2d3f 6e04 2d3e c653 ea3e 6723 253f
00000160: 7007 db3e a36a e7be 0df3 fcbe b887 533f
00000170: 3500 673e d370 d03e 4ec3 1cbf 7a7f 253f
00000180: 8edb 3c3e d4d1 4a3f 8ff2 c7be 02f5 a3bd
00000190: 0740 0b3f d0ae e73d 53b2 073f 35a2 9dbf
000001a0: 6de8 5b3f f596 69bd d785 94be 9c05 c8be
000001b0: 7c79 fcbe 4b7d 96bd 38c8 9cbf 445e b03b
000001c0: cdfb ddbe bd05 2e3f a476 05bf a4b3 073f
000001d0: abca b63e 4cff b73f 1285 bbbf d551 893f
000001e0: f642 a9bc ebc1 993d 5bd2 8e3f 467a af3f
000001f0: 4831 32be 4805 39bf 84f0 59bf 16a1 f2bd
0.20350891 -0.4786576 0.227098 0.09175051 -0.14035009 1.2886317 -0.0076800687 -0.874441
0.9395297 1.0781856 -0.26932356 0.73164105 1.2506732 1.0279719 -0.63806266 0.4950035
0.37799934 0.09134191 -0.0001232929 -0.07454237 -0.26631433 0.64500606 0.43143556 1.1896049
0.643811 -0.16483904 -0.51521707 -1.0895652 0.43028492 0.61234635 0.5916672 0.6517441
0.6305607 -0.13765623 0.42794156 -0.01375662 -0.21664038 0.53937274 0.1823383 -0.06818478
0.8428449 0.28589103 -0.26576743 -1.3059771 -0.08340711 -1.2817922 -0.28418726 -0.94863003
-0.4542511 -0.06717891 0.021161383 0.20045927 0.20018631 -0.35060424 -0.13430229 1.102331
0.9610896 -0.6984752 0.44760942 0.0022913562 0.5796239 0.06615359 -0.016312065 0.14384753
0.16941354 -1.2366912 1.3366725 0.28114742 0.33202448 1.2338715 -0.25642788 0.0301419
-1.1926075 -0.54091287 0.1268954 -0.15355693 -0.6508528 -0.014630558 0.9946875 -0.9334663
0.38355786 0.45641708 -0.85281724 -0.76978284 0.6786486 0.16896221 0.4576704 0.64507145
0.42779112 -0.45198545 -0.49404183 0.82628965 0.22558673 0.40711078 -0.6123551 0.6464764
0.18443128 0.7922642 -0.39052245 -0.08005716 0.5439457 0.1131264 0.53006476 -1.2315127
0.8590153 -0.05702873 -0.29008362 -0.3906678 -0.49311435 -0.073481165 -1.2248602 0.005382331
-0.4335617 0.67977506 -0.52134156 0.53008485 0.35701498 1.4374785 -1.4649985 1.0728098
-0.020661812 0.0750769 1.1157945 1.370919 -0.17401612 -0.72273684 -0.8513262 -0.11847131

sequential/batch_normalization_13/FusedBatchNormV3 f4 [128]
00000000: 96f5 603f e4cb 1dbf 9ca3 6fbf e704 2cbf
00000010: 598d 27bf 9e89 62bc c12b 723e 0709 e73e
00000020: 9916 64bf 9bfb 7abf f51a 913f 07c7 673f
00000030: 6f50 64bf bc49 9ebf b599 683f 15fb d53e
00000040: 6ae5 cfbd 4aa5 00bf 2880 5dbf 9a5f 213f
00000050: 86b8 583e 3ca5 e3bd 3573 413f 4142 80be
00000060: 23e8 533f 1004 7a3f cf20 363f b527 96bf
00000070: fd4a 2f3f 2b4d 0e3f a16c 04bf 67d4 653f
00000080: 6cda c2bd 22cf 28bf 4063 453e b928 04be
00000090: 0cfb 053d f7fa 243f a0a9 d7be f630 283f
000000a0: 7395 49bf 54dc 35bf 255d 003e 888e 1b3e
000000b0: 5209 1d3f 5f93 2c3f 36f3 933f f3bf 2f3f
000000c0: 3e1e a4bb 7c83 4d3f 4860 543f aa15 023e
000000d0: d3ab abbd b5ea 503f d160 c8bd 8622 33bf
000000e0: 7d66 d5be c467 963f c95c 1cbf 505f 04be
000000f0: e9ab 803f 3c9d 94bb 97be 49bf cc04 97bd
00000100: b1e1 07bf bd5a 9cbd 0cdf 4c3f caa7 41be
00000110: 758e 813f 2e8c 8a3f 9a7c 153f 2285 643f
00000120: bfc9 78bf 67f3 9f3e d3ee 11bf 6aad 35bf
00000130: c193 453f 970d cf3e 6cc2 113f 8429 513d
00000140: 1817 26bf f567 78bf 6f7e 723e f08c 36bd
00000150: e113 17bf 7d02 0fbe e614 5fbf 34fa 90bf
00000160: c5bf 8f3f 619d a93e cbec d0be 1128 143e
00000170: 28d6 6abf e258 f93e f33f 46bf c90a dc3d
00000180: f4fc a13e 5c90 313e 0185 2b3e 2ec0 c03e
00000190: 9f79 6cbe 66c6 053f 8c52 5e3f 34da c53d
000001a0: 8e38 c23e ac38 433f ce8b 8bbe 11d6 75be
000001b0: 689f 6b3e cdcd 103f 4185 ccbe aa78 dfbe
000001c0: 32fd 50bd fd34 0d3f 4862 f23e 2f50 483f
000001d0: 7b06 81bf dc01 aabc 5d6d 08bf eb81 b33d
000001e0: fcfe 5abf d52a 01bf a33f dcbd 8879 dfbe
000001f0: 9d5e 8ebe f2da 5e3f c890 8b3e 5666 983e
0.87874734 -0.6163924 -0.93609023 -0.6719498 -0.65450054 -0.013826756 0.23649503 0.45124075
-0.8909698 -0.9804017 1.1336352 0.90538067 -0.8918523 -1.2366252 0.9085954 0.41793123
-0.10151179 -0.5025221 -0.86523676 0.630365 0.2116414 -0.111155 0.75566417 -0.25050548
0.8277609 0.9766245 0.7114381 -1.1730868 0.684738 0.555865 -0.51728255 0.89777225
-0.09514317 -0.6594106 0.19276142 -0.1290616 0.03271012 0.6444544 -0.421216 0.6569971
-0.78743666 -0.7103932 0.12535532 0.1519109 0.61342347 0.6741237 1.1558597 0.68652266
-0.005008488 0.80278754 0.82959414 0.12703577 -0.08382382 0.81608135 -0.09784091 -0.69974554
-0.41679755 1.1750417 -0.6107908 -0.12926984 1.0052463 -0.0045353454 -0.7880644 -0.07373962
-0.5307875 -0.076344945 0.8002784 -0.18911663 1.01216 1.082403 0.5839325 0.89265645
-0.9718284 0.3124039 -0.5700504 -0.70967734 0.7717858 0.40440056 0.5693729 0.051064983
-0.6487899 -0.97033626 0.23681043 -0.044568002 -0.5901471 -0.13965793 -0.87141263 -1.1326356
1.1230398 0.33127883 -0.4080566 0.14468409 -0.91733027 0.48700625 -0.7744133 0.107442446
0.316383 0.17340225 0.16749956 0.3764662 -0.2309327 0.52255857 0.86844707 0.096607596
0.37933773 0.7625835 -0.272551 -0.24007441 0.23010027 0.5656403 -0.39945415 -0.43646747
-0.051022716 0.5515898 0.47340608 0.7824735 -1.0080103 -0.02075284 -0.53291875 0.08765014
-0.85545325 -0.5045598 -0.10754325 -0.43647408 -0.2780656 0.87052834 0.27258897 0.29765576

sequential/batch_normalization_14/FusedBatchNormV3 f4 [256]
00000000: 14c4 343f 5df9 4cbf 6cdf 043f 33ee 06bf
00000010: 8e7e 75bf 4e58 a7bf f6a6 db3e 5bad c23d
00000020: ae99 b1be 4985 a0be f844 dd3e 22f2 3bbf
00000030: d4be 2d3f 4e27 9f3c 35cd 0ebe 855a cabe
00000040: 9d37 2fbf 7546 5e3f fdd2 023e 6326 243f
00000050: 45d4 9b3c 4475 24bf 10ff ac3f 2509 803e
00000060: 6ba6 023f 532b f2be 78ef 3c3f 8037 d6be
00000070: 2977 72bf d124 4ebf 63d8 cc3e 1b17 943e
00000080: 5a9d 263f 280d 3d3f 2aa6 d83c d0be 823f
00000090: 0349 58bf 032c bbbe 0bb9 5d3f c752 21bf
000000a0: 7d74 5cbe b62a 333f 1a41 66bf a88c e5be
000000b0: 7064 79be eb6f df3d 8db9 50bd 4557 443e
000000c0: 00ab 223e aadb 6f3d 1f1f 8e3f a86d 3c3f
000000d0: e695 e9be 4397 2a3f f5b2 133f 9a87 0cbe
000000e0: b828 01bf 00f2 e93d a941 dfbe b9e9 153f
000000f0: 5ced 1fbe 8828 5abe 0e18 6dbf b42a 163f
00000100: 36d7 043f 0823 b8be df82 b8be dc06 573e
00000110: fdee a0bd f5bb c63e d7b9 483f 5ddf 8e3e
00000120: 1a98 ebbd 0040 28bb feea 523f 57ec d2bd
00000130: 0eea 063f 7aa1 673f f4a8 b9bd 0968 183f
00000140: 18a6 173f 2d35 933f 0e7a e5bd bf14 3fbf
00000150: 338d 8fbe 5ca1 33bc 1288 0d3f 04b2 03bf
00000160: 987d 703e c610 a8bf 39cb 993e e7e4 52bf
00000170: d965 3e3e 827c e9be 4a7f 97bf ba6d b13f
00000180: 5071 a43e 3d22 f5bd f043 003f 8741 eb3e
00000190: 2420 a6bf a341 3e3f 539a 10bd a22b bdbe
000001a0: 5af5 323d 4237 bf3d 2590 dfbe 281b 5cbe
000001b0: 299d 37bf c13c 09bf d029 943f 4573 3c3e
000001c0: 2032 cf3e 5809 6f3f c6cb 273f 58ed 9a3f
000001d0: 323e 8abe f8f7 8fbc 5c98 423e 62be 12bf
000001e0: 4c62 ab3c 2447 89bf 47a6 f8be 6fb5 38bf
000001f0: 98a2 15be 0f21 3b3e f181 c6be fba6 073f
00000200: 74b1 9f3b 2bf6 983f 03c5 423e 8228 2fbf
00000210: 09b4 aabe 456c 3f3f 00cf 6e3e d13e e7be
00000220: 0467 6a3f 61a4 9a3e 20b1 9ebf 7506 893f
00000230: d3b1 303f 5100 ebbe 75a6 4f3e 5a40 323f
00000240: 2d1c 643e 19b6 cf3e 49b9 af3e 6f8d 583f
00000250: 95e7 9c3e bfc4 11bf 34d4 923e 1ad7 b1be
00000260: 90c5 cf3e 7b41 a1be 6a6b 823f 24b8 d93d
00000270: 0c9c 7cbd 7620 c1bc 595b 803f 9c10 573f
00000280: 8672 5bbf 751a 5a3f 4467 b2be 0461 9b3f
00000290: 1891 2dbf d47f 1abf 8e22 41bf 6ae6 cabd
000002a0: 2359 18bf e55a c73d ad91 db3d ca15 a0be
000002b0: 848d a53d c8a5 8f3f cda1 103f 708c 51bd
000002c0: c05c f9bd 546b 22bf fdb5 b5be ec9a aebe
000002d0: b25e fd3d 1a6a 023d a2b4 c8bf e08c 00bf
000002e0: 461b dabe cea9 273f 636a 72be 2569 b7be
000002f0: 6236 c1bd 23ff a9be 5c3b e53e eeaa 683e
00000300: 07af 38be 5a3f 5f3e 28f5 42bf f7e8 df3e
00000310: eddc b53e e657 463d 1702 1a3e c11c 7abd
00000320: d5fe 313f 2041 f03e 70ef c83e 1642 963e
00000330: d8e7 9e3d d815 413e 5049 783f 5c44 2cbf
00000340: f998 b9bf 729c 42bf 57bf 8fbe 11aa 963e
00000350: 355f 8b3f bdfe 38bf 896d 34bf 599a a03d
00000360: 8468 d13d 64dc 25bf 1091 2ebf d92d 92bf
00000370: fab6 f53e 86ea 8c3e 9d46 bcbd 0f85 b1be
00000380: 9c4c 3a3d 5f1b c13e 46cf e9be 4bc3 a43f
00000390: 934d 683e c0e8 b1be c2bd 233f fe5d 31bf
000003a0: 44ff 82bf b79f f33e c4d8 4cbf 6440 f7be
000003b0: 3943 863e 01be e33c 3e5c bebe bc6c 05bf
000003c0: 19ce 853e 11b0 d93e d005 6fbd eea3 0dbf
000003d0: 5b5d 483e 5687 7d3e 3260 31bf ca6a 893d
000003e0: 48fe e43d c9a7 90bc a43c c13f c6a0 7dbe
000003f0: f994 cc3c 44cb 313f 1169 f4be ef62 cc3e
0.7061169 -0.80068 0.51903415 -0.52707213 -0.9589623 -1.3073823 0.4290082 0.09505721
-0.3468756 -0.31351689 0.4321668 -0.7341634 0.67869306 0.019427922 -0.13945468 -0.39522186
-0.68444234 0.8682626 0.12775798 0.64121073 0.019022116 -0.64241433 1.3515339 0.25006977
0.51035184 -0.4729868 0.738029 -0.41839218 -0.94713074 -0.8052493 0.4000884 0.28923878
0.6508385 0.738482 0.02644642 1.0214481 -0.8448641 -0.36557016 0.8661048 -0.63016933
-0.21528812 0.69987047 -0.8994309 -0.44833875 -0.2435472 0.109100185 -0.050958205 0.19173916
0.15885544 0.058559097 1.1103247 0.7360482 -0.45622176 0.6663706 0.5769494 -0.13723603
-0.50452757 0.11423111 -0.43604782 0.5855976 -0.15617889 -0.21304524 -0.9261483 0.5865891
0.51890886 -0.35964227 -0.36037347 0.2099871 -0.078580834 0.38815275 0.7840857 0.27904788
-0.115036204 -0.0025672913 0.8238982 -0.102989845 0.5270089 0.9048077 -0.090654284 0.59533745
0.59237814 1.1500603 -0.11204921 -0.7464103 -0.28037414 -0.010963764 0.5528575 -0.51443505
0.2348541 -1.3130119 0.3003786 -0.8238053 0.1859354 -0.45602804 -1.183572 1.3861611
0.321177 -0.11969421 0.50103664 0.4594843 -1.2978559 0.74318904 -0.035303425 -0.36947352
0.043691017 0.093367115 -0.4366466 -0.21494734 -0.7172418 -0.5360833 1.157526 0.18403347
0.4046793 0.9337363 0.6554531 1.2103682 -0.27000576 -0.017574295 0.19003433 -0.5732175
0.020920895 -1.0724835 -0.4856436 -0.72151846 -0.14612806 0.1827433 -0.38771012 0.52989167
0.004873449 1.1950125 0.19020467 -0.68421185 -0.3334048 0.7477458 0.23321152 -0.45165113
0.9156344 0.30203536 -1.2397804 1.0705096 0.6902134 -0.4589868 0.20278342 0.6962944
0.22276373 0.40568617 0.3432105 0.8459081 0.30645433 -0.56940836 0.28677523 -0.34734422
0.40580416 -0.3149527 1.018903 0.10630825 -0.061672255 -0.023575049 1.0027877 0.8400972
-0.85721624 0.8519662 -0.3484441 1.2138982 -0.6779952 -0.603513 -0.7544335 -0.09907229
-0.5951101 0.09734134 0.10721145 -0.31266624 0.080836326 1.1222467 0.5649689 -0.051159322
-0.12175894 -0.6344502 -0.3549041 -0.3410257 0.12371577 0.031839468 -1.5680125 -0.5021496
-0.42598933 0.65493476 -0.23673396 -0.35822406 -0.09434201 -0.33202466 0.4477185 0.22721455
-0.18035518 0.2180151 -0.7615533 0.43732426 0.35520115 0.04842367 0.1503986 -0.061062578
0.6952947 0.46924686 0.39245176 0.29347295 0.077590644 0.18855989 0.96986866 -0.6729181
-1.4499809 -0.76019967 -0.28075668 0.29426625 1.088843 -0.722637 -0.7047964 0.078419395
0.10225013 -0.64789414 -0.681901 -1.1420242 0.47991163 0.27522677 -0.09193156 -0.34671828
0.045483217 0.37716195 -0.4566595 1.2872099 0.22685842 -0.34747887 0.6396142 -0.69284046
-1.0234151 0.4758279 -0.8001826 -0.48291314 0.26223162 0.027800562 -0.3717975 -0.5211904
0.26133803 0.4251714 -0.058355153 -0.5532826 0.19566862 0.24758658 -0.6928741 0.067098215
0.11181313 -0.017658131 1.5096631 -0.24768361 0.02497338 0.69450784 -0.4773641 0.3991923

sequential/batch_normalization_15/FusedBatchNormV3 f4 [256]
00000000: af7d e2be e05b aaba 1516 43be 7ddf 7b3e
00000010: 8052 8e3e 7bb9 863e 60db eb3e abd5 26be
00000020: 3b2c f23d c077 1a3e 15d2 683e 18ac c1be
00000030: bcd8 39ba fa0e c63e 6ebe 94be 3429 1cbe
00000040: 16e8 8cbe 6c28 bbbe 2a7e a9be a8be b53e
00000050: d5ab 4b3e 50db 443e fa75 5fbe fae3 963e
00000060: dc6d d83e 56cb f43e 489b cc3e c1de 98be
00000070: 1ffe ed3e 9b78 d23e 0238 bd3e 803d cdbe
00000080: 0a9b f4be a4ee ab3e 22a1 8ebe 1fa8 ac3e
00000090: 3e3d fa3e 675f 0dbe 90e2 993e 31b9 1abb
000000a0: 9d09 c9be f596 c9be 2d8a b03e 8dc9 71be
000000b0: 486c 8fbe e6b9 9bbe 32da c43e 689a 503e
000000c0: 7e45 b43e dcab c73e 2ea8 c13d 355f bdbe
000000d0: b662 cbbe 7270 c33e 5a60 a73e 06be 083e
000000e0: 0dc6 743e 5a8d 52be 555f 1abe 67e9 993e
000000f0: ec1a 5a3e 06c8 7eba 05ae e93e 3e78 ab3e
00000100: 3723 dcbe cceb c1be 4222 f0be 522b d63e
00000110: 6852 babe 4b12 7e3e ebe1 e8be e6ee 223e
00000120: bc4a 343e 460d 4ebe 406a 343e 573d c8be
00000130: 266b cbbe 81eb 50be 48d5 603e 728f 4d3d
00000140: e1f9 943e dc8b db3e 66f0 a6be cccf 923e
00000150: b199 043e 55cf 44be e22a 00be 592a 9abd
00000160: de2a f2bd 0f68 97be 8a60 ab3e 4c2d c5be
00000170: f60d 603e 71b1 d2bd 5250 a53e ba9e b0be
00000180: 3b5f f0be 4eca 9f3d c93c a8bc 5a90 973e
00000190: 1c77 f93e f909 fcbe d85c afbe 487a 45bd
000001a0: 1bff 84be f302 01bd 29cf c03e b58c e4be
000001b0: 802d e3be 9f77 903e 0914 b03e e21f ee3e
000001c0: 939d 81be ae0d d0be a4cd f0be c5b4 7cbe
000001d0: 50fe 8dbe de89 903e f949 4f3e 4bad ab3e
000001e0: 4068 26bb e5a6 f7bd 74a1 87be 1d23 e0be
000001f0: 318f e3be eaf5 bf3e 77ba 87be ebd6 1dbe
00000200: b6f6 973e 6300 7f3e f04e a2bd 8d29 8a3e
00000210: 199c d03e f257 0c3e fce6 9a3e 6e32 d3be
00000220: 3cc9 5d3e 2999 ba3e d4e4 c2ba 29fc 813d
00000230: 90c8 c43e 5057 cc3e 8254 bfbd 6104 8bbe
00000240: 4f3a ec3e c5c8 ecbe 01f7 f23e 3462 c1bb
00000250: ee9a 543e 0350 1ebe 0d27 043e 2ad9 bbbe
00000260: ca18 693e 7f25 85be 4432 3dbb 203c 333e
00000270: 74f5 d2be 0d97 a1bd 91c4 6c3e 434b 5cbe
00000280: a8e8 66ba d517 96be 74cf 373e 1299 e6bd
00000290: 935a 8cbe e0b6 d13e 16ff 8a3e 4686 1ebe
000002a0: 4a89 12be 0973 cabe da1c 28be 4a15 ae3d
000002b0: 7632 aa3e 23d6 adbe b210 b3be a61c 84be
000002c0: 0182 c23e 92fa fbbe 311d ebbe a19c a4be
000002d0: 2e79 4ebc 51ba b2be 74c5 73be 7119 8dbe
000002e0: 2ba3 3dbe 294d cdbe 3dc2 9ebe df11 e83e
000002f0: 1fae c3bd 5cab ec3e 7191 b0be 587e 8fba
00000300: dec9 f23e 7edb 87be aef8 50be ef59 49bc
00000310: 8d23 c1be 7172 c7be 7fbc 6bbe 215e 55be
00000320: 9a31 ffbe 41e7 0fbd 91b0 94be 61f4 973e
00000330: d78e 393e 9773 5f3c ee12 afbe b9b6 653e
00000340: 92d3 d5ba 6d26 cfbe ec89 c1ba aa9e c1be
00000350: b1b5 04be e7c1 ec3e 4a18 103e 6c7b 8b3e
00000360: 1505 ce3e ca49 793e 824f 03be e289 75bd
00000370: c70c ddbe 822d c5bd 3ee1 e4be 2971 18bb
00000380: 8e07 a5be d7dd f9bd 95ec 6fbd 02c4 6ebe
00000390: 0f88 25be 4804 bf3e d48d a0be a8c1 e1be
000003a0: 554e ce3e 6658 5e3e c00d 9cbe 0a32 95be
000003b0: 9880 1ebb 98d7 ad3e 6771 983e f8f5 74be
000003c0: 756e 9cbe b6f4 b8be ffa9 77be 37b9 cd3e
000003d0: bc61 b2be 0b77 93be 68e9 24be 6eec 9bba
000003e0: 903c b6ba f6e8 02ba 754d 54be 8fdd b0be
000003f0: daed e93e 9828 813e 16f7 26be 75fb f33e
-0.44236514 -0.0012997352 -0.19051392 0.24596973 0.27797318 0.26313385 0.46065807 -0.16292445
0.118248425 0.15084743 0.2273639 -0.3782661 -0.0007089486 0.386833 -0.29051536 -0.15250093
-0.27520818 -0.36554277 -0.33104068 0.35497022 0.19889767 0.19224286 -0.21822348 0.29470807
0.42271316 0.47811383 0.3996222 -0.29857448 0.46482942 0.4110764 0.36956793 -0.40085983
-0.47774535 0.33580506 -0.2785731 0.33722016 0.4887485 -0.13805924 0.30055666 -0.0023608918
-0.39265147 -0.39372984 0.3448042 -0.23612042 -0.280123 -0.30415267 0.3844772 0.20371401
0.35209268 0.38998306 0.09455906 -0.369867 -0.39723748 0.38171726 0.32690698 0.13353738
0.23903675 -0.20561734 -0.15075429 0.30060884 0.21299332 -0.0009719137 0.4564058 0.33490175
-0.42995617 -0.3787521 -0.46901137 0.41829926 -0.36390996 0.24811666 -0.45484862 0.15911445
0.17606634 -0.20122251 0.17618656 -0.391093 -0.39730185 -0.20402338 0.2195636 0.05018563
0.29096892 0.42880142 -0.32605284 0.2867416 0.12949254 -0.19219716 -0.12516358 -0.075276084
-0.118245825 -0.29571578 0.3347209 -0.3851112 0.21880326 -0.102877505 0.32287842 -0.344961
-0.46947655 0.078022584 -0.020536797 0.2960232 0.48723686 -0.4922636 -0.34250522 -0.04821232
-0.2597588 -0.031496953 0.3765805 -0.446386 -0.4437065 0.28216264 0.34390286 0.465087
-0.25315532 -0.40635437 -0.4703189 -0.24678333 -0.27733088 0.28230184 0.20243062 0.3353065
-0.0025391728 -0.120923795 -0.26490366 -0.4377679 -0.44445184 0.37492305 -0.2650945 -0.15414016
0.29680413 0.24902491 -0.079252124 0.26984826 0.40744093 0.13705423 0.30254352 -0.41249412
0.21658796 0.36444977 -0.0014869221 0.06346924 0.38434267 0.39910364 -0.093422905 -0.27151778
0.46138236 -0.46246925 0.47454074 -0.0059015993 0.20762226 -0.1546021 0.12905522 -0.3668912
0.22763363 -0.2600517 -0.0028869072 0.17503405 -0.4120289 -0.07890139 0.23121859 -0.21513085
-0.0008808472 -0.29315057 0.17950231 -0.112596646 -0.27412853 0.40959835 0.2714774 -0.15480909
-0.14310184 -0.3954089 -0.16417256 0.08500154 0.33241624 -0.33952436 -0.34973675 -0.25803107
0.3798981 -0.49214607 -0.4592071 -0.32150748 -0.012602134 -0.34907773 -0.23805791 -0.27558473
-0.18519275 -0.4009793 -0.31007567 0.45326135 -0.09554695 0.46224487 -0.34485963 -0.0010947688
0.47419637 -0.26534647 -0.20407364 -0.012289508 -0.37722436 -0.389545 -0.23021124 -0.20836689
-0.4984253 -0.03513265 -0.2904096 0.29678634 0.18120895 0.013638399 -0.3419413 0.22432984
-0.0016313663 -0.40459004 -0.0014765835 -0.37816364 -0.12959935 0.46241686 0.14071766 0.272426
0.40238252 0.24344555 -0.12823299 -0.05994595 -0.4317381 -0.096278206 -0.44703096 -0.0023260808
-0.32232326 -0.12200516 -0.05857523 -0.23316959 -0.16165183 0.37307954 -0.31358206 -0.4409306
0.40294138 0.21713409 -0.3047924 -0.2913974 -0.0024185535 0.33953547 0.2977402 -0.23921955
-0.30553022 -0.361242 -0.24185942 0.4018037 -0.3484019 -0.2880176 -0.16104662 -0.0011896023
-0.0013903547 -0.00049938203 -0.20732673 -0.34544036 0.4568928 0.25226283 -0.16305193 0.47652784

sequential/batch_normalization_16/FusedBatchNormV3 f4 [256]
00000000: db6a 99bc 1b23 09bf 28f2 5dbe b70f 923e
00000010: 9f05 2c3e 1777 e13d 4058 e13e 3699 be3e
00000020: d6b1 1a3e 92c2 bfbd 72ac 27bf aa60 e03e
00000030: 8cb1 2abf 530e e23e fd99 af3e a41b 523e
00000040: a2e9 a5bd 9771 083f 77e0 c03f 1ff2 063f
00000050: ba6f 673e 4d24 80bf 9de0 92be 25d9 afbf
00000060: f2a5 67be 60a1 8ebd 00fb 3e3e c9ef 893f
00000070: be15 eebf 325a 56be fe54 a03e 0fcd 393f
00000080: 3969 6b3f 84a2 df3e dbeb 05bf cc15 a83d
00000090: 6fbc cbbf 782a 38bc 7608 1ebf 59f7 1a3c
000000a0: 297e c83e 0ec6 e6be c1d5 7d3f 9e07 1d3f
000000b0: 7051 88bf 4c79 afbe 5aaa af3e 8b97 753f
000000c0: ad88 873f fed2 303f 5407 6bbf 6d17 193f
000000d0: d96b a5bf 6207 ea3e d98e 4fbf 68a1 393e
000000e0: b8ca 7e3f 1fc8 76be d146 e23c af4b 71be
000000f0: e4c2 053f 107c f33e c755 c73d 4f72 cebe
00000100: 457a da3d 80b9 213f 05d4 89bf fff5 143f
00000110: 6864 a63e a02d c73e 79f7 61bf 231e 463f
00000120: a3ed 10bf c4e0 87bf b148 363f ab96 4e3f
00000130: ffe3 0abd d546 203f 60cf 323f ce2e d2be
00000140: 6f8f 393f 9f58 fc3d b3dd 71bf 4beb b73e
00000150: 5396 f03e 509d a73e 5fd4 41bf c0c2 a13e
00000160: 3f98 e03d 405f 39bf 6bde 57bf 908e 12bf
00000170: 0364 7bbf a2fa d23e b788 573e e536 47be
00000180: 2339 b83e 2bc3 093f e17a 24bd 0304 9fbe
00000190: cd3a 0240 3f10 51bf 3f94 4a3f 02d1 c0bf
000001a0: f608 87bf 1e34 46bd 35bb 76bf a26c d33e
000001b0: 2263 133d 0898 45bf 2ef5 94be a9cc 3c3f
000001c0: cb3b debe 45ba c33e 7e72 fcbe 645e fd3b
000001d0: f83a 703f cfde 4dbf b348 d2bd d104 f03e
000001e0: 87e1 4f3e 0331 4cbf 02e9 06bf c4e7 383f
000001f0: 047d 083f eb2e b73e a342 dcbe 13dc 7abf
00000200: 961b 7cbf 7067 b43f ff43 1f3f cbeb 68be
00000210: 58cd 21bf ab68 1ebf fe4a efbd 4f06 1fbf
00000220: a77d 8dbe 0ebd 02bf 31ef a8be ec09 483e
00000230: 3fb1 89bf 43ca 8cbe 77dc d63f 7c6b 65be
00000240: cc39 de3d eaea 3cbf 032a 533f d57f 583f
00000250: 8419 80bf 806c d0bc 2618 cf3e 78e2 3bbf
00000260: 8c70 1c3e 963e cc3e 37c9 8cbe 1ced babe
00000270: 3f8a 85bf a9a2 c63e 9b1a 18bf 93cf 063e
00000280: 2e29 1dbf c4b3 f23e 9b6c 10be f5dc 8dbf
00000290: 5bac 9bbf 81a2 7bbf c3b6 a3be 399a 963e
000002a0: 4cef b5bb 46bf 24bf b44e 34bf d5db 9ebb
000002b0: f7f9 a4bd d22e fc3e 2087 a7bf 059e a7be
000002c0: e86f 85bf 11aa b1be 5d03 403f 3a1d 64bf
000002d0: 2bb1 113f c875 163e dc98 9bbf 1684 05be
000002e0: 2659 123f 71b0 333f fb43 ca3e cf11 853f
000002f0: da32 553f b340 34bd 8705 13bf c765 24be
00000300: 1ebf aebe f0ae c3be 7c05 52bd 8164 6fbe
00000310: b78e 8bbf e36d 843d 237f 3bbe b6f8 92bf
00000320: 09d0 08bf f535 113e f5b3 6bbe c0c6 363f
00000330: 44ea 943e 47aa 50bf 7a0c 1ebf f125 88be
00000340: 749d 05be 0728 63be 1127 9bbe 3b5b ddbe
00000350: c44c 053f 1e12 ba3e ce49 e73e 90d4 96be
00000360: 6802 88bf 6514 d63d e33b a0bf 4103 21bf
00000370: 66f3 bb3e d067 693f 7d8c 3cbf 06fa 8e3e
00000380: 98bc dc3d ce4c 53bf 96d9 bc3e 378e eb3d
00000390: 4c8b 6a3e 2809 543e a07e 0f3f dff1 6abe
000003a0: ad79 323f fba1 ef3e 67dc 58bf a1e7 103d
000003b0: 761d a13f 89f9 99be 846c 233f 9ce5 b8be
000003c0: e85f 613e 26ab 8cbf 772c 843f a547 90bf
000003d0: 17e4 083f b313 8dbf 8736 183e 04ca 543f
000003e0: 6b8c c9be c3ef 32bd d2b9 7c3d b362 103f
000003f0: cf22 18bf 50dd f1be d9d1 1fbe 1270 3a3f
-0.01872771 -0.5356919 -0.21674407 0.28527614 0.1679902 0.11009043 0.44012642 0.37226266
0.15106902 -0.09363283 -0.65497506 0.4382375 -0.66677165 0.44151554 0.3429717 0.20518357
-0.081012025 0.53298324 1.5068501 0.527132 0.22601214 -1.0011078 -0.2868699 -1.3738142
-0.22621897 -0.069643736 0.18650436 1.0776302 -1.8600385 -0.20932844 0.31314844 0.7257852
0.9195743 0.43678677 -0.5231301 0.082072824 -1.591688 -0.011240594 -0.6173166 0.009458386
0.39158753 -0.4507298 0.9915429 0.6133975 -1.0649853 -0.3427223 0.34309655 0.9593436
1.0588585 0.6907195 -0.91808057 0.5980137 -1.2923537 0.45708758 -0.81077343 0.18127978
0.99528074 -0.24099778 0.027621659 -0.23564027 0.52250504 0.4755559 0.097331576 -0.40321586
0.10667852 0.63173676 -1.0767828 0.5818786 0.3249848 0.38901997 -0.8826824 0.77389735
-0.56612605 -1.0615468 0.7120467 0.8069865 -0.03390884 0.6260808 0.6984768 -0.41051334
0.7248449 0.12321591 -0.9447891 0.35921702 0.46989688 0.32737207 -0.7571468 0.31593895
0.10966539 -0.72410965 -0.8432376 -0.57248783 -0.9819948 0.41206843 0.21048246 -0.19454534
0.35981092 0.5381343 -0.04015625 -0.31057748 2.034839 -0.81665415 0.79132456 -1.5063784
-1.054961 -0.048389547 -0.96379405 0.41293818 0.035983212 -0.77185106 -0.29093307 0.73749787
-0.43404993 0.3822805 -0.493061 0.0077321995 0.9383998 -0.80418104 -0.102677725 0.46878675
0.20300876 -0.79762286 -0.5269929 0.72228646 0.5331576 0.35777983 -0.4301959 -0.97992057
-0.9847959 1.4094067 0.6221313 -0.22746198 -0.63203955 -0.6187846 -0.116842255 -0.62119
-0.27634928 -0.51069725 -0.3299499 0.19535035 -1.0757216 -0.27498063 1.678603 -0.22404283
0.10850868 -0.7379595 0.8248598 0.84570056 -1.0007787 -0.025442362 0.4044811 -0.7339244
0.15277308 0.398915 -0.27497265 -0.36509025 -1.0432814 0.38795975 -0.59415597 0.13165121
-0.6139096 0.47402775 -0.1410393 -1.1083056 -1.2161974 -0.98294836 -0.31975374 0.29414538
-0.005552208 -0.6435436 -0.7043259 -0.0048479834 -0.080554895 0.4925447 -1.3088112 -0.32737747
-1.0424776 -0.34700063 0.7500513 -0.89107096 0.5691096 0.14693367 -1.2156024 -0.13038668
0.5716728 0.70191103 0.3950499 1.039606 0.8328072 -0.044007014 -0.5743031 -0.1605445
-0.34130186 -0.38219404 -0.05127476 -0.23378183 -1.0902928 0.06466272 -0.18310218 -1.148215
-0.53442436 0.14180739 -0.23017867 0.7139702 0.2908498 -0.8150982 -0.6173779 -0.26591447
-0.13048345 -0.22183238 -0.30303243 -0.43233666 0.5207026 0.36341947 0.45173496 -0.29459047
-1.0625734 0.10453109 -1.2518276 -0.6289559 0.36709136 0.9117403 -0.7365187 0.27925128
0.10778159 -0.8253907 0.36884755 0.11501735 0.229047 0.20706618 0.5605259 -0.22943829
0.6971691 0.4680327 -0.8471131 0.03537715 1.2587116 -0.30073193 0.63837457 -0.36112678
0.22009242 -1.098973 1.032607 -1.1271864 0.5347304 -1.1021637 0.1486455 0.8312075
-0.39364943 -0.043685686 0.06170065 0.56400603 -0.59428114 -0.4723916 -0.15607394 0.72827256

sequential/batch_normalization_2/FusedBatchNormV3 f4 [16]
00000000: aa3f d03e 8dee 9cbf 870e 9a3e 2d39 da3d
00000010: abd8 8ebe 7471 5d3f aeb9 753d e8a3 06bf
00000020: b684 1cbf 6b53 aebe 6327 8dbe e987 0c3f
00000030: ea48 2ebf 0d7b d83e 93d1 68bf eb04 fdbd
0.40673572 -1.22603 0.30089208 0.10655437 -0.2789968 0.8650124 0.05999153 -0.5259385
-0.6114 -0.34048018 -0.27569112 0.5489488 -0.6808001 0.4228138 -0.90944785 -0.12354454

sequential/batch_normalization_3/FusedBatchNormV3 f4 [16]
00000000: 51e2 abbf 6425 efbd e272 2c3f 2f6d 943b
00000010: 4090 40bf 69c5 643f cd06 803f c54e 723e
00000020: d68d 923e efa1 003e 8505 003f 29aa e23e
00000030: 538a c3be 9e05 753f 358e 063f 95ab bcbe
-1.3428441 -0.116770536 0.673628 0.0045296173 -0.7522011 0.89363724 1.0002075 0.2366286
0.28623837 0.12561773 0.5000842 0.44270447 -0.3819147 0.95711696 0.5256074 -0.36849657

sequential/batch_normalization_4/FusedBatchNormV3 f4 [32]
00000000: 9af8 09be 6764 2b3f 2869 97be 4f14 ce3e
00000010: 5c20 a63f cc61 32bf f28a 0ebe f5b3 97be
00000020: 5c1a f63e da3c 1f3f 3c09 a0be 1380 46bf
00000030: d26c 7b3f 5e6f e0bd 8741 4ebf f202 6abf
00000040: 9b38 71bf 5228 6dbf b0e5 99bd 11c1 23be
00000050: e84a d8be 2bf7 043f 4280 8c3c 5ffa 86bf
00000060: d25f 263f 8795 b2be 0cbf e1be 0abc 4dbe
00000070: 0a83 e8bb 42a1 04bd 20b8 913d 7692 0abf
-0.1347374 0.66950077 -0.29572415 0.4024987 1.2978625 -0.69680476 -0.13920191 -0.29629484
0.48066986 0.6220223 -0.31257045 -0.77539176 0.9821292 -0.109587416 -0.80568737 -0.91410744
-0.94227 -0.9263965 -0.075145125 -0.15991618 -0.4224465 0.5193965 0.017151002 -1.0545157
0.6498996 -0.34879705 -0.4409107 -0.20091262 -0.007095699 -0.03238035 0.07115197 -0.5412973

sequential/batch_normalization_5/FusedBatchNormV3 f4 [32]
00000000: b126 00bd de1a 5bbe 90ef d73d a5eb 243f
00000010: d64f 8d3e 5f73 97be 2ca5 c9bd 2f12 fe3e
00000020: c28e febe 1757 6cbf b905 663e c370 b93b
00000030: be74 f7bd e732 fc3d 44d0 f33e c853 cd3c
00000040: 56c6 b93e 16c1 2c3c ae3b 483f e5bc 07be
00000050: ee2d 413e 3513 dabd 8fd7 22bf c689 1c3f
00000060: c1e7 123f 07b5 3fbe 202c 08bf bf2a 87bf
00000070: 37d4 f73d d549 213f c88e 36bf 0a6c 1abf
-0.0312869 -0.21396968 0.1054374 0.64422065 0.27599972 -0.2958021 -0.09845957 0.49623248
-0.4971829 -0.9232039 0.2246312 0.005659194 -0.12082814 0.12314396 0.47619832 0.025064364
0.3628413 0.010544082 0.78216064 -0.13255651 0.18865177 -0.10648195 -0.63610166 0.61147726
0.5738488 -0.187214 -0.5319233 -1.055992 0.12101024 0.63003284 -0.71311617 -0.60321105

sequential/batch_normalization_6/FusedBatchNormV3 f4 [32]
00000000: d397 1bbf 28cb 8ebe 9ada 41bf a101 b23e
00000010: 1d99 253e 63d7 40bf 9066 be3e aa5c 95bf
00000020: d32b 823e ff7b ae3e 2c99 38bf 1a51 bbbe
00000030: e7ba ccbc abec 49be a63e 1abf fb07 083e
00000040: 7731 ae3e f1b8 dc3e 16f9 803e 867c cb3b
00000050: 8ef9 2fbe c5ee cbbc f68d 883f e9b0 a1bd
00000060: 1e0e 83bf 1778 f53e 4b15 153e 79cd b2bd
00000070: 7b29 79bf e3ea 513d 074c 5dbf 86e8 dfbe
-0.6077854 -0.2788937 -0.75724185 0.34766868 0.1617169 -0.75328654 0.37187624 -1.1668904
0.2542406 0.34078977 -0.7210872 -0.36585313 -0.024991466 -0.19719188 -0.60251844 0.13284294
0.34022114 0.4310985 0.25190037 0.0062099127 -0.17185041 -0.024894128 1.0668323 -0.07895071
-1.0238683 0.47943184 0.14558904 -0.08730597 -0.9732892 0.051249396 -0.86444134 -0.4373209

sequential/batch_normalization_7/FusedBatchNormV3 f4 [32]
00000000: 6f92 32bf b895 393e 6787 89be 435c a73d
00000010: 209a 4a3f ca2d 37be ee26 f13e a203 afbe
00000020: 3219 eb3e fdb3 973c 29b2 a8be c82d 5b3f
00000030: e8cd 2cbd 3634 6ebe 644e ecbe de52 1ebf
00000040: deb6 09bf e8e6 1cbb cccd 8cbf 0373 953e
00000050: 6f25 bfbe f77a 893e e1a4 d03e 2217 343f
00000060: b6c1 0fbf d8ec 753e 7e63 9bbe a2f1 163c
00000070: 9d1a 1cbf 768e d93e 952d 69bf 8da9 7b3f
-0.6975469 0.1812352 -0.26861116 0.081718944 0.79141426 -0.17888561 0.47100013 -0.3418246
0.4591766 0.018518442 -0.32948425 0.8561673 -0.042188555 -0.23262104 -0.46153557 -0.61845195
-0.5379466 -0.0023941342 -1.1000304 0.2918931 -0.37333247 0.26851627 0.40750793 0.703478
-0.56154954 0.2401613 -0.30349344 0.009212883 -0.6097811 0.42491502 -0.9108518 0.9830559

sequential/batch_normalization_8/FusedBatchNormV3 f4 [64]
00000000: c794 17bf c637 68bf 9237 41bf 4bc6 7a3f
00000010: 154d 453f e8e1 023f 1d78 993d 8067 ad3f
00000020: c6be b0be 0f3c ab3e 7055 81be 18e7 a13e
00000030: 8aaa 0fbf 5811 8ebf 269c 9f3e f7f4 8bbe
00000040: 86f2 a2be f934 15bf c2b3 f5be 28b5 ecbe
00000050: a8ed 393f cea0 1b3f 4922 26bf 5ddc 0a3e
00000060: 234e 84bf f119 51bf f253 26bf 10a4 3a3f
00000070: a7cb 443c fb13 4fbe 4145 253f b4f0 fe3e
00000080: ba05 403f e644 d63f f363 eabe eba3 773e
00000090: 6b7b 98be 456a 623f 3345 993e 90e0 913f
000000a0: ea4c 29bd 03bb ad3d 363a ba3c 2cfc f6be
000000b0: cb6b 89be 1eb8 943f bdac be3f 6b09 7c3f
000000c0: 1a7d 5d3d 39e1 9cbe 99a7 b8be c25a da3e
000000d0: 58a1 89bd d61c 2f3c f1be 1bbf 6631 83be
000000e0: 03c7 e43d 3684 3d3f 6774 52bd 9252 f9be
000000f0: c62c f83b 42ba 853e 24de 783e 8708 0bbf
-0.5921139 -0.90710104 -0.7547542 0.9795882 0.7707074 0.51125956 0.07493613 1.3547211
-0.3452055 0.3344426 -0.25260496 0.31621623 -0.56119597 -1.1099043 0.3117382 -0.2733533
-0.31825656 -0.58283955 -0.47988707 -0.4623196 0.7262826 0.60792243 -0.64896065 0.13560624
-1.0336345 -0.8168021 -0.6497184 0.7290659 0.012011445 -0.20222466 0.645588 0.49793017
0.7500874 1.6739776 -0.4577938 0.24183623 -0.2978166 0.88443404 0.29935607 1.1396656
-0.041333117 0.08482935 0.022732835 -0.48239267 -0.26840052 1.1618688 1.4896466 0.9845187
0.054074384 -0.3064058 -0.36065367 0.42647368 -0.06720227 0.010688027 -0.6083823 -0.25623626
0.11170771 0.7402986 -0.05138054 -0.4869581 0.007573697 0.26118666 0.2430349 -0.54309887

sequential/batch_normalization_9/FusedBatchNormV3 f4 [64]
00000000: ac69 44bf 8345 06bf a6dc 103f 7eb5 133f
00000010: 177f 8bbe 3adc 25bf fe7e c3be 2050 3939
00000020: 778c c73e 4c34 4abd 2aac 283f f388 f3be
00000030: ad02 dabe 3fa6 c2bd c693 1ebf 9a24 04bf
00000040: 61da 7abe 24dc 903e e3e9 363f 69b2 7fbe
00000050: 454a d13e a950 d73e 80c2 703e 3995 ad3d
00000060: bc2c aabd f75e 653f 082f 0ebf 41ca 993e
00000070: b87a 3ebd 4a04 9fbf a1f2 1e3e 215d 6bbf
00000080: ed8d ddbd 2ff1 803f 9166 57bf 88f0 233f
00000090: 0cb8 41bf 678a c03e bd97 9fbc c677 043f
000000a0: 788d 80be a046 0cbf 84de 873c 36aa 0a3f
000000b0: 44dc 473e a207 76bf 52cc 1dbf a349 04be
000000c0: 3826 c3be b2bf f7be 8236 9a3d a220 9e3e
000000d0: 8a50 8ebe 67bf 3b3d 1155 d63e baf2 4fbe
000000e0: 6f5f 053f 5662 5a3f 6454 43bf 57fe 203e
000000f0: 370e 0dbf fc2f bd3e ab53 243e bbef 533d
-0.7672374 -0.52449816 0.5658668 0.5769881 -0.272454 -0.64789164 -0.38182825 0.00017672824
0.38974354 -0.04936628 0.658877 -0.4756542 -0.42580166 -0.09504365 -0.61944234 -0.5161835
-0.24497367 0.28292954 0.7145063 -0.24970402 0.40876976 0.42053726 0.23511696 0.084757276
-0.08309314 0.8959803 -0.55540514 0.3003712 -0.046503752 -1.2423184 0.15522243 -0.9193898
-0.10818086 1.0073603 -0.8414088 0.64038897 -0.7567146 0.37605593 -0.019481534 0.5174526
-0.25107932 -0.54795265 0.016585596 0.5416597 0.19517618 -0.96105397 -0.61639893 -0.12918715
-0.38115096 -0.4838844 0.07529928 0.30884272 -0.2779582 0.045836832 0.41861776 -0.20307437
0.52098745 0.853063 -0.76300645 0.15722023 -0.55099815 0.36950672 0.16047542 0.051742297

sequential/dense/MatMul f4 [2, 256]
00000000: d47f c13c c307 fd3d 6890 76bd fb44 ca3d
00000010: 066e d2bd 7ca8 cf3d b6d7 20bc 5af3 003d
00000020: c9c0 dcbd 8c4b 04bd 6db6 bfbc 36cc a43c
00000030: 1e00 48bb b5f1 bf3d 23d4 2fbd 15ff 75bd
00000040: e8a9 923c 6771 2cbc d65e f53c f4e7 58bd
00000050: 311a c8bd 1f72 b3bd f5d2 c23d 6dd5 ccbc
00000060: e60b aabd 92b6 ce3b b4c0 d1bd 728a 0fbe
00000070: 4fda 883d b33f e33c dd42 08be b1fa 3b3d
00000080: 13d6 b83b dada 0abe 166b c6bd 082f ca3d
00000090: 50f0 16bc bf0c f23d 083b d1bc f1ba ad3c
000000a0: 554f 00be 1999 e63c 636b dcbc ea76 d53d
000000b0: 2140 cd3d 90b3 793d ed9f 073d 7870 b23d
000000c0: 7398 0ebe 1046 15bc d608 e03d 3177 883d
000000d0: 2cce 703c f9d6 04be 2582 ec3d bbe3 5e3d
000000e0: cf24 4fbd 5dc2 a8bd 8c58 8f3d 9298 94bd
000000f0: b5ca 443d f430 14be 094c 083e 641f 0b3e
00000100: 9a0f ec3d 59b6 e63d dbea c4bd b76b 803d
00000110: c9ce e6bd 9792 82bd 551c 093c f94d b0bd
00000120: f8e9 5aba 0179 1b3d c891 da3d c955 e53d
00000130: a2b6 ce3d 75a9 51bc 3ebd 17be 0d8c da3d
00000140: b416 98bd 9831 eb3d 9060 bc3c 5f17 f73c
00000150: 9eae 92bd d9ab 003d 94c7 d83d d35c 2dbc
00000160: ad90 44bd 8ac3 82bd 2661 ad3d 3958 f1bc
00000170: 4898 c5bb 4406 e03d fe14 9c3d 0816 04be
00000180: a4f8 af3d f655 06be ad22 cc3d 8117 823d
00000190: 6ec2 473d e316 9e3d 65f0 2ebd c9fb e4bd
000001a0: d3a6 93bd c00b 093e 7aa2 d9bd 5f3f 853d
000001b0: 0d60 edbd 45b2 f63d fda3 0f3e f7d6 ab3c
000001c0: d657 863d a683 42bc fd1d babc 66c7 acbd
000001d0: ac93 fe3d 8d89 233d 3a8a d23d 6df1 453d
000001e0: 1818 793d ba82 a1bc 8670 89bd 4d51 5fbd
000001f0: a20f b0bd 2852 7dbd fec5 c33b 58b9 d9bc
00000200: 7213 c1bd 3700 20bc d85d d3bd 7783 4dbc
00000210: ce1b 163d 154b 5e3d 0286 97bd d962 eb3d
00000220: 92f1 033e 8875 563c 1b6c ad3d e623 e93d
00000230: a92d d43d 02a8 f73d e23d fabd ff07 12bd
00000240: 6405 d43c 0b02 0a3e 657a 02be 30ca 83bd
00000250: 2e16 053d 8666 03be 5af3 c13d db35 fb3d
00000260: 4e93 e7bd 110e 083e 3498 4f3c 61b3 1fbe
00000270: 53a8 7bbd 7f28 df3d 7818 983c fb0d 86b9
00000280: ed35 193d ce95 1a3d 1748 44bd 6287 1e3d
00000290: b978 a5bd 58cc adbd c23b 88bb 9faf c1bc
000002a0: a3ad 063d bb9f 393d 8a7b 5d3c ab88 cd3b
000002b0: 541b c5bc bba5 1a3d 9728 e23d 140f 173e
000002c0: 8ba8 eb3d b210 0ebd 7ff7 ca3d a2a6 02be
000002d0: f4a6 ff3d 27e8 36bd 2264 163e 71bd 41bd
000002e0: e61c ec3d 2ea4 07bd 98d4 073e 7ce7 3bbd
000002f0: ce62 9abd 4166 063e c37a edbd 0f2d c13d
00000300: 1799 88bd 3c5b 8ebc 5152 fe3d 0300 d9bc
00000310: 7e30 453d 79f8 14bd 35ae 0a3e 302d 34bd
00000320: c941 5b3d 5ea8 f43d 486f 39bd d365 93bd
00000330: bd29 4a3c 542f f83d 646f 643c 4e96 bfbd
00000340: fc0b 993d b8e5 f7bd 3e56 043c f342 53bc
00000350: c231 15be 8975 cdbd de1a f3bd 6d4c 1c3b
00000360: e66a 4ebd ed3f 0fbe 5010 b13d ec8a d9bd
00000370: 3f63 c5bd b3a6 d5bd 68e9 c0bd 80b2 013d
00000380: e498 10be 003b ecbd 6e5a 2b3d 1606 c8bc
00000390: 8274 ef3d 9250 393c 9c85 073e 9f32 7b3d
000003a0: 54d4 993d 43db 02be 3d20 7e3d f9a0 d5bd
000003b0: e3d5 443d 3718 da3d 3721 adbd 94a0 963d
000003c0: e1ee c1bc 5f9b 913c d2b9 c1bc 8423 25bc
000003d0: 5db4 debd e5cb 623d 5465 3e3d bcaa f3bd
000003e0: b495 6d3c 94cf e2bd d69c fdbc 2271 25bd
000003f0: 5987 0d3e 9f6d 9ebd 4ec3 f8bb 732c 0d3d
0.023620524 0.12354996 -0.06019631 0.09876438 -0.102748916 0.10139558 -0.0098170545 0.031482078
-0.10778958 -0.03229861 -0.023402417 0.020116907 -0.0030517648 0.09372274 -0.04292692 -0.06005772
0.017903283 -0.010525084 0.029952448 -0.052955583 -0.097706206 -0.08762001 0.09512893 -0.025004113
-0.08303051 0.006308385 -0.10241833 -0.14017656 0.06682264 0.027740335 -0.13306756 0.045893375
0.005640754 -0.13560048 -0.09688394 0.09872252 -0.009212568 0.118188374 -0.025540844 0.021207305
-0.12530263 0.028149175 -0.026906675 0.10423072 0.10021997 0.06096226 0.0331115 0.08712858
-0.13925342 -0.0091109425 0.10939185 0.06663359 0.014697593 -0.1297263 0.115482606 0.0544164
-0.050572213 -0.08240197 0.06999311 -0.07255663 0.04804488 -0.14471799 0.13310255 0.13586193
0.11526413 0.11265249 -0.096151076 0.06270545 -0.1126991 -0.06375616 0.008368571 -0.08608622
-0.0008350904 0.037957195 0.10672337 0.11198003 0.10093428 -0.012796749 -0.14818284 0.10671244
-0.07426205 0.11484069 0.022995263 0.030162511 -0.07162212 0.031413887 0.105849415 -0.010581213
-0.047989536 -0.06384952 0.08465795 -0.029461013 -0.006030116 0.10938695 0.076211914 -0.12899029
0.08592346 -0.13118729 0.099675514 0.06352139 0.048769407 0.07719209 -0.042709727 -0.11180837
-0.072095536 0.13383389 -0.10626693 0.06506228 -0.11590586 0.12045721 0.140274 0.020976527
0.06559722 -0.011872208 -0.022719378 -0.0843647 0.1243051 0.0399261 0.10280271 0.048325945
0.060813993 -0.019715656 -0.06710915 -0.054520894 -0.08596732 -0.06184593 0.0059745302 -0.026577637
-0.09427537 -0.009765676 -0.10320634 -0.012543551 0.03664761 0.054270823 -0.07398607 0.11493463
0.1288512 0.013089545 0.08467885 0.113838 0.103602715 0.12092592 -0.122188345 -0.035652157
0.025881477 0.13477342 -0.12742002 -0.064350486 0.032491855 -0.12832078 0.09470244 0.122661315
-0.11307393 0.13286616 0.012670565 -0.15595771 -0.061439823 0.10896396 0.018566355 -0.00025568888
0.037404943 0.03774052 -0.047920313 0.03870333 -0.08079667 -0.08486241 -0.0041575143 -0.023643313
0.032880437 0.045318346 0.013518224 0.0062723956 -0.024060883 0.03775571 0.11042898 0.14751846
0.115067564 -0.03468389 0.099104874 -0.12758878 0.12483016 -0.04465499 0.14686635 -0.047299806
0.115289494 -0.03311556 0.13264692 -0.045875058 -0.07538377 0.13124944 -0.115956806 0.09432422
-0.066698246 -0.017377488 0.12418044 -0.026489263 0.04814195 -0.036369774 0.13543017 -0.043988407
0.053529534 0.11946176 -0.04527214 -0.07197156 0.012339053 0.12118402 0.013942573 -0.0935484
0.07472989 -0.12104362 0.008077202 -0.01289438 -0.14569762 -0.10032184 -0.11870359 0.0023849264
-0.050394915 -0.1398923 0.086456895 -0.106222 -0.0963807 -0.10432186 -0.09419519 0.03166437
-0.14120823 -0.11534691 0.041834287 -0.024416965 0.11692144 0.011310713 0.13234562 0.061327573
0.075112015 -0.12778954 0.062042464 -0.10431094 0.04805554 0.1064915 -0.08453601 0.073548466
-0.023673477 0.017774282 -0.023648176 -0.010079268 -0.10874245 0.05537023 0.046483353 -0.118977994
0.014501024 -0.11074749 -0.030958574 -0.040391095 0.13821162 -0.07735752 -0.0075916415 0.03446622

sequential/conv2d/Conv2D f4 [8, 4, 4, 1]
00000000: 6ebb 953a 5164 903a fd19 b8bb 6568 77bb
00000010: 0943 f339 129f 63bb 93f1 733a 4f11 eaba
00000020: 11d8 4fbb e844 82bb 17ba 57b8 a12f 9dbb
00000030: b00c a439 b702 123b bb0f b23a 368f 94bb
00000040: 3137 2039 563f bebb e5bc ec3b 6381 443b
00000050: 00c8 fe3b e4f4 9abb 5006 8e3b a722 813b
00000060: a857 e4bb 3f21 043b d582 d1ba b45b f13b
00000070: f434 943a 5327 4339 af8f 42bb a02d d93b
00000080: 3f5e b8bb 12ec 00ba 50be 153c 0cf9 5d3b
00000090: 9f57 8bbb 47c1 113c f9d6 0abc ca4f 1c3c
000000a0: 8d84 973a 2cb5 713a 5240 aa3a f48d 1a3b
000000b0: 9539 e53b 18e7 a3ba 0b31 1dbb 9e44 a73a
000000c0: 5c80 683b 535a 9a3c d621 d83b 5c68 46bc
000000d0: fe4d 06bc a70a 17bb bc32 8e3c 0640 923b
000000e0: ad53 563b 1f27 a2bc d3ae 9cbc fa1b f4ba
000000f0: 84fa a0bc 751f c63b 0141 873c 4dd1 e03b
00000100: a17a d53a 59b6 ffba c5d5 41bb cac1 84bb
00000110: 884f 97bb 93cf 993b 3fc0 a5bb fe1e 90bb
00000120: ab1b 983b f22e 053a 30b9 cdba 9b8c 57bb
00000130: 2ae2 8b3b 0d14 63bb 9be0 9cb9 d3d4 a1bb
00000140: 8ef5 de3a 29a6 943b 69d7 52bb ece3 053c
00000150: 4c60 063c b4a5 d3bb 0f4a 353b af37 093c
00000160: b5f7 093c a9b7 17bc c894 b53b 60bf 6dba
00000170: 97d0 10bc a582 a8ba e894 d93b 5605 a0ba
00000180: d4e7 0b3b bad4 0339 f2d7 1c3b 9697 d33b
00000190: c1e0 293c 7013 923b 69e7 b8bb a9a0 5dbb
000001a0: 426d 143c ad54 0d3c 8b9b 88bb 0368 443a
000001b0: ee3b 49bb 2117 dfba 2357 e4bb eacb 9ebb
000001c0: 6292 a6bb 0037 87bb b9bd 043b abe8 8a3b
000001d0: f176 aabb ef06 8fbb 991b f73a a146 61bb
000001e0: dfdb 91bb dc4c d2ba 8d61 bd3b 2592 99bb
000001f0: 984a bdba ef13 a9bb f84f 663a cf86 263b
0.0011423656 0.0011016225 -0.0056183324 -0.0037751433 0.00046398517 -0.0034732264 0.0009305712 -0.0017857942
-0.003171448 -0.0039754994 -5.1433304e-05 -0.0047969376 0.0003128997 0.002227945 0.001358501 -0.0045336736
0.0001527935 -0.00580589 0.0072246664 0.0029984347 0.0077753067 -0.0047289003 0.0043342486 0.0039408985
-0.0069684573 0.0020161418 -0.0015984426 0.007365668 0.0011307285 0.00018611299 -0.0029687693 0.0066277534
-0.0056264694 -0.000491799 0.009139612 0.0033870367 -0.0042523886 0.008896179 -0.008474105 0.009540508
0.0011559889 0.0009220417 0.001298914 0.0023583146 0.0069953897 -0.0012504784 -0.002398553 0.0012761538
0.0035476899 0.018841898 0.0065958304 -0.012109842 -0.008197306 -0.002304712 0.017358176 0.0044631986
0.0032703683 -0.019794045 -0.019126331 -0.001862406 -0.019650705 0.0060462304 0.016510488 0.006860888
0.0016287157 -0.00195093 -0.002957688 -0.004051422 -0.004617635 0.004693934 -0.005058318 -0.004398226
0.00464197 0.0005080543 -0.0015695449 -0.0032890204 0.004268904 -0.0034649402 -0.00029921983 -0.0049387007
0.0017010437 0.0045364094 -0.0032171851 0.008172017 0.00820167 -0.0064589623 0.002766255 0.008375092
0.008420874 -0.009260097 0.0055414177 -0.00090693496 -0.008838794 -0.0012856318 0.0066400655 -0.0012208621
0.0021347897 0.0001257238 0.0023932424 0.0064572794 0.010368527 0.0044578835 -0.0056428206 -0.0033817685
0.009059252 0.008626145 -0.004168933 0.00074923056 -0.0030705887 -0.0017020443 -0.0069683953 -0.004846086
-0.005083368 -0.0041264296 0.0020254685 0.004239162 -0.005202167 -0.00436484 0.0018852829 -0.0034374373
-0.0044512595 -0.0016044634 0.005779451 -0.0046866112 -0.0014441786 -0.005159847 0.000878572 0.0025409942

sequential/conv2d_1/Conv2D f4 [16, 1, 1, 8]
00000000: aa0b 04bf af97 c8bc f309 8f3e 413e 71bf
00000010: f04d c43e 69b9 61bf 01d9 85bd 90f0 373e
00000020: bc34 f13e c861 a53f 2508 b0bd df09 85be
00000030: 6a07 643f a4b8 9fbe efad 45bc ea24 8b3f
00000040: e2ea 05be 0fdf 62be ff5c 03bf 5286 e23e
00000050: 4d02 033f c0d4 debc 51d7 453e 483f 71bf
00000060: c07f a7bf 0e37 9c3e 8527 0abf 0a7c c4bd
00000070: 8907 083f 3f67 a5bf a142 9b3f bd13 b13e
00000080: 23b8 18bf 2e6d f93e 41f0 3abf 6787 3b3e
00000090: 38a9 123f 641c 5c3f 0924 5b3e 0806 fdbd
000000a0: 09de 06be fc23 42bf a2c0 d1bd d8d7 103e
000000b0: 5f06 0f3f a938 8abf 876d fbbe dbdb 3fbf
000000c0: f639 15bd ee5f 513f 1755 b1bf 3e06 04bf
000000d0: 8e02 823f 16a3 68bf a9ef 6bbe 4fc8 1a3f
000000e0: 2a1c f13e 4001 0abf 2dee 193f 76a2 4fbf
000000f0: b549 a93e 1b46 1c3f dc5c 3bbe b808 573f
00000100: de26 393f 269c ccbd 44ea 8f3d 32aa 57bf
00000110: cf20 533f 8d03 ed3e be4e 543f 9b9e 1bbe
00000120: 3ebb 7e3f e54c 7a3f ae8f 9dbe 2b2e 273f
00000130: 596b 3d3e 8542 9c3e 9d9b 1cbf 48e4 4dbf
00000140: 4d70 573f d778 36be fc95 e83e 8e84 773e
00000150: 413d b2be 1301 323f 6597 273f 7654 80bf
00000160: 9b3d b1be 66f7 cfbe f46c abbe 5a0b df3e
00000170: 0157 363f 4834 32bf 3f9a babe 7cbe 33bf
00000180: fad2 8e3f beef dabe 2c09 843f 11f3 d3be
00000190: f153 0d3f 1901 b23e 1ad9 89bf 03a6 273f
000001a0: f855 2e3e cdd5 e53d c985 0dbf 6d23 8dbe
000001b0: 976a 7e3f c9a6 f0bd 50c7 debe d250 82bf
000001c0: 948c 643f 1204 673e 0b31 0bbe 8be8 70bf
000001d0: cb5d 8d3f 56dc 083f f736 14be 7e3d 533f
000001e0: 7f2f 7c3e 310d 253f 9ebc 2ebf fe7c 453f
000001f0: 7d8d 143f 2bab 56bf 05de 533e a043 0dbf
-0.515803 -0.02448639 0.27937278 -0.94235617 0.38340712 -0.8817354 -0.06535531 0.17962861
0.47110546 1.2920465 -0.085953034 -0.25984094 0.8907381 -0.31195557 -0.012065395 1.087064
-0.13077882 -0.22155403 -0.51313776 0.44243103 0.51175386 -0.027201056 0.19320418 -0.94237185
-1.3085861 0.30510753 -0.5396655 -0.09593971 0.531365 -1.2922133 1.2129709 0.34585372
-0.5965597 0.4871611 -0.7302285 0.1831337 0.5728946 0.8598082 0.21400465 -0.12354666
-0.13170637 -0.7583616 -0.1024182 0.14144838 0.55869097 -1.0798541 -0.49107 -0.7494485
-0.03643223 0.81787 -1.3854092 -0.51572025 1.015703 -0.9087385 -0.23040642 0.60461897
0.470918 -0.5390816 0.6012905 -0.8110727 0.33064047 0.6104447 -0.18297142 0.8399768
0.7232493 -0.099907205 0.070271045 -0.8424407 0.82471937 0.46291772 0.8293265 -0.15197222
0.9950446 0.9777358 -0.3077368 0.6530482 0.18497981 0.305195 -0.6117495 -0.80426455
0.8415573 -0.17819534 0.4542693 0.2417166 -0.34812358 0.6953289 0.65465385 -1.0025775
-0.34617314 -0.40618438 -0.33481562 0.43563348 0.7122651 -0.69611025 -0.36445805 -0.7021253
1.1158135 -0.42761034 1.0315299 -0.41396382 0.5520621 0.34766462 -1.0769379 0.6548769
0.17024982 0.1122242 -0.55282265 -0.2756609 0.99381393 -0.11750562 -0.43511438 -1.0180914
0.89277005 0.22560146 -0.13592927 -0.9410483 1.1044248 0.53461206 -0.14474092 0.82515705
0.24627493 0.64473253 -0.68256557 0.7714385 0.58028394 -0.8385493 0.20690162 -0.5518131
