kernel_vs_latency/mobilenet_gray_32_k4_quant.tflite (tflite, 186192 bytes, 18 tensors)

sequential/dense/MatMul i1 [2, 256] scale=0.0012280135 zero_point=0
00000000: 1365 cf50 ac53 f81a a8e6 ed10 fe4c ddcf
00000010: 0ff7 18d5 b0b9 4dec bc05 ad8e 3617 9425
00000020: 0592 b150 f860 eb11 9a17 ea55 5232 1b47
00000030: 8ff9 5936 0c96 5e2c d7bd 39c5 278a 6c6f
00000040: 5e5c b233 a4cc 07ba ff1f 575b 52f6 8757
00000050: c45e 1319 c61a 56f7 d9cc 45e8 fb59 3e97
00000060: 4695 5134 283f dda5 c56d a935 a262 7211
00000070: 35f6 edbb 6521 5427 32f0 c9d4 bace 05ea
00000080: b3f8 acf6 1e2c c45e 690b 455d 5462 9ce3
00000090: 156e 98cc 1a98 4d64 a46c 0a81 ce59 0f00
000000a0: 1e1f d920 bebb fded 1b25 0b05 ec1f 5a78
000000b0: 5ee4 5198 66dc 78d9 5ee5 6cdb c36b a24d
000000c0: caf2 65ea 27e2 6edc 2c61 dbc5 0a63 0bb4
000000d0: 3d9d 07f5 89ae 9f02 d78e 46aa b2ab b31a
000000e0: 8da2 22ec 5f09 6c32 3d98 33ab 2757 bb3c
000000f0: ed0e edf8 a72d 269f 0ca6 e7df 71c1 fa1c
0.023332257 0.12402937 -0.060172662 0.09824108 -0.10315314 0.10192513 -0.009824108 0.031928353
-0.10806519 -0.031928353 -0.023332257 0.019648217 -0.002456027 0.09332903 -0.042980473 -0.060172662
0.018420203 -0.011052122 0.029472325 -0.05280458 -0.09824108 -0.08718896 0.09455704 -0.02456027
-0.08350492 0.0061400677 -0.10192513 -0.13999355 0.06631273 0.028244311 -0.13262546 0.0454365
0.0061400677 -0.13508148 -0.09701307 0.09824108 -0.009824108 0.1178893 -0.025788285 0.02087623
-0.12525739 0.028244311 -0.027016297 0.10438115 0.10069711 0.061400678 0.033156365 0.08718896
-0.13876553 -0.008596094 0.10929321 0.06631273 0.0147361625 -0.13016944 0.115433276 0.054032594
-0.050348554 -0.08227691 0.069996774 -0.0724528 0.04789253 -0.1449056 0.13262546 0.1363095
0.115433276 0.112977244 -0.09578506 0.062628694 -0.112977244 -0.063856706 0.008596094 -0.08596095
-0.0012280135 0.03806842 0.106837176 0.11174923 0.10069711 -0.012280135 -0.14858964 0.106837176
-0.07368081 0.115433276 0.023332257 0.030700339 -0.07122479 0.031928353 0.10560916 -0.011052122
-0.04789253 -0.063856706 0.084732935 -0.029472325 -0.0061400677 0.10929321 0.07613684 -0.12894142
0.08596095 -0.13139746 0.099469095 0.063856706 0.04912054 0.077364855 -0.042980473 -0.11174923
-0.0724528 0.13385348 -0.106837176 0.06508472 -0.115433276 0.120345324 0.13999355 0.02087623
0.06508472 -0.012280135 -0.023332257 -0.084732935 0.12402937 0.040524445 0.10315314 0.04789253
0.061400678 -0.019648217 -0.06754074 -0.054032594 -0.08596095 -0.061400678 0.0061400677 -0.027016297
-0.09455704 -0.009824108 -0.10315314 -0.012280135 0.036840405 0.054032594 -0.07368081 0.115433276
0.12894142 0.0135081485 0.084732935 0.114205256 0.10315314 0.120345324 -0.122801356 -0.035612393
0.025788285 0.13508148 -0.12771341 -0.063856706 0.031928353 -0.12771341 0.09455704 0.122801356
-0.112977244 0.13262546 0.012280135 -0.15595771 -0.061400678 0.10929321 0.018420203 0.0
0.036840405 0.03806842 -0.04789253 0.039296433 -0.08104889 -0.084732935 -0.0036840406 -0.023332257
0.033156365 0.0454365 0.0135081485 0.0061400677 -0.02456027 0.03806842 0.11052122 0.14736162
0.115433276 -0.034384377 0.099469095 -0.12771341 0.12525739 -0.04420849 0.14736162 -0.04789253
0.115433276 -0.033156365 0.13262546 -0.0454365 -0.07490882 0.13139746 -0.115433276 0.09455704
-0.06631273 -0.017192189 0.12402937 -0.027016297 0.04789253 -0.036840405 0.13508148 -0.04420849
0.054032594 0.11911731 -0.0454365 -0.0724528 0.012280135 0.121573344 0.0135081485 -0.09332903
0.07490882 -0.121573344 0.008596094 -0.0135081485 -0.14613362 -0.10069711 -0.11911731 0.002456027
-0.050348554 -0.13999355 0.08596095 -0.10560916 -0.09578506 -0.10438115 -0.09455704 0.031928353
-0.14122155 -0.115433276 0.04175246 -0.02456027 0.11666129 0.011052122 0.13262546 0.061400678
0.07490882 -0.12771341 0.062628694 -0.10438115 0.04789253 0.106837176 -0.084732935 0.07368081
-0.023332257 0.017192189 -0.023332257 -0.009824108 -0.10929321 0.05526061 0.046664514 -0.11911731
0.0147361625 -0.11052122 -0.030700339 -0.040524445 0.13876553 -0.077364855 -0.0073680812 0.034384377

sequential/conv2d/Conv2D i1 [8, 4, 4, 1]
00000000: 1a19 81ab 0ab1 15d8 b8a6 ff94 0732 1f9a
00000010: 02a1 7631 7fb3 4740 8e21 e678 1203 d06c
00000020: b5f9 7a2d c776 8f7f 0f0c 111f 5def e011
00000030: 1779 2ab2 cbf1 6f1d 1581 85f4 8227 6a2c
00000040: 29cf b69a 8c76 8192 750d d9ad 6ba9 f884
00000050: 173e d470 70a7 2673 7381 4cf4 87ee 5bef
00000060: 1a02 1d4f 7f37 bbd7 6f6a cd09 daeb abc5
00000070: 90a5 2d5d 8ea0 29b4 9edd 7f99 e08f 1338
26 25 -127 -85 10 -79 21 -40
-72 -90 -1 -108 7 50 31 -102
2 -95 118 49 127 -77 71 64
-114 33 -26 120 18 3 -48 108
-75 -7 122 45 -57 118 -113 127
15 12 17 31 93 -17 -32 17
23 121 42 -78 -53 -15 111 29
21 -127 -123 -12 -126 39 106 44
41 -49 -74 -102 -116 118 -127 -110
117 13 -39 -83 107 -87 -8 -124
23 62 -44 112 112 -89 38 115
115 -127 76 -12 -121 -18 91 -17
26 2 29 79 127 55 -69 -41
111 106 -51 9 -38 -21 -85 -59
-112 -91 45 93 -114 -96 41 -76
-98 -35 127 -103 -32 -113 19 56

sequential/conv2d_1/Conv2D i1 [16, 1, 1, 8]
00000000: bafd 2681 3489 f718 2e7f f8e6 58e1 ff6b
00000010: eee2 bb3c 45fc 1a81 811e ccf7 3483 7622
00000020: a848 941b 557f 20ee f1a7 f411 4281 c6a8
00000030: fd4b 81d1 5dad eb37 47ae 5b85 325c e47f
00000040: 6df1 0b81 7c46 7de9 7f7d d953 1827 b299
00000050: 6be9 3a1f d458 5381 c2b8 c44e 7f84 bf83
00000060: 7fcf 75d1 3f28 854b 150e bbde 7cf1 ca81
00000070: 671a f094 7f3d ef5f 2562 9975 5881 1fac
-70 -3 38 -127 52 -119 -9 24
46 127 -8 -26 88 -31 -1 107
-18 -30 -69 60 69 -4 26 -127
-127 30 -52 -9 52 -125 118 34
-88 72 -108 27 85 127 32 -18
-15 -89 -12 17 66 -127 -58 -88
-3 75 -127 -47 93 -83 -21 55
71 -82 91 -123 50 92 -28 127
109 -15 11 -127 124 70 125 -23
127 125 -39 83 24 39 -78 -103
107 -23 58 31 -44 88 83 -127
-62 -72 -60 78 127 -124 -65 -125
127 -49 117 -47 63 40 -123 75
21 14 -69 -34 124 -15 -54 -127
103 26 -16 -108 127 61 -17 95
37 98 -103 117 88 -127 31 -84

sequential/conv2d_2/Conv2D i1 [32, 1, 1, 16]
00000000: 047f 39c3 ae9c de6c 24e5 fc5c 3815 93f9
00000010: 24a4 5b10 af76 545e daca bb81 8a9a eeb1
00000020: 6903 6fc6 81e9 72cb f866 b478 af50 9712
00000030: 118e fa20 7f82 e0ab b6c7 8a70 4e58 a820
00000040: 8488 81b5 8791 8767 159a 1a86 7814 7d9b
00000050: b270 f9da 515c 7f0b 6bec 7b92 12be cd34
00000060: 7fb8 4795 c931 2ac1 ee48 68f1 b119 efd3
00000070: 3348 c924 b4ce ce9e 437f 40a1 f705 6c50
00000080: 4307 c6cd d696 2403 90a0 84ec 7f79 be30
00000090: e3ba 8a1c 56ee bafd 100c d0cc 4f81 9f7a
000000a0: bef5 7b78 c2ea 3a15 947f 9d37 c0cc 3c4e
000000b0: 2f35 7fc5 7c1d c59b 135b f62b 9226 176e
000000c0: 5956 d088 44ba 997f 9fa4 c394 9bca 5bbd
000000d0: a5bd bc47 6b52 cafc ac63 612c 8176 f4bb
000000e0: 4e5a 8906 7fad 6c17 b349 26ae e049 4c75
000000f0: fb7f 1710 48cd 085f f508 893d 3763 22ce
4 127 57 -61 -82 -100 -34 108
36 -27 -4 92 56 21 -109 -7
36 -92 91 16 -81 118 84 94
-38 -54 -69 -127 -118 -102 -18 -79
105 3 111 -58 -127 -23 114 -53
-8 102 -76 120 -81 80 -105 18
17 -114 -6 32 127 -126 -32 -85
-74 -57 -118 112 78 88 -88 32
-124 -120 -127 -75 -121 -111 -121 103
21 -102 26 -122 120 20 125 -101
-78 112 -7 -38 81 92 127 11
107 -20 123 -110 18 -66 -51 52
127 -72 71 -107 -55 49 42 -63
-18 72 104 -15 -79 25 -17 -45
51 72 -55 36 -76 -50 -50 -98
67 127 64 -95 -9 5 108 80
67 7 -58 -51 -42 -106 36 3
-112 -96 -124 -20 127 121 -66 48
-29 -70 -118 28 86 -18 -70 -3
16 12 -48 -52 79 -127 -97 122
-66 -11 123 120 -62 -22 58 21
-108 127 -99 55 -64 -52 60 78
47 53 127 -59 124 29 -59 -101
19 91 -10 43 -110 38 23 110
89 86 -48 -120 68 -70 -103 127
-97 -92 -61 -108 -101 -54 91 -67
-91 -67 -68 71 107 82 -54 -4
-84 99 97 44 -127 118 -12 -69
78 90 -119 6 127 -83 108 23
-77 73 38 -82 -32 73 76 117
-5 127 23 16 72 -51 8 95
-11 8 -119 61 55 99 34 -50

sequential/conv2d_3/Conv2D i1 [32, 1, 1, 32]
00000000: 7343 0975 60cc e85f 9808 4e15 f96b 6545
00000010: 7b9e e38e c3b8 4855 8340 2ca6 1d6f 1381
00000020: 1a7b 4f3b 15a9 62f4 b263 2f88 7f1b 1c3f
00000030: 9385 ee10 f9d5 41db f2bf a6c3 d10d 3d5b
00000040: a9a9 a4c8 e796 cfea 870f eda0 03e9 756b
00000050: 4c6b 7f4c 2afe 4a6a d450 146d 145d 0559
00000060: 9fd0 d052 3fba 5806 9ba6 65b5 465c 05ed
00000070: 666a 2d81 233a 9a0f 8f74 b995 8b8a ee35
00000080: d4d4 33bd bbfd fc39 971b 3872 de46 4748
00000090: d2ca 7708 81a0 e429 56c2 2eee 38d8 a9f1
000000a0: ce4e cd59 b35b 6c77 3045 a606 c341 72c8
000000b0: 451a 2622 ff72 8225 c53f 7fa5 79d2 cbd6
000000c0: 94f2 2bb1 23f1 37ce ff3c c697 2dd5 42f8
000000d0: c48b a253 ce7f 5cfa 4ff5 4988 6cb9 8fcd
000000e0: 0bfb 0506 f679 597e e77c 5c35 6522 f3a2
000000f0: 1660 4912 9466 fa50 c27f 467b bfa9 73a1
115 67 9 117 96 -52 -24 95
-104 8 78 21 -7 107 101 69
123 -98 -29 -114 -61 -72 72 85
-125 64 44 -90 29 111 19 -127
26 123 79 59 21 -87 98 -12
-78 99 47 -120 127 27 28 63
-109 -123 -18 16 -7 -43 65 -37
-14 -65 -90 -61 -47 13 61 91
-87 -87 -92 -56 -25 -106 -49 -22
-121 15 -19 -96 3 -23 117 107
76 107 127 76 42 -2 74 106
-44 80 20 109 20 93 5 89
-97 -48 -48 82 63 -70 88 6
-101 -90 101 -75 70 92 5 -19
102 106 45 -127 35 58 -102 15
-113 116 -71 -107 -117 -118 -18 53
-44 -44 51 -67 -69 -3 -4 57
-105 27 56 114 -34 70 71 72
-46 -54 119 8 -127 -96 -28 41
86 -62 46 -18 56 -40 -87 -15
-50 78 -51 89 -77 91 108 119
48 69 -90 6 -61 65 114 -56
69 26 38 34 -1 114 -126 37
-59 63 127 -91 121 -46 -53 -42
-108 -14 43 -79 35 -15 55 -50
-1 60 -58 -105 45 -43 66 -8
-60 -117 -94 83 -50 127 92 -6
79 -11 73 -120 108 -71 -113 -51
11 -5 5 6 -10 121 89 126
-25 124 92 53 101 34 -13 -94
22 96 73 18 -108 102 -6 80
-62 127 70 123 -65 -87 115 -95

sequential/conv2d_4/Conv2D i1 [64, 1, 1, 32]
00000000: 7f1b c7a0 5c72 0032 e8c5 732a d3b7 c1ff
00000010: 8c2a c91e 0b5d 6d09 10aa 9e4e 5549 0442
00000020: e1cb bb6b 5dd4 7dfd 0b3d d690 6338 496e
00000030: f3f9 8187 5604 0ad7 5f4b 6dad 726c 124b
00000040: d21d a8ea 72e8 6363 ffd7 ffdf 81ee 5af3
00000050: db60 7745 60f0 1a69 0ea1 3571 773d 86dc
00000060: e3ae 998c f358 df7c 5a04 8f36 651a f5a1
00000070: ad15 31ac f78f 81f2 e8b6 cf39 d1c5 f9cd
00000080: 150f 41a9 c4ae 814a de0c 7d35 cd4a 8dd1
00000090: c7d4 5db3 d38b d10e 5dbf a57a dae9 05b2
000000a0: 85ec f087 9e22 3bcd 9cc5 0844 d28c 5f70
000000b0: e3bc 6a26 10be 155a 1de4 d7d2 0981 4230
000000c0: 57e2 626f 20bc 137f 0d2c a0ae 8f8c 088b
000000d0: 128c 3a33 45f2 2ec3 f109 1aea 0adb b265
000000e0: 1aca b9bd e982 a9ac c300 7f43 9916 38e6
000000f0: 389f 562f 9882 9288 ffca f8c2 ccee 30b9
127 27 -57 -96 92 114 0 50
-24 -59 115 42 -45 -73 -63 -1
-116 42 -55 30 11 93 109 9
16 -86 -98 78 85 73 4 66
-31 -53 -69 107 93 -44 125 -3
11 61 -42 -112 99 56 73 110
-13 -7 -127 -121 86 4 10 -41
95 75 109 -83 114 108 18 75
-46 29 -88 -22 114 -24 99 99
-1 -41 -1 -33 -127 -18 90 -13
-37 96 119 69 96 -16 26 105
14 -95 53 113 119 61 -122 -36
-29 -82 -103 -116 -13 88 -33 124
90 4 -113 54 101 26 -11 -95
-83 21 49 -84 -9 -113 -127 -14
-24 -74 -49 57 -47 -59 -7 -51
21 15 65 -87 -60 -82 -127 74
-34 12 125 53 -51 74 -115 -47
-57 -44 93 -77 -45 -117 -47 14
93 -65 -91 122 -38 -23 5 -78
-123 -20 -16 -121 -98 34 59 -51
-100 -59 8 68 -46 -116 95 112
-29 -68 106 38 16 -66 21 90
29 -28 -41 -46 9 -127 66 48
87 -30 98 111 32 -68 19 127
13 44 -96 -82 -113 -116 8 -117
18 -116 58 51 69 -14 46 -61
-15 9 26 -22 10 -37 -78 101
26 -54 -71 -67 -23 -126 -87 -84
-61 0 127 67 -103 22 56 -26
56 -97 86 47 -104 -126 -110 -120
-1 -54 -8 -62 -52 -18 48 -71

sequential/conv2d_5/Conv2D i1 [64, 1, 1, 64]
00000000: 6236 af33 e6fd 6de6 52ad 0d08 3cb9 798a
00000010: 85ca e7a5 0cb3 17b5 833e 33ae dbb7 9958
00000020: 6ca2 4ecd 0a38 163f ca8f 1bcc 8fe6 2c9b
00000030: fdd9 712c c281 eebd 732f 1001 a7e4 09f6
00000040: 9700 fecc 74c4 9f2a ad50 2bbe e351 abcb
00000050: d54c 053f 8d6a 374c c544 303e 5896 ca32
00000060: 869e e507 8a3d 7404 2171 2c79 60e2 27f2
00000070: e5c8 052e 7fbc 6f5d 25f8 5884 4b12 a2e4
00000080: a2c8 ceaf 9b6f 6e79 34d1 26a4 e345 2ee0
00000090: fda8 b19d daec c27f eb11 1ac2 d329 280a
000000a0: cba0 7c26 d27a f2fa 52f6 8e19 5be8 97b6
000000b0: 2630 1b13 d46a 77d5 ab58 261b 1616 28c4
000000c0: 0ddf 22b0 a0ec 4e11 3ad0 c1f2 bff1 2c85
000000d0: 3ca5 908d fbbc 2850 a7a4 687f bdab 1afe
000000e0: f8d0 e511 38db 7b64 f023 c59b 0f25 9c95
000000f0: e79b 2313 0f47 53a9 3b15 d332 b0d8 a632
98 54 -81 51 -26 -3 109 -26
82 -83 13 8 60 -71 121 -118
-123 -54 -25 -91 12 -77 23 -75
-125 62 51 -82 -37 -73 -103 88
108 -94 78 -51 10 56 22 63
-54 -113 27 -52 -113 -26 44 -101
-3 -39 113 44 -62 -127 -18 -67
115 47 16 1 -89 -28 9 -10
-105 0 -2 -52 116 -60 -97 42
-83 80 43 -66 -29 81 -85 -53
-43 76 5 63 -115 106 55 76
-59 68 48 62 88 -106 -54 50
-122 -98 -27 7 -118 61 116 4
33 113 44 121 96 -30 39 -14
-27 -56 5 46 127 -68 111 93
37 -8 88 -124 75 18 -94 -28
-94 -56 -50 -81 -101 111 110 121
52 -47 38 -92 -29 69 46 -32
-3 -88 -79 -99 -38 -20 -62 127
-21 17 26 -62 -45 41 40 10
-53 -96 124 38 -46 122 -14 -6
82 -10 -114 25 91 -24 -105 -74
38 48 27 19 -44 106 119 -43
-85 88 38 27 22 22 40 -60
13 -33 34 -80 -96 -20 78 17
58 -48 -63 -14 -65 -15 44 -123
60 -91 -112 -115 -5 -68 40 80
-89 -92 104 127 -67 -85 26 -2
-8 -48 -27 17 56 -37 123 100
-16 35 -59 -101 15 37 -100 -107
-25 -101 35 19 15 71 83 -87
59 21 -45 50 -80 -40 -90 50

sequential/conv2d_6/Conv2D i1 [128, 1, 1, 64]
00000000: 174b f743 f275 dfc9 d2d7 3402 ae05 eb9e
00000010: 0ccd 632e 5751 9237 244f 9096 81d8 6950
00000020: 9532 6ad0 a8ce f7eb 4213 bd45 c456 0cbe
00000030: 3859 9688 b463 b69b 4395 1b14 3f41 0bb9
00000040: e477 4f2c bc95 7ca9 d036 8170 2fa7 5667
00000050: e631 3b8d 32a3 5be9 a441 4064 8533 5917
00000060: 4c31 1730 23d9 d7ab f162 3147 68ec e6bd
00000070: 7286 cb91 f155 7216 a3e4 7789 9c59 9366
00000080: 8106 c64a e8ac 8a13 0aed 632e 2e99 af94
00000090: 1bfe f063 acbc d63c c00e ae66 6c82 4e31
000000a0: 1f48 cb02 4cac 58c5 e3b3 ecf9 156b b35b
000000b0: bfbe fffb 22c9 2b39 1a64 b7b6 152f 4b0f
000000c0: 6b94 d010 031e dad6 07ba e5b2 6381 e21f
000000d0: 48b5 2629 9cc6 dc14 0d32 f569 4d69 4279
000000e0: 0102 46bc 6cd6 2732 2ad2 e914 558b e082
000000f0: 9411 9e36 613e a6a5 ec03 069e 5d06 0aa0
23 75 -9 67 -14 117 -33 -55
-46 -41 52 2 -82 5 -21 -98
12 -51 99 46 87 81 -110 55
36 79 -112 -106 -127 -40 105 80
-107 50 106 -48 -88 -50 -9 -21
66 19 -67 69 -60 86 12 -66
56 89 -106 -120 -76 99 -74 -101
67 -107 27 20 63 65 11 -71
-28 119 79 44 -68 -107 124 -87
-48 54 -127 112 47 -89 86 103
-26 49 59 -115 50 -93 91 -23
-92 65 64 100 -123 51 89 23
76 49 23 48 35 -39 -41 -85
-15 98 49 71 104 -20 -26 -67
114 -122 -53 -111 -15 85 114 22
-93 -28 119 -119 -100 89 -109 102
-127 6 -58 74 -24 -84 -118 19
10 -19 99 46 46 -103 -81 -108
27 -2 -16 99 -84 -68 -42 60
-64 14 -82 102 108 -126 78 49
31 72 -53 2 76 -84 88 -59
-29 -77 -20 -7 21 107 -77 91
-65 -66 -1 -5 34 -55 43 57
26 100 -73 -74 21 47 75 15
107 -108 -48 16 3 30 -38 -42
7 -70 -27 -78 99 -127 -30 31
72 -75 38 41 -100 -58 -36 20
13 50 -11 105 77 105 66 121
1 2 70 -68 108 -42 39 50
42 -46 -23 20 85 -117 -32 -126
-108 17 -98 54 97 62 -90 -91
-20 3 6 -98 93 6 10 -96

sequential/conv2d_7/Conv2D i1 [256, 1, 1, 128]
00000000: a905 af96 bde9 896e 8ff6 c8df 19fc 8582
00000010: 14e0 b228 4de4 f6a7 3b69 a274 1693 95df
00000020: e9ab 5ee3 0c36 c137 c4e5 58fb dd60 b2ab
00000030: 4302 b868 8f7f 02b1 d35f df34 2114 6ecb
00000040: b0db 6962 fe60 71db 0aa9 eaaf 0b77 03e2
00000050: c9ed 4721 f3f1 fb5e 0406 548e 4bee 8c1d
00000060: 7dfb 03d6 6536 c54a a3ab a514 9ad2 feec
00000070: a25a 0e7e ceba d5fb 1e19 1cf1 508b 06aa
00000080: 67e6 1cc0 95e7 6b33 8f09 9e2a 6fa0 1c95
00000090: e748 ead4 cb9d 4823 f45d 739a 366a 5d4c
000000a0: bdb8 05aa 26b4 7f92 733a 5415 acdc 7403
000000b0: 8e16 ea4d 7ae5 e826 4de1 033b cb68 a295
000000c0: 0892 f554 b188 4bc5 505f f49e daaf 7045
000000d0: a346 c14a 70b7 7b22 6519 6dee 3afc 87b5
000000e0: f923 9e2a 6918 d134 3433 0bc2 85eb 3fc4
000000f0: 51ab bb2e 5fae ce32 51b8 944f e452 7e6e
-87 5 -81 -106 -67 -23 -119 110
-113 -10 -56 -33 25 -4 -123 -126
20 -32 -78 40 77 -28 -10 -89
59 105 -94 116 22 -109 -107 -33
-23 -85 94 -29 12 54 -63 55
-60 -27 88 -5 -35 96 -78 -85
67 2 -72 104 -113 127 2 -79
-45 95 -33 52 33 20 110 -53
-80 -37 105 98 -2 96 113 -37
10 -87 -22 -81 11 119 3 -30
-55 -19 71 33 -13 -15 -5 94
4 6 84 -114 75 -18 -116 29
125 -5 3 -42 101 54 -59 74
-93 -85 -91 20 -102 -46 -2 -20
-94 90 14 126 -50 -70 -43 -5
30 25 28 -15 80 -117 6 -86
103 -26 28 -64 -107 -25 107 51
-113 9 -98 42 111 -96 28 -107
-25 72 -22 -44 -53 -99 72 35
-12 93 115 -102 54 106 93 76
-67 -72 5 -86 38 -76 127 -110
115 58 84 21 -84 -36 116 3
-114 22 -22 77 122 -27 -24 38
77 -31 3 59 -53 104 -94 -107
8 -110 -11 84 -79 -120 75 -59
80 95 -12 -98 -38 -81 112 69
-93 70 -63 74 112 -73 123 34
101 25 109 -18 58 -4 -121 -75
-7 35 -98 42 105 24 -47 52
52 51 11 -62 -123 -21 63 -60
81 -85 -69 46 95 -82 -50 50
81 -72 -108 79 -28 82 126 110

sequential/conv2d_8/Conv2D i1 [256, 1, 1, 256]
00000000: 7b94 d2dc 7239 f90a 1220 171e 0046 cc8c
00000010: 4a18 508c 21dd 3af2 959f 29b7 ce10 21d8
00000020: 088e 2978 cefd 53e1 4d71 add7 094e c10f
00000030: 373d 4107 0ecf e23f 24dc ca5c 3c90 bedd
00000040: 0439 f46a 4b72 4bec 2ae1 e4e9 ca3a 55dc
00000050: 5bf8 aba2 e38f b132 18fb 4aa5 2939 8a58
00000060: e9cd c2ef d5df 105b 563f 2c82 aedc e272
00000070: bdda a1dc 1c04 56dd 2d9c 5514 1ef3 a46d
00000080: 154c 02e6 6f36 eb74 94c5 1407 e2d8 f08c
00000090: 7160 6916 fd3a 073f df7d 132f ee9c b322
000000a0: ca18 6767 664b 23c6 8bac e108 a7e9 34f9
000000b0: 59c4 c32d 0f53 2ced d501 dea0 448b 8d28
000000c0: 3f72 a77c 53d0 10a1 65b6 5fbc 7844 998d
000000d0: fedb 145d 9e94 bb51 0501 0290 dc97 c40f
000000e0: 9ab5 6649 9998 f158 f1ab ce8d dbb8 b75d
000000f0: 986d 427f 3d9a 6805 632d c5e6 920e f023
123 -108 -46 -36 114 57 -7 10
18 32 23 30 0 70 -52 -116
74 24 80 -116 33 -35 58 -14
-107 -97 41 -73 -50 16 33 -40
8 -114 41 120 -50 -3 83 -31
77 113 -83 -41 9 78 -63 15
55 61 65 7 14 -49 -30 63
36 -36 -54 92 60 -112 -66 -35
4 57 -12 106 75 114 75 -20
42 -31 -28 -23 -54 58 85 -36
91 -8 -85 -94 -29 -113 -79 50
24 -5 74 -91 41 57 -118 88
-23 -51 -62 -17 -43 -33 16 91
86 63 44 -126 -82 -36 -30 114
-67 -38 -95 -36 28 4 86 -35
45 -100 85 20 30 -13 -92 109
21 76 2 -26 111 54 -21 116
-108 -59 20 7 -30 -40 -16 -116
113 96 105 22 -3 58 7 63
-33 125 19 47 -18 -100 -77 34
-54 24 103 103 102 75 35 -58
-117 -84 -31 8 -89 -23 52 -7
89 -60 -61 45 15 83 44 -19
-43 1 -34 -96 68 -117 -115 40
63 114 -89 124 83 -48 16 -95
101 -74 95 -68 120 68 -103 -115
-2 -37 20 93 -98 -108 -69 81
5 1 2 -112 -36 -105 -60 15
-102 -75 102 73 -103 -104 -15 88
-15 -85 -50 -115 -37 -72 -73 93
-104 109 66 127 61 -102 104 5
99 45 -59 -26 -110 14 -16 35

sequential/batch_normalization_1/FusedBatchNormV3;sequential/depthwise_conv2d/depthwise i1 [1, 3, 3, 8]
00000000: 2e7f e143 01a4 d64d abb4 b351 81e7 fb7f
00000010: 09da dd14 37e9 81da 62d4 8139 d1a7 f76a
00000020: 8129 bc90 4ea3 e2ef 6ba9 c97f a3fe b72b
00000030: 11da e362 db5a 72cd bd99 2734 3c7f 0146
00000040: 3d6b fdcb a763 41d7
46 127 -31 67 1 -92 -42 77
-85 -76 -77 81 -127 -25 -5 127
9 -38 -35 20 55 -23 -127 -38
98 -44 -127 57 -47 -89 -9 106
-127 41 -68 -112 78 -93 -30 -17
107 -87 -55 127 -93 -2 -73 43
17 -38 -29 98 -37 90 114 -51
-67 -103 39 52 60 127 1 70
61 107 -3 -53 -89 99 65 -41

sequential/batch_normalization_3/FusedBatchNormV3;sequential/depthwise_conv2d_1/depthwise i1 [1, 3, 3, 16]
00000000: 5d7f 7302 5181 c6e7 d13e 8110 7981 ad81
00000010: 7f66 6848 42d4 bb9f befb bd7f 2f16 660a
00000020: a9dc ac78 061e 7fad 7fca 8283 81e2 6cf3
00000030: dd75 9a04 02e5 a3c4 247f 8866 94e5 8155
00000040: f79b c78a 7f56 a509 d5f1 6fbe b8b9 3d6f
00000050: 1382 09be 4d83 8805 c9c3 579a 0bd9 d472
00000060: 711b 816d 5d2c ea7f 27b7 2af6 69c6 9401
00000070: 662d c581 d5b0 8ff5 e408 dec4 4e50 b787
00000080: 5b8e 9e1f 25e6 1666 9fc3 3e9a 7ec6 8b6b
93 127 115 2 81 -127 -58 -25
-47 62 -127 16 121 -127 -83 -127
127 102 104 72 66 -44 -69 -97
-66 -5 -67 127 47 22 102 10
-87 -36 -84 120 6 30 127 -83
127 -54 -126 -125 -127 -30 108 -13
-35 117 -102 4 2 -27 -93 -60
36 127 -120 102 -108 -27 -127 85
-9 -101 -57 -118 127 86 -91 9
-43 -15 111 -66 -72 -71 61 111
19 -126 9 -66 77 -125 -120 5
-55 -61 87 -102 11 -39 -44 114
113 27 -127 109 93 44 -22 127
39 -73 42 -10 105 -58 -108 1
102 45 -59 -127 -43 -80 -113 -11
-28 8 -34 -60 78 80 -73 -121
91 -114 -98 31 37 -26 22 102
-97 -61 62 -102 126 -58 -117 107

sequential/batch_normalization_5/FusedBatchNormV3;sequential/depthwise_conv2d_2/depthwise;sequential/depthwise_conv2d_3/depthwise i1 [1, 3, 3, 32]
00000000: 10be ecb1 baca be29 a97f e3e8 48d2 83c7
00000010: 4bd3 81e0 128d 5423 0d57 7f0c 6ddb 577f
00000020: 90d2 0d94 4e5d 9a92 3fdf 5036 a29a 7fb7
00000030: d322 a014 ab94 4381 1a97 26f8 2681 14f7
00000040: eb4b 67c7 69b3 3d24 407b aa7f f3e4 9ee6
00000050: 8152 42f6 2754 a2d7 b8f5 ec29 f9ef 0830
00000060: f372 81e6 81aa 64d7 533f 73f1 7fb9 1846
00000070: afd9 0836 30eb 4001 5084 de75 3bc6 0f75
00000080: 3992 8761 655f fdef cb50 73fb abb9 88e8
00000090: d49d 9843 2f6c 8996 815e 1938 1397 c8ff
000000a0: cad3 40a4 e673 8181 d8ce cd94 6f7f 0e98
000000b0: f394 ab68 145a 7f15 9523 3b7f b83e 6b72
000000c0: 266d a881 997f 5f26 7ffa 94f3 3e50 a07f
000000d0: 4e56 4981 5bf1 36c8 fd18 144b 819c ca03
000000e0: 7f7f 3f6a f19e 7590 db31 b307 855e c541
000000f0: b97f fd2c 8198 265c 8b7f 2d6d dcc2 7fa6
16 -66 -20 -79 -70 -54 -66 41
-87 127 -29 -24 72 -46 -125 -57
75 -45 -127 -32 18 -115 84 35
13 87 127 12 109 -37 87 127
-112 -46 13 -108 78 93 -102 -110
63 -33 80 54 -94 -102 127 -73
-45 34 -96 20 -85 -108 67 -127
26 -105 38 -8 38 -127 20 -9
-21 75 103 -57 105 -77 61 36
64 123 -86 127 -13 -28 -98 -26
-127 82 66 -10 39 84 -94 -41
-72 -11 -20 41 -7 -17 8 48
-13 114 -127 -26 -127 -86 100 -41
83 63 115 -15 127 -71 24 70
-81 -39 8 54 48 -21 64 1
80 -124 -34 117 59 -58 15 117
57 -110 -121 97 101 95 -3 -17
-53 80 115 -5 -85 -71 -120 -24
-44 -99 -104 67 47 108 -119 -106
-127 94 25 56 19 -105 -56 -1
-54 -45 64 -92 -26 115 -127 -127
-40 -50 -51 -108 111 127 14 -104
-13 -108 -85 104 20 90 127 21
-107 35 59 127 -72 62 107 114
38 109 -88 -127 -103 127 95 38
127 -6 -108 -13 62 80 -96 127
78 86 73 -127 91 -15 54 -56
-3 24 20 75 -127 -100 -54 3
127 127 63 106 -15 -98 117 -112
-37 49 -77 7 -123 94 -59 65
-71 127 -3 44 -127 -104 38 92
-117 127 45 109 -36 -62 127 -90

sequential/batch_normalization_7/FusedBatchNormV3;sequential/depthwise_conv2d_3/depthwise i1 [1, 3, 3, 32]
00000000: 130d 66f8 1892 388b a9b6 5ecc 887f c8ef
00000010: 70a3 4eab bc84 92d5 c7a4 76f7 7fc6 eae0
00000020: 0344 9bcb a6eb 1c4b e6cf 12cb 5f32 767f
00000030: 66ac 4ae0 bbd4 b1dd e3cd 2a0f 6996 e2c2
00000040: 2eb4 bc81 8122 8126 6281 bcac e91c f304
00000050: 6146 7bac 37f2 dc3d 8181 d873 0081 33ff
00000060: 44b7 7f5a ebd2 ad42 8169 7fe9 31aa 7f62
00000070: 1697 7ffa 0b9d 1488 7d9b e695 7a61 5fdf
00000080: 7d47 4f1d be70 b631 d865 fa5a dfdc 14ea
00000090: 81a5 bee3 3e27 3981 232b 81c9 fe52 20c9
000000a0: 2e86 2eeb 557f 677a a5ef 9b81 e130 d1a8
000000b0: 3f5c d14a 0d1e 81fe 2251 0022 3021 2edf
000000c0: 597f a465 ba91 600b 188b a4f5 f267 4844
000000d0: cb7f 03ce e5ea 4c0b 6c6a 555e 0021 6125
000000e0: 0999 8ca5 9341 9a81 5151 55b7 7fdf 8224
000000f0: 4751 2516 7f7f 0187 4c2b 5981 afac 7f9c
19 13 102 -8 24 -110 56 -117
-87 -74 94 -52 -120 127 -56 -17
112 -93 78 -85 -68 -124 -110 -43
-57 -92 118 -9 127 -58 -22 -32
3 68 -101 -53 -90 -21 28 75
-26 -49 18 -53 95 50 118 127
102 -84 74 -32 -69 -44 -79 -35
-29 -51 42 15 105 -106 -30 -62
46 -76 -68 -127 -127 34 -127 38
98 -127 -68 -84 -23 28 -13 4
97 70 123 -84 55 -14 -36 61
-127 -127 -40 115 0 -127 51 -1
68 -73 127 90 -21 -46 -83 66
-127 105 127 -23 49 -86 127 98
22 -105 127 -6 11 -99 20 -120
125 -101 -26 -107 122 97 95 -33
125 71 79 29 -66 112 -74 49
-40 101 -6 90 -33 -36 20 -22
-127 -91 -66 -29 62 39 57 -127
35 43 -127 -55 -2 82 32 -55
46 -122 46 -21 85 127 103 122
-91 -17 -101 -127 -31 48 -47 -88
63 92 -47 74 13 30 -127 -2
34 81 0 34 48 33 46 -33
89 127 -92 101 -70 -111 96 11
24 -117 -92 -11 -14 103 72 68
-53 127 3 -50 -27 -22 76 11
108 106 85 94 0 33 97 37
9 -103 -116 -91 -109 65 -102 -127
81 81 85 -73 127 -33 -126 36
71 81 37 22 127 127 1 -121
76 43 89 -127 -81 -84 127 -100

sequential/batch_normalization_9/FusedBatchNormV3;sequential/depthwise_conv2d_4/depthwise;sequential/depthwise_conv2d_5/depthwise i1 [1, 3, 3, 64]
00000000: 0261 f39d 7f0b 7f95 447f 3ad5 a688 6907
00000010: 09e3 9dea de39 c8da 81b7 d5ee 5933 7fca
00000020: 5c06 2df1 371b e439 de37 b5be 0b7f 8509
00000030: e9f2 8181 ca8d 2499 a2fe 9eb8 1481 45d7
00000040: 6814 cc06 ff00 31bb da3d e220 6829 2f23
00000050: 8123 ebe6 6884 7fbf d2bd 75b3 3235 afed
00000060: fad4 52af 0502 c799 fddd 4eca 8635 609c
00000070: 7f7f d16a e116 81ed 9a88 51bd 7f8a 197c
00000080: f157 13ea 145f d1ec ccd8 81b8 aae8 c745
00000090: 3f47 314a 927b c561 ed9e 1449 7b3c b056
000000a0: d4ea 94ac a9ff 331c 7517 7fb5 814b afcf
000000b0: 916c 74fb 2211 01a6 91fb 557f 64cf 4a66
000000c0: fa4f 9d42 c79d 6c38 af8f 8dbd 6dad ffdb
000000d0: 4387 81c2 9f89 8129 663b b687 ed38 6b99
000000e0: 1631 0e25 7f7c 815d 81c1 2f10 22f6 e7bd
000000f0: 2439 e5af 98f4 f100 043e 4c8a 453c 8152
2 97 -13 -99 127 11 127 -107
68 127 58 -43 -90 -120 105 7
9 -29 -99 -22 -34 57 -56 -38
-127 -73 -43 -18 89 51 127 -54
92 6 45 -15 55 27 -28 57
-34 55 -75 -66 11 127 -123 9
-23 -14 -127 -127 -54 -115 36 -103
-94 -2 -98 -72 20 -127 69 -41
104 20 -52 6 -1 0 49 -69
-38 61 -30 32 104 41 47 35
-127 35 -21 -26 104 -124 127 -65
-46 -67 117 -77 50 53 -81 -19
-6 -44 82 -81 5 2 -57 -103
-3 -35 78 -54 -122 53 96 -100
127 127 -47 106 -31 22 -127 -19
-102 -120 81 -67 127 -118 25 124
-15 87 19 -22 20 95 -47 -20
-52 -40 -127 -72 -86 -24 -57 69
63 71 49 74 -110 123 -59 97
-19 -98 20 73 123 60 -80 86
-44 -22 -108 -84 -87 -1 51 28
117 23 127 -75 -127 75 -81 -49
-111 108 116 -5 34 17 1 -90
-111 -5 85 127 100 -49 74 102
-6 79 -99 66 -57 -99 108 56
-81 -113 -115 -67 109 -83 -1 -37
67 -121 -127 -62 -97 -119 -127 41
102 59 -74 -121 -19 56 107 -103
22 49 14 37 127 124 -127 93
-127 -63 47 16 34 -10 -25 -67
36 57 -27 -81 -104 -12 -15 0
4 62 76 -118 69 60 -127 82

sequential/batch_normalization_11/FusedBatchNormV3;sequential/depthwise_conv2d_5/depthwise i1 [1, 3, 3, 64]
00000000: e3e8 a3d2 3081 8f63 7f1a b9be d77d 1b7f
00000010: b95d 8178 a77f 7e81 8132 66ac bd08 c77f
00000020: b7a4 24c3 53b8 7fbf 9f48 3bcb a271 e5ff
00000030: c8d3 6c8a 535f dc05 319f 2f60 6946 09bf
00000040: c4b7 2db7 4e89 4e19 97b6 4da0 afbf ff88
00000050: 8ee1 1321 cf4e 4403 dc7f e9e6 cb5e 38d0
00000060: a2e0 7f2d cc24 b4ad 207f 077f a677 7f97
00000070: d01a e781 03cf 2840 c19f bca2 ffdf e97f
00000080: 4681 6e9c 0fc9 81ed c4df c4ae 714c 727b
00000090: 0872 ae7f 4e14 7f11 db11 3f25 c172 39a3
000000a0: 932e 1d81 0d66 e504 89d1 0ea2 6f71 8ccd
000000b0: 564a 831b 12d0 ead0 b60d 7e7f 1752 7239
000000c0: ed43 b920 7a1e 1d93 1df9 340c fd56 ae38
000000d0: 0323 852b c256 1e18 5fa5 558a b2f2 937b
000000e0: 9081 953c e87f d052 1e4f 9755 0b7a 2ead
000000f0: 007f a7ff 56e5 a0aa 629b f0af c524 19af
-29 -24 -93 -46 48 -127 -113 99
127 26 -71 -66 -41 125 27 127
-71 93 -127 120 -89 127 126 -127
-127 50 102 -84 -67 8 -57 127
-73 -92 36 -61 83 -72 127 -65
-97 72 59 -53 -94 113 -27 -1
-56 -45 108 -118 83 95 -36 5
49 -97 47 96 105 70 9 -65
-60 -73 45 -73 78 -119 78 25
-105 -74 77 -96 -81 -65 -1 -120
-114 -31 19 33 -49 78 68 3
-36 127 -23 -26 -53 94 56 -48
-94 -32 127 45 -52 36 -76 -83
32 127 7 127 -90 119 127 -105
-48 26 -25 -127 3 -49 40 64
-63 -97 -68 -94 -1 -33 -23 127
70 -127 110 -100 15 -55 -127 -19
-60 -33 -60 -82 113 76 114 123
8 114 -82 127 78 20 127 17
-37 17 63 37 -63 114 57 -93
-109 46 29 -127 13 102 -27 4
-119 -47 14 -94 111 113 -116 -51
86 74 -125 27 18 -48 -22 -48
-74 13 126 127 23 82 114 57
-19 67 -71 32 122 30 29 -109
29 -7 52 12 -3 86 -82 56
3 35 -123 43 -62 86 30 24
95 -91 85 -118 -78 -14 -109 123
-112 -127 -107 60 -24 127 -48 82
30 79 -105 85 11 122 46 -83
0 127 -89 -1 86 -27 -96 -86
98 -101 -16 -81 -59 36 25 -81

sequential/batch_normalization_13/FusedBatchNormV3;sequential/depthwise_conv2d_6/depthwise i1 [1, 3, 3, 128]
00000000: df7b 2b26 1117 9b9e 2c63 81c6 a458 811c
00000010: 1d39 78a7 f87f 816a aeaf 867f e864 4081
00000020: c26c f844 7181 0a28 6a09 41a5 0128 9b81
00000030: 9e81 8387 8191 d8af 113f 7f81 b281 3ef7
00000040: 7a2f 916a 81d1 9e81 542d 7e31 2186 c586
00000050: bf4b 817e 9d5f 207f 8168 bc68 6d81 7f6d
00000060: 34a6 e64c f690 81b2 81cb 7d8e c784 7f13
00000070: 06fc eec8 5981 4278 7fd6 9ad6 6794 e39c
00000080: 036f d7fc edbd 6981 ddac a481 3b43 dd9a
00000090: ed60 61a1 82dc cd8f c4af fd6f 8181 e48b
000000a0: 35f1 30bc b1f7 5cc4 1f66 ee32 ce81 bb01
000000b0: 0c52 d7b2 70e7 1a7f 3081 e263 ec1d f5be
000000c0: 0f8d 8174 d381 1fa8 7faa fc7f e022 811f
000000d0: 04c2 3594 32e3 2557 5281 4d86 f125 c30a
000000e0: ca99 86d8 5eb5 45c1 3281 21f7 3a45 a267
000000f0: 6162 2c82 7fed 3a10 e444 d17f 1fe2 cb94
-33 123 43 38 17 23 -101 -98
44 99 -127 -58 -92 88 -127 28
29 57 120 -89 -8 127 -127 106
-82 -81 -122 127 -24 100 64 -127
-62 108 -8 68 113 -127 10 40
106 9 65 -91 1 40 -101 -127
-98 -127 -125 -121 -127 -111 -40 -81
17 63 127 -127 -78 -127 62 -9
122 47 -111 106 -127 -47 -98 -127
84 45 126 49 33 -122 -59 -122
-65 75 -127 126 -99 95 32 127
-127 104 -68 104 109 -127 127 109
52 -90 -26 76 -10 -112 -127 -78
-127 -53 125 -114 -57 -124 127 19
6 -4 -18 -56 89 -127 66 120
127 -42 -102 -42 103 -108 -29 -100
3 111 -41 -4 -19 -67 105 -127
-35 -84 -92 -127 59 67 -35 -102
-19 96 97 -95 -126 -36 -51 -113
-60 -81 -3 111 -127 -127 -28 -117
53 -15 48 -68 -79 -9 92 -60
31 102 -18 50 -50 -127 -69 1
12 82 -41 -78 112 -25 26 127
48 -127 -30 99 -20 29 -11 -66
15 -115 -127 116 -45 -127 31 -88
127 -86 -4 127 -32 34 -127 31
4 -62 53 -108 50 -29 37 87
82 -127 77 -122 -15 37 -61 10
-54 -103 -122 -40 94 -75 69 -63
50 -127 33 -9 58 69 -94 103
97 98 44 -126 127 -19 58 16
-28 68 -47 127 31 -30 -53 -108

sequential/batch_normalization_15/FusedBatchNormV3;sequential/depthwise_conv2d_7/depthwise;sequential/conv2d_8/Conv2D i1 [1, 3, 3, 256]
00000000: ebce d0ff 3d4a 7fcb 7f14 7fd4 4f05 adf9
00000010: 36d4 821b fbda 6f22 e79d d46e a57f fc4a
00000020: ed81 7f06 a981 85f0 ff44 4605 9026 093f
00000030: 23b4 881f 16db 9d81 9d85 c535 7feb 88b0
00000040: 1b54 199e f118 a996 02c9 392a d5ce dd2c
00000050: cac4 c885 6581 3be8 e13d 3966 46c2 8191
00000060: ee81 da78 bc95 a954 7f79 1da5 9ffa 3c2c
00000070: 0ff1 5fe9 06c5 7ff7 7799 7bd4 6e6f 6d06
00000080: 5466 5f8d 7f26 b866 af84 ade0 9265 e481
00000090: 79d4 1c07 ee46 292f b5c8 217f 7f1d 7b92
000000a0: 94cb 03b1 efd1 4acb 58e9 5881 6066 d2c3
000000b0: 7f6c 23ec 8a57 1534 c0fc 694e 02f6 5106
000000c0: 8b9a 5281 b04d 7fb8 39db 556b 0ecb de0b
000000d0: 81f6 5691 9db2 33a2 4367 7fb1 28e3 92ee
000000e0: 7fde 238e ab1b 76a6 5c73 83c9 fa9c 2b5e
000000f0: 1596 d3ba d80a 0370 4281 7e5b 0a7f 81fc
-21 -50 -48 -1 61 74 127 -53
127 20 127 -44 79 5 -83 -7
54 -44 -126 27 -5 -38 111 34
-25 -99 -44 110 -91 127 -4 74
-19 -127 127 6 -87 -127 -123 -16
-1 68 70 5 -112 38 9 63
35 -76 -120 31 22 -37 -99 -127
-99 -123 -59 53 127 -21 -120 -80
27 84 25 -98 -15 24 -87 -106
2 -55 57 42 -43 -50 -35 44
-54 -60 -56 -123 101 -127 59 -24
-31 61 57 102 70 -62 -127 -111
-18 -127 -38 120 -68 -107 -87 84
127 121 29 -91 -97 -6 60 44
15 -15 95 -23 6 -59 127 -9
119 -103 123 -44 110 111 109 6
84 102 95 -115 127 38 -72 102
-81 -124 -83 -32 -110 101 -28 -127
121 -44 28 7 -18 70 41 47
-75 -56 33 127 127 29 123 -110
-108 -53 3 -79 -17 -47 74 -53
88 -23 88 -127 96 102 -46 -61
127 108 35 -20 -118 87 21 52
-64 -4 105 78 2 -10 81 6
-117 -102 82 -127 -80 77 127 -72
57 -37 85 107 14 -53 -34 11
-127 -10 86 -111 -99 -78 51 -94
67 103 127 -79 40 -29 -110 -18
127 -34 35 -114 -85 27 118 -90
92 115 -125 -55 -6 -100 43 94
21 -106 -45 -70 -40 10 3 112
66 -127 126 91 10 127 -127 -4
