MobileNet/mobilenet_25_40_none/model_no_quant_new.tflite (tflite, 923688 bytes, 58 tensors)

model/dense/BiasAdd/ReadVariableOp/resource f4 [64]
00000000: 1892 26bc 4c88 263b 0000 0000 af80 36bc
00000010: ecdf 06bc 182a f6bb ffda 2bbc 2024 103c
00000020: 093d 4fbb 1609 7abc 4e6b 78bc 4514 a9bc
00000030: 2056 57bc 6853 363c 0000 0000 bc21 71bc
00000040: 1eba 443c c012 62bc c870 89bc 14a9 76ba
00000050: b1a6 47bc 7e30 83bc 4f3d 42bc fd05 4dbb
00000060: e33d 4fbb 7188 c9bb f1ac 70bb 92e1 e9bb
00000070: b2ef dd3b 24b3 cebb a1c2 aabb ae30 abbb
00000080: 3ac9 bbbc 0000 0000 547a 90bc 9d83 83bc
00000090: 2270 81bc 84f3 4fbc 2c24 89bc c07c 39bb
000000a0: a6a7 8dbb 2b66 4cbb 285d 4ebc da65 1bbc
000000b0: 4f3d 603c f8e3 13bc c803 97bc 6d12 1abb
000000c0: 8e02 babb fe9d 5abc d7c8 68bc 0806 f9bb
000000d0: 6d7d 353c 7dc0 4ebc f915 e83a 9cc1 11bc
000000e0: 15f9 6abc fe58 a4b9 0ee5 4dbb 7acb d3bb
000000f0: 3fa1 10bc 8d99 35bc f260 62bc bf40 a2bb
-0.010166667 0.002541083 0.0 -0.011139079 -0.008232098 -0.007512342 -0.010489224 0.008797675
-0.0031622073 -0.015260955 -0.015162302 -0.020639548 -0.013143092 0.011128284 0.0 -0.014717516
0.012007264 -0.013798416 -0.016777411 -0.000940935 -0.012185738 -0.016014334 -0.011855437 -0.0031284087
-0.003162258 -0.0061502983 -0.0036724175 -0.007137486 0.0067729587 -0.0063079763 -0.00521119 -0.005224309
-0.0229231 0.0 -0.017636456 -0.016053969 -0.01580054 -0.012692336 -0.01674088 -0.0028303117
-0.0043229638 -0.0031188827 -0.012595452 -0.0094847325 0.013686492 -0.00902652 -0.01843442 -0.0023509518
-0.005676574 -0.013343332 -0.01420804 -0.007599596 0.011077267 -0.012619135 0.0017706744 -0.008896258
-0.014341612 -0.00031346822 -0.0031417045 -0.0064634653 -0.008827507 -0.011083973 -0.013817059 -0.004951566

model/dense_1/BiasAdd/ReadVariableOp/resource f4 [2]
00000000: e53a a1ba d13a a13a
-0.0012300877 0.0012300854

model/conv1_bn/FusedBatchNormV3 f4 [8]
00000000: a42c d03f 4885 a83f 1bd9 e13f 2e96 6a3f
00000010: a6bb c83f e093 ce3f b9a9 c63f 6fd7 cbbf
1.6263623 1.3165674 1.764438 0.91635406 1.5682266 1.6138878 1.5520545 -1.592512

model/conv_dw_10_bn/FusedBatchNormV3 f4 [128]
00000000: c51b 4c3e 5f28 a43d 03f3 0ebf bbfa 123e
00000010: a8c2 5fbc 97dc 19bf c269 a23e b6a8 4dbf
00000020: 5c0e a93e d0a0 26bf fbbc f2be be84 283f
00000030: 7225 5f3f b4b1 92be f566 0abf 230b 3ebf
00000040: 5dcf ebbd 77c5 01be d01c 263e f91c fbbe
00000050: 320f 033f cba4 2b3f 047b 803f 170f adbd
00000060: 9492 a7bd 4335 2d3f 632f 253f 969a ffbe
00000070: 7469 cabe 06cc 1fbf 9eee 83bf 38da 2ebf
00000080: 0284 04bf 62fd 013f 175d 2fbe 3b64 5cbf
00000090: 9162 31be e43c 263e 7664 00be b900 a33e
000000a0: 1679 4fbf e09f b73c 1d18 423f 684a f23e
000000b0: fd62 4a3f e8b9 cf3e f4f7 18be 27bc c23e
000000c0: 222a 3a3f 1252 a4be 0ef8 373f 2046 81bf
000000d0: c4cf 5d3e bc76 1bbf 5474 403e fcb0 57bf
000000e0: 75c3 32be 6688 a6be bd4d f3be 50e9 d03c
000000f0: fb9b 39bf 0c2a 24bf ac9f 483e 4409 8dbe
00000100: 39ca 603f 5c2b 14bf 3fa1 d7be 5ce2 0d3f
00000110: a519 81be 19a6 1bbe 9f2a 4dbf d5aa 1d3f
00000120: 62d3 9c3e 1a91 343e c509 14bf 94c6 863d
00000130: f43e ac3e da9d 17bf d907 aebe 7a7a 50bf
00000140: 63bc 063f c3a5 c8be c87f 1abf 0a18 b8be
00000150: 7212 2b3f 6c78 4e3f f9b8 c1be fa90 b5bd
00000160: 1c73 81be 386d 373f a672 42bf b1a3 c33e
00000170: 1f03 9a3e 8d22 2dbf 68c4 bb3d 23fe 163f
00000180: c3d7 4a3f 4da9 c2be d022 1fbf d9a5 123f
00000190: 55d0 853d 4c1c 6b3f 77c3 103e ceb3 09bf
000001a0: 1579 123e 7355 91bd c4a3 853f 3e93 473f
000001b0: 6f6b 1fbf bc90 e6be 45bd 193f 8d3a 09bf
000001c0: ba85 183f 0066 f9be 1db9 d5bd c0ca 23bf
000001d0: 99b5 f7be cd10 23bf d544 843e a38d 5bbf
000001e0: 222d 36bf 37a4 4dbf 8f9e 1dbf 4e00 17bf
000001f0: e0ef 05bf dad0 10bf 210d fdbd f0de 2fbe
0.19932468 0.08015513 -0.55839556 0.14353459 -0.0136572495 -0.6010222 0.31721312 -0.8033556
0.33018768 -0.6508913 -0.47409806 0.6582755 0.8716651 -0.28651202 -0.5406335 -0.74235743
-0.11514161 -0.12672983 0.16221929 -0.49045542 0.5119506 0.6704833 1.0037541 -0.08450144
-0.081822544 0.67659396 0.6452543 -0.49922627 -0.3953358 -0.6242069 -1.0307195 -0.68301725
-0.5176393 0.50777256 -0.17125355 -0.8609044 -0.17322756 0.16234165 -0.12538323 0.3183649
-0.8104414 0.022415102 0.75818044 0.47322392 0.79057294 0.40571523 -0.14938337 0.38034174
0.7272054 -0.32093865 0.71862876 -1.0099525 0.21661288 -0.6072805 0.18794376 -0.8425443
-0.17457373 -0.3252594 -0.47520247 0.025501877 -0.7250363 -0.6412666 0.1959216 -0.27546132
0.8780857 -0.5787866 -0.42115209 0.5542352 -0.25214878 -0.1520008 -0.8014316 0.61588794
0.30630022 0.17633477 -0.5782741 0.065808445 0.3364178 -0.5922524 -0.33990362 -0.81436884
0.52631205 -0.39188966 -0.6035123 -0.3595584 0.6682502 0.806525 -0.37836435 -0.08865543
-0.25283134 0.7165103 -0.7595619 0.38210824 0.30080506 -0.67630845 0.09168321 0.5898153
0.79235476 -0.3801979 -0.62162495 0.57284313 0.06533877 0.9184005 0.14137064 -0.53789985
0.14304002 -0.07096376 1.0440602 0.7795905 -0.62273306 -0.450323 0.6005443 -0.53604966
0.5957905 -0.48710632 -0.10435698 -0.63981247 -0.48380736 -0.6369751 0.25833765 -0.85762995
-0.7116262 -0.80328697 -0.61570066 -0.5898484 -0.52319145 -0.5656868 -0.1235602 -0.17174888

model/conv_dw_11_bn/FusedBatchNormV3 f4 [128]
00000000: bb5f f2be fed3 403f 339e 4f3f c77b 30bf
00000010: 1eb5 00bf 0513 22bf ca22 1cbf 1570 f2be
00000020: dab0 47bf ea94 213f b811 22bf 9fbf ed3d
00000030: 6a1b e0be 6867 23bf 2a7e ce3e 669b ff3d
00000040: 7f75 fbbe 8007 323f a747 a43e b854 e1be
00000050: fb45 1cbf 1e2a 8cbc afce f23e d6fb 51be
00000060: 1bac 13bf 7c76 dcbe 501f 373f f9d9 12bf
00000070: f681 8f3f 7d03 943d 72b9 98be 0f4d c23e
00000080: 8644 d6be 5b78 31bf 5420 8f3e ca0a d6bd
00000090: 5319 7abe 8460 1f3f c704 43bd 1653 3b3f
000000a0: 9f77 e5be a3a9 863f f08c 01be b1ee 3bbf
000000b0: dcd5 b8be 2691 043c ac24 96be cc21 813e
000000c0: a037 283e 3db7 26be d25f f2be 7c33 93be
000000d0: 3b1d 8fbe 9bcd b43e cf82 28bf 73bb 0cbe
000000e0: 6087 1ebf 0495 1bbe a1f8 8c3e 5de8 7a3d
000000f0: 3c70 423f f42f 31bf 8e92 a3be 8e38 da3e
00000100: 5163 4cbf 1271 5fbf 2807 b13e 1041 293f
00000110: ddec eb3d 865c 0fbe 2655 ba3e 0958 fabe
00000120: 326f debe 9eb6 cb3e 66b2 023f f2a9 1a3f
00000130: e3f4 e03e 0cb6 9d3e 9ac7 70bf 7b14 223e
00000140: 3ba2 2dbf 07c6 41bf e9da 89be a5a3 7e3e
00000150: 240d a9bc 9c2e 46be a06c 353a 51ee 62be
00000160: 160f 45bf 163a eabe 702f 623f ff80 4b3f
00000170: 4c97 4ebe 3204 1cbf 7db4 813e 567c 483e
00000180: 99b7 06bf 1bac 913d 3a7f 793f 8b0d 1ebf
00000190: 6019 c73e e106 9cbe 5131 15bf c282 5a3e
000001a0: 6f15 f8bb 243f 653e d394 e73e 0a19 34bf
000001b0: c1a4 3dbf 640a bebe 882a 1a3f 6fcb 95bd
000001c0: 471a 553f d701 203f ca83 c73d f0f2 df3e
000001d0: a902 ef3e 524f be3e 6e1d 4f3f da47 4cbf
000001e0: 3190 16bf 34ff 96be 0110 d93e 8dc9 d1be
000001f0: ed9e 52bf 6706 e9be cab3 8fbe 425c 4bbf
-0.47338662 0.75323474 0.8110077 -0.6893887 -0.5027636 -0.6331027 -0.60990584 -0.47351137
-0.7800423 0.6311785 -0.63308287 0.116088144 -0.43770915 -0.6382966 0.4033063 0.12480812
-0.4911308 0.69542694 0.32085916 -0.44009948 -0.6104428 -0.017109927 0.47423312 -0.20506224
-0.5768449 -0.43059146 0.71532154 -0.5736385 1.1211536 0.07227228 -0.29828984 0.37949416
-0.41849154 -0.6932427 0.27954352 -0.104512766 -0.24423723 0.62256646 -0.047611978 0.73173654
-0.44817826 1.0520519 -0.1265142 -0.7341109 -0.36100662 0.008091247 -0.29324853 0.25221097
0.16427469 -0.16280837 -0.4733873 -0.28750217 -0.2795199 0.35313115 -0.658246 -0.13743381
-0.61925316 -0.15193564 0.2753344 0.061256755 0.75952506 -0.69213796 -0.3194775 0.42621273
-0.79839045 -0.87281907 0.34575772 0.661149 0.115197875 -0.14000139 0.36393088 -0.4889529
-0.4344421 0.39787763 0.51053464 0.60415566 0.43936834 0.30802953 -0.9405457 0.15828125
-0.6782567 -0.7569279 -0.26924828 0.24867113 -0.020636149 -0.19353718 0.00069207884 -0.22161223
-0.76976144 -0.4574744 0.88353634 0.7949371 -0.20174903 -0.609439 0.25333014 0.1957868
-0.526239 0.07112905 0.9745976 -0.61739415 0.38886547 -0.30473998 -0.58278376 0.21338943
-0.0075709145 0.22387367 0.4523073 -0.70350707 -0.7407952 -0.37117302 0.6022115 -0.073141925
0.8324322 0.6250281 0.09741934 0.43740034 0.46681717 0.37169892 0.8090428 -0.79797137
-0.5881377 -0.2949158 0.42395023 -0.40974084 -0.8227375 -0.45512697 -0.28066856 -0.7943765

model/conv_dw_12_bn/FusedBatchNormV3 f4 [128]
00000000: 18f1 903e e465 233d a11d 65bf 8f35 1fbf
00000010: 16f7 823f fe6f c4be 5518 193f a23b 483f
00000020: 4839 80bf 8287 d1be e4ae 33bf 1736 893d
00000030: c0fc 593f 5be2 003f 61cb 213f 18d2 ad3e
00000040: 73e2 4a3f 29c5 e83e cadc 193e e496 7a3f
00000050: 8830 543f e1b3 cd3e 3207 6e3f 16f8 68bf
00000060: 85cf ffbd b532 873e 0a08 6f3d 7533 bbbe
00000070: d5dc e8be b6b8 5d3f d8ec 753e 0171 023f
00000080: 5a3e 0bbf 5a65 ebbe 1648 273e fc71 00bf
00000090: 84ff 8fbe 1f3c 3e3f 1ef3 babe a1a0 23bf
000000a0: 1181 2b3f bd28 febe 84c3 243f dd35 22bf
000000b0: ea3f 043f ff34 eebe 6019 713e c132 04bf
000000c0: 3aba 34bf 5ccf d1be 6253 9ebe d832 55bd
000000d0: adc9 28bf 1d7d 3fbf 366e 3e3f a12a 433f
000000e0: 9403 263f 6b88 853f dd8c 653f dd73 7e3f
000000f0: c84b eabe b1a3 593e 051d 543f 2a2f 8abe
00000100: cf7e 303e 8eb2 1bbd 3c5f a0be b0b8 fdbe
00000110: 8abe 483d 6324 6abe 2ab6 713e ea9d 2a3e
00000120: 79c4 cfbe 9783 593f ae37 0cbf e80d 20be
00000130: 051b 1ebf 13c0 48be aba1 43bf 7b41 73bf
00000140: c8f0 c03e e9f8 a1bd 33af 443e 64e0 663f
00000150: 618a ffbe 845e cb3e 2c7e 783f e54e cc3e
00000160: f4cb 543f aca5 cf3e 29c0 27bf b96c 2fbf
00000170: f548 223f 6780 f6be 4012 a8be 1a5d 86bd
00000180: c245 283e eaa1 6e3d f5e7 3c3f 751f 99be
00000190: 20fa 15bf 8c0c a2be bbef 55bf 4089 033f
000001a0: d7e2 7fbe fc28 6f3e 1ea0 b03e be42 afbc
000001b0: a455 51bf a4e2 5abf f947 30bf 59db 42bf
000001c0: e590 843c 9bbd 833f f17f 1dbf d655 323f
000001d0: 4263 32bf 0ef7 dfbe f0c2 f63e 22bc acbe
000001e0: 7d7b 44bf 65f2 8f3f 1cd0 60be 94ee d0be
000001f0: 45a4 d93e 38a5 d03e caca 2f3f 2931 eabe
0.2830894 0.039892092 -0.89498335 -0.621911 1.0231655 -0.38366693 0.5980275 0.7821599
-1.0017481 -0.40923697 -0.70188737 0.0669977 0.8515129 0.5034539 0.63200957 0.3394935
0.79251784 0.4546292 0.1502563 0.9788649 0.8288655 0.401763 0.9297973 -0.9100355
-0.12490753 0.26405874 0.058357276 -0.36562696 -0.4548098 0.8660997 0.2401613 0.5095368
-0.54392016 -0.45975763 0.16336092 -0.50173926 -0.2812463 0.7431049 -0.3651361 -0.63916975
0.66993815 -0.49640456 0.64360833 -0.6336344 0.51660025 -0.46524808 0.23544836 -0.51639944
-0.7059666 -0.40978515 -0.3092299 -0.05205044 -0.6593273 -0.7480028 0.7438692 0.7623692
0.6484921 1.0432256 0.89668065 0.99395543 -0.45760942 0.2125385 0.8285678 -0.26989108
0.17235874 -0.03801208 -0.31322658 -0.49554968 0.049009837 -0.22865443 0.23604646 0.16661802
-0.40579584 0.84966415 -0.5477246 -0.15630305 -0.6175998 -0.1960452 -0.7641856 -0.9502179
0.37683702 -0.07908804 0.19207458 0.9018614 -0.49910262 0.39720547 0.97067523 0.39903942
0.8312371 0.40556085 -0.6552759 -0.6852527 0.63392574 -0.48144838 -0.32826424 -0.065607265
0.1643286 0.058259882 0.7379144 -0.29906812 -0.58584785 -0.31650198 -0.83568925 0.513813
-0.24988876 0.23355478 0.3449716 -0.02139413 -0.817713 -0.85502076 -0.6885982 -0.7611595
0.016182372 1.0292238 -0.6152335 0.69662225 -0.69682705 -0.43743175 0.481956 -0.33737284
-0.7675093 1.1245848 -0.21954387 -0.4080702 0.4250814 0.40751052 0.68668807 -0.4574063

model/conv_dw_13_bn/FusedBatchNormV3 f4 [256]
00000000: 4dfd 62be 0fad 2c3f 6673 a23e cb1c 8dbe
00000010: 2d3c 8bbc 027f 063f 0c94 bebd 381a 093f
00000020: b314 cabe 69df c33e 8804 743c a87e eb3d
00000030: 05a8 aa3e 6164 32bd 2e85 c4bc 0ffc 7a3d
00000040: ee73 e6bd f0dc 17bb c209 f83d f9f9 61bf
00000050: ed6d 313f 9a2a e4be be21 e1be eaa9 9f3e
00000060: 8d9b 45be 9f77 f93e 8f6b 9e3e 5546 fa3e
00000070: 6e7f fcbe 7b66 88be 389e 7b3e 0437 04be
00000080: 5254 c3be 858b adbd 822d 24bf e3cb 93be
00000090: a693 46be 237e 323f 9e04 51be 77a1 f4be
000000a0: 198e 023e cee9 4dbe 475e 56bf aa18 293e
000000b0: e33e bbbd 8088 02be b5c6 8bbe f36a abbe
000000c0: a6a5 51be 9cd1 323f a423 f0be c3da a1be
000000d0: 8e94 5bbd e14c 253f 35d3 4d3e afeb 683e
000000e0: 01ff d53e 1336 6fbe 84c4 0fbf 4f30 a53e
000000f0: 4545 af3d c448 3bbe a882 543f 4325 ed3e
00000100: 5747 9e3e 39a8 22be c4de c83e cc3c 9e3e
00000110: 4d3d 51be bccc 3ebe e556 233f d5ff d2be
00000120: 3127 17be d645 ae3d acbb 063f 61c5 8bbe
00000130: 4df5 f2be b4e6 8cbd aca8 abbe ea7b a6be
00000140: 1692 ed3e e85d 213e eac8 8abe e1fb 433e
00000150: aa20 693f 6456 17bf 60f6 9ebe edd2 0d3f
00000160: 5e4b 93bd aa06 e6be 7c42 d13e 6d0d 33be
00000170: cd21 30bf 7cb3 5e3f 8086 453f 50fd 3abe
00000180: 133e 02bf b65a 3d3e 8bc8 563f d2e4 f0be
00000190: 75df 49be 7fb0 0dbf eeac e53d 7a2c e2be
000001a0: da63 46be 8cb7 093f 99d7 e33e 72a1 3a3f
000001b0: 4dc6 c1be f15a 02bf 6190 55be 553a 3a3f
000001c0: a1ec 853e 7c63 52bf 8cec 393f 3a92 2a3f
000001d0: 4850 d43c 22c1 da3e 9e50 0d3f 2aa6 82bd
000001e0: 1668 253f b515 ac3e 2036 dd3e 49cf c5be
000001f0: 78df 19bf 0507 24bf f3c3 fcbe 901d 65bf
00000200: a83a fb3c 64e7 32bd 0c41 243f 3e15 20be
00000210: 8b03 813f 4fd5 13bf bcf9 ce3e 055c d9be
00000220: 78f6 38be 1a55 98be 897c 80be 82c6 0c3f
00000230: efec 053f cb7a 693e f413 4d3e 7abc 18bf
00000240: d012 473d bd5e 0ebf fd3f 53be 0e64 27bf
00000250: 576a 073e 0b10 7a3e 9517 e2bd 7d98 7d3f
00000260: b744 0f3f de19 8fbd c5ca 49bf 5ac0 c0bd
00000270: 8097 0fbe 3c87 483f bc98 dd3d 5c3c 2bbe
00000280: 5ce8 c73d 5250 3dbd daaf f63d 2a1e 2cbf
00000290: f7c0 0ebf a82a 92bc b69f 98bc 74c9 febe
000002a0: 66ff 8dbe fe48 3b3e f304 9e3c df83 48bc
000002b0: 60ff fbbe 222a 123f d7c2 2b3f 2f8f ab3e
000002c0: 7293 e43e 9662 b73c 99f4 c73d 768d 343f
000002d0: 45ec c4bc 905b 963d a121 b4be 26ce 77bd
000002e0: 9712 a9be f0a9 1e3d 85a9 21bf 2004 0d3f
000002f0: b45e 153e 609d aa3d 4ed3 95be 90ad babe
00000300: 2568 593d ac1b be3d ed76 a03e 8dcb b6be
00000310: fcd9 ccbd 4d9f 89bd ed78 fb3e 2b00 8e3f
00000320: e14c a73c 9fab e0be 142e 5e3e 44d2 d7bb
00000330: 0624 813c 9709 8c3d 4af1 d63e 7853 cabe
00000340: 6b2d 4a3f 0ec8 103f 6381 163f 914c 04bd
00000350: 3f7e 743f 54dd 0c3f 7ee8 97be e7be 373f
00000360: f296 303d b67d 3cbf 6aad 01bf ac1b d13e
00000370: b453 bbbe 6f79 d9be dec3 c4bc 1d98 e53e
00000380: a206 cf3e faf7 f5be 3dc2 aabe 07f3 2cbf
00000390: d2cb c63e e88e 013f a489 49bd 2177 193f
000003a0: c5b1 13bf 9582 bc3e 974b 3abf 28a3 0abe
000003b0: fe76 1fbe 039a 8fbd 3354 10be f9a4 1ebf
000003c0: 3229 17bf d2ea 83be 2a05 483c d8fb 483d
000003d0: f053 6abe e4c2 543f 2d88 a9be 38ce 123f
000003e0: a833 113f 17dd 85bf 98de 4f3d e099 4ebc
000003f0: b867 e5be 4b81 323f e4d8 04bf a816 6b3e
-0.22166939 0.67451566 0.31728667 -0.2756103 -0.016996467 0.5253755 -0.093055815 0.5355563
-0.39468917 0.38256386 0.014893658 0.11498767 0.33331314 -0.04355276 -0.023989286 0.061275538
-0.112525806 -0.002317246 0.12111236 -0.88272053 0.6930836 -0.44563752 -0.43971056 0.31184322
-0.19297619 0.48724076 0.30941436 0.48881784 -0.4931597 -0.26640686 0.24572074 -0.12911612
-0.3815027 -0.08473877 -0.6413194 -0.2886649 -0.19392261 0.6972372 -0.20411918 -0.47779438
0.12749518 -0.2010872 -0.83737606 0.16513315 -0.09142854 -0.12747383 -0.2730004 -0.33480033
-0.20473346 0.6985109 -0.46902192 -0.31612214 -0.05360847 0.6457043 0.201001 0.22746156
0.41796115 -0.23360471 -0.56159234 0.3226342 0.08558134 -0.18289477 0.83011866 0.4631749
0.30913803 -0.15884484 0.39232457 0.3090576 -0.2043354 -0.18632787 0.63804466 -0.4121081
-0.14761044 0.08509414 0.52630115 -0.27299026 -0.47452775 -0.06879941 -0.33527124 -0.32516414
0.46400517 0.15758479 -0.2710641 0.19139053 0.91065466 -0.59116197 -0.31047344 0.5539997
-0.071921095 -0.4492696 0.40871036 -0.1748559 -0.68801576 0.8699262 0.77158356 -0.18260694
-0.5087597 0.18491635 0.83899754 -0.47049576 -0.19714148 -0.55347437 0.11214624 -0.44174558
-0.19374028 0.53795695 0.44500425 0.72902596 -0.37846604 -0.50920016 -0.20855857 0.7274526
0.26157096 -0.8218305 0.72626567 0.66629374 0.025917187 0.42725474 0.5520114 -0.063793495
0.6461195 0.3361031 0.43205357 -0.3863471 -0.6010661 -0.6407321 -0.49368247 -0.89498234
0.030667618 -0.043677703 0.64161754 -0.15633103 1.0079206 -0.5774736 0.40424907 -0.42453018
-0.1806277 -0.29752427 -0.25095013 0.549904 0.52314657 0.22800748 0.20027143 -0.5966259
0.048601925 -0.5561331 -0.20629878 -0.65387046 0.13224159 0.24420182 -0.11039654 0.99060804
0.55964226 -0.06987356 -0.78825027 -0.09411688 -0.14022636 0.7833135 0.108201474 -0.16722244
0.09761116 -0.046219178 0.1204526 -0.67233527 -0.5576319 -0.017842606 -0.018630844 -0.49763072
-0.27733916 0.18289563 0.01928947 -0.012238472 -0.49218273 0.5709554 0.67094177 0.33507678
0.44643742 0.022385877 0.0976345 0.7052835 -0.024038443 0.07341683 -0.35181907 -0.060499333
-0.33021995 0.038736284 -0.6314929 0.5508442 0.14586908 0.08330798 -0.29262775 -0.36460543
0.053077836 0.09282622 0.31340733 -0.35702172 -0.10002515 -0.06719837 0.49115697 1.1093801
0.0204224 -0.43880937 0.21697265 -0.006586345 0.015764248 0.068377666 0.41980964 -0.39516807
0.7897555 0.5655526 0.5879118 -0.032299582 0.95505136 0.5502522 -0.29669565 0.7177567
0.043112703 -0.7362932 -0.50655234 0.40841424 -0.36587298 -0.4247546 -0.024019178 0.44842616
0.40434748 -0.48040754 -0.33351317 -0.6755833 0.38827378 0.5060868 -0.04920353 0.599474
-0.5769313 0.36818376 -0.7277159 -0.13538802 -0.15572736 -0.07011797 -0.1409462 -0.6197048
-0.59047234 -0.2576509 0.012208262 0.049068302 -0.22883582 0.8310988 -0.33111706 0.57345915
0.56719446 -1.0458096 0.05074939 -0.012609929 -0.44805694 0.69728535 -0.5189345 0.22957861

model/conv_dw_1_bn/FusedBatchNormV3 f4 [8]
00000000: 505f c0be 63d8 273f db3d 323f 6550 233e
00000010: 7353 4fbf 27f5 2abf 8d88 27bf bd84 123f
-0.37572718 0.65564555 0.69625634 0.15948637 -0.8098671 -0.6678032 -0.65442735 0.5723379

model/conv_dw_2_bn/FusedBatchNormV3 f4 [16]
00000000: bd6f 29bd c4f3 2a3f 5902 abbe 7518 19be
00000010: 1b97 8cbf 2574 163f dc5a 863f fa48 f0be
00000020: fd50 e3be 38af 91be d86f 313f 73ac 2cbf
00000030: 2399 023f 78b4 fd3e 6b01 8abf 9df1 cabe
-0.041366328 0.66778207 -0.3340023 -0.14950736 -1.0983614 0.5877097 1.0496478 -0.46930677
-0.44397727 -0.28453994 0.69311285 -0.67450637 0.5101492 0.4955175 -1.0781683 -0.3963746

model/conv_dw_3_bn/FusedBatchNormV3 f4 [32]
00000000: d3bd 8cbf b772 373f 4b06 9bbe 142f b7bd
00000010: 1ae1 c2bd c4c8 74bf 3c01 afbe 2c8e 74bf
00000020: 04e2 703f b294 a43e 3601 a1bd 10e9 0abf
00000030: 1895 643f 09af a5be 782f 41bf eb0d 95bf
00000040: 5fea 46bf c238 b73e 0332 d2be 4d4e 46bf
00000050: 1861 0fbf 1eb7 8fbe b200 e1be 8c64 563e
00000060: 3a36 26bf b057 9bbf 730f 25bf f308 683e
00000070: 56a4 29bf c7b5 403f 7612 11be bb7a 43be
-1.099543 0.71659416 -0.3027824 -0.08944526 -0.09515591 -0.95618844 -0.3418063 -0.9552944
0.9409487 0.32144696 -0.07861559 -0.54261875 0.8929 -0.32360104 -0.75463057 -1.1644872
-0.7770137 0.3578549 -0.4105378 -0.7746323 -0.5600753 -0.28069395 -0.43945843 0.20936793
-0.64926493 -1.2136135 -0.644767 0.22659664 -0.6626638 0.7527737 -0.14167199 -0.19089787

model/conv_dw_4_bn/FusedBatchNormV3 f4 [32]
00000000: d125 50bf 04e8 083f f4a2 25bf 88fa 923f
00000010: 775d b6be 580c 703f a778 11bf cbad da3e
00000020: 2211 28bf fd0b 533f 109d 8cbe f374 923d
00000030: 7302 87bd 903b 54be 4ba4 373e 50d7 0dbf
00000040: fd52 993f 3f29 253f 02bb 223f 70de 203f
00000050: 707e 593f 4f4a e8be 2b11 983f 0429 e6bd
00000060: f7a0 263e 2d2b e3be aecb 3a3f 0a54 d13e
00000070: 63ae b9be 44c6 f13e 2bf5 03bf 9780 6dbe
-0.81307703 0.5347903 -0.6470177 1.1482706 -0.35618183 0.93768835 -0.56824726 0.4271072
-0.6565114 0.8244017 -0.2746358 0.071512125 -0.06592264 -0.20725846 0.17933767 -0.55406666
1.1978451 0.6451606 0.635666 0.6283941 0.84958553 -0.45369193 1.1880239 -0.11238292
0.1627234 -0.44368878 0.7296704 0.4088443 -0.3626586 0.47221577 -0.5154597 -0.23193584

model/conv_dw_5_bn/FusedBatchNormV3 f4 [64]
00000000: a82e e5bd cdf6 2abf 5f27 4abf 595e 0a3f
00000010: 7e56 933c b8f0 3cbf 4882 2fbf 0f33 723f
00000020: 0523 28bf 8d4c d63e 7371 223f fbf5 573f
00000030: 9889 523e b04a d4be 1946 3abf 6654 023f
00000040: c2ec 7d3f 839c 263e d7a7 623f 5aea cb3c
00000050: ed96 2a3e 37ca ad3f fcde 83be 8289 46be
00000060: a816 19bf bcfa 5dbf 0d2e 0c3f 0d72 37bf
00000070: c981 cf3e 9e2f f03e 8fd8 8abf 2e3a 1cbe
00000080: f0da 123f eb9d 903d 0e63 6f3d a713 fc3e
00000090: 1c34 46be 4a6e 95bf bd52 2dbf debe 173f
000000a0: 4cf8 55bf 7415 0ebf 2fdd 8a3f 4bc8 5ebe
000000b0: b479 13bf ad60 48bf 1103 e53e 97c1 ca3e
000000c0: 70a7 483f ba77 663f 7a60 62bf d7d1 893f
000000d0: 6b9a 893f af41 443f 1993 883e 6fc8 863c
000000e0: 5bf9 973f 264f 85be 936c 1dbf 94d8 c3bd
000000f0: d6b2 333f 03e1 e6be 2f92 b5be 1c4c 453e
-0.111905396 -0.6678284 -0.78966326 0.54050213 0.017985579 -0.7380481 -0.6855817 0.9460916
-0.65678436 0.4185528 0.6345436 0.8435971 0.205603 -0.41463232 -0.7276321 0.5091003
0.9918939 0.16270642 0.88537353 0.024892021 0.16659136 1.3577336 -0.2575606 -0.19388393
-0.59800196 -0.86710715 0.5475777 -0.716584 0.40528706 0.4691133 -1.0847338 -0.15256569
0.5736532 0.070613705 0.058444075 0.49233744 -0.19355816 -1.1674283 -0.67704374 0.59275615
-0.83581996 -0.55501485 1.084875 -0.21756093 -0.5760758 -0.78272516 0.44728902 0.39600822
0.7838049 0.9002644 -0.8842846 1.0767163 1.075025 0.76662725 0.26674727 0.016452996
1.1872972 -0.26036948 -0.61493796 -0.095627934 0.70194757 -0.45093545 -0.35463092 0.19267315

model/conv_dw_6_bn/FusedBatchNormV3 f4 [64]
00000000: 0b99 4ebe ccf0 31bf 40be 3f3f 304d 463f
00000010: bb5d 343f bafd 20bf 8a12 4bbf 1eb9 4e3f
00000020: d233 51bf 66a1 90bd 6680 b3be 87aa ac3e
00000030: 26cd 1e3e 509e fbbe e62c 333f 58d2 9a3c
00000040: c0bc 8fbe f9cd 7bbf 26b2 783f fc5f fdbd
00000050: 0ccc 0dbf 39d6 24be b25d 763f 2c81 c73d
00000060: b3fb 37bf 2b30 4c3f 90bf 5abf 8e7f 3bbe
00000070: 284f 283f 941c b0be c9a8 58bf 811e 833e
00000080: 9e0e 40bf f0a6 d4be 0e48 9cbc fc46 0ebf
00000090: 6216 06bf 2a58 653e 960b 40bf 4776 843d
000000a0: 9666 cfbd 60d2 2ebf 1272 13be 88d4 64bf
000000b0: 835f 553f f970 6ebf 6b8d acbe 5b63 80bf
000000c0: 481b 293f 22b0 dc3e 7313 d4be bfca fe3d
000000d0: 2e75 003f 2846 21be b01e 193d d3c2 14bf
000000e0: d1bf 32bf dc36 583f 3cc0 583e d70d 953f
000000f0: 05ab 163f 34ab 873f 35c0 d3bd 5ceb 18bc
-0.20175569 -0.6950805 0.74899673 0.7746153 0.7045552 -0.62887156 -0.79325163 0.80751216
-0.81719697 -0.07062034 -0.35058898 0.33723852 0.15507945 -0.4914422 0.69990385 0.018899128
-0.28073692 -0.98361164 0.9714683 -0.12371823 -0.55389476 -0.16097344 0.9623672 0.097414345
-0.7186844 0.79761 -0.8544855 -0.18310377 0.6574578 -0.34396803 -0.84632546 0.2560921
-0.75022304 -0.41533613 -0.019077327 -0.55577064 -0.52377903 0.22396913 -0.7501768 0.06467872
-0.101269886 -0.68289757 -0.14398983 -0.89386797 0.83348864 -0.9314113 -0.33701643 -1.0030321
0.6605725 0.4310313 -0.4142109 0.124410145 0.501788 -0.15749419 0.03738278 -0.5810978
-0.6982394 0.8445871 0.21167082 1.1644849 0.58854705 1.0599122 -0.10339395 -0.009333458

model/conv_dw_7_bn/FusedBatchNormV3 f4 [128]
00000000: f37c d8be 83b2 84bf 5410 20be 2cda e2be
00000010: 07db f3be 395a 2dbf 3167 9fbe 2dc6 ddbe
00000020: 922b 02be 1edb 7b3e abf2 26bf 25fa 0bbf
00000030: e2f0 c8be 901c f73d 5c24 6c3f 89c4 a93e
00000040: 89f6 203f 4e54 243f 73ee 703f b459 be3d
00000050: 7444 fe3e 05c4 6d3f 39cd 0dbf 7d46 8dbf
00000060: 49f4 f43d ca54 ce3e 5c84 dfbe d726 2b3f
00000070: dbb8 d93e e31b 31bd 7893 2ebf 1c7f eebc
00000080: 1105 2ebf 18cf 47bf f259 d1bd 44e2 38bf
00000090: 8c89 113f 5866 0c3c 5ce2 b7be bea9 73be
000000a0: e32c 623e 663e e7be 2483 cbbe 4326 9cbe
000000b0: a630 56bf f8e0 303e 8302 0ebf 1a77 79be
000000c0: 1670 fc3e be5c 23bf 14a7 40bf 828d e1be
000000d0: 0f01 3b3f 15d7 223f c457 01bf a811 2ebf
000000e0: 97a5 5dbf 1227 413e 6b25 d2be e4f4 3fbf
000000f0: e4c5 adbd b279 933f 95e6 3a3f 1678 29bf
00000100: 09e1 003e 6919 23bf 6f61 a33e eb35 b23e
00000110: 760e 11be 153a 2abf 0251 2bbf d1f3 793e
00000120: 6a71 553f d6fc 13bf ecf2 763f df62 2e3e
00000130: 7eaa 5e3e dbc6 36be c1cf 443f 4ce1 693f
00000140: 4242 68be eb03 bc3e a0fb 40bf 3c4a 523e
00000150: 513a 273f 9ae6 a3be 59f7 aabd 2631 333e
00000160: d210 e8be 4e94 423f 3b01 4dbf 428b 9b3e
00000170: 9012 543f 9932 3f3f b46e a53e efb3 873e
00000180: 3ff1 c9be 5d45 15be caac afbe e85f 253f
00000190: afd4 05bd f534 d5bd d675 18be a36b 303f
000001a0: b5cd 00be 0b4f c3be 8402 e1be e6a8 6abe
000001b0: 7775 04bf f07c 9d3e 030e 5dbe b077 f6be
000001c0: c6a4 523e 52d3 013f 0cc3 3cbf db5e 41bf
000001d0: 007e 9d3f 9431 6f3f 1ef1 8c3f 0a90 99bd
000001e0: 429f 15bf b434 bb3e c8a2 ee3d e729 5cbe
000001f0: 9ea2 e2be 3a14 fb3e 7558 b03e 44cc 923c
-0.4228283 -1.0366977 -0.15631229 -0.44307077 -0.47628042 -0.67715794 -0.31133416 -0.4331526
-0.12711933 0.24595305 -0.6521403 -0.54678565 -0.3924628 0.12065995 0.9224298 0.33157757
0.6287618 0.6419114 0.94113845 0.09294453 0.496616 0.9287723 -0.5539127 -1.1037136
0.11960656 0.40299064 -0.4365567 0.6685614 0.42523846 -0.043239485 -0.6819377 -0.029113345
-0.6797648 -0.78050375 -0.10222234 -0.72220254 0.56850505 0.0085693225 -0.35914886 -0.2379522
0.22087435 -0.45164794 -0.3974849 -0.3049794 -0.8366798 0.17273319 -0.5547258 -0.2436184
0.49304265 -0.6381339 -0.7525494 -0.44053274 0.7304849 0.6360944 -0.50524545 -0.6799569
-0.86580795 0.1886256 -0.41044173 -0.7498305 -0.0848501 1.1521513 0.7300809 -0.6619886
0.12585844 -0.6371065 0.31910273 0.3480676 -0.14165673 -0.66494876 -0.66920483 0.24409415
0.8337618 -0.5780767 0.9646442 0.17029904 0.21744725 -0.17849295 0.7687951 0.913594
-0.22681525 0.3672174 -0.7538395 0.2053613 0.6532336 -0.32011873 -0.08347959 0.17499217
-0.45325333 0.76007545 -0.8008 0.30379683 0.82840824 0.7468658 0.32311022 0.26504466
-0.3944187 -0.14577241 -0.34311515 0.64599466 -0.032673534 -0.104104914 -0.14888701 0.6891424
-0.12578471 -0.38146242 -0.43947232 -0.22915992 -0.5174174 0.30759382 -0.21587376 -0.4813819
0.20570669 0.50713074 -0.7373512 -0.7553536 1.2304077 0.93435025 1.1011083 -0.074981764
-0.58446133 0.36563647 0.11652142 -0.2150036 -0.44264692 0.4903887 0.34442487 0.017919667

model/conv_dw_8_bn/FusedBatchNormV3 f4 [128]
00000000: 86ba 30be 0c46 583f ac03 60be 650a 223f
00000010: 4f54 693e 8dc3 573f 21fe 0fbf 1ac2 4b3f
00000020: 610a 023f be3b 0ebf d4fe 45bf 7e37 66be
00000030: 15cd b8be 19f4 3abf bc1b 61bf 9300 e13e
00000040: 8b80 08bf 8501 ed3e 4e68 60bf 6f2d 943f
00000050: b0eb fcbe 9d02 43bf 83a9 8f3f 6e4d 9bbe
00000060: d0c5 f13e 956f a73e 2824 c8be 21e6 1dbf
00000070: 9adf 113f 9969 fdbe 14c4 373e 70d4 023f
00000080: 76aa 98be 71a9 a5be dba8 d53e 6666 1ebf
00000090: 95bc a43e 2083 853f e93d 0ebf 0211 343f
000000a0: c445 01bd 5d77 553f 261c 31bd 6cf3 9bbe
000000b0: d2bc 583f 2703 30bf 3a0a e83d f23b 96bc
000000c0: fadd 0d3d 1d66 1fbf f474 8a3e 1cd9 23bf
000000d0: adc8 c33d 39d4 c93e 0201 ba3f a200 81bd
000000e0: 6516 19bd cc80 39bf 7a76 15bf 42da babe
000000f0: 4361 d93d 4dc2 e1be 9225 30be 3e0e 423e
00000100: 8059 fbbe 6f20 ec3d d35e 933f 53a3 2dbf
00000110: ed0f 183f d10f 93be 7385 173f 19db 673f
00000120: a4a3 babe efbc 8ebe d416 97be 4359 553f
00000130: 3bcb 9bbe cc0f 8d3e 30c1 083e 1688 723f
00000140: 404a a8be 78a2 48bf de80 c4be 4aaa 9b3e
00000150: 3a8a 303e a096 0cbf dfa2 8c3f 9d6f a53e
00000160: 4acd 4abe 4255 693f 6d96 0bbf 18e7 0dbf
00000170: 22be 023f 8eb1 ae3e ad93 683f c850 1ebd
00000180: 946f 40bf ae23 0fbf 7e32 523f 1763 2cbd
00000190: 5a1e 3e3f f5be 613f 2fc5 073f 2d17 55be
000001a0: 986e 07bd 4b3e 5abf fb84 c83e 725e 5c3f
000001b0: 08e2 1abe f10a f6bd 67bb 65be 6f17 00bf
000001c0: cb0a c8bd 55fe 073f a800 7abf 63c7 203f
000001d0: 802f 2fb9 ff10 483d fad4 1cbf 72be a8be
000001e0: 0a04 bebe 5123 9b3f 7531 29bf ee31 17be
000001f0: 6c24 07bf 9738 313f 6f58 0e3f c4d8 c2bd
-0.17258653 0.84481883 -0.218764 0.6329711 0.22786067 0.8428276 -0.56247145 0.7959305
0.50797087 -0.5555991 -0.7734196 -0.22482106 -0.36093965 -0.73028713 -0.87932944 0.4394575
-0.5332114 0.46290222 -0.87659156 1.1576365 -0.49398565 -0.7617586 1.1223606 -0.30332512
0.4722123 0.32702318 -0.39090085 -0.61679274 0.56981814 -0.49494627 0.17945892 0.51105404
-0.2981755 -0.32355836 0.4173039 -0.61875 0.32175127 1.0430641 -0.5556322 0.7033845
-0.031560674 0.8338526 -0.043239735 -0.30459154 0.84663117 -0.6875481 0.113300756 -0.018339131
0.03463552 -0.6226519 0.27042353 -0.6400316 0.0955976 0.39419726 1.4531558 -0.06298949
-0.037374873 -0.72462153 -0.58383906 -0.36494642 0.10614254 -0.44093552 -0.17201832 0.18950745
-0.4909172 0.11529624 1.1513313 -0.6782734 0.593993 -0.28723004 0.59188 0.9056869
-0.36452973 -0.2787852 -0.29509604 0.8333933 -0.3042849 0.27551115 0.13354945 0.947389
-0.32869148 -0.7837291 -0.38379568 0.30403358 0.17240229 -0.54917336 1.0987204 0.32311717
-0.19804874 0.9114572 -0.54526407 -0.55430746 0.5107137 0.34119838 0.90850335 -0.038651258
-0.75170255 -0.5591382 0.82108295 -0.042086687 0.7426506 0.88182 0.53035253 -0.20809622
-0.033064455 -0.852513 0.39163956 0.8608161 -0.15125287 -0.12013806 -0.2243477 -0.50035757
-0.097676836 0.53122455 -0.9765725 0.6280424 -0.00016706996 0.048844334 -0.61262476 -0.32957798
-0.37112457 1.2120153 -0.6609109 -0.1476514 -0.5278995 0.69226974 0.5560369 -0.09514001

model/conv_dw_9_bn/FusedBatchNormV3 f4 [128]
00000000: 3dd3 0bbf 33ba b7be 615f a2be fb4f bdbe
00000010: e5bc e63e 2fb8 ce3e b5e1 3d3d 6b20 ab3d
00000020: 32c0 153f 24fe 413f 84e6 1bbf 16c0 733f
00000030: 83f0 12be 2b08 713f d3ba 2d3f 65bf 4c3f
00000040: 81b3 39bf 4601 213f f10a 53bf ca50 173f
00000050: ffe2 74be e2de cabc a531 3b3f a154 bcbe
00000060: 8daa 5fbe 9bcd 863f 6ef4 633f aa31 443f
00000070: ab45 253f 5b29 463d 6d4a 80be d2d6 b03c
00000080: 5c2b 4b3f a436 bfbe 40ad ca3b 6c2c aebe
00000090: 2cde fb3e 38b9 3d3f 5fd4 e8be 028f be3e
000000a0: 187d 51be 3aa2 e13e b3c8 a8be 2635 9ebd
000000b0: 3ffa 59bf b57c 0e3e 814b 69be 9779 48bf
000000c0: 4a2e 01bf 2814 15bf 6f01 13bf 424a 09bc
000000d0: 1a5a 51bf 9dfd 44be 3248 0c3f d89d fb3e
000000e0: 5d82 583f ccc9 d23d eaed 583f bd8d 3dbe
000000f0: 8d09 42bf a37c 3e3f f42a 58bf fcce 3fbf
00000100: 2d9e 243f 979a d8be 9e9b 273f 79ef 38bf
00000110: b359 46bf 831d 86bd 376d 64bd c8b6 55bf
00000120: b88d 343d 496b 2bbd b928 24bf 66b1 2cbf
00000130: 76cb ae3c fc46 00be 4295 483f 6acc 163f
00000140: 6e7c 5cbf 6981 b43e acb9 5c3e 384e 8e3e
00000150: f9dd 44bf fb3e 363f e20f 27bf eeb4 1a3f
00000160: 96ff 02bf 382c 13be b2dd 673e 786f d43e
00000170: 84d7 83bf 7e59 12bd 5e3d 63be d58b 713e
00000180: 6d2b 173f f9ef 3c3e 58ef 27be 5acc 9d3e
00000190: f266 493f ab65 2f3f 360b 243d b04d 4ebe
000001a0: 639a 273e 1a1a f4be 5556 1ebf 0e9c 46be
000001b0: bec7 18bf 6636 693f b45b 04bf 8892 aabe
000001c0: b486 1b3f 184d 1dbf d1a0 9abd 1e27 b8be
000001d0: 8e25 fb3e 2043 6abf 3a1b ddbd 92a6 70bf
000001e0: 62ad 09bf 302b 82be d543 793e 1f7b 853e
000001f0: 2562 40bf ea87 dc3e 3a7a b93e d06a 45be
-0.546192 -0.35884246 -0.31713393 -0.36975083 0.4506599 0.40374896 0.04635783 0.083557926
0.5849639 0.7577841 -0.60898614 0.95214975 -0.1434956 0.9415309 0.67863196 0.79979545
-0.72539526 0.6289257 -0.8243857 0.5910765 -0.23914717 -0.024764482 0.73122627 -0.36783317
-0.21842404 1.0531496 0.89044845 0.7663828 0.6455943 0.048379283 -0.25056782 0.02158681
0.79363036 -0.37346375 0.006185204 -0.34018266 0.4919294 0.74110746 -0.45474526 0.3721848
-0.20457876 0.44069082 -0.3296562 -0.07724981 -0.8514747 0.1391476 -0.22782709 -0.7831053
-0.50461257 -0.5823388 -0.5742406 -0.008379521 -0.8177811 -0.19237371 0.5479766 0.49143863
0.8457392 0.10292396 0.8473803 -0.185111 -0.75795823 0.7440893 -0.8444054 -0.7492521
0.6430386 -0.42305443 0.6547183 -0.72240406 -0.7748062 -0.06548598 -0.055768218 -0.8348203
0.044080466 -0.041850362 -0.6412464 -0.6745819 0.021337252 -0.12527078 0.7835275 0.5890566
-0.86127365 0.35254982 0.21555203 0.2779405 -0.76901203 0.7118985 -0.6525861 0.60432327
-0.51171243 -0.14372337 0.22643164 0.41491294 -1.0300145 -0.035729878 -0.22191378 0.23588498
0.5905064 0.18450917 -0.16399896 0.3081997 0.7867271 0.6851451 0.040049754 -0.20146823
0.16367488 -0.47676164 -0.6185048 -0.19395468 -0.5967978 0.9109863 -0.5170243 -0.3331492
0.60752416 -0.6144576 -0.075502045 -0.35967344 0.4905209 -0.91508675 -0.10796209 -0.94004166
-0.53780186 -0.25423574 0.24342282 0.26070496 -0.75149757 0.43072444 0.36226064 -0.19279027

model/conv_pw_10_bn/FusedBatchNormV3 f4 [128]
00000000: e608 9fbe 03af 2dbe 4c84 5f3f 1e7c 603f
00000010: ca9a 4a3f 0311 d6bc 8e77 67bf 188a 313f
00000020: a59b 173f 1e69 3a3d d9a6 d1be 18b7 0bbf
00000030: 7729 653e 987e 66bf 698f 903e 44b6 563f
00000040: 819a dabe 394e 853d 6dba 123f f4b1 f6be
00000050: 3aec 673f 2e52 17bf bee1 f33d 6fbe bc3c
00000060: d769 bdbd 1dbd be3d 1a67 9ebe 76fc e13e
00000070: 80bc 363e 5485 9d3f 3a25 ca3e 097c f8be
00000080: d787 52bf 73a9 96bd 2cbd cb3e 2b86 323f
00000090: 6c3d 373f 1b3e 263f 1986 d1be ed5b 88be
000000a0: 0889 a73d 905b 7f3f ac4e eebb 2fbb b13e
000000b0: 2d8d a83e 7a09 ee3e 13c6 debd 6631 f63e
000000c0: e21b fe3e 46ae 1d3f 584e 7ebc fe34 b73c
000000d0: 7cb8 323f f237 873d 79b6 943f d6f7 91be
000000e0: 6f8c 1fbe 0689 9bbe b284 03be dfe7 593f
000000f0: 764f 06bf a13f 3cbe 953d 0bbf a065 95bc
00000100: 2ea2 88bd c9bb aabd 18fe ad3e 5286 3fbf
00000110: 561f 13be 508c c23e 7e1d 83bf b017 113e
00000120: 0997 873e a0f0 9abf ef6c 8d3e 402d 60bf
00000130: f8d7 993f 3728 64bf a239 6d3e 5205 13be
00000140: b765 363f bc8a e43d bbbd 2dbf dee8 163f
00000150: b0d6 24bf 98ba 02bf 67a4 083e 20ad e73e
00000160: 5171 1a3f 1224 1ebf 5302 6bbf 7c59 5fbe
00000170: 3a2c 863f 8010 823d a94d cd3d f8b9 6f3e
00000180: bc5f 72bc 2445 483f 174b 33bf d1e7 133f
00000190: 9a08 c8be aea7 11be d38c 21bf bca4 29bf
000001a0: 23db 903e 9ed8 ba3e 198b 32bf 7750 a83e
000001b0: fe05 87be 6bb2 9b3e a13e 643f e4fc c73c
000001c0: 4a37 463f 5ba6 a8be eee3 863f 3b76 c83e
000001d0: 0423 133f eff9 1bbf 38ac 483c e25e 013f
000001e0: 9213 193f 86fd e23d 198c 8e3e 2490 4c3f
000001f0: caec bc3e 7811 af3e 8142 fbbe fc0a 2c3f
-0.31061476 -0.16961293 0.87311244 0.8768939 0.7914244 -0.026131159 -0.904168 0.6935134
0.5922187 0.045510404 -0.40947607 -0.54576254 0.22379099 -0.90036917 0.28234413 0.83871865
-0.42696002 0.065090604 0.57315713 -0.48182642 0.9059483 -0.5910977 0.11908291 0.023040025
-0.09248703 0.09313414 -0.30938035 0.44137925 0.17845345 1.2306314 0.39481527 -0.4853213
-0.82238525 -0.073565386 0.39792764 0.69735974 0.715781 0.64938515 -0.4092262 -0.26632634
0.081804335 0.9974909 -0.007272562 0.34713122 0.3292021 0.46491605 -0.108776234 0.48084563
0.49630648 0.61594045 -0.015521608 0.022364136 0.6981275 0.066024676 1.1618186 -0.28509396
-0.15580915 -0.30377978 -0.12843588 0.8511943 -0.52465 -0.18383648 -0.5439084 -0.018236935
-0.06671558 -0.083365984 0.3398292 -0.7481433 -0.14367422 0.37997675 -1.0243375 0.14169192
0.26482418 -1.2104683 0.27622172 -0.87569046 1.2019033 -0.89123863 0.23166516 -0.14357498
0.71248955 0.11159274 -0.6786763 0.5894908 -0.6439009 -0.5106597 0.13343965 0.4524927
0.6032916 -0.6177379 -0.9180042 -0.2181148 1.0482247 0.063508034 0.10024578 0.23410785
-0.014793333 0.782305 -0.70036453 0.577756 -0.39069062 -0.14224121 -0.63105506 -0.6626699
0.28292188 0.3649339 -0.69743496 0.3287389 -0.2637176 0.3040956 0.89158064 0.02441258
0.77428114 -0.3293942 1.0538309 0.39152703 0.57475305 -0.60928243 0.012248091 0.50535405
0.59795487 0.11083512 0.2784126 0.7990744 0.36899406 0.34193015 -0.49074176 0.6720426

model/conv_pw_11_bn/FusedBatchNormV3 f4 [128]
00000000: 73fc 8b3e 51a6 26bf 68ab 5a3e 64d9 b2bd
00000010: 1577 41bf be90 0abf 4cf4 05be 72c9 183f
00000020: 2ca7 be3e 5b56 2cbf db9d 94bd 0a6a 82be
00000030: 460e a83d f0b0 ad3e eb2d d6be 565f 25bf
00000040: 82a0 143f 3266 7fbe 68aa ed3e 5443 11be
00000050: 191b 863e 7506 79be 3624 21be 0bb2 a33e
00000060: b409 263e 19b3 c33e f749 1abf f08a 39bf
00000070: 1a1f 063f f48c 103e b30a fc3e 4119 193f
00000080: 5cf6 68bf b1c2 85bd 688c c6be a857 473f
00000090: 6cdf dbbe 57b3 33bf 6529 64be 05cc 933d
000000a0: b808 9d3d 6d39 8d3e 7264 75be a227 313e
000000b0: 0a52 21be b42c debe 71ca e7be d654 833f
000000c0: cc52 853f 15c9 d43e 8c74 a43e 2367 2b3e
000000d0: 7984 3ebd 4c3b cf3e 5c50 f93d 4b66 803e
000000e0: e555 1ebf 0cd4 2f3e 0353 713e fe04 6a3e
000000f0: 1e0a c43d 6f61 183f 787f d83e 3baf 2c3d
00000100: 1806 06bf e7ad 6f3e 2a0b 823f fd35 433e
00000110: 9aa5 8a3c fda4 a13d 5990 d93e b3b8 98be
00000120: 9a5b 323f 1c49 a53c fc5c 18be e44f b23c
00000130: a708 a3be 18a4 bd3e 286e 0b3f 7a25 18bf
00000140: acb3 9abf 4538 59be f926 9bbe 2391 2abf
00000150: 2847 1b3e bd3b 47bf 150c a03d 6628 a1bf
00000160: 3257 893f 0ece 9fbf 5887 94bc 0d72 75bd
00000170: 9b2c 2c3f 94ed 153f b0d7 58bf 24d8 5abe
00000180: 0ab1 59bf fc45 273f f8bd 62bf d065 a6bd
00000190: a058 af3e d8fc 2bbf 7f34 c03e 8e1c 52bf
000001a0: 173b dfbe b665 873f a0d3 343f cc3c ec3c
000001b0: d452 793f 9e1a 173f a3a6 c23c 63b4 d93e
000001c0: 17a8 483e 84a6 86bc 8084 233f 73c5 0dbf
000001d0: 56b6 5c3f e206 b9bd 1a3e 8c3f f3cc ed3c
000001e0: 758c 073e 3cfd 1a3e 635c 0f3f f2f0 61be
000001f0: e494 8cbc 936a 41bf 8068 883e 9a3d a93e
0.2734104 -0.6509753 0.21354449 -0.0873287 -0.7557233 -0.5412711 -0.13081473 0.5968238
0.37236917 -0.6731927 -0.07256671 -0.25471526 0.082058474 0.33924055 -0.41831908 -0.64598596
0.58057415 -0.24941328 0.46419072 -0.1418584 0.2619255 -0.2431887 -0.1573647 0.31971774
0.16214639 0.38222578 -0.6026911 -0.72477627 0.5239121 0.1411627 0.49226913 0.5980416
-0.91000915 -0.06531275 -0.38778996 0.7786813 -0.42943895 -0.70195526 -0.22281416 0.07216648
0.076676786 0.27582875 -0.23964098 0.17300275 -0.15753952 -0.4339348 -0.45271638 1.0260265
1.0415893 0.41559663 0.32120168 0.16738562 -0.046513055 0.40474927 0.121735305 0.25078043
-0.61849815 0.17170733 0.23566823 0.22853467 0.09572242 0.5952367 0.4228475 0.0421593
-0.5235305 0.23406182 1.0159657 0.19063564 0.016924668 0.07892797 0.4249294 -0.29828414
0.6967102 0.020176463 -0.1487922 0.02176661 -0.3184254 0.37039256 0.5446496 -0.59432185
-1.2086082 -0.21212871 -0.3030317 -0.6662771 0.15163863 -0.7782553 0.078148045 -1.2590454
1.0729735 -1.2484758 -0.018130943 -0.05992322 0.6725556 0.5856564 -0.84704113 -0.21371514
-0.85035765 0.6534116 -0.8857112 -0.08124888 0.34247303 -0.67182684 0.3754005 -0.8207482
-0.4359977 1.0577915 0.70635414 0.028837584 0.9739201 0.5902499 0.0237611 0.42520437
0.19595371 -0.016436823 0.63874054 -0.5537941 0.8621572 -0.09034516 1.0956452 0.029028391
0.13237174 0.15135664 0.56000346 -0.2206457 -0.01716084 -0.75553244 0.26642227 0.3305481

model/conv_pw_12_bn/FusedBatchNormV3 f4 [256]
00000000: 4539 97be 606b eabd 777c 41bd 0786 50be
00000010: d968 0ebe d779 f43e 78f0 a83f df4e 2c3e
00000020: 00ae c7be 3e49 ad3e de8f 0abe 4bdf d13e
00000030: 29f5 25be 7013 c33e e649 733f db6d a83e
00000040: 1147 4a3f bb15 07bf 06df 1d3f 1fa6 90bf
00000050: 587e 29be 0634 d33e 944b 493c 50f0 a73f
00000060: 3218 e13e 89a0 82bd 19bf 7e3d 23ae abbe
00000070: 2b71 ea3e d54d 86be 2bda c13e 5645 893d
00000080: 5568 e3be b83c cd3e f954 07be 691b ac3e
00000090: e0d3 65bc ac33 83bd e678 bc3e 0160 113f
000000a0: bbcf a5be beee 3b3f 17f4 2b3f 1a96 933f
000000b0: 8699 42bf b622 133e 5ced fabe 5eae 233e
000000c0: 3d98 893e 34c4 283f ea4f 8fbe e29f 6dbf
000000d0: 75a2 9b3e 3414 b6be 421c f73d fdce 1f3f
000000e0: 6bc9 1d3f 9007 28be 4c1b 1e3e 0bcd 393e
000000f0: 66b3 103f 7cc7 a6bc 42e7 a7be 076d 39be
00000100: f79a a6be 4763 383f 5c3d 20bd e346 02bf
00000110: 7c55 263f 19b8 163f e401 ab3f 13cd 573e
00000120: 81f2 1f3e 6a71 4c3f ea55 303f 24af bfbe
00000130: b53a 1c3e cf01 17be 7674 353f b609 9d3d
00000140: fbb3 173e a0ff a1be 6057 023e aefc 81be
00000150: 4c6a 1d3e c5b4 61bf 3365 723e 290e 093f
00000160: f03e e93b 0192 773e 7594 ec3d 677b 16bf
00000170: c826 733f 04c7 01be f0f3 9d3d bf78 453f
00000180: b6e3 89bd 1616 743e 3253 e63e 2a88 a7be
00000190: 871e 3b3e b27c 07be 3d69 1b3e 7fb1 b13e
000001a0: 703b 923e 9c69 af3e 0ea8 133f 368e fa3d
000001b0: 8ea1 023f a34b b3be 5f47 e83e 7c3c 6b3e
000001c0: b211 743b b2f5 573e fceb 93be 2fcc 84be
000001d0: 3285 693e 89c7 533f 0ccc 653f 773d ba3e
000001e0: ecff 3f3e 8eba f13d c578 02bf f9b8 0abe
000001f0: a6d6 4cbe d133 043f cee5 d03e 48d0 943d
00000200: 9a34 bc3f 065a 193f 1706 da3e c72f c73d
00000210: 0470 b9be edc4 1dbe 4adc 143e 6bd9 0ebf
00000220: 0a31 35be fa89 65bd e428 463e 8d65 24be
00000230: 333c 053f 12f8 113e 5972 6fbf 3cc1 b4be
00000240: fe48 0cbe 79a2 663f ee05 87be 8bd0 49be
00000250: 2c27 cdbe 1ad3 81be 7aa9 2b3f 38c6 233d
00000260: 4a78 ffbe 191c 3d3e 8f88 2fbd 184f c93d
00000270: 6e96 4f3f 4317 053f 8403 77be 3e0c 5c3f
00000280: e2ce 023f 9966 11bf 473b 18be 5355 023f
00000290: cab6 063f 8a14 2e3f a40e 093f 7448 683f
000002a0: 16da 9e3e 4450 f23d ec4a 1a3e a4ee 5fbf
000002b0: d4da 6a3c e7f8 d8be 3052 6a3f ab88 8bbd
000002c0: d05a 3f3f 9b61 15bf 296b 863e be77 1dbf
000002d0: 2c25 1d3f ddce 13bf 3b4c 443e efa0 ccbe
000002e0: a256 153f 320e 423f b62c 663d a53f c8be
000002f0: 736b db3e d5a2 56bf 67e2 623d 7cde 59bf
00000300: 1480 9c3e ee92 a5be 582e 5e3f b054 b3ba
00000310: f60b 9a3f c77a 573f 2ca3 d7be 7254 f93d
00000320: ee5f 0e3e e8c0 90be 8c1b 59be b759 193f
00000330: 9413 b2bd ffae 8bbe e8c5 3a3e bc38 7cbd
00000340: 3085 e83e dddc 25bf bd85 dd3d 4383 f43e
00000350: 13ee a43e 56bd 373e 4257 c9be 4793 ac3e
00000360: 5303 76bf 361e b3be bfe9 a83e 9895 183f
00000370: fd63 ea3e da67 063e 28c8 983c fe0c b43e
00000380: fd81 cfbe f023 923e f127 b93d f117 f33e
00000390: 71ff 0ebf dfcb 22bf e170 85be 2a20 bf3e
000003a0: ba04 d2be eebd aabf af1e 59be 29f0 00bf
000003b0: e0ac 833f 5473 3bbe 25db 003f 9206 363f
000003c0: 2475 99be 9a5c 243e 7c39 e0be 9950 b33e
000003d0: 6dc4 523f 0e95 f53e b13d 2cbe 627d 973e
000003e0: f3f7 38be fdcb 6f3f d51a 843f 8ab7 de3e
000003f0: 4bc3 063f 2c61 163e cbe0 3f3f 125d 82be
-0.2953588 -0.114462614 -0.04723784 -0.20363627 -0.13907184 0.47749206 1.3198385 0.16826962
-0.3899994 0.33844942 -0.13531443 0.40990672 -0.16206802 0.38100767 0.95034635 0.32896313
0.7901469 -0.52767533 0.6166843 -1.1300696 -0.16552103 0.41250628 0.012286086 1.3120213
0.43963772 -0.06378276 0.062193964 -0.33531293 0.45789465 -0.26231256 0.3786176 0.06702678
-0.44415537 0.40085387 -0.13216008 0.33614662 -0.014027566 -0.0640634 0.36810988 0.56787115
-0.32385048 0.73411167 0.67169327 1.1530182 -0.7601551 0.1436871 -0.49009216 0.15984485
0.2687396 0.6592438 -0.27990657 -0.92822087 0.30397382 -0.3556229 0.120659366 0.62425214
0.61635464 -0.16409135 0.154401 0.18144624 0.5652374 -0.020358793 -0.32793623 -0.18107997
-0.32540104 0.72026485 -0.039121017 -0.50889415 0.6497419 0.5887466 1.3359952 0.21074323
0.15619852 0.79860556 0.68881094 -0.3743831 0.1525677 -0.14746784 0.7088083 0.07667868
0.14814751 -0.3164034 0.12728643 -0.25388092 0.1537258 -0.8816646 0.23671417 0.5353723
0.0071180984 0.2417679 0.115517534 -0.5878205 0.9498105 -0.12673575 0.07712543 0.7713737
-0.067328855 0.2383655 0.44985348 -0.32721072 0.18273364 -0.13231161 0.15176864 0.3470573
0.28560972 0.3426026 0.57678306 0.12234156 0.5102776 -0.35018644 0.45366952 0.22972292
0.0037241993 0.21089819 -0.2889098 -0.2593703 0.22804716 0.8272634 0.89764476 0.3637502
0.1874997 0.118031606 -0.5096553 -0.13547124 -0.20003757 0.51641566 0.40800327 0.07266289
1.4703553 0.5990299 0.4258277 0.0972591 -0.36218274 -0.15407152 0.14537159 -0.55800503
-0.17694488 -0.056039788 0.19351536 -0.16054364 0.5204498 0.14254788 -0.93533856 -0.35303676
-0.1369972 0.90091664 -0.26371711 -0.19708459 -0.40068948 -0.2535637 0.67055476 0.039983958
-0.4989646 0.1846775 -0.04285484 0.09829539 0.8108891 0.5198862 -0.24122435 0.8595618
0.5109693 -0.56797177 -0.14866363 0.50911444 0.52622664 0.6800009 0.53537965 0.90735555
0.3102576 0.11831716 0.15067643 -0.8747351 0.014334399 -0.42377397 0.9153166 -0.06813177
0.74747944 -0.5835206 0.26253632 -0.6151084 0.61384845 -0.57737523 0.19169705 -0.39966533
0.58335316 0.7580291 0.056194983 -0.39111057 0.42855415 -0.8384221 0.055391695 -0.8510511
0.30566466 -0.3233866 0.86789465 -0.0013681855 1.20349 0.8417172 -0.42116678 0.1217431
0.13903782 -0.28272176 -0.21201915 0.5990252 -0.086951405 -0.2728195 0.18239558 -0.061577544
0.45414114 -0.64790136 0.10816524 0.47756395 0.32212886 0.1794332 -0.39324385 0.33706114
-0.9609882 -0.34983987 0.32990834 0.5960326 0.4577941 0.13125554 0.01865013 0.35166162
-0.4052886 0.28543043 0.09040821 0.47479203 -0.5585852 -0.6359233 -0.26062682 0.37329227
-0.4101923 -1.3339212 -0.21203111 -0.50366455 1.0287132 -0.18305713 0.5033439 0.71103776
-0.29972184 0.1605095 -0.43793857 0.3502243 0.8233097 0.47965282 -0.16820408 0.29587847
-0.18063335 0.93670636 1.0320688 0.43499404 0.52641743 0.14685506 0.7495238 -0.25461632

model/conv_pw_13_bn/FusedBatchNormV3 f4 [256]
00000000: 4f75 d83e 564e 083f f675 06bf c33d 20bf
00000010: 849e a63b d680 00bf ec7d 89be 35c2 c0be
00000020: 26b5 dcbe b40d b03e 67d3 1b3f 7eed 393f
00000030: 1cc4 023f d0de 72bf fa43 bb3e d427 833e
00000040: a127 833d b6c7 bcbe 9aa2 3fbf d681 093f
00000050: 8c13 0dbe 3966 d1be 65e1 00bf bd3f c8bd
00000060: 12bb fd3e 165d 133f 7324 6f3f fcf7 0b3f
00000070: 9e3a 51be 6c38 b8be 1f85 123f 4230 a13e
00000080: f05e 82bf 30d5 8fbf 08b2 91be 4a43 103f
00000090: f728 d33e 9d8c cebc 8fa2 023e e0d6 ffbe
000000a0: 4b20 203f 16e7 193d cf9d dbbc 272f cfbe
000000b0: 2e36 0abd d123 cebe 05ec 983e 5fec 933e
000000c0: bc9d 30be dccf 62be ad9c dc3e fc39 c3be
000000d0: 1aa5 83bd 44db 163f d6af 1f3f 8df5 0b3f
000000e0: ddf0 e6be b08c ec3e 14bb e33d 6589 c93e
000000f0: 63b1 313f 66cc 42be ba51 a1be 6868 c5be
00000100: 1247 9b3f 01b5 213d f54e 993e 9129 153f
00000110: fe22 c8be 7ec8 ca3d 6c8c 0abf a88b afbf
00000120: 912b cb3d d70d 023f 6375 8fbe 5acf a7be
00000130: 6492 983e a75b d8be abc1 273f c0d0 c23e
00000140: d67c 8bbe c403 c8be 2484 53be 717c 043f
00000150: 3677 073e f2e5 cc3b b8a7 1fbf 001f d53a
00000160: 4d68 9d3c 0925 243f 2c66 ee3d 3b78 c0bf
00000170: f6e7 333e c531 f9be 758a 833e 96a5 143e
00000180: 37fd 2d3f 57d8 743e 86a7 44bf 265b 0a3f
00000190: 4017 88be b0a0 603f 12ed 00be 7565 db3e
000001a0: 6fae 93be 9a3a 383e f652 5ebf ae44 aabe
000001b0: d2a4 b33e d1cb 673f 7d61 e3be 6daa b13e
000001c0: a159 b73e 1d1d adbc 7205 5d3e efc4 8bbf
000001d0: 6ef7 e5be 7073 a7be 365d 10bf 4a7d 27bf
000001e0: 2451 073e b10c 6a3f 4aa1 02bd 4d6e f13e
000001f0: 4c90 57be cb24 c5be 15aa 52bf 8208 31bc
00000200: deaa 363d 4e2c 7b3e 9eae 04bf 8850 45bd
00000210: d7f3 363e c057 f4bd a730 08be f92d cf3d
00000220: 8049 20bf 0ad4 22be 9a38 83be 4b38 21be
00000230: baf5 a5be b308 81be 50f3 ce3c fb52 ff3e
00000240: 5ca4 a03e a9f7 7cbe 2972 bebe 9356 123e
00000250: 6452 d53e 8998 30bf 3597 473f b65d 63be
00000260: 4438 3a3c afb6 67be 90d1 a2be bcbb 16bf
00000270: d220 22bf 7e63 103e 81ed 9ebf 82c1 aebc
00000280: 118e 1ebe e7a3 05bf 8700 163f 5fc7 5b3f
00000290: f6ff b6bd 69a1 e23e 149d 06be 778a 533f
000002a0: ffa7 edbe 52fa 57be 7bcc 57be 8849 f0be
000002b0: d97e 053e 7bff 5f3f 7449 e3bd 6379 e7bd
000002c0: bc94 0bbf 5b5f 143f bcd2 003f b2c3 463f
000002d0: 5603 0b3f 3f64 923e 6e43 97be fb52 293f
000002e0: 7dd6 3f3f 16e8 11be 6b57 b6be fc9e 7dbe
000002f0: c837 f0bd dd56 213f f6ed 703e 45a2 0a3f
00000300: 2f7e cebe 60ab c53e e3be 7cbf 081a 37bf
00000310: 7789 83be 99ad d53e 39b6 1abf 9fb6 463e
00000320: ee1d 083f 9fe3 4e3f bd8d 86be 1667 fa3e
00000330: 4088 2bbf faba a13d 77e4 17be 04ac 52bf
00000340: c7ab 523e 4e62 af3e db21 e83e 545e fabe
00000350: 1a52 f13d 9b90 ec3e 348f af3e fdaf 24be
00000360: 6f8c 763e 4e0a e73d f421 173f b5d5 9c3e
00000370: d750 43bf b064 89be 6e4d 94be 7dd8 bd3e
00000380: 8a8f 2dbe 7db0 75bf 6f46 c83e ea13 de3e
00000390: 1a40 5abf 3388 e0bd 3382 333f 9f1f b2be
000003a0: 9f8a 1a3f bb8c 273f a08a 943e 8763 b53e
000003b0: 9787 b5be 36b8 773e 2505 e7be a385 d2be
000003c0: e8e0 24bf 1488 e4bd 203a 06bf 3637 4ebe
000003d0: f1f8 f7bd 4747 72bf 104b c53e c6e0 2e3d
000003e0: 242f a53e caa1 d43e b80c f23b 991d 39bf
000003f0: 8dd2 81bf 09de 433e 810e adbe d27e 74be
0.42277 0.5324453 -0.52523744 -0.6259424 0.0050848145 -0.5019659 -0.26853883 -0.37648168
-0.43106955 0.34385455 0.6086945 0.7262801 0.5108049 -0.94871235 0.365753 0.25616324
0.06404043 -0.36871117 -0.74857485 0.5371374 -0.13776988 -0.40898302 -0.50343925 -0.09777782
0.49556786 0.5756391 0.9341499 0.5467527 -0.20432517 -0.35980546 0.57234377 0.3148213
-1.0185223 -1.1236935 -0.2845614 0.56352675 0.4124219 -0.025213534 0.12757324 -0.49968624
0.62549275 0.037573896 -0.026808647 -0.40465662 -0.033743076 -0.402617 0.2986757 0.28891274
-0.17247671 -0.22149605 0.43088284 -0.38130176 -0.06427975 0.5892832 0.6237768 0.54671556
-0.4510564 0.46201086 0.11119667 0.39362636 0.69411296 -0.19023284 -0.31507665 -0.38556218
1.2131064 0.03947926 0.29943052 0.5826655 -0.39089197 0.09901522 -0.54120517 -1.3714495
0.09920419 0.5080237 -0.28019246 -0.32775384 0.29799187 -0.42257425 0.6552989 0.3804989
-0.2724368 -0.39065373 -0.20655876 0.5175238 0.13229069 0.0062529976 -0.62365294 0.0016259849
0.019214774 0.6411901 0.116405815 -1.5036691 0.17568955 -0.48670784 0.25691572 0.14516291
0.679645 0.23910652 -0.7681812 0.5404533 -0.26580238 0.8774519 -0.12590435 0.42850843
-0.2884402 0.17991105 -0.8684534 -0.33255523 0.35086685 0.90545374 -0.44410315 0.34700337
0.3581057 -0.021132046 0.21584108 -1.0919474 -0.44915336 -0.3270526 -0.5639223 -0.6542555
0.13214546 0.91425616 -0.0318921 0.47154465 -0.21051139 -0.38504633 -0.82290775 -0.010805251
0.044596545 0.2452862 -0.51828945 -0.048172504 0.17866455 -0.119307995 -0.1329981 0.101161905
-0.6261215 -0.15901199 -0.2562912 -0.1574413 -0.32414037 -0.2520195 0.025262505 0.49867997
0.31375396 -0.2470385 -0.37196472 0.14290838 0.41664422 -0.6898275 0.779651 -0.22203717
0.011365954 -0.22628282 -0.31800508 -0.5888021 -0.6333133 0.14100453 -1.241623 -0.021332506
-0.15483882 -0.5220322 0.58594555 0.8585109 -0.089355394 0.4426377 -0.13145858 0.82633156
-0.46417233 -0.21091583 -0.21074097 -0.469311 0.1303667 0.8749921 -0.110979944 -0.113024496
-0.54523826 0.57958 0.50321555 0.7764236 0.54301965 0.28592107 -0.29543632 0.66142243
0.7493666 -0.1424869 -0.3561357 -0.24767679 -0.117293894 0.6302317 0.23528275 0.54153854
-0.40330645 0.3860731 -0.9872877 -0.71524096 -0.25690815 0.41734007 -0.604343 0.19405602
0.5317067 0.8081607 -0.26280013 0.48906773 -0.67004776 0.07896991 -0.14833246 -0.82293725
0.2057334 0.34254688 0.4533833 -0.48900092 0.11783238 0.46204075 0.34288943 -0.16082759
0.24077009 0.11281262 0.59036183 0.30631796 -0.76295227 -0.2683463 -0.28965324 0.3707923
-0.16949287 -0.95972425 0.39116237 0.43374568 -0.8525406 -0.10963478 0.70120543 -0.3478975
0.6036777 0.6544911 0.29012012 0.35427496 -0.3545501 0.24191365 -0.45121112 -0.41117582
-0.6440568 -0.11158767 -0.5243244 -0.20138249 -0.12108029 -0.9464001 0.3853383 0.04269483
0.32262528 0.41529685 0.00738677 -0.7231079 -1.014238 0.19127668 -0.33800128 -0.23876503

model/conv_pw_1_bn/FusedBatchNormV3 f4 [16]
00000000: d299 dfbe 136b 893e fc67 1f3f e9b3 1abf
00000010: be78 153f 34fc d63d bc2e d03f f8ed a0bd
00000020: 6a3d b9be 4ec7 03bf 8b7a 9bbf f4cf 64bd
00000030: 7f84 443f faae dbbd 93a1 113e a12e 60bf
-0.43672043 0.26839504 0.6226804 -0.6043077 0.5838736 0.10497323 1.6264262 -0.07857889
-0.36179668 -0.5147599 -1.2146772 -0.055862382 0.76764673 -0.107267335 0.14221792 -0.8757115
