MobileNet/mobilenet_25_40_none/model_quant.tflite (tflite, 343424 bytes, 29 tensors)

model/dense/MatMul i1 [64, 256] scale=0.0016513595 zero_point=0
-0.037981268 -0.0016513595 -0.11559516 -0.13210876 -0.15027371 -0.074311174 -0.13541147 0.016513595
0.044586707 0.056146223 -0.12054924 0.110641085 0.12550332 0.112292446 0.0049540782 -0.09908157
-0.09908157 0.11559516 0.08421934 0.09908157 0.08587069 -0.11394381 0.06275166 -0.05779758
-0.10238429 0.03467855 0.104035646 0.008256798 -0.051192146 -0.037981268 -0.082567975 -0.11724652
-0.03632991 0.0693571 0.11724652 -0.14201692 0.011559516 -0.037981268 0.029724471 0.023119032
-0.12054924 -0.12880604 0.05449486 0.0776139 0.051192146 -0.046238065 -0.11559516 -0.026421752
0.11724652 0.082567975 -0.028073112 -0.075962536 -0.13376012 0.042935345 -0.046238065 -0.011559516
0.021467673 -0.1387142 -0.10898972 -0.051192146 -0.13376012 -0.059448943 0.05449486 0.07100846
-0.14201692 0.014862236 0.0776139 -0.12054924 0.0611003 0.1304574 0.09577885 -0.016513595
0.03632991 -0.013210876 0.046238065 -0.14036556 -0.037981268 -0.039632626 -0.016513595 -0.029724471
0.08091661 0.09908157 0.059448943 -0.074311174 0.074311174 -0.014862236 -0.12385196 0.12385196
-0.019816313 -0.051192146 -0.008256798 0.082567975 -0.08421934 -0.090824775 0.067705736 -0.13210876
-0.1222006 -0.059448943 -0.006605438 -0.10073293 0.089173414 0.056146223 0.016513595 0.023119032
0.023119032 -0.006605438 0.013210876 0.12715468 -0.039632626 -0.08587069 0.024770392 -0.03302719
-0.056146223 -0.049540784 -0.08421934 -0.09577885 0.0099081565 0.019816313 0.028073112 0.09743021
-0.13376012 0.09577885 0.019816313 -0.021467673 0.09247613 0.07926525 -0.14036556 -0.10733837
0.06440302 -0.047889426 0.026421752 -0.12385196 -0.056146223 -0.13376012 -0.08421934 -0.12880604
-0.037981268 -0.056146223 -0.011559516 -0.090824775 0.13376012 -0.003302719 -0.018164955 0.10898972
-0.12880604 -0.024770392 -0.11394381 -0.07100846 -0.05779758 0.082567975 0.12715468 -0.024770392
0.08587069 -0.026421752 0.112292446 0.06275166 -0.037981268 0.044586707 -0.056146223 0.0
-0.028073112 -0.09412749 -0.018164955 -0.059448943 0.12054924 -0.13376012 0.08752205 0.10898972
-0.13376012 -0.046238065 0.08421934 0.018164955 -0.019816313 0.028073112 -0.110641085 -0.082567975
-0.052843504 -0.03632991 0.12880604 0.110641085 -0.07265982 -0.051192146 0.082567975 0.051192146
-0.10568701 -0.006605438 -0.1222006 -0.067705736 -0.008256798 0.12715468 -0.018164955 0.08421934
0.0099081565 0.12054924 0.08752205 0.104035646 -0.12715468 -0.03632991 0.028073112 0.09908157
0.10568701 0.11394381 -0.13376012 -0.14531964 0.041283987 -0.1222006 -0.13376012 -0.14697099
0.067705736 0.028073112 0.090824775 0.03137583 -0.006605438 0.0016513595 0.008256798 -0.07265982
-0.10073293 0.104035646 0.0776139 0.039632626 -0.046238065 0.074311174 -0.1222006 0.08752205
-0.10898972 -0.089173414 0.0016513595 0.12385196 -0.047889426 0.12385196 -0.074311174 0.1304574
-0.08587069 0.013210876 -0.0611003 -0.10238429 -0.03137583 0.037981268 0.03302719 0.1304574
0.008256798 -0.03137583 -0.1387142 -0.018164955 0.09412749 -0.0693571 0.042935345 -0.006605438
0.10898972 0.0611003 -0.1387142 -0.09247613 -0.10568701 -0.044586707 0.0 -0.024770392
00000000: e9ff bab0 a5d3 ae0a 1b22 b743 4c44 03c4
00000010: c446 333c 34bb 26dd c215 3f05 e1e9 ceb9
00000020: ea2a 47aa 07e9 120e b7b2 212f 1fe4 baf0
00000030: 4732 efd2 af1a e4f9 0dac bee1 afdc 212b
00000040: aa09 2fb7 254f 3af6 16f8 1cab e9e8 f6ee
00000050: 313c 24d3 2df7 b54b f4e1 fb32 cdc9 29b0
00000060: b6dc fcc3 3622 0a0e 0efc 084d e8cc 0fec
00000070: dee2 cdc6 060c 113b af3a 0cf3 3830 abbf
00000080: 27e3 10b5 deaf cdb2 e9de f9c9 51fe f542
00000090: b2f1 bbd5 dd32 4df1 34f0 4426 e91b de00
000000a0: efc7 f5dc 49af 3542 afe4 330b f411 bdce
000000b0: e0ea 4e43 d4e1 321f c0fc b6d7 fb4d f533
000000c0: 0649 353f b3ea 113c 4045 afa8 19b6 afa7
000000d0: 2911 3713 fc01 05d4 c33f 2f18 e42d b635
000000e0: beca 014b e34b d34f cc08 dbc2 ed17 144f
000000f0: 05ed acf5 39d6 1afc 4225 acc8 c0e5 00f1

model/dense_1/MatMul i1 [2, 64] scale=0.0025333127 zero_point=0
-0.043066315 0.3217307 0.2609312 -0.03799969 0.29133096 -0.20519832 0.022799814 -0.24573132
-0.25079796 -0.26853114 -0.243198 -0.25839788 0.18239851 0.015199875 0.09119926 -0.2609312
0.20266502 0.2203982 -0.243198 -0.043066315 -0.121599 -0.18239851 0.18746513 0.0126665635
0.18999845 0.07093275 0.25333127 0.23559807 0.0025333127 -0.09119926 -0.2811977 0.283731
0.0126665635 -0.14439882 0.16466533 -0.24826464 -0.2634645 -0.2609312 -0.2634645 -0.18493183
0.07599938 0.03799969 -0.243198 -0.19506508 0.07093275 -0.25839788 -0.07346607 0.27106446
0.25333127 0.2001317 -0.106399134 -0.015199875 0.18239851 0.23306477 0.12919894 0.22546482
0.28879765 -0.2203982 -0.23306477 -0.1418655 0.04559963 0.26599783 -0.19506508 -0.19253176
-0.03039975 0.053199567 -0.13679889 -0.093732566 -0.14439882 0.23559807 0.035466377 0.13933219
-0.16213201 -0.15706539 -0.13933219 -0.22799814 -0.24826464 -0.2406647 -0.05573288 -0.25839788
0.3014642 -0.21786489 -0.243198 -0.21279827 0.22799814 -0.1798652 0.20266502 0.19506508
-0.28879765 0.0050666253 0.20266502 -0.043066315 -0.08866594 -0.078532696 -0.25333127 0.2203982
0.26853114 -0.19759838 -0.15453207 0.243198 0.25079796 0.10893244 -0.2634645 0.12666564
0.14693214 0.2406647 -0.27359778 -0.22546482 -0.3217307 -0.21026495 0.13933219 -0.12413232
-0.25333127 -0.27866438 -0.09626588 0.13933219 -0.083599314 0.26599783 0.02786644 0.25333127
-0.26599783 0.09626588 -0.23053145 0.07346607 0.09626588 0.09119926 -0.19759838 0.10893244
00000000: ef7f 67f1 73af 099f 9d96 a09a 4806 2499
00000010: 5057 a0ef d0b8 4a05 4b1c 645d 01dc 9170
00000020: 05c7 419e 9899 98b7 1e0f a0b3 1c9a e36b
00000030: 644f d6fa 485c 3359 72a9 a4c8 1269 b3b4
00000040: f415 cadb c75d 0e37 c0c2 c9a6 9ea1 ea9a
00000050: 77aa a0ac 5ab9 504d 8e02 50ef dde1 9c57
00000060: 6ab2 c360 632b 9832 3a5f 94a7 81ad 37cf
00000070: 9c92 da37 df69 0b64 9726 a51d 2624 b22b

model/conv1/Conv2D i1 [8, 3, 3, 3]
16 -44 -84 -122 -123 -47 13 -95
10 101 -127 4 -89 -111 -89 -114
-96 -36 -66 84 40 66 -45 -38
-8 32 -28 40 11 -91 16 77
9 -73 -33 24 17 -16 28 -14
33 -58 16 62 -7 -5 4 -127
-72 63 -75 55 11 -30 -110 -13
-60 -80 -49 -74 13 121 -57 90
-56 24 5 -52 -1 -42 112 36
-66 88 118 -51 -57 -102 -124 -127
37 -8 -120 -66 105 -86 -88 -97
-51 -21 83 -39 111 -50 80 18
23 -127 77 30 117 8 -125 7
-26 69 14 -63 -50 -89 -87 -19
62 -14 6 69 0 67 -53 33
-78 -84 -60 -76 -50 -11 -93 -82
-77 8 18 -38 13 -35 -127 -120
94 -75 -70 -76 -15 49 30 -93
-66 -66 25 -37 -127 53 103 -62
59 104 32 -105 1 -56 -62 -85
104 -61 -31 -105 -6 40 4 90
-75 -11 -37 -70 75 -37 53 1
-36 -43 -92 73 73 111 -127 68
-104 -77 38 -97 7 -52 -67 70
75 19 33 91 67 -53 44 -117
-99 101 -59 -30 -63 38 12 14
39 -62 -31 -4 99 64 127 24
00000000: 10d4 ac86 85d1 0da1 0a65 8104 a791 a78e
00000010: a0dc be54 2842 d3da f820 e428 0ba5 104d
00000020: 09b7 df18 11f0 1cf2 21c6 103e f9fb 0481
00000030: b83f b537 0be2 92f3 c4b0 cfb6 0d79 c75a
00000040: c818 05cc ffd6 7024 be58 76cd c79a 8481
00000050: 25f8 88be 69aa a89f cdeb 53d9 6fce 5012
00000060: 1781 4d1e 7508 8307 e645 0ec1 cea7 a9ed
00000070: 3ef2 0645 0043 cb21 b2ac c4b4 cef5 a3ae
00000080: b308 12da 0ddd 8188 5eb5 bab4 f131 1ea3
00000090: bebe 19db 8135 67c2 3b68 2097 01c8 c2ab
000000a0: 68c3 e197 fa28 045a b5f5 dbba 4bdb 3501
000000b0: dcd5 a449 496f 8144 98b3 269f 07cc bd46
000000c0: 4b13 215b 43cb 2c8b 9d65 c5e2 c126 0c0e
000000d0: 27c2 e1fc 6340 7f18

model/conv_pw_1/Conv2D i1 [16, 1, 1, 8]
-117 -4 100 -22 108 127 -54 -92
127 56 -98 -36 71 -91 19 -102
-81 -34 -58 127 -63 116 2 -76
78 127 -77 88 -34 -60 -24 117
-34 -33 127 -70 -44 -88 -121 -41
64 -34 79 -20 -3 -75 -127 68
-68 -106 -103 -18 65 -13 -127 -114
23 22 -51 -37 127 23 -52 -59
127 48 7 90 -26 -18 -100 31
-34 74 78 -89 -29 -98 87 127
42 32 85 -16 122 127 31 -19
-104 -117 120 -31 -44 40 127 -19
-96 -4 32 8 -126 -52 64 -127
-72 -90 -27 87 55 64 127 -108
-16 110 58 16 -121 -127 -44 79
127 -44 60 67 -28 -2 -12 50
00000000: 8bfc 64ea 6c7f caa4 7f38 9edc 47a5 139a
00000010: afde c67f c174 02b4 4e7f b358 dec4 e875
00000020: dedf 7fba d4a8 87d7 40de 4fec fdb5 8144
00000030: bc96 99ee 41f3 818e 1716 cddb 7f17 ccc5
00000040: 7f30 075a e6ee 9c1f de4a 4ea7 e39e 577f
00000050: 2a20 55f0 7a7f 1fed 988b 78e1 d428 7fed
00000060: a0fc 2008 82cc 4081 b8a6 e557 3740 7f94
00000070: f06e 3a10 8781 d44f 7fd4 3c43 e4fe f432

model/conv_pw_2/Conv2D i1 [32, 1, 1, 16]
64 73 -8 -13 -21 35 -127 -124
14 88 -3 -120 -19 -83 60 -12
73 -13 -112 78 127 6 85 60
38 70 -2 49 72 -60 105 -63
-52 -121 23 82 33 -42 111 106
56 10 89 18 -93 -99 127 11
-99 -81 82 -30 -40 127 5 -43
10 19 -1 48 -102 -8 53 -88
77 -20 -71 31 101 127 80 -5
21 -49 17 -52 -73 -24 12 107
20 83 0 -111 -101 37 -80 -61
-12 -58 127 -18 40 -59 57 -22
-88 19 -48 12 -99 45 109 -96
-70 21 64 91 91 -91 -62 -127
4 22 -57 -31 23 42 -42 76
25 17 -68 -43 -101 77 127 -47
4 -116 6 60 -92 -70 4 16
1 52 21 115 32 61 109 -127
-127 38 -96 -78 33 -66 81 -87
-29 87 31 -56 -73 44 -62 120
17 -89 111 -5 30 -28 117 -2
-114 -111 -16 127 -73 89 3 -36
-90 44 127 -37 68 -11 -35 44
-83 29 71 -1 89 27 -64 -104
-91 62 -127 -99 84 -21 -45 32
-61 71 -67 -48 -80 19 54 -68
127 103 72 -14 -53 19 114 -18
61 42 21 41 -73 124 -78 -2
-11 -100 -62 -120 -127 4 70 3
50 -23 91 91 15 76 18 90
-94 -38 -14 -127 122 -45 -9 -26
-86 -71 -5 72 -85 -92 -3 -57
00000000: 4049 f8f3 eb23 8184 0e58 fd88 edad 3cf4
00000010: 49f3 904e 7f06 553c 2646 fe31 48c4 69c1
00000020: cc87 1752 21d6 6f6a 380a 5912 a39d 7f0b
00000030: 9daf 52e2 d87f 05d5 0a13 ff30 9af8 35a8
00000040: 4dec b91f 657f 50fb 15cf 11cc b7e8 0c6b
00000050: 1453 0091 9b25 b0c3 f4c6 7fee 28c5 39ea
00000060: a813 d00c 9d2d 6da0 ba15 405b 5ba5 c281
00000070: 0416 c7e1 172a d64c 1911 bcd5 9b4d 7fd1
00000080: 048c 063c a4ba 0410 0134 1573 203d 6d81
00000090: 8126 a0b2 21be 51a9 e357 1fc8 b72c c278
000000a0: 11a7 6ffb 1ee4 75fe 8e91 f07f b759 03dc
000000b0: a62c 7fdb 44f5 dd2c ad1d 47ff 591b c098
000000c0: a53e 819d 54eb d320 c347 bdd0 b013 36bc
000000d0: 7f67 48f2 cb13 72ee 3d2a 1529 b77c b2fe
000000e0: f59c c288 8104 4603 32e9 5b5b 0f4c 125a
000000f0: a2da f281 7ad3 f7e6 aab9 fb48 aba4 fdc7

model/conv_pw_3/Conv2D i1 [32, 1, 1, 32]
-59 -41 -59 -72 -91 -26 -49 -94
97 -106 -96 -77 -40 -127 -51 27
-43 -73 51 -78 78 -11 45 18
33 -89 -83 24 75 -117 57 -91
36 49 -34 60 -127 -26 -12 50
-22 -79 -101 110 -23 -96 24 7
-95 73 -35 -71 -9 17 14 53
112 -47 35 -50 64 8 -19 65
102 -127 89 -101 102 -2 -59 66
-30 45 73 -44 -96 25 96 97
117 -123 -66 49 115 63 8 52
90 80 88 -94 -38 101 2 -100
27 121 17 -8 -77 -39 -41 49
117 -32 -116 87 -5 113 -3 9
-91 6 -40 31 18 5 5 111
-12 -84 19 -127 63 -106 -64 5
12 -67 -127 97 -102 -116 23 76
10 -79 76 -14 -74 37 23 99
50 44 -109 103 -73 82 -4 -15
-37 -115 -15 -100 -27 -62 -14 -32
-95 35 8 -127 45 -16 -38 40
113 50 -25 -91 11 -112 22 69
-57 -64 -113 -25 59 83 43 7
102 -106 -36 72 26 37 -55 -110
103 41 127 39 -80 35 48 -53
-98 90 -114 36 52 -1 -26 -27
81 -107 -105 -4 110 94 71 101
-77 -87 116 -6 -44 121 -125 47
16 -25 -30 65 119 -97 64 -78
-75 -30 -22 69 63 33 -40 -79
27 100 22 114 -114 16 79 -15
108 27 71 -67 127 97 -16 58
00000000: c5d7 c5b8 a5e6 cfa2 6196 a0b3 d881 cd1b
00000010: d5b7 33b2 4ef5 2d12 21a7 ad18 4b8b 39a5
00000020: 2431 de3c 81e6 f432 eab1 9b6e e9a0 1807
00000030: a149 ddb9 f711 0e35 70d1 23ce 4008 ed41
00000040: 6681 599b 66fe c542 e22d 49d4 a019 6061
00000050: 7585 be31 733f 0834 5a50 58a2 da65 029c
00000060: 1b79 11f8 b3d9 d731 75e0 8c57 fb71 fd09
00000070: a506 d81f 1205 056f f4ac 1381 3f96 c005
00000080: 0cbd 8161 9a8c 174c 0ab1 4cf2 b625 1763
00000090: 322c 9367 b752 fcf1 db8d f19c e5c2 f2e0
000000a0: a123 0881 2df0 da28 7132 e7a5 0b90 1645
000000b0: c7c0 8fe7 3b53 2b07 6696 dc48 1a25 c992
000000c0: 6729 7f27 b023 30cb 9e5a 8e24 34ff e6e5
000000d0: 5195 97fc 6e5e 4765 b3a9 74fa d479 832f
000000e0: 10e7 e241 779f 40b2 b5e2 ea45 3f21 d8b1
000000f0: 1b64 1672 8e10 4ff1 6c1b 47bd 7f61 f03a

model/conv_pw_4/Conv2D i1 [64, 1, 1, 32]
-45 -25 -38 -60 98 -67 -41 -49
75 97 -113 -21 28 82 -26 -66
-46 -43 -123 17 1 -114 33 -70
100 71 74 -32 67 82 -127 101
-1 38 -87 -42 11 -35 127 11
94 -52 -22 51 -2 -25 -78 -1
41 57 69 -124 59 -30 90 -3
-39 -89 -12 -116 89 -22 109 -80
-33 57 -77 33 64 118 4 35
-51 -67 106 -69 -90 -10 127 6
-69 81 52 -71 -9 88 -34 73
-104 41 68 -11 -80 87 15 62
-44 -125 91 -23 71 39 71 -9
-103 36 -62 39 -55 0 13 57
-105 -80 60 127 62 100 -92 85
24 107 -72 38 -55 -98 -46 -71
-30 14 -84 -64 26 -44 13 78
75 -78 77 127 -94 47 11 -35
109 17 21 -72 58 109 -79 98
55 -79 -32 -93 90 46 66 111
-72 1 -45 18 27 -99 43 95
83 -61 82 -46 64 -35 45 -65
-73 -38 9 -94 48 -79 -34 -27
94 108 -17 -70 -81 -51 -69 -127
22 19 20 -75 68 11 -117 -127
56 -64 14 -23 -63 53 48 -6
-113 50 -70 -51 -18 102 -103 21
15 -19 -13 -23 17 22 -11 71
2 29 50 -16 127 44 70 -89
-75 -8 -21 87 -102 -19 55 20
19 -94 -63 11 32 55 -4 23
46 -64 44 29 -57 68 -41 -29
00000000: d3e7 dac4 62bd d7cf 4b61 8feb 1c52 e6be
00000010: d2d5 8511 018e 21ba 6447 4ae0 4352 8165
00000020: ff26 a9d6 0bdd 7f0b 5ecc ea33 fee7 b2ff
00000030: 2939 4584 3be2 5afd d9a7 f48c 59ea 6db0
00000040: df39 b321 4076 0423 cdbd 6abb a6f6 7f06
00000050: bb51 34b9 f758 de49 9829 44f5 b057 0f3e
00000060: d483 5be9 4727 47f7 9924 c227 c900 0d39
00000070: 97b0 3c7f 3e64 a455 186b b826 c99e d2b9
00000080: e20e acc0 1ad4 0d4e 4bb2 4d7f a22f 0bdd
00000090: 6d11 15b8 3a6d b162 37b1 e0a3 5a2e 426f
000000a0: b801 d312 1b9d 2b5f 53c3 52d2 40dd 2dbf
000000b0: b7da 09a2 30b1 dee5 5e6c efba afcd bb81
000000c0: 1613 14b5 440b 8b81 38c0 0ee9 c135 30fa
000000d0: 8f32 bacd ee66 9915 0fed f3e9 1116 f547
000000e0: 021d 32f0 7f2c 46a7 b5f8 eb57 9aed 3714
000000f0: 13a2 c10b 2037 fc17 2ec0 2c1d c744 d7e3

model/conv_pw_5/Conv2D i1 [64, 1, 1, 64]
-25 107 107 98 62 -22 121 60
-29 -85 94 -39 96 -16 -1 104
-56 -39 24 -35 70 -18 38 -25
-7 -76 -127 -60 -80 -72 -90 75
0 107 -100 109 79 11 45 -124
-38 93 92 75 98 -11 71 -98
-14 8 -36 15 61 -44 71 -122
-126 -94 45 -114 -20 -16 94 41
59 -33 -47 -67 -50 -88 49 -102
-114 36 22 -54 -90 -20 -28 -127
11 5 -38 -36 -79 82 -47 62
56 -61 0 38 92 -47 16 -77
37 116 -94 10 96 67 99 -13
-112 98 -1 -56 -10 64 -28 43
-53 80 97 118 -98 -91 69 45
-46 55 19 -36 2 -19 -74 38
-85 56 -88 -69 -76 1 -10 -48
-20 49 -79 56 -23 -10 -5 17
-92 -103 -23 65 -66 24 52 37
-36 -111 5 -27 -64 -22 -110 -58
42 29 84 -23 -73 -35 116 -47
88 127 49 6 3 -70 30 25
-36 -29 65 4 16 57 32 -15
50 14 85 -74 -49 34 66 29
17 -84 64 69 -28 41 101 -50
31 -30 -31 -57 -111 -109 109 1
-86 -71 71 103 73 -90 -15 58
-90 -47 65 70 -96 -90 -41 16
54 -11 -41 127 11 -21 50 64
77 -78 39 -3 -37 -11 -32 14
18 77 119 -101 -111 1 -4 -10
31 66 45 -7 50 -41 100 104
00000000: e76b 6b62 3eea 793c e3ab 5ed9 60f0 ff68
00000010: c8d9 18dd 46ee 26e7 f9b4 81c4 b0b8 a64b
00000020: 006b 9c6d 4f0b 2d84 da5d 5c4b 62f5 479e
00000030: f208 dc0f 3dd4 4786 82a2 2d8e ecf0 5e29
00000040: 3bdf d1bd cea8 319a 8e24 16ca a6ec e481
00000050: 0b05 dadc b152 d13e 38c3 0026 5cd1 10b3
00000060: 2574 a20a 6043 63f3 9062 ffc8 f640 e42b
00000070: cb50 6176 9ea5 452d d237 13dc 02ed b626
00000080: ab38 a8bb b401 f6d0 ec31 b138 e9f6 fb11
00000090: a499 e941 be18 3425 dc91 05e5 c0ea 92c6
000000a0: 2a1d 54e9 b7dd 74d1 587f 3106 03ba 1e19
000000b0: dce3 4104 1039 20f1 320e 55b6 cf22 421d
000000c0: 11ac 4045 e429 65ce 1fe2 e1c7 9193 6d01
000000d0: aab9 4767 49a6 f13a a6d1 4146 a0a6 d710
000000e0: 36f5 d77f 0beb 3240 4db2 27fd dbf5 e00e
000000f0: 124d 779b 9101 fcf6 1f42 2df9 32d7 6468

model/conv_pw_6/Conv2D i1 [128, 1, 1, 64]
74 -10 7 124 -85 127 -64 58
121 53 -1 -59 45 2 -91 -5
117 13 -101 -19 -55 15 95 -17
-13 67 9 -32 68 -38 -32 24
-33 18 -89 -46 10 -25 41 -79
53 -61 111 -113 11 43 92 45
29 85 -72 62 68 -44 12 80
-65 -121 47 -9 81 -58 -62 -47
-19 33 -78 81 -10 126 -99 -5
-53 -80 -18 73 84 67 67 4
-13 -77 48 9 -72 76 3 74
68 -72 -93 73 -84 -9 -56 70
26 -31 42 33 -28 -19 7 -85
-86 -41 106 101 50 -108 -50 -74
-57 7 127 -59 -86 109 110 -15
85 -56 -5 -98 18 66 21 -42
11 52 -26 -7 69 -11 21 -4
15 16 -73 -60 -6 23 16 -44
-47 64 19 -127 1 -31 35 36
-84 9 -32 -49 62 25 32 42
-5 56 -8 -2 -63 79 -71 -9
-9 37 70 4 -68 68 10 93
54 63 76 -19 -54 -30 -10 -59
12 -63 -87 -83 -72 -57 55 -4
-79 87 112 -121 11 48 67 48
27 -62 -34 50 100 95 -91 -127
-81 66 4 -93 -93 16 90 -108
99 72 -7 15 -12 -48 59 -80
25 -73 24 -98 63 -21 -103 -38
-96 -65 -21 46 53 -67 36 -14
8 -69 8 75 -64 39 -48 70
-48 37 9 4 -17 66 12 -17
00000000: 4af6 077c ab7f c03a 7935 ffc5 2d02 a5fb
00000010: 750d 9bed c90f 5fef f343 09e0 44da e018
00000020: df12 a7d2 0ae7 29b1 35c3 6f8f 0b2b 5c2d
00000030: 1d55 b83e 44d4 0c50 bf87 2ff7 51c6 c2d1
00000040: ed21 b251 f67e 9dfb cbb0 ee49 5443 4304
00000050: f3b3 3009 b84c 034a 44b8 a349 acf7 c846
00000060: 1ae1 2a21 e4ed 07ab aad7 6a65 3294 ceb6
00000070: c707 7fc5 aa6d 6ef1 55c8 fb9e 1242 15d6
00000080: 0b34 e6f9 45f5 15fc 0f10 b7c4 fa17 10d4
00000090: d140 1381 01e1 2324 ac09 e0cf 3e19 202a
000000a0: fb38 f8fe c14f b9f7 f725 4604 bc44 0a5d
000000b0: 363f 4ced cae2 f6c5 0cc1 a9ad b8c7 37fc
000000c0: b157 7087 0b30 4330 1bc2 de32 645f a581
000000d0: af42 04a3 a310 5a94 6348 f90f f4d0 3bb0
000000e0: 19b7 189e 3feb 99da a0bf eb2e 35bd 24f2
000000f0: 08bb 084b c027 d046 d025 0904 ef42 0cef

model/conv_pw_7/Conv2D i1 [128, 1, 1, 128]
-35 31 -17 -9 -62 56 35 -36
53 101 -15 -16 19 79 45 -121
-8 69 46 24 3 -25 28 -52
-14 19 56 43 -7 53 -15 73
-25 -40 -95 -42 52 -81 47 -16
-52 -52 -39 26 -16 -29 -9 26
-6 37 31 10 6 -16 18 -53
25 -10 16 54 31 87 -4 -73
-14 -16 -127 40 -43 42 54 -48
7 24 54 -73 -63 -54 -57 -50
49 -37 8 19 -50 -29 -58 -67
-27 68 62 41 8 -3 -5 -63
12 -26 -16 -5 5 12 -23 -16
-45 46 0 -27 -82 -75 -110 29
35 36 -80 -38 -38 26 58 42
-103 -32 -1 26 -58 2 -18 37
80 -21 -35 59 14 7 53 -64
-46 32 85 47 76 42 -37 24
-28 44 -40 55 -10 6 -22 2
42 -52 10 -4 14 -25 -56 -66
70 -66 50 -69 47 -64 10 -23
-7 -127 -24 38 -103 -23 -30 -27
-77 71 18 10 38 38 22 71
-50 74 -37 56 7 53 -40 73
-33 45 -21 6 -4 60 69 62
18 -27 -36 49 48 45 -30 41
70 34 30 -17 71 27 3 9
5 54 14 9 42 -56 7 -30
85 102 26 -40 -8 26 -7 -54
-28 -4 0 -47 69 -42 52 32
22 19 -37 -52 -71 61 0 -22
-23 -5 -29 30 78 17 -10 10
00000000: dd1f eff7 c238 23dc 3565 f1f0 134f 2d87
00000010: f845 2e18 03e7 1ccc f213 382b f935 f149
00000020: e7d8 a1d6 34af 2ff0 cccc d91a f0e3 f71a
00000030: fa25 1f0a 06f0 12cb 19f6 1036 1f57 fcb7
00000040: f2f0 8128 d52a 36d0 0718 36b7 c1ca c7ce
00000050: 31db 0813 cee3 c6bd e544 3e29 08fd fbc1
00000060: 0ce6 f0fb 050c e9f0 d32e 00e5 aeb5 921d
00000070: 2324 b0da da1a 3a2a 99e0 ff1a c602 ee25
00000080: 50eb dd3b 0e07 35c0 d220 552f 4c2a db18
00000090: e42c d837 f606 ea02 2acc 0afc 0ee7 c8be
000000a0: 46be 32bb 2fc0 0ae9 f981 e826 99e9 e2e5
000000b0: b347 120a 2626 1647 ce4a db38 0735 d849
000000c0: df2d eb06 fc3c 453e 12e5 dc31 302d e229
000000d0: 4622 1eef 471b 0309 0536 0e09 2ac8 07e2
000000e0: 5566 1ad8 f81a f9ca e4fc 00d1 45d6 3420
000000f0: 1613 dbcc b93d 00ea e9fb e31e 4e11 f60a

model/conv_pw_8/Conv2D i1 [128, 1, 1, 128]
-4 31 -39 110 59 15 104 57
-103 -28 20 -6 108 -27 -98 54
-14 56 -42 32 -50 35 -10 -88
-113 28 -30 -42 -106 -84 31 -6
93 -84 -47 -100 -15 22 -54 26
-47 10 -46 103 71 71 -113 -44
84 41 47 40 71 -51 0 -58
-71 -68 -55 56 -114 58 33 -62
-48 -15 75 -107 67 -109 -2 7
-64 -85 15 -51 -65 15 127 119
92 -79 79 -88 7 106 7 48
43 -80 89 -24 -73 59 -68 -113
49 64 67 -4 38 -31 -66 65
106 -45 62 -49 40 -30 -30 52
50 5 86 104 -96 -38 57 30
-16 44 61 -8 28 38 9 -116
-7 35 -77 -51 73 37 103 25
-76 -15 91 78 -40 97 -22 9
20 78 -23 1 -25 60 -13 84
-83 -13 -3 -66 -80 31 31 5
-64 22 17 -47 112 -80 16 -70
87 -72 39 -93 65 -88 37 19
98 99 77 112 -81 6 -41 68
-10 3 62 117 95 79 46 100
45 -66 79 -29 10 -45 47 61
-78 85 -50 -81 -50 -12 -68 84
30 57 1 -50 68 64 4 -80
21 -33 56 -80 -34 30 23 47
49 -68 13 -23 -45 69 -74 -38
-20 -127 -23 -76 -4 8 85 81
-6 29 24 51 106 -61 93 70
68 33 79 35 74 -91 -6 -61
00000000: fc1f d96e 3b0f 6839 99e4 14fa 6ce5 9e36
00000010: f238 d620 ce23 f6a8 8f1c e2d6 96ac 1ffa
00000020: 5dac d19c f116 ca1a d10a d267 4747 8fd4
00000030: 5429 2f28 47cd 00c6 b9bc c938 8e3a 21c2
00000040: d0f1 4b95 4393 fe07 c0ab 0fcd bf0f 7f77
00000050: 5cb1 4fa8 076a 0730 2bb0 59e8 b73b bc8f
00000060: 3140 43fc 26e1 be41 6ad3 3ecf 28e2 e234
00000070: 3205 5668 a0da 391e f02c 3df8 1c26 098c
00000080: f923 b3cd 4925 6719 b4f1 5b4e d861 ea09
00000090: 144e e901 e73c f354 adf3 fdbe b01f 1f05
000000a0: c016 11d1 70b0 10ba 57b8 27a3 41a8 2513
000000b0: 6263 4d70 af06 d744 f603 3e75 5f4f 2e64
000000c0: 2dbe 4fe3 0ad3 2f3d b255 ceaf cef4 bc54
000000d0: 1e39 01ce 4440 04b0 15df 38b0 de1e 172f
000000e0: 31bc 0de9 d345 b6da ec81 e9b4 fc08 5551
000000f0: fa1d 1833 6ac3 5d46 4421 4f23 4aa5 fac3

model/conv_pw_9/Conv2D i1 [128, 1, 1, 128]
-15 -127 -2 40 79 -4 -15 -91
-20 15 103 28 117 15 -31 -31
35 -81 69 -84 -89 -39 -63 64
-40 -100 78 31 -127 61 62 -15
-3 -63 42 44 50 -63 -5 -91
22 31 -26 0 -50 19 -10 7
-89 -80 11 7 -74 33 16 57
62 22 -32 7 -42 -61 -34 5
-37 -80 -62 12 49 -30 -54 -14
41 59 34 -51 54 62 69 -22
8 -30 -56 -33 1 -3 -10 -35
54 -30 -92 53 26 -68 81 -97
-24 -22 -21 49 -111 99 73 -57
-51 -22 38 -20 -18 -13 -40 26
81 -58 -94 -59 31 -28 -123 103
52 93 53 28 -27 69 35 -26
34 32 1 -56 -15 -48 -71 33
-57 -22 13 -34 -34 10 30 48
71 -11 -42 -22 38 2 1 -39
-22 -95 -24 16 -78 -41 -59 -9
-11 -39 -53 -66 21 -24 22 33
17 12 5 24 -110 -42 51 -27
-37 22 25 47 -24 -73 36 1
57 -127 -85 -71 23 29 10 84
-48 44 -2 47 -49 22 8 60
-31 43 70 20 56 58 -20 -8
6 45 -6 -45 28 -34 -35 -25
50 -56 42 -81 59 46 34 9
-8 45 17 -40 -79 19 80 -20
-84 84 70 -30 11 17 -37 15
-26 72 19 -77 -1 -18 45 -8
-14 59 30 66 16 -34 -1 53
00000000: f181 fe28 4ffc f1a5 ec0f 671c 750f e1e1
00000010: 23af 45ac a7d9 c140 d89c 4e1f 813d 3ef1
00000020: fdc1 2a2c 32c1 fba5 161f e600 ce13 f607
00000030: a7b0 0b07 b621 1039 3e16 e007 d6c3 de05
00000040: dbb0 c20c 31e2 caf2 293b 22cd 363e 45ea
00000050: 08e2 c8df 01fd f6dd 36e2 a435 1abc 519f
00000060: e8ea eb31 9163 49c7 cdea 26ec eef3 d81a
00000070: 51c6 a2c5 1fe4 8567 345d 351c e545 23e6
00000080: 2220 01c8 f1d0 b921 c7ea 0dde de0a 1e30
00000090: 47f5 d6ea 2602 01d9 eaa1 e810 b2d7 c5f7
000000a0: f5d9 cbbe 15e8 1621 110c 0518 92d6 33e5
000000b0: db16 192f e8b7 2401 3981 abb9 171d 0a54
000000c0: d02c fe2f cf16 083c e12b 4614 383a ecf8
000000d0: 062d fad3 1cde dde7 32c8 2aaf 3b2e 2209
000000e0: f82d 11d8 b113 50ec ac54 46e2 0b11 db0f
000000f0: e648 13b3 ffee 2df8 f23b 1e42 10de ff35

model/conv_pw_10/Conv2D i1 [128, 1, 1, 128]
-43 54 82 24 12 5 -35 38
-58 41 -42 8 -6 38 37 -34
73 51 74 -76 -111 26 -75 -71
-56 -62 -34 62 55 44 -96 6
71 29 9 -69 11 79 -74 -8
59 29 26 42 24 -40 37 0
-15 -63 75 -27 -15 7 21 6
-17 42 49 102 0 41 -10 5
-71 48 -21 -2 50 26 -61 -51
25 -12 72 -48 24 72 -27 21
-68 -28 16 -61 -58 -15 -12 -61
14 127 -52 79 30 -70 35 31
105 -24 31 56 -4 -36 -31 -59
36 4 -49 49 -53 -25 62 -49
108 -66 46 -34 83 78 59 54
84 -52 36 -15 29 -39 -107 28
-37 -54 -34 2 -50 -88 98 -23
-116 38 28 62 -10 72 17 11
-9 4 54 32 -19 -3 16 21
-52 -11 -66 -70 -3 43 -82 38
-39 35 41 -78 -64 51 -20 -36
-17 35 20 -46 -27 10 -4 -62
85 -33 -17 52 56 -42 -70 8
57 -19 38 -38 16 -26 41 10
63 52 40 -47 27 -100 -89 61
41 38 -76 58 3 74 55 24
110 74 24 40 7 4 25 63
-19 -92 -72 60 -42 51 110 -22
-50 11 61 -32 87 55 -42 -86
-96 -3 67 -34 -47 20 -14 21
-63 7 47 53 35 86 -79 -17
-127 -66 -36 -10 88 39 46 -59
00000000: d536 5218 0c05 dd26 c629 d608 fa26 25de
00000010: 4933 4ab4 911a b5b9 c8c2 de3e 372c a006
00000020: 471d 09bb 0b4f b6f8 3b1d 1a2a 18d8 2500
00000030: f1c1 4be5 f107 1506 ef2a 3166 0029 f605
00000040: b930 ebfe 321a c3cd 19f4 48d0 1848 e515
00000050: bce4 10c3 c6f1 f4c3 0e7f cc4f 1eba 231f
00000060: 69e8 1f38 fcdc e1c5 2404 cf31 cbe7 3ecf
00000070: 6cbe 2ede 534e 3b36 54cc 24f1 1dd9 951c
00000080: dbca de02 cea8 62e9 8c26 1c3e f648 110b
00000090: f704 3620 edfd 1015 ccf5 beba fd2b ae26
000000a0: d923 29b2 c033 ecdc ef23 14d2 e50a fcc2
000000b0: 55df ef34 38d6 ba08 39ed 26da 10e6 290a
000000c0: 3f34 28d1 1b9c a73d 2926 b43a 034a 3718
000000d0: 6e4a 1828 0704 193f eda4 b83c d633 6eea
000000e0: ce0b 3de0 5737 d6aa a0fd 43de d114 f215
000000f0: c107 2f35 2356 b1ef 81be dcf6 5827 2ec5

model/conv_pw_11/Conv2D i1 [128, 1, 1, 128]
-83 89 1 -92 93 32 -99 -29
91 -2 -61 -88 12 5 70 52
-83 -47 -85 64 27 -44 -43 61
18 -5 -42 -8 -53 53 -58 -107
127 38 -29 54 -39 -28 -30 -71
60 -49 93 -68 -36 -93 10 -73
101 19 41 -7 19 -69 85 -38
74 -36 -17 51 4 7 -86 -95
118 -36 65 -67 -14 12 96 78
95 -31 104 10 -46 -50 96 -98
31 -60 28 -75 11 -62 16 51
37 -8 84 33 -77 -7 -39 -3
16 89 -44 -53 -70 49 -6 -4
59 -22 -100 14 67 -48 9 25
-69 98 -78 8 -26 -3 -86 78
-117 24 -37 46 -34 56 89 -54
8 3 88 -4 -47 78 -36 -39
14 -64 48 5 44 -9 121 22
14 88 33 -96 55 80 93 -42
17 21 52 60 44 13 -29 -71
-30 31 -60 -40 -1 5 -2 -39
-54 50 -35 -68 2 57 -5 73
40 -19 95 -9 30 49 49 -6
-49 115 36 -41 -54 -103 -85 -47
0 48 30 83 -7 127 84 53
25 116 -58 -40 35 76 96 -74
37 -82 42 65 -33 -106 38 34
67 19 96 -13 -93 -45 124 66
45 54 -67 -94 5 -45 -76 64
-37 -3 70 20 -91 -35 -1 -37
-59 -27 92 -83 -18 54 -52 -24
18 -51 -119 66 -58 76 1 -70
00000000: ad59 01a4 5d20 9de3 5bfe c3a8 0c05 4634
00000010: add1 ab40 1bd4 d53d 12fb d6f8 cb35 c695
00000020: 7f26 e336 d9e4 e2b9 3ccf 5dbc dca3 0ab7
00000030: 6513 29f9 13bb 55da 4adc ef33 0407 aaa1
00000040: 76dc 41bd f20c 604e 5fe1 680a d2ce 609e
00000050: 1fc4 1cb5 0bc2 1033 25f8 5421 b3f9 d9fd
00000060: 1059 d4cb ba31 fafc 3bea 9c0e 43d0 0919
00000070: bb62 b208 e6fd aa4e 8b18 db2e de38 59ca
00000080: 0803 58fc d14e dcd9 0ec0 3005 2cf7 7916
00000090: 0e58 21a0 3750 5dd6 1115 343c 2c0d e3b9
000000a0: e21f c4d8 ff05 fed9 ca32 ddbc 0239 fb49
000000b0: 28ed 5ff7 1e31 31fa cf73 24d7 ca99 abd1
000000c0: 0030 1e53 f97f 5435 1974 c6d8 234c 60b6
000000d0: 25ae 2a41 df96 2622 4313 60f3 a3d3 7c42
000000e0: 2d36 bda2 05d3 b440 dbfd 4614 a5dd ffdb
000000f0: c5e5 5cad ee36 cce8 12cd 8942 c64c 01ba

model/conv_pw_12/Conv2D i1 [256, 1, 1, 128]
-3 -17 -30 30 87 38 63 0
-22 37 -95 -22 -61 96 -64 57
-36 64 -38 -97 32 -66 -85 15
56 23 0 -51 0 -63 72 58
-63 12 -28 -85 60 6 -29 4
-39 102 -37 74 22 90 -22 -27
31 -31 -37 59 -15 -52 59 44
64 -43 12 18 -64 -78 4 26
22 -1 -28 90 90 -37 -7 -47
72 -24 -29 -96 -59 -30 -24 75
102 29 79 5 11 -84 58 -57
-20 127 -55 57 -38 52 62 -97
66 75 -75 56 -19 -125 -73 17
-14 41 25 -14 9 72 33 -99
9 37 -41 20 -62 -22 97 -33
-78 33 36 10 36 -57 4 55
43 -53 79 -1 115 30 -29 20
-10 54 -30 -56 -41 29 97 -15
-35 -25 -46 -64 23 -63 54 61
5 -83 3 -44 34 -36 97 -8
13 -47 -26 -5 67 34 -19 55
59 17 44 50 -24 -26 40 -8
26 14 31 -16 -96 31 57 -27
34 5 10 -8 -64 42 28 90
-13 35 25 16 -38 66 14 -28
-38 35 13 81 39 -51 -22 42
5 -22 34 -24 10 5 40 -67
71 -29 -53 0 -32 -31 -3 -57
-8 6 62 9 -21 -61 -67 18
-50 -54 5 -43 -14 4 52 -11
24 -6 -127 -18 17 4 -2 -10
-85 -41 -31 -105 81 64 45 29
00000000: fdef e21e 5726 3f00 ea25 a1ea c360 c039
00000010: dc40 da9f 20be ab0f 3817 00cd 00c1 483a
00000020: c10c e4ab 3c06 e304 d966 db4a 165a eae5
00000030: 1fe1 db3b f1cc 3b2c 40d5 0c12 c0b2 041a
00000040: 16ff e45a 5adb f9d1 48e8 e3a0 c5e2 e84b
00000050: 661d 4f05 0bac 3ac7 ec7f c939 da34 3e9f
00000060: 424b b538 ed83 b711 f229 19f2 0948 219d
00000070: 0925 d714 c2ea 61df b221 240a 24c7 0437
00000080: 2bcb 4fff 731e e314 f636 e2c8 d71d 61f1
00000090: dde7 d2c0 17c1 363d 05ad 03d4 22dc 61f8
000000a0: 0dd1 e6fb 4322 ed37 3b11 2c32 e8e6 28f8
000000b0: 1a0e 1ff0 a01f 39e5 2205 0af8 c02a 1c5a
000000c0: f323 1910 da42 0ee4 da23 0d51 27cd ea2a
000000d0: 05ea 22e8 0a05 28bd 47e3 cb00 e0e1 fdc7
000000e0: f806 3e09 ebc3 bd12 ceca 05d5 f204 34f5
000000f0: 18fa 81ee 1104 fef6 abd7 e197 5140 2d1d

model/conv_pw_13/Conv2D i1 [256, 1, 1, 256]
1 -13 15 65 -16 -1 15 -46
13 18 45 27 4 44 -83 -51
75 109 16 52 38 10 -33 -68
-28 -27 -14 3 -63 -26 51 -70
-13 9 47 -69 -1 -28 -18 -36
54 -32 6 21 22 -55 -3 -71
4 69 14 5 -62 62 -4 70
-52 -1 23 -30 -27 -7 -86 10
-15 -7 -32 32 -40 -30 -25 30
93 -43 -38 3 -4 -2 27 -78
94 -47 46 -1 -77 -60 -81 -31
-124 6 -44 -6 12 -23 25 4
-32 60 26 6 26 -56 22 -71
65 -112 4 28 -4 -60 49 -6
79 -53 -114 -35 -53 -43 73 -38
-5 -60 46 47 -67 39 -23 57
23 5 -78 24 65 -69 92 -50
63 -61 -42 -54 44 -43 52 -53
-26 2 -21 -13 -47 -54 -9 54
33 -127 77 21 37 -3 -43 -49
103 -23 43 61 41 -6 75 0
-32 -10 66 25 17 17 -19 48
-100 14 -16 -22 65 31 12 -44
17 45 63 -49 -5 -53 -127 -54
-32 4 34 1 -45 -50 56 31
-34 -10 39 1 75 -2 5 -58
25 -23 -4 14 59 23 -94 -49
32 -9 -64 -35 46 46 -34 7
-2 16 21 60 -40 -53 -19 121
-28 -29 -101 -12 -36 -10 68 39
32 18 21 28 -19 -58 -40 -16
-49 5 -57 -50 42 6 -54 33
00000000: 01f3 0f41 f0ff 0fd2 0d12 2d1b 042c adcd
00000010: 4b6d 1034 260a dfbc e4e5 f203 c1e6 33ba
00000020: f309 2fbb ffe4 eedc 36e0 0615 16c9 fdb9
00000030: 0445 0e05 c23e fc46 ccff 17e2 e5f9 aa0a
00000040: f1f9 e020 d8e2 e71e 5dd5 da03 fcfe 1bb2
00000050: 5ed1 2eff b3c4 afe1 8406 d4fa 0ce9 1904
00000060: e03c 1a06 1ac8 16b9 4190 041c fcc4 31fa
00000070: 4fcb 8edd cbd5 49da fbc4 2e2f bd27 e939
00000080: 1705 b218 41bb 5cce 3fc3 d6ca 2cd5 34cb
00000090: e602 ebf3 d1ca f736 2181 4d15 25fd d5cf
000000a0: 67e9 2b3d 29fa 4b00 e0f6 4219 1111 ed30
000000b0: 9c0e f0ea 411f 0cd4 112d 3fcf fbcb 81ca
000000c0: e004 2201 d3ce 381f def6 2701 4bfe 05c6
000000d0: 19e9 fc0e 3b17 a2cf 20f7 c0dd 2e2e de07
000000e0: fe10 153c d8cb ed79 e4e3 9bf4 dcf6 4427
000000f0: 2012 151c edc6 d8f0 cf05 c7ce 2a06 ca21

model/conv_dw_1_bn/FusedBatchNormV3;model/conv_dw_1/depthwise i1 [1, 3, 3, 8]
-57 -96 -12 -4 60 1 87 7
-26 5 -108 -110 47 -99 108 25
-49 -122 -95 99 83 -60 119 -103
-78 10 -27 74 70 -85 -109 -96
-20 -127 -110 -17 -37 121 -61 103
110 -32 41 53 -74 107 -127 51
127 -12 6 70 127 0 -48 127
49 97 38 -127 41 68 101 -112
-15 32 127 -68 -47 127 73 -91
00000000: c7a0 f4fc 3c01 5707 e605 9492 2f9d 6c19
00000010: cf86 a163 53c4 7799 b20a e54a 46ab 93a0
00000020: ec81 92ef db79 c367 6ee0 2935 b66b 8133
00000030: 7ff4 0646 7f00 d07f 3161 2681 2944 6590
00000040: f120 7fbc d17f 49a5

model/conv_dw_2_bn/FusedBatchNormV3;model/conv_dw_2/depthwise i1 [1, 3, 3, 16]
25 11 25 79 73 69 -127 81
127 -95 -20 127 16 13 26 -16
62 -7 4 -126 127 16 -82 -70
-37 43 -50 7 -76 49 78 -69
75 -30 30 110 2 -38 -19 73
99 127 1 55 126 -68 19 40
17 -78 127 5 106 -106 -95 -40
105 -25 -112 35 -40 -70 0 -45
127 -51 -21 25 -49 -6 -18 71
-101 -38 -66 89 -93 37 127 127
-113 70 -14 116 80 69 -106 127
48 121 34 -112 -56 -22 -46 2
95 -49 25 15 -39 -127 80 -53
-47 -83 4 91 -127 28 80 87
-119 -127 -40 -73 -54 -8 -73 -88
-91 85 37 -19 57 -127 104 117
-113 -35 -29 -127 82 -51 90 95
65 10 -127 46 95 32 -39 -30
00000000: 190b 194f 4945 8151 7fa1 ec7f 100d 1af0
00000010: 3ef9 0482 7f10 aeba db2b ce07 b431 4ebb
00000020: 4be2 1e6e 02da ed49 637f 0137 7ebc 1328
00000030: 11b2 7f05 6a96 a1d8 69e7 9023 d8ba 00d3
00000040: 7fcd eb19 cffa ee47 9bda be59 a325 7f7f
00000050: 8f46 f274 5045 967f 3079 2290 c8ea d202
00000060: 5fcf 190f d981 50cb d1ad 045b 811c 5057
00000070: 8981 d8b7 caf8 b7a8 a555 25ed 3981 6875
00000080: 8fdd e381 52cd 5a5f 410a 812e 5f20 d9e2

model/conv_dw_3_bn/FusedBatchNormV3;model/conv_dw_3/depthwise;model/conv_dw_4/depthwise i1 [1, 3, 3, 32]
-90 -73 107 127 33 -91 31 -15
-69 -19 71 36 -83 63 -83 56
-79 41 46 127 21 79 -8 90
11 -18 -22 -127 127 31 15 -81
85 -118 -13 -31 -85 28 23 58
-104 38 -58 62 53 -37 52 63
127 -51 127 42 80 -35 8 21
-19 81 107 55 18 -22 -82 -69
81 -4 -92 -63 81 26 -33 -33
-127 -49 -127 45 -17 -104 98 127
68 -94 7 -55 -42 -84 -20 -56
5 -27 16 -30 70 11 73 127
127 -71 61 22 -72 74 49 38
-3 -44 78 8 -2 -40 65 -18
44 -37 61 -52 -15 127 13 -33
59 -4 53 16 72 27 -60 98
-50 -37 -70 -55 2 48 15 111
62 -97 -4 -107 46 -21 118 61
7 -102 79 3 -22 20 31 56
-20 119 93 27 -56 -43 -73 64
93 -127 127 56 -46 -29 127 127
-65 127 -17 66 -4 127 93 49
118 127 -124 117 -38 -48 -47 -127
59 127 -66 53 -65 -127 6 4
60 50 -87 -11 18 96 19 92
30 -32 47 -85 -82 -15 -40 30
60 42 -73 93 41 67 -15 -87
-71 95 127 -60 -7 -76 127 -75
9 -24 -25 23 127 -6 -115 -82
-27 81 29 127 -127 53 127 92
99 -8 42 86 73 -17 127 88
99 37 49 -24 70 -22 55 -33
00000000: a6b7 6b7f 21a5 1ff1 bbed 4724 ad3f ad38
00000010: b129 2e7f 154f f85a 0bee ea81 7f1f 0faf
00000020: 558a f3e1 ab1c 173a 9826 c63e 35db 343f
00000030: 7fcd 7f2a 50dd 0815 ed51 6b37 12ea aebb
00000040: 51fc a4c1 511a dfdf 81cf 812d ef98 627f
00000050: 44a2 07c9 d6ac ecc8 05e5 10e2 460b 497f
00000060: 7fb9 3d16 b84a 3126 fdd4 4e08 fed8 41ee
00000070: 2cdb 3dcc f17f 0ddf 3bfc 3510 481b c462
00000080: cedb bac9 0230 0f6f 3e9f fc95 2eeb 763d
00000090: 079a 4f03 ea14 1f38 ec77 5d1b c8d5 b740
000000a0: 5d81 7f38 d2e3 7f7f bf7f ef42 fc7f 5d31
000000b0: 767f 8475 dad0 d181 3b7f be35 bf81 0604
000000c0: 3c32 a9f5 1260 135c 1ee0 2fab aef1 d81e
000000d0: 3c2a b75d 2943 f1a9 b95f 7fc4 f9b4 7fb5
000000e0: 09e8 e717 7ffa 8dae e551 1d7f 8135 7f5c
000000f0: 63f8 2a56 49ef 7f58 6325 31e8 46ea 37df

model/conv_dw_4_bn/FusedBatchNormV3;model/conv_dw_4/depthwise i1 [1, 3, 3, 32]
15 -127 -20 3 -30 -6 56 31
120 -112 106 73 22 -93 83 17
-124 -127 -120 -84 21 -32 31 8
9 -58 -54 -85 -7 106 -31 57
92 -77 -2 -110 -66 -127 -11 -127
87 -111 -127 -20 57 71 50 -94
-70 -90 2 49 -127 112 -81 -127
39 10 0 -29 121 -112 14 -127
127 15 72 -127 82 -57 -4 -59
-69 -112 -21 113 -127 90 -10 127
-127 53 8 21 -95 79 -61 -37
1 113 -127 127 -10 -22 60 -79
104 -81 127 -62 -4 -12 70 46
90 12 -51 -82 10 64 43 -50
-86 -55 -64 -6 -52 127 -11 41
-42 -26 -102 -77 -43 69 120 51
73 8 5 -37 -75 36 71 -113
17 34 -1 -50 13 13 -127 -12
-4 -16 -25 -115 36 -24 11 115
33 44 -92 4 127 4 -7 5
-45 -3 79 -28 127 -21 127 66
-30 -127 58 -77 -36 127 -81 62
-123 27 -40 -127 -41 -50 -127 105
79 80 1 -68 -79 -127 -15 41
-95 59 -31 -25 2 -36 -72 -114
35 -109 118 -116 48 -65 9 41
-74 77 -127 -102 -85 -8 -50 -11
-113 -41 79 32 32 -26 127 50
-53 -83 38 20 62 -68 -55 53
115 -2 44 127 50 -55 -39 127
-64 -18 61 32 -43 -82 -114 -2
5 90 15 42 -48 -70 -11 107
00000000: 0f81 ec03 e2fa 381f 7890 6a49 16a3 5311
00000010: 8481 88ac 15e0 1f08 09c6 caab f96a e139
00000020: 5cb3 fe92 be81 f581 5791 81ec 3947 32a2
00000030: baa6 0231 8170 af81 270a 00e3 7990 0e81
00000040: 7f0f 4881 52c7 fcc5 bb90 eb71 815a f67f
00000050: 8135 0815 a14f c3db 0171 817f f6ea 3cb1
00000060: 68af 7fc2 fcf4 462e 5a0c cdae 0a40 2bce
00000070: aac9 c0fa cc7f f529 d6e6 9ab3 d545 7833
00000080: 4908 05db b524 478f 1122 ffce 0d0d 81f4
00000090: fcf0 e78d 24e8 0b73 212c a404 7f04 f905
000000a0: d3fd 4fe4 7feb 7f42 e281 3ab3 dc7f af3e
000000b0: 851b d881 d7ce 8169 4f50 01bc b181 f129
000000c0: a13b e1e7 02dc b88e 2393 768c 30bf 0929
000000d0: b64d 819a abf8 cef5 8fd7 4f20 20e6 7f32
000000e0: cbad 2614 3ebc c935 73fe 2c7f 32c9 d97f
000000f0: c0ee 3d20 d5ae 8efe 055a 0f2a d0ba f56b

model/conv_dw_5_bn/FusedBatchNormV3;model/conv_dw_5/depthwise;model/conv_dw_6/depthwise i1 [1, 3, 3, 64]
-9 11 13 -11 98 -36 4 -24
-47 48 -86 -115 55 38 15 38
-27 -69 -73 11 27 -81 55 -127
16 36 -43 45 -90 -14 13 127
-127 22 -127 -7 55 10 82 -54
127 -116 -30 -68 78 -14 65 13
-77 -81 -4 -109 -127 45 -18 -36
-127 127 -94 -42 -121 54 60 4
40 75 127 54 46 32 70 24
7 -71 24 16 123 65 5 -53
-9 108 -127 -34 -102 -77 -25 -29
54 86 3 -48 -67 -15 99 -92
9 -51 -12 3 127 58 33 34
23 94 -127 -27 80 44 12 -127
-79 52 56 19 6 -124 -25 -63
-63 -81 -20 -38 -56 -112 34 50
29 -127 -33 18 -61 5 47 20
-39 -57 35 -104 -79 -79 56 87
-87 15 86 -105 43 -83 -20 62
-3 -37 59 38 127 -73 -19 28
-89 -92 -42 30 99 25 90 -127
26 63 -77 -117 83 127 -52 -99
4 20 -85 -14 54 8 33 -89
-51 -34 79 113 34 -71 -28 -58
-40 115 64 -127 73 35 -48 -80
37 -47 31 -127 52 76 30 -127
80 -117 -77 103 57 -23 -80 53
-65 41 -46 -17 -61 -85 43 57
-51 -87 111 57 83 -12 127 51
-81 44 -127 126 -127 67 36 93
-115 -26 80 -62 -92 -102 -56 -6
-16 26 14 1 91 125 52 -40
00000000: f70b 0df5 62dc 04e8 d130 aa8d 3726 0f26
00000010: e5bb b70b 1baf 3781 1024 d52d a6f2 0d7f
00000020: 8116 81f9 370a 52ca 7f8c e2bc 4ef2 410d
00000030: b3af fc93 812d eedc 817f a2d6 8736 3c04
00000040: 284b 7f36 2e20 4618 07b9 1810 7b41 05cb
00000050: f76c 81de 9ab3 e7e3 3656 03d0 bdf1 63a4
00000060: 09cd f403 7f3a 2122 175e 81e5 502c 0c81
00000070: b134 3813 0684 e7c1 c1af ecda c890 2232
00000080: 1d81 df12 c305 2f14 d9c7 2398 b1b1 3857
00000090: a90f 5697 2bad ec3e fddb 3b26 7fb7 ed1c
000000a0: a7a4 d61e 6319 5a81 1a3f b38b 537f cc9d
000000b0: 0414 abf2 3608 21a7 cdde 4f71 22b9 e4c6
000000c0: d873 4081 4923 d0b0 25d1 1f81 344c 1e81
000000d0: 508b b367 39e9 b035 bf29 d2ef c3ab 2b39
000000e0: cda9 6f39 53f4 7f33 af2c 817e 8143 245d
000000f0: 8de6 50c2 a49a c8fa f01a 0e01 5b7d 34d8

model/conv_dw_6_bn/FusedBatchNormV3;model/conv_dw_6/depthwise i1 [1, 3, 3, 64]
-53 -40 127 -69 -62 -16 69 -26
98 39 2 -91 -79 22 3 116
16 15 0 -5 -16 16 -127 97
68 7 27 63 18 29 81 -8
83 -45 127 55 127 -127 127 -44
36 48 51 -49 -36 127 24 -8
-19 45 -82 64 -23 -32 -25 1
42 -108 11 -66 -66 -37 -61 127
78 18 -35 26 30 39 -10 -38
32 -104 84 -41 -106 14 -88 60
69 71 -127 57 13 51 -122 18
127 -127 -4 -22 -41 116 77 77
-36 35 -18 36 42 -47 30 15
-117 58 87 80 85 25 -23 33
-85 57 -46 -77 22 -33 -127 108
0 -127 60 -41 124 -41 55 53
8 125 -119 -46 -127 36 -21 -127
-13 21 127 13 -28 -18 -127 54
-100 3 -38 60 65 -127 -117 -62
-31 -115 39 65 -9 43 93 53
-127 24 45 127 -36 -69 -26 -84
127 -9 -42 15 -65 116 127 127
-23 34 14 49 -127 -44 -32 102
3 -42 -57 26 -16 22 127 -2
102 47 -69 -58 33 -63 -9 -67
127 42 -26 63 -91 -45 -54 -95
22 50 -39 96 127 34 -39 -7
79 -52 77 71 -10 52 25 -63
94 62 96 79 58 -20 51 28
-16 127 -7 72 -76 107 -67 36
9 -79 -11 20 8 7 -17 -127
127 -98 -25 -68 17 -108 -51 85
00000000: cbd8 7fbb c2f0 45e6 6227 02a5 b116 0374
00000010: 100f 00fb f010 8161 4407 1b3f 121d 51f8
00000020: 53d3 7f37 7f81 7fd4 2430 33cf dc7f 18f8
00000030: ed2d ae40 e9e0 e701 2a94 0bbe bedb c37f
00000040: 4e12 dd1a 1e27 f6da 2098 54d7 960e a83c
00000050: 4547 8139 0d33 8612 7f81 fcea d774 4d4d
00000060: dc23 ee24 2ad1 1e0f 8b3a 5750 5519 e921
00000070: ab39 d2b3 16df 816c 0081 3cd7 7cd7 3735
00000080: 087d 89d2 8124 eb81 f315 7f0d e4ee 8136
00000090: 9c03 da3c 4181 8bc2 e18d 2741 f72b 5d35
000000a0: 8118 2d7f dcbb e6ac 7ff7 d60f bf74 7f7f
000000b0: e922 0e31 81d4 e066 03d6 c71a f016 7ffe
000000c0: 662f bbc6 21c1 f7bd 7f2a e63f a5d3 caa1
000000d0: 1632 d960 7f22 d9f9 4fcc 4d47 f634 19c1
000000e0: 5e3e 604f 3aec 331c f07f f948 b46b bd24
000000f0: 09b1 f514 0807 ef81 7f9e e7bc 1194 cd55

model/conv_dw_7_bn/FusedBatchNormV3;model/conv_dw_7/depthwise;model/conv_dw_12/depthwise i1 [1, 3, 3, 128]
4 92 -56 -36 -71 -9 41 -53
-99 55 -6 -63 19 -17 25 -74
-61 2 -43 20 54 -52 11 97
32 -65 107 -1 112 -30 35 -2
6 -63 -86 125 51 127 27 -55
127 -45 94 127 81 -86 127 -9
-27 -18 -26 -100 -113 -34 65 49
9 35 126 8 46 -74 -127 -20
24 -12 -29 -81 24 4 -5 -127
-123 -86 27 -16 7 -20 -127 -45
-88 1 43 -127 -127 -18 23 -55
26 -127 60 -74 18 65 -81 -83
-21 -11 17 73 -4 127 15 -60
-17 -2 -22 -30 53 -127 -88 127
0 -81 4 38 -79 -48 -52 127
-70 34 55 -1 42 -72 -127 127
58 -1 -11 -58 28 7 -24 14
-93 -39 -104 41 33 -127 94 -67
59 -88 -74 -37 -36 -42 121 17
25 -78 68 78 0 -15 15 -59
-48 85 73 61 25 -27 -62 36
-80 -22 -55 -19 25 48 52 27
-122 28 36 -52 29 -36 68 9
7 -8 116 127 -123 -65 -86 36
-87 -11 -43 120 -9 -2 6 -55
-11 32 -38 10 -69 48 13 23
68 108 127 99 -76 10 4 -52
3 -27 0 30 -127 -65 -28 -7
-44 -39 -91 -71 16 -10 -7 -111
59 -47 50 -114 -6 -51 -11 74
-32 -84 127 47 -73 -50 -92 24
14 -34 11 53 -16 -39 17 5
00000000: 045c c8dc b9f7 29cb 9d37 fac1 13ef 19b6
00000010: c302 d514 36cc 0b61 20bf 6bff 70e2 23fe
00000020: 06c1 aa7d 337f 1bc9 7fd3 5e7f 51aa 7ff7
00000030: e5ee e69c 8fde 4131 0923 7e08 2eb6 81ec
00000040: 18f4 e3af 1804 fb81 85aa 1bf0 07ec 81d3
00000050: a801 2b81 81ee 17c9 1a81 3cb6 1241 afad
00000060: ebf5 1149 fc7f 0fc4 effe eae2 3581 a87f
00000070: 00af 0426 b1d0 cc7f ba22 37ff 2ab8 817f
00000080: 3aff f5c6 1c07 e80e a3d9 9829 2181 5ebd
00000090: 3ba8 b6db dcd6 7911 19b2 444e 00f1 0fc5
000000a0: d055 493d 19e5 c224 b0ea c9ed 1930 341b
000000b0: 861c 24cc 1ddc 4409 07f8 747f 85bf aa24
000000c0: a9f5 d578 f7fe 06c9 f520 da0a bb30 0d17
000000d0: 446c 7f63 b40a 04cc 03e5 001e 81bf e4f9
000000e0: d4d9 a5b9 10f6 f991 3bd1 328e facd f54a
000000f0: e0ac 7f2f b7ce a418 0ede 0b35 f0d9 1105

model/conv_dw_8_bn/FusedBatchNormV3;model/conv_dw_8/depthwise;model/conv_dw_12/depthwise i1 [1, 3, 3, 128]
9 -85 -127 -109 -62 -18 28 12
-120 49 87 -2 -2 -62 -24 -61
127 51 -4 -35 -38 87 -32 -3
-89 2 -127 127 -49 39 -70 -54
17 -59 54 127 -118 -90 47 -24
23 40 127 127 32 16 31 -56
49 19 73 106 -94 -60 -69 -1
17 -21 -64 126 -14 127 112 29
-127 -26 31 54 3 -15 -100 5
43 68 11 -25 39 -127 58 -24
2 73 -23 34 -51 98 -127 33
-31 -13 100 -37 -118 -22 -60 54
46 -5 -84 17 -46 -125 31 39
127 8 -48 -85 -14 -45 -82 74
114 107 127 -55 127 -123 7 64
127 -51 -21 -79 -43 -82 -21 31
87 -33 8 -127 42 -74 91 -49
-48 2 127 116 78 51 43 101
101 -27 -78 -109 -16 126 -18 31
-63 54 10 38 -127 -1 -127 57
92 36 -42 35 -55 -19 57 -18
51 -5 -12 51 -95 127 127 -70
-98 53 -16 33 -4 21 -62 27
-52 39 37 -31 22 14 87 48
4 40 0 -51 -95 41 -40 -99
127 12 4 16 32 -37 -37 23
-72 76 33 -4 -103 71 -41 -88
-31 -126 127 27 8 -3 8 106
60 53 -67 -26 -116 -45 -127 -31
-23 2 -49 5 68 55 14 -85
-127 43 64 -89 1 -75 38 -59
-26 5 -19 25 12 -25 -12 -59
00000000: 09ab 8193 c2ee 1c0c 8831 57fe fec2 e8c3
00000010: 7f33 fcdd da57 e0fd a702 817f cf27 baca
00000020: 11c5 367f 8aa6 2fe8 1728 7f7f 2010 1fc8
00000030: 3113 496a a2c4 bbff 11eb c07e f27f 701d
00000040: 81e6 1f36 03f1 9c05 2b44 0be7 2781 3ae8
00000050: 0249 e922 cd62 8121 e1f3 64db 8aea c436
00000060: 2efb ac11 d283 1f27 7f08 d0ab f2d3 ae4a
00000070: 726b 7fc9 7f85 0740 7fcd ebb1 d5ae eb1f
00000080: 57df 0881 2ab6 5bcf d002 7f74 4e33 2b65
00000090: 65e5 b293 f07e ee1f c136 0a26 81ff 8139
000000a0: 5c24 d623 c9ed 39ee 33fb f433 a17f 7fba
000000b0: 9e35 f021 fc15 c21b cc27 25e1 160e 5730
000000c0: 0428 00cd a129 d89d 7f0c 0410 20db db17
000000d0: b84c 21fc 9947 d7a8 e182 7f1b 08fd 086a
000000e0: 3c35 bde6 8cd3 81e1 e902 cf05 4437 0eab
000000f0: 812b 40a7 01b5 26c5 e605 ed19 0ce7 f4c5

model/conv_dw_9_bn/FusedBatchNormV3;model/conv_dw_9/depthwise;model/conv_dw_12/depthwise i1 [1, 3, 3, 128]
127 -81 -3 101 127 1 127 -47
10 -62 -23 -14 6 -95 -35 -121
94 15 11 -127 -31 53 5 -7
-101 -102 -30 68 62 -83 8 -18
-31 45 85 50 87 -31 117 35
127 -10 -4 -36 -42 39 -50 7
15 64 127 -35 93 127 -127 -95
-53 23 -27 -123 127 -77 48 127
-40 -85 11 -36 127 -9 36 30
28 21 60 -66 -127 -112 12 -127
105 -3 -114 27 40 55 -41 -29
-63 127 5 -83 20 127 35 15
18 -21 -70 -110 15 -127 127 20
48 17 7 2 127 56 44 54
-119 -64 -29 -55 -51 81 -16 63
-89 -7 -68 -80 -68 -127 -127 -22
14 16 -6 12 -75 -54 30 127
-61 -87 127 -115 -1 -10 -127 8
72 2 93 -43 7 21 -127 -9
127 -21 -127 -40 2 -36 -46 -117
17 -43 -93 41 34 -41 49 0
-50 -95 -27 105 90 93 -39 -3
-50 32 -53 -66 -15 -5 24 -59
-127 -85 -32 -111 -27 -92 127 70
11 94 -33 30 29 109 90 14
-127 -73 -3 127 48 47 -5 -24
24 73 58 28 127 -100 -33 58
-101 6 34 31 62 -29 -10 69
27 -54 61 -56 -28 -81 -35 127
-33 -77 2 94 0 -9 102 -45
-109 127 4 127 -19 32 -63 6
45 -5 44 -21 127 52 -42 19
00000000: 7faf fd65 7f01 7fd1 0ac2 e9f2 06a1 dd87
00000010: 5e0f 0b81 e135 05f9 9b9a e244 3ead 08ee
00000020: e12d 5532 57e1 7523 7ff6 fcdc d627 ce07
00000030: 0f40 7fdd 5d7f 81a1 cb17 e585 7fb3 307f
00000040: d8ab 0bdc 7ff7 241e 1c15 3cbe 8190 0c81
00000050: 69fd 8e1b 2837 d7e3 c17f 05ad 147f 230f
00000060: 12eb ba92 0f81 7f14 3011 0702 7f38 2c36
00000070: 89c0 e3c9 cd51 f03f a7f9 bcb0 bc81 81ea
00000080: 0e10 fa0c b5ca 1e7f c3a9 7f8d fff6 8108
00000090: 4802 5dd5 0715 81f7 7feb 81d8 02dc d28b
000000a0: 11d5 a329 22d7 3100 cea1 e569 5a5d d9fd
000000b0: ce20 cbbe f1fb 18c5 81ab e091 e5a4 7f46
000000c0: 0b5e df1e 1d6d 5a0e 81b7 fd7f 302f fbe8
000000d0: 1849 3a1c 7f9c df3a 9b06 221f 3ee3 f645
000000e0: 1bca 3dc8 e4af dd7f dfb3 025e 00f7 66d3
000000f0: 937f 047f ed20 c106 2dfb 2ceb 7f34 d613

model/conv_dw_10_bn/FusedBatchNormV3;model/conv_dw_10/depthwise;model/conv_dw_12/depthwise i1 [1, 3, 3, 128]
12 25 127 84 -1 27 -57 127
125 44 33 -78 -82 -9 45 23
-90 -127 20 -6 -72 14 -47 -13
-25 48 82 127 37 111 61 27
127 -36 -18 28 87 -127 -44 127
78 0 9 -1 -34 -82 -28 124
-28 -1 -33 -47 37 7 -87 -10
-17 -3 96 -66 37 -13 -38 -111
-40 114 33 -52 -56 56 34 31
3 -55 36 -96 -76 30 126 11
-32 -33 127 93 -27 -42 -106 127
11 -127 67 -33 -32 127 -127 -51
-35 127 -93 -86 -98 -124 127 -123
-60 127 -76 -96 20 -89 20 127
-127 127 -51 20 0 40 -8 96
53 16 17 91 57 -87 -8 -84
1 43 -91 -47 49 -46 -8 91
-21 14 89 19 22 -36 127 -26
-60 17 -74 -7 -46 -127 -86 62
-85 -55 -72 -28 43 127 -67 -17
104 -41 -71 95 -25 -48 7 -36
24 64 -39 -102 -21 68 88 -53
-26 -6 90 45 -45 93 124 127
-127 127 111 -47 16 6 -98 26
40 -27 95 -95 -23 -35 34 75
-60 -60 -22 127 -9 25 17 86
-27 -5 31 -86 -127 -37 -123 94
53 95 -18 -80 -52 61 -19 15
-48 -67 101 -47 -76 41 -101 -5
26 64 -38 -127 127 8 -92 87
69 -22 55 47 127 84 92 24
-22 18 2 -7 -37 92 127 21
00000000: 0c19 7f54 ff1b c77f 7d2c 21b2 aef7 2d17
00000010: a681 14fa b80e d1f3 e730 527f 256f 3d1b
00000020: 7fdc ee1c 5781 d47f 4e00 09ff deae e47c
00000030: e4ff dfd1 2507 a9f6 effd 60be 25f3 da91
00000040: d872 21cc c838 221f 03c9 24a0 b41e 7e0b
00000050: e0df 7f5d e5d6 967f 0b81 43df e07f 81cd
00000060: dd7f a3aa 9e84 7f85 c47f b4a0 14a7 147f
00000070: 817f cd14 0028 f860 3510 115b 39a9 f8ac
00000080: 012b a5d1 31d2 f85b eb0e 5913 16dc 7fe6
00000090: c411 b6f9 d281 aa3e abc9 b8e4 2b7f bdef
000000a0: 68d7 b95f e7d0 07dc 1840 d99a eb44 58cb
000000b0: e6fa 5a2d d35d 7c7f 817f 6fd1 1006 9e1a
000000c0: 28e5 5fa1 e9dd 224b c4c4 ea7f f719 1156
000000d0: e5fb 1faa 81db 855e 355f eeb0 cc3d ed0f
000000e0: d0bd 65d1 b429 9bfb 1a40 da81 7f08 a457
000000f0: 45ea 372f 7f54 5c18 ea12 02f9 db5c 7f15

model/conv_dw_11_bn/FusedBatchNormV3;model/conv_dw_11/depthwise;model/conv_dw_12/depthwise i1 [1, 3, 3, 128]
23 95 37 122 14 39 -32 36
8 24 33 -94 127 51 -4 -63
1 -127 127 -29 -12 -13 95 2
20 4 57 123 13 -79 54 -74
10 12 -57 26 -15 -1 102 -38
73 -127 5 82 -30 103 -3 -127
112 -32 36 -110 43 127 41 39
-20 28 0 -43 -1 15 -39 -70
9 122 -40 -70 -70 -67 22 -15
28 22 56 -38 -21 -80 41 3
127 14 -18 -23 -32 -2 -59 0
-31 -37 -2 -61 -101 -3 43 -39
-8 -3 9 -22 13 62 40 -34
-94 -127 39 46 34 -14 -8 127
-127 -95 -35 49 -68 33 -24 -41
8 65 52 93 80 13 -31 19
31 -105 9 39 -26 56 -16 -124
60 56 36 127 70 39 105 -127
-21 -26 -52 7 22 67 -13 94
35 127 9 59 -18 -38 20 -14
125 -81 -2 -85 -40 47 89 -23
32 -101 125 -84 -10 13 -31 82
36 -25 63 -30 59 -109 43 16
-33 50 2 106 -5 55 -41 79
24 104 -16 -97 97 -21 43 99
-62 -17 -22 13 -83 97 31 50
22 36 -127 53 68 95 -21 -15
-6 58 -50 -127 -71 74 -74 -127
10 -57 -97 50 11 -1 -52 18
-127 -63 33 60 84 69 -57 -13
-41 -87 18 -78 9 8 -119 92
55 53 -72 -45 18 61 -28 30
00000000: 175f 257a 0e27 e024 0818 21a2 7f33 fcc1
00000010: 0181 7fe3 f4f3 5f02 1404 397b 0db1 36b6
00000020: 0a0c c71a f1ff 66da 4981 0552 e267 fd81
00000030: 70e0 2492 2b7f 2927 ec1c 00d5 ff0f d9ba
00000040: 097a d8ba babd 16f1 1c16 38da ebb0 2903
00000050: 7f0e eee9 e0fe c500 e1db fec3 9bfd 2bd9
00000060: f8fd 09ea 0d3e 28de a281 272e 22f2 f87f
00000070: 81a1 dd31 bc21 e8d7 0841 345d 500d e113
00000080: 1f97 0927 e638 f084 3c38 247f 4627 6981
00000090: ebe6 cc07 1643 f35e 237f 093b eeda 14f2
000000a0: 7daf feab d82f 59e9 209b 7dac f60d e152
000000b0: 24e7 3fe2 3b93 2b10 df32 026a fb37 d74f
000000c0: 1868 f09f 61eb 2b63 c2ef ea0d ad61 1f32
000000d0: 1624 8135 445f ebf1 fa3a ce81 b94a b681
000000e0: 0ac7 9f32 0bff cc12 81c1 213c 5445 c7f3
000000f0: d7a9 12b2 0908 895c 3735 b8d3 123d e41e

model/conv_dw_12_bn/FusedBatchNormV3;model/conv_dw_12/depthwise i1 [1, 3, 3, 128]
-98 -46 48 19 -53 11 12 -16
-10 49 -22 127 -91 -11 21 63
-58 -105 75 38 -29 47 -32 29
109 -104 -63 -39 -64 5 81 124
81 -118 -6 0 109 -47 -10 0
-80 79 -52 64 46 -107 -51 2
114 -60 92 127 5 -15 -75 -111
20 -127 5 -6 127 -15 21 100
26 30 -103 -39 71 22 -59 -42
-35 -127 -18 -20 24 -18 54 -9
83 -52 -65 -51 4 -91 -95 -59
-41 -94 127 14 38 -13 127 -67
-75 -71 -22 22 -7 5 127 41
115 2 -57 71 -45 83 -14 -5
24 -62 63 19 28 127 -127 91
-12 -104 127 55 -56 -127 -46 60
-22 6 124 127 -105 -20 32 -88
107 -94 -5 -32 5 49 -14 3
36 -70 -55 -51 -127 61 -1 -9
111 -6 -127 -34 116 -56 -77 -38
-43 -8 17 11 -61 -64 80 33
30 95 47 127 53 127 4 127
-45 -29 73 -94 -25 81 -72 -35
-72 -114 -26 -127 -59 -71 -127 -89
-54 116 -36 7 -113 127 -80 -5
127 -62 127 68 127 43 85 56
-39 127 15 9 -50 63 -110 -33
-13 -6 88 -6 5 125 64 108
44 -62 46 -18 127 23 34 -60
29 68 -59 8 4 82 127 52
-41 -89 26 -8 101 21 -9 38
77 -57 -16 -68 -127 -1 -36 27
00000000: 9ed2 3013 cb0b 0cf0 f631 ea7f a5f5 153f
00000010: c697 4b26 e32f e01d 6d98 c1d9 c005 517c
00000020: 518a fa00 6dd1 f600 b04f cc40 2e95 cd02
00000030: 72c4 5c7f 05f1 b591 1481 05fa 7ff1 1564
00000040: 1a1e 99d9 4716 c5d6 dd81 eeec 18ee 36f7
00000050: 53cc bfcd 04a5 a1c5 d7a2 7f0e 26f3 7fbd
00000060: b5b9 ea16 f905 7f29 7302 c747 d353 f2fb
00000070: 18c2 3f13 1c7f 815b f498 7f37 c881 d23c
00000080: ea06 7c7f 97ec 20a8 6ba2 fbe0 0531 f203
00000090: 24ba c9cd 813d fff7 6ffa 81de 74c8 b3da
000000a0: d5f8 110b c3c0 5021 1e5f 2f7f 357f 047f
000000b0: d3e3 49a2 e751 b8dd b88e e681 c5b9 81a7
000000c0: ca74 dc07 8f7f b0fb 7fc2 7f44 7f2b 5538
000000d0: d97f 0f09 ce3f 92df f3fa 58fa 057d 406c
000000e0: 2cc2 2eee 7f17 22c4 1d44 c508 0452 7f34
000000f0: d7a7 1af8 6515 f726 4dc7 f0bc 81ff dc1b

model/conv_dw_13_bn/FusedBatchNormV3;model/conv_dw_13/depthwise;model/conv_pw_13/Conv2D i1 [1, 3, 3, 256]
-88 -8 34 -5 115 -127 -1 -28
2 -61 18 13 -127 21 124 27
-43 2 42 24 -38 8 -9 43
12 3 -111 15 59 112 -107 -45
76 -59 31 49 -5 -107 -59 -59
5 -23 48 -96 60 -83 67 45
41 45 88 127 -7 -82 80 8
38 38 15 -53 20 53 -127 50
-56 93 -127 13 -74 115 54 127
48 -5 -63 -79 89 127 -71 4
65 127 65 96 -122 -17 -26 -6
127 29 21 22 115 -116 -22 -19
44 -55 25 -19 55 -2 -30 -27
7 -121 -18 18 8 84 -8 -99
-33 26 0 -110 -75 -125 -7 19
-41 5 -79 62 114 127 42 45
7 -71 -7 127 -43 33 -30 127
96 -38 71 16 -101 59 88 67
-68 18 127 31 -127 -32 -16 -69
-127 -37 9 45 -87 -127 -15 -85
-106 127 30 23 109 -8 -74 127
-21 56 -6 -48 -12 84 -50 -2
26 29 -14 69 -127 -57 39 52
-61 104 -34 71 -36 62 91 -70
127 -11 -89 15 -6 29 -97 7
-88 22 -115 -126 -41 -18 -48 127
-52 -37 -11 -6 1 -15 -84 14
63 24 54 -68 -21 -46 -38 29
-12 -10 28 7 -115 41 21 29
127 -101 -20 -127 66 115 -109 -100
33 48 48 -21 -18 -127 127 -44
-127 29 78 -25 0 -23 -55 -31
00000000: a8f8 22fb 7381 ffe4 02c3 120d 8115 7c1b
00000010: d502 2a18 da08 f72b 0c03 910f 3b70 95d3
00000020: 4cc5 1f31 fb95 c5c5 05e9 30a0 3cad 432d
00000030: 292d 587f f9ae 5008 2626 0fcb 1435 8132
00000040: c85d 810d b673 367f 30fb c1b1 597f b904
00000050: 417f 4160 86ef e6fa 7f1d 1516 738c eaed
00000060: 2cc9 19ed 37fe e2e5 0787 ee12 0854 f89d
00000070: df1a 0092 b583 f913 d705 b13e 727f 2a2d
00000080: 07b9 f97f d521 e27f 60da 4710 9b3b 5843
00000090: bc12 7f1f 81e0 f0bb 81db 092d a981 f1ab
000000a0: 967f 1e17 6df8 b67f eb38 fad0 f454 cefe
000000b0: 1a1d f245 81c7 2734 c368 de47 dc3e 5bba
000000c0: 7ff5 a70f fa1d 9f07 a816 8d82 d7ee d07f
000000d0: ccdb f5fa 01f1 ac0e 3f18 36bc ebd2 da1d
000000e0: f4f6 1c07 8d29 151d 7f9b ec81 4273 939c
000000f0: 2130 30eb ee81 7fd4 811d 4ee7 00e9 c9e1
