TRAINED_MODELS/ds_cnn/ds_cnn_gray/ds_cnn_gray_32/ds_cnn_gray_32_quant.tflite (tflite, 108656 bytes, 6 tensors)

sequential/dense/MatMul i1 [2, 1024] scale=0.001055215 zero_point=0
00000000: c6dd 3b07 49e2 39d3 b4e7 0ef4 4325 0236
00000010: a535 08fd c30f db10 3a3b c311 2f2c d8d5
00000020: 1fbc 22da b441 be2d d437 1327 ed29 0455
00000030: cf2f cec6 0d30 ad44 ddd0 d905 501b ef3b
00000040: 4f0a 0a2b fb39 1b2f 3151 4000 42f8 f419
00000050: 0e39 ace4 cd03 1057 4cc3 ee00 ccff 322e
00000060: fc1b 33c7 d5bd f014 acbd 030d 2a03 19ff
00000070: c65d c4b1 2751 dfb2 361c 2ef9 20be 18fc
00000080: 28ba b301 e9ff 24c7 b5bc 50df 47b9 0eb4
00000090: 0feb e7bc d5a1 d030 c2fb aef0 c33e dfd2
000000a0: b3f6 0246 0223 e155 0fbb 4511 e316 ede5
000000b0: 6243 2612 b7d8 c1fc f8ee ef33 1dca fb26
000000c0: 27cd 1cc8 d321 ebbe beae c8e9 2809 e5f2
000000d0: ed39 fc18 0739 b4d8 e8dd 3ad6 d31e 2328
000000e0: 4238 2943 d33f cc01 02db cbf3 1843 ff14
000000f0: d41f c51f e70f f924 39f6 ece8 d72a 01fe
-0.06120247 -0.036932524 0.062257685 0.007386505 0.077030696 -0.03165645 0.060147256 -0.047484677
-0.08019634 -0.026380375 0.01477301 -0.01266258 0.07069941 0.039042957 0.00211043 0.056981612
-0.096024565 0.055926397 0.00844172 -0.003165645 -0.064368114 0.015828226 -0.039042957 0.01688344
0.06120247 0.062257685 -0.064368114 0.017938655 0.049595106 0.046429463 -0.0422086 -0.045374244
0.032711666 -0.07175462 0.03587731 -0.04009817 -0.08019634 0.06858898 -0.06964419 0.047484677
-0.046429463 0.058036827 0.020049086 0.041153386 -0.020049086 0.043263815 0.00422086 0.08969328
-0.051705536 0.049595106 -0.05276075 -0.06120247 0.013717795 0.05065032 -0.08758285 0.07175462
-0.036932524 -0.05065032 -0.041153386 0.005276075 0.0844172 0.028490806 -0.017938655 0.062257685
0.08336198 0.01055215 0.01055215 0.045374244 -0.005276075 0.060147256 0.028490806 0.049595106
0.051705536 0.08547242 0.06753376 0.0 0.06964419 -0.00844172 -0.01266258 0.026380375
0.01477301 0.060147256 -0.08863806 -0.02954602 -0.053815965 0.003165645 0.01688344 0.09180371
0.08019634 -0.064368114 -0.01899387 0.0 -0.05487118 -0.001055215 0.05276075 0.04853989
-0.00422086 0.028490806 0.053815965 -0.060147256 -0.045374244 -0.07069941 -0.01688344 0.0211043
-0.08863806 -0.07069941 0.003165645 0.013717795 0.04431903 0.003165645 0.026380375 -0.001055215
-0.06120247 0.098134995 -0.0633129 -0.08336198 0.041153386 0.08547242 -0.034822095 -0.08230677
0.056981612 0.02954602 0.04853989 -0.007386505 0.03376688 -0.06964419 0.02532516 -0.00422086
0.0422086 -0.07386505 -0.081251554 0.001055215 -0.024269946 -0.001055215 0.03798774 -0.060147256
-0.079141125 -0.07175462 0.0844172 -0.034822095 0.07492027 -0.07492027 0.01477301 -0.08019634
0.015828226 -0.022159515 -0.026380375 -0.07175462 -0.045374244 -0.10024542 -0.05065032 0.05065032
-0.06542333 -0.005276075 -0.08652763 -0.01688344 -0.064368114 0.06542333 -0.034822095 -0.04853989
-0.081251554 -0.01055215 0.00211043 0.07386505 0.00211043 0.036932524 -0.032711666 0.08969328
0.015828226 -0.07280984 0.07280984 0.017938655 -0.030601235 0.023214731 -0.020049086 -0.028490806
0.10341107 0.07069941 0.04009817 0.01899387 -0.077030696 -0.0422086 -0.06647854 -0.00422086
-0.00844172 -0.01899387 -0.017938655 0.053815965 0.030601235 -0.056981612 -0.005276075 0.04009817
0.041153386 -0.053815965 0.02954602 -0.05909204 -0.047484677 0.034822095 -0.022159515 -0.06964419
-0.06964419 -0.08652763 -0.05909204 -0.024269946 0.0422086 0.009496935 -0.028490806 -0.01477301
-0.020049086 0.060147256 -0.00422086 0.02532516 0.007386505 0.060147256 -0.08019634 -0.0422086
-0.02532516 -0.036932524 0.06120247 -0.04431903 -0.047484677 0.03165645 0.036932524 0.0422086
0.06964419 0.05909204 0.043263815 0.07069941 -0.047484677 0.06647854 -0.05487118 0.001055215
0.00211043 -0.039042957 -0.055926397 -0.013717795 0.02532516 0.07069941 -0.001055215 0.0211043
-0.046429463 0.032711666 -0.062257685 0.032711666 -0.026380375 0.015828226 -0.007386505 0.03798774
0.060147256 -0.01055215 -0.0211043 -0.02532516 -0.043263815 0.04431903 0.001055215 -0.00211043

sequential/conv2d/Conv2D i1 [16, 2, 2, 1]
00000000: e381 64c4 8e7f b25f b0bf a581 8178 8168
00000010: d561 819b 81b8 9545 38bd 81da db81 c4df
00000020: 99ba 7fb4 c181 fcc0 c670 4a81 9481 0157
00000030: 7ff9 103d ac00 5f7f d4ef 447f fc7f e3c6
-29 -127 100 -60 -114 127 -78 95
-80 -65 -91 -127 -127 120 -127 104
-43 97 -127 -101 -127 -72 -107 69
56 -67 -127 -38 -37 -127 -60 -33
-103 -70 127 -76 -63 -127 -4 -64
-58 112 74 -127 -108 -127 1 87
127 -7 16 61 -84 0 95 127
-44 -17 68 127 -4 127 -29 -58

sequential/conv2d_1/Conv2D i1 [256, 1, 1, 16]
00000000: 09ef d8c6 235c cb56 d3bb 1d81 1ab1 25f5
00000010: 4a2d 7f75 a6d4 9068 d98b 1959 7c51 62e0
00000020: d27f 24af af11 9d89 6825 6e1f 3b31 0df8
00000030: 19a3 092f 64c8 8e90 b17f 323d 890f 10a8
00000040: 6281 b0f9 5c04 fe1a 0615 45f4 b640 053f
00000050: bda2 283e 080c e85e fdd4 8130 333e 0ddd
00000060: 81b9 3e75 4444 b2c6 a670 c2fa 7993 3c04
00000070: 6f2a 4346 5c42 0813 5281 909c 5200 dc9b
00000080: 8b9d 3234 8192 b2b1 a491 2cf3 cd1e bb02
00000090: 4b07 3a0b 7fdd f59b 6012 9ca8 0bc0 5523
000000a0: a18d fc26 5dbf b6f1 2ea5 5a49 c71c 7fc7
000000b0: d01f e998 27ca 0058 8124 6501 0c4b e203
000000c0: f738 60b4 7fba 258a 3a3f ca3c fea0 989a
000000d0: d0cd 57b5 f06b 46c0 279d 7fe1 aaa1 5606
000000e0: 0435 0a56 2f89 d272 7fbd d8bb 3676 1b35
000000f0: 6581 2933 4997 c04c 53d3 afc4 d031 390f
9 -17 -40 -58 35 92 -53 86
-45 -69 29 -127 26 -79 37 -11
74 45 127 117 -90 -44 -112 104
-39 -117 25 89 124 81 98 -32
-46 127 36 -81 -81 17 -99 -119
104 37 110 31 59 49 13 -8
25 -93 9 47 100 -56 -114 -112
-79 127 50 61 -119 15 16 -88
98 -127 -80 -7 92 4 -2 26
6 21 69 -12 -74 64 5 63
-67 -94 40 62 8 12 -24 94
-3 -44 -127 48 51 62 13 -35
-127 -71 62 117 68 68 -78 -58
-90 112 -62 -6 121 -109 60 4
111 42 67 70 92 66 8 19
82 -127 -112 -100 82 0 -36 -101
-117 -99 50 52 -127 -110 -78 -79
-92 -111 44 -13 -51 30 -69 2
75 7 58 11 127 -35 -11 -101
96 18 -100 -88 11 -64 85 35
-95 -115 -4 38 93 -65 -74 -15
46 -91 90 73 -57 28 127 -57
-48 31 -23 -104 39 -54 0 88
-127 36 101 1 12 75 -30 3
-9 56 96 -76 127 -70 37 -118
58 63 -54 60 -2 -96 -104 -102
-48 -51 87 -75 -16 107 70 -64
39 -99 127 -31 -86 -95 86 6
4 53 10 86 47 -119 -46 114
127 -67 -40 -69 54 118 27 53
101 -127 41 51 73 -105 -64 76
83 -45 -81 -60 -48 49 57 15

sequential/conv2d_2/Conv2D i1 [256, 1, 1, 256]
00000000: c8a9 6c8d 16d3 3d9f c93c 5ea9 e15e 3bb9
00000010: 61d4 3747 fe5b 0a12 e4a3 a839 5b0f 0070
00000020: b813 a3f2 a1c4 31ba feb6 dfcc ebdf 6857
00000030: 2668 b627 badd e3ce aae2 93e3 f20f e8be
00000040: fe9a 33f2 523a df60 b2c0 3dc7 256f 2bd1
00000050: 7435 4901 e452 cf30 5926 2615 b45f 04fc
00000060: faa6 4f9e e79b 8296 e9aa b8b5 92ca dfb2
00000070: 4cdd c8ff 3aff ed4c 2206 083c 3f2c 67b0
00000080: 0955 70b2 4831 16a4 9acd 35cd e6b2 fff7
00000090: e90d 21f8 1a4d aa62 bcca 5064 2950 fa24
000000a0: 5eec 4f33 f5d3 3dca 426f ed55 1060 03bf
000000b0: d791 07d3 da42 cbb7 fceb f46d 17c6 5a5e
000000c0: ff5b d648 99da 0826 eae8 b381 2239 c3d5
000000d0: f951 36bd b40b f91e a717 23a5 159f 35c5
000000e0: dfbc aa01 4941 cb51 5c63 ecc5 ac14 ad48
000000f0: d59c ecbc 3bbf d000 3a0c b869 6537 da27
-56 -87 108 -115 22 -45 61 -97
-55 60 94 -87 -31 94 59 -71
97 -44 55 71 -2 91 10 18
-28 -93 -88 57 91 15 0 112
-72 19 -93 -14 -95 -60 49 -70
-2 -74 -33 -52 -21 -33 104 87
38 104 -74 39 -70 -35 -29 -50
-86 -30 -109 -29 -14 15 -24 -66
-2 -102 51 -14 82 58 -33 96
-78 -64 61 -57 37 111 43 -47
116 53 73 1 -28 82 -49 48
89 38 38 21 -76 95 4 -4
-6 -90 79 -98 -25 -101 -126 -106
-23 -86 -72 -75 -110 -54 -33 -78
76 -35 -56 -1 58 -1 -19 76
34 6 8 60 63 44 103 -80
9 85 112 -78 72 49 22 -92
-102 -51 53 -51 -26 -78 -1 -9
-23 13 33 -8 26 77 -86 98
-68 -54 80 100 41 80 -6 36
94 -20 79 51 -11 -45 61 -54
66 111 -19 85 16 96 3 -65
-41 -111 7 -45 -38 66 -53 -73
-4 -21 -12 109 23 -58 90 94
-1 91 -42 72 -103 -38 8 38
-22 -24 -77 -127 34 57 -61 -43
-7 81 54 -67 -76 11 -7 30
-89 23 35 -91 21 -97 53 -59
-33 -68 -86 1 73 65 -53 81
92 99 -20 -59 -84 20 -83 72
-43 -100 -20 -68 59 -65 -48 0
58 12 -72 105 101 55 -38 39

sequential/batch_normalization_1/FusedBatchNormV3;sequential/depthwise_conv2d/depthwise i1 [1, 3, 3, 16]
00000000: 3087 549d 12b1 9cc8 7983 9ca6 5a05 af88
00000010: 2981 ca98 657f a481 5af8 8130 6e19 819d
00000020: 35de 816b 1c72 c927 3caf c81c d2a4 9d0a
00000030: 8e23 c481 7f1e 7f30 7f81 c4c6 7f81 e720
00000040: 2a23 c150 19c3 c8a7 c356 c781 516b 49e4
00000050: 7fc7 5ddd 6f8e c645 90c1 0785 a608 5533
00000060: 18a2 a5aa 4a2b 31c0 42e9 d30c 2894 002f
00000070: 5321 6b4c 38f2 6901 e812 188c 3e20 2b88
00000080: 1ee1 ae5b 2320 a0c9 5040 c30d 199c 6a81
48 -121 84 -99 18 -79 -100 -56
121 -125 -100 -90 90 5 -81 -120
41 -127 -54 -104 101 127 -92 -127
90 -8 -127 48 110 25 -127 -99
53 -34 -127 107 28 114 -55 39
60 -81 -56 28 -46 -92 -99 10
-114 35 -60 -127 127 30 127 48
127 -127 -60 -58 127 -127 -25 32
42 35 -63 80 25 -61 -56 -89
-61 86 -57 -127 81 107 73 -28
127 -57 93 -35 111 -114 -58 69
-112 -63 7 -123 -90 8 85 51
24 -94 -91 -86 74 43 49 -64
66 -23 -45 12 40 -108 0 47
83 33 107 76 56 -14 105 1
-24 18 24 -116 62 32 43 -120
30 -31 -82 91 35 32 -96 -55
80 64 -61 13 25 -100 106 -127

sequential/batch_normalization_3/FusedBatchNormV3;sequential/depthwise_conv2d_1/depthwise;sequential/conv2d_2/Conv2D i1 [1, 3, 3, 256]
00000000: 4359 df06 b31c ec5c fe81 e670 bc71 5721
00000010: a873 d888 a77d cf63 cafe 1c9f 8d04 d111
00000020: e75d 51ae f7ec b7f5 487f dc7f 292d 08f2
00000030: eb4b b77f d4ee 7fed f77f b49d 08fa df36
00000040: ecb9 4c30 45e1 2c95 32ba c95f a8b0 dadc
00000050: 750e 2269 a007 7fe2 48fa 8121 b7f9 ca9a
00000060: 5fc4 5b37 4381 f7d0 2c47 f9fd 7fe6 5813
00000070: db1c 9c57 3c3f 1fad 0bfc d3e2 1c7f ae36
00000080: 11f8 38a2 f3ff 1b91 26fb 97ad 41b9 a94d
00000090: 7ebf 7ffe f009 4f55 7381 5320 f910 ed4f
000000a0: 7873 8273 323a 4b9a 2236 40ed 81ce 8139
000000b0: 7098 d8e0 424e 415a 66c0 ff18 a502 c716
000000c0: cf7f 531c 69bc bfbe 280e 8171 e910 140b
000000d0: 4ac6 f87f 00dd 082b 0f62 3ead fe3f b5e2
000000e0: dbaf bd00 14be ff02 e2bb bea2 ffba 86ed
000000f0: 1d01 9581 5791 81a2 3842 bd95 c6f5 ddb2
67 89 -33 6 -77 28 -20 92
-2 -127 -26 112 -68 113 87 33
-88 115 -40 -120 -89 125 -49 99
-54 -2 28 -97 -115 4 -47 17
-25 93 81 -82 -9 -20 -73 -11
72 127 -36 127 41 45 8 -14
-21 75 -73 127 -44 -18 127 -19
-9 127 -76 -99 8 -6 -33 54
-20 -71 76 48 69 -31 44 -107
50 -70 -55 95 -88 -80 -38 -36
117 14 34 105 -96 7 127 -30
72 -6 -127 33 -73 -7 -54 -102
95 -60 91 55 67 -127 -9 -48
44 71 -7 -3 127 -26 88 19
-37 28 -100 87 60 63 31 -83
11 -4 -45 -30 28 127 -82 54
17 -8 56 -94 -13 -1 27 -111
38 -5 -105 -83 65 -71 -87 77
126 -65 127 -2 -16 9 79 85
115 -127 83 32 -7 16 -19 79
120 115 -126 115 50 58 75 -102
34 54 64 -19 -127 -50 -127 57
112 -104 -40 -32 66 78 65 90
102 -64 -1 24 -91 2 -57 22
-49 127 83 28 105 -68 -65 -66
40 14 -127 113 -23 16 20 11
74 -58 -8 127 0 -35 8 43
15 98 62 -83 -2 63 -75 -30
-37 -81 -67 0 20 -66 -1 2
-30 -69 -66 -94 -1 -70 -122 -19
29 1 -107 -127 87 -111 -127 -94
56 66 -67 -107 -58 -11 -35 -78
