TRAINED_MODELS/ds_cnn/ds_cnn_gray_correct/ds_cnn_gray_32_float.tflite (tflite, 315704 bytes, 12 tensors)

sequential/dense/BiasAdd/ReadVariableOp/resource f4 [2]
00000000: a79a 43bb 7f7a 433b
-0.0029846819 0.0029827652

sequential/batch_normalization/FusedBatchNormV3 f4 [32]
00000000: 3de8 a2bf 1426 8abd 3a9c e2bf 17e2 d43f
00000010: 148c a8bf ee89 dcbf 6748 d33f d089 8fbf
00000020: a2ee dcbf 1767 cfbf adb5 de3f 070b ca3f
00000030: f0ae 78bf eb24 d63f 5e43 cf3f 0271 933f
00000040: e668 97bf 25ec e43f 0a89 fb3c 8380 d03f
00000050: a843 2bbe d299 dd3f e405 e7bf 4bde d03f
00000060: 08d8 d3bf 293b a5bf 54f4 d33f f2ff e2bf
00000070: 0b79 d73f 790b dcbf 4c50 dabf 4dce e3bf
-1.2727123 -0.06745544 -1.7703927 1.6631497 -1.3167748 -1.7229593 1.650647 -1.1213932
-1.7260325 -1.6203336 1.7399193 1.5784615 -0.97141933 1.6730016 1.6192434 1.1518862
-1.1828887 1.7884566 0.030704994 1.6289219 -0.16725028 1.7312567 -1.8048673 1.6317838
-1.6550303 -1.2908679 1.6558938 -1.7734358 1.6833814 -1.7191001 -1.7055755 -1.7797333

sequential/batch_normalization_1/FusedBatchNormV3 f4 [32]
00000000: bad9 c0be 1e04 18bf d963 223f 06b7 43bf
00000010: 10c0 1b3e 522e 243f 6a3a 233f fffe 843e
00000020: 5517 c33e d07c c5be 2143 51bf e629 5bbf
00000030: 4586 463f 6688 2e3f cb8d 8cbe 5179 6fbf
00000040: fbdd dfbe 3243 783f b162 34bf 54dd eabc
00000050: 7d05 773f 7179 883f 411f 5fbc 4fb2 46bf
00000060: 8598 50be 5e86 273e a4f1 7a3f 366a 863e
00000070: be6c 7e3c f0c1 be3e 0f66 0fbf 6855 28bf
-0.37666112 -0.5938128 0.63433605 -0.76451147 0.15209985 0.6413318 0.6376101 0.25975797
0.38103738 -0.38571787 -0.81743056 -0.85610807 0.7754863 0.6817688 -0.2745193 -0.9354449
-0.43724045 0.9697753 -0.7046309 -0.02866999 0.9649275 1.0662061 -0.013618291 -0.7761583
-0.20370682 0.16359851 0.98024964 0.26252908 0.015528856 0.37257338 -0.56015104 -0.6575532

sequential/batch_normalization_2/FusedBatchNormV3 f4 [256]
00000000: 141d 48bf 38be 17bd b74b 5a3e 9c30 e6be
00000010: 8b6e 75bf 1c1c a3be 07ae 0dbf 9ffc 363f
00000020: f5ea d93e 57ae 323f db81 063f effa 2a3f
00000030: 5ce0 44bf 5430 9a3e 3ab7 6d3e 9757 ef3e
00000040: bf64 b8bf 4ff8 f1be b8b0 d1be dbb8 483f
00000050: 8e04 e23e 26df d33d 72f3 79bd 1b20 debd
00000060: ccb8 0d40 4c53 acbe a26a 05bf 6078 aa3f
00000070: 8933 edbe bea8 703f 0929 19be b4fd 98bd
00000080: a57d 87be 93a6 743f 0d74 493c 4a68 0abe
00000090: adf8 793f 4eaa c3be fea4 18be 2477 26be
000000a0: d765 813f da61 593e 4e3e 643c 077d 393f
000000b0: b2f2 0a3f d987 253f c3f6 193f cb2d a83e
000000c0: 1b04 943f 798f e2be 46bc 35bf 05dc 833f
000000d0: 4e57 f23d a044 bcbe a078 c93e 1bae fe3e
000000e0: 01e9 02bc 5c52 b03d cefc f1bd fd4a 81be
000000f0: 6064 e2be 3fc0 013f 25fa 87bf a47c 0fbd
00000100: 085c ea3d 134a 88bf 350f 34bd 8a8b eb3b
00000110: 1a80 54bf 8b4f 8bbf 1561 8bbf a3d2 7ebe
00000120: 42a3 0bbf 8561 fa3e ce3d 8bbf 50dc 85be
00000130: 31ac cebe c4f8 02bd df37 34be a89a 873f
00000140: 82c3 cfbd 6534 003e bbdd dcbe 7fef c2bf
00000150: a3a3 8cbe 0aa8 50bd 8604 6fbf d662 883f
00000160: 112a 8bbe 9c2d 3fbf ccb8 163f bfae b1bf
00000170: eac7 053e 5fe1 1b3e 4c33 92bf a66c 7dbe
00000180: d211 2cbf 6b2c 27bf 9049 b9bd c51f c43e
00000190: 0d78 3b3f 616c a6be 525b 42bf cf5a 0dbf
000001a0: 87fa 0cbf e2e9 953d 3dfb febe 2ea2 86bf
000001b0: 64f2 abbf c2ef cf3d f2d8 8e3d 7926 f5be
000001c0: 8e02 063f 32e6 e23e 80c4 04bc c345 4e3e
000001d0: 557c 54bf 61be ad3e dade adbf b331 92bd
000001e0: 283b 513e a36c 243f 5771 a5bf 895c 4dbe
000001f0: 64c8 31bf 5dad 9dbe 5df7 61bf 046c ba3e
00000200: 6d25 983f d434 bfbe ac07 013f bc83 7d3e
00000210: ffdf c7be ea2f 0c3f f6cc bf3e f355 433e
00000220: 9051 2f3e 58e3 a6bc 16f5 213f 0b19 54bf
00000230: 6d03 af3f 9615 92bf 5b6d a8bf 1462 a3bd
00000240: 0dc8 37bf efd9 9cbf 6d3a d73d 2625 04bf
00000250: d697 b0be a7fb 3fbf a132 c43d ce88 5e3e
00000260: 9828 e0bd ad79 90bf 1cda b03b fc18 e4bb
00000270: 9239 413e f395 d5be e410 133f 0cba 063f
00000280: fc16 773f 3221 0cbf 1538 42bf 473a 9c3e
00000290: d45c 8e3e 4b77 6dbe 4f2d c03e 967c 183e
000002a0: 9556 ac3d 623c 93bf c937 833f 373c 2dbd
000002b0: 4680 163e f0a5 f5be 129f 213e f2f2 e43e
000002c0: 6cac ce3e 313a e83e e5a2 a13f c96c 50be
000002d0: 9aaf 243f 04aa 683f 6782 12bf ef24 e63e
000002e0: a0ec 1d3e 78da 4c3b 00cd c6be a85e 58bf
000002f0: d394 8e3d 6cef 83be 693b 4bbf 6880 fb3e
00000300: 9889 30bf 15b9 163f 200d 973e a477 2cbf
00000310: 7b67 78bf 54a2 ec3e f41f b4be a71d 03be
00000320: 131a cebd 80ac 00bf 98dc 18bf 18cd 633f
00000330: be0c ef3d 1df7 7e3e da8a 673e 8adc 853d
00000340: 31fa 7b3f 086a 76bf 0411 863f f84e 8a3e
00000350: e8ee 393e 0ca0 c2be 85ec 58bf 36eb 9ebd
00000360: fcc8 783e e7fa 69bf 2bd5 9abf 59b7 8cbf
00000370: 454e b7be f5f1 57bf 400d a93e 9a1c a33d
00000380: feef 573f b270 fb3c 6860 db3e 2b03 9fbe
00000390: b9b9 19bf 0a76 243e 9365 643e ae1e 053e
000003a0: 902d 72be eea6 08bf 7a81 52bf 3eeb 3cbf
000003b0: 696f 053f 4797 5fbd 16ff 7ebe 3d59 59bf
000003c0: d749 f43d 11da 723e 6bc5 56be 553c 213e
000003d0: 8236 983e 8f64 84be 77f8 ab3d 0457 963e
000003e0: 2e85 71bf f813 813e a04f c0be 51fe d4bf
000003f0: e793 e5bf f0bc 243f ac90 a93e d3a6 413f
-0.7816937 -0.03704664 0.21317945 -0.4495896 -0.958718 -0.31857383 -0.5534367 0.7147922
0.4256207 0.6979727 0.52541894 0.66789144 -0.76904845 0.30114996 0.23214427 0.46746513
-1.4405745 -0.47259757 -0.40955138 0.7840707 0.441441 0.103452966 -0.061023183 -0.108459674
2.214404 -0.336573 -0.52115834 1.3317986 -0.4632838 0.9400748 -0.1495706 -0.07470265
-0.26463047 0.9556667 0.012295735 -0.13516346 0.97645074 -0.3821587 -0.1490669 -0.16256386
1.0109204 0.21228734 0.01393087 0.724564 0.54276574 0.6466041 0.60142154 0.32847437
1.1563753 -0.44250086 -0.7099041 1.030152 0.11833058 -0.36771107 0.39349842 0.49742207
-0.007990123 0.08609459 -0.11815797 -0.25252524 -0.44217205 0.5068397 -1.0623213 -0.035030976
0.11443335 -1.0647606 -0.043959815 0.007188265 -0.8300797 -1.088365 -1.0889002 -0.24885039
-0.54545987 0.48902526 -1.0878236 -0.26144648 -0.40365747 -0.031975523 -0.17599438 1.0594072
-0.10144712 0.12519987 -0.43137917 -1.5229338 -0.27468595 -0.050941505 -0.9336628 1.0655162
-0.27180532 -0.7467897 0.5887573 -1.3881453 0.13064542 0.15222691 -1.1421905 -0.24748477
-0.6721469 -0.6530215 -0.09047234 0.38305488 0.7323006 -0.32504562 -0.75920594 -0.5521669
-0.55069774 0.0732 -0.49801055 -1.0518243 -1.3433347 0.10153152 0.06974973 -0.47880915
0.5234765 0.4431625 -0.00810349 0.201438 -0.83002216 0.3393431 -1.3583634 -0.071383856
0.20432723 0.64228266 -1.2925214 -0.2005483 -0.69446397 -0.30796328 -0.8826807 0.36410534
1.1886421 -0.37344992 0.5040233 0.24757284 -0.39038083 0.5476061 0.3746106 0.19075756
0.17120957 -0.020372078 0.63264596 -0.8285071 1.367292 -1.1412838 -1.3158373 -0.07977691
-0.7178963 -1.2254008 0.10509191 -0.51619184 -0.34490842 -0.74993366 0.09579969 0.21731874
-0.10945243 -1.1287133 0.0053970944 -0.006960986 0.18869618 -0.41715965 0.5744765 0.52627635
0.96519446 -0.5473815 -0.75866824 0.30513212 0.27805197 -0.23190038 0.37534568 0.14891276
0.08414952 -1.1502802 1.0251399 -0.042293753 0.1469737 -0.47978163 0.15783337 0.44716603
0.40365922 0.45356897 1.2627836 -0.20353998 0.64330447 0.90884423 -0.5723023 0.44950053
0.15422297 0.0031258147 -0.38828278 -0.84519434 0.0696198 -0.25768602 -0.7938753 0.49121404
-0.6895995 0.5887616 0.295022 -0.6737006 -0.970329 0.46217597 -0.35180628 -0.1280428
-0.10063567 -0.50263214 -0.597116 0.88984823 0.11672352 0.24898954 0.22611561 0.06536205
0.98428637 -0.9625554 1.0473943 0.27013373 0.18157542 -0.3801273 -0.847359 -0.07759707
0.2429542 -0.9139847 -1.2096304 -1.0993453 -0.35801902 -0.8435357 0.3301792 0.0796444
0.84350574 0.030693386 0.4284699 -0.31057104 -0.60049015 0.16060653 0.22304372 0.12999985
-0.23650193 -0.53379714 -0.82228816 -0.7379645 0.52123123 -0.05458763 -0.24901995 -0.8490179
0.11928146 0.23715998 -0.20973746 0.15745671 0.29729086 -0.2585797 0.08397 0.29363263
-0.9434384 0.25210547 -0.3756075 -1.6640111 -1.7935761 0.64350796 0.33118188 0.7564518

sequential/batch_normalization_3/FusedBatchNormV3 f4 [256]
00000000: 17bc 6c3e a0d7 4a3f 46e5 b83f 6ca1 173f
00000010: e420 10be 3afa 3fbf 4763 3d3f 44ed e8bd
00000020: b2d6 a1be 7f0c a03f af20 63be c669 163e
00000030: 5ee8 bb3e 235b 973f da23 b9be bc3a d33f
00000040: 76bf f3bf 4a0c 5e3f da86 64bf 6b7b fb3f
00000050: 1043 aa3e c849 8a3f 72ce 313f 06e5 b1bf
00000060: 5877 dc3f b670 45bf 57a5 efbe 481f dfbf
00000070: e0c9 cebf c0db 27bf 747a a8be cfb5 bd3e
00000080: d6cc 9bbe 9050 08bf ad94 a2bf 3bc2 bd3f
00000090: 7e27 52bd 72da b03d da9b d23c 2f62 993f
000000a0: d032 2bbf ed18 b7be e06a f7bc 913b b3bf
000000b0: 26d2 023f 5183 36bf d8d2 293e 02a9 b9bf
000000c0: ea7a 2dbf e88b c0bd 6431 dbbf 36a1 5bbf
000000d0: df02 efbd 35d8 dfbe cf5e b13f a615 a6bf
000000e0: 0c24 b6be 5522 953f 7fdf aa3f aa17 fb3e
000000f0: 9291 3abf 1d98 02bf f666 4a3f f6b9 75bf
00000100: 96f0 f73e 1ead 4dbf 4545 083e 41d0 6bbe
00000110: a2eb ab3f c413 863f 3ed0 9fbf 7844 403e
00000120: 6113 a53e f2d8 abbe 771f 693f 9d13 a6bf
00000130: 63f3 b83f 0b72 03bf 4843 d4bf 83d3 b5be
00000140: 44a9 6d3e 1c71 543f 9b92 723e 829a 933d
00000150: a00b 483f a00c 9dbf 5c2c 8f3f fc79 35bf
00000160: 3563 5fbf b738 1abf 00a3 82bf 2751 f2bf
00000170: 0d58 e53f 2b30 aa3f 5316 983f 7991 5a3f
00000180: 55c4 bdbf 0bb4 293f 8319 e03f 6f3e d9bf
00000190: 01aa bcbf f78c a7bf 437e b3be 63e2 543f
000001a0: 4bed c8bf 03c8 1fbf e1ae 553f 4352 a83e
000001b0: 980f e7bf c999 70be 3ace 48bf a925 b13f
000001c0: 2f95 d0bf 131d dabe b550 ff3e 7308 45bf
000001d0: 6c0e 3e3d dc2a b53d 5d0a 9fbf f8e3 cfbf
000001e0: da69 783f 9d1b 69bf 57ef 5e3f 32fb ae3e
000001f0: a16e 6cbf ac5d 2abf 0e29 853f 345f 2c3f
00000200: 5f47 10bf 0c1e ccbe 114d 013d 2338 e23e
00000210: d907 883f f3b3 dcbd 7670 b13f d1c6 383f
00000220: 7b18 d7be 5833 aa3e b236 9c3e eaea 74be
00000230: b33a 47bf c6bc 963f 5322 ba3e bd3e 693f
00000240: aae3 48bf 7d11 41bf 5616 573f 9940 1d3f
00000250: c15f 923f 8e5b 8bbf 4e71 4dbf c203 913f
00000260: 97f6 9fbf 821e a93e 4cbb 0f3d 11e5 193f
00000270: d7fb aa3f 79be f9be db06 373f e7ee 08bf
00000280: 3e65 453f 2d97 7cbf 26e4 e43f eabe 603f
00000290: ff30 84be ccc2 acbf a568 d23f 8750 9d3e
000002a0: 522c a6bf f0d0 4e3f ec01 93bf 06f7 c73f
000002b0: 220a a33e 32cc 99bf 98be 25be 84f8 42bf
000002c0: 1c9b e33f 2ee9 a5bf 5cfb febf c7e8 223d
000002d0: 6acc 563d 2e1b 0e3f 1755 403f 516b 7a3c
000002e0: 258c abbf 8f05 d53f 5a63 02bf 385b ecbc
000002f0: 2d10 dabe c938 7abf cbfd 0f3f d262 5cbf
00000300: 2078 7dbf dc3a a33d e11a 63be a04e f0bf
00000310: 5cfd 093e e386 b7be 72d8 b83e bf40 68bf
00000320: 8570 763e 5ca9 fabe a27c cf3d df15 e5bf
00000330: 5069 3e3e 1f99 993f d84b 37bf 19dd 74bf
00000340: b3f5 94bf 1403 21bf 9ed9 8b3f bcdd f3bd
00000350: cde3 54be 74ec 2dbe 8eca afbe 8720 813f
00000360: 7179 1d3e 1e17 4bbf 6545 8d3f d385 043f
00000370: b262 523f 28c1 28bf fe00 86be adf1 a1bf
00000380: da30 8a3f c4e8 8f3f f6dd 0dbf 0300 993f
00000390: d016 843f 3db8 ca3f 3ae9 74bf 9502 97bf
000003a0: a774 d9be 3e6e 63bb 26ec a7bf eacf b43f
000003b0: 43b3 1d3f 9ecf 94be 5607 b4bf d974 273e
000003c0: 1872 98bf 6274 edbc d91c 2ebe 2cd1 443f
000003d0: 5826 b9bf 7815 973a d6c0 bcbd 2a41 2cbe
000003e0: bfe8 8d3f 3c2b a2bf e5c2 b73d 9d3a 953f
000003f0: ee37 993f 2374 223f c846 843b 1ff9 59bf
0.23118626 0.7923527 1.4444969 0.59230685 -0.14075047 -0.7499119 0.7397961 -0.1137338
-0.31609112 1.2503814 -0.22180437 0.14688787 0.3670072 1.1824688 -0.36160165 1.6502299
-1.9042804 0.867375 -0.8926827 1.9647039 0.3325429 1.0803766 0.69455636 -1.3898017
1.7223921 -0.7712511 -0.46805832 -1.7431421 -1.6155357 -0.65569687 -0.32905924 0.3705277
-0.30429715 -0.5324793 -1.2701622 1.48249 -0.051307194 0.08635415 0.025709081 1.1983088
-0.6687441 -0.35761204 -0.03020233 -1.4002553 0.5110191 -0.7129412 0.16584337 -1.4504702
-0.67765677 -0.09401685 -1.7124448 -0.85792863 -0.116704695 -0.4371964 1.3857058 -1.2975357
-0.35574377 1.1651102 1.3349456 0.49041492 -0.7287837 -0.51013356 0.79063356 -0.9598688
0.4842574 -0.8034228 0.13307674 -0.23028661 1.3431284 1.0474782 -1.2485425 0.18776119
0.32241347 -0.33563954 0.91063637 -1.2974735 1.4449276 -0.5134589 -1.6583033 -0.35512933
0.23209101 0.8298509 0.23688738 0.072072044 0.7814274 -1.2269478 1.1185412 -0.7088926
-0.8726075 -0.6024279 -1.0205994 -1.8931016 1.7917496 1.329595 1.1881813 0.85378224
-1.4825541 0.6629035 1.7507786 -1.6972178 -1.4739381 -1.3089894 -0.35057268 0.8315794
-1.5697416 -0.6241457 0.8346997 0.3287526 -1.8051634 -0.23496164 -0.78439677 1.3839618
-1.6295527 -0.42600307 0.49866262 -0.7696602 0.046400473 0.088460654 -1.2425038 -1.6241446
0.97036517 -0.9105776 0.87083954 0.34176022 -0.92356306 -0.6654918 1.0403154 0.6733277
-0.56358904 -0.39866674 0.031567637 0.44183454 1.0627395 -0.1077651 1.3862445 0.7217837
-0.42010865 0.33242297 0.3051048 -0.23917738 -0.7782394 1.1776359 0.36354312 0.91111356
-0.7847239 -0.7541731 0.84018457 0.61426693 1.1435472 -1.0887315 -0.80251014 1.1329272
-1.2497128 0.33031088 0.03509073 0.6011515 1.3358105 -0.48778132 0.71494836 -0.53489536
0.7710761 -0.98668176 1.7882125 0.8779131 -0.2581863 -1.3496947 1.6438185 0.307255
-1.2982275 0.80787563 -1.1484962 1.562226 0.31843668 -1.201544 -0.16185987 -0.76160455
1.7781711 -1.2961786 -1.9920459 0.039772775 0.05244104 0.5551022 0.75129837 0.015284375
-1.3402144 1.6642321 -0.5093285 -0.02885209 -0.42590466 -0.977429 0.5624663 -0.8608829
-0.9901142 0.07970211 -0.22178222 -1.8773994 0.13475555 -0.35845098 0.36102635 -0.90723795
0.2406636 -0.48957336 0.10131194 -1.78973 0.18594861 1.1999854 -0.71600103 -0.9564987
-1.1637481 -0.6289532 1.0925786 -0.11907527 -0.20790024 -0.16984731 -0.34334224 1.0088052
0.15378357 -0.7933215 1.1036803 0.517667 0.8218185 -0.65919733 -0.26172632 -1.2651879
1.0796158 1.124291 -0.5541681 1.1953129 1.0319462 1.5837475 -0.95668375 -1.1797663
-0.4247181 -0.003470316 -1.3118942 1.412595 0.61601657 -0.2906465 -1.4064739 0.16353168
-1.1909819 -0.02898616 -0.17003192 0.7688167 -1.4464827 0.0011526784 -0.09216468 -0.16821733
1.1086653 -1.2669444 0.0897272 1.1658512 1.1970193 0.6345846 0.004036758 -0.85145754

sequential/batch_normalization_4/FusedBatchNormV3 f4 [256]
00000000: d421 cabe 18f4 553e 685c 273f f380 c5bd
00000010: b29a d13d 354d b9bf dfd1 ecbe 4320 2b3f
00000020: 3b84 8f3f 86d1 e03e d1e4 873c b78b bcbe
00000030: fcc7 883e ea64 1cbe c715 0dbf 3b4b 0a3e
00000040: 84aa 6dbf f073 e33d 87e8 0240 04bd 0f3c
00000050: 4f9c 92bf 992d 803f 00c5 89be 9179 debe
00000060: 3c39 01be be4e 10bf e792 39bd b2e9 af3f
00000070: 9b0c b03f 5986 a93e aba6 e4bf 7409 3abf
00000080: 866f 573e 266c 283e ce21 81be be00 8b3e
00000090: 6d83 18bf a4b6 20bf ea08 363f b18c 38bd
000000a0: b76f 6e3f 12ee 07bc 0224 1a3e a7dc 82be
000000b0: 216f 58bf 1e7a 54bf 2998 56be 7410 8c3f
000000c0: 9f2f 21bf 4344 11be 187f d53e 980d 0f3f
000000d0: fbed 023f 42d4 343f 23c7 c23e d0c6 1dbe
000000e0: 7ec8 233f 480f a63d ac09 08bc f6f0 643e
000000f0: 4ee7 bbbe 6041 9f3f f355 893f 2ef5 a73e
00000100: 081b 9fbd b286 5ebf 552d 173f 9cf2 00bf
00000110: b51a bf3e ad17 a6bf 1dc6 ddbe ff6b 99bd
00000120: e81f 81bf e1ad 27bd 3c4a b23e cc9a 9dbd
00000130: 78e0 1cbe a48d bbbe 4470 063f 2390 393f
00000140: 8614 8e3f 3370 77bf 62b3 a6be 2113 503f
00000150: 9bea 323f 19f1 a43e 08e0 18bf 5cba 32bf
00000160: 0cb4 a23d a15a 80be 37c1 9ebf 797d 463e
00000170: 71a5 a93e b1e0 3e3f c882 50be 33c9 b8be
00000180: dc01 73bf 601c de3e a2e7 c33f 1a1b 483f
00000190: 25c0 4abe 0231 36bf 4e9f 4ebf dc5d bb3f
000001a0: f162 b03e c8e7 d4bf a4f1 183e 307e 25c0
000001b0: c6d7 8f3f 3ff0 92bf 820b d4be 3c6c 893d
000001c0: f21b 08bf 570f c23e 38e9 d6be a377 893f
000001d0: 3061 173f 9c5f d0be 8a70 4e3f ad58 52bf
000001e0: 18bd b5bd 4ec4 aebf d403 06bf 7318 1f3f
000001f0: fe50 b0be 64c6 9cbf 6325 ffbc 795c 903e
00000200: 37dd 4c3f 74c2 16be 2344 a23e 877c 533f
00000210: 8267 bfbe 7619 51bf 6ecb 553f 37e5 fe3d
00000220: c39d 8cbf e170 493f 285e d83e c787 4abf
00000230: ab03 25bf eee8 483e 1fe1 7ebf 981a 99bf
00000240: 3ab6 81bf 057d bcbe 5322 36bf 792b a73e
00000250: cff5 85be a61a 3fbf 0591 0abe 9178 a23e
00000260: 5c21 5bbf 8eb1 293f 91e3 10be ca9b 50bf
00000270: d0e5 843f d023 ad3e d10c 683e 19b5 9a3e
00000280: 0a5d 5b3e 56f0 1dbf d3f8 bcbe 592c 0a3f
00000290: b95a 883f 0665 723e 9f93 d9bc 6643 c93e
000002a0: ee21 d4be 7b35 04bf 96ad c2bd a2ba b43c
000002b0: ba0a 29be 0031 71be 1d0e 13be e0c5 5b3f
000002c0: 90ea 0abf 91b0 073f 90d2 ad3d 3461 81bf
000002d0: bad5 96bf 5690 363f 7595 9abe 7662 143f
000002e0: cafd a2be 1580 3b3d b89d 22bf 2224 7dbe
000002f0: 121f 1f3e c268 0ebf dd49 153f 13b2 31bf
00000300: 85a1 63bf 7871 f0be 952d 873e d395 5a3f
00000310: a180 74bf 831d 003e 8d0d b33e 1acf 2fbe
00000320: e445 ad3e b50a ab3e 5079 863e d864 34be
00000330: 8f61 2ebf d7da 87bf 4b41 543e 18d4 09bf
00000340: ee3f 5e3f 98ef 6abd 6db3 26bf c316 25bf
00000350: 0db8 5cbf d838 5f3f d04c c7be df8c 17bf
00000360: 8220 1fbf ad3c c13e 72af c6bf c44c 3cbf
00000370: 3517 ba3e 19ca 58be 9ceb c1be b99c 373f
00000380: 7656 ec3c c85e 313e 81d5 14bf 3d11 dc3e
00000390: affa 0c3f 0700 8fbe c103 48bf 3dca 85bf
000003a0: dade 16bf ec52 61bf 78ec 72bf d781 4bbe
000003b0: 127c b5bd c884 6bbf 707c 84bc e5ac aabe
000003c0: 8692 223f 162e 2abf 51c6 9abe 9b30 89bf
000003d0: 6906 9dbe 3a54 2c3f 6098 cebe 3248 7abf
000003e0: cd56 c13e a49c 66bf 6419 b4be 3c88 373d
000003f0: 7f46 8b3f 2fb4 1d3e 38b1 a83d f6b4 da3e
-0.39478934 0.20893896 0.65375376 -0.09643736 0.10234584 -1.4476687 -0.4625387 0.668461
1.1212229 0.43909854 0.0165886 -0.36825344 0.26715076 -0.1527287 -0.55111355 0.1350526
-0.9283831 0.11106098 2.0454423 0.008773092 -1.1453952 1.0013915 -0.26908112 -0.43452123
-0.1261949 -0.5637015 -0.045306113 1.3743193 1.3753847 0.33110312 -1.7863363 -0.72670674
0.21038637 0.16447505 -0.25221103 0.27149004 -0.5957554 -0.6277869 0.7110735 -0.04505605
0.93139213 -0.0082965065 0.15052798 -0.2555897 -0.8454457 -0.82998836 -0.20956482 1.0942521
-0.6296329 -0.14186196 0.41698527 0.5588012 0.5114438 0.7063638 0.38042554 -0.15407872
0.639778 0.081083834 -0.008303087 0.22357544 -0.3669991 1.2441826 1.0729355 0.32804245
-0.07768828 -0.8692428 0.59053546 -0.5037019 0.37325063 -1.2975975 -0.4331521 -0.07491302
-1.0087862 -0.04093731 0.3482226 -0.07695541 -0.15320003 -0.366315 0.52515054 0.7248556
1.1100013 -0.9665558 -0.32558733 0.8127919 0.6988923 0.32215193 -0.59716845 -0.6981561
0.079444975 -0.25069144 -1.2402714 0.19383802 0.33134034 0.745616 -0.20362389 -0.36091003
-0.9492471 0.43381023 1.5305064 0.78166354 -0.1979986 -0.7116853 -0.8071183 1.4638019
0.34450486 -1.6633234 0.14935929 -2.5858269 1.1237724 -1.1479567 -0.4141503 0.06710097
-0.5316764 0.37902328 -0.41974807 1.0739635 0.5913267 -0.40697944 0.8064047 -0.8216656
-0.088739574 -1.3653657 -0.5234959 0.6214668 -0.34436792 -1.2248044 -0.031145757 0.2819555
0.8002505 -0.14722615 0.3169261 0.8261189 -0.37383658 -0.81679475 0.83513534 0.12446063
-1.0985645 0.78687865 0.42259336 -0.7911343 -0.6445872 0.19620106 -0.9956226 -1.1961241
-1.0133736 -0.36814132 -0.71146125 0.32650355 -0.261641 -0.7465004 -0.13531883 0.3173261
-0.8559778 0.6628655 -0.1414931 -0.81487715 1.0382633 0.33816385 0.22661139 0.30216292
0.2142221 -0.6169485 -0.36908588 0.5397392 1.0652686 0.2367135 -0.026559649 0.39309233
-0.41432136 -0.51644105 -0.09505765 0.02206165 -0.16507998 -0.23553848 -0.14360853 0.8584881
-0.54264164 0.53003794 0.08487427 -1.0107789 -1.1783974 0.7131399 -0.30192152 0.5796274
-0.3183425 0.045776445 -0.6352191 -0.24720815 0.15539196 -0.556286 0.5831583 -0.69412345
-0.88918334 -0.4696157 0.26401964 0.85384864 -0.9550877 0.12511258 0.34971276 -0.17168847
0.33842385 0.33406606 0.2626443 -0.17616594 -0.6811761 -1.061366 0.20728032 -0.53839254
0.868163 -0.0573574 -0.6511753 -0.64487857 -0.8621834 0.8719611 -0.3892579 -0.5919933
-0.6215898 0.37741604 -1.5522292 -0.73554635 0.3634583 -0.21170844 -0.37875068 0.71723515
0.028849822 0.17321312 -0.5813828 0.42981902 0.5507001 -0.27929708 -0.7813073 -1.0452343
-0.58933794 -0.88017154 -0.9489207 -0.19873749 -0.08861555 -0.91999483 -0.016172618 -0.33335033
0.6350483 -0.6647657 -0.30229428 -1.0717958 -0.30668953 0.6731602 -0.40350628 -0.9776641
0.37761536 -0.90082765 -0.35175622 0.044807658 1.0880889 0.15400766 0.08236927 0.42716187

sequential/dense/MatMul f4 [2, 256]
00000000: 21e0 253d 4dfb c3bd a8b3 2a3e f6dc 1a3e
00000010: baf3 24bd a54c 223e 50ac 023e d0c3 21be
00000020: 00d3 6b3d 9931 aabc e7d8 9fbd cba9 8abc
00000030: 729c bd3d b6db 36bc 3542 373e 58d0 c2bd
00000040: 41a6 d53d 6eb3 583c c1e8 363e ffb7 b7bd
00000050: 044d 463d 9ec4 143e df3d bc3d a447 c13d
00000060: 0616 333e 74ef 0cbe b52b 76bd abae a93d
00000070: f93f 023d de99 8dbd 2903 0abe 8e45 43bd
00000080: c445 c2bc 2692 d1bd 9330 803c dd98 3e3d
00000090: 1a29 17be 87d3 21bd 352e fc3b 565e ac3d
000000a0: f961 85bd 9a3a 08be 0e60 98bd d902 ce3d
000000b0: a7a6 5e3d 7505 2ebe 8f41 523e 2e54 303d
000000c0: 97c7 72bd 08e8 8f3d c530 6abc 11da a5bd
000000d0: 4105 1dbe 9bcc 503d 6f03 2ebd ae02 b63d
000000e0: 4bbe 33be 2d2f bebc aa23 cebd 666d 8ebc
000000f0: 970a 673c 1162 0cbd ebc7 ae3d 87be 87bb
00000100: 0872 56bd eb34 05be 04c8 d13d e031 893d
00000110: a435 ec3d 57f4 2ebe 6f4e 233e 32f5 1f3e
00000120: 11c2 883d fa12 a73d fb01 783c 42f1 fc3c
00000130: 7f46 2fbe 7333 0e3e 924e 01bd feb5 db3d
00000140: 3885 31be 7e0b ff3d 57b9 4e3c f162 603d
00000150: c249 f3ba 1822 2f3d de50 07be 1892 e63d
00000160: 486f 2dbe b5d3 1abb a8d5 bfbd d6ca 1fbe
00000170: e749 88bd f8d6 57bd ce88 ffbd 83f8 d73d
00000180: 5fb9 e3bd 5113 d7b9 ec5d e3bd cd71 da3d
00000190: eb36 34be c4ef b83d eeb8 983d 651f a23d
000001a0: 8df2 e13d ff9b 083c 9211 013d 4011 1f3e
000001b0: c557 fdbd c83a 223e 4d9f 663d 37c9 62bd
000001c0: e307 be3d 8ba3 043e 8770 c63d 30cd f6bb
000001d0: fdd0 9cbc c978 2a3e 961b a13d 842a 053d
000001e0: 4978 36be f1d8 c33d e58c 30be 2a59 71bd
000001f0: 7b3f a53d 644b 503d 4e52 a8bb 3b27 d9bd
00000200: 91d4 243e 1e06 193d 475c f0bd 2a60 25be
00000210: d855 033e 22e5 c03d 0bc3 cbbc b232 ecbd
00000220: c3d5 093e f721 0f3d 5e58 b1bd 791d 0a3e
00000230: 7cc8 05be 1887 b3bb 2e27 7a3c a046 263d
00000240: 4caa 293e 857d c43b ecbd a9bd 12cf 51bd
00000250: de92 583d 8b82 363d 500a 53bd f5af 4d3b
00000260: 4720 b53d a12c 7f3d 069b 33be 8e76 4b3d
00000270: d223 85bd 4a5c 1f3e 0672 12bd 9bad 05be
00000280: 4371 303d b06c c5bd ce6d 2bbe 8178 6dbd
00000290: 09ac 1b3e b94f 1bbe 7602 7a3c 1a79 133e
000002a0: 3201 983d 0b51 263e 6cb5 0dbe c13e e53d
000002b0: a6a5 00be a952 453e e7f1 c03c 13b5 26be
000002c0: e4bb c7bd fff5 30bc c70a 08be 274c d7bd
000002d0: 8fe3 9b3d 4962 9bbd 68e8 003e 1ce7 cbbc
000002e0: a74a b7bd ad14 0b3d ba72 193e 4bbb b73d
000002f0: 7ac5 b83d 5146 e33d f935 c33d 0941 d63d
00000300: 12e6 823d b128 25be 710b 6abc a8b0 10be
00000310: 877a bf3b ed80 0ebe 69b5 ef3d 37fd 203e
00000320: f52d 373d b8c9 433d 4614 edbd 4ae9 1cbd
00000330: acb4 90bd 6244 d73d 56ba 533d 5466 2b3e
00000340: f6fc 7e3d d434 2a3e 8224 083e 77e9 ac3d
00000350: 3c5a 51bc e267 273e 3b22 2e3e 9686 06be
00000360: 721a 94bb fdab c73c 76a0 e73d 35b3 dc3d
00000370: 4768 da3c 80a7 ad3d a973 1a3e 8953 193e
00000380: c8e5 283e af7f ccbc cf41 41bd 31f6 debd
00000390: b96a 5b3d cc38 c23d beef 68bd 19a6 f9bd
000003a0: ea26 d3bc 759e ac3d 6f5b 13bd b8bc 39bd
000003b0: ba26 fc3c 18ee 03be 480b e1bd c8c9 09be
000003c0: ee7a f8bd 31a4 073e 835c 9bbd 0471 96bc
000003d0: 8792 153e efcc 3bbe 7c1f 28be 2542 27be
000003e0: e6c1 6e3d 6e23 c1bd 0bd1 053e 1887 ebbd
000003f0: 6449 dabb 55e5 a1bd 66ba 9bbd 54ff 37be
0.04049695 -0.09569416 0.16670096 0.15123352 -0.0402715 0.1584955 0.12761045 -0.15797353
0.057574272 -0.020775603 -0.07805043 -0.016926667 0.09258355 -0.011160782 0.1789635 -0.09512395
0.10432101 0.013226373 0.17862226 -0.08970641 0.04841329 0.14528129 0.091914885 0.094374925
0.1748887 -0.13763219 -0.060100276 0.082852684 0.03179929 -0.069141135 -0.13477768 -0.047673754
-0.023714907 -0.10232954 0.015648162 0.0465325 -0.14761773 -0.03950837 0.007695938 0.08416431
-0.065128274 -0.13303605 -0.07440196 0.10059137 0.05435815 -0.16994269 0.20532821 0.04304903
-0.059272375 0.07026678 -0.014293854 -0.080982335 -0.15334035 0.050976377 -0.042483743 0.0888723
-0.1755306 -0.023215855 -0.10065396 -0.01738615 0.014101646 -0.03427321 0.08534225 -0.0041425857
-0.052354842 -0.13008468 0.10243228 0.06698966 0.11533669 -0.17085396 0.15947889 0.15620878
0.0667764 0.08157916 0.015137191 0.03087676 -0.17116736 0.13886814 -0.03156907 0.10728072
-0.17335975 0.12453364 0.012617431 0.054781858 -0.001856141 0.042757124 -0.13214442 0.11258334
-0.16936982 -0.0023624722 -0.093669236 -0.1560472 -0.06654721 -0.052695245 -0.12477265 0.10545447
-0.11119341 -0.00041022387 -0.111018986 0.10666237 -0.17599075 0.09030107 0.074571475 0.07916144
0.11032591 0.008337974 0.031510897 0.15533924 -0.12370256 0.15842736 0.056304265 -0.055367675
0.09278848 0.12953012 0.09689432 -0.0075317845 -0.019142622 0.16647638 0.0786659 0.03251125
-0.17819323 0.09562863 -0.17241247 -0.058922924 0.080687486 0.050853148 -0.0051367646 -0.10603186
0.16096713 0.03735935 -0.117363505 -0.16149965 0.12825716 0.094187036 -0.024873277 -0.11533107
0.1346045 0.0349445 -0.08659433 0.13487805 -0.1306476 -0.005478751 0.01526813 0.040594697
0.1656887 0.0059964084 -0.08288178 -0.05122287 0.05287444 0.04455809 -0.051523507 0.0031385396
0.08844047 0.06229842 -0.17539605 0.04967361 -0.06500973 0.15562549 -0.035753272 -0.13054506
0.043076765 -0.09639871 -0.16741106 -0.05797625 0.15202345 -0.1516713 0.015259376 0.14401665
0.07422103 0.16241853 -0.13838738 0.1119361 -0.1256319 0.19269814 0.023552848 -0.16280012
-0.09752634 -0.010800838 -0.13285361 -0.10512572 0.07611763 -0.07587106 0.12588656 -0.024890475
-0.08949786 0.033955265 0.14985171 0.0897127 0.09022041 0.11097396 0.09531779 0.10461623
0.06391539 -0.16128804 -0.014284954 -0.14129889 0.005843464 -0.13916369 0.11704523 0.15721594
0.044721562 0.047799796 -0.115761325 -0.03830842 -0.070657104 0.1051109 0.051691376 0.16738254
0.06225296 0.16621715 0.13295177 0.084429674 -0.012777861 0.16348222 0.17005245 -0.13137278
-0.004519754 0.024374003 0.11309902 0.107763685 0.026661051 0.08479214 0.15083183 0.14973272
0.16493905 -0.024963228 -0.0471819 -0.10886801 0.053568576 0.094834894 -0.05686926 -0.12189884
-0.025775392 0.08428661 -0.03597587 -0.04534599 0.030780185 -0.12883794 -0.1098848 -0.1345588
-0.12132822 0.13246228 -0.075860046 -0.018364437 0.14606677 -0.18339895 -0.1641826 -0.16333826
0.058290385 -0.09430586 0.13068025 -0.115003765 -0.006661581 -0.0790507 -0.07603912 -0.17968494

sequential/conv2d/Conv2D f4 [32, 2, 2, 1]
00000000: 3aa6 55bd 094f c73b 9fe7 6f3d 5cfb 5d3b
00000010: b9c5 513d b929 cd3c 70c2 31bd 55af 04bd
00000020: 583b 01bc bca5 a73c bb8c 483c d3ac 3bbb
00000030: 21ae 9fbb b26d cd3b 214d 53bc 99fc 29bc
00000040: 195e 98bc cc0a 41bc 2a0c 413d 07f3 4439
00000050: 230b 203b e553 8b3b ec3c 213c fbd7 a73b
00000060: 9f40 dcbb f8f6 cb3a df83 e3bc 2fcf 4c3c
00000070: 3ab2 123b efb6 bebc d403 553d 96a8 90bc
00000080: 6510 b63b 2eb7 0c3c ddbd 63bb ad9b 353c
00000090: 8fb4 14bc 86e2 b13c 0263 45bb d39e 293c
000000a0: c644 1abc 5e91 03bc 63e4 a9bb cd83 dd39
000000b0: f68c 4ebc 720c 33bc 8f20 e6bb 9900 1e3c
000000c0: 342b 11bd 37f1 7b3c f2ed 48bb 1d73 143d
000000d0: a725 c6ba 3d1e c5bc ab76 4bbb dcfc 053c
000000e0: 4af8 88bc a8ff 583c e46b 1a3c 9780 dbbc
000000f0: 331e 163d 0974 983b 4657 3fbd 36da 34bc
00000100: 9fe8 173d 98fa b03c 2264 6dbc aa7e f6bc
00000110: 3ad7 07bc de98 7abb 2249 5dbc 7a25 573b
00000120: c7c0 afba 2192 853d bc9c f6bc d55c 0cbd
00000130: dab1 4abb d520 02bc 323b 743b e790 5fbc
00000140: e6df 3d3b 9ab8 cfbc d5f1 843d 375b 24bd
00000150: 9928 f3bb 47c5 973c fc22 9dbc 8fb7 5bbc
00000160: 238e 5d3c 0d38 fe3b 8118 b93b 4c0a 9fbb
00000170: 9cee fbbb b609 a5ba 27bf 263c 6ba1 b9bc
00000180: dbfd bbbb 4d07 b43c 6fce 8d3c c93e 54bc
00000190: 3b6d 9f3b 81c6 c4ba b8a2 12bd 2213 473d
000001a0: abd0 31bc f277 2dbb ed61 c8bb 4274 14bb
000001b0: 3d5b c03b 1bfb 0e3c 691f d23b 23e6 823a
000001c0: d9a6 c5bb 973e 033c e84b 5bbc 7dfc 1dbc
000001d0: 34e5 cebb b5be f63c dbf7 b43c 9817 cbbc
000001e0: 27c5 1c3c 662f 673a e266 c13b 9825 a33b
000001f0: 07c5 95bc 5f25 8f3c 83e7 863c 71e9 cb3b
-0.05216048 0.00608242 0.0585705 0.0033871746 0.051213954 0.025044309 -0.04339832 -0.032393772
-0.007887684 0.02046477 0.012240584 -0.0028636947 -0.0048730527 0.00626918 -0.012896807 -0.010375165
-0.018599557 -0.011782359 0.04713074 0.00018782551 0.00244207 0.0042519444 0.009841185 0.0051221824
-0.0067215706 0.0015561273 -0.027772842 0.012500568 0.0022384063 -0.023280589 0.052005604 -0.017658513
0.0055561536 0.008588595 -0.0034750619 0.011084479 -0.009076252 0.02171446 -0.0030118828 0.010352808
-0.009415811 -0.008030264 -0.0051846965 0.00042250604 -0.01260685 -0.01092826 -0.0070229243 0.009643697
-0.035441592 0.015377334 -0.0030659405 0.036242593 -0.0015117422 -0.02406227 -0.0031046073 0.008177962
-0.016719956 0.013244547 0.009425137 -0.026794715 0.036649894 0.0046525043 -0.04671409 -0.011038354
0.03708708 0.021603867 -0.014489206 -0.030089695 -0.00829106 -0.0038238089 -0.013506206 0.0032828734
-0.0013408893 0.065220125 -0.030104034 -0.03426822 -0.0030928762 -0.007942398 0.0037266728 -0.013645387
0.0028972565 -0.02535658 0.06491438 -0.04012605 -0.007420611 0.018526686 -0.01918172 -0.013410463
0.013522658 0.0077581466 0.005648673 -0.0048535224 -0.0076883566 -0.0012591395 0.01017741 -0.022659978
-0.005737049 0.021976138 0.01731035 -0.012954422 0.004865316 -0.0015012772 -0.035799712 0.04860223
-0.010852973 -0.0026469198 -0.0061151893 -0.0022652303 0.0058702515 0.00872686 0.006412436 0.0009986799
-0.0060318527 0.008010528 -0.013384797 -0.009642717 -0.0063139442 0.030120233 0.022090843 -0.024791524
0.009568489 0.00088190136 0.005902157 0.0049788468 -0.018282427 0.017473875 0.016467815 0.0062228967

sequential/conv2d_1/Conv2D f4 [256, 1, 1, 32]
00000000: f540 a7bd 30a5 073f 7121 903e b7c3 b9bc
00000010: a1e4 02bf 9317 2c3e 03f8 103f 1f97 da3e
00000020: c817 c8be 20e4 ea3e 12f2 e13e 6071 263f
00000030: 1ff8 29be 59b0 a13e a3b9 17bf 5b92 dfbc
00000040: 4a52 cdbe 4bb5 a5be 52ed 283e 057c 06bf
00000050: d7ac 0c3f d5b8 103f 9eaf 65be d386 a13e
00000060: 2a20 01be f284 c2bb a120 8fbe 6d05 e1bb
00000070: 3dbb 1d3e b60c b8be 6480 22be 4c2b 153e
00000080: 98e3 8b3c 0207 1dbe 389c 39be 875e 45bc
00000090: 845d 29be 4681 6d3e 0c46 4d3e 426e 83be
000000a0: cba5 c3bd a21c 98bd f732 84bc 02b3 bf3d
000000b0: fe31 803e e662 50be 91c8 dd3d 5243 8f3e
000000c0: c23a b13d 2832 09be b0a6 cdbd 6458 3c3e
000000d0: 3826 3e3e 24f9 6fbe 071f 5e3e 8232 7d3e
000000e0: fcb4 8fbe 133b 3abe 1b8d 2a3e 9ae9 bfbc
000000f0: 3189 7c3e 0548 663e 83b6 62be c111 9dbe
00000100: 3801 753d 2c9c a73b 20df de3e da8b ba3e
00000110: 89a4 babd 84d2 de3d 70d0 a43e d3ff 01bf
00000120: bf68 923c 3284 fc3c bead 003f 715a 533e
00000130: c40e 8e3e 4940 a1be 1e5a f6bd 7441 5fbe
00000140: 0af5 e6be 52ab 8fbe e4cf 033d 9947 7c3e
00000150: 2715 27bd e0e3 8cbe d5ff d53e d203 9abe
00000160: 5718 d33e 95dd 8cbe c415 bf3e 8aed f4be
00000170: 37e2 f1be 8d60 98be a3c4 ecbe 028d a23d
00000180: 1dd0 62be 04ab bb3d c22e 9cbe a3b2 81be
00000190: b966 a3bd 0cb5 f6bd ee78 323e 954c 03bf
000001a0: 2c06 973e 8b97 ab3e 3367 05bf 147e ba3e
000001b0: e71b 863e aa06 a63e f347 893e aa84 05be
000001c0: 40ac 96be c7e2 4b3e 0f25 c2bc fd26 d43e
000001d0: 93c1 ee3e 456b 243d cdc5 053f 9134 983e
000001e0: 4337 babe 6d94 023e 2b36 723d 6d5e b3be
000001f0: 21ab 573e 75d0 d53e 1270 353e 4e73 e4be
00000200: 0e19 a33e 3c88 ac3e 79e2 28be 35b8 9bbd
00000210: 59ed b83e 8083 5fbe 122b 72be 5d85 41be
00000220: 8af7 1c3e 5486 12be f79f 66be 33c5 013f
00000230: fb02 693d 1a74 09be 06be e53e ba50 363e
00000240: efbe 92be 3780 9f3d d399 25be 5eb4 2c3e
00000250: 91d6 0d3f 0ec1 183f 9905 d63d 17be 313c
00000260: ba07 1b3f 2f9a cdbe cdf9 293d 0eac 1e3f
00000270: 3bfa fcbc 7584 c03e 8c65 a5be 352a 81be
00000280: 84e7 9b3e ba11 acbe 1fc6 d7be e789 723e
00000290: a362 113e 3af1 d8be 9174 b2bd 7952 26bb
000002a0: a906 99be 0538 ad3d c16f d73e bf58 bf3e
000002b0: 1c9f 10be abdb 813c 756d 09be c4fe 583e
000002c0: 2cbd 83be 6e8d f73e 0cf7 c1be 2e7f edbe
000002d0: 5b3b 56be a66b 9e3e 081f f43d 110d ecbb
000002e0: e90a dc3d e64e 173d 7810 bcbe 56f0 ee3d
000002f0: 58af 053f 9e57 73bd 290a e73e e461 933e
00000300: 9ef9 d93d 332c 03bd 7739 9f3e 0b7e 893e
00000310: 1447 7fbe 16af 9f3d bdbd 81bd 157a 6d3d
00000320: 90b8 bdbc 3ce5 823e ec80 b93e a031 193e
00000330: ad78 2f3e 72ad 583e f203 543e 8b0f 6b3e
00000340: 37f7 e1ba 67d6 f3bd 4932 8abe d698 24be
00000350: 9abf 8d3d 5b5c a4be 697a 30be c320 813e
00000360: 890a cbbd db90 453e dfda 8dbe 3de9 473e
00000370: 9d69 f9bd e2f2 8d3c 3366 8b3e 809e acbd
00000380: 5b2f 3f3e 7762 6ebd 7832 1a3f 7b78 38be
00000390: a876 17bf 3f26 e7bd 3313 a03d 2858 c23e
000003a0: 6f18 72be ac0b 2abf 9d91 5b3e d3ab 6ebe
000003b0: b105 42be 6a41 2d3d e327 2d3d 2b7d 04bf
000003c0: 2cf1 c9bd 34c3 b4be 24c4 223f 29a5 e33e
000003d0: 8006 02bf 6d2b d63e b49d 44be cb08 d9be
000003e0: 8261 083e d35f ef3e 454c 45bf 1478 ac3e
000003f0: 7cdd fbbe 2455 c7be d7af 283f dbfd d6be
-0.081666864 0.5298643 0.28150514 -0.022676332 -0.5113011 0.16805868 0.56628436 0.4269342
-0.39080644 0.4587717 0.44129997 0.65016747 -0.16598557 0.31579855 -0.59267634 -0.027291467
-0.40101844 -0.32364878 0.1649678 -0.5253299 0.5495123 0.5653203 -0.22430274 0.31548175
-0.12609926 -0.0059362585 -0.2795458 -0.006867102 0.15403457 -0.35947198 -0.1586929 0.14567298
0.017076299 -0.15334705 -0.18125999 -0.012046463 -0.1653958 0.23193845 0.20046252 -0.25670058
-0.09553107 -0.07427336 -0.016137583 0.09360315 0.2503814 -0.20350227 0.10829271 0.2798105
0.08653785 -0.1339804 -0.10041559 0.18393093 0.18569267 -0.23434883 0.21691523 0.24726298
-0.28067768 -0.18186598 0.1665539 -0.02342682 0.2466171 0.22488411 -0.22139935 -0.30677608
0.059815615 0.0051150527 0.43529606 0.36434823 -0.09113414 0.108799964 0.32190275 -0.5078098
0.017872212 0.030824754 0.5026511 0.2063997 0.2774564 -0.31494358 -0.12028907 -0.21802312
-0.45108825 -0.28060395 0.03218068 0.24636687 -0.040791657 -0.27517605 0.41796747 -0.3008104
0.41229507 -0.27512804 0.37321293 -0.47837478 -0.472429 -0.29761162 -0.46243772 0.07937051
-0.22149701 0.09163478 -0.30504423 -0.25331602 -0.07978577 -0.12046251 0.17428944 -0.5128873
0.29496896 0.33514056 -0.52110595 0.36424315 0.26193163 0.3242696 0.26812705 -0.13038889
-0.2942829 0.19910727 -0.023699312 0.41435996 0.4663206 0.040141363 0.52254945 0.29727605
-0.36370286 0.12751932 0.05913369 -0.3503298 0.21061374 0.41760603 0.17718533 -0.4461922
0.31855053 0.3369769 -0.16492642 -0.07603494 0.36118582 -0.21827507 -0.23649243 -0.1889853
0.15328804 -0.14309055 -0.22521959 0.5069153 0.056887608 -0.13423195 0.4487154 0.17804232
-0.28661296 0.07788127 -0.1617196 0.1686568 0.5540553 0.5966958 0.104502864 0.010848544
0.60558665 -0.40156695 0.041497994 0.61981285 -0.030881038 0.37601057 -0.32304037 -0.25227514
0.3045007 -0.33607274 -0.42143342 0.23685418 0.14197783 -0.4237154 -0.087136395 -0.0025378747
-0.29887894 0.084579505 0.4207745 0.37372395 -0.14123195 0.015851816 -0.13420661 0.21190935
-0.25730264 0.4835009 -0.37883794 -0.46386093 -0.2092108 0.30941504 0.11919981 -0.007203706
0.107442684 0.036940478 -0.36731315 0.11666934 0.5222068 -0.05940973 0.4512494 0.28785622
0.10643314 -0.032024574 0.3109853 0.26853976 -0.24929458 0.07797067 -0.06335018 0.057977755
-0.023159295 0.25565517 0.36231172 0.14960337 0.17135878 0.21159914 0.2070463 0.22955148
-0.0017239813 -0.119061284 -0.2699149 -0.16073927 0.06921311 -0.32101712 -0.17234196 0.25220308
-0.09914119 0.19293539 -0.27706048 0.19522567 -0.12178347 0.01732773 0.2722641 -0.08428669
0.18670408 -0.058199372 0.6023326 -0.1801471 -0.5916543 -0.11286592 0.07816162 0.37957883
-0.23642133 -0.6642406 0.21442266 -0.23307733 -0.18947484 0.04229871 0.042274367 -0.5175349
-0.09860453 -0.35305178 0.63580537 0.44461945 -0.5079117 0.41830006 -0.19200784 -0.4238952
0.13318446 0.46752796 -0.77069503 0.33685362 -0.49192417 -0.38932145 0.6589331 -0.4199055

sequential/conv2d_2/Conv2D f4 [256, 1, 1, 256]
00000000: 4c5f 553c 9ff0 143e f54f 20be ac0c 0a3d
00000010: 4ef6 9e3c 27c1 c13d 4f18 573d 1924 543d
00000020: 1d08 273d e2aa 1ebd 33ca 3b3d 7009 4b3b
00000030: 88b9 f73d afa0 293e 6a70 4bbe 31fe 2d3c
00000040: 456f 733e 02f8 efba 5078 043e 48cb 05be
00000050: 959f 81bd 8561 cbbd 1f02 8ebc f6d7 0e3e
00000060: 5fab a9bd 17b7 f23c b3a2 b43d 1a82 523c
00000070: 02e6 cdbc 807e f33d dc18 ef3d 6649 b73d
00000080: b601 f0bd bf3a 3f3e ab67 bfbc c7ee a6bc
00000090: c717 e13c 0ab4 a13d c8ff 273e 89c0 febb
000000a0: cfcd 633d dac5 b9bd 00bb 1bbe 6b7a 76bb
000000b0: c01d f8bc 1801 afbd 58b2 ba3d 8a48 34be
000000c0: 7bda 72bd 1442 dc3d a110 5a3d a35b ebbd
000000d0: c168 26be 67d4 97bd 5a45 03bd a9d6 b03d
000000e0: b61d b13d 63c8 eb3d d897 5bbe f7ed 5bbd
000000f0: 3bd7 083e b7f4 233e 78fd 293e 3877 c13d
00000100: 5b4e d13d ab11 96bd a7a4 983d 7987 d23d
00000110: a9e1 c63d 2550 433d 29e4 f73c 0d32 dfbd
00000120: 11d2 9bbd 8f7f 133e 633c 16bd 9660 53bd
00000130: 09f2 533e 224d 3abe 05a7 10bc 88b1 a83d
00000140: a9fa 52be 4524 b6bd e90f 23be 2f90 03bd
00000150: 4490 fdbd 5b55 f7bd c3a1 453e 02ac d53d
00000160: b7e4 13be 8e71 a73d b7a6 1dbe 570a bc3d
00000170: a18e 63bc ac30 d93d 84cc 15bd 135f 113e
00000180: 6bf5 303e 232b 28be 69cf 423e 28a4 343e
00000190: 0a52 713d 244f 12be 0049 16be 6f36 e83d
000001a0: d3fb 823d df46 813d 7646 033e fbaa 1d3e
000001b0: 43f4 07be 3733 0abe bfff e83d edf5 58bd
000001c0: 01ea f0bd 86c8 5f3d 4486 923d 829c e7bc
000001d0: dff5 01be 09e8 193e c994 c53c a525 41be
000001e0: ea42 fbbd c3fd 47bb cd16 8d3d 442e 35bc
000001f0: cea5 a3bd 89a4 073e c36f 6bbe 12ca 54be
00000200: 4843 81bd 4e3f ed3d ca97 3abe 2183 313e
00000210: 1ede eb3d 8c96 97bc 9f77 4cbe 0458 fc39
00000220: 13a0 dfbd 5d9e cfbd 9de6 86bd 01f3 993d
00000230: 4699 c63d 0b4b ddbd ee59 adbd 8cb9 063d
00000240: f2dd 5f3e 0d11 48be 6458 0a3e 2740 e1bd
00000250: 2a4d 0f3e 87bb b1bd d6bc 44be 2148 6dbe
00000260: 3bb4 fcbb d34c a23d fe66 3d3e 9c2e b13c
00000270: 87d9 b5bd c5a3 22be f150 dc3b 664c 08be
00000280: 63e5 f1bc 8349 1cbd b6ba b7bd 4a6b c23d
00000290: 11c8 5c3d 3c2c e13d 68e1 2e3e 16e5 1bbd
000002a0: f240 3fbc acfb d7bd 3efd ac3d 9e47 023b
000002b0: e74f 08be e391 e03c 0ccd 373e 9755 283c
000002c0: b072 553d 5477 0a3e 3a03 e6bd 67b2 32be
000002d0: 4af3 a33c cc12 09be 21a7 0c3c 1cc5 0c3e
000002e0: f0a2 123d b59a a73b 25fb a6bd 6aac 14bc
000002f0: 11c8 0bbe 3547 c7bd 9d36 073e 7d62 6ebd
00000300: 7b70 32bd 4e0b 61bc 47a9 253e d7b1 4d3e
00000310: 0f7d 893c 7aca 213e 2128 21bc 31cb 3dbe
00000320: 4f66 e7bd 4a35 8f3d 6b0d 183d 707c 433e
00000330: 29fd 383c 41ed aebd a467 343d d886 473e
00000340: 3340 c5bd 8b17 153e 9fd1 583d 3a7e 89bb
00000350: 165d 40bd be35 d5bd 95af 2cbe 4fae f23d
00000360: 062b b83d 600c c83d b444 9a3d 594f c8bd
00000370: c53e 273d 9f8d 11be 6574 a2bd 005d 45bd
00000380: 706d 023e c0bc 99bc db62 ab3d 4d05 3f3e
00000390: 89a9 03bd 77fd 033e c8c1 613e 7d48 11bd
000003a0: 5c71 f23d 63c0 10be 8d71 053e 5297 093e
000003b0: 2b76 b63d 2566 03be 9156 ffbd 633f eb3d
000003c0: 38a6 b4bd 5b4a c93d 7ed9 31be 42ce c43d
000003d0: 2088 3d3e f3c2 cb3d 7de9 f4bc febc ed3d
000003e0: ca3f bdbd 8bad de3d efc8 f4bd 35ae e1bd
000003f0: ae87 0abe 9708 85bd 1c52 67be 49de 2dbe
0.013023209 0.14544915 -0.15655501 0.03370349 0.019404557 0.09460669 0.052513417 0.051792238
0.04077922 -0.038737185 0.04584713 0.0030980967 0.12095934 0.16565202 -0.19867101 0.010619686
0.23772915 -0.0018308165 0.1293652 -0.13065827 -0.06329266 -0.0993071 -0.017334996 0.1394957
-0.082846396 0.02962832 0.08820095 0.012848401 -0.02513409 0.11889362 0.116746634 0.089495465
-0.11719076 0.18674754 -0.023364862 -0.02037753 0.027477158 0.07895668 0.16406167 -0.007774417
0.055616196 -0.0907094 -0.15208054 -0.0037609588 -0.030287623 -0.085451305 0.091160476 -0.17605796
-0.05929039 0.10754791 0.053238515 -0.11492088 -0.16250898 -0.074135594 -0.03204856 0.08634693
0.08648245 0.1151283 -0.21444643 -0.053693738 0.13363354 0.1601132 0.16600597 0.09446567
0.10220023 -0.07327589 0.0745328 0.102797456 0.0971101 0.047683854 0.030260162 -0.10898218
-0.07608426 0.14404128 -0.036678683 -0.051605783 0.20697798 -0.18193486 -0.008828883 0.082369864
-0.20603432 -0.088936366 -0.15924038 -0.032119926 -0.12381032 -0.12076827 0.19299988 0.104331985
-0.14442717 0.08175956 -0.15395628 0.0918166 -0.013888986 0.106049865 -0.036571994 0.14196424
0.1728112 -0.16422705 0.19024433 0.17640746 0.05891613 -0.14288002 -0.14676285 0.113385074
0.06395688 0.06312346 0.12819847 0.15397255 -0.13276772 -0.134961 0.11376905 -0.052968908
-0.11763383 0.054634593 0.071545154 -0.02827287 -0.12691449 0.1502992 0.024118798 -0.18862016
-0.12268622 -0.0030516244 0.068891145 -0.011058394 -0.07990609 0.13246359 -0.22991852 -0.20780209
-0.06311661 0.1158434 -0.18221965 0.17335178 0.11516975 -0.018504404 -0.19967507 0.00048130762
-0.109192036 -0.10137627 -0.06586955 0.075170524 0.09697203 -0.10805329 -0.08464418 0.032891795
0.21862009 -0.19537754 0.13510281 -0.10998564 0.1399428 -0.08678346 -0.1921266 -0.23172046
-0.007711915 0.07924809 0.1849632 0.02162867 -0.08879381 -0.15882786 0.006723516 -0.13310394
-0.029528325 -0.038156044 -0.08971159 0.0949312 0.053901736 0.10994765 0.17078173 -0.03806027
-0.011673199 -0.105460495 0.084467396 0.0019879113 -0.1331173 0.027413314 0.17949313 0.010274312
0.052111328 0.13522083 -0.11231084 -0.17450868 0.02001347 -0.13386077 0.0085847685 0.13747066
0.03579992 0.005114878 -0.08153371 -0.00907431 -0.13650538 -0.097303785 0.13204427 -0.058199394
-0.0435643 -0.013735605 0.16177855 0.20087372 0.016783265 0.15799895 -0.009836228 -0.18534543
-0.11298811 0.06992586 0.03712217 0.19090438 0.011290827 -0.08541346 0.044044152 0.19485033
-0.09631386 0.14559762 0.052934285 -0.0041959556 -0.046963774 -0.10410641 -0.16863854 0.11849653
0.08992581 0.09767985 0.07532635 -0.09780759 0.040831346 -0.1421418 -0.07932357 -0.048184395
0.1273706 -0.01876676 0.083684646 0.18654366 -0.032144103 0.12889658 0.22046578 -0.03546952
0.11838028 -0.1413589 0.13031597 0.1343663 0.089092575 -0.12831934 -0.12467683 0.114866994
-0.08820766 0.09828635 -0.17368123 0.09609653 0.18508959 0.09949293 -0.029896492 0.11608313
-0.092406824 0.108729444 -0.119523875 -0.110195555 -0.1352832 -0.06495779 -0.22589916 -0.16979326

sequential/batch_normalization_1/FusedBatchNormV3;sequential/depthwise_conv2d/depthwise f4 [1, 3, 3, 32]
00000000: 078d 583e 8bcf 14be ebf9 e9be b3b7 643e
00000010: 5e5d 873e 6f28 dabe 6f46 75bf cf56 02bf
00000020: 3fc5 cabe 2c54 fc3d 2afc 40bf 8e31 393f
00000030: 4258 bebe 806b afbf a723 a83f 2b0a 38bf
00000040: 259f 98be 1cc0 80bf c450 e8bd 6a57 77bf
00000050: 8e09 16be 234b ddbe 7e31 2b3f 96ba ab3e
00000060: 7592 ebbd 5176 303f f09e 48bf 3960 39bf
00000070: b528 903e 7756 6f3f a900 9e3f 17b0 183f
00000080: b76b f73e 3429 8a3d d855 003e 47a7 8e3f
00000090: e9da b2bf 5872 e33e 9625 8dbf 98b5 073f
000000a0: 6b6c c7be ed82 623f cd87 243f 46e0 893f
000000b0: 36a1 c6bd f2cc 85bf ce99 9a3e c149 1e3f
000000c0: aaa4 093f 90e8 debe dc9f 343e 96a8 853f
000000d0: a9a9 94be bef0 a3be 2e27 82bf 9a4c 203f
000000e0: 78ee 033c 8bf7 713f d4ad ecbe c94c c3be
000000f0: 3ec0 993f 0b19 753e 5983 363f 6c60 f63d
00000100: d58a 3a3f ea65 8dbe 60b0 f13c f97e ecbe
00000110: d6f9 ae3e 3b58 97be 156c 3cbf 0c1a f33e
00000120: af5d 003f f233 61bf 95df 453f 7e01 7e3e
00000130: 3ca4 903d 1e44 37bf 8433 05be 7652 1a3f
00000140: a518 3a3f 65db c5be 2980 6b3f e414 113f
00000150: ad7b 19be 439c b6be 52fb 45bf 2ac8 1bbf
00000160: 77aa fd3e 123c 8ebf 20aa 6cbe 086d adbf
00000170: 61b8 54bf 4f51 db3e 4e52 2a3f 622d 293f
00000180: 0212 d73d 52ea a33d 2cc0 71be d3dd 963e
00000190: 0b0e 95be fce8 aebe 927f 4cbe c349 05bf
000001a0: 287c 05bf 7b28 153f 2e54 b53e 24c8 d33e
000001b0: ab2b a83e 54c4 b23f 6a82 2d3f 5c3d af3e
000001c0: 3251 7e3e 208a 04bf cba6 9c3e 47ef 033f
000001d0: 0cde fcbe cac2 85be fa71 7f3f 404b f3be
000001e0: 7438 77bf 0d81 34bf e9d0 c13e 94b7 393f
000001f0: 561c ee3f 1bf3 493d f2bc 21bf 717e 843e
00000200: 0ed2 903e bbe9 fc3e 83f7 04bf b214 5d3f
00000210: 15ee 8b3f 41d5 8f3e c050 553e 9a53 a0be
00000220: 130a 5dbf ea01 2abf a2fd 753f a013 4ebf
00000230: 6084 a3be c677 09bf cef4 86bf 4714 1e3e
00000240: 38ab b0be 5961 f93e b33e 3d3e f405 bcbf
00000250: c90f c3be d3ee 2fbf 7da8 df3f cde3 c83e
00000260: e9ef 78bf 6522 6a3e 569b 5ebc 39b6 81bf
00000270: 4cf2 a0bf b4c6 4dbf 1f62 d7be 36d7 683d
00000280: ded1 9b3e 2b7b 4c3f 253f f3bc b910 893f
00000290: 0bf7 d63e b9e0 f2be b3ca 01be 4888 ca3e
000002a0: d85f 08bf 0325 653f 49af 993d 1b76 223f
000002b0: 2102 b5be 3c61 2e3f deb0 38bf 20d2 5c3f
000002c0: 59ac 493f 1e67 3dbf 6510 3d3f 0edc a7bc
000002d0: 5a99 c8be 36e5 9e3e 8806 4fbe 27c6 c4be
000002e0: fe7e 483f 720b d5be 4389 7dbe 9692 9b3f
000002f0: a4db c0bf 9e74 89bf d3ec 30bf 82c8 e9bd
00000300: d9d9 323e 3a96 8a3d 4416 c6be d881 8dbe
00000310: 96c9 733e 77cc 0fbf 9f7b 6b3f 0cc1 c5be
00000320: 48b8 1e3f ff76 693f d18e d0be 66f1 b43f
00000330: bf39 b9be 9fc7 4bbf b85b 5d3f cf5d 3f3f
00000340: 7bdc 9dbe 782a 023f 1a0f 083f e095 fcbf
00000350: 8a9f babe 5098 733e 639b 46bf 0a20 2a3f
00000360: 5e0e 733f 8558 a3be 83d0 41bf d9f8 56be
00000370: 670a 32bf 699c 25bf c813 8b3d e94b 49bc
00000380: b916 55bf 5229 b63e b754 f1be f440 92bd
00000390: 72dc b2bf 16a4 f1be 7512 543f f0b5 d5be
000003a0: d58f bc3d 9847 2f36 c35e 513f 2b69 94bf
000003b0: bc07 b3be cc76 a03e 85a4 1b3f 57c7 783f
000003c0: 9954 edbe 623b 46bf f3f4 cfbe 709d a93f
000003d0: 14dd 03bf efd6 47bf a3b3 54bf 71fb 963f
000003e0: fcfb 873e 8506 e6bd 2ad6 b0be 5f11 d73f
000003f0: 3c0e ca3e 6a5f 42be b559 f23c 44cd 923e
0.21147548 -0.14532296 -0.45698485 0.223357 0.2643842 -0.42608973 -0.958106 -0.5091371
-0.39603612 0.12320742 -0.7538477 0.7234124 -0.3717671 -1.3704681 1.313588 -0.71890515
-0.29808918 -1.0058627 -0.1134353 -0.9661776 -0.14652082 -0.43221387 0.66872394 0.3354079
-0.11502544 0.68930537 -0.7836752 -0.7241245 0.28156057 0.9349131 1.2343951 0.5964369
0.48324367 0.0674614 0.12532747 1.1144799 -1.3973056 0.44423175 -1.1027095 0.53011465
-0.38949904 0.88481027 0.64269716 1.0771568 -0.09698717 -1.0453169 0.3019547 0.6183129
0.5376688 -0.43536806 0.17639107 1.0442073 -0.2903569 -0.3201961 -1.0168207 0.62616885
0.008052461 0.94518346 -0.4622637 -0.3814452 1.2011793 0.23935334 0.7129417 0.1203011
0.7286809 -0.27616817 0.029503047 -0.46190622 0.34174985 -0.29559502 -0.7360242 0.4748081
0.5014295 -0.8796989 0.77294284 0.24805257 0.07062575 -0.71588314 -0.13007933 0.60282075
0.72693855 -0.38643947 0.9199243 0.566725 -0.14988585 -0.35666093 -0.7733661 -0.608523
0.49544117 -1.1112082 -0.23111773 -1.3548899 -0.8309384 0.4283547 0.66531837 0.66084874
0.105014816 0.080036774 -0.23608464 0.29466113 -0.29112276 -0.34162128 -0.19970539 -0.52065676
-0.5214257 0.58264893 0.35415787 0.41363633 0.32845816 1.3966165 0.6777712 0.342265
0.24835661 -0.5177326 0.30596003 0.51536983 -0.49388158 -0.26125175 0.9978329 -0.4751835
-0.96570516 -0.70509416 0.37854698 0.72545743 1.8602397 0.04930411 -0.6317893 0.25877717
0.2828526 0.49397072 -0.5194017 0.86359704 1.0932032 0.28092387 0.20831585 -0.31313783
-0.863435 -0.6640917 0.9609014 -0.80498695 -0.31936932 -0.53698385 -1.0543458 0.15437423
-0.3450563 0.48707083 0.18480949 -1.4689317 -0.3809798 -0.6872379 1.7473294 0.39236298
-0.97241074 0.22864683 -0.01358684 -1.0133735 -1.2573943 -0.8038132 -0.42067048 0.056845866
0.30433553 0.7987544 -0.029693196 1.0708228 0.41985354 -0.47437075 -0.1267498 0.395571
-0.53271246 0.895096 0.07504136 0.63461465 -0.35353187 0.6811712 -0.7214488 0.86258125
0.78778607 -0.7398547 0.7385314 -0.020490672 -0.39179498 0.3103425 -0.20217335 -0.38432428
0.78318775 -0.41610295 -0.24759392 1.215411 -1.5067029 -1.0738714 -0.69111365 -0.11415197
0.17465915 0.06766935 -0.38688862 -0.27638125 0.23807368 -0.56171364 0.91985506 -0.38623846
0.6199994 0.911972 -0.4073396 1.4136169 -0.3617687 -0.7960147 0.86468077 0.74752516
-0.30832276 0.5084605 0.53148043 -1.9733238 -0.36449844 0.23788571 -0.7758085 0.6645514
0.949438 -0.31903473 -0.7570879 -0.20993365 -0.6954712 -0.6469179 0.06790882 -0.012286165
-0.832378 0.355784 -0.47134945 -0.07141295 -1.3973525 -0.471955 0.82840663 -0.4174037
0.09207121 2.6118705e-06 0.8178522 -1.1594595 -0.34966838 0.31340635 0.6079791 0.9717917
-0.46353605 -0.7743436 -0.4061657 1.3251171 -0.51509213 -0.7806234 -0.83086604 1.1795484
0.26559436 -0.11231712 -0.34538394 1.6802176 0.39463985 -0.1898171 0.029583791 0.2867223
