TRAINED_MODELS/ds_cnn/ds_cnn_gray_correct/ds_cnn_gray_32_quant.tflite (tflite, 112576 bytes, 6 tensors)

sequential/dense/MatMul i1 [2, 256] scale=0.0016888998 zero_point=0
000000 18 c7 63 5a e8 5e 4c a2 22 f4 d2 f6 37 f9 6a c8
       0.040533595 -0.09626729 0.16720109 0.15200098 -0.040533595 0.15875658 0.12835638 -0.15875658 0.057422593 -0.020266797 -0.077689394 -0.016888998 0.09288949 -0.011822299 0.17902339 -0.09457839
000010 3e 08 6a cb 1d 56 36 38 68 af dc 31 13 d7 b0 e4
       0.104711786 0.013511199 0.17902339 -0.08951169 0.048978094 0.14524539 0.09120059 0.09457839 0.17564557 -0.13680089 -0.060800392 0.082756095 0.032089096 -0.06924489 -0.13511199 -0.047289196
000020 f2 c3 09 1c a9 e9 05 32 d9 b1 d4 3c 20 9b 7a 19
       -0.023644598 -0.10302289 0.015200098 0.047289196 -0.14693429 -0.038844697 0.008444499 0.08444499 -0.065867096 -0.13342309 -0.07431159 0.10133399 0.054044794 -0.17057888 0.20604578 0.042222496
000030 dd 2a f8 d0 a5 1e e7 35 98 f2 c4 f6 08 ec 33 fe
       -0.059111495 0.07093379 -0.013511199 -0.08106719 -0.15368989 0.050666995 -0.042222496 0.08951169 -0.17564557 -0.023644598 -0.10133399 -0.016888998 0.013511199 -0.033777997 0.08613389 -0.0033777996
000040 e1 b3 3d 28 44 9b 5e 5c 28 30 09 12 9b 52 ed 40
       -0.052355893 -0.13004528 0.10302289 0.067555994 0.11484519 -0.17057888 0.15875658 0.15537879 0.067555994 0.08106719 0.015200098 0.030400196 -0.17057888 0.13848978 -0.032089096 0.10808959
000050 99 4a 07 20 ff 19 b2 43 9c ff c9 a4 d9 e1 b6 3e
       -0.17395668 0.12497859 0.011822299 0.054044794 -0.0016888998 0.042222496 -0.13173419 0.11315629 -0.16888998 -0.0016888998 -0.09288949 -0.15537879 -0.065867096 -0.052355893 -0.12497859 0.104711786
000060 be 00 be 3f 98 35 2c 2f 41 05 13 5c b7 5e 21 df
       -0.11146739 0.0 -0.11146739 0.10640069 -0.17564557 0.08951169 0.07431159 0.07937829 0.109778486 0.008444499 0.032089096 0.15537879 -0.12328969 0.15875658 0.055733696 -0.055733696
000070 37 4d 39 fc f5 63 2f 13 96 39 9a dd 30 1e fd c1
       0.09288949 0.13004528 0.09626729 -0.0067555993 -0.018577898 0.16720109 0.07937829 0.032089096 -0.17902339 0.09626729 -0.17226778 -0.059111495 0.08106719 0.050666995 -0.0050666993 -0.10640069
000080 5f 16 bb a0 4c 38 f1 bc 50 15 cd 50 b3 fd 09 18
       0.16044548 0.037155796 -0.116534084 -0.16213438 0.12835638 0.09457839 -0.025333498 -0.11484519 0.13511199 0.035466895 -0.08613389 0.13511199 -0.13004528 -0.0050666993 0.015200098 0.040533595
000090 62 04 cf e2 1f 1a e1 02 34 25 98 1d da 5c eb b3
       0.16551219 0.0067555993 -0.082756095 -0.050666995 0.052355893 0.043911394 -0.052355893 0.0033777996 0.08782279 0.062489294 -0.17564557 0.048978094 -0.06417819 0.15537879 -0.035466895 -0.13004528
0000a0 1a c7 9d de 5a a6 09 55 2c 60 ae 42 b6 72 0e a0
       0.043911394 -0.09626729 -0.16720109 -0.057422593 0.15200098 -0.15200098 0.015200098 0.14355649 0.07431159 0.16213438 -0.13848978 0.11146739 -0.12497859 0.19253458 0.023644598 -0.16213438
0000b0 c6 fa b1 c2 2d d3 4b f1 cb 14 59 35 35 42 38 3e
       -0.09795619 -0.010133399 -0.13342309 -0.104711786 0.07600049 -0.07600049 0.12666748 -0.025333498 -0.08951169 0.033777997 0.15031208 0.08951169 0.08951169 0.11146739 0.09457839 0.104711786
0000c0 26 a1 f8 ac 03 ae 45 5d 1a 1c bb e9 d6 3e 1f 63
       0.06417819 -0.16044548 -0.013511199 -0.14186758 0.0050666993 -0.13848978 0.116534084 0.15706769 0.043911394 0.047289196 -0.116534084 -0.038844697 -0.07093379 0.104711786 0.052355893 0.16720109
0000d0 25 62 4f 32 f8 61 65 b2 fd 0e 43 40 10 32 59 59
       0.062489294 0.16551219 0.13342309 0.08444499 -0.013511199 0.16382328 0.17057888 -0.13173419 -0.0050666993 0.023644598 0.11315629 0.10808959 0.027022397 0.08444499 0.15031208 0.15031208
0000e0 62 f1 e4 c0 20 38 de b8 f1 32 eb e5 12 b4 bf b0
       0.16551219 -0.025333498 -0.047289196 -0.10808959 0.054044794 0.09457839 -0.057422593 -0.121600784 -0.025333498 0.08444499 -0.035466895 -0.045600295 0.030400196 -0.12835638 -0.109778486 -0.13511199
0000f0 b8 4e d3 f5 56 93 9f 9f 23 c8 4d bc fc d1 d3 96
       -0.121600784 0.13173419 -0.07600049 -0.018577898 0.14524539 -0.18409008 -0.16382328 -0.16382328 0.059111495 -0.09457839 0.13004528 -0.11484519 -0.0067555993 -0.07937829 -0.07600049 -0.17902339

sequential/conv2d/Conv2D i1 [32, 2, 2, 1]
000000 8f 0d 7f 07 7f 3e 94 b0 cf 7f 4c ee d0 3e 81 9a
       -113 13 127 7 127 62 -108 -80 -49 127 76 -18 -48 62 -127 -102
000010 ce e0 7f 01 20 37 7f 42 e1 07 81 39 05 c7 7f d5
       -50 -32 127 1 32 55 127 66 -31 7 -127 57 5 -57 127 -43
000020 40 62 d8 7f cb 7f ee 3d 81 94 ba 06 81 92 b9 61
       64 98 -40 127 -53 127 -18 61 -127 -108 -70 6 -127 -110 -71 97
000030 84 36 f5 7f f8 81 f0 2b b1 3f 2d 81 64 0d 81 e2
       -124 54 -11 127 -8 -127 -16 43 -79 63 45 -127 100 13 -127 -30
000040 7f 4a ce 99 b2 dc 81 1f fd 7f c5 bd e3 b6 23 81
       127 74 -50 -103 -78 -36 -127 31 -3 127 -59 -67 -29 -74 35 -127
000050 06 ce 7f b1 cf 7b 81 a7 7f 49 35 d2 d5 f9 39 81
       6 -50 127 -79 -49 123 -127 -89 127 73 53 -46 -43 -7 57 -127
000060 df 7f 64 b5 0d fc a2 7f 81 e1 b8 e5 55 7f 5d 0f
       -33 127 100 -75 13 -4 -94 127 -127 -31 -72 -27 85 127 93 15
000070 c7 4c 81 a5 e5 7f 5d 97 7f 0c 4e 42 81 79 72 2b
       -57 76 -127 -91 -27 127 93 -105 127 12 78 66 -127 121 114 43

sequential/conv2d_1/Conv2D i1 [256, 1, 1, 32]
000000 f0 68 37 fc 9c 21 6f 53 b4 5a 56 7f e0 3e 8c fb
       -16 104 55 -4 -100 33 111 83 -76 90 86 127 -32 62 -116 -5
000010 b2 c1 20 99 6b 6e d4 3e e7 ff c9 ff 1e ba e1 1c
       -78 -63 32 -103 107 110 -44 62 -25 -1 -55 -1 30 -70 -31 28
000020 07 c1 b5 fb bc 60 53 96 d8 e1 f9 27 68 ac 2d 74
       7 -63 -75 -5 -68 96 83 -106 -40 -31 -7 39 104 -84 45 116
000030 24 c9 d6 4c 4d 9f 5a 66 8c b5 45 f6 66 5d a4 81
       36 -55 -42 76 77 -97 90 102 -116 -75 69 -10 102 93 -92 -127
000040 0f 01 6d 5b e9 1b 51 81 04 08 7e 34 45 b1 e2 c9
       15 1 109 91 -23 27 81 -127 4 8 126 52 69 -79 -30 -55
000050 8f ba 08 3e f6 bb 69 b5 67 bb 5d 88 8a b6 8c 14
       -113 -70 8 62 -10 -69 105 -75 103 -69 93 -120 -118 -74 -116 20
000060 ca 16 b6 c2 ed e3 2a 83 48 51 81 59 40 4f 41 e0
       -54 22 -74 -62 -19 -29 42 -125 72 81 -127 89 64 79 65 -32
000070 b8 30 fa 65 71 0a 7f 48 a8 1f 0e ab 33 65 2b 94
       -72 48 -6 101 113 10 127 72 -88 31 14 -85 51 101 43 -108
000080 41 45 de f0 4a d3 d0 d9 1f e3 d2 68 0c e4 5c 24
       65 69 -34 -16 74 -45 -48 -39 31 -29 -46 104 12 -28 92 36
000090 c5 10 df 23 72 7a 15 02 7c ae 09 7f fa 4d be cc
       -59 16 -33 35 114 122 21 2 124 -82 9 127 -6 77 -66 -52
0000a0 4a ae 9a 3a 23 99 eb ff b7 15 66 5b de 04 df 34
       74 -82 -102 58 35 -103 -21 -1 -73 21 102 91 -34 4 -33 52
0000b0 c1 76 a4 8f cd 4b 1d fe 1a 09 a7 1c 7f f2 6e 46
       -63 118 -92 -113 -51 75 29 -2 26 9 -89 28 127 -14 110 70
0000c0 25 f5 6d 5e a9 1b ea 14 f8 5a 7f 34 3c 4a 49 50
       37 -11 109 94 -87 27 -22 20 -8 90 127 52 60 74 73 80
0000d0 ff d6 a1 c8 18 8f c4 58 dd 44 9f 44 d5 06 5f e2
       -1 -42 -95 -56 24 -113 -60 88 -35 68 -97 68 -43 6 95 -30
0000e0 1f f6 63 e2 9f ed 0d 3f d9 93 23 da e1 07 07 ab
       31 -10 99 -30 -97 -19 13 63 -39 -109 35 -38 -31 7 7 -85
0000f0 f0 c6 69 49 ac 45 e0 ba 16 4d 81 38 af c0 6d bb
       -16 -58 105 73 -84 69 -32 -70 22 77 -127 56 -81 -64 109 -69

sequential/conv2d_2/Conv2D i1 [256, 1, 1, 256]
000000 07 4e ac 12 0a 33 1c 1c 16 eb 18 02 41 58 96 06
       7 78 -84 18 10 51 28 28 22 -21 24 2 65 88 -106 6
000010 7f ff 45 ba de cb f7 4b d4 10 2f 07 f3 40 3e 30
       127 -1 69 -70 -34 -53 -9 75 -44 16 47 7 -13 64 62 48
000020 c1 64 f4 f5 0f 2a 58 fc 1e d0 af fe f0 d2 31 a2
       -63 100 -12 -11 15 42 88 -4 30 -48 -81 -2 -16 -46 49 -94
000030 e0 39 1c c3 a9 d8 ef 2e 2e 3e 8d e3 47 56 59 32
       -32 57 28 -61 -87 -40 -17 46 46 62 -115 -29 71 86 89 50
000040 37 d9 28 37 34 19 10 c6 d7 4d ec e4 6f 9f fb 2c
       55 -39 40 55 52 25 16 -58 -41 77 -20 -28 111 -97 -5 44
000050 92 d0 ab ef be bf 67 38 b3 2c ae 31 f9 39 ec 4c
       -110 -48 -85 -17 -66 -65 103 56 -77 44 -82 49 -7 57 -20 76
000060 5c a8 66 5e 1f b4 b2 3d 22 22 44 52 b9 b8 3d e4
       92 -88 102 94 31 -76 -78 61 34 34 68 82 -71 -72 61 -28
000070 c1 1d 26 f1 bc 50 0d 9b be fe 25 fa d5 47 85 91
       -63 29 38 -15 -68 80 13 -101 -66 -2 37 -6 -43 71 -123 -111
000080 de 3e 9f 5d 3e f6 95 00 c6 ca dd 28 34 c6 d3 12
       -34 62 -97 93 62 -10 -107 0 -58 -54 -35 40 52 -58 -45 18
000090 75 98 48 c5 4b d2 99 84 fc 2a 63 0c d1 ab 04 b9
       117 -104 72 -59 75 -46 -103 -124 -4 42 99 12 -47 -85 4 -71
0000a0 f0 ec d0 33 1d 3b 5b ec fa c8 2d 01 b9 0f 60 05
       -16 -20 -48 51 29 59 91 -20 -6 -56 45 1 -71 15 96 5
0000b0 1c 48 c4 a3 0b b8 05 49 13 03 d4 fb b7 cc 47 e1
       28 72 -60 -93 11 -72 5 73 19 3 -44 -5 -73 -52 71 -31
0000c0 e9 f9 56 6b 09 54 fb 9d c4 25 14 66 06 d2 18 68
       -23 -7 86 107 9 84 -5 -99 -60 37 20 102 6 -46 24 104
0000d0 cd 4e 1c fe e7 c8 a6 3f 30 34 28 cc 16 b4 d6 e6
       -51 78 28 -2 -25 -56 -90 63 48 52 40 -52 22 -76 -42 -26
0000e0 44 f6 2d 64 ef 45 76 ed 3f b4 46 48 30 bb bd 3d
       68 -10 45 100 -17 69 118 -19 63 -76 70 72 48 -69 -67 61
0000f0 d1 35 a3 33 63 35 f0 3e cf 3a c0 c5 b8 dd 87 a5
       -47 53 -93 51 99 53 -16 62 -49 58 -64 -59 -72 -35 -121 -91

sequential/batch_normalization_1/FusedBatchNormV3;sequential/depthwise_conv2d/depthwise i1 [1, 3, 3, 32]
000000 20 e9 90 19 18 a0 92 86 c7 11 9c 41 c6 83 7f a2
       32 -23 -112 25 24 -96 -110 -122 -57 17 -100 65 -58 -125 127 -94
000010 d0 81 f0 c2 dc ba 31 24 f1 4f 81 c9 13 6f 7f 73
       -48 -127 -16 -62 -36 -70 49 36 -15 79 -127 -55 19 111 127 115
000020 4a 0b 1f 7f 81 64 81 7f c8 78 55 61 f1 a1 1d 51
       74 11 31 127 -127 100 -127 127 -56 120 85 97 -15 -95 29 81
000030 57 c9 18 43 b8 cc b6 43 01 6c b5 e3 52 1c 49 17
       87 -55 24 67 -72 -52 -74 67 1 108 -75 -29 82 28 73 23
000040 6f d4 07 cb 1f bd ab 72 48 89 66 16 0b bf f3 4f
       111 -44 7 -53 31 -67 -85 114 72 -119 102 22 11 -65 -13 79
000050 75 cf 7f 24 db c6 c8 be 41 81 db 9a c7 33 44 7f
       117 -49 127 36 -37 -58 -56 -66 65 -127 -37 -102 -57 51 68 127
000060 10 0d c6 22 e6 b3 e9 83 b5 4f 2f 25 33 7f 42 2d
       16 13 -58 34 -26 -77 -23 -125 -75 79 47 37 51 127 66 45
000070 28 bf 2a 21 86 d5 49 cd 82 af 3d 37 7f 06 bf 32
       40 -65 42 33 -122 -43 73 -51 -126 -81 61 55 127 6 -65 50
000080 2b 4f 81 62 63 40 18 b5 83 a6 7f b8 ce cf 9a 14
       43 79 -127 98 99 64 24 -75 -125 -90 127 -72 -50 -49 -102 20
000090 c8 3d 1a a1 a2 90 7f 2a 81 1a fe b3 aa a1 d5 0b
       -56 61 26 -95 -94 -112 127 42 -127 26 -2 -77 -86 -95 -43 11
0000a0 2e 7f f9 7a 26 95 f1 5f b3 7a 0a 39 c9 3e ba 71
       46 127 -7 122 38 -107 -15 95 -77 122 10 57 -55 62 -70 113
0000b0 7f a3 66 ff 9f 32 f1 d7 66 d0 d8 5c 99 81 b9 ea
       127 -93 102 -1 -97 50 -15 -41 102 -48 -40 92 -103 -127 -71 -22
0000c0 1b 0b a1 e1 16 81 6a a3 59 7c ca 7f c7 b8 54 62
       27 11 -95 -31 22 -127 106 -93 89 124 -54 127 -57 -72 84 98
0000d0 ce 40 49 81 a6 27 c8 48 7c dc 85 f0 d1 b3 07 fe
       -50 64 73 -127 -90 39 -56 72 124 -36 -123 -16 -47 -77 7 -2
0000e0 81 39 8d f8 81 95 5f 9c 0d 00 6c 98 c9 1c 3b 7f
       -127 57 -115 -8 -127 -107 95 -100 13 0 108 -104 -55 28 59 127
0000f0 b5 9e c8 55 81 81 c4 7f 23 f3 c8 7f 1b ea 03 37
       -75 -98 -56 85 -127 -127 -60 127 35 -13 -56 127 27 -22 3 55

sequential/batch_normalization_3/FusedBatchNormV3;sequential/depthwise_conv2d_1/depthwise;sequential/conv2d_2/Conv2D i1 [1, 3, 3, 256]
000000 ac d8 0b 00 42 ff b4 37 a2 df 09 ba 81 b6 94 1a
       -84 -40 11 0 66 -1 -76 55 -94 -33 9 -70 -127 -74 -108 26
000010 41 90 3b 81 e7 8b b4 04 e0 70 fb 48 e9 41 70 81
       65 -112 59 -127 -25 -117 -76 4 -32 112 -5 72 -23 65 112 -127
000020 7f 56 3f fc b1 5f 6e d3 f5 05 d6 22 d0 15 63 21
       127 86 63 -4 -79 95 110 -45 -11 5 -42 34 -48 21 99 33
000030 fd 7b 31 52 d2 02 a1 38 46 a3 fd 23 77 81 e7 18
       -3 123 49 82 -46 2 -95 56 70 -93 -3 35 119 -127 -25 24
000040 7f 69 81 d7 fa 82 ec 7f 08 dc dc 37 c5 a3 c5 d2
       127 105 -127 -41 -6 -126 -20 127 8 -36 -36 55 -59 -93 -59 -46
000050 81 2d 27 1f a6 53 8c 7f 90 a3 3b 69 17 f9 fc 8e
       -127 45 39 31 -90 83 -116 127 -112 -93 59 105 23 -7 -4 -114
000060 57 12 01 28 58 66 a9 0e 43 42 d4 12 15 db 3d 81
       87 18 1 40 88 102 -87 14 67 66 -44 18 21 -37 61 -127
000070 16 81 23 08 7f e9 04 64 38 20 86 22 06 48 21 8b
       22 -127 35 8 127 -23 4 100 56 32 -122 34 6 72 33 -117
000080 37 b9 5d cd 25 0c e4 81 1f a4 53 d3 cd 50 64 f2
       55 -71 93 -51 37 12 -28 -127 31 -92 83 -45 -51 80 100 -14
000090 16 3f 9b f7 b2 2a e1 89 c5 28 00 81 05 e3 30 0a
       22 63 -101 -9 -78 42 -31 -119 -59 40 0 -127 5 -29 48 10
0000a0 b6 be d5 cc 89 fc d1 93 0d 03 dc fe 8b e4 32 dc
       -74 -66 -43 -52 -119 -4 -47 -109 13 3 -36 -2 -117 -28 50 -36
0000b0 e2 45 5d 1b ad bd f1 44 32 29 30 02 2f 81 db de
       -30 69 93 27 -83 -67 -15 68 50 41 48 2 47 -127 -37 -34
0000c0 a1 12 04 2c e3 00 66 be 45 e9 da dc 4f fc 59 45
       -95 18 4 44 -29 0 102 -66 69 -23 -38 -36 79 -4 89 69
0000d0 ab f9 cf 05 bc 07 7f 38 ec 22 09 e5 0d c1 0c 30
       -85 -7 -49 5 -68 7 127 56 -20 34 9 -27 13 -63 12 48
0000e0 d1 e5 2b d2 3e 10 73 f5 b4 ab 4d 82 f0 be e2 46
       -47 -27 43 -46 62 16 115 -11 -76 -85 77 -126 -16 -66 -30 70
0000f0 60 2f 68 b4 01 81 b5 de b2 c2 24 e9 d0 81 81 ec
       96 47 104 -76 1 -127 -75 -34 -78 -62 36 -23 -48 -127 -127 -20
