TRAINED_MODELS/cnn/cnn_gray_32_quant.tflite (tflite, 18368 bytes, 3 tensors)

sequential/dense/MatMul i1 [2, 1600] scale=0.0015217648 zero_point=0
-0.015217648 -0.012174118 0.04413118 -0.11108883 0.025870001 0.06543589 -0.0015217648 -0.0030435296
0.03500059 -0.0030435296 -0.04108765 0.03195706 0.021304708 0.03195706 0.012174118 0.030435296
0.012174118 0.094349414 0.030435296 0.007608824 0.03804412 0.057827063 -0.062392358 0.09739295
-0.08521883 -0.019782942 0.015217648 -0.045652945 0.0045652944 -0.04413118 0.048696473 0.06087059
0.06087059 0.015217648 0.012174118 -0.0015217648 0.028913531 -0.018261177 -0.045652945 -0.047174707
0.025870001 -0.027391765 0.06087059 -0.0030435296 0.0 0.027391765 -0.009130589 -0.016739413
0.042609416 0.007608824 0.15674177 -0.022826472 0.053261768 0.019782942 -0.016739413 0.0045652944
-0.07152294 0.04413118 0.022826472 0.028913531 0.015217648 -0.010652354 -0.009130589 -0.045652945
0.039565884 0.027391765 0.033478826 -0.11869765 0.021304708 -0.006087059 -0.057827063 -0.019782942
0.006087059 -0.03804412 0.018261177 0.045652945 0.013695883 0.08065353 0.009130589 -0.06847942
-0.036522355 0.006087059 0.007608824 0.009130589 -0.019782942 -0.012174118 -0.07000118 0.007608824
0.007608824 -0.06695765 -0.051740002 0.0045652944 -0.024348237 -0.057827063 -0.007608824 0.036522355
0.033478826 -0.021304708 0.030435296 -0.05478353 -0.022826472 0.0045652944 -0.056305297 0.007608824
-0.036522355 -0.021304708 0.11869765 0.062392358 -0.012174118 -0.05021824 0.028913531 0.03500059
-0.042609416 0.03195706 0.14608942 0.07304471 -0.06391412 -0.07608824 0.030435296 0.03804412
-0.03500059 -0.022826472 0.006087059 -0.028913531 0.03195706 0.021304708 -0.019782942 0.039565884
-0.0015217648 0.028913531 -0.010652354 0.022826472 -0.042609416 -0.015217648 -0.013695883 -0.05478353
-0.04108765 -0.05021824 -0.04413118 0.042609416 -0.007608824 0.10195824 0.057827063 0.030435296
0.057827063 0.0 0.006087059 0.006087059 0.03500059 0.019782942 -0.021304708 -0.039565884
-0.053261768 0.022826472 -0.036522355 -0.05478353 0.018261177 -0.036522355 -0.03500059 -0.048696473
0.009130589 0.015217648 0.006087059 0.007608824 0.056305297 0.021304708 0.03195706 0.06391412
0.015217648 0.036522355 0.094349414 0.057827063 -0.015217648 -0.053261768 0.030435296 0.03500059
0.007608824 0.08065353 -0.012174118 0.07000118 -0.07761 -0.045652945 -0.010652354 0.06087059
-0.05021824 0.059348825 -0.021304708 -0.06847942 0.04413118 0.012174118 -0.0045652944 -0.048696473
0.012174118 0.015217648 0.053261768 0.06543589 -0.025870001 0.03804412 -0.030435296 0.021304708
-0.024348237 -0.045652945 0.0045652944 -0.048696473 -0.03500059 0.051740002 -0.08065353 -0.016739413
-0.019782942 -0.021304708 -0.03500059 -0.045652945 -0.06087059 0.030435296 -0.11717589 0.0
0.03195706 -0.06391412 0.016739413 -0.06695765 0.056305297 0.015217648 -0.013695883 -0.024348237
0.06087059 0.013695883 0.024348237 -0.06391412 0.07608824 0.016739413 0.124784715 -0.013695883
0.0030435296 0.025870001 -0.09130589 0.04413118 0.0045652944 -0.006087059 -0.047174707 0.025870001
-0.0045652944 0.03804412 -0.09739295 -0.04108765 -0.036522355 -0.074566476 -0.024348237 0.009130589
0.025870001 -0.059348825 0.0030435296 0.006087059 0.051740002 0.018261177 -0.04413118 -0.012174118
00000000: f6f8 1db7 112b fffe 17fe e515 0e15 0814
00000010: 083e 1405 1926 d740 c8f3 0ae2 03e3 2028
00000020: 280a 08ff 13f4 e2e1 11ee 28fe 0012 faf5
00000030: 1c05 67f1 230d f503 d11d 0f13 0af9 fae2
00000040: 1a12 16b2 0efc daf3 04e7 0c1e 0935 06d3
00000050: e804 0506 f3f8 d205 05d4 de03 f0da fb18
00000060: 16f2 14dc f103 db05 e8f2 4e29 f8df 1317
00000070: e415 6030 d6ce 1419 e9f1 04ed 150e f31a
00000080: ff13 f90f e4f6 f7dc e5df e31c fb43 2614
00000090: 2600 0404 170d f2e6 dd0f e8dc 0ce8 e9e0
000000a0: 060a 0405 250e 152a 0a18 3e26 f6dd 1417
000000b0: 0535 f82e cde2 f928 df27 f2d3 1d08 fde0
000000c0: 080a 232b ef19 ec0e f0e2 03e0 e922 cbf5
000000d0: f3f2 e9e2 d814 b300 15d6 0bd4 250a f7f0
000000e0: 2809 10d6 320b 52f7 0211 c41d 03fc e111
000000f0: fd19 c0e5 e8cf f006 11d9 0204 220c e3f8

sequential/conv2d/Conv2D i1 [32, 2, 2, 1]
-41 47 -73 127 11 127 8 -33
-119 -127 -106 -61 90 -25 127 101
92 19 -127 38 67 -7 127 86
-127 -47 26 97 45 -43 -92 127
108 -96 127 -38 -63 35 127 -106
127 -56 41 79 1 -127 27 77
-36 -69 -127 -82 -47 57 -127 -75
-16 -105 -127 -103 -127 67 112 -80
-15 -16 -82 127 -116 69 0 127
36 93 -28 127 104 118 -127 23
115 78 -127 -67 127 16 79 -82
127 126 36 -98 86 -127 -13 76
110 -62 -127 84 -122 -122 123 -127
33 -55 127 -81 -85 127 -29 69
127 116 -90 29 0 -25 -127 40
-116 -21 -127 -99 85 127 96 -5
00000000: d72f b77f 0b7f 08df 8981 96c3 5ae7 7f65
00000010: 5c13 8126 43f9 7f56 81d1 1a61 2dd5 a47f
00000020: 6ca0 7fda c123 7f96 7fc8 294f 0181 1b4d
00000030: dcbb 81ae d139 81b5 f097 8199 8143 70b0
00000040: f1f0 ae7f 8c45 007f 245d e47f 6876 8117
00000050: 734e 81bd 7f10 4fae 7f7e 249e 5681 f34c
00000060: 6ec2 8154 8686 7b81 21c9 7faf ab7f e345
00000070: 7f74 a61d 00e7 8128 8ceb 819d 557f 60fb

sequential/conv2d_1/Conv2D i1 [64, 2, 2, 32]
45 44 37 72 59 -47 48 42
-50 -20 -108 43 9 98 29 -40
-58 -2 79 51 42 -40 35 74
47 50 -127 4 38 22 2 -57
39 62 47 -9 74 20 -37 20
0 27 -4 -48 75 -49 -102 28
16 -4 -55 74 73 65 48 -54
70 -81 73 88 -19 -11 -30 18
-58 76 24 -70 66 44 -82 13
24 31 60 -83 14 18 -63 23
-75 -75 -94 30 32 39 14 81
65 76 -32 -13 -40 -70 16 -69
-100 86 -91 -13 14 56 72 -48
-10 57 28 64 -28 45 95 -43
32 -33 -99 -65 91 40 -6 20
-23 -9 27 94 -69 -18 92 -90
27 -2 -46 12 54 -76 5 -7
50 30 -17 75 50 37 -12 -7
21 14 0 -8 67 71 -40 -5
-28 49 38 31 43 12 -75 -10
-30 28 -72 7 79 69 -41 16
92 -30 -5 72 -5 -19 -57 -14
117 -47 -18 -41 -40 81 -3 -62
103 -4 -25 -46 81 -23 -8 -68
0 -9 11 -30 -64 29 91 30
-53 31 -49 111 -25 116 -44 -74
-11 -31 18 -4 22 49 26 24
86 69 17 46 -77 29 -22 11
71 -16 6 -37 35 -65 -9 72
-79 -32 -3 37 45 127 24 35
31 12 43 -26 -15 -64 -57 66
45 -56 -6 -67 -22 -20 -16 38
00000000: 2d2c 2548 3bd1 302a ceec 942b 0962 1dd8
00000010: c6fe 4f33 2ad8 234a 2f32 8104 2616 02c7
00000020: 273e 2ff7 4a14 db14 001b fcd0 4bcf 9a1c
00000030: 10fc c94a 4941 30ca 46af 4958 edf5 e212
00000040: c64c 18ba 422c ae0d 181f 3cad 0e12 c117
00000050: b5b5 a21e 2027 0e51 414c e0f3 d8ba 10bb
00000060: 9c56 a5f3 0e38 48d0 f639 1c40 e42d 5fd5
00000070: 20df 9dbf 5b28 fa14 e9f7 1b5e bbee 5ca6
00000080: 1bfe d20c 36b4 05f9 321e ef4b 3225 f4f9
00000090: 150e 00f8 4347 d8fb e431 261f 2b0c b5f6
000000a0: e21c b807 4f45 d710 5ce2 fb48 fbed c7f2
000000b0: 75d1 eed7 d851 fdc2 67fc e7d2 51e9 f8bc
000000c0: 00f7 0be2 c01d 5b1e cb1f cf6f e774 d4b6
000000d0: f5e1 12fc 1631 1a18 5645 112e b31d ea0b
000000e0: 47f0 06db 23bf f748 b1e0 fd25 2d7f 1823
000000f0: 1f0c 2be6 f1c0 c742 2dc8 fabd eaec f026
