MobileNet/mobilenet_32_25_1000/model_quant_32_25.tflite (tflite, 535024 bytes, 31 tensors)

model/dense/MatMul i1 [512, 256] scale=0.0061055548 zero_point=0
-0.19537775 0.13432221 -0.048844438 0.036633328 -0.18316664 -0.17095554 0.0 -0.036633328
-0.0061055548 -0.073266655 0.030527774 -0.048844438 -0.14653331 0.048844438 -0.024422219 0.14042775
0.097688876 -0.048844438 0.10379443 -0.11600554 0.1221111 -0.08547777 -0.19537775 -0.11600554
-0.11600554 0.07937221 -0.21369442 -0.10379443 -0.024422219 -0.0061055548 -0.042738885 -0.048844438
0.0122111095 0.15263887 -0.12821665 0.06105555 -0.15874442 -0.06105555 0.1892722 -0.16484998
0.018316664 -0.07937221 0.1221111 -0.06105555 0.042738885 0.14042775 0.030527774 -0.097688876
-0.05494999 -0.20148331 0.16484998 0.13432221 -0.05494999 0.21369442 -0.018316664 -0.21979997
0.0122111095 -0.067161106 -0.17095554 0.21369442 0.20148331 0.1892722 -0.048844438 0.26864442
0.13432221 0.042738885 0.07937221 0.22590552 0.12821665 0.097688876 0.0 0.042738885
-0.15263887 0.34191108 -0.048844438 0.1892722 -0.0122111095 0.34191108 -0.09158332 -0.14042775
0.08547777 -0.06105555 0.05494999 -0.042738885 0.048844438 0.07937221 -0.05494999 -0.18316664
0.30527773 0.048844438 0.30527773 0.05494999 -0.23201108 0.12821665 0.067161106 -0.10989998
0.05494999 -0.0122111095 0.067161106 -0.2442222 0.17095554 0.0 0.073266655 -0.1892722
-0.0122111095 0.17706108 -0.07937221 0.10379443 0.17706108 -0.18316664 -0.16484998 -0.14042775
-0.067161106 0.0122111095 -0.20758887 0.26864442 0.0061055548 0.08547777 -0.08547777 -0.0061055548
-0.08547777 0.0061055548 -0.12821665 0.10379443 0.2442222 -0.018316664 0.1892722 0.067161106
0.048844438 -0.10989998 -0.048844438 0.1892722 0.18316664 -0.10989998 -0.15263887 -0.25032774
-0.13432221 -0.0061055548 0.036633328 0.097688876 0.17095554 0.018316664 -0.018316664 -0.17706108
0.097688876 0.10989998 -0.12821665 -0.030527774 -0.097688876 0.08547777 -0.16484998 0.14653331
-0.018316664 0.073266655 0.018316664 0.067161106 -0.048844438 -0.067161106 0.14042775 0.28696108
-0.2991722 -0.21979997 0.036633328 0.0 -0.2991722 -0.0061055548 -0.17095554 0.048844438
0.17706108 -0.048844438 0.073266655 0.073266655 -0.13432221 0.0061055548 -0.07937221 0.13432221
-0.17095554 -0.073266655 0.12821665 0.0122111095 -0.0061055548 0.1892722 0.0 0.030527774
0.10989998 -0.073266655 0.048844438 -0.036633328 -0.11600554 0.018316664 0.07937221 -0.08547777
-0.17706108 0.16484998 -0.11600554 -0.030527774 0.15874442 -0.036633328 0.0 0.05494999
0.073266655 -0.024422219 0.09158332 -0.07937221 -0.07937221 0.10989998 0.0 -0.0122111095
-0.1892722 -0.20148331 -0.20758887 -0.09158332 -0.17095554 0.06105555 -0.07937221 0.07937221
0.16484998 -0.09158332 -0.036633328 -0.17095554 0.18316664 -0.07937221 0.048844438 -0.10989998
0.17706108 -0.042738885 -0.024422219 -0.20758887 0.10989998 0.024422219 -0.14653331 0.20148331
0.08547777 -0.19537775 -0.097688876 0.0 -0.12821665 -0.10379443 0.09158332 0.06105555
0.097688876 -0.12821665 0.12821665 -0.14042775 -0.12821665 -0.067161106 0.05494999 0.1221111
-0.048844438 0.21369442 -0.23201108 -0.073266655 0.036633328 0.14042775 -0.036633328 -0.05494999
00000000: e016 f806 e2e4 00fa fff4 05f8 e808 fc17
00000010: 10f8 11ed 14f2 e0ed ed0d ddef fcff f9f8
00000020: 0219 eb0a e6f6 1fe5 03f3 14f6 0717 05f0
00000030: f7df 1b16 f723 fddc 02f5 e423 211f f82c
00000040: 1607 0d25 1510 0007 e738 f81f fe38 f1e9
00000050: 0ef6 09f9 080d f7e2 3208 3209 da15 0bee
00000060: 09fe 0bd8 1c00 0ce1 fe1d f311 1de2 e5e9
00000070: f502 de2c 010e f2ff f201 eb11 28fd 1f0b
00000080: 08ee f81f 1eee e7d7 eaff 0610 1c03 fde3
00000090: 1012 ebfb f00e e518 fd0c 030b f8f5 172f
000000a0: cfdc 0600 cfff e408 1df8 0c0c ea01 f316
000000b0: e4f4 1502 ff1f 0005 12f4 08fa ed03 0df2
000000c0: e31b edfb 1afa 0009 0cfc 0ff3 f312 00fe
000000d0: e1df def1 e40a f30d 1bf1 fae4 1ef3 08ee
000000e0: 1df9 fcde 1204 e821 0ee0 f000 ebef 0f0a
000000f0: 10eb 15e9 ebf5 0914 f823 daf4 0617 faf7

model/dense_1/MatMul i1 [128, 512] scale=0.007216041 zero_point=0
0.09380853 -0.050512288 -0.036080204 -0.07216041 0.028864164 -0.1226727 -0.07937645 -0.06494437
0.0 -0.007216041 -0.1587529 -0.043296248 0.057728328 0.043296248 -0.043296248 0.007216041
0.028864164 0.050512288 -0.014432082 -0.043296248 0.07216041 0.0 -0.014432082 -0.036080204
-0.043296248 0.21648122 -0.057728328 0.07216041 0.043296248 0.028864164 -0.13710478 -0.028864164
-0.06494437 -0.07216041 -0.007216041 -0.14432082 -0.028864164 -0.16596894 -0.043296248 0.036080204
0.115456656 0.086592495 0.0 -0.12988874 0.15153687 0.07216041 0.043296248 0.12988874
-0.06494437 0.036080204 -0.007216041 0.014432082 0.014432082 0.0 0.0 -0.021648124
-0.043296248 -0.09380853 0.028864164 -0.086592495 0.086592495 0.050512288 -0.10824061 -0.043296248
-0.021648124 0.101024576 -0.07937645 -0.115456656 -0.101024576 0.028864164 -0.050512288 -0.007216041
-0.12988874 0.021648124 0.014432082 0.043296248 0.086592495 -0.10824061 -0.021648124 0.101024576
-0.16596894 0.028864164 -0.028864164 -0.007216041 -0.036080204 -0.057728328 -0.028864164 -0.057728328
-0.014432082 0.007216041 0.014432082 0.028864164 0.115456656 -0.007216041 -0.014432082 0.06494437
-0.028864164 0.043296248 0.036080204 -0.06494437 0.0 -0.014432082 -0.07937645 -0.086592495
0.18040103 0.021648124 -0.014432082 -0.10824061 -0.10824061 -0.1587529 0.014432082 0.10824061
-0.014432082 0.036080204 0.06494437 0.14432082 0.014432082 0.07937645 0.021648124 0.057728328
-0.06494437 0.1226727 -0.021648124 -0.036080204 0.014432082 0.07216041 0.086592495 0.036080204
-0.043296248 0.07937645 -0.007216041 0.07216041 -0.06494437 -0.036080204 0.007216041 0.028864164
-0.028864164 -0.028864164 -0.014432082 -0.1226727 0.0 -0.101024576 0.028864164 -0.07216041
0.050512288 0.014432082 -0.028864164 0.086592495 -0.050512288 -0.036080204 -0.050512288 0.18761706
0.101024576 -0.014432082 0.050512288 -0.07937645 -0.014432082 0.057728328 -0.10824061 0.036080204
-0.028864164 0.07216041 0.014432082 -0.021648124 0.014432082 0.050512288 -0.06494437 0.086592495
-0.07937645 -0.07216041 0.021648124 0.043296248 0.007216041 -0.028864164 -0.014432082 -0.043296248
-0.036080204 -0.06494437 -0.07216041 -0.043296248 0.050512288 0.101024576 0.007216041 0.021648124
0.028864164 -0.014432082 0.028864164 0.043296248 0.0 -0.057728328 -0.036080204 -0.115456656
-0.028864164 -0.17318499 0.20926519 -0.06494437 -0.043296248 -0.014432082 0.036080204 -0.07216041
0.057728328 0.043296248 -0.043296248 -0.007216041 -0.021648124 0.014432082 0.086592495 -0.13710478
-0.06494437 -0.007216041 -0.050512288 0.0 0.014432082 0.028864164 0.036080204 0.014432082
0.06494437 -0.07216041 -0.086592495 0.09380853 0.050512288 0.043296248 -0.036080204 -0.028864164
0.07216041 0.1226727 -0.12988874 0.09380853 0.086592495 0.1587529 -0.007216041 -0.18040103
0.014432082 0.115456656 -0.050512288 -0.007216041 -0.101024576 -0.021648124 0.101024576 0.021648124
-0.036080204 -0.10824061 -0.07216041 -0.09380853 0.057728328 0.2453454 0.057728328 0.12988874
-0.06494437 0.07937645 -0.07937645 0.050512288 0.12988874 -0.086592495 -0.057728328 -0.07937645
00000000: 0df9 fbf6 04ef f5f7 00ff eafa 0806 fa01
00000010: 0407 fefa 0a00 fefb fa1e f80a 0604 edfc
00000020: f7f6 ffec fce9 fa05 100c 00ee 150a 0612
00000030: f705 ff02 0200 00fd faf3 04f4 0c07 f1fa
00000040: fd0e f5f0 f204 f9ff ee03 0206 0cf1 fd0e
00000050: e904 fcff fbf8 fcf8 fe01 0204 10ff fe09
00000060: fc06 05f7 00fe f5f4 1903 fef1 f1ea 020f
00000070: fe05 0914 020b 0308 f711 fdfb 020a 0c05
00000080: fa0b ff0a f7fb 0104 fcfc feef 00f2 04f6
00000090: 0702 fc0c f9fb f91a 0efe 07f5 fe08 f105
000000a0: fc0a 02fd 0207 f70c f5f6 0306 01fc fefa
000000b0: fbf7 f6fa 070e 0103 04fe 0406 00f8 fbf0
000000c0: fce8 1df7 fafe 05f6 0806 faff fd02 0ced
000000d0: f7ff f900 0204 0502 09f6 f40d 0706 fbfc
000000e0: 0a11 ee0d 0c16 ffe7 0210 f9ff f2fd 0e03
000000f0: fbf1 f6f3 0822 0812 f70b f507 12f4 f8f5

model/dense_2/MatMul i1 [64, 128] scale=0.005645393 zero_point=0
-0.005645393 -0.01693618 0.13548943 0.01693618 0.10726246 0.11855325 0.10726246 -0.005645393
0.045163143 -0.16371639 0.09032629 0.05645393 -0.062099323 -0.03951775 -0.14113483 0.05645393
0.028226964 0.03387236 0.01693618 0.13548943 0.16936179 0.050808538 -0.045163143 -0.011290786
-0.062099323 -0.09032629 -0.022581572 0.12984404 0.062099323 0.005645393 -0.028226964 -0.01693618
0.022581572 0.08468089 0.12984404 0.0790355 -0.0790355 0.045163143 -0.09597168 0.10726246
-0.124198645 0.050808538 -0.07339011 -0.10726246 -0.045163143 0.011290786 -0.13548943 0.16936179
0.09032629 -0.08468089 0.0790355 0.050808538 -0.10726246 -0.028226964 -0.07339011 0.050808538
0.028226964 -0.16371639 -0.158071 -0.14678022 0.01693618 -0.03951775 0.124198645 -0.11290786
0.09597168 -0.045163143 0.011290786 -0.08468089 0.0 -0.1524256 -0.01693618 0.09597168
-0.14113483 -0.050808538 -0.06774472 0.09032629 0.09597168 -0.19194336 0.12984404 0.03951775
0.045163143 0.050808538 -0.05645393 0.011290786 -0.005645393 -0.08468089 0.0 -0.06774472
-0.062099323 -0.062099323 0.05645393 -0.14678022 0.124198645 0.124198645 0.05645393 0.08468089
-0.11290786 -0.09597168 0.158071 -0.12984404 -0.03951775 0.1524256 -0.14113483 -0.0790355
-0.17500718 -0.07339011 -0.08468089 -0.1524256 -0.13548943 0.050808538 -0.158071 -0.06774472
0.09597168 -0.062099323 -0.022581572 -0.011290786 -0.07339011 -0.14678022 -0.16371639 -0.12984404
0.16936179 0.14678022 -0.005645393 -0.03951775 -0.158071 -0.028226964 0.062099323 0.14678022
0.03951775 0.03951775 0.06774472 -0.14113483 0.062099323 -0.10726246 -0.050808538 0.101617076
0.14113483 0.0790355 0.20323415 -0.050808538 0.14113483 0.045163143 -0.022581572 0.11855325
-0.050808538 -0.005645393 -0.062099323 0.01693618 -0.06774472 -0.011290786 0.14113483 0.07339011
0.050808538 -0.011290786 -0.01693618 0.12984404 -0.16371639 -0.10726246 0.12984404 0.08468089
0.07339011 0.09032629 -0.005645393 -0.050808538 0.11290786 -0.01693618 -0.17500718 -0.028226964
0.01693618 -0.05645393 0.05645393 -0.09597168 0.028226964 0.050808538 -0.011290786 0.09597168
-0.11855325 -0.0790355 -0.03387236 0.0790355 0.03951775 -0.028226964 0.022581572 0.12984404
-0.045163143 0.16371639 0.0790355 0.022581572 0.0 0.19194336 0.28791505 -0.20887955
0.09597168 0.16371639 -0.028226964 -0.158071 0.06774472 0.13548943 -0.045163143 0.05645393
0.03387236 -0.11855325 0.050808538 -0.12984404 0.005645393 0.18629797 0.18065257 -0.14113483
-0.16936179 0.03387236 -0.01693618 0.27662426 0.18065257 0.11855325 -0.06774472 0.028226964
0.03951775 0.19758876 0.01693618 0.03951775 0.19194336 -0.050808538 -0.13548943 0.022581572
0.028226964 -0.01693618 -0.10726246 0.09597168 0.005645393 -0.101617076 0.07339011 -0.124198645
0.0 -0.062099323 0.09032629 0.22017032 -0.07339011 0.14113483 -0.19758876 -0.062099323
-0.22017032 -0.0790355 -0.10726246 0.158071 0.0 0.18629797 0.011290786 -0.12984404
0.13548943 0.25404269 -0.045163143 0.16936179 0.12984404 0.005645393 0.11290786 -0.07339011
00000000: fffd 1803 1315 13ff 08e3 100a f5f9 e70a
00000010: 0506 0318 1e09 f8fe f5f0 fc17 0b01 fbfd
00000020: 040f 170e f208 ef13 ea09 f3ed f802 e81e
00000030: 10f1 0e09 edfb f309 05e3 e4e6 03f9 16ec
00000040: 11f8 02f1 00e5 fd11 e7f7 f410 11de 1707
00000050: 0809 f602 fff1 00f4 f5f5 0ae6 1616 0a0f
00000060: ecef 1ce9 f91b e7f2 e1f3 f1e5 e809 e4f4
00000070: 11f5 fcfe f3e6 e3e9 1e1a fff9 e4fb 0b1a
00000080: 0707 0ce7 0bed f712 190e 24f7 1908 fc15
00000090: f7ff f503 f4fe 190d 09fe fd17 e3ed 170f
000000a0: 0d10 fff7 14fd e1fb 03f6 0aef 0509 fe11
000000b0: ebf2 fa0e 07fb 0417 f81d 0e04 0022 33db
000000c0: 111d fbe4 0c18 f80a 06eb 09e9 0121 20e7
000000d0: e206 fd31 2015 f405 0723 0307 22f7 e804
000000e0: 05fd ed11 01ee 0dea 00f5 1027 f319 ddf5
000000f0: d9f2 ed1c 0021 02e9 182d f81e 1701 14f3

model/dense_3/MatMul i1 [2, 64] scale=0.0024150107 zero_point=0
0.16663574 0.20527591 -0.18595582 -0.028980128 0.15456069 -0.17871079 -0.1352406 0.086940385
0.28255627 0.053130236 0.28497127 0.111090496 0.0 0.03381015 0.24150106 0.20286089
0.111090496 0.111090496 0.050715223 0.0 0.050715223 -0.26323617 -0.04105518 -0.111090496
-0.09901544 0.074865334 -0.1811258 -0.086940385 -0.14731565 -0.28255627 0.17629579 0.21493596
-0.07728034 -0.2898013 -0.113505505 0.13041058 0.19803087 0.072450325 -0.15214567 -0.074865334
-0.10384546 -0.28255627 -0.0120750535 -0.060375266 0.057960257 0.04105518 0.074865334 0.14007062
-0.074865334 -0.03864017 0.28497127 0.2511611 -0.007245032 -0.07003531 -0.09901544 -0.14248563
0.11833552 -0.04105518 -0.10867548 -0.27531123 -0.17388077 -0.062790275 0.024150107 0.12558055
-0.1593907 0.20527591 -0.009660043 -0.0676203 0.16180572 -0.113505505 0.23184103 -0.111090496
-0.074865334 0.050715223 0.089355394 0.25599113 0.0048300214 -0.20527591 -0.23425604 -0.25840613
-0.21252094 -0.13041058 0.057960257 -0.111090496 0.086940385 -0.16422072 0.13282558 -0.111090496
-0.1352406 0.10384546 0.19078584 0.21493596 -0.053130236 -0.12799557 0.19803087 0.17388077
0.2898013 0.1811258 -0.089355394 0.045885205 0.24150106 0.0676203 -0.014490064 -0.07969535
-0.101430446 0.045885205 0.30670637 0.25840613 0.055545248 -0.0120750535 -0.25840613 0.1593907
0.15214567 -0.14490065 -0.028980128 -0.043470193 -0.074865334 -0.045885205 -0.1811258 -0.14248563
-0.1593907 -0.050715223 0.009660043 -0.2680662 -0.13282558 -0.14731565 -0.031395137 -0.053130236
00000000: 4555 b3f4 40b6 c824 7516 762e 000e 6454
00000010: 2e2e 1500 1593 efd2 d71f b5dc c38b 4959
00000020: e088 d136 521e c1e1 d58b fbe7 1811 1f3a
00000030: e1f0 7668 fde3 d7c5 31ef d38e b8e6 0a34
00000040: be55 fce4 43d1 60d2 e115 256a 02ab 9f95
00000050: a8ca 18d2 24bc 37d2 c82b 4f59 eacb 5248
00000060: 784b db13 641c fadf d613 7f6b 17fb 9542
00000070: 3fc4 f4ee e1ed b5c5 beeb 0491 c9c3 f3ea

model/conv1/Conv2D i1 [8, 3, 3, 3]
61 -7 -86 61 7 -88 10 -2
-66 87 9 -106 107 3 -127 61
-15 -100 53 -1 -61 83 -7 -81
51 -34 -84 -56 -57 -59 -127 -124
-44 -68 -55 -32 -8 2 -27 4
21 10 -10 -19 -20 2 10 -8
23 30 16 9 -4 -1 -119 -116
-127 -119 -114 -127 -93 -88 -94 -115
-112 -124 -116 -113 -125 -91 -86 -92
-101 -98 -110 -103 -98 -111 -82 -76
-84 0 0 0 0 0 0 0
0 0 0 0 0 0 0 0
0 0 0 0 0 0 0 0
0 0 0 0 -41 -14 66 -88
-53 36 -58 -30 50 47 73 122
94 127 96 56 59 66 18 17
71 4 -12 66 17 42 61 -1
6 2 28 31 24 0 45 0
-21 -12 20 -69 -44 3 -127 -52
-44 52 7 3 47 -14 26 27
-52 19 65 -66 11 71 -78 40
31 -38 43 118 -108 -14 103 -127
50 27 -59 55 108 -93 -28 78
-106 21 18 -54 51 0 0 0
0 0 0 0 0 0 0 0
0 0 0 0 0 0 0 0
0 0 0 0 0 0 0 0
00000000: 3df9 aa3d 07a8 0afe be57 0996 6b03 813d
00000010: f19c 35ff c353 f9af 33de acc8 c7c5 8184
00000020: d4bc c9e0 f802 e504 150a f6ed ec02 0af8
00000030: 171e 1009 fcff 898c 8189 8e81 a3a8 a28d
00000040: 9084 8c8f 83a5 aaa4 9b9e 9299 9e91 aeb4
00000050: ac00 0000 0000 0000 0000 0000 0000 0000
00000060: 0000 0000 0000 0000 0000 0000 d7f2 42a8
00000070: cb24 c6e2 322f 497a 5e7f 6038 3b42 1211
00000080: 4704 f442 112a 3dff 0602 1c1f 1800 2d00
00000090: ebf4 14bb d403 81cc d434 0703 2ff2 1a1b
000000a0: cc13 41be 0b47 b228 1fda 2b76 94f2 6781
000000b0: 321b c537 6ca3 e44e 9615 12ca 3300 0000
000000c0: 0000 0000 0000 0000 0000 0000 0000 0000
000000d0: 0000 0000 0000 0000

model/conv_pw_1/Conv2D i1 [16, 1, 1, 8]
-14 -8 0 0 -3 2 -127 0
-48 22 0 0 -4 30 127 0
127 -11 0 0 28 10 -27 0
0 0 0 0 0 0 0 0
0 0 0 0 0 0 0 0
21 60 0 0 -127 -25 -3 0
-9 -113 0 0 127 3 1 0
24 -127 0 0 -16 -30 5 0
-5 69 0 0 127 -77 -24 0
40 6 0 0 6 9 127 0
-127 -21 0 0 9 6 14 0
77 4 0 0 11 -17 -127 0
31 114 0 0 -127 -1 16 0
0 0 0 0 0 0 0 0
-22 8 0 0 -127 14 -48 0
-10 -86 0 0 127 41 18 0
00000000: f2f8 0000 fd02 8100 d016 0000 fc1e 7f00
00000010: 7ff5 0000 1c0a e500 0000 0000 0000 0000
00000020: 0000 0000 0000 0000 153c 0000 81e7 fd00
00000030: f78f 0000 7f03 0100 1881 0000 f0e2 0500
00000040: fb45 0000 7fb3 e800 2806 0000 0609 7f00
00000050: 81eb 0000 0906 0e00 4d04 0000 0bef 8100
00000060: 1f72 0000 81ff 1000 0000 0000 0000 0000
00000070: ea08 0000 810e d000 f6aa 0000 7f29 1200

model/conv_pw_2/Conv2D i1 [32, 1, 1, 16]
-91 -56 -33 0 0 23 -14 -11
-21 80 127 85 24 -5 11 -4
0 0 0 0 0 0 0 0
0 0 0 0 0 0 0 0
16 -5 6 0 -5 36 15 3
12 1 5 24 127 0 2 0
69 29 -127 0 4 0 -9 2
21 6 64 -84 -4 -7 3 -5
67 31 -26 0 10 -3 -1 104
25 -70 6 -9 -75 9 40 127
-28 -28 6 0 4 -54 77 -84
8 2 13 21 -127 23 -2 63
-19 -29 -43 0 20 127 49 -1
17 -44 41 21 -81 11 45 12
-22 70 127 0 14 4 -10 0
-15 -11 -107 -72 0 18 32 34
7 80 64 0 0 28 6 -13
8 -127 -54 11 -1 5 10 -14
63 41 -41 0 -12 -127 -34 -41
-16 -5 41 19 9 2 -25 27
10 -10 7 0 -4 -127 -6 -10
7 14 -15 -5 71 -14 -13 -7
-3 2 0 0 -15 -127 24 13
-21 19 4 13 35 -13 8 2
-11 -11 24 0 -5 12 -127 2
-10 20 -10 -15 16 5 -18 13
-36 -20 17 0 -20 -68 2 58
-43 6 -19 -2 127 2 23 -13
0 0 0 0 0 0 0 0
0 0 0 0 0 0 0 0
18 25 -28 0 14 -16 -13 111
3 -57 14 0 37 -7 -127 -24
00000000: a5c8 df00 0017 f2f5 eb50 7f55 18fb 0bfc
00000010: 0000 0000 0000 0000 0000 0000 0000 0000
00000020: 10fb 0600 fb24 0f03 0c01 0518 7f00 0200
00000030: 451d 8100 0400 f702 1506 40ac fcf9 03fb
00000040: 431f e600 0afd ff68 19ba 06f7 b509 287f
00000050: e4e4 0600 04ca 4dac 0802 0d15 8117 fe3f
00000060: ede3 d500 147f 31ff 11d4 2915 af0b 2d0c
00000070: ea46 7f00 0e04 f600 f1f5 95b8 0012 2022
00000080: 0750 4000 001c 06f3 0881 ca0b ff05 0af2
00000090: 3f29 d700 f481 ded7 f0fb 2913 0902 e71b
000000a0: 0af6 0700 fc81 faf6 070e f1fb 47f2 f3f9
000000b0: fd02 0000 f181 180d eb13 040d 23f3 0802
000000c0: f5f5 1800 fb0c 8102 f614 f6f1 1005 ee0d
000000d0: dcec 1100 ecbc 023a d506 edfe 7f02 17f3
000000e0: 0000 0000 0000 0000 0000 0000 0000 0000
000000f0: 1219 e400 0ef0 f36f 03c7 0e00 25f9 81e8

model/conv_pw_3/Conv2D i1 [32, 1, 1, 32]
56 0 66 -16 3 -102 127 -8
3 27 -9 67 98 70 0 5
-30 36 0 21 -74 74 -40 -11
8 -58 -38 27 -7 25 -27 10
2 0 2 19 10 3 19 -3
8 8 0 1 19 0 0 32
12 -93 0 -38 -7 9 9 3
-127 11 -10 -16 -24 20 8 1
18 0 6 -3 97 -14 12 7
-18 9 5 -9 1 0 0 -4
-10 -2 0 9 -4 -4 26 16
2 127 12 15 -2 9 -3 -20
22 0 25 13 -14 11 8 -18
-15 -37 55 42 17 -69 0 -20
21 127 0 -5 34 72 -79 -5
95 -12 -8 82 22 23 6 -21
-41 0 -53 43 58 27 -62 -12
18 -1 -59 -63 -45 127 0 -41
-78 -55 0 -17 -46 22 -20 16
7 -70 58 -47 38 -32 29 -19
-20 0 112 -21 28 -1 -127 -24
-11 11 -20 -62 -34 -25 0 -10
-3 -45 0 34 9 -6 50 52
-3 0 11 -15 -41 0 48 7
16 0 -22 21 84 -81 -38 -7
-26 -7 -7 9 125 -2 0 -15
29 -37 0 67 -34 60 0 -47
-28 -127 -54 -15 -16 -19 11 -61
-3 0 1 -14 -4 5 -27 8
7 -2 4 -6 6 -12 0 11
18 127 0 0 0 6 -12 12
-10 -12 17 9 14 -9 -16 -1
00000000: 3800 42f0 039a 7ff8 031b f743 6246 0005
00000010: e224 0015 b64a d8f5 08c6 da1b f919 e50a
00000020: 0200 0213 0a03 13fd 0808 0001 1300 0020
00000030: 0ca3 00da f909 0903 810b f6f0 e814 0801
00000040: 1200 06fd 61f2 0c07 ee09 05f7 0100 00fc
00000050: f6fe 0009 fcfc 1a10 027f 0c0f fe09 fdec
00000060: 1600 190d f20b 08ee f1db 372a 11bb 00ec
00000070: 157f 00fb 2248 b1fb 5ff4 f852 1617 06eb
00000080: d700 cb2b 3a1b c2f4 12ff c5c1 d37f 00d7
00000090: b2c9 00ef d216 ec10 07ba 3ad1 26e0 1ded
000000a0: ec00 70eb 1cff 81e8 f50b ecc2 dee7 00f6
000000b0: fdd3 0022 09fa 3234 fd00 0bf1 d700 3007
000000c0: 1000 ea15 54af daf9 e6f9 f909 7dfe 00f1
000000d0: 1ddb 0043 de3c 00d1 e481 caf1 f0ed 0bc3
000000e0: fd00 01f2 fc05 e508 07fe 04fa 06f4 000b
000000f0: 127f 0000 0006 f40c f6f4 1109 0ef7 f0ff

model/conv_pw_4/Conv2D i1 [64, 1, 1, 32]
48 47 64 -23 87 2 -75 73
-16 33 -57 -29 -118 0 -18 20
8 50 16 -2 27 -6 127 -90
7 52 19 -3 66 87 -14 19
-28 32 11 25 81 -3 6 -87
77 3 16 -71 8 -33 59 29
-13 34 44 -127 -20 18 -1 -10
4 45 23 11 47 -13 18 4
-91 13 48 0 89 -27 96 25
-44 -60 -16 -77 -109 -30 -7 -10
1 17 -31 80 -81 67 15 75
-14 -44 127 73 58 6 -16 -89
-34 -9 22 -14 12 -18 19 -45
-39 40 36 5 16 -40 37 26
-16 -19 86 0 119 61 73 55
56 -14 -42 56 -72 127 -61 5
-15 47 -4 15 -57 -4 -64 -4
-64 25 4 127 -11 -2 -27 48
49 30 -64 21 50 -23 -21 -49
25 -36 58 -30 -27 11 -33 -34
26 127 -4 -20 8 19 24 18
23 41 -13 26 -90 -16 -18 42
-6 48 -34 18 -31 -2 14 -40
11 -7 29 47 58 -45 1 -20
-120 14 3 -42 -40 -117 -3 26
-42 -127 45 -79 66 -5 24 -60
15 -72 53 0 -57 21 -14 5
-67 3 34 19 -76 21 43 17
53 -40 -10 127 -16 8 -33 9
-110 -4 14 -23 -2 -9 23 6
-115 6 28 7 72 -9 -47 -36
-50 115 3 59 91 -33 -20 -2
00000000: 302f 40e9 5702 b549 f021 c7e3 8a00 ee14
00000010: 0832 10fe 1bfa 7fa6 0734 13fd 4257 f213
00000020: e420 0b19 51fd 06a9 4d03 10b9 08df 3b1d
00000030: f322 2c81 ec12 fff6 042d 170b 2ff3 1204
00000040: a50d 3000 59e5 6019 d4c4 f0b3 93e2 f9f6
00000050: 0111 e150 af43 0f4b f2d4 7f49 3a06 f0a7
00000060: def7 16f2 0cee 13d3 d928 2405 10d8 251a
00000070: f0ed 5600 773d 4937 38f2 d638 b87f c305
00000080: f12f fc0f c7fc c0fc c019 047f f5fe e530
00000090: 311e c015 32e9 ebcf 19dc 3ae2 e50b dfde
000000a0: 1a7f fcec 0813 1812 1729 f31a a6f0 ee2a
000000b0: fa30 de12 e1fe 0ed8 0bf9 1d2f 3ad3 01ec
000000c0: 880e 03d6 d88b fd1a d681 2db1 42fb 18c4
000000d0: 0fb8 3500 c715 f205 bd03 2213 b415 2b11
000000e0: 35d8 f67f f008 df09 92fc 0ee9 fef7 1706
000000f0: 8d06 1c07 48f7 d1dc ce73 033b 5bdf ecfe

model/conv_pw_5/Conv2D i1 [64, 1, 1, 64]
-34 -3 -3 4 -13 6 -20 24
127 23 -13 15 -18 -11 -1 -32
-5 3 7 -28 16 -6 -20 -8
-11 -18 -12 26 -10 -10 6 28
12 -2 4 11 -4 29 12 13
26 -29 -13 -8 -4 41 17 -6
17 -5 -20 -15 13 45 -10 18
0 -3 11 35 -78 -5 36 -2
-5 -3 -5 -13 -14 -127 13 -11
14 -14 -44 -11 24 1 -40 -11
44 -27 3 7 -13 28 -6 -7
-23 -58 25 -1 8 8 0 4
18 -32 3 -54 -38 4 -42 12
-11 -13 -32 9 0 16 -15 21
6 -25 -30 25 9 -35 26 -18
-45 -43 11 -17 -23 43 19 -43
-80 -22 -42 -64 -127 -36 89 -13
30 34 8 7 66 31 -47 22
-22 -24 -77 13 -46 -21 51 12
3 -25 -3 24 38 23 2 62
-20 -1 -19 -42 -16 12 9 -20
11 39 8 34 -61 17 18 -17
-56 -48 -25 -62 31 -51 21 17
7 118 28 -16 28 -12 45 68
-120 24 -23 19 -1 13 84 -52
-55 -21 32 1 -39 -18 29 -62
46 -26 17 -7 -51 43 5 -127
-21 -83 -59 -25 -62 -38 13 40
14 18 22 -11 32 -32 -33 31
33 -25 -17 -35 -24 -21 65 -24
-40 24 36 -26 29 -63 2 12
-41 34 90 1 24 3 -45 -108
00000000: defd fd04 f306 ec18 7f17 f30f eef5 ffe0
00000010: fb03 07e4 10fa ecf8 f5ee f41a f6f6 061c
00000020: 0cfe 040b fc1d 0c0d 1ae3 f3f8 fc29 11fa
00000030: 11fb ecf1 0d2d f612 00fd 0b23 b2fb 24fe
00000040: fbfd fbf3 f281 0df5 0ef2 d4f5 1801 d8f5
00000050: 2ce5 0307 f31c faf9 e9c6 19ff 0808 0004
00000060: 12e0 03ca da04 d60c f5f3 e009 0010 f115
00000070: 06e7 e219 09dd 1aee d3d5 0bef e92b 13d5
00000080: b0ea d6c0 81dc 59f3 1e22 0807 421f d116
00000090: eae8 b30d d2eb 330c 03e7 fd18 2617 023e
000000a0: ecff edd6 f00c 09ec 0b27 0822 c311 12ef
000000b0: c8d0 e7c2 1fcd 1511 0776 1cf0 1cf4 2d44
000000c0: 8818 e913 ff0d 54cc c9eb 2001 d9ee 1dc2
000000d0: 2ee6 11f9 cd2b 0581 ebad c5e7 c2da 0d28
000000e0: 0e12 16f5 20e0 df1f 21e7 efdd e8eb 41e8
000000f0: d818 24e6 1dc1 020c d722 5a01 1803 d394

model/conv_pw_6/Conv2D i1 [128, 1, 1, 64]
64 -108 54 54 64 1 -28 60
4 26 60 43 110 -7 -9 -22
-9 -21 -36 -5 -48 14 7 -28
8 -13 -76 20 21 -84 78 -59
28 4 17 54 -96 38 -4 26
64 69 127 35 20 -45 126 -59
3 -37 -109 100 -34 -35 -55 -11
-43 25 3 -104 -15 -64 -23 114
48 -3 8 -17 5 -1 8 35
64 -46 21 8 4 27 28 22
11 -61 -4 -37 50 -30 25 -17
60 -31 20 -43 3 -5 7 -127
-42 3 -28 -13 -30 80 -23 24
8 39 -13 -22 -12 -64 1 8
-29 76 2 35 -58 -53 -28 19
-34 -32 -51 -27 5 -24 -27 -17
-8 33 32 -9 21 0 19 74
-29 -18 127 -2 7 5 1 59
-79 -49 36 19 -27 -14 -13 -3
-25 7 -36 -11 -1 21 11 -1
10 -14 15 14 -53 -39 -46 -54
-33 46 41 13 12 4 -13 14
-28 -1 -43 46 24 73 126 19
21 51 18 -41 -93 38 29 21
-59 22 28 -8 -41 0 30 31
16 51 4 -48 -107 -24 -24 -13
-3 -25 86 39 29 53 4 32
26 -23 46 7 5 21 -6 10
61 -29 20 -1 -117 -36 50 -2
10 -21 46 -59 38 127 14 -26
19 -73 -36 -60 76 49 -11 48
-18 32 6 -115 0 32 -17 -29
00000000: 4094 3636 4001 e43c 041a 3c2b 6ef9 f7ea
00000010: f7eb dcfb d00e 07e4 08f3 b414 15ac 4ec5
00000020: 1c04 1136 a026 fc1a 4045 7f23 14d3 7ec5
00000030: 03db 9364 dedd c9f5 d519 0398 f1c0 e972
00000040: 30fd 08ef 05ff 0823 40d2 1508 041b 1c16
00000050: 0bc3 fcdb 32e2 19ef 3ce1 14d5 03fb 0781
00000060: d603 e4f3 e250 e918 0827 f3ea f4c0 0108
00000070: e34c 0223 c6cb e413 dee0 cde5 05e8 e5ef
00000080: f821 20f7 1500 134a e3ee 7ffe 0705 013b
00000090: b1cf 2413 e5f2 f3fd e707 dcf5 ff15 0bff
000000a0: 0af2 0f0e cbd9 d2ca df2e 290d 0c04 f30e
000000b0: e4ff d52e 1849 7e13 1533 12d7 a326 1d15
000000c0: c516 1cf8 d700 1e1f 1033 04d0 95e8 e8f3
000000d0: fde7 5627 1d35 0420 1ae9 2e07 0515 fa0a
000000e0: 3de3 14ff 8bdc 32fe 0aeb 2ec5 267f 0ee6
000000f0: 13b7 dcc4 4c31 f530 ee20 068d 0020 efe3

model/conv_pw_7/Conv2D i1 [128, 1, 1, 128]
75 29 -57 -23 31 -78 -16 -2
46 0 -18 44 -8 3 -47 17
-8 1 14 11 45 -24 12 -7
15 16 -24 -8 -3 20 -60 9
-32 36 -7 -21 -22 -7 -8 10
-40 59 -41 -20 -9 -27 36 -45
81 -50 3 17 9 -15 -4 21
-74 26 -120 27 -40 18 1 48
-26 77 28 32 -4 -45 -32 31
-1 34 7 0 -11 46 -8 -42
42 -85 4 21 16 -50 18 -39
52 -57 -89 38 56 -80 -9 -58
-55 9 -34 -51 51 79 99 -40
-44 -20 11 11 43 119 -22 54
45 -127 25 -17 -12 25 -33 -5
2 -44 -15 7 -6 -68 9 -14
-53 127 -18 34 34 -3 -48 54
-78 84 -21 54 16 -8 7 7
-36 24 17 10 46 -4 14 11
2 21 10 -20 1 6 3 46
-4 14 30 -50 3 -14 11 -16
-4 -23 13 17 4 -15 64 21
11 16 0 40 9 -19 -4 -94
77 16 -106 3 12 -13 19 -41
-14 32 -26 9 -43 18 92 -9
41 -35 -48 37 -17 3 -56 56
-9 -31 3 25 28 6 16 -14
6 -30 10 7 112 57 26 3
23 -75 18 -32 55 20 -41 -38
-11 35 -35 -99 85 -23 25 -106
29 66 7 -16 33 46 36 -22
-39 12 -25 -14 -27 -9 -42 23
00000000: 4b1d c7e9 1fb2 f0fe 2e00 ee2c f803 d111
00000010: f801 0e0b 2de8 0cf9 0f10 e8f8 fd14 c409
00000020: e024 f9eb eaf9 f80a d83b d7ec f7e5 24d3
00000030: 51ce 0311 09f1 fc15 b61a 881b d812 0130
00000040: e64d 1c20 fcd3 e01f ff22 0700 f52e f8d6
00000050: 2aab 0415 10ce 12d9 34c7 a726 38b0 f7c6
00000060: c909 decd 334f 63d8 d4ec 0b0b 2b77 ea36
00000070: 2d81 19ef f419 dffb 02d4 f107 fabc 09f2
00000080: cb7f ee22 22fd d036 b254 eb36 10f8 0707
00000090: dc18 110a 2efc 0e0b 0215 0aec 0106 032e
000000a0: fc0e 1ece 03f2 0bf0 fce9 0d11 04f1 4015
000000b0: 0b10 0028 09ed fca2 4d10 9603 0cf3 13d7
000000c0: f220 e609 d512 5cf7 29dd d025 ef03 c838
000000d0: f7e1 0319 1c06 10f2 06e2 0a07 7039 1a03
000000e0: 17b5 12e0 3714 d7da f523 dd9d 55e9 1996
000000f0: 1d42 07f0 212e 24ea d90c e7f2 e5f7 d617

model/conv_pw_8/Conv2D i1 [128, 1, 1, 128]
3 29 -38 -53 -22 -56 12 -6
-20 -31 -37 15 -74 10 62 15
30 -48 -127 35 2 -55 -32 35
20 -70 -11 -25 31 83 0 -48
-23 -78 -41 29 21 -39 -43 -76
-36 88 25 59 5 38 14 -38
-6 35 2 0 -7 6 -26 -46
12 -48 16 37 11 18 -118 27
-14 -16 3 4 17 23 47 -14
-35 -15 -52 0 -80 3 -46 24
-108 1 51 -11 -36 27 -4 -23
-34 2 32 16 -17 14 -40 87
-46 49 -23 18 -30 -17 -25 -61
-76 27 13 -23 64 -45 -88 52
-20 -40 3 53 28 17 50 -64
14 -58 -34 7 -70 -2 -8 -35
-17 37 31 -21 6 -16 23 16
-18 9 -39 -2 0 21 -19 -24
-49 -21 0 77 -37 64 -38 10
-9 104 29 13 -18 14 14 36
-18 2 -6 -27 9 -22 41 -46
23 -16 25 10 16 -13 25 66
11 -70 22 10 -10 0 56 -30
16 42 0 -79 31 -25 -9 -23
-80 -16 -27 -20 60 6 -3 -18
-51 -27 -2 -49 27 -16 19 28
87 8 -33 -43 4 -13 68 63
-18 -22 -38 56 -31 28 -127 -4
4 -31 57 -12 9 -9 -21 5
-19 -21 27 -23 -5 44 -22 -71
-23 0 0 45 -54 4 -54 25
-20 31 6 -17 -5 4 17 43
00000000: 031d dacb eac8 0cfa ece1 db0f b60a 3e0f
00000010: 1ed0 8123 02c9 e023 14ba f5e7 1f53 00d0
00000020: e9b2 d71d 15d9 d5b4 dc58 193b 0526 0eda
00000030: fa23 0200 f906 e6d2 0cd0 1025 0b12 8a1b
00000040: f2f0 0304 1117 2ff2 ddf1 cc00 b003 d218
00000050: 9401 33f5 dc1b fce9 de02 2010 ef0e d857
00000060: d231 e912 e2ef e7c3 b41b 0de9 40d3 a834
00000070: ecd8 0335 1c11 32c0 0ec6 de07 bafe f8dd
00000080: ef25 1feb 06f0 1710 ee09 d9fe 0015 ede8
00000090: cfeb 004d db40 da0a f768 1d0d ee0e 0e24
000000a0: ee02 fae5 09ea 29d2 17f0 190a 10f3 1942
000000b0: 0bba 160a f600 38e2 102a 00b1 1fe7 f7e9
000000c0: b0f0 e5ec 3c06 fdee cde5 fecf 1bf0 131c
000000d0: 5708 dfd5 04f3 443f eeea da38 e11c 81fc
000000e0: 04e1 39f4 09f7 eb05 edeb 1be9 fb2c eab9
000000f0: e900 002d ca04 ca19 ec1f 06ef fb04 112b

model/conv_pw_9/Conv2D i1 [128, 1, 1, 128]
43 -1 11 14 -19 -28 -11 -16
20 51 4 44 -3 -7 10 5
-11 21 -17 5 -27 43 -2 35
19 -6 4 3 3 -1 -37 -13
-21 18 -32 -19 13 -65 -42 2
0 8 -17 15 -17 14 -3 -12
49 12 4 -6 4 -21 7 9
9 17 -20 -30 28 29 43 -17
-1 -7 -2 1 -2 -13 -12 20
4 -4 7 -7 14 -11 -6 -48
33 -12 -47 -11 1 12 26 -2
22 10 35 -48 9 5 16 -36
-14 38 5 -12 83 3 1 -4
14 -15 -37 5 1 8 26 15
27 -16 3 1 10 29 -17 34
-6 11 1 8 22 127 5 28
18 44 49 -16 -17 10 12 28
87 6 -23 -30 -35 -20 -60 -20
57 -6 5 -1 -53 -27 15 0
-49 -34 -72 10 -29 -8 -127 -16
-1 -28 -5 0 38 -3 70 -4
17 10 28 8 -69 116 88 -7
24 -74 -28 3 -18 -16 6 15
-29 13 13 0 -45 23 -39 82
-42 12 23 -33 -9 -42 -60 36
-42 -26 -1 1 28 -16 28 -8
19 49 -38 9 -19 -2 -7 77
-2 4 5 7 32 22 -12 32
-5 -16 -35 50 44 -20 -17 22
3 25 23 3 -9 40 -38 -24
32 12 -56 17 12 -4 7 36
-11 16 -9 -87 37 15 18 -38
00000000: 2bff 0b0e ede4 f5f0 1433 042c fdf9 0a05
00000010: f515 ef05 e52b fe23 13fa 0403 03ff dbf3
00000020: eb12 e0ed 0dbf d602 0008 ef0f ef0e fdf4
00000030: 310c 04fa 04eb 0709 0911 ece2 1c1d 2bef
00000040: fff9 fe01 fef3 f414 04fc 07f9 0ef5 fad0
00000050: 21f4 d1f5 010c 1afe 160a 23d0 0905 10dc
00000060: f226 05f4 5303 01fc 0ef1 db05 0108 1a0f
00000070: 1bf0 0301 0a1d ef22 fa0b 0108 167f 051c
00000080: 122c 31f0 ef0a 0c1c 5706 e9e2 ddec c4ec
00000090: 39fa 05ff cbe5 0f00 cfde b80a e3f8 81f0
000000a0: ffe4 fb00 26fd 46fc 110a 1c08 bb74 58f9
000000b0: 18b6 e403 eef0 060f e30d 0d00 d317 d952
000000c0: d60c 17df f7d6 c424 d6e6 ff01 1cf0 1cf8
000000d0: 1331 da09 edfe f94d fe04 0507 2016 f420
000000e0: fbf0 dd32 2cec ef16 0319 1703 f728 dae8
000000f0: 200c c811 0cfc 0724 f510 f7a9 250f 12da

model/conv_pw_10/Conv2D i1 [128, 1, 1, 128]
2 46 -23 -2 30 26 -14 -3
-37 -55 62 16 -44 -50 21 17
66 31 -48 26 -57 -56 27 -12
127 -55 -2 39 28 -66 47 32
-26 -5 30 29 50 49 -43 -25
53 115 -15 1 -117 32 10 25
-23 -17 52 3 -22 -7 11 -52
54 -42 -52 -28 16 29 -28 -13
43 -55 -66 -39 -44 -93 9 -31
-18 1 21 -25 69 -33 -1 -4
-39 -5 42 20 -37 -2 76 -5
-29 -16 -27 6 -58 52 8 -90
-12 -71 -31 -22 34 12 20 87
30 54 10 -9 17 -9 30 -58
-66 -53 23 -47 51 89 -5 -2
30 30 102 58 9 -32 19 -8
127 45 10 -6 -60 -17 0 19
-87 -30 43 -22 2 -10 50 -36
-7 1 13 8 -75 8 -5 -61
-27 7 54 12 37 -95 0 -29
-40 -14 -26 -19 11 1 -58 -46
-4 54 -19 -32 -44 -38 20 -51
-49 11 58 -5 4 10 36 -11
26 -54 19 14 -80 19 -33 18
12 -81 26 -16 -43 -62 -43 -22
-1 33 -20 -36 16 -1 -9 -41
-8 5 24 -18 -66 -53 -3 -32
50 -3 -39 -35 -69 -54 7 -75
-56 -42 -16 -59 54 -38 74 -14
0 45 21 11 -50 -49 -26 -15
13 -21 -27 -54 -9 11 -19 6
-26 -23 45 7 -4 3 78 28
00000000: 022e e9fe 1e1a f2fd dbc9 3e10 d4ce 1511
00000010: 421f d01a c7c8 1bf4 7fc9 fe27 1cbe 2f20
00000020: e6fb 1e1d 3231 d5e7 3573 f101 8b20 0a19
00000030: e9ef 3403 eaf9 0bcc 36d6 cce4 101d e4f3
00000040: 2bc9 bed9 d4a3 09e1 ee01 15e7 45df fffc
00000050: d9fb 2a14 dbfe 4cfb e3f0 e506 c634 08a6
00000060: f4b9 e1ea 220c 1457 1e36 0af7 11f7 1ec6
00000070: becb 17d1 3359 fbfe 1e1e 663a 09e0 13f8
00000080: 7f2d 0afa c4ef 0013 a9e2 2bea 02f6 32dc
00000090: f901 0d08 b508 fbc3 e507 360c 25a1 00e3
000000a0: d8f2 e6ed 0b01 c6d2 fc36 ede0 d4da 14cd
000000b0: cf0b 3afb 040a 24f5 1aca 130e b013 df12
000000c0: 0caf 1af0 d5c2 d5ea ff21 ecdc 10ff f7d7
000000d0: f805 18ee becb fde0 32fd d9dd bbca 07b5
000000e0: c8d6 f0c5 36da 4af2 002d 150b cecf e6f1
000000f0: 0deb e5ca f70b ed06 e6e9 2d07 fc03 4e1c

model/conv_pw_11/Conv2D i1 [128, 1, 1, 128]
-86 68 -5 -90 0 -43 4 71
99 33 1 8 -115 23 127 -53
-13 44 22 -1 -109 78 -35 -53
-12 -21 72 30 28 18 -25 50
35 0 -49 -40 14 33 119 -17
-38 46 -110 10 -84 1 -15 -7
-45 -71 45 38 -10 -40 50 -105
-67 -12 46 5 8 38 -53 -42
56 4 37 24 -23 -10 1 85
44 -21 -43 -74 -4 57 -88 -66
-7 -47 -13 0 -36 79 18 87
-20 44 61 21 22 -25 -6 -35
-37 -7 -4 -35 38 24 -47 -48
12 -49 -57 -4 -26 -10 -47 -60
-21 -38 40 -54 102 -9 71 9
-93 44 -48 26 -21 93 43 -10
50 -57 -49 33 9 17 -85 10
-38 17 34 -26 8 27 -52 -33
19 -8 -6 25 81 -34 19 38
29 -9 -30 14 22 13 28 35
30 -43 43 -2 -12 -45 2 24
-31 28 -3 36 -1 19 -35 14
24 7 -64 -26 -44 17 -11 -16
63 18 -21 -10 5 -9 -4 -6
-23 -8 -8 -6 1 -18 -24 -8
21 29 25 4 -58 -59 40 9
-36 0 17 38 4 -127 -31 -37
-42 6 -47 14 -40 -16 3 12
17 10 -3 17 -5 34 56 60
-40 -91 -8 5 2 -10 -11 25
4 24 -26 25 -4 -12 63 15
-42 -41 4 13 -26 -37 -16 -2
00000000: aa44 fba6 00d5 0447 6321 0108 8d17 7fcb
00000010: f32c 16ff 934e ddcb f4eb 481e 1c12 e732
00000020: 2300 cfd8 0e21 77ef da2e 920a ac01 f1f9
00000030: d3b9 2d26 f6d8 3297 bdf4 2e05 0826 cbd6
00000040: 3804 2518 e9f6 0155 2ceb d5b6 fc39 a8be
00000050: f9d1 f300 dc4f 1257 ec2c 3d15 16e7 fadd
00000060: dbf9 fcdd 2618 d1d0 0ccf c7fc e6f6 d1c4
00000070: ebda 28ca 66f7 4709 a32c d01a eb5d 2bf6
00000080: 32c7 cf21 0911 ab0a da11 22e6 081b ccdf
00000090: 13f8 fa19 51de 1326 1df7 e20e 160d 1c23
000000a0: 1ed5 2bfe f4d3 0218 e11c fd24 ff13 dd0e
000000b0: 1807 c0e6 d411 f5f0 3f12 ebf6 05f7 fcfa
000000c0: e9f8 f8fa 01ee e8f8 151d 1904 c6c5 2809
000000d0: dc00 1126 0481 e1db d606 d10e d8f0 030c
000000e0: 110a fd11 fb22 383c d8a5 f805 02f6 f519
000000f0: 0418 e619 fcf4 3f0f d6d7 040d e6db f0fe

model/conv_pw_12/Conv2D i1 [256, 1, 1, 128]
-19 -18 34 77 13 4 40 22
-29 14 2 6 -2 -6 21 -3
-12 -40 -24 32 18 7 19 34
44 7 -45 24 -18 -21 -15 -5
-38 -28 5 37 -33 -8 -17 -9
19 30 7 46 2 3 -15 29
16 -127 54 50 -5 26 -18 -7
-11 -1 -38 -7 30 -10 -10 18
36 11 42 -13 -5 -38 15 -17
-15 -6 1 -27 -44 25 -9 32
-1 1 23 14 -56 -24 31 -23
-4 -50 33 21 65 -33 -20 11
32 19 -29 26 0 41 62 40
-1 57 -22 3 23 55 3 15
-8 -16 -13 10 7 -9 -12 -1
-18 -26 -25 18 9 67 -15 -4
23 7 -40 -10 -10 -30 -31 -29
38 37 -10 52 45 35 20 11
-51 -18 -47 -30 -100 -42 0 19
14 -45 62 -25 9 -102 -3 127
13 -14 -2 52 -4 14 26 48
102 -32 47 -17 0 -2 72 15
-2 106 -37 63 22 -57 -26 -111
-48 40 65 -32 16 9 -5 -2
-1 -44 -2 5 31 28 -11 -37
-21 40 35 4 -20 -19 89 21
82 -9 99 -2 -110 25 -8 65
8 47 -65 -43 6 19 35 12
-57 -31 -61 -6 -41 -77 -32 73
0 40 -16 -13 -34 31 20 1
2 -33 -45 -36 77 -13 59 -16
88 -33 5 49 9 -8 -20 -22
00000000: edee 224d 0d04 2816 e30e 0206 fefa 15fd
00000010: f4d8 e820 1207 1322 2c07 d318 eeeb f1fb
00000020: dae4 0525 dff8 eff7 131e 072e 0203 f11d
00000030: 1081 3632 fb1a eef9 f5ff daf9 1ef6 f612
00000040: 240b 2af3 fbda 0fef f1fa 01e5 d419 f720
00000050: ff01 170e c8e8 1fe9 fcce 2115 41df ec0b
00000060: 2013 e31a 0029 3e28 ff39 ea03 1737 030f
00000070: f8f0 f30a 07f7 f4ff eee6 e712 0943 f1fc
00000080: 1707 d8f6 f6e2 e1e3 2625 f634 2d23 140b
00000090: cdee d1e2 9cd6 0013 0ed3 3ee7 099a fd7f
000000a0: 0df2 fe34 fc0e 1a30 66e0 2fef 00fe 480f
000000b0: fe6a db3f 16c7 e691 d028 41e0 1009 fbfe
000000c0: ffd4 fe05 1f1c f5db eb28 2304 eced 5915
000000d0: 52f7 63fe 9219 f841 082f bfd5 0613 230c
000000e0: c7e1 c3fa d7b3 e049 0028 f0f3 de1f 1401
000000f0: 02df d3dc 4df3 3bf0 58df 0531 09f8 ecea

model/conv_pw_13/Conv2D i1 [256, 1, 1, 256]
-13 30 -22 50 -11 18 -38 21
-5 -54 -42 26 -21 13 6 -10
-49 5 6 7 -23 5 1 -46
18 12 30 -18 -22 -46 -18 21
27 18 -16 -10 -18 -9 -16 -43
6 31 -8 9 21 -14 -5 7
-34 -1 -7 -9 14 30 26 -29
55 2 -33 7 9 16 4 -14
6 6 24 44 -8 -41 -17 13
17 0 44 -4 32 -24 -19 87
7 33 3 -47 -11 28 -10 -36
-27 27 21 -5 -7 2 -4 8
-82 1 -68 -15 15 -20 51 2
31 -24 -38 26 7 -13 -4 -21
-73 -27 17 -30 12 58 35 -75
32 27 25 -5 29 9 -50 2
-3 35 -32 23 -4 -7 -70 -9
24 11 32 -21 1 -1 29 -40
11 1 -10 8 8 8 -53 23
-80 -9 10 -62 -2 -13 -9 14
-4 -45 -1 -127 46 13 -5 0
-39 11 11 45 3 13 -2 -8
21 -25 27 -10 14 -15 -17 18
4 7 -14 17 7 -17 10 30
-20 -27 7 -13 3 -28 76 -8
-8 13 23 3 -20 8 7 10
-1 -24 10 -27 -15 -12 -21 -13
-1 -15 21 -41 -1 -12 -22 -56
-4 35 -22 -43 16 -21 1 28
7 -8 -19 -19 2 58 14 5
-7 53 32 -9 -6 -66 -15 42
-3 6 -99 33 -17 9 31 -9
00000000: f31e ea32 f512 da15 fbca d61a eb0d 06f6
00000010: cf05 0607 e905 01d2 120c 1eee ead2 ee15
00000020: 1b12 f0f6 eef7 f0d5 061f f809 15f2 fb07
00000030: deff f9f7 0e1e 1ae3 3702 df07 0910 04f2
00000040: 0606 182c f8d7 ef0d 1100 2cfc 20e8 ed57
00000050: 0721 03d1 f51c f6dc e51b 15fb f902 fc08
00000060: ae01 bcf1 0fec 3302 1fe8 da1a 07f3 fceb
00000070: b7e5 11e2 0c3a 23b5 201b 19fb 1d09 ce02
00000080: fd23 e017 fcf9 baf7 180b 20eb 01ff 1dd8
00000090: 0b01 f608 0808 cb17 b0f7 0ac2 fef3 f70e
000000a0: fcd3 ff81 2e0d fb00 d90b 0b2d 030d fef8
000000b0: 15e7 1bf6 0ef1 ef12 0407 f211 07ef 0a1e
000000c0: ece5 07f3 03e4 4cf8 f80d 1703 ec08 070a
000000d0: ffe8 0ae5 f1f4 ebf3 fff1 15d7 fff4 eac8
000000e0: fc23 ead5 10eb 011c 07f8 eded 023a 0e05
000000f0: f935 20f7 fabe f12a fd06 9d21 ef09 1ff7

model/conv_dw_1_bn/FusedBatchNormV3;model/conv_dw_1/depthwise i1 [1, 3, 3, 8]
-18 0 -125 109 6 -9 -12 -58
4 26 -107 127 -6 12 10 -127
6 -2 -127 87 4 9 3 -118
18 39 -111 123 32 127 34 -99
-83 -127 -107 126 -127 -6 -37 -112
-50 20 -122 105 20 8 -110 -110
-1 23 -108 110 -3 -6 47 14
-127 -47 -101 93 25 7 -85 30
-5 14 -113 73 0 9 -127 -5
00000000: ee00 836d 06f7 f4c6 041a 957f fa0c 0a81
00000010: 06fe 8157 0409 038a 1227 917b 207f 229d
00000020: ad81 957e 81fa db90 ce14 8669 1408 9292
00000030: ff17 946e fdfa 2f0e 81d1 9b5d 1907 ab1e
00000040: fb0e 8f49 0009 81fb

model/conv_dw_2_bn/FusedBatchNormV3;model/conv_dw_2/depthwise i1 [1, 3, 3, 16]
29 -35 -44 103 22 -4 -10 13
50 22 -52 15 2 79 -8 -61
127 -127 112 127 -127 18 11 24
85 127 58 -127 45 56 -21 -127
-12 -24 127 107 -103 -34 -3 -1
47 115 127 -61 -10 54 4 -24
16 -1 -32 -76 63 -11 -9 51
70 -41 8 -60 -2 86 -35 51
41 -7 23 77 -125 36 -18 109
127 19 22 -66 127 95 -91 77
5 13 2 117 -112 -127 21 34
82 -31 55 -68 0 115 -34 29
-25 44 18 -83 2 2 127 -59
27 30 20 47 10 51 50 13
-56 51 -40 -13 -51 10 -90 -127
45 -56 -30 104 42 127 127 30
-23 4 -57 66 -37 -36 -15 -27
47 -16 -74 37 -2 96 41 -1
00000000: 1ddd d467 16fc f60d 3216 cc0f 024f f8c3
00000010: 7f81 707f 8112 0b18 557f 3a81 2d38 eb81
00000020: f4e8 7f6b 99de fdff 2f73 7fc3 f636 04e8
00000030: 10ff e0b4 3ff5 f733 46d7 08c4 fe56 dd33
00000040: 29f9 174d 8324 ee6d 7f13 16be 7f5f a54d
00000050: 050d 0275 9081 1522 52e1 37bc 0073 de1d
00000060: e72c 12ad 0202 7fc5 1b1e 142f 0a33 320d
00000070: c833 d8f3 cd0a a681 2dc8 e268 2a7f 7f1e
00000080: e904 c742 dbdc f1e5 2ff0 b625 fe60 29ff

model/conv_dw_3_bn/FusedBatchNormV3;model/conv_dw_3/depthwise;model/conv_dw_4/depthwise i1 [1, 3, 3, 32]
-21 91 -14 -55 24 -20 28 -69
-36 127 -127 -18 0 24 9 13
2 -19 39 20 19 -42 -2 -16
12 54 2 50 -64 -3 -30 -1
23 70 20 -28 -48 -91 -14 -21
-30 60 113 20 -127 127 -5 -78
27 -4 15 98 127 127 4 -54
4 -127 -25 -6 -28 16 -94 -8
-5 108 -2 -20 12 127 -8 -8
-22 -3 3 -7 25 3 48 6
-6 -4 -30 12 3 -38 -4 -127
12 40 21 -1 16 -7 21 0
94 127 -127 127 -56 17 127 127
127 -97 116 -127 -2 -19 100 -28
-25 40 127 -26 -23 23 16 9
-15 -20 -11 -127 127 75 -127 -10
-127 51 110 34 127 38 -96 59
21 -19 -92 126 6 -123 127 -127
-127 127 40 -127 -102 -93 127 44
-127 59 -112 -63 34 -127 -105 -127
23 -38 16 -37 -43 -109 -24 -37
-27 -9 -9 1 16 -8 13 -9
1 -41 -8 -24 -10 32 4 33
21 -13 127 37 -34 57 10 -3
6 67 -12 51 -4 1 11 62
43 -23 8 -12 2 0 32 10
15 -11 -4 9 3 7 -7 6
-5 -2 3 -54 4 17 -104 6
-7 -10 9 3 14 23 -13 28
-12 -2 -6 15 10 -18 61 -5
34 -9 8 14 -20 -33 16 12
14 15 -12 -27 -23 -15 -101 -8
00000000: eb5b f2c9 18ec 1cbb dc7f 81ee 0018 090d
00000010: 02ed 2714 13d6 fef0 0c36 0232 c0fd e2ff
00000020: 1746 14e4 d0a5 f2eb e23c 7114 817f fbb2
00000030: 1bfc 0f62 7f7f 04ca 0481 e7fa e410 a2f8
00000040: fb6c feec 0c7f f8f8 eafd 03f9 1903 3006
00000050: fafc e20c 03da fc81 0c28 15ff 10f9 1500
00000060: 5e7f 817f c811 7f7f 7f9f 7481 feed 64e4
00000070: e728 7fe6 e917 1009 f1ec f581 7f4b 81f6
00000080: 8133 6e22 7f26 a03b 15ed a47e 0685 7f81
00000090: 817f 2881 9aa3 7f2c 813b 90c1 2281 9781
000000a0: 17da 10db d593 e8db e5f7 f701 10f8 0df7
000000b0: 01d7 f8e8 f620 0421 15f3 7f25 de39 0afd
000000c0: 0643 f433 fc01 0b3e 2be9 08f4 0200 200a
000000d0: 0ff5 fc09 0307 f906 fbfe 03ca 0411 9806
000000e0: f9f6 0903 0e17 f31c f4fe fa0f 0aee 3dfb
000000f0: 22f7 080e ecdf 100c 0e0f f4e5 e9f1 9bf8

model/conv_dw_4_bn/FusedBatchNormV3;model/conv_dw_4/depthwise i1 [1, 3, 3, 32]
-63 60 50 -54 49 48 -68 61
-64 86 -7 64 -79 70 16 48
-16 21 64 6 68 -79 61 -57
-66 47 73 39 41 78 36 102
-79 83 89 -113 89 94 -70 88
-85 101 86 95 -99 109 22 80
8 127 71 16 83 66 85 -83
81 91 98 75 83 127 64 40
-31 44 47 -63 62 52 -38 36
-55 44 -75 56 -39 44 5 42
-2 82 27 41 29 13 31 -35
6 46 43 53 47 62 38 -31
-82 90 79 84 97 61 -77 101
-99 107 -6 90 -97 84 -88 93
47 34 91 98 96 -127 103 -86
-114 75 92 90 86 -71 107 127
-127 127 127 127 127 127 -127 127
-127 127 127 127 -127 127 -123 127
88 125 127 126 127 112 127 -127
127 127 127 127 127 -98 127 90
-60 77 64 52 66 71 -69 54
-53 49 -117 65 -50 44 -60 58
42 83 59 88 55 2 47 -49
-13 71 60 62 62 -48 70 19
-23 36 32 -7 53 24 -33 50
-40 45 7 39 -22 20 77 57
86 2 40 103 41 -50 48 -34
-57 32 38 62 37 -5 81 58
-61 68 47 -10 72 52 -80 64
-26 54 53 51 -30 13 127 61
127 38 56 127 63 52 50 -60
48 46 46 75 55 1 102 87
00000000: c13c 32ca 3130 bc3d c056 f940 b146 1030
00000010: f015 4006 44b1 3dc7 be2f 4927 294e 2466
00000020: b153 598f 595e ba58 ab65 565f 9d6d 1650
00000030: 087f 4710 5342 55ad 515b 624b 537f 4028
00000040: e12c 2fc1 3e34 da24 c92c b538 d92c 052a
00000050: fe52 1b29 1d0d 1fdd 062e 2b35 2f3e 26e1
00000060: ae5a 4f54 613d b365 9d6b fa5a 9f54 a85d
00000070: 2f22 5b62 6081 67aa 8e4b 5c5a 56b9 6b7f
00000080: 817f 7f7f 7f7f 817f 817f 7f7f 817f 857f
00000090: 587d 7f7e 7f70 7f81 7f7f 7f7f 7f9e 7f5a
000000a0: c44d 4034 4247 bb36 cb31 8b41 ce2c c43a
000000b0: 2a53 3b58 3702 2fcf f347 3c3e 3ed0 4613
000000c0: e924 20f9 3518 df32 d82d 0727 ea14 4d39
000000d0: 5602 2867 29ce 30de c720 263e 25fb 513a
000000e0: c344 2ff6 4834 b040 e636 3533 e20d 7f3d
000000f0: 7f26 387f 3f34 32c4 302e 2e4b 3701 6657

model/conv_dw_5_bn/FusedBatchNormV3;model/conv_dw_5/depthwise;model/conv_dw_6/depthwise i1 [1, 3, 3, 64]
22 7 -127 4 29 -34 -42 -10
-32 62 8 39 4 54 43 -43
-65 13 -17 -23 -4 -126 26 -102
0 30 -59 0 32 62 -59 60
-95 -67 -47 61 -27 -9 13 -6
109 -38 -30 6 -13 -3 -4 -9
25 -37 -4 23 -1 -6 4 -34
-125 27 52 9 -21 7 -3 23
-39 127 6 -77 -49 2 -9 -14
127 -106 -53 -44 79 -59 -61 41
40 -39 -11 -17 26 116 20 62
-127 -19 -16 -20 49 75 19 -34
127 77 -96 -126 -93 29 36 14
-127 -17 -109 33 -62 127 -50 5
15 60 0 -47 -6 -125 127 -47
121 -56 -92 -60 57 -29 55 111
19 22 63 11 4 31 -10 -8
11 16 22 -10 -7 20 11 11
43 23 21 -7 -11 9 20 67
-33 -12 58 -5 18 -33 22 -44
-38 15 90 46 -3 -14 -4 -8
1 -17 -18 -9 6 52 -2 1
-27 -6 -11 18 -1 -27 -15 24
-11 -7 -106 -2 28 2 42 2
-48 -21 117 -14 -48 -127 4 12
-12 127 -51 127 51 86 -32 -127
45 81 -22 -6 6 127 -5 127
34 127 127 8 28 73 -16 127
43 -50 28 -96 -127 -82 11 6
-97 -25 35 36 6 -38 -1 7
1 -111 -4 27 -11 28 -18 -1
12 -33 56 -35 -23 -4 -18 -38
00000000: 1607 8104 1dde d6f6 e03e 0827 0436 2bd5
00000010: bf0d efe9 fc82 1a9a 001e c500 203e c53c
00000020: a1bd d13d e5f7 0dfa 6dda e206 f3fd fcf7
00000030: 19db fc17 fffa 04de 831b 3409 eb07 fd17
00000040: d97f 06b3 cf02 f7f2 7f96 cbd4 4fc5 c329
00000050: 28d9 f5ef 1a74 143e 81ed f0ec 314b 13de
00000060: 7f4d a082 a31d 240e 81ef 9321 c27f ce05
00000070: 0f3c 00d1 fa83 7fd1 79c8 a4c4 39e3 376f
00000080: 1316 3f0b 041f f6f8 0b10 16f6 f914 0b0b
00000090: 2b17 15f9 f509 1443 dff4 3afb 12df 16d4
000000a0: da0f 5a2e fdf2 fcf8 01ef eef7 0634 fe01
000000b0: e5fa f512 ffe5 f118 f5f9 96fe 1c02 2a02
000000c0: d0eb 75f2 d081 040c f47f cd7f 3356 e081
000000d0: 2d51 eafa 067f fb7f 227f 7f08 1c49 f07f
000000e0: 2bce 1ca0 81ae 0b06 9fe7 2324 06da ff07
000000f0: 0191 fc1b f51c eeff 0cdf 38dd e9fc eeda

model/conv_dw_6_bn/FusedBatchNormV3;model/conv_dw_6/depthwise i1 [1, 3, 3, 64]
-80 -64 67 -70 66 -111 82 -79
63 59 -62 66 -107 -70 52 -67
33 16 69 -60 -62 39 117 -70
69 99 -63 -77 -40 -91 41 -49
-75 -77 -76 76 -101 77 56 -52
65 71 69 -67 -48 87 52 -90
46 64 -71 127 -78 -40 -54 -64
-115 42 90 -67 69 -87 81 53
-92 85 96 -92 98 51 74 -86
87 58 -90 76 -127 -99 65 -93
65 -79 127 -74 -78 62 127 -91
53 -57 -81 -83 -95 -104 71 -106
-97 100 -111 97 -120 100 82 -69
94 94 88 -78 -64 100 66 -88
65 100 -105 99 -80 -60 -73 -94
-60 81 127 -75 83 -21 127 88
-57 87 53 -37 42 -61 47 -20
37 32 -33 35 -55 -42 28 -40
37 -127 78 -39 -17 34 24 -58
19 -4 -27 -38 -42 -18 45 -43
-50 55 -40 64 -54 41 51 -25
57 22 40 -36 -43 51 31 -68
34 51 -64 19 -39 -47 -39 -51
-18 57 56 -39 50 52 58 34
-98 -83 88 -93 91 73 91 -96
110 99 -83 83 25 -87 102 -86
84 40 -80 -85 -85 97 76 -93
124 127 -97 -79 -85 -96 55 -93
-105 -127 -125 105 -103 102 77 -97
116 106 93 -83 88 103 92 -99
101 98 -100 13 -105 -89 -83 -76
-58 79 97 -85 91 -127 -78 98
00000000: b0c0 43ba 4291 52b1 3f3b c242 95ba 34bd
00000010: 2110 45c4 c227 75ba 4563 c1b3 d8a5 29cf
00000020: b5b3 b44c 9b4d 38cc 4147 45bd d057 34a6
00000030: 2e40 b97f b2d8 cac0 8d2a 5abd 45a9 5135
00000040: a455 60a4 6233 4aaa 573a a64c 819d 41a3
00000050: 41b1 7fb6 b23e 7fa5 35c7 afad a198 4796
00000060: 9f64 9161 8864 52bb 5e5e 58b2 c064 42a8
00000070: 4164 9763 b0c4 b7a2 c451 7fb5 53eb 7f58
00000080: c757 35db 2ac3 2fec 2520 df23 c9d6 1cd8
00000090: 2581 4ed9 ef22 18c6 13fc e5da d6ee 2dd5
000000a0: ce37 d840 ca29 33e7 3916 28dc d533 1fbc
000000b0: 2233 c013 d9d1 d9cd ee39 38d9 3234 3a22
000000c0: 9ead 58a3 5b49 5ba0 6e63 ad53 19a9 66aa
000000d0: 5428 b0ab ab61 4ca3 7c7f 9fb1 aba0 37a3
000000e0: 9781 8369 9966 4d9f 746a 5dad 5867 5c9d
000000f0: 6562 9c0d 97a7 adb4 c64f 61ab 5b81 b262

model/conv_dw_7_bn/FusedBatchNormV3;model/conv_dw_7/depthwise;model/conv_dw_12/depthwise i1 [1, 3, 3, 128]
-7 -1 11 36 14 10 13 15
19 -6 -39 -2 28 4 24 2
29 -35 7 3 -21 -4 20 2
2 -3 3 17 3 -10 0 -9
2 35 -29 10 26 -16 -28 -38
19 -13 0 -8 -16 10 4 -75
-7 -2 4 25 9 0 -8 5
7 -111 2 33 15 3 16 29
-9 5 -13 25 2 10 19 -67
-27 0 0 -15 -11 19 120 -14
2 -2 -36 -7 -5 -6 92 8
-8 24 1 4 0 42 39 -28
127 -10 26 1 -1 -127 -21 -5
-22 14 13 -3 -8 -20 -14 0
-2 16 7 13 -2 -25 2 22
0 -39 -2 7 -15 9 7 19
-29 -32 24 127 13 18 45 -127
36 -127 -117 -45 99 0 -22 -9
127 -127 -5 -30 -127 -17 68 -42
-26 -1 4 7 -39 -9 -31 -18
-11 127 -120 17 127 -25 -21 1
-28 -33 25 -124 -101 3 -10 -55
-12 -21 -2 53 2 -16 -20 29
4 116 4 120 -18 43 2 25
7 17 -8 127 18 -9 -40 63
-42 2 -29 -112 3 127 -1 -16
-10 -15 -70 -72 -13 -12 10 -7
-16 -32 0 -6 -11 127 38 -85
87 4 112 -9 -10 118 -62 -20
-67 127 -20 -15 127 -30 -127 -5
2 6 -8 -28 -7 -57 9 45
-23 20 -12 23 3 52 -9 8
00000000: f9ff 0b24 0e0a 0d0f 13fa d9fe 1c04 1802
00000010: 1ddd 0703 ebfc 1402 02fd 0311 03f6 00f7
00000020: 0223 e30a 1af0 e4da 13f3 00f8 f00a 04b5
00000030: f9fe 0419 0900 f805 0791 0221 0f03 101d
00000040: f705 f319 020a 13bd e500 00f1 f513 78f2
00000050: 02fe dcf9 fbfa 5c08 f818 0104 002a 27e4
00000060: 7ff6 1a01 ff81 ebfb ea0e 0dfd f8ec f200
00000070: fe10 070d fee7 0216 00d9 fe07 f109 0713
00000080: e3e0 187f 0d12 2d81 2481 8bd3 6300 eaf7
00000090: 7f81 fbe2 81ef 44d6 e6ff 0407 d9f7 e1ee
000000a0: f57f 8811 7fe7 eb01 e4df 1984 9b03 f6c9
000000b0: f4eb fe35 02f0 ec1d 0474 0478 ee2b 0219
000000c0: 0711 f87f 12f7 d83f d602 e390 037f fff0
000000d0: f6f1 bab8 f3f4 0af9 f0e0 00fa f57f 26ab
000000e0: 5704 70f7 f676 c2ec bd7f ecf1 7fe2 81fb
000000f0: 0206 f8e4 f9c7 092d e914 f417 0334 f708

model/conv_dw_8_bn/FusedBatchNormV3;model/conv_dw_8/depthwise;model/conv_dw_12/depthwise i1 [1, 3, 3, 128]
43 3 -42 -6 127 -6 10 1
-5 -5 -25 6 -11 11 43 2
-2 -7 4 -6 34 97 -6 -14
2 2 -43 -60 10 14 -14 81
1 -10 22 14 -6 -8 -4 93
-10 66 11 9 4 20 14 8
-108 4 -10 46 -36 -9 -3 -20
-3 50 -17 -22 -59 -13 -5 -20
25 -23 11 1 -4 -53 2 33
0 -6 -5 11 -8 17 -7 -9
-4 35 14 -74 -6 -7 25 2
-11 3 -10 5 2 30 2 -7
25 21 -38 -22 -49 24 -1 3
-19 -31 12 -27 19 3 -76 -35
-6 -33 0 12 15 8 -27 9
57 -35 15 -7 4 -52 5 48
-3 -4 -127 5 14 -4 55 -12
-34 122 -39 11 -10 127 -67 1
-25 -8 -7 -7 -81 32 -38 14
-37 -39 -78 -35 -4 -41 18 127
-69 93 3 9 -71 -4 -9 18
-1 -2 125 -3 -12 13 127 -13
-127 3 -26 5 -35 11 3 -48
-3 42 -13 -49 -5 -25 -18 25
-28 -54 27 -31 -49 14 91 -31
-39 45 -3 -17 -8 -6 5 1
-6 -7 -32 -97 -13 127 127 2
1 -109 3 -4 -1 127 -21 5
-6 -8 111 -43 -123 -72 22 -31
-91 -8 1 22 11 -12 -126 -65
-32 -62 -13 47 19 -7 3 -13
-106 -38 4 -25 -3 -57 -8 68
00000000: 2b03 d6fa 7ffa 0a01 fbfb e706 f50b 2b02
00000010: fef9 04fa 2261 faf2 0202 d5c4 0a0e f251
00000020: 01f6 160e faf8 fc5d f642 0b09 0414 0e08
00000030: 9404 f62e dcf7 fdec fd32 efea c5f3 fbec
00000040: 19e9 0b01 fccb 0221 00fa fb0b f811 f9f7
00000050: fc23 0eb6 faf9 1902 f503 f605 021e 02f9
00000060: 1915 daea cf18 ff03 ede1 0ce5 1303 b4dd
00000070: fadf 000c 0f08 e509 39dd 0ff9 04cc 0530
00000080: fdfc 8105 0efc 37f4 de7a d90b f67f bd01
00000090: e7f8 f9f9 af20 da0e dbd9 b2dd fcd7 127f
000000a0: bb5d 0309 b9fc f712 fffe 7dfd f40d 7ff3
000000b0: 8103 e605 dd0b 03d0 fd2a f3cf fbe7 ee19
000000c0: e4ca 1be1 cf0e 5be1 d92d fdef f8fa 0501
000000d0: faf9 e09f f37f 7f02 0193 03fc ff7f eb05
000000e0: faf8 6fd5 85b8 16e1 a5f8 0116 0bf4 82bf
000000f0: e0c2 f32f 13f9 03f3 96da 04e7 fdc7 f844

model/conv_dw_9_bn/FusedBatchNormV3;model/conv_dw_9/depthwise;model/conv_dw_12/depthwise i1 [1, 3, 3, 128]
-4 -5 -17 2 -66 -6 5 47
-37 -11 -64 -10 -8 6 0 -2
-6 33 56 2 -19 -3 21 4
-26 45 22 -40 10 -10 2 7
-14 -4 83 -16 -21 -100 9 0
-25 34 -14 -8 -9 -14 -37 -81
-51 26 13 -37 -6 -15 -39 -1
1 54 -9 -7 15 -37 5 -99
59 6 4 -6 24 -11 -3 55
4 15 11 -13 -10 20 -49 15
-65 3 43 6 -118 -19 -11 4
-11 -6 -4 -103 55 -30 20 11
-24 -24 -34 40 -12 30 -15 26
-22 -35 78 -6 5 33 -3 -107
14 -5 -20 3 73 0 2 -25
50 24 27 -5 -40 -2 22 -7
-95 -6 -47 -8 -61 6 -119 99
-77 66 -45 -3 -41 54 9 -4
15 -56 95 7 -59 -6 -21 -15
7 127 2 90 44 -9 -123 -5
127 -2 127 -34 -62 -77 -8 11
-127 10 -45 11 127 5 -18 -117
-123 10 2 -42 -13 92 -75 0
2 68 -9 57 93 -26 5 -76
-114 37 8 5 9 12 -28 127
8 40 -22 -81 53 127 -16 19
-74 -30 35 37 9 -17 -4 31
-12 54 127 -127 10 -75 50 -10
71 36 -5 -9 8 65 -96 23
-46 -68 -34 -38 0 -1 15 15
44 2 -43 -28 68 -14 1 -92
56 127 -50 28 -127 -30 59 -16
00000000: fcfb ef02 befa 052f dbf5 c0f6 f806 00fe
00000010: fa21 3802 edfd 1504 e62d 16d8 0af6 0207
00000020: f2fc 53f0 eb9c 0900 e722 f2f8 f7f2 dbaf
00000030: cd1a 0ddb faf1 d9ff 0136 f7f9 0fdb 059d
00000040: 3b06 04fa 18f5 fd37 040f 0bf3 f614 cf0f
00000050: bf03 2b06 8aed f504 f5fa fc99 37e2 140b
00000060: e8e8 de28 f41e f11a eadd 4efa 0521 fd95
00000070: 0efb ec03 4900 02e7 3218 1bfb d8fe 16f9
00000080: a1fa d1f8 c306 8963 b342 d3fd d736 09fc
00000090: 0fc8 5f07 c5fa ebf1 077f 025a 2cf7 85fb
000000a0: 7ffe 7fde c2b3 f80b 810a d30b 7f05 ee8b
000000b0: 850a 02d6 f35c b500 0244 f739 5de6 05b4
000000c0: 8e25 0805 090c e47f 0828 eaaf 357f f013
000000d0: b6e2 2325 09ef fc1f f436 7f81 0ab5 32f6
000000e0: 4724 fbf7 0841 a017 d2bc deda 00ff 0f0f
000000f0: 2c02 d5e4 44f2 01a4 387f ce1c 81e2 3bf0

model/conv_dw_10_bn/FusedBatchNormV3;model/conv_dw_10/depthwise;model/conv_dw_12/depthwise i1 [1, 3, 3, 128]
11 -8 -99 -1 1 -6 -11 110
17 -8 1 -21 -38 -30 6 14
47 17 79 5 2 -9 16 56
51 15 -5 118 -11 -7 52 9
127 -5 24 64 -6 -8 5 -38
37 -33 21 -13 -9 -27 30 6
45 -4 14 -7 -12 0 -23 -72
-5 30 8 -84 -4 -10 30 1
11 11 19 31 -49 31 15 -3
-11 -127 -29 35 21 -54 22 8
19 -50 -1 2 -2 97 12 24
-102 15 40 -24 100 -19 5 -2
38 -114 -49 121 -3 3 -20 23
-63 -3 -15 -74 -7 -64 -71 -1
62 -87 -34 4 21 -5 -23 43
-32 67 -27 3 -44 -76 -51 26
3 -4 47 4 6 15 -5 127
127 -50 -4 -32 -36 11 13 43
32 59 -31 -17 19 -79 3 119
110 -3 -18 -51 -14 -3 -32 11
90 -16 -19 -9 -4 -23 33 -89
97 -55 127 18 -54 -29 12 16
127 9 64 -22 -42 -18 -11 -116
-20 75 25 -127 -8 -9 -61 54
-28 0 1 -60 -59 -46 20 17
65 110 -47 -127 -30 -64 8 21
127 -62 -11 -2 4 -44 27 127
5 127 -27 -21 43 -75 -7 31
-12 -32 -43 52 -4 -14 -19 60
-88 -4 -49 57 -4 -1 110 -19
70 -81 3 35 50 1 -37 127
-104 -9 -127 18 -57 -127 -127 -13
00000000: 0bf8 9dff 01fa f56e 11f8 01eb dae2 060e
00000010: 2f11 4f05 02f7 1038 330f fb76 f5f9 3409
00000020: 7ffb 1840 faf8 05da 25df 15f3 f7e5 1e06
00000030: 2dfc 0ef9 f400 e9b8 fb1e 08ac fcf6 1e01
00000040: 0b0b 131f cf1f 0ffd f581 e323 15ca 1608
00000050: 13ce ff02 fe61 0c18 9a0f 28e8 64ed 05fe
00000060: 268e cf79 fd03 ec17 c1fd f1b6 f9c0 b9ff
00000070: 3ea9 de04 15fb e92b e043 e503 d4b4 cd1a
00000080: 03fc 2f04 060f fb7f 7fce fce0 dc0b 0d2b
00000090: 203b e1ef 13b1 0377 6efd eecd f2fd e00b
000000a0: 5af0 edf7 fce9 21a7 61c9 7f12 cae3 0c10
000000b0: 7f09 40ea d6ee f58c ec4b 1981 f8f7 c336
000000c0: e400 01c4 c5d2 1411 416e d181 e2c0 0815
000000d0: 7fc2 f5fe 04d4 1b7f 057f e5eb 2bb5 f91f
000000e0: f4e0 d534 fcf2 ed3c a8fc cf39 fcff 6eed
000000f0: 46af 0323 3201 db7f 98f7 8112 c781 81f3
